saved_model/DAP_Model_TLF.pt (torch, 230994 bytes, 12 tensors)

lstm1.weight_ih_l0 f4 [256, 3]
0	0xbcb2ace5	-0.021810958
1	0x3ddd805c	0.10815498
2	0xbdf5e532	-0.12006606
3	0x3d59cc2d	0.053173233
4	0x3d30ffcb	0.043212693
5	0xbe0d4569	-0.13796009
6	0x3d06d2f9	0.032916043
7	0x3e30fa2d	0.17282934
8	0x3d1f7dc7	0.03893831
9	0x3dc2f39b	0.0951912
10	0x3cd14b3a	0.025548566
11	0xbc93423c	-0.017975919
12	0xbdc5720e	-0.09640895
13	0x3de7c685	0.113171615
14	0xbe046d4d	-0.1293232
15	0xbd62b578	-0.055348843
16	0xbd96f1af	-0.07370316
17	0xbeab2176	-0.33423966
18	0x3ca27706	0.019832145
19	0xbd8d9c68	-0.06914598
20	0xbe265990	-0.16245103
21	0x3d8dcb8a	0.069235876
22	0x3caf5141	0.02140105
23	0xbdad29b4	-0.0845522
24	0xbce7b6c1	-0.028285386
25	0xbe312e01	-0.17302705
26	0xbd940215	-0.072269596
27	0xbe00d920	-0.12582827
28	0x3aeb4be7	0.0017951698
29	0x3dce064b	0.10059794
30	0x3cf67359	0.030084299
31	0x3d4a05a8	0.0493218
32	0xbe6c7477	-0.23091303
33	0xbbbb67fc	-0.005719183
34	0x3da83d07	0.08214765
35	0x3e906be7	0.28207323
36	0x3d256b16	0.04038533
37	0xbd768aee	-0.060191087
38	0x3cef86c9	0.029239075
39	0x3a8f3530	0.0010925885
40	0xbda8122c	-0.08206591
41	0x3daeb1b8	0.08529991
42	0x3c05cd25	0.008166586
43	0xbd279fd6	-0.040923916
44	0x3da2c732	0.0794815
45	0x3e06b6b7	0.13155638
46	0x3d8e3fd6	0.069457695
47	0x3da91782	0.08256437
48	0x3c010396	0.00787439
49	0xbe187bb6	-0.14890942
50	0x3e1f7a24	0.15573937
51	0x3d3c3745	0.045951147
52	0x3aa47f2e	0.001255011
53	0xbd81ea54	-0.06343523
54	0xbdc994c5	-0.09842829
55	0xbe1e6daf	-0.15471528
56	0xbde2d26a	-0.110752895
57	0xbd636b7e	-0.055522434
58	0xbdb6c177	-0.08923619
59	0x3e0980d2	0.13428047
60	0x3da8babe	0.08238743
61	0xbca24c9f	-0.019811926
62	0x3dfe38c4	0.12413171
63	0xbe18b3d3	-0.14912347
64	0xb912a344	-0.00013984466
65	0xbc9183dd	-0.017763073
66	0x3de7150e	0.11283313
67	0x3d84a2f0	0.0647639
68	0xbe4feebb	-0.20305912
69	0xbe11f293	-0.14252691
70	0xbdbf9dbe	-0.09356259
71	0x3d8067df	0.06269812
72	0xbd27c6f7	-0.040961232
73	0xbd9a448a	-0.07532604
74	0x3d7343eb	0.059390943
75	0xbb850e80	-0.0040605664
76	0x3d8c6d5b	0.068567954
77	0xbe4d59ae	-0.20053741
78	0xbdae344d	-0.08506069
79	0x3daf290a	0.085527495
80	0x3d575898	0.052574724
81	0x3d0268a2	0.031838067
82	0x3b66544f	0.0035145467
83	0x3a4b179c	0.00077473535
84	0xbc8059a9	-0.015667753
85	0xbd814dad	-0.063136436
86	0xbd9125ba	-0.07087274
87	0x3c9bb979	0.019009339
88	0x3d38012d	0.044922996
89	0x3e89849b	0.26858982
90	0xbdf7df4f	-0.121031396
91	0xbd4e32db	-0.05034147
92	0xbe076c83	-0.13224988
93	0x3d903ced	0.07042871
94	0x3d616b27	0.05503383
95	0x3c47ac0e	0.012187017
96	0x3e2e65be	0.17030999
97	0x3cfad899	0.03062086
98	0xbdc5e018	-0.09661883
99	0xbc34dfb0	-0.011039659
100	0xbd57c03f	-0.052673575
101	0xbe56e2f8	-0.20985019
102	0x3d6337c1	0.055473093
103	0x3dcdea4c	0.10054454
104	0xbe24fea1	-0.16112758
105	0xbd4d7ea1	-0.05016959
106	0xbd263387	-0.040576484
107	0x3e90bc5c	0.28268707
108	0x3d9ea9d2	0.077472344
109	0xbc8b9a8d	-0.017041469
110	0xbd4ce961	-0.050027255
111	0x3e1715e1	0.1475444
112	0x3d3f2945	0.046670217
113	0x3e092ca4	0.13395935
114	0x3d62b7b5	0.055350978
115	0x3dad8516	0.0847265
116	0x3e847eca	0.25877982
117	0xbd904631	-0.07044638
118	0xbd4cc098	-0.04998836
119	0xbc664eb3	-0.014056849
120	0x3e079756	0.13241324
121	0x3cf8e5dd	0.030383045
122	0xbdfb874f	-0.122816674
123	0x3e013a73	0.12619953
124	0xbdc17745	-0.09446577
125	0xbd8da9a6	-0.069171235
126	0xbd6eed87	-0.058331992
127	0x3dac077e	0.083998665
128	0x3d0e925d	0.03480755
129	0xbd8d4470	-0.06897819
130	0xbdb58dc7	-0.088649325
131	0xbd8787a7	-0.066176705
132	0xbd3df25d	-0.046373714
133	0xbd2142bb	-0.03937028
134	0x3e36aa7b	0.1783847
135	0xbd0c445f	-0.03424489
136	0x3d0d0067	0.03442421
137	0xbd573e20	-0.05254948
138	0xbda0d697	-0.0785343
139	0xbe4d5617	-0.20052372
140	0x3d4358d8	0.04769215
141	0x3d9c8086	0.076417014
142	0xbdbadfc8	-0.09124714
143	0x3d8899d2	0.06669964
144	0x3e110ac4	0.14164263
145	0xbdc1fa1f	-0.09471535
146	0x3e41bc38	0.18919456
147	0x3dbba95c	0.09163162
148	0xbc96fe9e	-0.018431958
149	0x3e759921	0.23984195
150	0x3dda2199	0.106509395
151	0xbdd91481	-0.10599614
152	0xbc30df69	-0.010795453
153	0xbde65e2f	-0.11248433
154	0x3d716211	0.058931414
155	0x3dd4a100	0.10382271
156	0x3e11a188	0.14221776
157	0xbd83e113	-0.06439414
158	0x3e3484ac	0.17628735
159	0x3db2f065	0.08737258
160	0xbd618649	-0.055059705
161	0xbc49548b	-0.012288223
162	0x3d88cb37	0.06679385
163	0xbda122c0	-0.07867956
164	0x3d14a285	0.036287803
165	0x3d2707d2	0.040778942
166	0x3e03ab29	0.12858261
167	0xbdae31a4	-0.08505562
168	0xbe246c81	-0.16057016
169	0xbd622baf	-0.05521744
170	0x3d6efc06	0.058345817
171	0xbda88d35	-0.08230058
172	0x3c8fe0ee	0.01756331
173	0xbd343eea	-0.044005312
174	0x3ceed322	0.02915341
175	0xbd51add2	-0.05119116
176	0xbe8da836	-0.27667397
177	0xbdaae743	-0.08344891
178	0x3d6467f8	0.055763215
179	0x3e627558	0.22115076
180	0x3dbb8649	0.09156472
181	0xbe154ac2	-0.14579299
182	0x3a876094	0.0010328465
183	0x3bb6b10b	0.0055753044
184	0xbe4c4cf3	-0.19951229
185	0xbd8b063c	-0.067882985
186	0xbdbd598c	-0.09245595
187	0x3d803203	0.06259539
188	0x3ddda449	0.108223505
189	0x3e31980b	0.17343156
190	0xbde0bfae	-0.1097406
191	0x3d3e399e	0.046441667
192	0xbde9f2f7	-0.11423295
193	0x3d1d0234	0.03833218
194	0xbe34d429	-0.17659058
195	0xbd13abfc	-0.03605269
196	0x3d020a85	0.031748313
197	0xbdde4913	-0.108537816
198	0x3cd9124e	0.026497986
199	0x3e041455	0.12898381
200	0xbe121fb4	-0.14269906
201	0xbd002f8d	-0.031295348
202	0x3d924475	0.071419634
203	0xbe4cc2ae	-0.1999614
204	0xbdbd4dbc	-0.09243342
205	0x3cf75f39	0.030196773
206	0x3d2d28c2	0.042275198
207	0x3c2a5c2e	0.010397954
208	0x3df86745	0.12129072
209	0xbea2d4d7	-0.3180301
210	0xbcea72cf	-0.028619198
211	0xbd200ef0	-0.039076746
212	0xbe1f39b6	-0.15549359
213	0xbd5b8acd	-0.053599168
214	0x3c6cb705	0.014447932
215	0x3c9a633b	0.018846145
216	0xbbd4d776	-0.0064954115
217	0xbda3f609	-0.08005912
218	0xbdfbda01	-0.1229744
219	0xbe8b2e75	-0.2718388
220	0xbde43960	-0.11143756
221	0xbc2a9138	-0.010410599
222	0xbdc77140	-0.097383976
223	0x3e16c762	0.14724496
224	0xbe32af64	-0.17449719
225	0x3e0315fb	0.12801354
226	0x3d0eabea	0.03483192
227	0x3e870f32	0.2637878
228	0x3dfa68ca	0.12227018
229	0x3d232549	0.03983048
230	0xbd00dcac	-0.03146045
231	0x3da00f88	0.07815462
232	0xbe282d9d	-0.1642365
233	0x3d326234	0.043550685
234	0x3dec8cf6	0.11550324
235	0x3d24a1be	0.040193312
236	0xbdb953b1	-0.09049166
237	0xbd2a2316	-0.041537367
238	0x3e4b076a	0.19827047
239	0x3e35df8f	0.17761062
240	0x3d03938f	0.032123145
241	0xbe260682	-0.1621342
242	0x3dc2dabf	0.09514379
243	0xbd1f46bd	-0.03888582
244	0xbd52e27a	-0.051485516
245	0xbc03acfc	-0.008036848
246	0x3b9be4c3	0.004757495
247	0xbdde4f1a	-0.10854931
248	0xbd52bcfc	-0.05144976
249	0x3db3f19f	0.0878632
250	0xbdc75abc	-0.09734103
251	0xbc85d7b2	-0.016338203
252	0x3db13cfc	0.0865421
253	0xbc9b66fd	-0.018970007
254	0xbbac76c0	-0.0052631795
255	0xbcc42ffb	-0.02394866

lstm1.weight_hh_l0 f4 [256, 64]
0	0x3dba5472	0.09098138
1	0xbc178112	-0.009247081
2	0xbe6a38b5	-0.22873195
3	0x3d4fa76f	0.050696786
4	0xbd352f57	-0.0442346
5	0xbde1cd2b	-0.11025461
6	0x3d7da785	0.061927337
7	0xbcdfd1f5	-0.027321795
8	0xbd2821ce	-0.041047864
9	0x3d017cf4	0.031613305
10	0x3c898e4c	0.016791485
11	0x3e5c07ad	0.21487303
12	0xbc9a5bcd	-0.018842602
13	0xbdd5021f	-0.10400795
14	0x3dbac696	0.091199085
15	0xbba155f2	-0.0049235756
16	0xbdb24876	-0.08705227
17	0x3d1a1ba8	0.03762403
18	0xbe3b436a	-0.18287435
19	0x3d6226c9	0.05521277
20	0x3cfaac78	0.030599818
21	0x3def2d73	0.116785906
22	0xbe07ce27	-0.13262235
23	0x3da88d10	0.082300305
24	0xbdf25aad	-0.11833701
25	0xbe79e147	-0.24402343
26	0xbd22c580	-0.039739132
27	0x3e5aa2e5	0.21351202
28	0x3d269ed0	0.0406788
29	0xbd209a30	-0.039209545
30	0xbcfbd55f	-0.030741392
31	0x3df91553	0.121622704
32	0xbe4a4948	-0.19754517
33	0xbd0bbd8d	-0.034116317
34	0xbde85ff1	-0.11346424
35	0xbdbd1955	-0.09233347
36	0x3c7a8b44	0.015291993
37	0x3e045f84	0.12927061
38	0x3e1b074f	0.15139507
39	0xbc81275e	-0.015765842
40	0xbcc01754	-0.023448624
41	0x3dc81fd9	0.097716995
42	0xbdc76593	-0.097361706
43	0xbe6bd943	-0.23032098
44	0xbd034242	-0.03204561
45	0x3dfe97ae	0.12431274
46	0xbe91ee57	-0.2850215
47	0xbd731210	-0.059343398
48	0x3da72104	0.08160594
49	0x3bfa242c	0.0076337066
50	0x3dc60c1f	0.09670281
51	0xbca568b9	-0.020191537
52	0x3e2784c0	0.16359234
53	0x3c0ffab8	0.008787803
54	0xbe1f67a1	-0.15566875
55	0xbcd4c9f7	-0.02597521
56	0x3e7e2419	0.24818458
57	0x3de53127	0.11191016
58	0xbded5053	-0.11587586
59	0xbe2470ee	-0.16058704
60	0x3db83e95	0.089963116
61	0xbe17177a	-0.1475505
62	0xbe43de45	-0.19127758
63	0xbc33ead4	-0.01098128
64	0x3d1b7a49	0.037958417
65	0xbcb44a85	-0.02200819
66	0xbca4d160	-0.020119369
67	0x3de26a42	0.11055423
68	0x3da2b76e	0.07945143
69	0x3d674353	0.05646069
70	0x3c2c914b	0.010532687
71	0xbc806f3c	-0.01567804
72	0xbe08e262	-0.13367608
73	0xbe918885	-0.2842447
74	0x3d224882	0.03961993
75	0x3e17c350	0.148206
76	0x3cf050a0	0.02933532
77	0x3d44abb0	0.048015296
78	0xbe68ce81	-0.22735025
79	0xbbdc894a	-0.0067302333
80	0xbcbf2534	-0.02333317
81	0xbe39ce8b	-0.18145196
82	0x3d4c5abb	0.049891215
83	0xbdd8caf5	-0.10585586
84	0xbc827335	-0.015924076
85	0xbccbb91a	-0.024868537
86	0xbd8e322f	-0.069431655
87	0x3e0e931b	0.13923304
88	0xbdeacda5	-0.11465005
89	0x3ddd486a	0.108048275
90	0x3e0ccfeb	0.1375119
91	0xbd1ba439	-0.03799841
92	0x3d50f15c	0.05101143
93	0x3da45e3b	0.080257855
94	0xbd834ca9	-0.06411106
95	0xbdf5944d	-0.11991177
96	0x3e31b2dc	0.17353386
97	0x3e4b0abe	0.19828317
98	0xbc477cc9	-0.012175747
99	0x3da4b105	0.08041576
100	0xbd8eee33	-0.06979027
101	0x3c8d6b19	0.017262982
102	0x3d1bb025	0.03800978
103	0x3db2a1d3	0.08722272
104	0x3dedbd3c	0.11608359
105	0x3d98028c	0.07422361
106	0x3e1c7f6d	0.15282984
107	0x3e200080	0.1562519
108	0xbde0e3e7	-0.10980969
109	0x3e1dd99d	0.15415044
110	0xbc8648c2	-0.016392116
111	0xbd99691e	-0.07490753
112	0xbd5350a3	-0.051590573
113	0x3d25f344	0.0405152
114	0xbe555f11	-0.20837046
115	0x3e30429a	0.17212906
116	0x3e11ff9b	0.14257662
117	0x3da7c51e	0.08191894
118	0x3e1c6605	0.15273292
119	0x3a995666	0.0011698722
120	0x3db47953	0.08812203
121	0xbd177d5c	-0.036984786
122	0x3db41e09	0.08794791
123	0xbd055658	-0.032553047
124	0xbc6be879	-0.0143986875
125	0x3e693051	0.22772337
126	0x3d5fd0a6	0.054642342
127	0x3d18d6b0	0.037314117
128	0xbc80d8b1	-0.015728327
129	0xbe030133	-0.12793426
130	0xbda201b8	-0.07910484
131	0x3e0531db	0.130073
132	0x3ddd17c2	0.10795547
133	0x3df73d59	0.12072248
134	0xbe12b3f1	-0.14326455
135	0x3d95fb11	0.07323278
136	0xbdd75bbf	-0.10515546
137	0xbc402136	-0.011726668
138	0xbd5b1641	-0.05348802
139	0x3e208aad	0.156779
140	0xbc8cff8e	-0.017211702
141	0xbe04f66d	-0.12984629
142	0x3c98e792	0.018665109
143	0x3e2ea3de	0.17054698
144	0xbb287faa	-0.002571086
145	0xbc7c5cb2	-0.01540296
146	0xbe034ae8	-0.12821543
147	0x3e45e250	0.19324613
148	0x3c7e6337	0.015526584
149	0x3d24db53	0.040248226
150	0x3d2a3e37	0.04156324
151	0xbd9a9073	-0.07547083
152	0xbde32efc	-0.11092946
153	0xbd9e4bb0	-0.0772928
154	0xbdae3aa2	-0.08507277
155	0x3d8c530f	0.0685178
156	0xbd938513	-0.07203116
157	0xbc1e5ef9	-0.009666198
158	0xbdbf55ef	-0.093425624
159	0x3e207310	0.15668893
160	0xbe03e78d	-0.12881298
161	0x3bb3192a	0.0054656463
162	0xbdb0c5fc	-0.086315125
163	0x3d3c7f75	0.04601999
164	0x3d28b7df	0.04119098
165	0x3e58e214	0.21179992
166	0x3c9875bf	0.018610833
167	0xbc872204	-0.016495712
168	0xbdf68fc6	-0.12039141
169	0x3cabd529	0.020975666
170	0xbbd440f8	-0.0064774714
171	0xbddf0540	-0.10889673
172	0xbd9a394b	-0.07530459
173	0x3d0e5f7a	0.034759022
174	0xbd611ae0	-0.05495727
175	0x3cca0ba5	0.024663756
176	0x3d0b348a	0.033985652
177	0x3dce1b1b	0.10063764
178	0xbc3bfeed	-0.011474353
179	0x3db1b267	0.08676606
180	0x3d59ef0e	0.053206496
181	0xbd153a85	-0.03643276
182	0xbe27fe32	-0.16405562
183	0x3cec7bbd	0.028867597
184	0xbd884b7c	-0.066550225
185	0xbda3910a	-0.079866484
186	0x3d792368	0.06082478
187	0xbcbeb83d	-0.023281211
188	0x3dc3e158	0.09564465
189	0xbba0e915	-0.004910598
190	0xbdf5a17d	-0.11993692
191	0xb98c8c54	-0.00026807433
192	0xbdf2c52c	-0.11854014
193	0xbe7e654a	-0.24843326
194	0x3de29547	0.11063629
195	0x3e0c29fc	0.13687891
196	0xbbe320bf	-0.006931394
197	0xbd6c2b58	-0.057658523
198	0x3daaa45b	0.083321296
199	0x3df8f9bb	0.12157007
200	0x3d977804	0.07395938
201	0x3dabd314	0.08389869
202	0x3dcc6c41	0.09981585
203	0x3df3a255	0.11896197
204	0xbd2f93f0	-0.042865694
205	0xbd9407a6	-0.07228021
206	0x3d6c7f19	0.057738397
207	0x3e53aac5	0.20670612
208	0x3e89a47f	0.26883313
209	0xbd538399	-0.051639173
210	0x3e54e149	0.20789064
211	0x3d1d2764	0.038367644
212	0x3dc9ee4f	0.09859907
213	0x3d7bf8e0	0.061516643
214	0xbe1861a9	-0.14881004
215	0xbe13c5b7	-0.14430891
216	0xbdb90cdb	-0.09035655
217	0xbe7311ed	-0.23737307
218	0xbd11286b	-0.035438936
219	0x3e17a120	0.14807558
220	0x3e0d5bf0	0.13804603
221	0x3de10613	0.10987487
222	0xbe1c39b8	-0.15256393
223	0x3d87b12f	0.06625592
224	0xbe4c4eca	-0.1995193
225	0xbd8c9962	-0.06865193
226	0x3cfe80f8	0.031067356
227	0xbe039a87	-0.12851916
228	0xbdbfe0ef	-0.093690746
229	0x3dbd7d24	0.09252384
230	0x3cf70f40	0.030158639
231	0xbe191b45	-0.14951809
232	0xbe09c720	-0.13454866
233	0xbd680f99	-0.0566555
234	0xbd4ac0ac	-0.049500152
235	0x3d9d279d	0.07673571
236	0x3e46ec89	0.19426169
237	0x3dbe5cdd	0.09295056
238	0xbe12572f	-0.1429107
239	0xbdf6275b	-0.12019225
240	0x3e758d15	0.239796
241	0x3e10f3f6	0.14155564
242	0xbe20b825	-0.15695246
243	0x3d92b254	0.0716292
244	0x3dc4fc6d	0.09618459
245	0xbe470ed8	-0.19439256
246	0xbdef2896	-0.11677663
247	0x3ccc4a21	0.024937691
248	0xbb3ef214	-0.002913599
249	0x3ce6410a	0.028107185
250	0xbddd80ea	-0.10815604
251	0x3c300c05	0.010745053
252	0x3cb1e229	0.021714287
253	0xbcb9fdfe	-0.02270412
254	0xbc5e3a5b	-0.013563718
255	0xbcfe1aeb	-0.031018695

lstm1.bias_ih_l0 f4 [256]
0	0x3da0533c	0.07828376
1	0x3cb38830	0.021915525
2	0xbdd75bf1	-0.10515583
3	0x3cc88c8f	0.024481086
4	0xbe1ac98f	-0.15115951
5	0x3deeb1e9	0.116550274
6	0xbceee2b8	-0.029160842
7	0xbc628088	-0.01382459
8	0xbd064b7d	-0.032786835
9	0xbd480451	-0.04883224
10	0xbd28f99d	-0.041253675
11	0x3dda3e7c	0.10656449
12	0x3cccbbe5	0.024991939
13	0xbce1df26	-0.027572226
14	0xbd69ca1a	-0.057077505
15	0xbc6ea08c	-0.014564645
16	0xbd51951e	-0.0511676
17	0x3dd2391b	0.10264798
18	0x3e161427	0.14656125
19	0xbd7c2330	-0.061556995
20	0xbdbcf1ec	-0.092258304
21	0xbc1a65b9	-0.009423667
22	0xbdbeae6f	-0.09310614
23	0xbca19ce6	-0.019728135
24	0x3da911a2	0.08255316
25	0xbccf128b	-0.025277397
26	0xbdc4332b	-0.09580072
27	0x3e0e2b39	0.13883676
28	0xbcd4b9c9	-0.025967496
29	0xbe16fac3	-0.14744096
30	0xbd6c2700	-0.05765438
31	0xbdfcbde3	-0.123409055
32	0xbc84d662	-0.016215507
33	0x3dbd82b2	0.09253444
34	0xbdf70de4	-0.12063196
35	0x3dcd1cb3	0.100152396
36	0x3d126789	0.03574327
37	0xbd30c81f	-0.0431596
38	0xbd150491	-0.036381308
39	0xbcb09515	-0.021555463
40	0xbc17dbae	-0.009268684
41	0xbd3e0462	-0.0463909
42	0x3e1fc3af	0.15601991
43	0xbe120424	-0.14259392
44	0x3db63a88	0.08897883
45	0x3c22f446	0.009945935
46	0xbdc1a9d4	-0.0945622
47	0xbde07226	-0.10959272
48	0xbc3d2885	-0.011545305
49	0xbcf92ded	-0.030417407
50	0xbdf70883	-0.1206217
51	0xbdbc8196	-0.09204404
52	0x3e06e60f	0.13173698
53	0xbd3a0dae	-0.045423202
54	0x3dc4b44d	0.09604702
55	0xbda34f89	-0.079741545
56	0x3cdd8dd8	0.027045175
57	0x3c58813a	0.013214404
58	0x3d876dd7	0.06612747
59	0xbdbbe775	-0.09175006
60	0xbdee6996	-0.11641233
61	0xbdba93d1	-0.09110225
62	0x3ba41fb7	0.0050086635
63	0x3da6d492	0.08146013
64	0x3db6eb31	0.08931578
65	0x3de8757b	0.113505326
66	0x3dde4624	0.10853222
67	0x3d8d3723	0.06895282
68	0xbdcdf931	-0.10057295
69	0x3e28590b	0.16440217
70	0x3d022e1b	0.03178225
71	0xbe14dd63	-0.14537577
72	0x3d7841e5	0.060609717
73	0xbc94b636	-0.018153291
74	0x3dfe8aa0	0.12428784
75	0xbd6dd281	-0.05806208
76	0x3e27f566	0.16402206
77	0xbc340876	-0.010988345
78	0x3d95cb5a	0.07314177
79	0xbdd5cd14	-0.10439506
80	0xbdf4a244	-0.11945012
81	0xbe1c68ca	-0.15274349
82	0x3d595abf	0.053065058
83	0x3cc1e490	0.023668557
84	0xbd554276	-0.052065335
85	0xbc59f0ac	-0.01330201
86	0xbd709206	-0.05873301
87	0x3d3ab530	0.04558295
88	0xbd41e427	-0.047336724
89	0x3d9e93d3	0.07743039
90	0x3c651963	0.013983103
91	0x3e1545c4	0.14577395
92	0xbdded082	-0.108796135
93	0xbe00d1d7	-0.12580048
94	0x3cfca92a	0.030842382
95	0xbdb2187c	-0.08696076
96	0x3e0742c7	0.13209067
97	0xbceebe56	-0.029143494
98	0x3d60f836	0.054924212
99	0xbe10d418	-0.14143407
100	0x3d1de42d	0.038547684
101	0xbbb4aa9f	-0.0055135037
102	0x3e2cc9b2	0.16873816
103	0x3e5b7402	0.21430972
104	0xbd153f0a	-0.03643707
105	0xbe2d31c5	-0.16913517
106	0x3d6bcfc3	0.057571184
107	0x3cc84b97	0.024450107
108	0x3e01ae1c	0.12664074
109	0xbd599469	-0.05312005
110	0xbda494fe	-0.080362305
111	0xbd66497e	-0.05622243
112	0xbddaf710	-0.10691655
113	0xbd206507	-0.039158847
114	0xbd26c04d	-0.040710736
115	0xbdc17259	-0.09445638
116	0x3e681e76	0.2266787
117	0x3c837e86	0.016051542
118	0x3e5b736b	0.21430747
119	0x3e1ac2f3	0.1511343
120	0x3ddf0fdd	0.108916976
121	0xbc061e22	-0.008185895
122	0xbd76cdd5	-0.06025489
123	0xbd207256	-0.03917154
124	0xbe0e093c	-0.1387071
125	0x3e054bf8	0.13017261
126	0x3e01e421	0.1268468
127	0xbd110d92	-0.035413332
128	0x3d3ddc45	0.046352644
129	0x3e014221	0.12622882
130	0x3d3fa041	0.04678369
131	0x3d9ff6ce	0.07810746
132	0xbd617386	-0.055041812
133	0x3c520321	0.012818129
134	0x3ca73098	0.020408913
135	0x3c72a94b	0.01481087
136	0xbd741b47	-0.059596326
137	0x3d3eccc5	0.046582002
138	0xbe5c25f8	-0.21498859
139	0xbc65a73a	-0.014016921
140	0xbd154af8	-0.03644845
141	0xbe28a696	-0.16469797
142	0xbcb5c533	-0.022188758
143	0xbd9d0646	-0.07667212
144	0x3df4a0e3	0.11944749
145	0xbd245c02	-0.040126808
146	0xbb563491	-0.003268514
147	0x3ce3eeb2	0.02782378
148	0xbd9c1ed0	-0.076230645
149	0x3dbfa8e1	0.09358383
150	0xbc027b21	-0.0079639265
151	0x3b68dd28	0.003553221
152	0x3e10d776	0.14144692
153	0x3c8f2d3b	0.017477622
154	0x3d40a574	0.04703279
155	0x3db8c1ba	0.090213254
156	0xbe119bea	-0.14219633
157	0x3dec5820	0.11540246
158	0xbcfa179b	-0.030528834
159	0xbd9625b9	-0.07331414
160	0xbd024ff9	-0.03181455
161	0x39abab90	0.00032743486
162	0x3cfe3b37	0.031034095
163	0x3e479286	0.19489488
164	0x3e49861a	0.19680062
165	0x3cdd784f	0.027034907
166	0xbe224a31	-0.15848614
167	0x3d021e19	0.031766985
168	0xbdcbe496	-0.09955709
169	0x3c1f3804	0.009717945
170	0xbd84bfa8	-0.06481868
171	0xbc4c7c13	-0.0124807535
172	0xbe54b69c	-0.20772785
173	0x3d931b81	0.0718298
174	0x3d95c9c1	0.07313872
175	0xbd6a2538	-0.0571644
176	0x3cfa97ea	0.030590016
177	0x3c77f2f1	0.015133605
178	0x3e04a532	0.12953642
179	0xbe441594	-0.19148856
180	0xbde3c77f	-0.11122035
181	0xbcb74a8f	-0.02237442
182	0x3d47d934	0.048791125
183	0xbe1aa53c	-0.15102094
184	0xbd806f7e	-0.062712654
185	0xbe30ee6b	-0.17278449
186	0xbc8f75bf	-0.0175122
187	0x3d7b3205	0.061327
188	0xbd3a74a3	-0.04552139
189	0x3d512802	0.051063545
190	0x3e4cf1d8	0.20014131
191	0x3e55a5cc	0.20864028
192	0x3e093bfe	0.13401791
193	0xbd8ee29a	-0.069768146
194	0x3d5ae4e0	0.05344093
195	0xbcd91aaf	-0.026501982
196	0xbe2175d3	-0.15767603
197	0x3e1eaba5	0.15495165
198	0x3d8c54cc	0.06852111
199	0xbe2ced8e	-0.16887495
200	0xbd5e2c76	-0.05424162
201	0xbd77c57a	-0.060491063
202	0x3d9cf97d	0.076647736
203	0x3e0933ce	0.13398668
204	0x3d50665e	0.050878875
205	0x3cca5819	0.024700211
206	0xbd020536	-0.03174325
207	0x3d3d14d8	0.046162456
208	0xbdc8dc8d	-0.09807692
209	0x3c6a5d1e	0.014304427
210	0xbb44d20e	-0.003003243
211	0xbd17b1d2	-0.037034817
212	0xbd9ee2ad	-0.07758079
213	0xbe0d1952	-0.1377919
214	0xbe197b25	-0.14988382
215	0x3db43e24	0.08800915
216	0x3d5d8ca6	0.05408921
217	0xbe208b9d	-0.15678258
218	0x3cdc79f9	0.02691363
219	0xbc3d1394	-0.011540312
220	0x3dfc9ce2	0.123346105
221	0xbc4d6be2	-0.012537928
222	0xbd4357be	-0.0476911
223	0x3d42c8ca	0.04755477
224	0xbd852c7d	-0.06502626
225	0xbca80e9e	-0.020514783
226	0x3db12ad1	0.08650745
227	0x3e0b7b44	0.13621241
228	0xbbbc9c75	-0.005755956
229	0x3b108e1f	0.0022057367
230	0x3d9144ab	0.070931755
231	0x3e3b879b	0.18313448
232	0x3d6dcafd	0.058054913
233	0x3e12592b	0.14291827
234	0x3d437030	0.047714412
235	0x3d3b43f0	0.045719087
236	0xbd893616	-0.06699769
237	0x3bef6aca	0.0073064314
238	0x3da4befb	0.08044239
239	0x3de0d0c4	0.10977319
240	0x3c63d0c8	0.013904758
241	0x3e090e1b	0.13384287
242	0x3e0eef77	0.13958536
243	0x3dbdd951	0.092699654
244	0xbcc492e6	-0.023995828
245	0x3e25e7f2	0.16201761
246	0x3dd22deb	0.102626644
247	0x3db6b61c	0.08921453
248	0x3daf5bf6	0.08562462
249	0x3e04c374	0.12965184
250	0xbdedb454	-0.116066605
251	0xbe03c3b3	-0.12867622
252	0x3d8aa9f4	0.06770697
253	0xbd4fc389	-0.050723586
254	0x3deebb9c	0.116568774
255	0x3d5d9ee8	0.054106623

lstm1.bias_hh_l0 f4 [256]
0	0xbc1c1dbe	-0.009528575
1	0x3d6f136e	0.05836814
2	0x3d68d422	0.05684293
3	0x3d879b31	0.06621397
4	0xbe51ec77	-0.2050036
5	0x3dedf363	0.11618688
6	0xbd869f8b	-0.06573399
7	0x3c9803be	0.018556472
8	0x3d549925	0.051903863
9	0xbd9428f9	-0.072343774
10	0x3e2dffea	0.16992155
11	0x3dcead90	0.10091698
12	0x3d916e3a	0.07101102
13	0x3dea69ef	0.114459865
14	0xbe176ad5	-0.14786847
15	0x3df5980c	0.11991891
16	0xbded98c8	-0.11601406
17	0xbda1284f	-0.078690164
18	0x3e28d0f1	0.16485955
19	0xbb95d616	-0.00457264
20	0x3d3ad81c	0.045616254
21	0x3d132676	0.03592535
22	0xbe1a1daa	-0.15050378
23	0x3dfbbe19	0.122921176
24	0xbdd221e0	-0.102603674
25	0xbe815630	-0.25261068
26	0xbcdff168	-0.027336791
27	0x3c6d487f	0.014482616
28	0x3ca8d422	0.020608965
29	0xbd71e30c	-0.05905442
30	0xbdf182c6	-0.11792521
31	0x3b315cf2	0.0027063456
32	0xbdae920c	-0.0852395
33	0x3e3c5eb8	0.18395507
34	0xbe00b9bf	-0.12570857
35	0xbde90374	-0.11377612
36	0x3d7b4a8f	0.0613504
37	0xbd3761cf	-0.044771012
38	0x3dd337ce	0.10313378
39	0x3d138ad3	0.036021065
40	0xbe319f99	-0.17346038
41	0x3da4d642	0.08048679
42	0x3cbbc7b3	0.022922372
43	0xbe22c0b4	-0.15893823
44	0x3de16558	0.11005658
45	0xbe0336f3	-0.1281393
46	0x3dd7cccc	0.10537109
47	0x3ca29940	0.019848466
48	0xbe076b56	-0.13224539
49	0x3cb7a032	0.022415254
50	0xbd4f0b1e	-0.05054771
51	0xbcd39b9c	-0.025831036
52	0xbd18b0cf	-0.037277993
53	0xbd48b101	-0.04899693
54	0xba308f9d	-0.0006735267
55	0xbcd51a2e	-0.02601346
56	0xbdfbe7ce	-0.123000726
57	0x3b198fe2	0.0023431708
58	0xbd120fe9	-0.035659704
59	0x3d26bf44	0.04070975
60	0xbe03536c	-0.12824792
61	0xbd2a3015	-0.04154976
62	0x3de56e3b	0.112026654
63	0x3e167de1	0.14696456
64	0x3d20d6f8	0.03926751
65	0x3d250da6	0.04029622
66	0x3c7f0789	0.015565761
67	0x3c07cbef	0.008288368
68	0xbdb3776e	-0.08763014
69	0x3e6a42bf	0.22877024
70	0xbda9fd88	-0.083003104
71	0xbdeb8f01	-0.11501885
72	0xbe14af38	-0.14519966
73	0x3d6402e5	0.055666823
74	0x3dc678fb	0.09691044
75	0xbc0720bb	-0.00824755
76	0x3e56d8ca	0.20981136
77	0xbe2378ae	-0.15964004
78	0x3e19005d	0.14941545
79	0x3d965aa6	0.073415086
80	0xbde42543	-0.111399196
81	0xbe288b46	-0.16459379
82	0xbcf13cfa	-0.029448021
83	0x3bb81b23	0.0056184693
84	0xbccc4e9a	-0.024939824
85	0xbd8ddcd8	-0.06926888
86	0xbdc54c75	-0.09633724
87	0x3dd8a5c5	0.10578493
88	0xbd8ee9d2	-0.069781914
89	0xbd27f89a	-0.04100857
90	0x3dc7bb11	0.09752477
91	0x3e1bfa0d	0.15232106
92	0xbd3eb542	-0.04655958
93	0xbca66954	-0.020313896
94	0x3d49d122	0.04927171
95	0x3e087191	0.13324572
96	0xbbc0f0be	-0.0058880737
97	0x3d4f75b7	0.05064937
98	0xbc09a206	-0.008400446
99	0x3c843ef1	0.016143294
100	0xbe05d928	-0.1307112
101	0xbe142136	-0.14465794
102	0x3d8917b9	0.06693978
103	0x3e588ce8	0.21147501
104	0xbcd5942e	-0.026071634
105	0xbd4035ea	-0.046926416
106	0x3cf40c0a	0.029790897
107	0x3d516fe8	0.051132113
108	0x3e06aaf1	0.13151146
109	0xbc82be11	-0.015959771
110	0xbdba3ca6	-0.09093599
111	0xbdcd6c48	-0.10030419
112	0xbd8c0af5	-0.068380274
113	0x3e1a9164	0.15094525
114	0xbdcbcf24	-0.09951618
115	0x3cb8a06c	0.022537433
116	0x3e1eb211	0.15497614
117	0xbd9f2818	-0.07771319
118	0x3d20f84f	0.039299306
119	0x3cc2d632	0.023783777
120	0x3dea52a7	0.11441546
121	0xbb47a04b	-0.0030460532
122	0xbd2b8ed8	-0.041884273
123	0xbccc5b7c	-0.024945967
124	0x3cbbb1bd	0.0229119
125	0x3c49f92b	0.012327473
126	0x3db8399c	0.08995363
127	0x3db72e72	0.089444056
128	0xbd1e751b	-0.0386859
129	0xbc115d36	-0.008872321
130	0x3d8e18a0	0.069382906
131	0xbc13f075	-0.009029497
132	0x3d3961be	0.04525923
133	0xbd8cfe62	-0.06884457
134	0xbd8db374	-0.069189936
135	0xbd20bbb9	-0.039241526
136	0xbcee552f	-0.029093353
137	0x3cbb1f00	0.02284193
138	0xbce1b0c2	-0.027550105
139	0xbc3ba90d	-0.011453879
140	0xbdc3153a	-0.09525533
141	0xbd03f20b	-0.032213252
142	0x3d9b4882	0.07582189
143	0xbda15e7a	-0.07879348
144	0xbd835104	-0.06411937
145	0x3d51ebf4	0.051250413
146	0xbe0cdf0e	-0.13756964
147	0x3d2e909d	0.042618383
148	0xbbc5a2e2	-0.00603138
149	0xbc970010	-0.018432647
150	0x3db00e17	0.085964374
151	0x3d09ef70	0.03367561
152	0x3dcf1d6d	0.101130344
153	0x3cec16c2	0.028819446
154	0x3dcae281	0.099064834
155	0xbdebff0f	-0.11523258
156	0xbd37bde8	-0.044858843
157	0xbda7e54a	-0.0819803
158	0x3df67de8	0.120357335
159	0xbdd4e1c6	-0.10394625
160	0xbd7f0cfb	-0.06226824
161	0x3e035dfc	0.12828821
162	0x3e5bd806	0.21469125
163	0x3d53dcf3	0.051724385
164	0x3e08f2ba	0.13373843
165	0xbddd0c58	-0.1079337
166	0xbdfd6e2d	-0.1237453
167	0xbd299fca	-0.041412152
168	0xbd542a44	-0.05179812
169	0x3c54f35c	0.0129974745
170	0xbd5446c4	-0.0518253
171	0xbdd48498	-0.10376853
172	0xbd3cbb8e	-0.046077304
173	0xbd4d48b0	-0.05011815
174	0xbcd948a0	-0.026523888
175	0xbda4f99a	-0.0805542
176	0xbe00baba	-0.1257123
177	0xbe1a1d54	-0.1505025
178	0x3c354001	0.011062623
179	0xbd6eff0f	-0.05834871
180	0xbdf02cb3	-0.11727276
181	0xbd65a1a7	-0.056062367
182	0xbd3bca3f	-0.045847174
183	0xbe46eaf9	-0.19425572
184	0xbc3f0d62	-0.011660906
185	0xbcbc6b9f	-0.023000536
186	0x3dba5609	0.09098441
187	0x3dfe3fdc	0.12414524
188	0xbe592340	-0.21204853
189	0x3dc159fd	0.09440992
190	0x3e0e4d9b	0.13896792
191	0x3d2bea2c	0.04197137
192	0x3dc3bba4	0.09557274
193	0x3df20f0a	0.11819275
194	0x3e41b85e	0.18917987
195	0xbcdabdda	-0.026701856
196	0xbe5d3162	-0.2160087
197	0x3df6e5e3	0.12055566
198	0x3debdc3a	0.11516614
199	0xbd84a9aa	-0.06477673
200	0x3d5a3967	0.0532774
201	0x3e0476e4	0.12935978
202	0x3c831a63	0.016003793
203	0xbd837ca7	-0.0642026
204	0xbcd0526f	-0.025429932
205	0xb9f2b9d6	-0.00046296295
206	0xbdf78018	-0.12084979
207	0x3d49af06	0.04923918
208	0xbd0a1ae1	-0.03371704
209	0x3d04e446	0.03244426
210	0x3b9a91eb	0.004717102
211	0x3d64e503	0.055882465
212	0x3df397d0	0.1189419
213	0xbe284eec	-0.16436356
214	0xbc1624b9	-0.009164029
215	0x3e4b096b	0.19827811
216	0xbd8d6e0a	-0.06905754
217	0xbdfdc009	-0.123901434
218	0x3e04214e	0.1290333
219	0x3e1f60f9	0.15564336
220	0xbcc1dbc4	-0.023664363
221	0xbcc67850	-0.024227291
222	0xbe14b5b6	-0.14522442
223	0xbb05648f	-0.0020354127
224	0x3dbc3b4f	0.09191
225	0x3e1f6a32	0.15567854
226	0x3d8ae3a9	0.06781704
227	0x3de6aa30	0.112629294
228	0xbcb5e52a	-0.022204
229	0x3d75049f	0.05981886
230	0x3d73e8b6	0.059548102
231	0x3e44d2a3	0.19220977
232	0x3e1bc3a6	0.15211353
233	0xbd944aff	-0.07240867
234	0xbca65d64	-0.020308204
235	0x3d5e8543	0.054326307
236	0x3dbb91e3	0.09158685
237	0xbdcdde1a	-0.10052128
238	0xbdd4f73a	-0.10398717
239	0xbd67b86d	-0.056572367
240	0xbd3b6044	-0.045746103
241	0x3db500fd	0.08838079
242	0x3ca736de	0.020411905
243	0x3bd5aeef	0.006521098
244	0x3dc23941	0.094835766
245	0x3e254069	0.16137852
246	0x3a480120	0.0007629562
247	0x3e149bc0	0.14512539
248	0xbdbfdbca	-0.09368093
249	0x3ccdd8d7	0.025127811
250	0xbe149ca8	-0.14512885
251	0xbdb60dc8	-0.08889347
252	0x3dd09bbb	0.10185953
253	0xbd52f42d	-0.051502395
254	0x3d3cf687	0.046133544
255	0x3d412c69	0.047161493

lstm2.weight_ih_l0 f4 [256, 64]
0	0x3d374f72	0.0447535
1	0xbe21b3ed	-0.15791292
2	0xbe1567e9	-0.1459042
3	0x3e080968	0.13284838
4	0x3d9f717f	0.077853195
5	0x3dcd98f8	0.10038942
6	0xbb69f585	-0.003569932
7	0xbd3a777e	-0.045524113
8	0xbe32d53b	-0.17464153
9	0xbe0297df	-0.12753247
10	0x3e128289	0.14307608
11	0xbd0c5013	-0.034256052
12	0xbdafed30	-0.08590162
13	0xbdbb4bc1	-0.09145308
14	0xbd905428	-0.070473015
15	0x3d102354	0.03518994
16	0x3d0523e5	0.032504935
17	0x3d67ae0d	0.056562472
18	0xbdcd6df3	-0.10030737
19	0x3dc9e222	0.098575845
20	0xbe387ae9	-0.18015637
21	0xbd6dbe29	-0.05804268
22	0xbcf16476	-0.029466849
23	0x3ca1ccd2	0.019750986
24	0xbe3cf482	-0.18452647
25	0xbd6bf676	-0.05760809
26	0xbe1dae87	-0.15398608
27	0xbca7f075	-0.020500401
28	0x3d235d27	0.03988376
29	0x3d4a3a36	0.04937192
30	0xbcee854f	-0.0291163
31	0x3cdddcca	0.02708282
32	0x3beab53d	0.0071627186
33	0x3d31f1f7	0.043443646
34	0xbe02a9ea	-0.1276013
35	0xbcc8fd32	-0.024534795
36	0xbdcf5044	-0.10122731
37	0x3e39b93b	0.18137066
38	0x3de3189e	0.1108868
39	0xbd749eb2	-0.059721656
40	0x3d78b268	0.060717016
41	0xbd9a17b2	-0.07524051
42	0xbe26b18a	-0.16278663
43	0x3bdaf6c2	0.006682248
44	0x3c424e63	0.011859509
45	0xbdb14d32	-0.08657302
46	0x3d143443	0.036182653
47	0xbdb93a76	-0.09044354
48	0xbd700b6a	-0.058604635
49	0x3e161fd9	0.14660586
50	0xbd6f2ff0	-0.058395326
51	0x3d6d6044	0.057953134
52	0x3e7234da	0.23652974
53	0xbe26e8da	-0.16299763
54	0xbdd78b48	-0.10524613
55	0x3d2c80a9	0.042114887
56	0xbd5b3bd6	-0.05352386
57	0xbc44472c	-0.011979859
58	0x3c4fb802	0.012678148
59	0x3b7e5054	0.0038805204
60	0x3d984465	0.0743492
61	0xbb86280c	-0.0040941294
62	0x3c973ba7	0.018461062
63	0x3d44c4cf	0.048039254
64	0x3e42d14c	0.19025153
65	0x3d313d89	0.043271575
66	0xbe0fb1c0	-0.1403265
67	0x3cdac73d	0.026706332
68	0x3e151dbf	0.14562128
69	0xbd99e90c	-0.07515153
70	0xbe465d72	-0.19371584
71	0x3e1186d7	0.14211594
72	0xbe1bf47e	-0.15229985
73	0xbe27b329	-0.16376938
74	0x3d801dd2	0.06255688
75	0x3c1e5842	0.009664597
76	0x3ce36e00	0.027762413
77	0x3df68298	0.120366275
78	0x3d812ed3	0.06307759
79	0x3ded20f2	0.115785494
80	0xbe4dc7a1	-0.20095684
81	0xbd428765	-0.047492404
82	0x3d5d6281	0.05404902
83	0x3dc96d8c	0.098353475
84	0xbcfba0ee	-0.030716386
85	0x3d1eec31	0.03879947
86	0xbe399180	-0.1812191
87	0x3d427bc2	0.047481306
88	0xbd746dbe	-0.05967497
89	0xbd0d39a4	-0.0344788
90	0xbc5cc77d	-0.013475296
91	0xbc039869	-0.008031943
92	0x3c82cd1c	0.015966944
93	0xbd70308e	-0.058640055
94	0xbdbe832d	-0.093023635
95	0x3c638666	0.013887024
96	0xbc99d729	-0.018779354
97	0xbd52cf8d	-0.051467467
98	0xbe1724c0	-0.14760113
99	0xbe15268d	-0.14565487
100	0xbd043be8	-0.032283694
101	0x3c9b7727	0.018977715
102	0xbdb66b59	-0.08907194
103	0x3ca7033d	0.020387286
104	0xbdadb254	-0.08481279
105	0x3d4e36ea	0.05034534
106	0xbdc464f4	-0.09589568
107	0xbc1f1edb	-0.009711946
108	0x3d55401c	0.052063093
109	0x3c7a24df	0.01526758
110	0xbdf2b65c	-0.118511885
111	0xbe1b7f8b	-0.15185373
112	0x3e1fe88c	0.15616053
113	0x3d3206be	0.04346346
114	0xbcabdfde	-0.020980772
115	0xbb3fd9d3	-0.002927412
116	0x3e2822f5	0.16419585
117	0xbb691cf6	-0.003557024
118	0xbe31f659	-0.1737913
119	0x3da9a1ae	0.08282791
120	0x3ca6ea54	0.020375408
121	0x3d84c71e	0.06483291
122	0x3d21da10	0.0395146
123	0xbdf02396	-0.117255375
124	0x3dba9420	0.09110284
125	0xbc9b5370	-0.018960685
126	0xbcf45b03	-0.029828554
127	0xbe197cf0	-0.14989066
128	0x3cfd3953	0.030911123
129	0x3dce27a1	0.10066152
130	0xbd294f80	-0.041335583
131	0xbd07f3be	-0.033191435
132	0x3caad3dc	0.020852976
133	0x3dd0a119	0.10186977
134	0xbe10a9a6	-0.14127216
135	0xbe197084	-0.14984328
136	0xbd5269a2	-0.05137027
137	0xbd7f42a0	-0.062319398
138	0x3d0382e1	0.032107238
139	0x3d8a2063	0.067444585
140	0x3d875451	0.06607879
141	0x3e3b79ad	0.18308134
142	0xbddfc22d	-0.10925708
143	0x3d5847b7	0.052802768
144	0xbd0495a1	-0.03236926
145	0xbd69f657	-0.057119694
146	0x3d8677f3	0.06565847
147	0xbd8c13cc	-0.068397135
148	0x3d2ca266	0.042147063
149	0xbd2c16e6	-0.042014025
150	0xbc5a47fe	-0.013322828
151	0x3d6fb75e	0.058524482
152	0x3dfd71be	0.1237521
153	0x3da97bdf	0.0827558
154	0x3df28864	0.11842421
155	0x3d2fbb3b	0.042903166
156	0x3d9e2d13	0.07723441
157	0x3e1a0eb0	0.15044665
158	0x3d104543	0.035222303
159	0xbe286310	-0.1644404
160	0xbd3f07bd	-0.04663824
161	0x3d2d6882	0.042335995
162	0x3cc5facb	0.024167439
163	0xbbf2e1d5	-0.007412175
164	0xbd710008	-0.05883792
165	0x3ca493db	0.020090034
166	0xbcaaf503	-0.020868784
167	0x3c7de2e0	0.015495986
168	0xbd26e2dd	-0.040743697
169	0xbd55a2e0	-0.052157283
170	0x3db7e2f4	0.08978835
171	0x3e05d576	0.1306971
172	0xbd8de47b	-0.06928345
173	0xbdd97979	-0.10618872
174	0x3d4e3118	0.05033979
175	0x3dc697be	0.09696911
176	0x3d6a7dc1	0.057248835
177	0xbc4f190e	-0.012640251
178	0xbd9e66cd	-0.077344514
179	0x3e35245f	0.17689656
180	0x3d25d214	0.04048355
181	0xbdbb31cd	-0.09140358
182	0x3d6472f0	0.055773675
183	0xbc8de369	-0.017320352
184	0xbd2698d5	-0.040673096
185	0xbcc75137	-0.024330718
186	0x3daee8f8	0.08540529
187	0xbde509be	-0.11183499
188	0xbd4bb3d3	-0.04973204
189	0x3da6f9a4	0.08153084
190	0x3cbcf377	0.023065312
191	0xbe2a62d8	-0.16639268
192	0x3dde6fc1	0.10861159
193	0xbdde70c0	-0.10861349
194	0x3d8d9039	0.06912274
195	0x3d98cf91	0.07461465
196	0x3d72a688	0.059240848
197	0x3dd03c59	0.101677604
198	0x3daef4ee	0.085428104
199	0xbcab13f4	-0.020883538
200	0xbd94ef97	-0.07272261
201	0xbbb5c23f	-0.0055468376
202	0x3e0ff906	0.14059839
203	0xbe1e0fb2	-0.15435675
204	0xbcd4a23d	-0.025956267
205	0xbd6e3aec	-0.05816166
206	0xbe0c3506	-0.13692102
207	0xbcf05903	-0.02933932
208	0x3d5c96aa	0.053854622
209	0xbdd01302	-0.101598755
210	0x3d4dc41a	0.050235845
211	0xbd82909b	-0.063752376
212	0xbe3ec364	-0.18629223
213	0xbb96582d	-0.004588148
214	0xbdacf573	-0.08445253
215	0x3d0d7512	0.034535475
216	0x3d808378	0.06275076
217	0x3bc2c2e7	0.0059436443
218	0x3c59d4ef	0.013295396
219	0x3d1bce6c	0.038038656
220	0xbd977b36	-0.073965475
221	0x3d2e020f	0.042482432
222	0xbb730d9f	-0.0037086976
223	0x3cb21c84	0.021742113
224	0x3e2cb691	0.16866519
225	0x3ddd1b3f	0.107962124
226	0x3d3d2cd3	0.046185326
227	0x3de3bb37	0.11119693
228	0x3d2a8b68	0.041636854
229	0x3cc0c1bd	0.023529882
230	0x3dd4234f	0.10358297
231	0xbd15eb45	-0.036601324
232	0xbd907a8d	-0.07054625
233	0x3de537b3	0.111922644
234	0xbce21d14	-0.027601756
235	0x3e1828c5	0.14859302
236	0xbd4e8d88	-0.050427943
237	0xbd8d3fa5	-0.06896905
238	0xbdb9e7e2	-0.09077431
239	0x3d3fad92	0.04679639
240	0xbe09df4a	-0.13464084
241	0xbce66611	-0.02812484
242	0xbdd1a3d1	-0.102363236
243	0x3c41715a	0.01180681
244	0xbd5ed7c1	-0.054404978
245	0x3ca7774b	0.020442626
246	0x3de59c7b	0.11211487
247	0x3e301592	0.17195728
248	0x3dd7263b	0.10505339
249	0x3dc9d3e9	0.09854872
250	0xbd8c5217	-0.06851595
251	0xbde18bd4	-0.11012998
252	0xbd8165b3	-0.06318226
253	0xbd266020	-0.040619016
254	0x3d857c2f	0.06517827
255	0xbcd853ce	-0.026407149

lstm2.weight_hh_l0 f4 [256, 64]
0	0x3d6f1c7a	0.058376767
1	0x3d10cebb	0.035353404
2	0x3e086498	0.13319623
3	0x3d3a4b8d	0.045482207
4	0xbd98c206	-0.07458882
5	0xbde65353	-0.112463616
6	0x3c7296d3	0.014806467
7	0xbced7d53	-0.028990423
8	0xbda94adb	-0.08266231
9	0x3de66d70	0.11251342
10	0x3c0f93bb	0.008763249
11	0xbcf4228c	-0.02980163
12	0xbdd6162a	-0.10453446
13	0xbda9f6fb	-0.08299061
14	0x3dc68be0	0.09694648
15	0xba85c417	-0.0010205534
16	0xbe030203	-0.12793736
17	0x3d91af7b	0.07113548
18	0x3d825fe1	0.06365944
19	0xbdca4797	-0.09876936
20	0x3da6ef5f	0.08151125
21	0xbd5a9b2b	-0.053370636
22	0x3dda4aaa	0.10658772
23	0x3c00a947	0.007852859
24	0x3db44d28	0.08803779
25	0x3df6ddec	0.12054047
26	0xbd39e358	-0.045382828
27	0xbde509db	-0.111835204
28	0xbd0931c7	-0.033494737
29	0xbd8ddcb0	-0.069268584
30	0x3ddd2a58	0.10799092
31	0x3ce0a2ea	0.027421433
32	0xbca22c30	-0.01979646
33	0xbdad86ad	-0.08472953
34	0x3c3e07fe	0.011598585
35	0x3d872447	0.06598716
36	0xbe17823b	-0.14795773
37	0x3d9a1923	0.07524326
38	0x3d6f79cb	0.05846576
39	0x3dbefbc0	0.09325361
40	0x3d7cb6e9	0.061697874
41	0xbd87464f	-0.06605207
42	0xbdba613c	-0.09100577
43	0x3d4b2c91	0.04960305
44	0x3dd0aa08	0.10188681
45	0x3d03985c	0.032127723
46	0xbd0d8072	-0.034546323
47	0x3d8db51c	0.069193095
48	0xbdada9fe	-0.08479689
49	0xbca5af57	-0.02022521
50	0x3da2b8d0	0.079454064
51	0xbd2303d6	-0.03979858
52	0x3d7b2791	0.06131703
53	0xbdeb1319	-0.11478252
54	0xbd5ba441	-0.05362344
55	0x3ddd1c00	0.10796356
56	0x3c66a061	0.014076323
57	0xbdb58f16	-0.08865182
58	0xbce6f712	-0.028193984
59	0xbc4cc4d2	-0.0124980975
60	0x3d7741b3	0.06036539
61	0x3d8ade62	0.067806974
62	0xbe236d5d	-0.15959688
63	0xbd125fa0	-0.035735726
64	0xbd7e869c	-0.062140092
65	0x3d797ae5	0.060908217
66	0x3c7211f2	0.014774786
67	0xbd50a5f1	-0.050939504
68	0xbd70683b	-0.058693152
69	0x3d974695	0.07386509
70	0xbe092ed1	-0.13396765
71	0x3de111da	0.10989733
72	0x3d86b066	0.06576614
73	0xbe575f27	-0.21032391
74	0xbdf2e13e	-0.11859368
75	0xbd802ec9	-0.062589236
76	0xbbc0f03d	-0.0058880136
77	0x3e1a7805	0.15084846
78	0x3db776db	0.08958217
79	0xbe2d4b63	-0.16923289
80	0x3d82fcf0	0.063959
81	0xbcfeabe2	-0.03108782
82	0xbc4edfd2	-0.012626605
83	0x3da61622	0.0810969
84	0x3d6b486c	0.057442114
85	0x3d11aa7a	0.03556297
86	0xbdaf2e20	-0.085537195
87	0x3deced7f	0.11568736
88	0xbd497069	-0.04917947
89	0xbe303954	-0.17209369
90	0xbdc2a785	-0.09504608
91	0x3dbeffe4	0.09326151
92	0xbda7e350	-0.08197653
93	0x3d7a4453	0.061100315
94	0xbe1d4f8e	-0.15362379
95	0xbda23fc6	-0.0792232
96	0x3db92fba	0.09042306
97	0x3c86e464	0.016466327
98	0x3cdf305e	0.027244743
99	0xbb3f78af	-0.002921622
100	0xbe137e37	-0.14403616
101	0x3d9a95f6	0.07548134
102	0xbdf81c15	-0.12114731
103	0xbdd8318e	-0.10556327
104	0x3dfe476d	0.12415967
105	0xbd9d1236	-0.07669489
106	0x3d9e7ee6	0.07739048
107	0xbd3ea36a	-0.046542563
108	0x3c01e0b2	0.007927107
109	0x3de18dca	0.11013372
110	0xbd81edf0	-0.06344211
111	0x3d7b1794	0.061301783
112	0xbd806291	-0.062688
113	0xbd9f1fb7	-0.07769721
114	0x3caba775	0.020953873
115	0x3e171d08	0.14757168
116	0x3dc077fa	0.09397884
117	0xbddba7d8	-0.10725373
118	0x3dbc54e2	0.091958776
119	0xbe3e01b4	-0.18555337
120	0xbce6c757	-0.028171225
121	0x3e220382	0.1582165
122	0xbbf0193f	-0.0073272283
123	0xbe4243d5	-0.18971188
124	0xbe1550b3	-0.14581566
125	0x3e08af89	0.13348211
126	0xbc1b18eb	-0.00946639
127	0xbd18ebd6	-0.037334286
128	0xbd738236	-0.05945035
129	0xbce132f7	-0.027490122
130	0xbd8bf352	-0.06833519
131	0x3de977a8	0.11399776
132	0x3d4bb1b4	0.049730018
133	0xbb907017	-0.0044078934
134	0x3d130b65	0.03589954
135	0xbdf683c7	-0.12036853
136	0x3d9239e2	0.071399465
137	0x3de0d63d	0.10978363
138	0xbe20f058	-0.15716684
139	0xbd672f02	-0.056441315
140	0xbe02220a	-0.12708297
141	0xbcd8c0bd	-0.026459092
142	0xbcbcece8	-0.023062184
143	0x3d850371	0.06494797
144	0xbdca17dc	-0.09867832
145	0x3cc3f04a	0.02391829
146	0xbc650201	-0.013977529
147	0xbdffdff6	-0.12493889
148	0xbda99283	-0.08279898
149	0xbe4ae952	-0.19815567
150	0xbdc9ab97	-0.09847181
151	0xbd6ba1e3	-0.057527434
152	0x3e217514	0.15767318
153	0xbc888b8e	-0.016668107
154	0xbc408e6d	-0.011752707
155	0xbdb2bb1b	-0.08727094
156	0xbdc9ebd8	-0.09859437
157	0xbd211288	-0.039324313
158	0xbdba49cc	-0.09096107
159	0x3e3457f9	0.17611684
160	0x3d2fd293	0.04292543
161	0x3b641d08	0.0034807343
162	0xbde96966	-0.11397056
163	0x3e06c62c	0.13161534
164	0x3e0d57b6	0.1380299
165	0xbd92c74b	-0.07166918
166	0x3d7fe4e1	0.062474135
167	0x3e0bd6eb	0.13656203
168	0x3d18c78c	0.037299678
169	0xbdbee9af	-0.09321915
170	0x3c069ddb	0.008216347
171	0x3d071a05	0.0329838
172	0xbdaf0f6b	-0.085478626
173	0xbdc3e3be	-0.09564923
174	0x3c9236d9	0.017848419
175	0x3d8ad1cc	0.06778297
176	0x3dd6fca9	0.1049741
177	0xbc9a0847	-0.018802775
178	0x3d46ac6e	0.048504286
179	0xbe2c8d19	-0.168507
180	0x3d5252b5	0.051348407
181	0xbdeae8b4	-0.11470166
182	0x3de6b2a8	0.11264545
183	0x3dad551a	0.084634975
184	0xbdcb9d70	-0.09942138
185	0xbc3a2f4d	-0.011363816
186	0xbcfb1f17	-0.030654473
187	0xbd03fb30	-0.032221973
188	0x3d00b132	0.031418987
189	0xbce9bd85	-0.028532753
190	0x3d97f112	0.074190274
191	0x3dd484dd	0.10376904
192	0x3d8fe9b2	0.07026996
193	0x3d9bc4d4	0.07605901
194	0xbe36ae87	-0.17840014
195	0x3db3fd9e	0.08788608
196	0xbde8883b	-0.11354109
197	0x3adc3521	0.0016800502
198	0x3e1d0f6d	0.15337916
199	0x3d82f02b	0.06393465
200	0x3d1608bb	0.03662942
201	0xbe5f1ecd	-0.21789093
202	0xbdac16af	-0.08402764
203	0xbe23898c	-0.15970439
204	0xbe72d2d8	-0.23713243
205	0x3e8c5359	0.2740734
206	0xbe019684	-0.12655073
207	0xbd41a5e8	-0.04727736
208	0x3e373fe2	0.17895463
209	0x3d20117a	0.039079167
210	0x3dc5ecef	0.09664332
211	0x3de117d7	0.10990875
212	0x3dbfaa33	0.09358635
213	0x3e2f924b	0.1714565
214	0xbe18a8cc	-0.14908141
215	0x3da9476f	0.08265578
216	0xbb680410	-0.0035402812
217	0x3c2dcd0d	0.01060797
218	0xbe477730	-0.1947906
219	0x3d44b755	0.0480264
220	0xbdbc9850	-0.09208739
221	0x3db6793b	0.089098416
222	0xbd3cfdd0	-0.046140492
223	0xba757193	-0.0009362932
224	0xbd12ff8b	-0.035888236
225	0xbd4de776	-0.050269566
226	0x3d6a32eb	0.057177465
227	0xbda495ec	-0.08036408
228	0x3dd6ea08	0.10493857
229	0xbdc5f550	-0.0966593
230	0xbcf62b5e	-0.030049976
231	0xbd4aeda1	-0.049543027
232	0xbe214268	-0.15747988
233	0xbe28c112	-0.164799
234	0x3d152f2c	0.03642194
235	0xbe28f2c9	-0.16498865
236	0x3e37fd9a	0.17967835
237	0x3e2c65d0	0.16835713
238	0x3e29043e	0.16505525
239	0x3dab1086	0.08352761
240	0xbe4929c3	-0.19644837
241	0x3df35057	0.11880558
242	0xbc6332e6	-0.013867116
243	0x3e6bbca0	0.23021173
244	0x3e06e158	0.131719
245	0xbe38edae	-0.18059418
246	0xbdcccd52	-0.10000099
247	0x3d7cd360	0.06172502
248	0x3e3838e0	0.17990446
249	0x3e3c1570	0.18367553
250	0x3d4dada7	0.050214436
251	0x3e017636	0.1264275
252	0x3a6cd7e7	0.00090348575
253	0x3e15029c	0.14551777
254	0x3d3f9b51	0.04677898
255	0xbc3d8e5a	-0.011569584

lstm2.bias_ih_l0 f4 [256]
0	0x3d94b64e	0.07261334
1	0x3d918eb2	0.07107295
2	0xbdb45edd	-0.08807156
3	0x3d0be522	0.034154065
4	0xbadc2131	-0.001679456
5	0x3ea9780a	0.33099395
6	0x3c439a76	0.011938682
7	0x3c034aa1	0.008013398
8	0x3e3ff311	0.18745066
9	0x3d3781a6	0.044801377
10	0xbcc44131	-0.023956867
11	0xbdf1b551	-0.118021615
12	0x3d112e49	0.03544453
13	0x3d569158	0.052384704
14	0x3dd13b6a	0.102164105
15	0x3d21cf9e	0.03950464
16	0x3e07dd28	0.13267958
17	0x3cecce47	0.028906954
18	0x3d9bd13e	0.07608269
19	0x3e09b653	0.13448457
20	0x3d0770cb	0.033066552
21	0xbdb019b5	-0.08598653
22	0x3d8f9198	0.07010192
23	0x3b48c049	0.003063219
24	0xbc7dc949	-0.015489885
25	0x3de13732	0.10996856
26	0xbd63b82b	-0.055595558
27	0xbd7aee6c	-0.061262533
28	0x3d97edb8	0.07418388
29	0xbd97291a	-0.073808864
30	0xbd8eb0c9	-0.06967313
31	0x3daa4aaa	0.08315022
32	0xbd7169ff	-0.058938976
33	0xbba607b9	-0.0050668386
34	0x3de216a2	0.11039473
35	0xbcd100f0	-0.025513142
36	0x3e49973a	0.19686595
37	0xbb6e212f	-0.0036335697
38	0xbdb11cd0	-0.08648074
39	0x3dff266d	0.12458501
40	0xbe4e9af0	-0.20176291
41	0xbe290c90	-0.16508698
42	0x3d8414d4	0.06449285
43	0xbd18ffa0	-0.037353158
44	0x3e83875f	0.25689217
45	0x3d405753	0.04695828
46	0x3e1dd58f	0.15413497
47	0xbdab7be8	-0.083732426
48	0xbd8322ed	-0.06403146
49	0x3e0cd114	0.13751632
50	0xbdab9071	-0.083771594
51	0xbdebb602	-0.115093246
52	0x3e11093f	0.14163683
53	0x3c9e1479	0.019296871
54	0x3d3d5b66	0.046229742
55	0x3c927862	0.017879669
56	0x3e03e0a4	0.12878662
57	0x3dfa2df3	0.12215795
58	0x3d7bd155	0.06147893
59	0x3a294234	0.00064567034
60	0xbe4dda47	-0.20102797
61	0xbd09f833	-0.033683967
62	0xbe05a3bc	-0.13050741
63	0xbc934ee5	-0.017981956
64	0x3da57a74	0.08079997
65	0x3e5c1a94	0.21494514
66	0x3e2fd1e7	0.17169915
67	0xbd733944	-0.059380785
68	0x3c9e8ffb	0.019355765
69	0x3cbdfabd	0.02319085
70	0x3ddd65c6	0.10810427
71	0x3d68fe8c	0.05688338
72	0xbd065e6f	-0.032804903
73	0x3deede57	0.11663502
74	0xbb602adb	-0.0034205231
75	0x3df97fb1	0.12182558
76	0xbcd58561	-0.026064577
77	0xbd7597d6	-0.059959255
78	0xbdb244b0	-0.08704507
79	0x3e23c883	0.15994458
80	0xbda1d14f	-0.079012506
81	0x3d64b094	0.05583246
82	0x3d160510	0.03662592
83	0x3dff01aa	0.12451489
84	0x3e3c19e2	0.18369249
85	0x3c62b807	0.013837821
86	0x3bb645e3	0.0055625304
87	0xbae572c4	-0.0017505516
88	0x3c9d54a7	0.019205404
89	0x3de5f486	0.1122828
90	0x3dbee02f	0.093201034
91	0x3d503f81	0.050841812
92	0xbce59d4f	-0.028029112
93	0x3d53fe7a	0.05175636
94	0xbdce8327	-0.10083609
95	0xbc927ff7	-0.017883284
96	0xbdd60f4e	-0.10452138
97	0x3df3f6cc	0.11912307
98	0x3d11a098	0.035553545
99	0x3d217add	0.039423812
100	0x3e3ffead	0.18749495
101	0xbdb674ac	-0.08908972
102	0xbc808cfa	-0.015692223
103	0x3cc20a4f	0.023686556
104	0xbdc03fe0	-0.09387183
105	0xbd103f08	-0.03521636
106	0x3e6031d9	0.21894015
107	0x3dd66ed9	0.10470361
108	0x3cba6f7a	0.022758234
109	0x3e3caf07	0.18426143
110	0xbb126981	-0.0022340717
111	0xbdb4db34	-0.08830872
112	0x3d37e70a	0.04489807
113	0x3c494c7d	0.012286303
114	0xbddcc09b	-0.10778924
115	0xbddbc6b5	-0.1073126
116	0x3db9c683	0.09071066
117	0x3df11f6b	0.117735706
118	0x3e559aa2	0.20859769
119	0x3de62092	0.11236681
120	0xbcdf72be	-0.027276393
121	0x3d85b0ae	0.065278396
122	0xbc5735ff	-0.013135432
123	0x3c99c158	0.018768951
124	0xbe273a81	-0.16330911
125	0x3ccebdd5	0.025237003
126	0xbd81c7ab	-0.06336912
127	0x3e1d3392	0.15351704
128	0x3cc7e4e6	0.02440114
129	0x3d59652a	0.053074993
130	0x3b86d475	0.0041146823
131	0x3dd09433	0.10184517
132	0x3bd4aa3b	0.0064900196
133	0xbd201311	-0.039080683
134	0xbe08c0b7	-0.13354765
135	0x3db08d98	0.08620757
136	0xbd71a02c	-0.058990642
137	0x3d846f08	0.0646649
138	0x3d46d295	0.04854067
139	0xbd3166fd	-0.043311108
140	0x3d905b29	0.070486374
141	0x3da18e5e	0.078884825
142	0xbdb12128	-0.08648902
143	0x3d0a4f42	0.033766992
144	0xbca48782	-0.020084146
145	0xbda5f68c	-0.08103666
146	0xbdd48e89	-0.10378749
147	0xbd988f12	-0.074491635
148	0x3da249c3	0.07924225
149	0x3d07d5f8	0.03316304
150	0x3d9d1fe8	0.07672101
151	0xbcfba817	-0.0307198
152	0xbd2a8027	-0.04162612
153	0x3e10e594	0.14150077
154	0xbdd009df	-0.10158133
155	0xbdac4235	-0.084110655
156	0x3dbce50f	0.09223377
157	0x3c4cab4e	0.012492014
158	0xbd9d8d9d	-0.07693026
159	0xbd76da32	-0.06026668
160	0x3defc3f0	0.11707294
161	0x3d2abae1	0.041682128
162	0x3dd87ccc	0.10570678
163	0xbbbbd071	-0.0057316353
164	0x3e0f99d1	0.1402352
165	0xbda890d4	-0.08230749
166	0x3d58c23a	0.052919604
167	0xbe273820	-0.16330004
168	0x3db40347	0.087896876
169	0xbbffc119	-0.0078050015
170	0x3d9f379e	0.0777428
171	0xbd693f76	-0.056945287
172	0x3d90cfbd	0.07070873
173	0x3ce241c2	0.027619246
174	0xbd500a7c	-0.05079125
175	0xbcfc8bac	-0.03082832
176	0x3e0d3984	0.13791472
177	0x3d9bee66	0.0761383
178	0xbc19c86e	-0.009386165
179	0xbd888145	-0.06665281
180	0xbcc33694	-0.023829736
181	0x3d8093e7	0.0627821
182	0xbddad913	-0.10685935
183	0x3da60e59	0.08108205
184	0x3e0355d3	0.12825708
185	0x3d850e2b	0.06496843
186	0x3e1bcd18	0.15214956
187	0x3dbd5a66	0.09245758
188	0xbd80157d	-0.062540986
189	0x3cf5b412	0.02999309
190	0xbd895b34	-0.06706849
191	0x3bb145e5	0.0054099434
192	0xbd8218da	-0.06352396
193	0x3c5228e8	0.012827136
194	0x3e1a976d	0.15096827
195	0x3da2f6e3	0.07957246
196	0x3ce069fd	0.02739429
197	0x3ebe2dbf	0.37144276
198	0x3e190629	0.14943756
199	0x3e0edfa5	0.13952501
200	0x3e1c093c	0.15237898
201	0x3e48fb05	0.19627006
202	0x3e449000	0.19195557
203	0x3df66518	0.12031001
204	0xbcb6c360	-0.022309959
205	0x3d9c4af5	0.076314844
206	0x3d57b5ed	0.052663732
207	0x3dc118b6	0.09428541
208	0x3da0e3de	0.07855962
209	0x3da327dc	0.07966587
210	0x3d81d754	0.06339899
211	0xbceb5e44	-0.028731473
212	0x3dd61f99	0.104552455
213	0x3d8954f7	0.06705659
214	0x3e7bdf90	0.24597001
215	0xbd1f5f89	-0.03890947
216	0xbdcc889d	-0.099869944
217	0x3e4b4c37	0.19853292
218	0x3e04187e	0.12899968
219	0xbda6a093	-0.08136096
220	0x3dacbee0	0.08434844
221	0x3d9ece48	0.07754189
222	0xbdb9e1c5	-0.09076265
223	0x3dbac658	0.09119862
224	0xbdc18778	-0.09449667
225	0x3e7763a4	0.24159104
226	0x3df3943c	0.11893508
227	0xbd78e1d4	-0.06076224
228	0x3e04fcd9	0.12987079
229	0x3e1cfff6	0.15332016
230	0x3dc04231	0.09387625
231	0x3daf16a1	0.08549238
232	0xbccf9238	-0.025338277
233	0xbd95f4e8	-0.07322103
234	0x3e10ce3f	0.14141177
235	0x3deaad92	0.11458887
236	0x3ea2dde0	0.31809902
237	0xbd73d832	-0.05953235
238	0x3e8da720	0.2766657
239	0x3d5dfca6	0.054196022
240	0xbd9b57c6	-0.07585101
241	0x3db02ecc	0.08602676
242	0x3d847369	0.06467325
243	0xbca9921b	-0.020699551
244	0x3d3973f5	0.0452766
245	0xbd919cbd	-0.071099736
246	0x3dd72327	0.10504752
247	0x3e6ebf02	0.23315051
248	0x3e012b6e	0.12614223
249	0xbbeb5b8c	-0.007182544
250	0x3e2f3588	0.17110264
251	0x3c7fa73e	0.0156038385
252	0xbd24c4be	-0.04022669
253	0x3e2447ff	0.1604309
254	0xbe0f9a27	-0.14023648
255	0x3dbb3e3c	0.0914273
