saved_model/DAP_Model_Fuel.pt (torch, 231010 bytes, 12 tensors)

lstm1.weight_ih_l0 f4 [256, 3]
0.14153458 0.117561005 -0.1429743 0.00228158 -0.13787882 -0.052871797 -0.047032904 -0.10325155
0.094422504 0.026458047 -0.10237904 -0.057137456 -0.08839382 -0.1850456 0.031395316 -0.029642504
-0.024962397 -0.0037832235 -0.08900966 -0.29895696 0.15729645 0.046522323 0.0055953264 0.15763597
0.08896039 -0.019356225 -0.040599503 0.02490195 -0.06005624 -0.0685381 -0.032239787 0.1584548
0.06977833 -0.029949902 0.10348156 0.10233561 0.06900816 0.042082414 0.17632917 -0.0748259
-0.020293394 -0.0008685371 -0.13140856 -0.078989305 0.10917329 0.14883378 0.055816066 0.124739416
0.027222436 0.083846144 0.11459955 0.1843311 -0.059056774 0.054140374 -0.0010258082 -0.014945468
0.00826921 0.03170006 0.100034826 0.068617284 0.1047693 0.04108499 0.026905453 0.21234432
-0.024978552 0.14506385 -0.07098008 0.09478304 0.026240325 0.039735693 0.037589446 0.053937893
0.046816085 0.005036651 0.026819263 -0.06360278 -0.14530246 -0.021597987 0.09801554 -0.06763182
-0.07365942 0.081205964 0.14531301 0.07623532 -0.16591734 -0.30404028 0.031782765 -0.031755805
0.053370535 0.19882424 0.0041728723 0.06410554 0.13524559 0.06355741 0.069029875 0.15951364
0.118354924 0.073618166 -0.09200892 -0.110285506 -0.27316535 0.0034674117 -0.10419619 -0.16734044
0.054252055 0.09317961 0.071141616 -0.09517829 0.00080031523 0.0081335865 0.02247527 0.041907564
0.021397304 -0.12678012 -0.04078534 -0.017112715 0.035985846 0.2208323 0.0672649 -0.08130395
-0.021715738 0.05047736 -0.09015621 0.008277933 -0.076623045 0.07768929 -0.07543346 -0.122079246
0.012337952 0.09170334 0.1954706 0.003498059 -0.10830487 -0.038331024 -0.013423701 0.00374445
0.013047703 -0.13815498 0.038908716 0.079048194 0.12737224 -0.14564212 -0.033431023 0.10708495
0.023344275 -0.07325457 0.03947545 0.11639093 -0.07832747 -0.08226078 -0.01698708 -0.09188544
0.10518908 0.08525292 -0.031209007 0.22551332 -0.046849426 -0.046275068 -0.122591354 -0.07855206
-0.08354265 0.083623 0.070487365 -0.004821705 0.15073858 0.11046547 -0.0075045307 -0.040675107
0.12255027 -0.019789137 -0.090172775 0.1864742 -0.0032188778 0.039469592 0.11969044 0.040754672
-0.006207769 0.08730435 0.17452614 0.20328498 0.035366297 -0.20107688 0.16082267 -0.12735674
-0.26007178 -0.118782654 -0.026905935 0.17140424 -0.30919236 0.09818968 -0.051762745 -0.13623889
-0.030889278 0.022359515 -0.012536541 -0.024401901 -0.16684307 0.05418358 0.101265155 0.11964525
-0.078876026 0.15902469 -0.06246916 0.013552444 -0.116401985 -0.28536662 0.04394832 -0.047053277
0.06964134 0.03267095 -0.018776517 -0.27680963 -0.028348418 0.12619488 0.080218144 -0.0101064015
-0.05731259 0.069873676 -0.013738745 0.13401265 0.04287445 0.0710556 0.05889243 0.02525521
0.024052957 -0.017767483 0.072089225 0.0414892 -0.12739165 -0.045155976 0.32684934 0.026114527
-0.1139027 -0.11416962 0.035019085 0.037983567 0.041529708 0.10861754 0.10992234 0.05623846
0.23559143 0.13935621 0.16796228 0.0797611 0.13186784 -0.07926572 0.084680736 0.044785097
0.20982674 0.18578373 0.028595304 0.13573885 -0.05633423 0.042851064 0.13328028 0.020000592
00000000: 71ee 103e d3c3 f03d db67 12be 8f86 153b
00000010: 1b30 0dbe 1990 58bd 93a5 40bd 8c75 d3bd
00000020: 9660 c13d 8cbe d83c 1aac d1bd f708 6abd
00000030: d207 b5bd 987c 3dbe 6098 003d d6d4 f2bc
00000040: f17d ccbc f5ef 77bb b24a b6bd e310 99be
00000050: 5212 213e 318e 3e3d 0059 b73b 536b 213e
00000060: dd30 b63d f290 9ebc aa4b 26bd 2dff cb3c
00000070: 88fd 75bd b45d 8cbd de0d 04bd fa41 223e
00000080: f1e7 8e3d 7f59 f5bc 24ee d33d 5595 d13d
00000090: 2654 8d3d 9c5e 2c3d a28f 343e 523e 99bd
000000a0: 553e a6bc 8aae 63ba f78f 06be 25c5 a1bd
000000b0: 3f96 df3d e267 183e 639f 643d 6177 ff3d
000000c0: 9601 df3c 87b7 ab3d 2bb3 ea3d 4bc1 3c3e
000000d0: 84e5 71bd 4cc2 5d3d 6974 86ba d6dd 74bc
000000e0: 957b 073c ecd7 013d 0fdf cc3d 3887 8c3d
000000f0: 4991 d63d bc48 283d d368 dc3c ca70 593e
00000100: d29f ccbc 9e8b 143e 015e 91bd 9c1d c23d
00000110: f3f5 d63c e5c1 223d 64f7 193d fbed 5c3d
00000120: 39c2 3f3d 7e0a a53b 12b4 db3c 2d42 82bd
00000130: 2bca 14be 43ee b0bc 5fbc c83d 8d82 8abd
00000140: c0da 96bd 504f a63d efcc 143e 4321 9c3d
00000150: 3ce6 29be 2bab 9bbe a52e 023d 6012 02bd
00000160: 109b 5a3d 9598 4b3e 97bc 883b c449 833d
00000170: d27d 0a3e 632a 823d 895f 8d3d 8b57 233e
00000180: 1164 f23d 1fc5 963d 2c6f bcbd 5edd e1bd
00000190: 54dc 8bbe 843d 633b d064 d5bd 4b5b 2bbe
000001a0: 6737 5e3d f4d4 be3d b2b2 913d d6ec c2bd
000001b0: 3fcc 513a bc42 053c 0f1e b83c 44a7 2b3d
000001c0: 6649 af3c a6d2 01be 870e 27bd f72f 8cbc
000001d0: e565 133d dd21 623e 2ec2 893d af82 a6bd
000001e0: 34e5 b1bc 59c1 4e3d d2a3 b8bd 2ba0 073c
000001f0: 8bec 9cbd 901b 9f3d dc7c 9abd af04 fabd
00000200: 1f25 4a3c f6ce bb3d 7229 483e b13f 653b
00000210: f2ce ddbd fe00 1dbd 15ef 5bbc 7265 753b
00000220: 08c6 553c 8078 0dbe bf5e 1f3d 05e4 a13d
00000230: de6d 023e 3523 15be f8ee 08bd 5b4f db3d
00000240: 7e3c bf3c 7e06 96bd 02b1 213d 5e5e ee3d
00000250: 276a a0bd 5778 a8bd 7d28 8bbc 6f2e bcbd
00000260: 5f6d d73d 1599 ae3d 08aa ffbc f7ec 663e
00000270: 2fe5 3fbd ed8a 3dbd 2d11 fbbd e7df a0bd
00000280: 6918 abbd 8942 ab3d ae5b 903d 65ff 9dbb
00000290: 375b 1a3e b83b e23d 91e8 f5bb f19a 26bd
000002a0: a3fb fa3d d41c a2bc 81ac b8bd 18f3 3e3e
000002b0: cff3 52bb deaa 213d 4320 f53d 5fee 263d
000002c0: 8a6a cbbb a0cc b23d fbb6 323e f029 503e
000002d0: 40dc 103d 19e7 4dbe b3ae 243e ce69 02be
000002e0: 2128 85be 5244 f3bd d669 dcbc 9884 2f3e
000002f0: 764e 9ebe ac17 c93d 2c05 54bd 3582 0bbe
00000300: 830b fdbc 4d2b b73c 1066 4dbc 7fe6 c7bc
00000310: e9d8 2abe 9aef 5d3d 1b64 cf3d 9208 f53d
00000320: c189 a1bd 5ed7 223e a9df 7fbd 120b 5e3c
00000330: 2a64 eebd 931b 92be 2703 343d f0ba 40bd
00000340: 1ea0 8e3d f9d1 053d 36d1 99bc feb9 8dbe
00000350: f13a e8bc 3b39 013e 6949 a43d 5295 25bc
00000360: 9bc0 6abd ee19 8f3d 7918 61bc 9d3a 093e
00000370: 1f9d 2f3d 9985 913d 3039 713d 04e4 ce3c
00000380: b50a c53c 1d8d 91bc 84a3 933d 94f0 293d
00000390: f572 02be 79f5 38bd cc58 a73e 22ee d53c
000003a0: d245 e9bd c3d1 e9bd 2c70 0f3d a894 1b3d
000003b0: 0e1b 2a3d df72 de3d f71e e13d 4d5a 663d
000003c0: e13e 713e 65b3 0e3e 4efe 2b3e ca59 a33d
000003d0: 5d08 073e 1156 a2bd 186d ad3d 9470 373d
000003e0: d2dc 563e 173e 3e3e b340 ea3c 20ff 0a3e
000003f0: b9be 66bd 9984 2f3d a07a 083e 48d8 a33c

lstm1.weight_hh_l0 f4 [256, 64]
-0.019310473 0.14392948 -0.015375901 -0.04088493 0.02154019 -0.0402085 0.10694539 -0.03631274
-0.10983113 -0.116214916 0.11868328 -0.044176348 0.0061809486 -0.031785168 -0.112459555 -0.015060934
-0.07881355 -0.036016498 0.04618596 0.02264202 0.046762627 -0.041332427 0.092324585 0.011958928
-0.0037021358 0.05609515 -0.1462261 0.07581891 0.011255913 0.11714174 0.029389428 0.029962286
-0.12908322 -0.006149511 0.19080132 -0.13861999 0.08199465 0.08414812 -0.05745747 0.068668224
-0.12262877 0.02087424 0.023312354 0.1010077 0.119852446 0.11596059 0.03326514 0.037077848
-0.016387805 -0.029169822 0.079540804 0.15446919 0.05666905 -0.011176513 0.114562854 -0.034629818
-0.08137103 0.21850395 -0.09118554 -0.015371855 0.115179025 0.023007728 0.06945521 0.023789298
-0.028016996 -0.11483953 -0.1711684 0.13927536 0.038689803 -0.07865146 0.057122666 -0.14805596
0.12673372 -0.11220943 -0.018544652 0.13508968 -0.02369407 -0.011051714 -0.044117548 0.09973293
-0.0063824276 0.06459084 -0.100175425 0.11363096 -0.057939164 -0.038208105 -0.09057017 -0.08250423
0.101022184 -0.11882741 0.21929018 -0.112033956 0.08109679 -0.1801662 -0.053631797 -0.018284261
0.01235923 0.19684306 0.038908813 -0.03890777 -0.19559635 -0.09546177 -0.109474696 0.022068992
0.06793855 -0.21393165 -0.0694635 0.06439797 -0.027761646 0.07715318 -0.114057876 0.056436118
-0.026416702 -0.12092442 0.030374147 -0.13167095 0.0005198401 -0.020481013 -0.20001341 -0.09400873
-0.11354523 0.047258347 -0.07284652 0.041201442 0.0028585717 0.07367343 -0.08904594 -0.10663813
0.02466466 0.08898887 0.028015733 -0.032976698 0.08847809 -0.0026011309 -0.16670135 0.175056
-0.027211713 0.0078294035 0.122317314 -0.116039656 -0.15284464 0.10482366 0.060048375 -0.056279037
-0.052752662 0.097478285 0.06974289 -0.11981304 0.15411529 -0.023284756 0.019825805 -0.0029095372
0.105936125 -0.18686773 0.110172965 0.09290298 0.09419075 -0.095006146 0.122484826 -0.01636385
-0.14810006 -0.06857123 0.056179006 0.07594451 -0.12460934 0.028155802 0.04201222 -0.037144583
-0.019657051 0.059758063 0.08601797 0.123931855 -0.16393712 -0.07680532 0.20668338 0.021671377
0.094488814 -0.03454846 -0.0550272 -0.09538156 -0.2047771 0.003259347 0.06316469 -0.02534455
0.14494103 0.041921835 -0.058762334 -0.11850048 -0.1344474 -0.022576323 0.10854956 -0.1621527
-0.18854588 -0.017738162 -0.026237484 -0.034403738 0.067353934 -0.099780224 0.050930418 -0.0006739595
-0.033865355 -0.13243237 0.13027765 0.061202615 0.024336882 -0.024676336 -0.12472873 -0.07408869
-0.045373246 0.067370914 0.09810904 -0.10343055 -0.09143836 0.014133684 0.06118746 0.11372751
0.08486532 -0.27544144 -0.03602085 -0.033957023 0.14413632 0.0021352966 -0.001064836 -0.0009040296
-0.15796572 0.14612222 -0.040268313 0.0065773167 -0.02437979 0.086596765 0.090334214 -0.09339458
-0.10795317 0.0023053165 0.07753017 -0.09105603 0.083787926 -0.056371104 -0.029972829 0.10803374
0.07512927 -0.20377398 0.027441349 0.013344875 -0.043269597 0.05001416 -0.019987052 0.08789838
-0.103511415 -0.056114104 -0.09579298 -0.11454176 -0.037021924 -0.15577218 0.15429504 0.037525505
00000000: ff30 9ebc 4062 133e 34eb 7bbc f576 27bd
00000010: 0d75 b03c abb1 24bd 2f06 db3d abbc 14bd
00000020: 25ef e0bd 1602 eebd 3810 f33d 42f2 34bd
00000030: 8e89 ca3b 2a31 02bd 3251 e6bd 23c2 76bc
00000040: 0069 a1bd 0986 13bd 7d2d 3d3d c27b b93c
00000050: 2b8a 3f3d 314c 29bd ac14 bd3d 61ef 433c
00000060: 889f 72bb 07c4 653d 4bbc 15be f246 9b3d
00000070: b96a 383c 02e8 ef3d 19c2 f03c 7873 f53c
00000080: 642e 04be d681 c9bb 6c61 433e 66f2 0dbe
00000090: d0ec a73d d955 ac3d 8658 6bbd eda1 8c3d
000000a0: cb24 fbbd 7400 ab3c 8df9 be3c 20dd ce3d
000000b0: 3375 f53d bf7c ed3d 0741 083d f1de 173d
000000c0: b83f 86bc 8df5 eebc 4ae6 a23d 2c2d 1e3e
000000d0: ce1d 683d b11d 37bc ee9f ea3d ffd7 0dbd
000000e0: dba5 a6bd 80bf 5f3e 7cbf babd 3cda 7bbc
000000f0: fbe2 eb3d b47a bc3c 883e 8e3d c6e1 c23c
00000100: e683 e5bc fd30 ebbd c546 2fbe 339e 0e3e
00000110: 3379 1e3d 0414 a1bd 75f9 693d fb9b 17be
00000120: 7cc6 013e 0fce e5bd f4ea 97bc f354 0a3e
00000130: 111a c2bc 4012 35bc 9ab4 34bd c740 cc3d
00000140: af23 d1bb 3448 843d c628 cdbd 59b7 e83d
00000150: 9e51 6dbd 1a80 1cbd da7c b9bd faf7 a8bd
00000160: b8e4 ce3d c95b f3bd 9b8d 603e 0f72 e5bd
00000170: 1316 a63d 7d7d 38be 04ad 5bbd e0c8 95bc
00000180: 5e7e 4a3c 3a91 493e d95e 1f3d c15d 1fbd
00000190: 694a 48be 7681 c3bd 4534 e0bd 08ca b43c
000001a0: 5e23 8b3d e610 5bbe e142 8ebd 15e3 833d
000001b0: 646c e3bc 7d02 9e3d 2d97 e9bd 8f29 673d
000001c0: d767 d8bc 39a7 f7bd 34d3 f83c c0d4 06be
000001d0: e145 083a ccc7 a7bc 51d0 4cbe a687 c0bd
000001e0: 678a e8bd f891 413d 8e30 95bd d8c2 283d
000001f0: e056 3b3b 18e2 963d b85d b6bd 1865 dabd
00000200: 8b0d ca3c cc3f b63d 4081 e53c 9312 07bd
00000210: 0034 b53d bc77 2abb c2b3 2abe e141 333e
00000220: 19eb debc e646 003c 8081 fa3d 33a6 edbd
00000230: 4e83 1cbe c9ad d63d 49f5 753d d984 66bd
00000240: 2d13 58bd b2a2 c73d 5cd5 8e3d 8a60 f5bd
00000250: 66d0 1d3e acbf bebc ba69 a23c efad 3ebb
00000260: 0af5 d83d 415a 3fbe 5da2 e13d eb43 be3d
00000270: 14e7 c03d 9592 c2bd 53d9 fa3d 7b0d 86bc
00000280: 8ba7 17be 136f 8cbd f51b 663d cc88 9b3d
00000290: 2f33 ffbd ffa6 e63c 0115 2c3d eb24 18bd
000002a0: d307 a1bc dfc4 743d 312a b03d fccf fd3d
000002b0: 22df 27be 1c4c 9dbd cfa4 533e 2c88 b13c
000002c0: 5a83 c13d b082 0dbd 3464 61bd 6857 c3bd
000002d0: 17b1 51be c59a 553b 7d5c 813d 609f cfbc
000002e0: 6c6b 143e 3bb6 2b3d c6b0 70bd 61b0 f2bd
000002f0: 94ac 09be fbf1 b8bc 3b4f de3d 5b0b 26be
00000300: 2c12 41be 9f4f 91bc feef d6bc efea 0cbd
00000310: dcf0 893d 9359 ccbd 6a9c 503d a8ac 30ba
00000320: 66b6 0abd 5a9c 07be 8167 053e 98af 7a3d
00000330: 245e c73c 0726 cabc c771 ffbd d0bb 97bd
00000340: 4cd9 39bd c3f9 893d 64ed c83d 65d3 d3bd
00000350: 0944 bbbd f890 673c b49f 7a3d f8e9 e83d
00000360: decd ad3d a906 8dbe 998a 13bd 8516 0bbd
00000370: 7998 133e 55f0 0b3b f891 8bba 66fc 6cba
00000380: c4c1 21be 10a1 153e 63f0 24bd 8886 d73b
00000390: 20b8 c7bc a559 b13d 2501 b93d a845 bfbd
000003a0: 8d16 ddbd cb14 173b 23c8 9e3d 957b babd
000003b0: 0199 ab3d 63e5 66bd 9489 f5bc cb40 dd3d
000003c0: 60dd 993d 20aa 50be aecc e03c 76a4 5a3c
000003d0: 763b 31bd a6db 4c3d e3bb a3bc 1104 b43d
000003e0: cbfd d3bd e7d7 65bd 1c2f c4bd df94 eabd
000003f0: 4da4 17bd be82 1fbe 85ff 1d3e 58b4 193d

lstm1.bias_ih_l0 f4 [256]
-0.070850104 -0.08170569 -0.08211089 0.009452223 -0.04257399 -0.049878404 0.028279128 0.017727952
-0.061371397 0.005616822 0.06896365 0.034575343 -0.07983295 0.2184907 0.050959874 0.06261945
-0.0075373403 0.11278698 0.1551251 -0.16393207 -0.10387972 -0.16377401 -0.15482515 -0.074866064
-0.22653937 -0.15941599 -0.0972218 -0.16003464 -0.13850483 -0.09736284 -0.024789665 0.009079199
-0.117099866 0.10538861 0.18105942 0.1294694 0.1357416 -0.018872997 -0.12426537 -0.093396164
0.20010152 -0.025281124 -0.06462846 -0.20057908 0.16112289 -0.14066043 -0.16846213 -0.1448081
0.047914684 0.0018552783 0.034898873 0.06301042 -0.052626997 -0.07491691 -0.19419593 -0.20071362
-0.06699711 0.053234853 -0.044591982 -0.14528981 -0.11287809 -0.098227926 -0.119946346 -0.011941114
-0.13748373 -0.00018941973 0.02300233 0.05469202 -0.019202264 0.1278071 0.25408354 -0.06238716
0.035108365 0.10784402 0.057215083 -0.07004395 -0.041140318 0.21527775 0.08887377 -0.011639083
0.027688235 -0.070253134 -0.046632994 0.022039562 -0.052064225 -0.080899395 0.17216039 0.19009686
0.057257704 0.039802335 0.05699072 -0.17485608 -0.08046658 0.046175025 0.089831084 -0.05208387
-0.000115428506 -0.0065783765 -0.011997495 -0.1363598 -0.08936832 0.17093392 0.1129868 -0.12248606
0.04393899 -0.015113235 0.011286404 0.052189153 0.20890737 0.06767412 -0.05949336 -0.1414265
0.09350731 -0.03266651 0.17562596 -0.019599287 -0.18054593 0.14964814 -0.091718934 0.045881316
0.07236333 -0.041104324 0.02449903 -0.00963636 -0.1493757 0.15288018 0.04272252 -0.038269926
-0.041953176 -0.016353792 -0.08389325 -0.022160491 0.039593488 0.17996722 -0.04918193 -0.18642248
0.1267624 0.17494164 -0.049822945 -0.028423246 0.09647613 -0.04672829 0.107762456 -0.13778035
0.15995258 0.06330357 0.012536025 0.04461434 -0.07485536 0.13990138 0.0049570166 0.13263623
-0.0660758 -0.08853183 0.012943862 -0.18056725 0.11276283 -0.1520194 -0.14384013 0.008830928
-0.083011866 0.17971909 -0.037854016 -0.0023460134 -0.16358422 -0.20405893 0.06668308 0.0669371
0.040336646 0.106399365 0.11936281 -0.13882516 -0.06887444 0.022091873 -0.027809225 -0.05292897
-0.044513147 0.072661825 0.10790903 -0.05893255 -0.08755418 -0.054561004 0.051471014 0.06504558
-0.08970665 0.0061957035 0.15263532 0.094136186 -0.028609315 -0.026142716 -0.054709956 -0.038618542
-0.07847103 -0.042390008 0.019596314 0.038527302 -0.056064732 0.09904292 0.0927616 0.06876963
0.03929954 0.2298873 -0.038695566 0.00014684812 0.06478895 0.23567347 -0.14350909 0.17632416
0.10806329 0.06703459 0.03469673 0.016953124 -0.111426964 -0.13275373 -0.076924585 -0.027843188
-0.15120035 -0.085302025 -0.05341573 0.10847771 -0.10961049 -0.13191359 -0.08470357 -0.124502525
-0.10080377 -0.004009141 0.2328464 -0.011196933 0.057945248 0.07224221 -0.096545935 0.08720111
0.045130823 0.10778083 0.0067660944 -0.049026266 0.14612623 -0.07457611 -0.10503112 -0.11849173
0.0038337288 0.0914835 -0.07758139 0.20544109 0.07978954 0.105020955 0.010518711 0.055253122
-0.15614542 0.016576765 0.13505554 0.042244602 0.008574884 0.122194156 -0.043001186 -0.031150984
00000000: dc19 91bd 5055 a7bd c129 a8bd 7fdd 1a3c
00000010: 1062 2ebd 4c4d 4cbd a1a9 e73c 363a 913c
00000020: 9360 7bbd 510d b83b d03c 8d3d e09e 0d3d
00000030: 757f a3bd 07bc 5f3e 4dbb 503d a03e 803d
00000040: cbfb f6bb dcfc e63d 1dd9 1e3e cfdd 27be
00000050: e4be d4bd 60b4 27be 7c8a 1ebe 6153 99bd
00000060: f0f9 67be f23d 23be 391c c7bd 1fe0 23be
00000070: 36d4 0dbe 2b66 c7bd b213 cbbc ecc0 143c
00000080: 0ed2 efbd fcd5 d73d a467 393e a093 043e
00000090: d9ff 0a3e 8b9b 9abc d87e febd 7d46 bfbd
000000a0: 6ae7 4c3e 5c1a cfbc ed5b 84bd 9a64 4dbe
000000b0: 66fd 243e 4a09 10be 5681 2cbe 9348 14be
000000c0: 3042 443d cf2c f33a 1ff2 0e3d 9b0b 813d
000000d0: 688f 57bd 096e 99bd 4cdb 46be df87 4dbe
000000e0: c835 89bd ca0c 5a3d 15a6 36bd dac6 14be
000000f0: a12c e7bd b92b c9bd 6ea6 f5bd aaa4 43bc
00000100: 89c8 0cbe f99e 46b9 626f bc3c bd04 603d
00000110: 114e 9dbc dddf 023e 3d17 823e ae89 7fbd
00000120: cacd 0f3d 53dd dc3d 5d5a 6a3d 3473 8fbd
00000130: c082 28bd c571 5c3e 7303 b63d dab1 3ebc
00000140: 70d2 e23c e0e0 8fbd 3d02 3fbd 508c b43c
00000150: 4c41 55bd 95ae a5bd d04a 303e c0a8 423e
00000160: 0e87 6a3d c607 233d 1a6f 693d 790d 33be
00000170: aacb a4bd 0622 3d3d 5cf9 b73d e555 55bd
00000180: 3512 f2b8 6c8f d7bb 2491 44bc e7a1 0bbe
00000190: bd06 b7bd 4d09 2f3e a065 e73d f9d9 fabd
000001a0: 5ff9 333d 819d 77bc 9cea 383c 4bc4 553d
000001b0: d0eb 553e bb98 8a3d 4faf 73bd 1cd2 10be
000001c0: c380 bf3d 52cd 05bd 4bd7 333e af8e a0bc
000001d0: 08e1 38be 5d3d 193e 23d7 bbbd 0cee 3b3d
000001e0: 3a33 943d 025d 28bd 31b2 c83c d3e1 1dbc
000001f0: f2f5 18be 9f8c 1c3e cffd 2e3d edc0 1cbd
00000200: 18d7 2bbd 63f8 85bc 39d0 abbd eb89 b5bc
00000210: c82c 223d 5449 383e fe72 49bd 89e5 3ebe
00000220: 01ce 013e e723 333e 2513 4cbd ded7 e8bc
00000230: 4795 c53d 2a66 3fbd 90b2 dc3d 4b16 0dbe
00000240: 9cca 233e 4da5 813d e663 4d3c 87bd 363d
00000250: c44d 99bd 4f42 0f3e 786e a23b cbd1 073e
00000260: c052 87bd 2d50 b5bd 7e12 543c 9fe6 38be
00000270: 33f0 e63d f9aa 1bbe d44a 13be 99af 103c
00000280: 2002 aabd 4808 383e d00c 1bbd 93bf 19bb
00000290: 9f82 27be d3f4 50be 2391 883d 5116 893d
000002a0: 0a38 253d e9e7 d93d 7d74 f43d 2f28 0ebe
000002b0: 0b0e 8dbd 04fa b43c 2cd0 e3bc 0ccc 58bd
000002c0: 6b53 36bd b9cf 943d 69ff dc3d 4263 71bd
000002d0: 9b4f b3bd 5c7b 5fbd 45d3 523d 9e36 853d
000002e0: 1fb8 b7bd 5405 cb3b 6f4c 1c3e 79ca c03d
000002f0: 155e eabc 4029 d6bc 8c17 60bd 7a2e 1ebd
00000300: 6bb5 a0bd 25a1 2dbd 7388 a03c cece 1d3d
00000310: 22a4 65bd 04d7 ca3d cbf9 bd3d 17d7 8c3d
00000320: 8ef8 203d 9467 6b3e 3e7f 1ebd 3efb 1939
00000330: 12b0 843d 6354 713e 0cf4 12be 528e 343e
00000340: 4950 dd3d 6e49 893d 291e 0e3d 47e1 8a3c
00000350: d233 e4bd 98f0 07be a38a 9dbd 6617 e4bc
00000360: 44d4 1abe d4b2 aebd 74ca 5abd 9029 de3d
00000370: 777b e0bd 5b14 07be 1179 adbd 2efb febd
00000380: 3572 cebd 1d5f 83bb 496f 6e3e 5773 37bc
00000390: ff57 6d3d b9f3 933d e0b9 c5bd 7f96 b23d
000003a0: 19db 383d 32bc dc3d 1db6 dd3b c4cf 48bd
000003b0: 1da2 153e 5cbb 98bd 8e1a d7bd cbab f2bd
000003c0: 4c3f 7b3b b45b bb3d fee2 9ebd 265f 523e
000003d0: b368 a33d 3a15 d73d ac56 2c3c 1951 623d
000003e0: 96e4 1fbe ffcb 873c 004c 0a3e ad08 2d3d
000003f0: ac7d 0c3c ee40 fa3d 0322 30bd 5930 ffbc

lstm1.bias_hh_l0 f4 [256]
-0.07692719 -0.066760205 -0.009151526 0.009577402 0.04012747 0.10135067 0.16216728 -0.06400388
-0.007805696 0.1566752 0.021185715 0.116856605 -0.0076360134 0.06395374 0.004196157 -0.14169599
0.058159057 0.0031904187 0.055422306 -0.050573893 -0.091467366 -0.06574303 -0.12269985 -0.09483585
-0.07792567 -0.043635357 -0.086618006 -0.11431201 0.055761397 -0.05324318 -0.20984456 -0.05566047
0.117427446 0.019388782 0.032133315 0.046469867 0.14201465 0.016445728 -0.074728355 -0.027827153
-0.031365 0.062015045 0.03264134 -0.15354078 0.13626519 -0.17871505 -0.044746496 -0.15728237
-0.05431843 0.024536137 0.1372216 -0.035215165 0.11904401 -0.083437376 -0.198039 -0.11505513
-0.16414934 -0.03925026 0.122525334 -0.16268289 -0.035759695 0.0022557492 -0.06910604 -0.04768523
-0.12716489 0.016075892 0.0991145 -0.06873911 -0.07267961 0.030194653 0.13886106 -0.12142449
-0.08076012 0.086890094 -0.07443503 0.053777024 -0.16417755 0.14416787 -0.03979926 -0.013151931
0.0555328 -0.026000187 0.15474646 -0.11257153 -0.1229659 0.02215394 0.18671805 0.07302191
-0.1328878 -0.07492283 -0.06993667 -0.022129383 0.039919425 -0.000158435 -0.051906 0.1189247
0.02430034 -0.007855557 -0.0034647686 -0.016675733 0.09039848 0.1303917 0.09643997 -0.06650659
-0.052339673 -0.070947014 -0.066460215 -0.009946095 0.1766725 0.011869766 0.089454286 -0.17512365
-0.03381491 -0.053821966 0.057970934 0.01872222 -0.2222952 0.0047317655 -0.16774935 -0.022142727
0.13529076 0.09085231 0.12333885 0.044926815 0.00010255341 -0.04716753 0.061600063 0.04570047
0.02939002 -0.093582876 -0.20861204 0.05422141 0.015721839 0.04732249 0.009978722 -0.07407482
0.20157784 0.11353535 -0.15822427 0.155027 -0.07012463 -0.047632284 0.10218734 -0.0062550046
0.06979677 0.07825297 -0.1579127 0.16439089 -0.0023093903 0.05570834 -0.031398956 -0.0134974625
-0.08183716 -0.049673162 0.20739423 -0.09075436 0.118806444 0.011902934 0.006062619 0.031897247
0.050840653 0.10329327 0.046308767 0.023188926 -0.19024947 -0.111583784 0.07159839 0.12869306
0.069889694 -0.095506154 0.021360887 -0.060846347 -0.033727515 0.11185017 -0.049261 -0.068194546
-0.12990914 0.0132941445 0.107514314 -0.23076825 -0.13703947 0.117611185 0.03341792 0.08682118
-0.07019163 -0.028222587 0.15338059 0.17045331 0.056774024 -0.0061384058 0.015421489 -0.12046912
0.07903077 -0.02858689 -0.003450876 0.13722962 -0.07451943 0.021874659 0.05747459 -0.033766992
0.15066604 0.15774 -0.039022386 -0.021021122 -0.03384086 0.15456243 -0.03478577 0.086332224
0.05673983 -0.061665464 0.14819454 0.020904941 -0.19575645 -0.03229063 -0.041438214 -0.008737326
0.026472649 0.034315597 0.13492101 0.018566737 -0.13032107 0.07770435 -0.09422732 -0.02581872
-0.122016676 0.107175045 0.09565539 0.049002882 0.031521875 0.061681155 -0.00085725344 0.15408921
0.09398879 0.15637451 -0.017472915 0.10041687 0.070005596 -0.07419303 -0.040967647 -0.01429399
0.09950931 -0.025074625 -0.063841484 -0.007445704 -0.03819702 0.14132424 0.014130149 0.13196477
-0.004180129 -0.08539733 0.1825993 -0.14276625 0.064740665 0.006378545 0.06303247 -0.051552877
00000000: 018c 9dbd 93b9 88bd 48f0 15bc 89ea 1c3c
00000010: b45c 243d f190 cf3d 2e0f 263e 7714 83bd
00000020: edc6 ffbb 776f 203e aa8d ad3c 8452 ef3d
00000030: 8637 fabb 2efa 823d eb7f 893b c118 11be
00000040: 3138 6e3d 5816 513b 8002 633d 9226 4fbd
00000050: 3e53 bbbd 48a4 86bd 0f4a fbbd 4c39 c2bd
00000060: 7e97 9fbd fdba 32bd c864 b1bd 6a1c eabd
00000070: 1066 643d 8515 5abd 7ee1 56be 3cfc 63bd
00000080: cd7d f03d 39d5 9e3c 399e 033d 3057 3e3d
00000090: 4a6c 113e 31b9 863c 2e0b 99bd c5f5 e3bc
000000a0: 9678 00bd 7d03 7e3d edb2 053d cb39 1dbe
000000b0: 1a89 0b3e 1401 37be 1a48 37bd a10e 21be
000000c0: 017d 5ebd 0200 c93c d283 0c3e c73d 10bd
000000d0: 59cd f33d 37e1 aabd bcca 4abe 06a2 ebbd
000000e0: c416 28be e1c4 20bd 90ee fa3d 5896 26be
000000f0: c278 12bd 31d5 133b 7887 8dbd 9651 43bd
00000100: 8337 02be 97b1 833c 8bfc ca3d 17c7 8cbd
00000110: 0cd9 94bd c75a f73c 9831 0e3e 67ad f8bd
00000120: 9065 a5bd 6ff3 b13d 6571 98bd 4c45 5c3d
00000130: 291e 28be bea0 133e 8d04 23bd 327b 57bc
00000140: 5c76 633d 58fe d4bc db75 1e3e e78b e6bd
00000150: 8cd5 fbbd 2e7c b53c 0433 3f3e 838c 953d
00000160: bd13 08be 2471 99bd f53a 8fbd ae48 b5bc
00000170: 8d82 233d 9221 26b9 639b 54bd cb8e f33d
00000180: 8211 c73c 98b4 00bc 2c11 63bb 8c9b 88bc
00000190: d722 b93d 6785 053e 5282 c53d 9b34 88bd
000001a0: 2062 56bd ab4c 91bd 4b1c 88bd f2f4 22bc
000001b0: a3e9 343e 6879 423c cf33 b73d 9d53 33be
000001c0: 8181 0abd 6c74 5cbd ee72 6d3d 575f 993c
000001d0: 5aa1 63be ed0c 9b3b 7cc6 2bbe aa64 b5bc
000001e0: a989 0a3e c710 ba3d 1499 fc3d 2e05 383d
000001f0: f111 d738 bd32 41bd 5950 7c3d 6b30 3b3d
00000200: 57c3 f03c 61a8 bfbd 659e 55be 4517 5e3d
00000210: 16cb 803c 3ad5 413d cb7d 233c 8ab4 97bd
00000220: 6c6a 4e3e 3985 e83d 8b05 22be 66bf 1e3e
00000230: 819d 8fbd 121a 43bd 9947 d13d c8f6 ccbb
00000240: 9cf1 8e3d 1843 a03d deb3 21be 1656 283e
00000250: 2459 17bb 6e2e 643d 319c 00bd 7624 5dbc
00000260: 3e9a a7bd 1676 4bbd 275f 543e 6cdd b9bd
00000270: cb50 f33d 8604 433c efa8 c63b b0a6 023d
00000280: 4a3e 503d 6c8b d33d 43ae 3d3d b4f6 bd3c
00000290: c2d0 42be 0a86 e4bd 2da2 923d 1dc8 033e
000002a0: 5422 8f3d bb98 c3bd 07fd ae3c 053a 79bd
000002b0: dd25 0abd b411 e53d e7c5 49bd 95a9 8bbd
000002c0: e706 05be afcf 593c 7730 dc3d 834e 6cbe
000002d0: 1354 0cbe 22de f03d 3be1 083d 4ecf b13d
000002e0: a1c0 8fbd 0e33 e7bc cd0f 1d3e 508b 2e3e
000002f0: e18b 683d ae24 c9bb 6aaa 7c3c 84b8 f6bd
00000300: e2da a13d 0e2f eabc 1828 62bb ec85 0c3e
00000310: a59d 98bd 7c32 b33c 7a6a 6b3d 424f 0abd
00000320: 3348 1a3e 9886 213e f0d5 1fbd 7d34 acbc
00000330: b79c 0abd 9d45 1e3e 867b 0ebd f3ce b03d
00000340: 0668 683d ed94 7cbd 4fc0 173e d740 ab3c
00000350: 6174 48be 2e43 04bd 1ebb 29bd 0027 0fbc
00000360: 2bdd d83c 838e 0c3d bc28 0a3e 4519 983c
00000370: e372 05be 7523 9f3d 41fa c0bd c881 d3bc
00000380: e1e3 f9bd 977e db3d f9e6 c33d 3fb7 483d
00000390: 151d 013d 61a5 7c3d 4eb9 60ba 90c9 1d3e
000003a0: 327d c03d a420 203e 5c23 8fbc 5ca7 cd3d
000003b0: 185f 8f3d 84f2 97bd b1cd 27bd 5731 6abc
000003c0: 8acb cb3d 4d69 cdbc 53bf 82bd 18fb f3bb
000003d0: 7a74 1cbd 4db7 103e 2482 673c c621 073e
000003e0: 77f9 88bb cce4 aebd 50fb 3a3e 5131 12be
000003f0: c196 843d 1d03 d13b 2b17 813d 1c29 53bd

lstm2.weight_ih_l0 f4 [256, 64]
-0.06477583 0.012730257 -0.00038179135 -0.19972251 0.21258976 -0.004202419 0.025123054 0.02196468
0.020001296 -0.055811077 -0.0066100913 -0.07908498 -0.049487945 0.06610817 0.08145366 0.121733434
-0.1615804 -0.13578159 0.14260934 -0.13780053 0.15147528 0.019488797 0.038110152 0.053752035
-0.047913298 -0.106183745 -0.13648452 -0.07148678 0.28323656 -0.0064297477 0.102713555 -0.03362323
-0.18409859 0.031950768 -0.0578499 0.21396792 -0.064761154 -0.025113083 -0.007208021 -0.07291559
-0.064363815 0.005782555 0.04538015 0.055897124 -0.09423973 -0.07372551 -0.072384216 -0.12640092
-0.043953404 -0.043184184 0.046301443 0.07552439 0.075318076 -0.031487238 0.06434617 -0.13603441
0.10641493 0.08063763 -0.16724555 -0.066168204 -0.016852744 -0.014522558 0.06684955 -0.07182706
-0.16036336 -0.14788195 -0.24106523 0.10227568 0.24146487 -0.032107078 -0.077439666 -0.110694006
0.1017377 -0.056347143 0.16319409 0.09195424 -0.09277192 0.15080686 -0.20362964 -0.0030399645
0.10899819 0.21334022 -0.031860787 -0.05540798 -0.11419285 0.12585506 -0.050074227 -0.091470815
0.033030882 -0.22176233 0.14320233 -0.045371216 0.2133114 -0.21749446 0.06274003 0.037269257
-0.08234315 0.045376744 -0.12666261 0.0808884 -0.07120114 0.09437395 -0.24643649 0.08176788
-0.063298665 -0.11599956 0.1966212 -0.045328125 -0.05692056 -0.17477082 0.03219103 0.056758568
0.17319135 -0.23725305 0.028062114 -0.18049388 -0.051254608 -0.007844276 -0.15723799 0.07475772
0.018860677 -0.0016543521 0.0043071546 -0.15029238 0.091250874 -0.08985738 0.15003501 -0.048195526
-0.086146414 -0.05718105 -0.016645767 0.13051237 0.09654628 -0.14755417 -0.011157585 0.0033808283
0.0114768315 -0.097151816 0.1187783 0.073478244 0.045953486 0.34384868 -0.0120020555 -0.057396162
-0.020407304 -0.12520628 0.10199928 0.098276466 0.094855644 0.003184157 0.099064164 0.04106352
0.13901606 -0.0021116207 -0.09526494 0.15083459 0.2409623 -0.11428472 -0.03954213 0.054046907
0.05437761 -0.10811433 -0.285009 0.07360737 0.078196496 0.040393423 -0.09027735 -0.032118212
0.10626328 -0.0955936 -0.19276728 0.082780406 -0.10367088 -0.12243557 -0.02657763 0.09631862
0.14969234 -0.17880274 0.02367176 0.030233197 0.21059334 0.032998823 -0.04395688 -0.14972118
0.11806073 -0.057452735 -0.06832874 -0.12902537 0.05648522 -0.124955125 0.0006444558 -0.14148124
-0.034840286 0.23185945 0.25372705 -0.0138402525 -0.022790773 -0.10495488 -0.037261043 0.067984104
-0.18151449 -0.16727084 0.115009114 -0.15951172 -0.06424415 0.13045172 0.0528541 0.13758703
0.008599681 -0.10480042 0.15620433 -0.2311068 0.16821931 -0.07194841 0.1585026 0.060083494
-0.08155084 -0.077088304 -0.22510767 0.21044187 0.102127306 0.109751455 0.14125407 0.037511643
-0.079411015 -0.20878884 -0.13465205 0.021685304 0.15683192 0.018764991 0.104542956 -0.035373863
-0.124258734 0.14047958 0.01897011 -0.0006838051 -0.03253096 0.04096789 -0.025301017 0.06364164
-0.02460868 -0.21159527 -0.045788422 0.06121655 0.114825286 -0.026325323 0.08273959 0.00027156205
0.12815201 0.036536302 -0.10255719 -0.0055177584 0.079292335 -0.03653678 0.13356714 0.06311324
00000000: 31a9 84bd 9192 503c 2b2b c8b9 0f84 4cbe
00000010: 21b1 593e 72b4 89bb ddce cd3c 46ef b33c
00000020: c2d9 a33c 289a 64bd 7799 d8bb 4ef7 a1bd
00000030: dfb3 4abd b863 873d 2dd1 a63d 614f f93d
00000040: 5575 25be 540a 0bbe 2f08 123e 951b 0dbe
00000050: 561c 1b3e f8a6 9f3c 6419 1c3d 182b 5c3d
00000060: bc40 44bd dd76 d9bd 99c2 0bbe a967 92bd
00000070: 6204 913e a2b0 d2bb 7c5b d23d 83b8 09bd
00000080: 5784 3cbe cfde 023d 04f4 6cbd 681a 5b3e
00000090: 7fa1 84bd f4b9 cdbc 4331 ecbb c554 95bd
000000a0: 2dd1 83bd 967b bd3b 89e0 393d 62f4 643d
000000b0: c200 c1bd 66fd 96bd 2d3e 94bd 3e6f 01be
000000c0: 7c08 34bd e6e1 30bd 95a6 3d3d 88ac 9a3d
000000d0: 5d40 9a3d c3f8 00bd edc7 833d 9b4c 0bbe
000000e0: 12f0 d93d 5725 a53d 6b42 2bbe 3283 87bd
000000f0: c40e 8abc 06f0 6dbc 6be8 883d 111a 93bd
00000100: 4b36 24be 5e6e 17be ced9 76be e975 d13d
00000110: 9142 773e b682 03bd b098 9ebd 8ab3 e2bd
00000120: db5b d03d 43cc 66bd 5a1c 273e 8152 bc3d
00000130: 34ff bdbd 1d6d 1a3e 4a84 50be 243a 47bb
00000140: 713a df3d dc75 5a3e 7580 02bd 7af3 62bd
00000150: f1dd e9bd 26e0 003e a21a 4dbd 0d55 bbbd
00000160: 644b 073d aa15 63be a2a3 123e 2bd7 39bd
00000170: 4e6e 5a3e deb6 5ebe d87d 803d a6a7 183d
00000180: 87a3 a8bd f7dc 393d d8b3 01be d1a8 a53d
00000190: e7d1 91bd 2147 c13d d959 7cbe eb75 a73d
000001a0: bba2 81bd 2d91 edbd 1157 493e fca9 39bd
000001b0: 8825 69bd 1ff7 32be beda 033d ac7b 683d
000001c0: 1359 313e 77f2 72be 85e2 e53c 63d3 38be
000001d0: 5af0 51bd 4785 00bc ff02 21be 931a 993d
000001e0: b581 9a3c d8d6 d8ba 0823 8d3b 3fe6 19be
000001f0: bde1 ba3d 2507 b8bd c7a2 193e ac68 45bd
00000200: 886d b0bd ad36 6abd b45c 88bc 09a5 053e
00000210: 0eba c53d 7118 17be 4ece 36bc e390 5d3b
00000220: 5209 3c3c 88f7 c6bd 0a42 f33d c37b 963d
00000230: b939 3c3d ef0c b03e 45a4 44bc 3d18 6bbd
00000240: 382d a7bc 1336 00be 00e5 d03d 2c45 c93d
00000250: ad43 c23d 4aad 503b 27e2 ca3d 3932 283d
00000260: 3a5a 0e3e 1e63 0abb 441a c3bd 6274 1a3e
00000270: d2be 763e 1b0e eabd eef6 21bd 4a60 5d3d
00000280: 0fbb 5e3d 0c6b ddbd b3ec 91be 76bf 963d
00000290: 7c25 a03d 9373 253d 55e3 b8bd 638e 03bd
000002a0: 90a0 d93d 94c6 c3bd c964 45be c688 a93d
000002b0: 6651 d4bd 80bf fabd 54b9 d9bc b242 c53d
000002c0: f348 193e 1118 37be 47eb c13c 9cab f73c
000002d0: c8a5 573e c629 073d 210c 34bd 8250 19be
000002e0: d3c9 f13d 8f53 6bbd f0ef 8bbd 3a1f 04be
000002f0: 0c5d 673d 79e8 ffbd b2f0 283a 75e0 10be
00000300: b0b4 0ebd 906c 6d3e 83e8 813e 3ac2 62bc
00000310: b7b3 babc 96f2 d6bd 099f 18bd 403b 8b3d
00000320: efde 39be 0c49 2bbe e689 eb3d 0a57 23be
00000330: 7092 83bd 2395 053e 8a7d 583d 9de3 0c3e
00000340: ade5 0c3c 9aa1 d6bd 07f4 1f3e 43a7 6cbe
00000350: af41 2c3e b059 93bd 814e 223e 1c1a 763d
00000360: 2004 a7bd 79e0 9dbd a082 66be 137e 573e
00000370: 1f28 d13d 5fc5 e03d e8a4 103e cfa5 193d
00000380: 3ea2 a2bd becc 55be 3ae2 09be 61a5 b13c
00000390: 8c98 203e 0ab9 993c 9e1a d63d 2fe4 10bd
000003a0: 5d7b febd e1d9 0f3e 3467 9b3c 6241 33ba
000003b0: 2f3f 05bd f2cd 273d 1444 cfbc 8c56 823d
000003c0: 2498 c9bc 6eac 58be a48c 3bbd 35be 7a3d
000003d0: 8529 eb3d 34a8 d7bc 6073 a93d 7160 8e39
000003e0: 483a 033e 17a7 153d 8109 d2bd 50ce b4bb
000003f0: 0564 a23d 97a7 15bd d3c5 083e 8441 813d

lstm2.weight_hh_l0 f4 [256, 64]
-0.0378078 0.10016716 0.036198836 -0.022760319 -0.16134882 -0.121074624 -0.10192709 0.08044751
-0.04753804 -0.057655703 0.009095019 -0.017926222 -0.09546174 0.0735298 0.0660471 -0.061091404
-0.0039668176 0.059049442 0.014692237 0.0028345152 -0.107399784 -0.0009093109 0.015235953 0.059374817
-0.18461733 -0.13553573 0.124562986 0.16343166 -0.103094585 0.03969076 -0.08658898 -0.039765883
-0.12252294 0.06258091 -0.046210688 -0.13319254 -0.0057168193 -0.068897575 0.21909718 0.011376205
0.18824302 0.10823989 0.18425356 0.023510987 0.06180726 0.07065884 0.19503675 -0.028158048
-0.03923044 0.044986166 -0.079106964 0.024480158 0.025898483 -0.066829726 0.023519209 0.08175972
-0.03003386 -0.11031499 -0.07332809 -0.20674372 0.062427506 0.07995911 0.036809806 -0.022259215
-0.015441962 -0.038266476 0.06467102 0.21850635 0.008192282 -0.043598432 -0.10135624 0.15587294
0.022382686 -0.105786264 -0.13387434 0.11163339 0.0853542 -0.025249379 -0.13973726 -0.10855775
-0.07544956 -0.2092086 0.00090495864 0.05865084 0.06324179 -0.09396888 0.068720564 0.010072667
-0.0025212832 0.07572481 0.10001655 0.113549516 -0.041426666 0.07800277 -0.06608217 -0.09690947
0.034855142 0.12533382 -0.029037049 -0.11552803 0.049302362 0.100545645 0.1624257 -0.0043493635
-0.050525624 0.10014434 -0.071507186 -0.16449875 0.041457158 -0.07551686 0.11026932 -0.17440741
-0.06860409 0.08009164 -0.018499993 -0.031799346 0.016190553 -0.15152463 -0.15708837 0.18583901
0.16834296 -0.12275819 0.13098978 -0.06972002 0.110142395 0.070175834 0.053840403 0.11655449
-0.0683347 0.02818051 -0.060497615 0.04529629 0.012654272 0.16965005 -0.025936386 -0.003576971
0.10353251 -0.017819002 -0.040030453 0.10092855 -0.023682702 0.07527725 0.0042400546 0.041529298
-0.13559227 -0.090078115 -0.22709432 -0.05800152 -0.021552 0.08014426 -0.05620031 -0.11166811
0.024035182 -0.02380974 -0.02918386 0.045276467 -0.109164946 -0.1625803 0.07596847 0.16298907
-0.035629794 -0.028582798 -0.042547975 -0.09072699 0.02613447 0.09766242 -0.021238565 -0.082415596
0.00032461897 -0.0780408 0.107977435 -0.021072477 -0.05767615 -0.0036936067 -0.012576624 -0.027845472
0.08254081 0.1367787 0.094253525 -0.08032405 0.06658104 0.04206774 -0.15953317 -0.10355552
0.019316053 0.0066016633 0.08159965 0.00030069833 -0.009919403 -0.03719085 0.20414604 -0.021429278
0.010242851 0.15487567 -0.11166193 0.027678961 -0.026642561 -0.04524266 0.09234781 -0.022622172
0.0021316104 -0.009818869 0.17824529 0.15777941 0.06189719 -0.012874896 0.013465609 -0.052905515
-0.04032153 0.06600975 0.15811218 -0.20157227 -0.11926933 0.09374894 0.1019143 -0.043856688
0.10789882 -0.12931105 0.18858773 0.11284918 0.1673193 -0.017357925 -0.21716818 0.045310948
-0.1247246 0.11638781 -0.02121552 0.14437969 0.06505424 -0.19229744 0.3186724 0.06620864
0.08161659 0.13167576 -0.06970646 0.14397228 -0.08757758 0.02201105 0.05155701 0.052354865
0.08007428 0.083112076 0.06397819 0.101313345 0.038611468 -0.09486986 0.070389606 0.11646861
0.15161903 0.022183366 0.060972113 -0.07178046 -0.0022748718 -0.08910314 -0.03894255 0.15323332
00000000: 5adc 1abd 7124 cd3d 3b45 143d d973 babc
00000010: a038 25be f9f5 f7bd 26bf d0bd aac1 a43d
00000020: 3fb7 42bd 6328 6cbd 4603 153c 03da 92bc
00000030: 7281 c3bd cb96 963d b443 873d fb3a 7abd
00000040: 14fc 81bb d4dd 713d b5b7 703c 46c3 393b
00000050: 6bf4 dbbd d25e 6eba 38a0 793c 0233 733d
00000060: 530c 3dbe e1c9 0abe e11a ff3d a15a 273e
00000070: 4123 d3bd c792 223d 9055 b1bd 8de1 22bd
00000080: 4fed fabd 6c2a 803d 6b47 3dbd a063 08be
00000090: 2854 bbbb 2c1a 8dbd 035b 603e 4363 3a3c
000000a0: c7c2 403e e0ac dd3d f7ac 3c3e 1d9a c03c
000000b0: 9c29 7d3d 95b5 903d b7b7 473e b5ab e6bc
000000c0: 19b0 20bd 6a43 383d d502 a2bd 9d8a c83c
000000d0: 0e29 d43c 06de 88bd 5bab c03c a471 a73d
000000e0: 9209 f6bc d3ec e1bd 0a2d 96bd a0b4 53be
000000f0: fcb3 7f3d 9ac1 a33d e1c5 163d f558 b6bc
00000100: 4800 7dbc 4fbd 1cbd 3d72 843d 21c0 5f3e
00000110: ec38 063c 4594 32bd dc93 cfbd 289d 1f3e
00000120: e55b b73c 78a6 d8bd 5b16 09be 0ca0 e43d
00000130: 2fce ae3d c9d7 cebc 4917 0fbe 8753 debd
00000140: 4d85 9abd c73a 56be bf3a 6d3a dd3b 703d
00000150: e984 813d c272 c0bd 5ebd 8c3d d407 253c
00000160: 1d3c 25bb 9c15 9b3d 7ad5 cc3d a68c e83d
00000170: 02af 29bd ebbf 9f3d 1756 87bd 7978 c6bd
00000180: 44c4 0e3d 8257 003e 1bdf edbc f699 ecbd
00000190: 46f1 493d e0ea cd3d ec52 263e 1b85 8ebb
000001a0: f5f3 4ebd 7a18 cd3d 5c72 92bd 5c72 28be
000001b0: fbce 293d 95a8 9abd e2d4 e13d db97 32be
000001c0: 4d80 8cbd 1607 a43d 4c8d 97bc 0840 02bd
000001d0: 0da2 843c 4629 1bbe c6db 20be 954c 3e3e
000001e0: 1962 2c3e a568 fbbd 2f22 063e 5fc9 8ebd
000001f0: 5692 e13d 59b8 8f3d c187 5c3d 1fb4 ee3d
00000200: 10f3 8bbd d0da e63c 59cc 77bd 9a88 393d
00000210: dd53 4f3c beb8 2d3e 8b78 d4bc 9d6b 6abb
00000220: da08 d43d 28f9 91bc f9f6 23bd a1b3 ce3d
00000230: 3a02 c2bc f52a 9a3d 28f0 8a3b a01a 2a3d
00000240: b3d8 0abe e07a b8bd 6a8b 68be 0093 6dbd
00000250: d28d b0bc ac22 a43d 4c32 66bd 40b2 e4bd
00000260: 6ee5 c43c a50c c3bc fe12 efbc d173 393d
00000270: df91 dfbd 737b 26be 5b95 9b3d 9be6 263e
00000280: 8cf0 11bd 7926 eabc c946 2ebd 12cf b9bd
00000290: f517 d63c 3c03 c83d 80fc adbc 82c9 a8bd
000002a0: 9f31 aa39 dbd3 9fbd 4623 dd3d 30a0 acbc
000002b0: d43d 6cbd 7010 72bb 2f0e 4ebc 301c e4bc
000002c0: 280b a93d b70f 0c3e fe07 c13d ef80 a4bd
000002d0: a45b 883d 394f 2c3d aa5c 23be eb14 d4bd
000002e0: b33c 9e3c c452 d83b b81d a73d 0ca7 9d39
000002f0: fe84 22bc 6f55 18bd a90b 513e 748c afbc
00000300: a2d1 273c ba97 1e3e 03af e4bd fdbe e23c
00000310: 8041 dabc 5e50 39bd d920 bd3d 2252 b9bc
00000320: 7db2 0b3b 52df 20bc ef85 363e ed90 213e
00000330: e887 7d3d 3af1 52bc dc9e 5c3c 74b3 58bd
00000340: 3028 25bd 1f30 873d 29e8 213e f668 4ebe
00000350: 7a43 f4bd 72ff bf3d 72b8 d03d 12a3 33bd
00000360: 0efa dc3d 1e6a 04be 241d 413e 791d e73d
00000370: c055 2b3e 3532 8ebc 5661 5ebe f997 393d
00000380: 9c6f ffbd bb5c ee3d 2ccc adbc 45d8 133e
00000390: 283b 853d 9fe9 44be 0729 a33e 6598 873d
000003a0: 9926 a73d 03d6 063e 43c2 8ebd 786d 133e
000003b0: e05b b3bd 8450 b43c 712d 533d 0e72 563d
000003c0: fcfd a33d aa36 aa3d ff06 833d 5f7d cf3d
000003d0: 0f27 1e3d 214b c2bd 6d28 903d 1887 ee3d
000003e0: 0542 1b3e e4b9 b53c e5bd 793d a201 93bd
000003f0: 0416 15bb b57b b6bd 3982 1fbd 32e9 1c3e

lstm2.bias_ih_l0 f4 [256]
0.07391831 -0.1615946 -0.1033681 -0.009727435 0.040510584 0.12637803 0.03385792 -0.0069722566
-0.03288542 0.07354595 0.22409809 -0.047157872 0.091077864 0.09231706 0.06003548 0.03879357
-0.11014038 0.13819636 -0.09379198 0.11086543 0.19060948 0.037907977 -0.10185286 0.4171784
-0.03862251 -0.07290263 -0.102668926 0.27088997 -0.06991285 0.003978053 0.116083525 -0.08073857
0.14306718 -0.03927979 -0.0039585996 -0.022185432 0.040102173 0.074495025 0.016175311 -0.16461605
-0.101845734 0.1376117 -0.068450004 -0.15179326 -0.0731681 -0.07870973 0.07812544 -0.025663879
-0.014640088 -0.12138328 -0.05460978 0.19790651 -0.1388855 0.10965091 -0.116663806 -0.095751606
0.012263515 0.026195336 0.11566069 -0.14829755 -0.21123172 0.22307748 -0.10498087 0.24906056
0.1523583 0.021268828 0.096040815 -0.08071655 0.005765021 0.18753864 -0.036634937 0.045540325
-0.112427 0.009469941 0.08466462 0.01790276 0.09832034 -0.0075793047 0.084014185 -0.04661433
-0.0014247559 0.26929823 -0.04325526 0.23694138 0.017662298 0.07984349 0.24381304 -0.11171454
0.011851468 -0.05160395 0.019057427 0.042644743 -0.14432687 -0.0035147928 0.189595 0.038519327
-0.00497818 0.0004232585 0.12525992 0.1777734 -0.018705277 -0.072801866 0.08987586 0.09071718
0.11349418 -0.12631878 -0.14484602 0.038466614 -0.012903418 -0.024743682 0.058126606 0.16007608
0.015864557 -0.06756645 0.1541875 0.11925206 0.08259788 0.22718515 -0.09575746 -0.039709985
-0.051192064 -0.03402303 0.080462925 0.07096283 0.04868299 0.034415834 -0.1217059 0.101263955
0.017046997 0.10025766 -0.042306036 -0.076515526 0.037132278 -0.06910865 0.06545444 0.06448319
0.014875518 -0.038400758 0.046923064 -0.0373717 0.10926791 -0.0415405 0.10956824 0.13002598
0.019695187 0.1470119 -0.13036041 -0.10647433 0.08203449 0.06716019 0.14351559 0.00939872
0.020277182 -0.13971147 0.013659445 0.043339107 -0.15613687 -0.0007101435 -0.019828036 0.01422633
-0.08485091 -0.10512153 0.0035265926 -0.07634193 -0.107362635 -0.05360634 -0.003426562 0.065363556
0.015455062 0.023245368 -0.0032665608 0.01846605 -0.005841588 0.03270505 0.14491364 -0.111664474
0.08310233 0.101420134 0.03572003 0.013638233 0.08251333 -0.052020732 -0.0094551165 0.08088219
-0.09812556 0.027722085 -0.10566663 -0.068214506 -0.034074478 0.11859222 -0.045507338 -0.07522819
0.15759404 -0.028403606 -0.02021845 -0.12994596 -0.023358854 0.20136097 0.097003736 0.06736278
0.027024187 -0.032011896 0.272118 -0.09383291 -0.0031246012 0.054718282 0.10980398 0.023919696
0.10815925 0.084787816 -0.088777736 0.07687161 0.066064864 0.115522996 0.08308936 0.2820423
-0.019119794 0.004782018 0.10073215 0.17087184 0.044500433 -0.089543514 0.16806236 0.013449262
0.18040329 -0.06133184 0.1270929 -0.011544108 -0.13836622 0.19474804 -0.05640097 -0.031261336
0.1136781 0.055224188 0.035474114 -0.13293253 0.10502268 -0.06906794 -0.032715123 0.04919618
-0.018435456 0.050631687 0.064092636 0.1522918 0.047649898 0.010500827 -0.1341481 -0.0013310068
0.13027 -0.10333232 0.1388417 -0.09950303 -0.013696559 0.29752287 0.08661536 0.086893365
00000000: 7c62 973d 0e79 25be a8b2 d3bd d25f 1fbc
00000010: 6dee 253d 3e69 013e 9aae 0a3d 8777 e4bb
00000020: ddb2 06bd 429f 963d f879 653e 9d28 41bd
00000030: 0887 ba3d ba10 bd3d c3e7 753d 02e6 1e3d
00000040: 4891 e1bd 5983 0d3e 0216 c0bd 6a0d e33d
00000050: 222f 433e 6545 1b3d 3b98 d0bd 6898 d53e
00000060: a332 1ebd f94d 95bd 1644 d2bd 17b2 8a3e
00000070: 782e 8fbd 545a 823b 33bd ed3d 435a a5bd
00000080: 3480 123e d8e3 20bd 24b7 81bb 39be b5bc
00000090: 2d42 243d d990 983d 1682 843c 1c91 28be
000000a0: 7f94 d0bd 15ea 0c3e 842f 8cbd b16f 1bbe
000000b0: 28d9 95bd 9132 a1bd 3b00 a03d 0e3d d2bc
000000c0: fbdc 6fbc cc97 f8bd 81ae 5fbd 01a8 4a3e
000000d0: 0038 0ebe a890 e03d 6fed eebd 6b19 c4bd
000000e0: e9ec 483c 9a97 d63c 83df ec3d 50db 17be
000000f0: 214d 58be 6c6e 643e 3600 d7bd bb09 7f3e
00000100: d003 1c3e f73b ae3c 0cb1 c43d b84e a5bd
00000110: 80e8 bc3b 210a 403e 840e 16bd 7e88 3a3d
00000120: 2140 e6bd d027 1b3c a564 ad3d cfa8 923c
00000130: 2d5c c93d d15b f8bb a10f ac3d abee 3ebd
00000140: e0be baba 75e1 893e 6d2c 31bd c3a0 723e
00000150: 86b0 903c fc84 a33d 20aa 793e 98ca e4bd
00000160: a92c 423c aa5e 53bd 521e 9c3c 41ac 2e3d
00000170: 6cca 13be 7058 66bb 3125 423e 71c6 1d3d
00000180: 0020 a3bb cbe8 dd39 2344 003e 3b0a 363e
00000190: cf3b 99bc 2519 95bd d610 b83d eec9 b93d
000001a0: a36f e83d b659 01be 8452 14be 2b8f 1d3d
000001b0: dc68 53bc 43b3 cabc 2a16 6e3d fcea 233e
000001c0: 63f6 813c 4760 8abd 54e3 1d3e 6d3a f43d
000001d0: 1429 a93d 39a3 683e 7d1c c4bd f0a6 22bd
000001e0: c5ae 51bd bc5b 0bbd bfc9 a43d f654 913d
000001f0: d167 473d 9ef7 0c3d f140 f9bd 7a63 cf3d
00000200: 25a6 8b3c e353 cd3d 1849 2dbd 2cb4 9cbd
00000210: 0418 183d d688 8dbd fa0c 863d c30f 843d
00000220: 72b8 733c 1d4a 1dbd 6632 403d 1113 19bd
00000230: dbc7 df3d 5f26 2abd 5065 e03d 8825 053e
00000240: cd57 a13c 4a8a 163e 337d 05be 370f dabd
00000250: b301 a83d 488b 893d c0f5 123e 17fd 193c
00000260: 551c a63c 8610 0fbe ddcb 5f3c 5984 313d
00000270: 58e2 1fbe ec28 3aba 686e a2bc 8e15 693c
00000280: 50c6 adbd f549 d7bd 681e 673b 2859 9cbd
00000290: f1e0 dbbd 5292 5bbd 2c90 60bb 54dd 853d
000002a0: 3a37 7d3c 126d be3c cc13 56bb 1d46 973c
000002b0: cb6a bfbb bbf5 053d 3e64 143e 58b0 e4bd
000002c0: 8e31 aa3d 5cb5 cf3d 2b4f 123d e572 5f3c
000002d0: c0fc a83d b113 55bd a2e9 1abc 90a5 a53d
000002e0: 0ef6 c8bd 6d19 e33c bf67 d8bd 0cb4 8bbd
000002f0: ae91 0bbd 7ae0 f23d e765 3abd 3d11 9abd
00000300: 5560 213e aeae e8bc 2aa1 a5bc 8e10 05be
00000310: 115b bfbc 9231 4e3e e5a9 c63d 7ff5 893d
00000320: d461 dd3c e81e 03bd 0d53 8b3e 782b c0bd
00000330: 1cc6 4cbb 4720 603d e9e0 e03d 3df3 c33c
00000340: 9982 dd3d 3ca5 ad3d 1ad1 b5bd dd6e 9d3d
00000350: 044d 873d 5297 ec3d c12a aa3d d967 903e
00000360: 1da1 9cbc 79b2 9c3b a84c ce3d 07f9 2e3e
00000370: 1646 363d 9762 b7bd 8a18 2c3e 4b5a 5c3c
00000380: a4bb 383e 1837 7bbd a424 023e 8023 3dbc
00000390: e0af 0dbe 086c 473e b404 67bd e30b 00bd
000003a0: 10d0 e83d c232 623d 4e4d 113d 771f 08be
000003b0: 2116 d73d 7e73 8dbd 4b00 06bd ef81 493d
000003c0: f405 97bc 2c63 4f3d 0043 833d 62f2 1b3e
000003d0: 8a2c 433d a90b 2c3c 1f5e 09be 2d75 aeba
000003e0: 8065 053e e59f d3bd 852c 0e3e 3fc8 cbbd
000003f0: 8867 60bc eb54 983e 6563 b13d 26f5 b13d

lstm2.bias_hh_l0 f4 [256]
0.22868179 -0.11304619 -0.12893528 -0.072719164 0.026826624 -0.08280766 0.068071015 -0.0010895395
-0.024323639 -0.010423704 0.21587823 0.042823628 0.1255658 0.065442026 -0.07073632 0.019981679
-0.10688064 -0.023227185 0.014558 0.09458757 0.15586804 0.12133787 -0.056097507 0.25318712
-0.1584316 -0.1486064 -0.13776581 0.03887846 -0.02567402 0.007018035 0.24048556 0.033741202
0.09530554 0.012095023 0.09938509 0.0048646736 -0.04070379 0.05749388 -0.09521251 -0.08245467
0.10932638 -0.0033918556 -0.12482473 -0.07847001 0.008912817 0.020124834 0.03396203 -0.051264856
0.02534274 0.038623523 0.0025864907 0.03837999 0.07403854 0.15056786 0.06427159 -0.066507995
0.049304217 0.05598665 0.0715731 -0.14507192 -0.22329305 0.10578189 -0.11241586 0.070884705
0.19720261 0.061476897 0.10922225 -0.0396987 -0.08346087 -0.037836898 0.06789875 0.014060389
-0.010394985 -0.10992047 0.11902986 -0.012693543 0.053893443 0.0665622 0.13825111 0.117952205
0.14948879 0.22039106 -0.017383542 0.11616777 0.029527782 0.083809555 0.16837822 -0.04518296
0.024013052 -0.027594928 -0.0038760658 -0.012742818 -0.1359474 -0.034000285 0.04434831 0.08718626
0.066282466 -0.010644385 0.24762827 0.12320908 -0.011986597 -0.16479492 0.051961295 0.08538881
-0.027319806 -0.087503344 -0.0155522525 0.052972246 -0.12035741 -0.06458303 0.022889027 -0.025117835
0.07149092 0.035690594 0.29534647 0.116902955 0.0039045815 0.016564433 -0.014569138 0.08208854
-0.03299048 0.07849258 0.093292825 -0.05891564 0.009042344 -0.0021054808 -0.08954981 -0.07083001
0.10658821 0.10082201 0.07189411 0.08467511 -0.09628065 -0.042630527 -0.055246163 -0.008923296
-0.08458882 0.10262233 -0.09337042 -0.10682907 0.062263757 -0.02046906 -0.011072131 -0.0788417
-0.008753517 0.1268017 0.047324173 0.065339886 -0.084876314 -0.04420699 0.053788155 0.03619642
-0.022744896 -0.13542335 -0.035692267 0.042577725 -0.11794036 -0.016766937 -0.018752428 0.1323437
0.12980145 -0.11659322 0.057495944 -0.12472589 -0.042495314 0.05942459 -0.03929937 -0.031429917
0.0040614097 0.087828346 0.08006885 0.068612255 0.08606675 -0.026792744 -0.044260446 0.032365695
-0.022178654 -0.051327124 0.036915306 0.015403883 0.0045830877 0.003228683 0.023416284 0.047337353
-0.036769383 -0.109785534 0.054520436 -0.07456482 0.019884622 0.08952275 0.079013675 0.04612405
0.117882535 -0.029141948 0.1163312 0.08865261 -0.077704325 0.20555086 0.10513804 0.18802291
-0.069416165 0.109732695 0.30189827 -0.040975846 0.08571027 0.11398948 0.0974793 0.11842334
0.10295587 0.09155867 0.128043 0.15180403 0.2230034 0.1806298 0.0059566665 0.35394335
0.024165334 0.0052660718 0.019135507 0.2471298 0.02294698 0.065987624 0.03933554 -0.040368944
0.11433582 0.15754694 0.13438572 0.11489948 -0.12484033 0.1215902 -0.03653589 -0.108214386
0.045005184 0.07170917 -0.11237265 -0.07887836 0.14929853 0.07426641 0.03197373 -0.059384894
0.03276843 0.10585304 0.054142166 0.15807769 0.03831645 0.048878826 0.043527044 0.10184573
0.019903481 -0.038390268 0.0549939 -0.014001838 -0.13142131 0.32799312 0.03721266 0.26630494
00000000: 8f2b 6a3e c384 e7bd 9c07 04be c9ed 94bd
00000010: 82c3 db3c 1097 a9bd d168 8b3d e1ce 8eba
00000020: 5e42 c7bc 2fc8 2abc 2f0f 5d3e d467 2f3d
00000030: 5294 003e 7806 863d 34de 90bd 9eb0 a33c
00000040: 3de4 dabd f046 bebc ad84 6e3c 21b7 c13d
00000050: df9b 1f3e fd7f f83d 80c6 65bd bea1 813e
00000060: e53b 22be 472c 18be 7b12 0dbe 053f 1f3d
00000070: 5352 d2bc 8bf7 e53b d941 763e 3734 0a3d
00000080: 8d2f c33d 342a 463c 698a cb3d d767 9f3b
00000090: 04b9 26bd b47e 6b3d c7fe c2bd fedd a8bd
000000a0: 82e6 df3d e549 5ebb 1ca4 ffbd e2b4 a0bd
000000b0: 1007 123c d6dc a43c c51b 0b3d 19fb 51bd
000000c0: 949b cf3c b333 1e3d 1d82 293b 5634 1d3d
000000d0: 85a1 973d 762e 1a3e d3a0 833d 5835 88bd
000000e0: 38f3 493d 4252 653d eb94 923d bc8d 14be
000000f0: efa6 64be 2da4 d83d 493a e6bd 002c 913d
00000100: 7bef 493e 33cf 7b3d eaaf df3d 1b9b 22bd
00000110: 88ed aabd ddfa 1abd 800e 8b3d 8c5d 663c
00000120: ba4f 2abc fc1d e1bd edc5 f33d 94f8 4fbc
00000130: 5fbf 5c3d c351 883d b391 0d3e ed90 f13d
00000140: 9713 193e 32ae 613e ee67 8ebc 5ee9 ed3d
00000150: 3fe4 f13c 58a4 ab3d 576b 2c3e c411 39bd
00000160: 05b7 c43c c20e e2bc 9805 7ebb 41c7 50bc
00000170: cc35 0bbe e243 0bbd 93a6 353d b68e b23d
00000180: 1abf 873d c965 2ebc 4492 7d3e 0b55 fc3d
00000190: 6f63 44bc 00c0 28be 5ed5 543d 54e0 ae3d
000001a0: c9cd dfbc f434 b3bd e0ce 7ebc 6df9 583d
000001b0: f27d f6bd 1c44 84bd c581 bb3c ebc3 cdbc
000001c0: d569 923d 4d30 123d a737 973e d16a ef3d
000001d0: 02e4 7f3b 22b2 873c 65b3 6ebc 091e a83d
000001e0: 0721 07bd b8c0 a03d 4f10 bf3d 8751 71bd
000001f0: 5726 143c 1bfc 09bb e465 b7bd 530f 91bd
00000200: eb4a da3d c57b ce3d 383d 933d 256a ad3d
00000210: ca2e c5bd 599d 2ebd cd49 62bd 0433 12bc
00000220: e73c adbd a82b d23d fe38 bfbd 33c9 dabd
00000230: 4808 7f3d bbae a7bc e267 35bc c277 a1bd
00000240: e96a 0fbc 4ed8 013e fed6 413d ebd0 853d
00000250: a2d3 adbd 6412 35bd f850 5c3d b342 143d
00000260: 8153 babc 6bac 0abe 0e32 12bd fb65 2e3d
00000270: b78a f1bd d15a 89bc b19e 99bc 1b85 073e
00000280: acea 043e 6dc8 eebd de80 6b3d 4a70 ffbd
00000290: 910f 2ebd 3367 733d 60f8 20bd a8bc 00bd
000002a0: 9315 853b 59df b33d 23fb a33d 9584 8c3d
000002b0: c443 b03d 757c dbbc 714a 35bd e491 043d
000002c0: 02b0 b5bc 643c 52bd 8134 173d 9160 7c3c
000002d0: ba2d 963b 5098 533b 82d3 bf3c d0e4 413d
000002e0: 7e9b 16bd 3dd7 e0bd d250 5f3d 71b5 98bd
000002f0: 13e5 a23c b457 b73d ecd1 a13d 92ec 3c3d
00000300: 666c f13d 18bb eebc 0d3f ee3d 808f b53d
00000310: 7223 9fbd ed7b 523e 9d52 d73d 1489 403e
00000320: 102a 8ebd 89bb e03d 6992 9a3e 4ad6 27bd
00000330: de88 af3d 5173 e93d 3aa3 c73d f087 f23d
00000340: 87da d23d 1d83 bb3d b41d 033e 8472 1b3e
00000350: 015b 643e 05f7 383e 2430 c33b 1038 b53e
00000360: 61f6 c53c 038f ac3b 11c2 9c3c 980f 7d3e
00000370: 4efb bb3c 8524 873d 4e1e 213d e859 25bd
00000380: e628 ea3d fc53 213e 699c 093e 6b50 eb3d
00000390: 49ac ffbd 4804 f93d a8a6 15bd 819f ddbd
000003a0: 5b57 383d 42dc 923d a223 e6bd fa8a a1bd
000003b0: b7e1 183e fd18 983d e3f6 023d 933d 73bd
000003c0: 3038 063d 7bc9 d83d 2dc4 5d3d 1edf 213e
000003d0: b6f1 1c3d 2a35 483d 6a49 323d 7e94 d03d
000003e0: a00c a33c 1d3f 1dbd 4941 613d f767 65bc
000003f0: 4f93 06be b7ee a73e 4d6c 183d 1f59 883e
