saved_model/DAP_Model_Combo1.pt (torch, 232066 bytes, 12 tensors)

lstm1.weight_ih_l0 f4 [256, 4]
0	0xbd151976	-0.036401235
1	0xbd362dd8	-0.044477314
2	0x3e05b708	0.13058102
3	0xbe6c4de4	-0.23076588
4	0x3d45adda	0.0482615
5	0xbd5cd45d	-0.053913463
6	0x3d9b6309	0.07587249
7	0xbc963232	-0.018334482
8	0xbc57243c	-0.013131198
9	0xbca1c112	-0.019745383
10	0x3c5aa33b	0.013344581
11	0xbe7b980e	-0.24569723
12	0x3baa6c88	0.005200926
13	0xbd2b4c41	-0.04182077
14	0x3d2e3138	0.042527407
15	0x3c5199c7	0.012793011
16	0x3ddbf786	0.10740571
17	0xbc76dace	-0.015066816
18	0xbd4a0d29	-0.049328957
19	0xbc22194e	-0.009893728
20	0xbda25568	-0.07926446
21	0x3d095a68	0.033533484
22	0x3dff223e	0.12457703
23	0x3e812611	0.25224355
24	0xbcda1004	-0.026618965
25	0x3dc42063	0.0957649
26	0x3c3378f0	0.010954127
27	0x3cfe0327	0.031007363
28	0xbd2c57fc	-0.042076096
29	0x3dfe7779	0.12425131
30	0xbd480bd3	-0.0488394
31	0xbdd302ae	-0.103032455
32	0xbd5533f0	-0.052051485
33	0x3c8c5a38	0.017132863
34	0xbd530e4a	-0.0515273
35	0x3e6d786e	0.23190472
36	0x3dded1b9	0.10879845
37	0x3d0f8d2d	0.035046745
38	0x3e532c64	0.20622402
39	0xbc900c91	-0.017584117
40	0x3d894f06	0.06704526
41	0x3d9222c6	0.07135539
42	0x3cb4a6f4	0.022052266
43	0xbd685f7b	-0.056731682
44	0xbd8aecae	-0.06783424
45	0x3dfb1b49	0.122610636
46	0x3e8b0bfb	0.27157578
47	0x3e15dab7	0.14634214
48	0xbd95b1a6	-0.073092744
49	0x3d338938	0.043832034
50	0xbd5237c7	-0.051322725
51	0xbc3a3d87	-0.011367208
52	0x3dc49b94	0.09599987
53	0xbdbcc5f6	-0.092174456
54	0xbdd349a5	-0.10316781
55	0xbd8fb5b5	-0.0701708
56	0x3e3d652b	0.18495624
57	0x3dfa401b	0.122192584
58	0x3dee2ff4	0.1163024
59	0xbdeaa2ae	-0.1145681
60	0xbdbf6cde	-0.09346937
61	0x3daf5fbb	0.08563181
62	0x3d72934b	0.0592225
63	0x3d8b636b	0.06806072
64	0x3d0618c4	0.032738462
65	0xbe001d4a	-0.12511173
66	0x3c4a5346	0.0123489555
67	0x3dce5b3f	0.100759976
68	0xbe1d9e64	-0.15392452
69	0xbd2efe16	-0.042722784
70	0xbdb4a4e9	-0.088205166
71	0x3e318079	0.17334165
72	0x3da4ebc8	0.08052784
73	0x3d98a9ef	0.07454287
74	0x3e1a716d	0.15082331
75	0x3e3b4ca2	0.18290952
76	0xbdad1d53	-0.08452859
77	0x3d8ee587	0.069773726
78	0x3e387ea9	0.18017067
79	0x3dca5698	0.09879798
80	0xbe34dc05	-0.17662056
81	0xbe11c6fb	-0.14236061
82	0xbd0926a8	-0.03348413
83	0xbe002761	-0.12515022
84	0x3cdd0fa3	0.026984995
85	0x3d5248c4	0.051338926
86	0xbe4979d1	-0.19675376
87	0xbd97b568	-0.07407647
88	0x3bd38f78	0.006456312
89	0xbaea958c	-0.0017897352
90	0xbdf361c2	-0.1188388
91	0xbcef22b1	-0.029191347
92	0xbdb4be0d	-0.08825312
93	0x3d12d0c2	0.03584362
94	0xbc60bfd2	-0.0137176085
95	0x3dc542db	0.09631892
96	0xbd341638	-0.043966502
97	0x3cdc87c4	0.026920207
98	0xbe529f84	-0.20568663
99	0x3e6ec0ae	0.23315689
100	0xbdc531a4	-0.09628609
101	0x3d61b3a6	0.055102967
102	0xbd20a5eb	-0.03922073
103	0x3deac94e	0.11464177
104	0xbdd2f918	-0.10301417
105	0xbe43e17a	-0.19128981
106	0xbc30427d	-0.01075804
107	0xbe0e0d03	-0.13872151
108	0x3de023f6	0.10944359
109	0x3e2901f4	0.16504651
110	0x3daa014a	0.08301027
111	0xbd8609a3	-0.06544807
112	0xbd9e865a	-0.07740469
113	0x3d0a53ee	0.033771448
114	0x3e22b27d	0.158884
115	0x3c4c9aac	0.0124880485
116	0xbe06a44b	-0.1314861
117	0x3c8c98ff	0.017162798
118	0x3ddd49b5	0.10805074
119	0x3e90e8ed	0.28302708
120	0xbe46768b	-0.19381158
121	0x3d6c9e49	0.05776814
122	0x3cc68220	0.02423197
123	0xbdcbcc46	-0.099510714
124	0x3cadb8a0	0.0212062
125	0x3ccf19ee	0.025280919
126	0xbe0d5b01	-0.13804246
127	0x3e0a61d5	0.13513882
128	0xbd27d2f8	-0.04097268
129	0x3e10b7d2	0.14132622
130	0x3deabe53	0.11462083
131	0x3dc8e225	0.09808759
132	0xbcc17e65	-0.02361984
133	0x3dac7ba7	0.08422022
134	0xbe4a98ca	-0.19784847
135	0x3e092d0a	0.13396087
136	0x3daf4912	0.08558859
137	0xbe01a676	-0.12661156
138	0xbe5b323b	-0.2140588
139	0xbe835735	-0.2565247
140	0xbd92e16d	-0.07171903
141	0xbdee7c09	-0.116447516
142	0xbe43b244	-0.19110972
143	0xbd87b74e	-0.066267595
144	0xbb55a337	-0.0032598504
145	0xbd50a8ef	-0.050942358
146	0x3c9037e2	0.017604772
147	0xbdc6b25c	-0.09701988
148	0xbdb8459d	-0.08997653
149	0xbd3f37dc	-0.04668413
150	0xbd7653e6	-0.060138606
151	0xbe82e517	-0.25565407
152	0x398f7778	0.00027364097
153	0xbdf00b61	-0.1172092
154	0x3d85a446	0.06525473
155	0x3dd74e33	0.10512962
156	0x3d2455e2	0.040120967
157	0x3d7c0f1b	0.061537843
158	0x3d7e5722	0.062094815
159	0x3e591e9a	0.2120308
160	0x3d402f9d	0.046920408
161	0xbdb6e903	-0.08931162
162	0xbd7c5f1b	-0.061614137
163	0x3d068253	0.03283913
164	0x3e99d4f8	0.30045295
165	0x3c45e5c9	0.012078711
166	0x3e274788	0.16335881
167	0x3dc432bd	0.0957999
168	0x3c831014	0.015998878
169	0x3d889158	0.06668347
170	0x3b3aa736	0.0028481013
171	0xbe5e63fb	-0.21717827
172	0xbe0b9208	-0.13629925
173	0xbc0f880f	-0.008760466
174	0x3ded0d4c	0.11574802
175	0x3d155e90	0.036467135
176	0xbd906c56	-0.070519134
177	0xbd9c67e5	-0.07637004
178	0xbb2de38e	-0.0026533338
179	0xbd30df56	-0.04318174
180	0xbd13f816	-0.036125265
181	0x3c8ba918	0.017048404
182	0xbcc9288a	-0.024555463
183	0x3b141804	0.0022597322
184	0x3d9ff6d2	0.07810749
185	0x3dcbc3e4	0.099494725
186	0xbdad8bcb	-0.08473929
187	0x3d405334	0.04695435
188	0xbe350748	-0.17678559
189	0x3d4d3d1b	0.050107103
190	0x3ea91eae	0.3303122
191	0x3cb79f28	0.022414759
192	0x36bb8903	5.5889845e-06
193	0xbde3bee2	-0.111203924
194	0xbc843fbb	-0.01614367
195	0x3cf28ac6	0.029607188
196	0xbdd9a8d2	-0.10627903
197	0xbd46005d	-0.04834019
198	0xbc48132e	-0.012211604
199	0x3e0394f1	0.12849785
200	0x3d139740	0.036032915
201	0x3d08c821	0.033393983
202	0x3d84b3c8	0.06479603
203	0x3e92ceda	0.2867344
204	0xbea47dfe	-0.32127374
205	0xbe0c7856	-0.1371778
206	0xbd84adc8	-0.06478459
207	0xbd92cba6	-0.07167749
208	0xbe193781	-0.1496258
209	0xbdee2e1b	-0.11629888
210	0xbd3ebc9e	-0.046566598
211	0x3dac8179	0.084231324
212	0xbdc90927	-0.09816199
213	0xbe1d2fc6	-0.15350255
214	0x3e14a9a9	0.14517845
215	0xbe168f01	-0.14702989
216	0xbdbc1667	-0.091839604
217	0x3a3d51ac	0.0007221948
218	0xbcdc73c2	-0.026910666
219	0xbe30a8dc	-0.17251915
220	0x3c49f629	0.012326756
221	0x3e0ee89c	0.13955921
222	0x3dc3b8d4	0.095567375
223	0x3d7cd9c9	0.061731134
224	0xbe46187d	-0.19345279
225	0x3d9248fc	0.07142827
226	0xbe2982ad	-0.16553755
227	0xbd291dd9	-0.04128823
228	0x3d411ec1	0.04714847
229	0x3dd992d4	0.10623708
230	0x3c22d640	0.0099387765
231	0xbd64031c	-0.055667028
232	0x3e3a9a0f	0.18222831
233	0x3dbb932f	0.091589324
234	0xbdb7b439	-0.089699216
235	0x3e44b113	0.19208173
236	0xbcfaf7ad	-0.03063568
237	0x3e04cbc7	0.1296836
238	0xbdf96bed	-0.12178788
239	0xbd4e49f3	-0.050363492
240	0xbe121250	-0.14264798
241	0xbd7160f0	-0.058930337
242	0x3d97eb05	0.07417873
243	0x3e5aaab2	0.21354178
244	0xbe014aa4	-0.1262613
245	0x3e07dec2	0.13268569
246	0xbd9fefb0	-0.07809389
247	0x3e2005ba	0.15627185
248	0xbd70b460	-0.05876577
249	0x3dd962cf	0.10614549
250	0x3d5a83cf	0.05334836
251	0xbe6da20c	-0.23206347
252	0x3d2a2a1c	0.041544065
253	0xbbadca69	-0.00530367
254	0xbcc86b07	-0.024465097
255	0x3c715120	0.014728814

lstm1.weight_hh_l0 f4 [256, 64]
0	0x3d16f401	0.036853794
1	0xbdc6cbb8	-0.09706825
2	0x3d90b5f2	0.07065953
3	0xbdbb8bc8	-0.091575205
4	0x3d24fb02	0.040278442
5	0xbe0ff0d8	-0.14056718
6	0xbe262a41	-0.16227056
7	0xbda2e8fe	-0.07954596
8	0x3de6a014	0.11261001
9	0x3e02a373	0.12757663
10	0xbc16f37c	-0.009213325
11	0xbe0907c4	-0.13381869
12	0x3cb65c59	0.022260832
13	0xbe3a653f	-0.18202685
14	0xbe110d40	-0.1416521
15	0xbd6c9e45	-0.057768125
16	0x3c3c107a	0.011478538
17	0xbd9a155b	-0.075236045
18	0xbda85fa9	-0.08221371
19	0xbe35e8c0	-0.17764568
20	0x3c90f142	0.017693166
21	0xbdf712d5	-0.12064139
22	0x3e108db1	0.14116551
23	0xbe01fd56	-0.12694296
24	0xbd847570	-0.06467712
25	0xbd817bbb	-0.06322428
26	0xbdf6bf06	-0.120481536
27	0x3cfba568	0.03071852
28	0x3d3caa55	0.04606088
29	0xbe35226c	-0.17688912
30	0x3ca12126	0.019669127
31	0x3dca3d99	0.0987503
32	0xbcac8b27	-0.021062447
33	0x3c8b9e6d	0.017043317
34	0x3cf4668a	0.02983405
35	0xbca00710	-0.019534618
36	0x3d6ed5d0	0.058309376
37	0xbbfd2b6a	-0.0077261226
38	0xbda8f4d7	-0.082498245
39	0x3dd4dd1d	0.103937365
40	0x3d8db9a6	0.06920175
41	0xbd2b8b7d	-0.041881073
42	0xbe153344	-0.14570338
43	0xbdc8d979	-0.098071046
44	0xbce26bb3	-0.027639246
45	0x3deb6e95	0.11495701
46	0x3d09b5d9	0.03362069
47	0xbdd0b9f0	-0.10191715
48	0x3b8da793	0.004322955
49	0xbda4ad04	-0.080408126
50	0xbe180b56	-0.14848074
51	0x3a871392	0.0010305515
52	0xbd021786	-0.031760715
53	0x3ca228b9	0.019794809
54	0x3d21ac1f	0.039470788
55	0x3d14691d	0.036233056
56	0xbc8fc3a8	-0.01754935
57	0x3bea9c87	0.007159773
58	0x3e5e72b4	0.21723443
59	0xbdac60c7	-0.08416896
60	0x3be548d2	0.0069972062
61	0xbe403830	-0.18771434
62	0xbd994e6a	-0.074856594
63	0xbd53126a	-0.051531233
64	0xbb38b160	-0.0028181896
65	0x3d874626	0.06605177
66	0x3db70ce1	0.08938003
67	0x3d79f657	0.061025944
68	0xbd035723	-0.032065522
69	0xbddcb638	-0.10776943
70	0xbd4b261d	-0.049596895
71	0x3d0306c4	0.031988874
72	0xbdbb6aa6	-0.09151201
73	0xbda6413a	-0.0811791
74	0x3d8a4f70	0.06753433
75	0x3d596514	0.05307491
76	0x3d405b42	0.04696203
77	0x3dc5ddd5	0.09661452
78	0x3b8ad980	0.004237354
79	0xbc666a5f	-0.014063447
80	0x3d8c16a2	0.06840254
81	0xbdcb6aa5	-0.0993245
82	0x3d9b950b	0.07596787
83	0xbc6c5eeb	-0.014426927
84	0x3c9eed7d	0.019400353
85	0x3db59375	0.08866016
86	0x3e091251	0.13385893
87	0xbd5c14e8	-0.053730875
88	0xbd6ad392	-0.057330675
89	0xbdb3b6c3	-0.087750934
90	0xbe61b8af	-0.22043107
91	0x3cd8319b	0.026390841
92	0x3e0f8889	0.14016928
93	0x3d86c131	0.06579817
94	0xbdaadfdf	-0.08343481
95	0xbd5e8b19	-0.054331873
96	0x3d21a0c6	0.039459966
97	0xbdd110a5	-0.10208253
98	0xbdf8ee7b	-0.121548615
99	0x3d05416a	0.032533087
100	0x3cb3a5fc	0.021929733
101	0x3c883524	0.016626902
102	0xbdddacdf	-0.10823988
103	0x3ca6f05f	0.02037829
104	0x3d6fc228	0.05853477
105	0xbc2f5e62	-0.010703655
106	0xbe1684dc	-0.1469912
107	0xbe19373c	-0.14962476
108	0xbe396884	-0.18106276
109	0x3e2b958a	0.16756263
110	0xbc72fc3c	-0.014830645
111	0xbd672a4b	-0.056436818
112	0x3d26967b	0.040670853
113	0x3d0cbac4	0.0343578
114	0x3db17e5e	0.08666681
115	0xbce1a73e	-0.027545568
116	0xbc669788	-0.014074214
117	0xba841476	-0.0010076899
118	0xbd4676f7	-0.048453297
119	0x3db24ca4	0.08706024
120	0xbc5a56b7	-0.0133263385
121	0x3da74795	0.0816795
122	0x3dc6badc	0.09703609
123	0x3ac7a0d9	0.0015230431
124	0xbce4561f	-0.027873097
125	0x3e123ff1	0.14282204
126	0xbd8344a3	-0.06409576
127	0xbcdd6b8b	-0.02702882
128	0xbc484f97	-0.012226007
129	0x3bb496b6	0.00551113
130	0x3cf9eb4b	0.030507704
131	0xbd87f402	-0.06638338
132	0x3d78ffbe	0.06079077
133	0x3d030d46	0.03199508
134	0xbe19f0e7	-0.15033303
135	0x3e2679d3	0.1625741
136	0xbb59f91a	-0.0033260048
137	0x3d7b237b	0.061313134
138	0x3cde502f	0.027137844
139	0x3e306455	0.17225774
140	0xbdb2d064	-0.087311536
141	0x3e18c185	0.14917572
142	0x3c15d316	0.009144565
143	0xbdf6b55c	-0.1204631
144	0xbd13c404	-0.036075607
145	0xbd9d6e1c	-0.07687017
146	0x3d6bcdfe	0.057569496
147	0x3e0f14a9	0.13972725
148	0xbd4cc976	-0.049996816
149	0x3b267de5	0.0025404629
150	0x3e15c261	0.14624931
151	0x3dc3fd56	0.09569804
152	0xbd8222e1	-0.06354309
153	0xbdc424e8	-0.09577352
154	0xbcf736dd	-0.030177528
155	0x3d32b30e	0.04362779
156	0x3dc09746	0.09403853
157	0xbb38533e	-0.0028125788
158	0xbde4fdc3	-0.11181214
159	0xbd0ceeff	-0.034407612
160	0xbe1a0599	-0.15041198
161	0x3de8de07	0.11370473
162	0x3d18c2a8	0.037295014
163	0x3d8080e3	0.06274583
164	0x3dda56b4	0.106610686
165	0xbd85138c	-0.06497869
166	0x3d5c4811	0.053779665
167	0x3c28e057	0.010307393
168	0xbcdc936b	-0.026925763
169	0xbd0b2d6b	-0.03397886
170	0xbd56d4ff	-0.052449223
171	0xbdc0bd8c	-0.09411153
172	0xbd1635ce	-0.036672406
173	0xbe0add8b	-0.13561074
174	0xbddd1926	-0.10795812
175	0xbe192146	-0.14954099
176	0x3dc8c6e8	0.09803563
177	0xbc808ffb	-0.015693655
178	0xbe107a8b	-0.14109246
179	0xbe54a299	-0.20765151
180	0xbd9a15a3	-0.07523658
181	0xbe31e1e9	-0.17371334
182	0xbcbd9aa4	-0.023145027
183	0x3d973c95	0.07384602
184	0x3dbcdb7a	0.09221549
185	0xbda2498a	-0.07924183
186	0xbc8af29b	-0.016961386
187	0x3d604b34	0.05475922
188	0x3d86d99c	0.065844744
189	0x3de99480	0.11405277
190	0x3e19ba03	0.15012364
191	0x3dce598e	0.10075675
192	0x3e4780ae	0.19482681
193	0xbc7d98a1	-0.015478284
194	0xbd0af84e	-0.033928208
195	0xbd940675	-0.07227794
196	0xbe1c94e5	-0.15291174
197	0xbdb0c045	-0.086304225
198	0x3d892fe2	0.06698586
199	0xbdd628c4	-0.10456994
200	0xbe55fea5	-0.2089792
201	0xbe2d0871	-0.16897751
202	0x3d41d0fc	0.047318444
203	0x3e24d863	0.1609817
204	0xbc8313ae	-0.016000595
205	0xbdb1e509	-0.08686263
206	0xbd2739a6	-0.040826462
207	0xbd67434c	-0.056460664
208	0xbd0d144b	-0.03444318
209	0xbe123091	-0.14276339
210	0xbd37830d	-0.044802714
211	0xbd8a0dd1	-0.067409165
212	0xbbf4a362	-0.007465766
213	0x3d0fb40d	0.03508382
214	0x3d197146	0.03746154
215	0x3dc7f006	0.09762578
216	0xbe3fa787	-0.1871625
217	0x3c5af411	0.013363854
218	0x3c7961f0	0.015221104
219	0x3e01bf27	0.12670575
220	0x3e00aa7e	0.12565038
221	0xbe13b0f5	-0.14422973
222	0xbd8c300f	-0.06845104
223	0x3e2d56e7	0.16927682
224	0xbd40a654	-0.047033623
225	0x3d3ec6f0	0.04657644
226	0xbd8d82e8	-0.06909734
227	0xbd915af0	-0.07097423
228	0xbbf59d85	-0.0074955844
229	0xbe1c44e1	-0.1526065
230	0xbd4ba678	-0.049719304
231	0xbe3b0ad6	-0.18265852
232	0x3e141241	0.14460088
233	0x3d2d6284	0.04233028
234	0x3d58edcf	0.052961167
235	0xbda193fc	-0.07889554
236	0x3db16385	0.0866156
237	0x3e53f8e7	0.20700417
238	0x3d48158a	0.048848666
239	0xbd5d7abe	-0.054072134
240	0xbdabf50f	-0.083963506
241	0xbd6a9c20	-0.0572778
242	0x3cb0f685	0.021601925
243	0x3e27ea45	0.1639796
244	0xbda31198	-0.0796234
245	0x3df0c3ef	0.11756121
246	0xbe0f8331	-0.1401489
247	0x3e19b4fc	0.15010446
248	0xbb81c723	-0.0039605065
249	0x3ded0bf3	0.11574545
250	0x3e061d9c	0.13097233
251	0x3c9c0c06	0.019048702
252	0xbd5f35d5	-0.054494698
253	0x3e6f7e5a	0.23388043
254	0xbbd68b01	-0.0065473323
255	0x3cc4fc80	0.024046183

lstm1.bias_ih_l0 f4 [256]
0	0xbd76559e	-0.060140245
1	0x3d1e6802	0.03867341
2	0xbe853727	-0.2601864
3	0xbadd6e0f	-0.0016893762
4	0x3ceefdbf	0.02917373
5	0xbc6ce914	-0.014459867
6	0xbddcc4a6	-0.10779695
7	0xbc9837c1	-0.018581273
8	0x3ce8fe7d	0.028441662
9	0xbc65b443	-0.0140200285
10	0xbd31bb0f	-0.043391284
11	0xbdc728b7	-0.097245626
12	0xbd985244	-0.07437566
13	0xbde1d852	-0.11027588
14	0x3c68881e	0.014192609
15	0xbdd73a62	-0.105091825
16	0x3e3da32d	0.18519278
17	0xbd464a9e	-0.048411004
18	0xbcd95de6	-0.026534032
19	0xbe1219e9	-0.14267696
20	0xbe66a0a8	-0.22522223
21	0xbd9b3953	-0.07579293
22	0xbb88bc15	-0.0041728118
23	0xbe2d5287	-0.16926013
24	0xbe13b58c	-0.14424723
25	0x3e0e0939	0.13870706
26	0x3e50c008	0.20385754
27	0xbdcb38fb	-0.099229775
28	0xbe23a472	-0.159807
29	0x3ccab837	0.024746044
30	0xbd42aa06	-0.04752543
31	0x3c855970	0.016277999
32	0x3e72e783	0.23721127
33	0x3d996020	0.074890375
34	0xbda769d8	-0.08174485
35	0xbdef8a26	-0.116962716
36	0xbc8c2be1	-0.017110767
37	0xbe6d5639	-0.23177423
38	0x3d1f9f56	0.038970314
39	0x3dc25d2e	0.09490429
40	0x3da003c2	0.07813217
41	0x3cf388c5	0.029728303
42	0xbd0ce44d	-0.034397412
43	0xbc398aef	-0.011324628
44	0xbe5e538c	-0.21711558
45	0xbe48960f	-0.19588493
46	0x3d91d8c7	0.07121425
47	0x3e129491	0.14314486
48	0xba85392a	-0.0010164131
49	0xbd11565b	-0.035482746
50	0x3cd65985	0.026165733
51	0x3dbc0ff2	0.09182729
52	0xbe0b20df	-0.13586758
53	0xbdab6290	-0.08368409
54	0x3de4cb1b	0.11171552
55	0xbd9d230c	-0.076727
56	0x3d1f4031	0.038879577
57	0x3cba7d30	0.022764772
58	0xbd988ee8	-0.07449132
59	0xbd82aaf6	-0.063802645
60	0x3e671e12	0.22570065
61	0xbd49b5d5	-0.049245674
62	0xbd654f15	-0.05598362
63	0x3e368ce6	0.17827186
64	0x3d703906	0.05864813
65	0xbda7c1bd	-0.081912495
66	0xbda19f38	-0.07891697
67	0xbd3beb6f	-0.045878824
68	0x3cc25cb6	0.023725849
69	0xbd9bb093	-0.07602038
70	0xba26cac1	-0.000636261
71	0x3cee2db6	0.029074531
72	0xbe08d41f	-0.13362168
73	0xbd879482	-0.066201225
74	0xbdf14831	-0.117813475
75	0xbb9b8a88	-0.004746739
76	0x3d8b4ce4	0.06801775
77	0xbdf40bc4	-0.119163066
78	0x3dfb83f9	0.12281031
79	0x3e1c2e05	0.1525193
80	0x3b80e55c	0.003933592
81	0x3d9419c9	0.07231481
82	0x3e9a8948	0.30182862
83	0xbdc6d206	-0.097080275
84	0xbe216cb7	-0.15764128
85	0x3d2662ed	0.040621687
86	0x3d89d70b	0.06730469
87	0xbddadb22	-0.106863275
88	0x3d9fc03e	0.07800339
89	0x3cfa3123	0.030541008
90	0x3b460f3f	0.003022149
91	0x3d7bc822	0.06147016
92	0xbe15d577	-0.14632212
93	0x3e17efc9	0.14837565
94	0xbc92a2b3	-0.017899847
95	0xbdaaf0cc	-0.083467096
96	0xbd771433	-0.060321998
97	0xbd573841	-0.052543882
98	0xbc338279	-0.0109564
99	0xbe163f27	-0.14672528
100	0xbe161496	-0.1465629
101	0xbe682cfa	-0.22673407
102	0xbe254ec7	-0.16143332
103	0xbe301464	-0.17195278
104	0x3db7179a	0.089400485
105	0x3dc186f3	0.09449568
106	0xbdee10dd	-0.1162431
107	0x3d0e3df0	0.034727037
108	0xbe239abc	-0.15976995
109	0xbdfd5c6b	-0.12371143
110	0x3e63832d	0.22218008
111	0xbc0beb3b	-0.00853997
112	0xbd70e238	-0.05880949
113	0x3db78fd4	0.0896298
114	0xbd461db6	-0.04836818
115	0x3d58a7af	0.05289429
116	0x3ceb8793	0.02875117
117	0x3e2d9f3e	0.16955277
118	0xbda72770	-0.08161819
119	0xbe908306	-0.28224963
120	0xbd8fe67d	-0.07026384
121	0xbe46390b	-0.19357698
122	0x3daf741a	0.085670665
123	0x3d441ed0	0.047880948
124	0xbd9760a6	-0.07391481
125	0xbd79503b	-0.06086753
126	0x3e24c2ba	0.16089907
127	0xbdb67105	-0.089082755
128	0xbd4779a0	-0.048699975
129	0x3c8073a5	0.015680144
130	0xbd81c0ee	-0.063356265
131	0xbd80fff4	-0.06298819
132	0xbd6cfa0a	-0.057855643
133	0x3e2c3382	0.16816524
134	0x3d101ee5	0.035185713
135	0x3e1d5b01	0.15366746
136	0xbdb18b8b	-0.08669194
137	0xbd989325	-0.074499406
138	0x3e367de6	0.17821464
139	0x3da06172	0.07831086
140	0xbdf321bc	-0.11871669
141	0xbd0484d7	-0.03235325
142	0xbaa3a034	-0.0012483657
143	0x3e0ceb69	0.13761677
144	0xbdf921ee	-0.12164675
145	0xbe3a9ab7	-0.18223082
146	0x3d9add3b	0.075617276
147	0x3e0c4408	0.13697827
148	0xbdb1add2	-0.08675732
149	0x3c3214bd	0.010869202
150	0xbdcf90f2	-0.10135068
151	0x3d615314	0.05501087
152	0x3dc1bc89	0.09459788
153	0xbdb9fc9d	-0.09081385
154	0xbcdacdfa	-0.026709545
155	0xbca03e61	-0.019560995
156	0xbddc6fc0	-0.10763502
157	0x3da2d606	0.07950978
158	0x3baf24d9	0.0053449688
159	0xbe0e5420	-0.13899279
160	0x3c6f7cf5	0.014617194
161	0x3dd5384e	0.1041113
162	0x3d34e7ef	0.0441665
163	0x3ab87bcc	0.001407498
164	0x3cba65fb	0.022753706
165	0x3d65322e	0.05595606
166	0xbdc270be	-0.0949416
167	0xbdea7d43	-0.11449673
168	0x3b2dde9c	0.002653039
169	0x3de833be	0.11337994
170	0x3d271f93	0.040801596
171	0x3c9da1b2	0.019242141
172	0x3df67061	0.12033153
173	0xbc956024	-0.01823432
174	0xbe120965	-0.14261396
175	0xbe5549ab	-0.20828883
176	0x3d4da0ba	0.05020211
177	0x3e032c24	0.12809807
178	0xbdbebffa	-0.093139604
179	0x3ddf33a4	0.108985215
180	0x3e1f255b	0.15541594
181	0xbb9c2fc9	-0.0047664386
182	0xbdfdbaca	-0.12389143
183	0x3d38b110	0.045090735
184	0x3d4ae2ad	0.04953258
185	0x3ddcce78	0.10781568
186	0x3d0f3c7e	0.0349698
187	0xbbf6fcd4	-0.0075374637
188	0xbd867236	-0.06564753
189	0xbbcdc5ee	-0.0062796986
190	0xbd96a117	-0.07354944
191	0x3e0e9c2a	0.1392676
192	0x3d91a1c5	0.07110933
193	0xbae54d7c	-0.0017494406
194	0xbd865f13	-0.06561103
195	0x3b9049de	0.004403337
196	0xbd900dbd	-0.0703387
197	0x3e2c2eb0	0.16814685
198	0xbe3a6834	-0.18203813
199	0x3dc52bf0	0.09627521
200	0x3da00653	0.07813706
201	0x3e06d5c5	0.13167484
202	0x3d7ee6db	0.06223188
203	0x3bcb6abc	0.006207792
204	0xbd74e4e2	-0.059788592
205	0xbbbcbb1b	-0.0057596094
206	0xbc47884b	-0.012178491
207	0x3d8b648f	0.068062894
208	0x3dcc8675	0.09986583
209	0x3db42eee	0.08798014
210	0x3e104da9	0.14092125
211	0xbd19bb00	-0.037531853
212	0xbc806821	-0.015674653
213	0xbc1724cc	-0.009225082
214	0x3e41a792	0.18911579
215	0xbdd918ee	-0.10600458
216	0xbdcb74b1	-0.099343665
217	0x3d6465ca	0.055761136
218	0x3c51e1a9	0.012810149
219	0xbc816e14	-0.01579956
220	0xbd41e8ec	-0.047341272
221	0x3bb9289f	0.0056505944
222	0xbe319fbf	-0.17346095
223	0xbd072576	-0.03299471
224	0x3e1c27a4	0.15249497
225	0x3dd3d1a0	0.10342717
226	0x3e0b28bf	0.13589762
227	0xbd074695	-0.033026297
228	0xbe0c3c4c	-0.13694876
229	0xbc9f27c7	-0.019428147
230	0x3b299158	0.0025873985
231	0x3e00709a	0.12542954
232	0xbdf7b0cd	-0.12094269
233	0x3dc149ae	0.094378814
234	0xbdc364d5	-0.095407166
235	0x3e186e5e	0.14885852
236	0x3c99aa4e	0.018757965
237	0xbd8b63bb	-0.068061315
238	0xbce700c8	-0.028198615
239	0x3d53717f	0.05162191
240	0x3c8026c4	0.015643485
241	0xbaeb8a66	-0.0017970323
242	0x3d07876a	0.033088125
243	0x3e21cb19	0.15800132
244	0x3d54ed64	0.051984206
245	0xbda53dcc	-0.080684274
246	0x3e7f63c7	0.24940406
247	0x3de9f025	0.11422757
248	0xbd7895d4	-0.060689762
249	0x3e29dcc1	0.16588117
250	0xbd8eb242	-0.06967594
251	0xbdeee2ea	-0.11664374
252	0x3eb5a650	0.3547845
253	0x3c98b3cd	0.018640423
254	0xbd0170ff	-0.031601902
255	0x3e10dcb6	0.14146695

lstm1.bias_hh_l0 f4 [256]
0	0xbd1cc555	-0.038274128
1	0x3da85dfa	0.082210496
2	0xbe31a778	-0.1734904
3	0xbd0cf6ac	-0.034414932
4	0xbb7025d2	-0.0036643636
5	0x3cc8d385	0.024514923
6	0x3d08d5f4	0.033407167
7	0xbce4e8fd	-0.027943129
8	0x3d038c68	0.032116324
9	0xbd67149e	-0.056416146
10	0xbd022be4	-0.03178014
11	0xbd7ce405	-0.061740894
12	0xbd9efffa	-0.077636674
13	0xbcb33342	-0.021875028
14	0x3d985348	0.0743776
15	0x3d7f7078	0.062363118
16	0x3d9cc50b	0.076547705
17	0xbd2270ee	-0.03965848
18	0xba5e7ead	-0.0008487504
19	0xbc695e90	-0.014243737
20	0xbda14fe7	-0.07876568
21	0xbd4d9b73	-0.050197076
22	0xbd5915b9	-0.052999232
23	0xbc55c57f	-0.013047575
24	0x3d7b7b1f	0.061396714
25	0x3ddcc40f	0.10779583
26	0x3cabd466	0.020975303
27	0xbe09868e	-0.13430235
28	0xbdf7c7fb	-0.1209869
29	0xbd13aad1	-0.036051575
30	0xbe1e9bff	-0.15489195
31	0x3d73fbc3	0.05956627
32	0x3e7727ec	0.24136323
33	0xba102166	-0.0005498141
34	0xbe14ef86	-0.14544496
35	0x3ccd0357	0.025026007
36	0x3d637bd4	0.055538014
37	0xbd8858e0	-0.066575766
38	0xbe05ecbd	-0.1307859
39	0x3e7108af	0.23538469
40	0xbcda5d6e	-0.026655879
41	0x3e823f3b	0.25438866
42	0xbdc777cf	-0.097396486
43	0xbd8abfa4	-0.06774834
44	0xbc6d057d	-0.014466641
45	0xbdd46c02	-0.10372163
46	0xbd8a3db5	-0.06750051
47	0x3e19e73c	0.15029615
48	0x3e0cae57	0.1373838
49	0x3c024478	0.007950895
50	0xbe0843c0	-0.13307095
51	0xbd2ad221	-0.0417043
52	0xbdec88af	-0.11549508
53	0x3db42f10	0.08798039
54	0x3e289519	0.16463126
55	0xbd9a07db	-0.075210296
56	0x3c99c868	0.018772319
57	0xbcf2ed5e	-0.029654201
58	0xbc5749a2	-0.013140114
59	0xbe119fdf	-0.14221142
60	0x3e72082c	0.2363593
61	0xbe6105fe	-0.21974942
62	0xbdfb8b1d	-0.12282393
63	0x3d2c0944	0.042001024
64	0x3e031755	0.12801869
65	0xbd07dbba	-0.033168532
66	0xbe1ac9f1	-0.15116097
67	0xbd23980f	-0.039939936
68	0xbe1c5bff	-0.15269469
69	0xbd6b2839	-0.057411406
70	0xbd3b585e	-0.04573857
71	0xb9ff7d7e	-0.0004873089
72	0xbbbba32d	-0.005726239
73	0xbe3abe5c	-0.18236679
74	0xbe34be5a	-0.17650738
75	0xbcaa57ac	-0.020793758
76	0x3d828413	0.063728474
77	0xbdc4fc7b	-0.09618469
78	0xbd1b316c	-0.03788893
79	0x3e377096	0.17914042
80	0x3d0a5f7e	0.033782475
81	0xbb9f320b	-0.0048582605
82	0x3e756e27	0.23967801
83	0xbd3cc1a1	-0.046083096
84	0x3d32f849	0.043693814
85	0xbd09aac6	-0.033610128
86	0x3d480319	0.04883108
87	0xbd4d219c	-0.05008088
88	0xbe113bb0	-0.14182925
89	0x3e3bf339	0.18354501
90	0x3de465f2	0.11152257
91	0xbd08089f	-0.033211347
92	0xbe2df894	-0.16989356
93	0x3d9b7199	0.075900264
94	0x3d1f07b1	0.038825694
95	0xbca8d2cd	-0.02060833
96	0xbdf7be6d	-0.12096868
97	0xbc368b53	-0.011141616
98	0x3c3b653d	0.011437711
99	0xbe602680	-0.21889687
100	0x3c935f44	0.017989762
101	0xbe57fc5a	-0.21092358
102	0xbd1e1f0e	-0.038603835
103	0xbe23f6ff	-0.1601219
104	0x3d723449	0.059131894
105	0x3d7e61d5	0.06210502
106	0x3c681bd0	0.014166787
107	0xbcd8cc3a	-0.02646457
108	0xbddd2151	-0.1079737
109	0xbd765717	-0.06014165
110	0x3db6a6bd	0.089185216
111	0x3db3cad9	0.087789245
112	0x3c228e0d	0.009921563
113	0x3e23bb7a	0.15989485
114	0xbdec8e08	-0.11550528
115	0x3dfa8c62	0.12233807
116	0xbe07503b	-0.13214199
117	0x3e35cf2e	0.17754814
118	0xbdb3f177	-0.0878629
119	0xbe80042a	-0.25003177
120	0xbd374637	-0.044744696
121	0xbe5c334a	-0.2150394
122	0x3dd0a3db	0.10187503
123	0xbd03c716	-0.032172285
124	0xbe672fac	-0.22576779
125	0xbd4e0e66	-0.0503067
126	0xbd0fed48	-0.0351384
127	0xbd61e58d	-0.055150557
128	0xbde28d5d	-0.11062119
129	0xbd197c0f	-0.037471827
130	0x3c4d9ca6	0.012549555
131	0x3b8d3437	0.004309203
132	0x3e14239a	0.14466706
133	0x3da87851	0.082260735
134	0xbdaba8a4	-0.08381775
135	0xbd495520	-0.049153447
136	0xbe358704	-0.17727286
137	0xbe311adc	-0.17295402
138	0x3d114888	0.03546956
139	0xbddc121c	-0.107456416
140	0x3b355a10	0.002767209
141	0x3df6e03d	0.12054489
142	0x3d8d760f	0.069072835
143	0x3debbabf	0.11510228
144	0xbd739119	-0.059464548
145	0x3b80473f	0.003914743
146	0x3ddfbf76	0.1092519
147	0xbcc2a729	-0.023761349
148	0xbd7e840b	-0.062137645
149	0x3d4e99e9	0.05043975
150	0xbd80d301	-0.06290246
151	0x3c6dff11	0.014526145
152	0x3da34493	0.07972064
153	0x3d863c5c	0.065544814
154	0xbe62590a	-0.22104278
155	0xbdc1b12e	-0.094576225
156	0xbd0e29bd	-0.034707773
157	0x3d611c5d	0.05495869
158	0x3c30e4e3	0.010796758
159	0xbdd65d9d	-0.10467074
160	0xbe2c8d52	-0.16850784
161	0x3b6fc504	0.0036585936
162	0x3e2ee8cf	0.17080997
163	0x3e07411f	0.13208435
164	0x3daa7d4b	0.08324679
165	0x3c1432fd	0.00904536
166	0x3df625b6	0.120189115
167	0xbd8b2ffa	-0.0679626
168	0xbc70908e	-0.014682902
169	0x3d2cbc06	0.0421715
170	0x3d5a05e7	0.053228285
171	0xbd27314a	-0.04081849
172	0xbd577dcf	-0.052610215
173	0x3ca3c6d5	0.019992271
174	0xbd394cfb	-0.04523943
175	0xbe1a66a8	-0.15078223
176	0x3e160a4e	0.14652368
177	0x3d20e962	0.03928507
178	0x3dd75a8a	0.10515316
179	0x3dc6e270	0.09711158
180	0x3e052be0	0.13005018
181	0xbe2b255c	-0.1671347
182	0xbe0b6ea5	-0.13616426
183	0x3d97c9f3	0.07411566
184	0x3da635ff	0.08115768
185	0x3e1a1b84	0.15049559
186	0xbdb50268	-0.088383496
187	0xbc2313ca	-0.009953449
188	0xbe44db2d	-0.19224234
189	0x3e074efb	0.13213722
190	0x3de40de2	0.111354604
191	0x3dcebc31	0.100944884
192	0x3dd8cdaa	0.10586102
193	0xbc9493bc	-0.018136851
194	0xbdbd1518	-0.09232539
195	0xbd230f19	-0.03980932
196	0x3d5b030d	0.053469706
197	0x3e1e1aec	0.15439957
198	0xbdf0cb67	-0.11757546
199	0x3df0ae38	0.117519796
200	0xbd2109d9	-0.039316032
201	0xbd849b59	-0.06474943
202	0xbe09cca2	-0.13456967
203	0x3e19018e	0.14942
204	0x3c99dd67	0.01878233
205	0x3d98a0c2	0.07452537
206	0xbdd6009d	-0.10449336
207	0x3dad8b34	0.084738165
208	0x3e113bfb	0.14183037
209	0x3cab16b4	0.02088485
210	0x3e021b33	0.12705688
211	0xbdf7f305	-0.12106899
212	0x3b541d8b	0.0032366242
213	0xbd8fddc3	-0.070247196
214	0x3d066038	0.032806605
215	0x3d1d075c	0.038337097
216	0xbdb95231	-0.0904888
217	0xbc23c7a5	-0.009996329
218	0x3de261a8	0.11053783
219	0xbca8c18b	-0.020600101
220	0xbd0bdbc5	-0.034145135
221	0x3e2079f6	0.15671524
222	0x3b5f4081	0.0034065547
223	0x3d7a7c0b	0.061153453
224	0x3b12876a	0.0022358545
225	0xbd3f5b51	-0.046717945
226	0xbd8ab883	-0.06773474
227	0xba978b66	-0.001156193
228	0x3d60dc9d	0.054897893
229	0x3d20ffef	0.039306577
230	0xbd06f9a0	-0.032952905
231	0xbb8e0624	-0.004334228
232	0xbdded7e0	-0.10881019
233	0x3e0efa4e	0.13962671
234	0xbd874d55	-0.06606547
235	0xbc19ea39	-0.009394222
236	0xbdc50a57	-0.09621113
237	0xbd837b52	-0.06420006
238	0xbd514a50	-0.05109626
239	0x3e609a5c	0.21933883
240	0x3d741e76	0.059599362
241	0x3ddf8e4a	0.10915811
242	0x3d5d418f	0.0540176
243	0x3e545dba	0.20738879
244	0x3b2d6ee2	0.0026463796
245	0xbd803cc9	-0.06261594
246	0x3e4249ae	0.18973419
247	0xbdfb3a50	-0.122669816
248	0xbd895ba1	-0.0670693
249	0x3d14d1a0	0.036332726
250	0x3d5f72e1	0.054552916
251	0xbd969032	-0.07351722
252	0x3ed616b5	0.418142
253	0x3dfc3994	0.1231567
254	0xbba96d8e	-0.0051705306
255	0xbd4425c6	-0.047887586

lstm2.weight_ih_l0 f4 [256, 64]
0	0xbcecc4a2	-0.028902356
1	0xbcddcfaf	-0.02707657
2	0x3aeea4d9	0.0018207087
3	0xbe57230f	-0.21009468
4	0xbc54cafc	-0.012987848
5	0x3d9a37f0	0.075302005
6	0xbcf4ee42	-0.029898766
7	0xbd9ea998	-0.07747191
8	0x3d4b77e1	0.049674872
9	0x3e0113f8	0.12605274
10	0xbe2c7616	-0.16841921
11	0x3ddc453b	0.10755392
12	0xbd1734ea	-0.036915697
13	0xbce418cc	-0.027843855
14	0x3e09e1af	0.13464998
15	0x3dec8228	0.11548263
16	0x3d8fe609	0.070262976
17	0x3c89873c	0.016788118
18	0x3e2ec09a	0.17065659
19	0xbe033633	-0.12813644
20	0xbdbced44	-0.09224942
21	0xbd75e263	-0.060030352
22	0x3e15aab4	0.146159
23	0xbd8daff2	-0.069183245
24	0x3e29cb3a	0.16581431
25	0xbb7a2963	-0.003817164
26	0x3c513b92	0.01277055
27	0xbd4b946a	-0.049702086
28	0x3ca1c49d	0.019747073
29	0x3d63c6a4	0.05560936
30	0xbd9cb970	-0.07652557
31	0x3d430319	0.047610376
32	0x3e185edf	0.1487994
33	0x3d2eb734	0.042655185
34	0xbd41bb06	-0.0472975
35	0x3d16bca2	0.036800988
36	0x3e02b54a	0.12764469
37	0x3bf88ff3	0.0075855195
38	0xbdc4e15f	-0.096132986
39	0xbcbd9c9d	-0.023145968
40	0xbc4fa3b2	-0.012673305
41	0xbdb4da3b	-0.08830687
42	0xbdfd14e7	-0.123575024
43	0x3e846724	0.2585994
44	0x3d539e8e	0.05166488
45	0x3dcbd333	0.099523924
46	0xbd4489d2	-0.047983
47	0xbdfdb3dd	-0.12387822
48	0xbbbe734f	-0.0058120857
49	0x3db2d2db	0.08731624
50	0xbe0dbe23	-0.13842063
51	0x3b7aaa66	0.0038248538
52	0x3dfff6b4	0.12498227
53	0xbde2e5ea	-0.11079009
54	0xbd8d91c4	-0.06912568
55	0xbc972e0a	-0.01845457
56	0xbdf755b1	-0.12076891
57	0xbe231faa	-0.15930048
58	0xbd829145	-0.06375364
59	0xbd758a47	-0.059946325
60	0xbe290a5b	-0.16507857
61	0x3e1cc65b	0.15310042
62	0x3bd8657c	0.0066038948
63	0xbd3c4376	-0.045962773
64	0xba7c6624	-0.0009628257
65	0xbc347118	-0.011013292
66	0x3e06f06f	0.13177656
67	0xbe1ae2af	-0.15125535
68	0xbc85d88c	-0.01633861
69	0xbd22f7eb	-0.039787214
70	0xbd10d379	-0.035357926
71	0xbe106826	-0.1410223
72	0xbdb5988e	-0.08866988
73	0xbdecbc02	-0.11559297
74	0xbd1b7701	-0.037955288
75	0x3dfec0d1	0.124391206
76	0x3dbd457c	0.09241769
77	0x3c006861	0.007837386
78	0xbdd53dca	-0.10412176
79	0x3dc4529f	0.09586071
80	0xbd518aa5	-0.051157612
81	0x3de82ce7	0.113366894
82	0xbda07e36	-0.07836573
83	0xbc950825	-0.01819236
84	0xbd9a63fc	-0.07538602
85	0xbd1c4c91	-0.038158957
86	0xbd766a09	-0.060159717
87	0x3c2242ed	0.009903652
88	0x3cd41fe3	0.025894111
89	0xbe0d6796	-0.13809046
90	0xbe3a5b0f	-0.18198799
91	0x3da444c9	0.08020932
92	0x3dafb46c	0.085793346
93	0xbcac7439	-0.021051513
94	0x3d0d075d	0.03443085
95	0x3d17f1d1	0.03709585
96	0xbda62a6e	-0.081135616
97	0x3dfe6cae	0.12423073
98	0xbe2e3235	-0.1701134
99	0x3db4386f	0.08799826
100	0x3cc35a31	0.023846718
101	0xbd70ceca	-0.05879096
102	0xbe059bf2	-0.1304777
103	0xbb8e1adf	-0.0043366994
104	0x3d98ae22	0.07455088
105	0xbe0df056	-0.13861212
106	0x3ce55761	0.027995767
107	0x3cb4f353	0.022088682
108	0xbda8c062	-0.08239819
109	0x3dc30f0a	0.09524353
110	0x3be02c72	0.006841236
111	0x3db2d284	0.08731559
112	0x3ca43593	0.020045077
113	0xbce49025	-0.027900765
114	0x3e047a95	0.12937386
115	0xbd07973c	-0.033103213
116	0xbe31577d	-0.1731853
117	0xbdb6193f	-0.08891534
118	0x3dcf06e5	0.10108737
119	0x3dc73e04	0.097286254
120	0xbd887d7d	-0.0666456
121	0x3d029376	0.03187891
122	0xbd21ae6a	-0.039472975
123	0xbc0713b5	-0.008244445
124	0x3d17b3a9	0.03703657
125	0x3ca2bd09	0.01986553
126	0x3d937f42	0.07202007
127	0xbe1b1f02	-0.15148547
128	0xbd57d070	-0.052689016
129	0xbddaa66f	-0.10676276
130	0x3d608688	0.0548158
131	0x3c8d42c9	0.01724376
132	0xbdb7c66c	-0.08973393
133	0xbd7ac716	-0.06122502
134	0xbdd91456	-0.10599582
135	0xbe04d603	-0.12972264
136	0xbe3c1536	-0.18367466
137	0xbc4d62a7	-0.012535728
138	0x3e066724	0.13125283
139	0x3dab8e63	0.083767675
140	0x3d9d1ff5	0.07672111
141	0x3de0fad7	0.10985344
142	0xbdcc8786	-0.099867865
143	0xbddd2183	-0.107974075
144	0xbdfc5906	-0.123216674
145	0x3ca5970d	0.020213628
146	0xbe0f1532	-0.13972929
147	0x3cdd8db9	0.027045118
148	0xbe3da68f	-0.18520568
149	0xbdf5ec27	-0.12007933
150	0xbd32f9ef	-0.043695386
151	0x3dc42c95	0.09578816
152	0xbccad055	-0.024757544
153	0xbcd164c2	-0.02556074
154	0xbe197071	-0.14984299
155	0x3d6ad3ce	0.0573309
156	0x3deec5af	0.11658799
157	0xbdb86298	-0.0900318
158	0x3c3fe157	0.01171144
159	0xbcaa8189	-0.02081372
160	0xbe0e54f8	-0.138996
161	0xbd97b809	-0.07408149
162	0xbd80fa59	-0.0629775
163	0x3df99b6a	0.12187846
164	0xbd1813da	-0.037128307
165	0xbc02d974	-0.007986415
166	0x3dcc75e8	0.09983426
167	0x3de54469	0.11194689
168	0x3e2d184d	0.16903801
169	0xbda36abc	-0.07979342
170	0xbde57c5c	-0.1120536
171	0xbe02aefe	-0.12762067
172	0x3c248c37	0.010043195
173	0x3e679743	0.22616296
174	0xbd1b6066	-0.03793373
175	0x3d256343	0.040377866
176	0xbd6e53c1	-0.058185343
177	0xbe0635b3	-0.13106422
178	0x3c2eb0cb	0.010662268
179	0x3d77ce6a	0.060499586
180	0x3c8b26f6	0.016986351
181	0x3d150226	0.036379002
182	0xbb5d5fd0	-0.0033779033
183	0x3e59ac53	0.21257143
184	0x3d57cc54	0.052685097
185	0xbd9afdec	-0.07567963
186	0x3d1a766b	0.03771059
187	0xbdbd1259	-0.09232015
188	0xbe50630c	-0.20350283
189	0xbbac27aa	-0.0052537518
190	0x3cb6bdee	0.022307362
191	0x3d948623	0.07252147
192	0x3d56eceb	0.052472036
193	0xbde3ac5a	-0.11116858
194	0x3d2c08d4	0.042000607
195	0x3db35f89	0.08758456
196	0x3c558bd9	0.013033831
197	0xbcd2981e	-0.0257073
198	0xbb3b131f	-0.0028545333
199	0xbe3804ff	-0.17970656
200	0x3e1f7df3	0.1557539
201	0xbcab1b1d	-0.020886952
202	0x3db18e40	0.0866971
203	0xbd9e041f	-0.0771563
204	0xbd1afad1	-0.037836853
205	0xbe4990a0	-0.19684076
206	0xbd546f60	-0.051864028
207	0xbdf242ce	-0.11829148
208	0xbd313eae	-0.043272667
209	0xbc0ab603	-0.008466247
210	0xbd91dd23	-0.071222566
211	0xbe663414	-0.22480804
212	0xbe5522fc	-0.20814127
213	0xbccd2e54	-0.025046505
214	0x3e3201ce	0.17383501
215	0x3d19579e	0.037437074
216	0x3a19cb1c	0.00058667525
217	0x3deb00fd	0.11474798
218	0xbc153c93	-0.00910868
219	0x3df388c2	0.11891319
220	0x3df1e0bd	0.118104436
221	0x3d2b0115	0.04174908
222	0xbdebff4b	-0.11523303
223	0x3ddf63d2	0.10907711
224	0xbc4ed597	-0.012624166
225	0xbde19d39	-0.11016316
226	0xbd5f5aa1	-0.05452979
227	0xbe06b650	-0.13155484
228	0xbbedfd0b	-0.007262831
229	0x3d3e8eee	0.046523027
230	0x3db99872	0.0906228
231	0x3e9559b1	0.29169992
232	0x3c731dc7	0.014838642
233	0xbd96fcd8	-0.07372445
234	0xbcc037d8	-0.023464128
235	0xbd493228	-0.0491201
236	0xbe2c23ff	-0.16810606
237	0x3e68d76c	0.22738427
238	0x3d908b24	0.07057789
239	0x3cea25cb	0.028582474
240	0xbcce4514	-0.025179423
241	0x3d972efc	0.073820084
242	0xbe384fa6	-0.17999133
243	0x3e10a948	0.14127076
244	0xbd0ce5d9	-0.034398887
245	0xbd2e9f7d	-0.04263257
246	0x3d14dca4	0.03634323
247	0xbca71ceb	-0.020399531
248	0x3d853fec	0.06506333
249	0xbe3ab6d4	-0.18233806
250	0x3da7187f	0.08158969
251	0xbdce6409	-0.10077674
252	0x3e2871df	0.16449688
253	0x3d0ad25a	0.033892013
254	0x3d1019e6	0.03518095
255	0xbd12e40e	-0.03586202

lstm2.weight_hh_l0 f4 [256, 64]
0	0x3e4959e5	0.19663198
1	0x3d30ee29	0.043195877
2	0x3cfedca3	0.031111067
3	0x3c808ade	0.015691217
4	0xbe32341f	-0.17402695
5	0x3e1f17e8	0.15536463
6	0x3e2253a1	0.15852214
7	0x3c14a3db	0.009072269
8	0xbd9a1087	-0.075226836
9	0xbe5efae9	-0.21775402
10	0x3e794186	0.24341401
11	0x3c51893c	0.012789067
12	0x3e544c49	0.20732225
13	0x3e3555dd	0.17708535
14	0x3e5115a6	0.20418414
15	0x3e053c5e	0.1301131
16	0xbe0c447d	-0.13698001
17	0xbe48fe13	-0.19628172
18	0x3d7afb8f	0.06127506
19	0xbe30155d	-0.1719565
20	0xbd932bbd	-0.07186077
21	0xbe2dcd20	-0.1697278
22	0xbd0c2c1f	-0.034221765
23	0xbd85277a	-0.0650167
24	0xbd6b886b	-0.057503145
25	0x3d2b6e24	0.041853085
26	0xbd143499	-0.036182974
27	0x3dc3a4ef	0.09552943
28	0xbcf50083	-0.02990747
29	0xbd739d6c	-0.0594763
30	0xbdf05a10	-0.11735928
31	0x3dbd8b7f	0.092551224
32	0x3d77b5c4	0.06047608
33	0xbde1a505	-0.11017803
34	0xbd1634ee	-0.03667157
35	0xbeaea601	-0.34111026
36	0x3dacd2e9	0.084386654
37	0xbdae6529	-0.085153885
38	0x3e367c85	0.17820938
39	0x3d356ccc	0.04429321
40	0xbc384ad1	-0.011248306
41	0xbdd5bcfa	-0.10436435
42	0xbe1321d8	-0.14368379
43	0x3d8f47af	0.069960944
44	0x3d93611d	0.07196257
45	0xbd04af6c	-0.032393858
46	0x3de437c4	0.11143449
47	0xbdab4b8e	-0.0836402
48	0xbd5df855	-0.054191906
49	0x3d8d04c2	0.06885673
50	0x3c00f009	0.007869729
51	0x3d9c705f	0.076386206
52	0x3e71bd40	0.2360735
53	0x3d7c124b	0.061540883
54	0x3dcbc2d0	0.09949267
55	0x3da1aa76	0.07893841
56	0x3ce8910a	0.028389473
57	0x3e0b7206	0.13617715
58	0x3d9ecd57	0.07754009
59	0xbdab5fb0	-0.0836786
60	0xbe29900c	-0.16558856
61	0xbdf2d283	-0.11856558
62	0x3dd3e9c4	0.10347322
63	0x3dc326dd	0.09528897
64	0x3d09cb0d	0.03364091
65	0x3dba31b9	0.09091515
66	0x3da0bb83	0.07848265
67	0xbda5f4ac	-0.08103308
68	0x3e24dd42	0.16100028
69	0xbd7b27fa	-0.06131742
70	0x3d8ea6d0	0.06965411
71	0xbd160c5d	-0.036632884
72	0x3d9832b9	0.074315496
73	0xbe0c2346	-0.13685331
74	0x3e54b4e4	0.2077213
75	0xbe12831a	-0.14307824
76	0x3b2c1f75	0.0026263867
77	0xbcd99c4f	-0.026563792
78	0xbdc15e76	-0.09441845
79	0x3d9e0777	0.077162676
80	0xbcd629df	-0.026143013
81	0x3bb8959b	0.0056330687
82	0xbd39e07c	-0.0453801
83	0xbdfbd93c	-0.122972935
84	0xbd0f4807	-0.0349808
85	0xbd5ddfe4	-0.054168597
86	0xbd444d52	-0.0479253
87	0xbd5007f8	-0.05078885
88	0x3e238a89	0.15970816
89	0x3dcfd85e	0.10148691
90	0xbccbbec6	-0.024871241
91	0xbdb57166	-0.0885952
92	0x3d282c24	0.04105772
93	0x3dd7e739	0.10542149
94	0x3dd38356	0.10327785
95	0xbdcf2db1	-0.10116137
96	0x3d8a757e	0.06760691
97	0xbd9be3bb	-0.076117955
98	0xbc26d170	-0.01018177
99	0xbcb1ba96	-0.021695416
100	0x3bcb5e9e	0.0062063476
101	0x3cde5786	0.027141344
102	0xbba0a7b5	-0.0049028047
103	0xbc763dde	-0.015029399
104	0xbd54f635	-0.051992614
105	0x3d3c9e03	0.04604913
106	0x3b540e37	0.0032357106
107	0xbd845301	-0.06461144
108	0xbdf6f40a	-0.120582655
109	0x3daeaff4	0.08529654
110	0xbdf1b026	-0.11801176
111	0xbd3bb443	-0.045826208
112	0x3da7a79c	0.08186266
113	0xbdb5de58	-0.08880299
114	0x3d8a19b7	0.06743186
115	0xbbfa5948	-0.0076400377
116	0xbcb20246	-0.0217296
117	0xbd1cd4de	-0.038288943
118	0xbda608ac	-0.08107123
119	0x3e1d9c7a	0.15391722
120	0xbc562736	-0.013070872
121	0xbdf03b88	-0.11730105
122	0xbd8b02a2	-0.067876115
123	0xbdd27290	-0.10275757
124	0x3d3f341c	0.046680555
125	0x3e23f525	0.16011484
126	0x3da89858	0.08232182
127	0xbd6a985e	-0.057274215
128	0x3e0cb08a	0.1373922
129	0x3d0a830f	0.033816393
130	0xbbffb61b	-0.007803691
131	0x3dbc0b1e	0.09181808
132	0x3ce377f5	0.02776716
133	0x3ddf0564	0.108897
134	0xbd31d933	-0.043420028
135	0x3d211378	0.039325207
136	0x3ce3825d	0.027772123
137	0xbd658da5	-0.056043286
138	0x3dddce5a	0.10830374
139	0xbcfb0066	-0.030639838
140	0x3d0c65a6	0.034276627
141	0x3dd10c00	0.10207367
142	0xbcbf2320	-0.023332179
143	0xbd18af2f	-0.037276443
144	0x3dcede50	0.101009965
145	0xbe2eddae	-0.17076752
146	0x3e7b8dca	0.24565807
147	0xbdb70d13	-0.089380406
148	0xbc6276d8	-0.01382228
149	0xbbf89946	-0.007586631
150	0xbdbcebeb	-0.09224685
151	0x3ccfeeea	0.025382478
152	0x3b98362a	0.0046451287
153	0x3cd878b9	0.026424753
154	0xbdc2af31	-0.09506071
155	0x3dca56b9	0.09879822
156	0xbd98fa2f	-0.07469594
157	0xbda45e9a	-0.08025856
158	0xbe1c2a9c	-0.15250629
159	0x3e1c3be8	0.15257227
160	0xbda5499b	-0.0807068
161	0xbdeabaeb	-0.11461433
162	0xbd1d745d	-0.03844105
163	0x3d2e8bdb	0.042613845
164	0xbddaa9ef	-0.106769435
165	0xbe86dc50	-0.2633996
166	0xbdf49923	-0.11943271
167	0xbbc09a23	-0.0058777495
168	0x3de199b4	0.11015645
169	0x3cb014b5	0.021494249
170	0xbdc3cc57	-0.09560459
171	0xbd246667	-0.04013672
172	0xbc0227a3	-0.00794402
173	0xbc904960	-0.017613113
174	0xbd600358	-0.05469069
175	0xbd8dde64	-0.06927183
176	0xbe09c6f0	-0.13454795
177	0xbd8bbaa2	-0.06822707
178	0x3c57da28	0.013174571
179	0xbdc60bbf	-0.09670209
180	0x3e41f640	0.18941593
181	0x3d9b4cde	0.07583021
182	0x3c54ed12	0.012995975
183	0xbb942be0	-0.004521832
184	0xbd164d2a	-0.036694683
185	0xbcdcb617	-0.026942296
186	0x3de2aeb0	0.11068475
187	0x3db43032	0.08798255
188	0xbcd56d92	-0.026053224
189	0x3ddd9730	0.10819852
190	0xbd172fac	-0.036910698
191	0xbe042f34	-0.12908632
192	0x3e8c7ab5	0.27437368
193	0xbda8727e	-0.08224963
194	0x3d87b5d2	0.06626476
195	0xbcf125aa	-0.029436905
196	0x3d3efce6	0.0466279
197	0xbdd60932	-0.104509726
198	0x3ccc61c9	0.024948971
199	0xbd82252f	-0.063547485
200	0xbcac86e0	-0.021060407
201	0xbdfd6992	-0.123736516
202	0xbdd237dd	-0.10264561
203	0x3e135794	0.14388877
204	0xbdb6f7d9	-0.08933992
205	0x3cc4d8dc	0.024029188
206	0x3d4a658c	0.04941325
207	0xbd9cf377	-0.07663625
208	0xbd7095b4	-0.058736518
209	0xbe32a555	-0.17445882
210	0xbe810770	-0.25200987
211	0x3d6cd4c4	0.057820097
212	0x3dbfdc99	0.093682475
213	0x3d28ac2a	0.041179813
214	0xbdb7a3a0	-0.08966756
215	0xbd659965	-0.05605449
216	0x3de0b0c4	0.10971215
217	0xbdb45ebb	-0.08807131
218	0x3dd56c38	0.10421032
219	0x3c922191	0.017838271
220	0x3d17b7f4	0.037040666
221	0x3e20f23d	0.15717407
222	0x3da767fc	0.0817413
223	0xbd86eaac	-0.06587729
224	0xbd4cb01c	-0.04997264
225	0x3d63f779	0.05565593
226	0x3d10e72c	0.035376713
227	0x3d60158c	0.05470805
228	0xbdce4b26	-0.10072927
229	0x3c89b588	0.016810194
230	0x3caa2811	0.020771058
231	0x3cff5b0b	0.031171342
232	0x3da529ef	0.08064639
233	0x3c258846	0.010103291
234	0x3d5c331d	0.053759683
235	0x3db0bc55	0.086296715
236	0xbd235102	-0.039872177
237	0x3d1b323b	0.0378897
238	0x3d9ecd47	0.07753997
239	0xbd85cd5b	-0.06533309
240	0x3d36879c	0.04456292
241	0xbd34938f	-0.044086035
242	0x3d9ea21e	0.07745765
243	0xbe03fa27	-0.12888394
244	0x3e6d0b22	0.23148778
245	0x39070200	0.00012875348
246	0x3e29ebe2	0.16593888
247	0x3d9b20e7	0.07574635
248	0xbde5ba99	-0.11217231
249	0xbdf441d2	-0.11926617
250	0x3cbc0ab3	0.02295432
251	0x3d405de4	0.04696454
252	0xbd615be8	-0.05501929
253	0x3dad815a	0.084719375
254	0x3df3680b	0.11885079
255	0xbd0ae48d	-0.03390937

lstm2.bias_ih_l0 f4 [256]
0	0x3e8e7ae8	0.27828145
1	0x3d1407dc	0.036140308
2	0x3e023d9f	0.12718819
3	0xbd08514d	-0.03328066
4	0xbe33d13a	-0.17560282
5	0xbdce4a87	-0.10072809
6	0x3d1b95f0	0.03798479
7	0xbd22071b	-0.039557558
8	0x3e097dc2	0.13426879
9	0x3d8ab9f9	0.06773753
10	0x3ca2284c	0.019794606
11	0xbe49f8d2	-0.19723824
12	0xbc9c3c9c	-0.01907187
13	0xbe1993c3	-0.14997773
14	0xbdb16b47	-0.0866304
15	0xbce0e5b1	-0.027453275
16	0xbc351b38	-0.011053853
17	0x3e52fa6d	0.20603342
18	0xbc020eeb	-0.007938127
19	0xbbed53d9	-0.0072426614
20	0xbd78066f	-0.06055301
21	0xbce8410f	-0.028351335
22	0xbd01486b	-0.031563204
23	0x3b12b148	0.00223835
24	0x3e3dcaae	0.18534347
25	0xbda4c33b	-0.0804505
26	0xbe1b4d16	-0.15166125
27	0x3c8f0ea4	0.017463036
28	0x3e76d7d7	0.24105774
29	0xbd14d680	-0.036337376
30	0xbd75714c	-0.0599225
31	0xbd542aa7	-0.05179849
32	0xbd911b26	-0.07085256
33	0xbd1be87f	-0.038063522
34	0xbe4ee80a	-0.20205703
35	0x3d21550d	0.03938775
36	0xbe17cfae	-0.14825317
37	0x3dbdb074	0.092621714
38	0x3d2f8631	0.042852584
39	0xbd8ebcae	-0.069695815
40	0x3e1f6200	0.15564728
41	0x3e09190d	0.13388462
42	0xbd5ecd8d	-0.054395247
43	0x3e4cc8b5	0.19998439
44	0xbd855f39	-0.06512303
45	0xbdf833ff	-0.121192925
46	0x3d0f742c	0.0350229
47	0xbca22ad4	-0.019795813
48	0x3dc98d81	0.09841443
49	0x3da88a98	0.0822956
50	0xbd4b4637	-0.04962751
51	0xbd666931	-0.056252662
52	0xbca5090b	-0.020145914
53	0xbe0aa788	-0.1354047
54	0x3e37f7f0	0.17965674
55	0xbdcfb038	-0.10141033
56	0xbdd88179	-0.1057157
57	0xbde07945	-0.1096063
58	0xbc2b73f6	-0.010464659
59	0x3d94c840	0.07264757
60	0xbd5f292f	-0.054482635
61	0xbdf98fc6	-0.12185626
62	0x3d6d9e57	0.058012333
63	0xbdb28479	-0.087166734
64	0xbe7bc43b	-0.24586575
65	0xbc97fa4a	-0.018551964
66	0x3e3c1d48	0.18370545
67	0x3dff7eac	0.124753326
68	0x3dda6bb5	0.10665075
69	0x3cd43c0e	0.025907543
70	0x3ca80e2e	0.020514574
71	0x3e308bc7	0.17240821
72	0x3e1f30bd	0.15545936
73	0xbcbcd679	-0.023051487
74	0x3d71917c	0.058976635
75	0xbd9a05e3	-0.07520654
76	0x3d23f4fe	0.040028565
77	0xbd72fd6a	-0.059323706
78	0x3c580fe7	0.013187385
79	0x3e99564f	0.2994866
80	0x3e754564	0.23952252
81	0xbe51a64b	-0.20473592
82	0xbc97dbaf	-0.01853737
83	0x3df7a7d4	0.120925575
84	0x3d15094c	0.03638582
85	0xbdc88f97	-0.097930126
86	0x3d092b9a	0.033488847
87	0x3e7d9581	0.24764062
88	0xbdb812a4	-0.089879304
89	0xbdb4dde5	-0.088313855
90	0x3d43ed38	0.04783365
91	0xbd80cd6a	-0.062891796
92	0xbe1e0e35	-0.15435107
93	0x3d6d6f5b	0.057967525
94	0x3dc0949d	0.09403346
95	0xbd139c8f	-0.036037978
96	0x3d0262b0	0.031832397
97	0xbe09bafc	-0.13450235
98	0x3d9313e0	0.07181525
99	0x3ddf02d5	0.10889212
100	0x3df87c46	0.12133078
101	0xbd5da06f	-0.05410808
102	0x3e473a40	0.19455814
103	0xbd4a46dd	-0.049383987
104	0x3db1d5d8	0.086833656
105	0x3e244417	0.16041599
106	0x3c3d5d3e	0.011557875
107	0xbe369e13	-0.17833738
108	0x3e4531cc	0.19257277
109	0x3d7410da	0.059586383
110	0x3e2e3080	0.17010689
111	0x3c82fb33	0.015988922
112	0xbe2d0777	-0.16897379
113	0x3e2c5f1d	0.16833158
114	0x3e2b12cb	0.16706388
115	0xbd955112	-0.072908536
116	0xbd44ecd0	-0.048077404
117	0x3c7f92d6	0.015598973
118	0x3d3beaab	0.045878094
119	0x3e291d4e	0.16515085
120	0xbdfb2ff0	-0.12265003
121	0x3e1f2a0c	0.15543383
122	0x3d5bbd81	0.053647522
123	0xbca77dab	-0.020445665
124	0x3d6a7826	0.05724349
125	0xbe2d4e8a	-0.16924492
126	0xbe501dd6	-0.20323882
127	0x3e0f2ea9	0.13982643
128	0x3cc4f18d	0.024040962
129	0x3e1fb470	0.15596175
130	0xbc67223a	-0.014107281
131	0x3de655f7	0.11246865
132	0x3d0aa45e	0.03384816
133	0xbd50798c	-0.050897166
134	0x3d04ad22	0.032391675
135	0x3cfc753a	0.030817617
136	0xbddc513f	-0.10757684
137	0xbdc3cb79	-0.09560294
138	0xbd3d6d19	-0.04624662
139	0x3d385497	0.045002546
140	0xbdde2f16	-0.10848825
141	0x3dd94daa	0.10610516
142	0xbddde0cb	-0.108338915
143	0x3df51924	0.11967686
144	0xbdac4ccd	-0.08413086
145	0xbd7d0de1	-0.061780814
146	0x3c6631a9	0.014049926
147	0xbd8cae35	-0.06869165
148	0xbd679ae7	-0.05654421
149	0xbdac41cd	-0.08410988
150	0x3e05640e	0.13026449
151	0x39e99f70	0.00044560013
152	0x3d69a357	0.05704054
153	0x3d66de26	0.0563642
154	0xbcc108b8	-0.023563728
155	0x3c44596a	0.011984209
156	0x3d80e587	0.06293779
157	0x3c4bbae5	0.012434696
158	0xbd96580e	-0.07341014
159	0x3d428e2e	0.047498874
160	0x3d0b3052	0.03398163
161	0xbd761f45	-0.060088415
162	0xbd47954c	-0.048726365
163	0xbc6b126b	-0.014347653
164	0x3db8b8d0	0.09019625
165	0xbda94499	-0.08265037
166	0x3ba91f42	0.005161197
167	0x3d6ce85b	0.05783878
168	0x3dad02e3	0.08447816
169	0x3d771533	0.06032295
170	0xbdb3ef91	-0.08785928
171	0x3b5788af	0.0032887866
172	0xbdb64915	-0.08900658
173	0xbd7d4393	-0.061832022
174	0x3d26dade	0.04073607
175	0xbddfab79	-0.10921378
176	0xbd84f7cb	-0.06492575
177	0x3d5f61fc	0.054536805
178	0xbd5396c7	-0.051657464
179	0x3c8bac0f	0.017049817
180	0xbe08fbac	-0.13377255
181	0x3d12472a	0.0357124
182	0x3d899a71	0.067189105
183	0x3dee57c8	0.11637837
184	0x3c92dd87	0.017927898
185	0x3e15412f	0.14575647
186	0xbb7d4970	-0.0038648508
187	0x3e0104f9	0.12599553
188	0xbdf37fc6	-0.11889605
189	0x3cb8772a	0.02251776
190	0x3da53719	0.0806715
191	0xbdaefceb	-0.08544334
192	0x3ebfc1e5	0.37452617
193	0x3e27fe70	0.16405654
194	0x3c9482e3	0.018128818
195	0xbd1d8f51	-0.038466755
196	0x3dc57317	0.09641092
197	0xbd1dc385	-0.03851654
198	0x3b12c917	0.002239769
199	0x3cec08b1	0.028812738
200	0x3e1bd71f	0.15218781
201	0x3dcc737a	0.09982963
202	0x3d56ddf5	0.05245777
203	0xbe771487	-0.24128924
204	0x3dd2fc23	0.103019975
205	0xbd9311d6	-0.07181136
206	0x3dbe94f1	0.09305752
207	0x3e71398d	0.2355711
208	0x3d5b4341	0.053530935
209	0x3e6083ed	0.21925326
210	0xbcc94e57	-0.024573488
211	0x3dbc4855	0.09193484
212	0x3cfd405f	0.030914484
213	0xbdf60cbe	-0.12014149
214	0x3c27e1a8	0.010246672
215	0x3e221468	0.15828097
216	0x3eb01d8c	0.34397542
217	0xbe269915	-0.16269334
218	0x3d015414	0.031574324
219	0x3a510007	0.00079727214
220	0x3e527941	0.20554067
221	0x3d5b8073	0.053589296
222	0xbe20ccdd	-0.15703149
223	0xbd4bb6a7	-0.049734738
224	0x3c933600	0.017970085
225	0xbc4fc081	-0.012680174
226	0x3c1cb7fa	0.009565348
227	0x3cdc2564	0.026873298
228	0xbe533697	-0.20626293
229	0xbdb459e7	-0.0880621
230	0x3de85754	0.113447815
231	0x3d4480c5	0.047974367
232	0x3d770c3e	0.06031441
233	0x3c056915	0.008142729
234	0x3d0646b4	0.03278227
235	0x3e27d18b	0.16388528
236	0xbd796cea	-0.060894884
237	0x3da68882	0.081315055
238	0x3d68389f	0.056694623
239	0x3c51a153	0.01279481
240	0x3e4844f2	0.1955755
241	0xbcdf2997	-0.027241511
242	0xbd43b434	-0.047779277
243	0x3d3283b6	0.04358264
244	0xbcbeb235	-0.023278335
245	0x3bed341f	0.0072388793
246	0x3d0efe41	0.034910444
247	0x3d976beb	0.073936306
248	0xbce3da7a	-0.027814139
249	0x3d411156	0.047135673
250	0x3dfc2e95	0.12313572
251	0x3d0f8d17	0.035046663
252	0x3b83bae8	0.0040200837
253	0xbdfd5003	-0.12368777
254	0x3db48948	0.08815247
255	0x3d93407f	0.07190036
