saved_model/DAP_Model_NonRenew.pt (torch, 231074 bytes, 12 tensors)

lstm1.weight_ih_l0 f4 [256, 3]
0	0xbd2031c0	-0.039109945
1	0xbdcdb3e3	-0.10044076
2	0x3db500a1	0.088380106
3	0xbd4a58fb	-0.049401265
4	0xbde0a1b5	-0.10968343
5	0x3dc18e86	0.09451012
6	0x3d157ebc	0.036497816
7	0x3d28ac8b	0.041180175
8	0x3dfe9a57	0.12431782
9	0x3e3fae1d	0.18718763
10	0xbcf5d0c3	-0.030006772
11	0xbc47b69f	-0.012189536
12	0xbd07469e	-0.03302633
13	0x3da2e2e4	0.07953432
14	0x3b98e4a9	0.0046659303
15	0x3cd2f072	0.025749419
16	0x3cf481c2	0.02984703
17	0x3ddfe9ab	0.109332405
18	0x3e4f185a	0.20224133
19	0xbb710d87	-0.0036781745
20	0xbd9a0a21	-0.07521463
21	0xbc87956b	-0.01655074
22	0xbdda9f8b	-0.10674962
23	0xbd432fae	-0.047652893
24	0x3df29dc1	0.118464954
25	0x3dadf735	0.084944166
26	0xbdb6ad13	-0.0891973
27	0x3d537740	0.051627398
28	0xbe92bcab	-0.28659567
29	0xbd2d9c2f	-0.042385276
30	0x3df42fa7	0.119231515
31	0xbda9248c	-0.08258924
32	0xbdf3adca	-0.11898382
33	0x3e0e39f1	0.1388929
34	0x3db37848	0.08763176
35	0xbd1b0183	-0.03784324
36	0x3b8d2d04	0.004308345
37	0xbc0a17f0	-0.008428559
38	0x3db58cf7	0.088647775
39	0xbdb266f4	-0.08711043
40	0xbd1ee5c0	-0.038793325
41	0x3df6ea29	0.12056381
42	0xbc2b4d89	-0.010455498
43	0xbd185dde	-0.037198894
44	0x3c4d7450	0.012539938
45	0x3e1b05c6	0.15138921
46	0x3da33cdd	0.07970593
47	0x3dae2cf4	0.08504668
48	0xbd9218c5	-0.07133631
49	0x3ded006c	0.11572346
50	0x3e176f59	0.1478857
51	0xbcbe8f54	-0.023261704
52	0x3db9f934	0.09080735
53	0x3bfacdc7	0.007653925
54	0x3e504987	0.20340548
55	0xbda1e6a0	-0.07905316
56	0x3da38b59	0.07985563
57	0xbe31e32f	-0.1737182
58	0xbde4bd33	-0.111688994
59	0x3c6127de	0.013742415
60	0x3e165372	0.1468027
61	0x3d5f3b21	0.05449975
62	0xbca291d5	-0.019844929
63	0xbe21ac45	-0.15788372
64	0x3d0b14f2	0.033955522
65	0xbd6f29c2	-0.058389433
66	0x3dc02652	0.09382309
67	0xbe3fe988	-0.18741429
68	0x3d8134ae	0.06308876
69	0x3deaa265	0.114567555
70	0xbd30b327	-0.043139603
71	0xbbbb0ed0	-0.005708553
72	0xbc95e36e	-0.018296923
73	0xbce21d4e	-0.027601864
74	0x3d2964d3	0.04135592
75	0xbe3319f1	-0.17490365
76	0xbe493deb	-0.19652526
77	0x3d4dd4d0	0.050251782
78	0xbcdef4ae	-0.027216282
79	0x3cb5619a	0.022141267
80	0x3e28c0fc	0.16479868
81	0xbd857235	-0.06515924
82	0x3d73fc4c	0.05956678
83	0x3ca32196	0.019913476
84	0x3dce2d5c	0.10067245
85	0xbd627361	-0.055285815
86	0xbc4c4f4a	-0.012470076
87	0xbd1dae82	-0.0384965
88	0x3dcb8a47	0.09938484
89	0xbe3e1430	-0.18562388
90	0x3d05f0af	0.032700237
91	0x3dda6ef0	0.10665691
92	0xbd94caad	-0.0726522
93	0x3e2bf22f	0.16791604
94	0x3df7816e	0.12085234
95	0x3cb884f8	0.022524342
96	0x3c2f02a3	0.010681781
97	0x3d0214ce	0.031758122
98	0x3deba51d	0.11506102
99	0x3dbccac9	0.09218366
100	0x3e0cd07f	0.1375141
101	0x3dda5ce4	0.10662249
102	0x3c494716	0.012285015
103	0xbdcd4e44	-0.100246936
104	0xbe9c683a	-0.3054827
105	0x3d9a31ba	0.07529016
106	0xbd1b9af8	-0.037989587
107	0xbd42e777	-0.047584023
108	0xbd7a9102	-0.061173446
109	0xbda65bee	-0.08123003
110	0xbdddaf39	-0.10824437
111	0x3e8a1d55	0.26975504
112	0x3c6c991c	0.014440801
113	0xbdf86547	-0.12128692
114	0x3dd2ebc2	0.102988735
115	0x3e33b4b7	0.17549406
116	0x3d15ed16	0.036603056
117	0x3d42719d	0.04747163
118	0xbdb04c1a	-0.08608265
119	0xbe2fa048	-0.17150986
120	0xbdc2f9c3	-0.095202945
121	0x3c9a8858	0.018863842
122	0xbb1b3efa	-0.002368866
123	0xbd997872	-0.07493676
124	0x3cff7bb9	0.031186925
125	0x3cbaf2e2	0.022820894
126	0x3e02f58c	0.12788981
127	0xbd415805	-0.047203083
128	0x3e13bdb9	0.14427842
129	0x3cb2d48f	0.021829871
130	0x3ddd2e3c	0.10799834
131	0x3e03c555	0.12868245
132	0x3bdebce4	0.00679742
133	0xbdc8e7fd	-0.09809873
134	0xbdbe75f4	-0.092998415
135	0xbe2929ba	-0.16519824
136	0xbe098cec	-0.13432664
137	0xbdc1b56a	-0.0945843
138	0xbdab16bf	-0.08353948
139	0x3c8bf17a	0.017082918
140	0xbd004f01	-0.031325344
141	0xbe11a125	-0.14221628
142	0xbe9ea348	-0.3098395
143	0xbe4a33a5	-0.19746263
144	0xbd8fc171	-0.07019318
145	0xbd053c54	-0.032528237
146	0x3de77631	0.1130184
147	0x3df04004	0.1173096
148	0x3b3597f1	0.0027708972
149	0xbd9e999f	-0.07744145
150	0xbd282c28	-0.041057736
151	0x3dd77370	0.10520065
152	0x3e55a887	0.2086507
153	0xbe2d4686	-0.16921434
154	0xbdc23a40	-0.094837666
155	0xbe3a61b4	-0.18201333
156	0x3d8b7346	0.06809096
157	0xbdb73c90	-0.08947098
158	0x3ca20577	0.019777996
159	0x3d485622	0.048910268
160	0xbd2afa60	-0.041742682
161	0x3e8a8394	0.2705351
162	0xbd602fa7	-0.054732945
163	0xbdeaba69	-0.11461336
164	0x3d11d8e3	0.03560723
165	0x3df63b13	0.12022986
166	0x3e0cf7cf	0.13766406
167	0xbe7337e1	-0.23751785
168	0x3da1c50b	0.07898911
169	0xbd76604c	-0.06015043
170	0xbc4ac409	-0.01237584
171	0x3d9cc864	0.07655409
172	0xbdecfe7b	-0.11571976
173	0x3b938f97	0.004503201
174	0x3e0642c9	0.13111414
175	0x3d155b4d	0.036464024
176	0xbe245a86	-0.16050157
177	0x3c5286e4	0.012849543
178	0xbd982b06	-0.07430081
179	0x3c9dd15c	0.01926487
180	0x3d041a15	0.032251436
181	0xbd5c8cd5	-0.053845245
182	0xbe43c2f0	-0.19117332
183	0x3d9a058b	0.075205885
184	0xbc91f936	-0.017819028
185	0x3cd3ad13	0.025839364
186	0x3e0a1caa	0.13487497
187	0x3d9a4474	0.07532588
188	0x3da51f48	0.08062607
189	0xbe007799	-0.12545623
190	0xbe0b9481	-0.13630868
191	0x3d1a54e4	0.037678614
192	0xbe071db0	-0.13194919
193	0xbeb12468	-0.34598088
194	0x3eb77bb3	0.35836563
195	0xbd304eeb	-0.043044012
196	0xbe505a1f	-0.20346878
197	0x3d9905c0	0.074718
198	0xbc97b8a1	-0.018520655
199	0x3d96d611	0.07365049
200	0x3e6fa8c4	0.23404223
201	0xbb610165	-0.0034333107
202	0xbb9dc816	-0.004815112
203	0xbdac0aa5	-0.08400468
204	0x3dfad025	0.12246732
205	0x3d276b7f	0.040874
206	0x3e078aeb	0.13236587
207	0x3d29ff18	0.041503042
208	0xbccc38ed	-0.024929488
209	0x3e367018	0.17816198
210	0x3d9acbba	0.07558389
211	0x3dd973b2	0.1061777
212	0x3e2bed3e	0.1678972
213	0x3e2f2749	0.1710483
214	0x3d7da3da	0.06192384
215	0xbc397ca8	-0.011321224
216	0xbd69ecb9	-0.057110522
217	0x3db81d06	0.08989911
218	0x3dfbe246	0.122990176
219	0xbdbe4b2d	-0.092916824
220	0xbe921d17	-0.2853782
221	0x3dba27e0	0.09089637
222	0x3d80a69e	0.0628178
223	0xbd56c81c	-0.052436933
224	0xbcc48ae9	-0.023992019
225	0x3da941a0	0.0826447
226	0xbd8bd4b8	-0.06827682
227	0xbe6327a4	-0.2218309
228	0x3e05b6b0	0.13057971
229	0x3e34d2da	0.17658558
230	0xbd5b8a01	-0.053598408
231	0xbcf64ed9	-0.030066894
232	0x3d219a86	0.039454006
233	0x3d37d4b7	0.044880595
234	0xbb1202e3	-0.0022279553
235	0x3da4eb1d	0.08052657
236	0xbd1b9724	-0.037985936
237	0x3ddaf425	0.10691098
238	0x3d52532c	0.05134885
239	0x3e2c1684	0.16805464
240	0xbd8eaf02	-0.06966974
241	0x3e19c14c	0.15015143
242	0x3bffc3f3	0.0078053414
243	0x3d96e7db	0.07368442
244	0x3d56476d	0.05231421
245	0x3d111373	0.03541894
246	0x3d84d109	0.06485183
247	0xbd4ebabd	-0.050471056
248	0x3c39d516	0.011342308
249	0xbeb4fa5e	-0.35347265
250	0xbdb61ed0	-0.08892596
251	0xbd935c0a	-0.071952894
252	0x3d01c6c6	0.031683706
253	0x3de86b7f	0.11348628
254	0x3dde7ea8	0.108640015
255	0xbec7756e	-0.3895678

lstm1.weight_hh_l0 f4 [256, 64]
0	0xbe152e79	-0.14568509
1	0x3e47d376	0.1951426
2	0xbe1d425f	-0.1535735
3	0xbdca47f5	-0.09877006
4	0xbd7304e9	-0.059330855
5	0xbc8640fc	-0.016388409
6	0x3d821629	0.06351883
7	0xbe122f83	-0.14275937
8	0x3d0b18ee	0.03395932
9	0xbe06aedc	-0.13152641
10	0xbdf9f840	-0.12205553
11	0x3db4d0bb	0.08828875
12	0x3df907df	0.121597044
13	0x3b3bd645	0.002866165
14	0xbc7cf53b	-0.015439327
15	0xbe07bae9	-0.13254894
16	0xbd3e12bb	-0.04640458
17	0xbc3e1e03	-0.011603835
18	0xbd8e2e25	-0.06942395
19	0x3c40ac4b	0.011759828
20	0x3df03a74	0.11729899
21	0x3d75976c	0.05995886
22	0x3de8edbf	0.113734715
23	0xbcd0be57	-0.025481386
24	0x3d95e9ac	0.0731996
25	0x3b7d895e	0.0038686614
26	0x3c6b4122	0.014358791
27	0x3cd62ecf	0.026145367
28	0xbe250c0f	-0.16117881
29	0x3dc35ae2	0.09538819
30	0x3d6bd024	0.057571545
31	0x3dd13183	0.10214522
32	0x3c48a79e	0.012246994
33	0x3cfc161e	0.030772265
34	0x3c933f53	0.017974531
35	0xbdc4beb6	-0.09606688
36	0xbd520a80	-0.051279545
37	0x3d883b52	0.066519395
38	0x3d2b0874	0.04175611
39	0xbcf32b00	-0.02968359
40	0xbc94125d	-0.018075163
41	0x3e0a10ec	0.13483018
42	0xbe322755	-0.17397816
43	0xbb94aef7	-0.004537459
44	0xbe5a4e66	-0.21318969
45	0x3dcd7d46	0.1003366
46	0x3c8471fd	0.016167635
47	0xbdf777a8	-0.120833695
48	0x3d07411f	0.03302109
49	0x3d90939d	0.07059405
50	0x3e969d06	0.29416674
51	0xbde40934	-0.11134568
52	0xbe52de83	-0.20592694
53	0xbe3a55de	-0.18196818
54	0xbdb87430	-0.09006536
55	0xbdc6441e	-0.09680961
56	0x3e8263f4	0.25466883
57	0xbe1dd070	-0.15411544
58	0x3d5321d8	0.051545948
59	0x3dd63f8b	0.104613386
60	0x3dde59a6	0.10856943
61	0x3e1a3e96	0.15062937
62	0xbe012218	-0.12610662
63	0x3e34d691	0.17659976
64	0x3da1a485	0.07892708
65	0x3e29621f	0.16541336
66	0xbe2a000a	-0.16601577
67	0xbe74fadb	-0.23923819
68	0x3d041d6a	0.032254614
69	0xbdfda5df	-0.12385153
70	0xbe31d1aa	-0.17365137
71	0x3ddafbc9	0.106925555
72	0x3e79b515	0.24385484
73	0x3a58dbd0	0.00082725007
74	0xbe1e875f	-0.15481327
75	0xbdd0632f	-0.10175168
76	0xbe0299ce	-0.12753984
77	0x3d253f6c	0.040343687
78	0x3e694a8b	0.22782342
79	0xbe266b1a	-0.16251794
80	0xbd2bbfd3	-0.041930985
81	0xbd620aa1	-0.055185918
82	0x3dc28210	0.09497464
83	0x3da36e58	0.07980031
84	0x3da1de9c	0.079037875
85	0x3c820095	0.015869418
86	0x3daa5339	0.08316655
87	0xbd94e125	-0.072695054
88	0x3caf4d64	0.021399207
89	0xbe5db568	-0.21651232
90	0x3e503131	0.20331265
91	0x3d8bec26	0.06832151
92	0xbcfa99e6	-0.030590963
93	0x3dbefbba	0.09325357
94	0xbe85cc9d	-0.2613267
95	0x3df430bc	0.11923358
96	0xbd5acc9e	-0.053417794
97	0xbe4016b8	-0.18758667
98	0x3e43e410	0.19129968
99	0xbe2e3e72	-0.17016008
100	0xbe15d504	-0.1463204
101	0x3db75aad	0.08952842
102	0xbdbbc176	-0.09167759
103	0x3cef1038	0.029182538
104	0x3e0bfdef	0.13671087
105	0x3e75f5f5	0.24019606
106	0x3d89babf	0.06725072
107	0xbda00acc	-0.07814559
108	0x3c718050	0.014740065
109	0x3d8195a5	0.063273706
110	0x3e22b496	0.158892
111	0xbdc850de	-0.09781049
112	0xbdb33a6e	-0.08751379
113	0x3e307b5e	0.17234561
114	0x3e953cf5	0.2914807
115	0x3d3cfc07	0.04613879
116	0xbe58f75d	-0.21188112
117	0xbc670e55	-0.014102538
118	0x3ce1e14b	0.027573248
119	0xbe416ad4	-0.18888408
120	0x3d92c055	0.07165591
121	0xbe479cc7	-0.194934
122	0xbd9802c0	-0.074223995
123	0xbe4aabeb	-0.19792144
124	0xbda862be	-0.082219586
125	0x3e26d623	0.16292624
126	0xbc8ea672	-0.017413352
127	0x3db6a62f	0.08918416
128	0xbe271ec0	-0.16320324
129	0x3c8cbbfd	0.017179484
130	0xbce57905	-0.028011808
131	0xbe732152	-0.2374318
132	0xbe6c4b00	-0.23075485
133	0xbb6ed6d7	-0.0036443972
134	0xbc3ba7c8	-0.011453576
135	0x3d9d79b1	0.076892264
136	0x3d9ba9ac	0.07600722
137	0xbdf9a8ae	-0.12190376
138	0xbdc2352d	-0.09482799
139	0xbd66cc46	-0.056347154
140	0x3da284d1	0.07935489
141	0xbce7dbc7	-0.02830304
142	0x3daa8882	0.08326818
143	0xbe049775	-0.12948401
144	0xbd93684c	-0.071976274
145	0x3d7c9656	0.06166681
146	0xbd84c710	-0.06483281
147	0xbd8b6ce6	-0.0680788
148	0x3e52c9dd	0.20584817
149	0xbe81acc6	-0.25327128
150	0xbe34d5da	-0.17659703
151	0xbe3a5b78	-0.18198955
152	0x3cadedd7	0.021231575
153	0x3e6cf072	0.23138598
154	0xbd00dfa6	-0.031463288
155	0x3e09684c	0.13418692
156	0xbe3e6066	-0.1859146
157	0x3e2bd4bf	0.16780375
158	0xbd7a433f	-0.061099287
159	0x3e250db6	0.16118512
160	0xbcd24fc6	-0.025672805
161	0xbe3874b0	-0.18013263
162	0xbb51c0eb	-0.0032005857
163	0xbdb237bb	-0.08702036
164	0xbb864a45	-0.004098209
165	0xbdb3db7e	-0.08782099
166	0xbe178276	-0.1479586
167	0x3c41a5a1	0.011819274
168	0x3db5f24d	0.08884106
169	0x3dd04ed0	0.10171282
170	0xbcbc4374	-0.022981383
171	0xbd990eea	-0.07473548
172	0xbd96caf3	-0.07362928
173	0xbe6a7b56	-0.22898611
174	0xbdfd185b	-0.12358161
175	0xbe78991b	-0.24277155
176	0x3d9bb65c	0.07603142
177	0x3e1c18d6	0.15243849
178	0xbc26c814	-0.010179538
179	0x3dba282c	0.090896934
180	0xbbaa0fda	-0.005189878
181	0xbdfcda7e	-0.123463616
182	0x3d246f01	0.040144924
183	0xbd859ddb	-0.06524249
184	0x3e263577	0.16231333
185	0xbd9ac046	-0.075562045
186	0xbd0d10ee	-0.034439974
187	0xbe6592af	-0.22419237
188	0xbcdfdd18	-0.027327105
189	0x3e60a0fa	0.21936408
190	0x37e0a360	2.6778958e-05
191	0x3d4c369c	0.049856767
192	0x3dee78aa	0.116441086
193	0x3c684a6f	0.014177903
194	0xbd60e8c4	-0.054909483
195	0x3bfaab65	0.0076498264
196	0x3c2e68b0	0.010645077
197	0xbc9a96dd	-0.018870765
198	0xbdc28c21	-0.09499384
199	0x3c933e81	0.01797414
200	0x3c0027bd	0.007821974
201	0xbde375aa	-0.11106427
202	0x3d55815e	0.052125327
203	0xbe376508	-0.17909634
204	0x3db6356f	0.088969104
205	0x3e077949	0.1322986
206	0x3dd12ec6	0.102139995
207	0x3d078340	0.033084154
208	0xbe31f343	-0.17377953
209	0xbd9c5f60	-0.07635379
210	0x3d9a33f0	0.075294375
211	0x3e7a243a	0.24427882
212	0xbd0ab728	-0.033866078
213	0x3ce0ffa5	0.02746565
214	0x3e1362e8	0.14393198
215	0x3d20bfad	0.039245296
216	0xbdc8cfba	-0.09805246
217	0xbdc1a98b	-0.09456166
218	0x3d8e7076	0.06955044
219	0x3e11e9d1	0.1424935
220	0xbcd4e923	-0.025990075
221	0x3e60ed8e	0.2196562
222	0x3d22ac67	0.039715197
223	0x3df8b64f	0.121441476
224	0x3d9d1538	0.07670063
225	0xbe0660f6	-0.13122925
226	0x3d206a73	0.039164018
227	0xbdb78e4f	-0.0896269
228	0x3c6f3aaa	0.014601389
229	0xbca62ee9	-0.02028604
230	0xbcc88250	-0.0244762
231	0xbd55cbaf	-0.0521962
232	0x3e484879	0.19558896
233	0x3de43e29	0.111446686
234	0xbc90b3fd	-0.01766395
235	0x3c956b6c	0.0182397
236	0xbdce76cc	-0.100812525
237	0x3dd2e5ec	0.1029776
238	0xbcaec2bd	-0.021333093
239	0xbd00de6b	-0.031462114
240	0x3d4dd34e	0.050250344
241	0x3d468735	0.048468787
242	0x3d1728f2	0.036904283
243	0xbda1395c	-0.078722686
244	0xbe60cc98	-0.21953046
245	0xbdecedca	-0.11568792
246	0xbdf27c23	-0.118400835
247	0xbe5caac5	-0.21549518
248	0x3d4aecf2	0.049542375
249	0xbd20d2c9	-0.03926352
250	0x3d7287e3	0.059211623
251	0x3ce43bb4	0.0278605
252	0xbda220a8	-0.07916385
253	0x3b9ba278	0.0047495924
254	0x3cbef195	0.023308555
255	0x3e714a85	0.23563583

lstm1.bias_ih_l0 f4 [256]
0	0xbc349499	-0.011021757
1	0x3d90f24b	0.07077464
2	0x3e2f8d5e	0.17143771
3	0xbe6ac525	-0.22926767
4	0xbd526c08	-0.051372558
5	0xbd58db5c	-0.052943572
6	0xbdb10f85	-0.08645538
7	0x3d014fb2	0.031570144
8	0xbe1e9ee3	-0.15490298
9	0x3dd9065a	0.105969146
10	0x3d5dbf3b	0.05413745
11	0xbddac4e8	-0.10682088
12	0x3e197070	0.14984298
13	0xbdbf0936	-0.09327929
14	0x3e2cb71a	0.16866723
15	0xbda9397d	-0.08262918
16	0x3da25b1d	0.07927535
17	0x3a88a148	0.0010424042
18	0xbd81889a	-0.06324883
19	0x3d8ac09c	0.067750186
20	0xbcd2bf8e	-0.025726106
21	0xbd3931b4	-0.045213416
22	0xbd3a7779	-0.045524094
23	0x3c8df99b	0.017330935
24	0xbdacdc58	-0.08440465
25	0x3a8dd3cd	0.0010820568
26	0x3dd8e14b	0.10589846
27	0xbe0db4b3	-0.13838463
28	0xbdcfe6a7	-0.10151415
29	0xbd43d0b2	-0.04780645
30	0x3d4a6752	0.04941494
31	0x3def51e0	0.11685538
32	0xbd1a4f5f	-0.03767335
33	0x3cf298cc	0.029613875
34	0xbcd335b0	-0.025782436
35	0xbe4da6fc	-0.2008323
36	0xbd3c4a9a	-0.045969583
37	0xbe38b1b1	-0.18036534
38	0xbdfacbfd	-0.12245939
39	0xbd8405a0	-0.064463854
40	0x3b5ad545	0.0033391279
41	0x3bc1a7e8	0.0059099086
42	0x3da2ee63	0.07955625
43	0x3e109fef	0.1412351
44	0xbdd9636f	-0.106146686
45	0xbd2b5a78	-0.041834325
46	0x3e46f2a2	0.19428495
47	0xbd7211f1	-0.05909914
48	0x3cb258e2	0.021770898
49	0x3d2796d8	0.04091534
50	0x3e5b3dfd	0.21410365
51	0xbd6a4ac6	-0.057200216
52	0x3d5d39c0	0.054010153
53	0x3e24486f	0.16043256
54	0xbc838bbb	-0.01605784
55	0xbe2d1b57	-0.1690496
56	0xbc9df42b	-0.019281467
57	0xbd26b3da	-0.040698864
58	0xbdf5bb42	-0.11998607
59	0xbd3008da	-0.04297719
60	0xbe000071	-0.12500168
61	0xbce60ec1	-0.028083207
62	0x3d139beb	0.036037367
63	0x3e34cd54	0.17656451
64	0x3daef634	0.08543053
65	0xbd9abdb0	-0.07555711
66	0x3e1a8f83	0.15093808
67	0xbd0a1879	-0.033714745
68	0xbdeba68a	-0.11506374
69	0x3d8152f7	0.063146524
70	0x3dc8e598	0.098094165
71	0xbd908ece	-0.07058488
72	0x3c7d4c05	0.015460019
73	0x3d6ca7cf	0.057777222
74	0xbe2af3a8	-0.1669451
75	0xbe10f935	-0.14157565
76	0x3d20f3d2	0.039295025
77	0xbd41594a	-0.047204293
78	0xbd53a56c	-0.05167143
79	0xbd61f178	-0.055161923
80	0xbd86c54b	-0.065805994
81	0x3d4721fc	0.048616394
82	0x3d132d80	0.035932064
83	0xbb6318bb	-0.0034652192
84	0xbd1ab2c4	-0.03776814
85	0x3d6fac38	0.05851385
86	0xbb3779fe	-0.0027996297
87	0xbce2921e	-0.027657565
88	0x3e6dd761	0.23226692
89	0x3e877d9e	0.26463026
90	0x3e035810	0.12826562
91	0xbd646bb5	-0.05576678
92	0x3d3303d3	0.04370482
93	0x3d839635	0.06425134
94	0x3d58b038	0.05290243
95	0x3e0afcd9	0.13573016
96	0xbd97c9a5	-0.074115075
97	0xbdea5ab2	-0.1144308
98	0x3e0c8e95	0.13726266
99	0x3c871201	0.016488077
100	0xbe2e0c20	-0.16996813
101	0xbe5d0073	-0.21582203
102	0xbdd2fbf8	-0.103019655
103	0x3d00739f	0.031360265
104	0xbd9660da	-0.07342692
105	0x3c7a3cdb	0.015273298
106	0xbe4c921a	-0.19977608
107	0x3e283388	0.16425908
108	0xbde8e981	-0.11372662
109	0x3d5bd38d	0.053668547
110	0xbce9211d	-0.028458172
111	0xbc9e3523	-0.019312447
112	0x3d973b2d	0.07384334
113	0x3de38011	0.11108411
114	0xbdad66cd	-0.08466873
115	0x3d46969f	0.048483487
116	0xbd0e3ad4	-0.03472407
117	0x3d51bf4c	0.051207826
118	0x3ce82284	0.02833677
119	0x3e15578c	0.14584178
120	0x3dcbe107	0.0995503
121	0x3dbd183b	0.09233137
122	0xbc23b00a	-0.009990701
123	0xbe578b7c	-0.21049303
124	0xbe559ec7	-0.2086135
125	0x3ca85d55	0.020552317
126	0xbe01efba	-0.12689105
127	0x3e38f662	0.18062738
128	0xbde561d9	-0.112003036
129	0xbd570802	-0.05249787
130	0x3e055f49	0.1302463
131	0x3d2f7420	0.042835355
132	0x3d80eb6e	0.06294905
133	0x3e207324	0.15668923
134	0x3e414f00	0.18877792
135	0xbce955c6	-0.028483283
136	0xbe279107	-0.16363917
137	0xbdc255f3	-0.0948905
138	0xbc11c968	-0.008898117
139	0x3d835c5a	0.06414099
140	0x3e4653ca	0.193679
141	0x3e51bae7	0.20481454
142	0xbd75bbfd	-0.059993733
143	0x3e3ee7fb	0.18643181
144	0x3e628712	0.22121838
145	0x3e044978	0.12918651
146	0xbe56d51f	-0.20979737
147	0xbe59856c	-0.21242303
148	0x3cbb9400	0.02289772
149	0x3dfe1cb2	0.12407817
150	0xbddc1b90	-0.10747445
151	0xbe2b1ef0	-0.1671102
152	0xbd9ac056	-0.075562164
153	0x3e5c354c	0.21504706
154	0xbe6d48d0	-0.23172307
155	0xbe477fe2	-0.19482377
156	0x3e4ac92e	0.19803306
157	0xbe0ab688	-0.13546193
158	0x3e0539c5	0.13010319
159	0xbe3ec861	-0.18631126
160	0x3bd498dd	0.0064879493
161	0x3dd1fdb8	0.10253471
162	0xbe543ec4	-0.20727068
163	0x3dcf4207	0.101200156
164	0x3cbb24bd	0.022844667
165	0x3c9d97c7	0.019237412
166	0x3db1aeb3	0.08675899
167	0xbe636a51	-0.22208525
168	0xbe4d809b	-0.2006859
169	0xbe0b2bcf	-0.1359093
170	0x3addd520	0.0016924478
171	0x3e1c4f17	0.15264545
172	0x3c77975c	0.0151117705
173	0xbe06d8c6	-0.1316863
174	0xbe19a5fc	-0.15004724
175	0x3d0bf0a6	0.034165047
176	0x3e3ef968	0.18649828
177	0xbe02d412	-0.12776211
178	0xbe32ff08	-0.17480099
179	0xbda1bb12	-0.07897009
180	0x3dbd9d82	0.09258558
181	0xbe152ce3	-0.14567904
182	0xbd2d4d7e	-0.04231023
183	0x3e2464a8	0.16054022
184	0xbe142419	-0.14466895
185	0x3e067fd4	0.131347
186	0xbe30ecd6	-0.17277846
187	0x3d981111	0.0742513
188	0xbd802ffd	-0.06259153
189	0xbda1e4b0	-0.07904947
190	0x3e837139	0.2567232
191	0xbdd96504	-0.1061497
192	0xbd94cf1a	-0.07266064
193	0xbc23262c	-0.009957831
194	0x3dd56fbc	0.10421702
195	0x3d334049	0.04376248
196	0x3e247d88	0.16063511
197	0xbdb0cec5	-0.08633188
198	0x3df06c29	0.1173938
199	0x3e4deb7d	0.20109363
200	0x3d0dfdfc	0.034666047
201	0x3daa6314	0.08319679
202	0xbc8a2265	-0.016862104
203	0x3d9598f6	0.073045656
204	0x3e0695ef	0.13143133
205	0xbd5f2c37	-0.054485526
206	0x3dbd7aa2	0.09251906
207	0x3dfe594c	0.12419376
208	0x3d9c2d27	0.076257996
209	0x3bdc4949	0.0067226035
210	0x3dca0779	0.098647065
211	0x3dc2b5e0	0.09507346
212	0x3c9d9b4f	0.019239096
213	0x3cec1fc6	0.028823745
214	0xbde4fb5c	-0.111807555
215	0xbd72dca3	-0.059292447
216	0x3dd22db4	0.102626234
217	0x3cc0295a	0.023457218
218	0x3e37054d	0.17873116
219	0x3d35644d	0.044285107
220	0xbe3d7e5b	-0.18505232
221	0x3d8f4795	0.06996075
222	0x3e0f3057	0.13983284
223	0x3d0d52b2	0.034502693
224	0xbdd6fae9	-0.10497076
225	0x3cc8c807	0.024509443
226	0x3d1cdc4d	0.038296033
227	0xbd458699	-0.048224065
228	0xbdf3c3dd	-0.11902592
229	0xbd99952b	-0.07499155
230	0xbc94ca79	-0.018162953
231	0x3e0c9b05	0.1373101
232	0xbdd03b63	-0.10167577
233	0xbd86fd2f	-0.0659126
234	0xbda7bd08	-0.08190352
235	0x3dbf9412	0.09354414
236	0xbe0c52af	-0.13703416
237	0x3daacb1a	0.0833952
238	0x3c80fcd6	0.015745562
239	0xbe38cdb7	-0.18047224
240	0x3e1eae6f	0.15496229
241	0x3c623d5f	0.013808577
242	0x3e01a8fe	0.12662122
243	0x3bb7935f	0.005602285
244	0x3dd1c5aa	0.102427796
245	0x3e37da56	0.17954382
246	0xbbed6009	-0.0072441143
247	0xbd42b8d5	-0.04753955
248	0x3cb86e4c	0.022513531
249	0x3cbafb83	0.022825008
250	0xbd83cd03	-0.06435587
251	0xbe05583b	-0.13021939
252	0xbde5781a	-0.11204548
253	0xbe0eb5be	-0.13936517
254	0x3d684682	0.056707866
255	0x3e255c77	0.16148554

lstm1.bias_hh_l0 f4 [256]
0	0x3da1adc7	0.078944735
1	0xbd74aa40	-0.059732676
2	0x3e4bcd90	0.19902635
3	0xbe3b6dba	-0.18303576
4	0xbd2ca74c	-0.042151734
5	0xbdef3ea4	-0.116818696
6	0xbe1381b3	-0.14404945
7	0x3d546aa0	0.051859498
8	0xbe238ba8	-0.15971243
9	0x3c3f0419	0.011658692
10	0xbcc97bfa	-0.02459525
11	0x3d0ce00c	0.034393355
12	0x3dfb4f67	0.12271004
13	0xbdadcae4	-0.08485964
14	0x3e1ccf2d	0.15313406
15	0xbde6e42e	-0.112739906
16	0xbdcf7ba5	-0.10131005
17	0xbbf4b7ea	-0.0074682133
18	0x3cae128f	0.021249084
19	0x3dc420c6	0.095765635
20	0xbd464202	-0.048402794
21	0xbe05ac1d	-0.13053937
22	0xbe057830	-0.13034129
23	0x3e0a5953	0.13510637
24	0x3d3e49c4	0.046457067
25	0x3df7461f	0.120739214
26	0x3e366637	0.1781243
27	0x3d1b30d7	0.037888374
28	0xbdb82cca	-0.08992918
29	0x3da39f02	0.07989313
30	0xbd2a3bfc	-0.04156111
31	0x3dd8cedc	0.1058633
32	0xbca48200	-0.02008152
33	0xbcd637af	-0.026149599
34	0xbdcb02dc	-0.09912655
35	0xbe536309	-0.20643248
36	0xbda4a7a5	-0.08039788
37	0xbe504d90	-0.20342088
38	0xbe2f91f8	-0.17145526
39	0xbe026772	-0.12734774
40	0x3d8d9488	0.06913096
41	0x3d0bb8b0	0.03411168
42	0x3dc9799c	0.09837648
43	0x3deb0005	0.11474613
44	0xbd7a6643	-0.06113268
45	0x3d29d2fc	0.041460976
46	0x3decb7cf	0.11558496
47	0xbd34a0b4	-0.04409857
48	0xbd32e4a4	-0.04367508
49	0x3c85ae54	0.016318478
50	0x3df92f31	0.12167204
51	0xbdcfe774	-0.10151568
52	0x3dc4d955	0.09611765
53	0x3e1d7f1f	0.15380524
54	0x3d989963	0.07451131
55	0xbe200e36	-0.15630421
56	0x3d333760	0.04375398
57	0x3dda6d44	0.10665372
58	0xbe310c1c	-0.17289776
59	0xbc8d90e2	-0.017281
60	0x3c922cc8	0.017843619
61	0xbdfe7907	-0.12425428
62	0xbdedd8ed	-0.11613641
63	0xbd633686	-0.05547192
64	0x3dec7daa	0.11547406
65	0x3da0177d	0.0781698
66	0x3e669a2c	0.2251975
67	0x3d9e11f1	0.07718266
68	0x3dec2eee	0.11532389
69	0x3e06ada1	0.13152172
70	0xbc3d7288	-0.011562951
71	0x3d94e3c9	0.07270009
72	0x3c38b289	0.011273035
73	0x3bc61a9e	0.0060456535
74	0xbe38202b	-0.17981021
75	0xbe1792f3	-0.1480215
76	0x3bb28031	0.0054474105
77	0x3cff9e70	0.031203479
78	0xbe18b3c8	-0.14912331
79	0x3dc14921	0.09437776
80	0xbd611538	-0.054951876
81	0xbda73ce5	-0.081659116
82	0xbded5691	-0.11588777
83	0x3e58480e	0.21121237
84	0x3ca8e547	0.02061714
85	0x3dfac1e4	0.12244013
86	0xbe03bbf6	-0.1286467
87	0xbc5b8e09	-0.013400563
88	0x3df18b9b	0.11794206
89	0x3e20fb7a	0.1572093
90	0xbc7c8ef6	-0.015414944
91	0xbe267c12	-0.16258267
92	0x3ddcfc1f	0.10790276
93	0x3c576a9e	0.013147978
94	0xbd97cf16	-0.074125454
95	0xbd38f434	-0.045154765
96	0xbc9dc50d	-0.019259
97	0xbe0f32c3	-0.13984208
98	0x3e6ec45a	0.2331709
99	0x3de66e18	0.112514675
100	0xbe716650	-0.23574185
101	0xbe312e4c	-0.17302817
102	0x3cddd90e	0.027081039
103	0x3d91ff73	0.07128801
104	0xbd88ff28	-0.06689292
105	0xbd302780	-0.04300642
106	0xbe306b62	-0.17228463
107	0x3e1ab0e5	0.15106542
108	0xbe032189	-0.12805761
109	0x3d85ddef	0.06536471
110	0x3e30bdc4	0.1725989
111	0xbce72758	-0.028217003
112	0x3a6f9753	0.00091396755
113	0x3dcad79e	0.09904407
114	0xbd9685b8	-0.073497236
115	0xbde94735	-0.11390535
116	0xbcafe590	-0.021471769
117	0xbe26be0a	-0.16283432
118	0x3de67a24	0.11253765
119	0x3c7f81c1	0.015594901
120	0x3e4ad0f5	0.19806273
121	0x3db62347	0.08893447
122	0xbd67ef28	-0.05662456
123	0xbe22e886	-0.15909013
124	0xbd0b3fe4	-0.033996478
125	0x3d6b1c67	0.057400133
126	0xbe103328	-0.14082015
127	0x3d04202b	0.03225724
128	0xbe1e58b2	-0.15463522
129	0x3de9f9d4	0.11424604
130	0x3e457c79	0.19285764
131	0x3d3fa46b	0.04678766
132	0xbda3dffa	-0.080017045
133	0x3e3d4764	0.18484265
134	0x3d70a524	0.05875124
135	0xbdadd080	-0.08487034
136	0xbdb576a9	-0.08860523
137	0xbdac1dba	-0.084041074
138	0x3d73c1cb	0.059510987
139	0x3e81b06f	0.2532992
140	0x3d231954	0.039819077
141	0x3e2e03fd	0.16993709
142	0xbde27d0f	-0.11059009
143	0x3d30a2dc	0.043124065
144	0x3e5bdf33	0.21471862
145	0x3e43fc6d	0.19139262
146	0xbe45b8c1	-0.1930876
147	0xbe5f8096	-0.21826395
148	0xbe3ab77c	-0.18234056
149	0xbd61c292	-0.055117197
150	0xbc2978b2	-0.010343717
151	0xbe13bf41	-0.14428426
152	0x3e241f5a	0.16027585
153	0x3e58d2ac	0.21174115
154	0xbe43896c	-0.19095391
155	0xbb1d0ea2	-0.002396502
156	0x3e6c40ad	0.23071547
157	0xbcc87124	-0.024468012
158	0x3e40555e	0.18782565
159	0xbdfd15ef	-0.12357699
160	0xbd944a11	-0.072406895
161	0x3dcb752c	0.09934458
162	0xbddf7a6c	-0.10912022
163	0x3da7a301	0.081853874
164	0x3cb93a63	0.022610849
165	0xbccdb6f5	-0.025111655
166	0x3dab3f5b	0.083616935
167	0xbc19e138	-0.009392075
168	0xbd3f4336	-0.046694957
169	0xbe29c44e	-0.1657879
170	0xbd2ab338	-0.041674823
171	0x3e1bcda6	0.15215167
172	0xbd16c4e9	-0.036808882
173	0xbe0633b9	-0.13105668
174	0xbe8bdd0b	-0.2731708
175	0xbde4f72b	-0.11179956
176	0x3dbb0fa0	0.091338396
177	0xbe378bbc	-0.17924398
178	0xbdb62526	-0.08893804
179	0xbe1ba44e	-0.15199396
180	0x3e08c9b0	0.13358188
181	0xbe490fc5	-0.19634922
182	0x3d377a9c	0.044794664
183	0x3db91ecf	0.090390794
184	0x3bce334a	0.006292735
185	0x3d96216f	0.07330596
186	0xbd47e298	-0.04880008
187	0xbd810d5a	-0.06301375
188	0xbdff4bb0	-0.12465608
189	0x3dbb0c98	0.091332614
190	0x3e0032bb	0.12519352
191	0xbc89bc04	-0.016813286
192	0x3e1bcac2	0.15214065
193	0xbe13c5d5	-0.14430936
194	0x3e009038	0.12555015
195	0xbdc0f2a0	-0.09421277
196	0xbce9bc5b	-0.028532198
197	0x3d5c262b	0.053747337
198	0x3d116f8a	0.035506763
199	0x3e637fad	0.22216673
200	0xbd222a1b	-0.039590936
201	0x3e021fb0	0.127074
202	0x3cc6d3a3	0.024270838
203	0x3dd3abb2	0.10335483
204	0x3e26295b	0.16226713
205	0xbc40275c	-0.011728134
206	0x3d44ffe1	0.048095588
207	0x3e168da0	0.14702463
208	0x3e0f879b	0.14016573
209	0x3c1a3176	0.0094112065
210	0x3e07656d	0.13222285
211	0x3db5370e	0.088483915
212	0x3e041da0	0.12901926
213	0xbd5b0dc0	-0.05347991
214	0x3c80ff96	0.015746873
215	0x3d29f3c3	0.041492235
216	0x3d7590ae	0.05995243
217	0x3e6189a3	0.2202516
218	0x3d8c72c5	0.06857828
219	0xbe02616a	-0.12732473
220	0xbccad7a4	-0.024761029
221	0xbd48d964	-0.049035445
222	0x3cbc0be7	0.022954894
223	0xbd30eff4	-0.043197587
224	0xbdc9cb7b	-0.09853264
225	0xbb8bae35	-0.0042627105
226	0x3cd80b6d	0.026372636
227	0x3d18a44f	0.037266072
228	0xbe0edd3b	-0.1395158
229	0x3d71fbe8	0.059078127
230	0x3dace08f	0.08441269
231	0xbdab967f	-0.08378314
232	0xbe176b1d	-0.14786954
233	0x3ca40ca4	0.020025559
234	0x3d960f3f	0.07327127
235	0xbcee5cb6	-0.029096942
236	0x3ce254b2	0.027628276
237	0xbd830420	-0.06397271
238	0x3d55944c	0.05214338
239	0xbc94e9d8	-0.018177912
240	0x3d8f9053	0.070099495
241	0x3e100a01	0.14066316
242	0x3d8df40c	0.06931314
243	0xbd159693	-0.036520552
244	0x3d8b3128	0.06796485
245	0x3e2b1d07	0.16710292
246	0x3dd2aff4	0.10287467
247	0x3cfe41b8	0.031037197
248	0x3d9ba8d4	0.07600561
249	0x3d89d3d1	0.06729854
250	0x3dc6fca2	0.09716155
251	0xbe4b2e09	-0.1984178
252	0xbd8aea3e	-0.067829594
253	0xbe038992	-0.12845448
254	0x3dbb30e5	0.09140185
255	0x3d958aa9	0.07301838

lstm2.weight_ih_l0 f4 [256, 64]
0	0x3e65d9fc	0.22446436
1	0xbd33fd38	-0.04394266
2	0xbe046852	-0.1293042
3	0x3d84620f	0.06464016
4	0x3c95cfb1	0.018287512
5	0xbde7a4fa	-0.11310764
6	0xbda230a6	-0.07919435
7	0xbcb2d4ed	-0.021830047
8	0xbc06eee0	-0.008235663
9	0x3c754784	0.014970664
10	0xbd0f23b6	-0.034946166
11	0xbe0c2037	-0.13684164
12	0xbb00841d	-0.0019609996
13	0xbe02ae9a	-0.12761918
14	0x3d464026	0.04840102
15	0xbc90c16d	-0.017670358
16	0x3d3093f2	0.04310984
17	0xbe3029cc	-0.17203444
18	0x3df70df5	0.12063209
19	0x3dd46c80	0.10372257
20	0xbde04ab7	-0.10951751
21	0xbe6ecc34	-0.23320085
22	0x3d225b09	0.0396376
23	0xbc95f7dc	-0.018306665
24	0xbd15b7d0	-0.03655225
25	0xbe9837d7	-0.29730102
26	0x3e116076	0.14196953
27	0x3dc65548	0.09684235
28	0x3c2f895f	0.010713904
29	0x3cfa5c29	0.030561524
30	0xbd430691	-0.047613684
31	0x3dfedd16	0.124445125
32	0xbd1a63b5	-0.037692744
33	0xbd8ec8cf	-0.06971895
34	0x3de97570	0.113993526
35	0xbe1febd8	-0.15617311
36	0x3d639306	0.055560134
37	0x3e1962dd	0.1497912
38	0xbc601976	-0.013677945
39	0x3dc8546d	0.09781728
40	0x3d1c4da0	0.038159966
41	0xbdcbdca8	-0.09954196
42	0x3d853d29	0.06505806
43	0x3d42998a	0.047509708
44	0x3d8b3d94	0.067988545
45	0x3db7af55	0.08968989
46	0x3dc001bf	0.09375333
47	0xbd911678	-0.07084364
48	0xbdad5e72	-0.0846528
49	0x3e0e13da	0.1387476
50	0x3da96be0	0.08272529
51	0x3d122a39	0.035684798
52	0xbd95906a	-0.073029354
53	0x3e5b8cd2	0.21440437
54	0x3d3357cb	0.043784898
55	0x3d8a4347	0.067511134
56	0xbd2bf2f2	-0.041979738
57	0xbc4939fb	-0.01228189
58	0x3dbb8b95	0.091574825
59	0x3ddd3e80	0.108029366
60	0x3d862ff1	0.06552113
61	0xbd8944e4	-0.06702593
62	0xbd0eaa8c	-0.034830615
63	0xbc9493a6	-0.01813681
64	0xbd17e883	-0.037086975
65	0x3db90734	0.09034577
66	0x3e0ee642	0.13955024
67	0xbe31874c	-0.17336768
68	0xbddaa4e7	-0.10675984
69	0xbde5d8cd	-0.11222992
70	0x3b6af719	0.0035852848
71	0xbc8d4aa2	-0.017247502
72	0x3e655d81	0.2239895
73	0xbd716aee	-0.058939867
74	0xbe5bc531	-0.21461941
75	0x3dbe13db	0.09281131
76	0x3dd48be4	0.103782445
77	0x3dc6261a	0.09675236
78	0x3e129caf	0.14317583
79	0xbd0b5f09	-0.03402618
80	0x3d250ef7	0.040297475
81	0xbd9dfb56	-0.07713954
82	0x3dc8f92d	0.098131515
83	0xbe65fdd1	-0.22460105
84	0x3e143dc4	0.14476687
85	0xbe3ddb2c	-0.18540639
86	0xbe488e20	-0.19585466
87	0xbd9836b5	-0.074323095
88	0x3cb4baff	0.022061823
89	0x3dd8fd43	0.10595181
90	0x3d98b288	0.07455927
91	0x3d9da837	0.076981
92	0x3db263fd	0.087104775
93	0x3d9f04ee	0.07764612
94	0xbdef060c	-0.11671075
95	0x3d66f0e4	0.056382075
96	0xbe539210	-0.20661187
97	0xbd789df3	-0.060697507
98	0xbbbe19c9	-0.0058014137
99	0xbe224ecf	-0.15850376
100	0xbd197410	-0.0374642
101	0xbd8f0706	-0.069837615
102	0xbcb525b3	-0.022112703
103	0xbc83a510	-0.016069919
104	0x3e839963	0.25702962
105	0x3e31f574	0.17378789
106	0xbb91ce00	-0.004449606
107	0xbdfe94b3	-0.12430706
108	0x3c2c67cb	0.010522793
109	0xbd2fe866	-0.04294624
110	0xbe811bad	-0.25216427
111	0x3e05887b	0.13040344
112	0x3dade80e	0.084915265
113	0x3d75a8e9	0.05997554
114	0x3e1210a8	0.14264166
115	0x3db92ba2	0.090415254
116	0x3d860101	0.0654316
117	0x3e43dbb6	0.19126782
118	0x3e29d59b	0.1658539
119	0xbe08b21b	-0.13349192
120	0x3b955759	0.004557532
121	0x3e13bd7f	0.14427756
122	0xbd7e03a8	-0.062015206
123	0xbe0a46cf	-0.13503574
124	0x3d0177e2	0.03160847
125	0x3e7f621f	0.24939774
126	0x3d030bf7	0.031993832
127	0x3dbda547	0.0926004
128	0x3c70e0af	0.014702006
129	0xbd1b12cf	-0.037859734
130	0xbd80f38d	-0.062964536
131	0x3b95452c	0.004555365
132	0xbd9faf91	-0.077971585
133	0xbdd235eb	-0.1026419
134	0x3c9ceef6	0.019156914
135	0x3dbb7b83	0.09154417
136	0x3e009b0e	0.12559149
137	0xbd8cec75	-0.06881038
138	0x3dd82f96	0.10555951
139	0x3dca9c12	0.09893049
140	0x3a5f10f0	0.0008509299
141	0x3c137c3d	0.009001789
142	0xbdb86c5d	-0.09005044
143	0xbe31c674	-0.1736086
144	0xbcc36f6c	-0.023856841
145	0x3d1b28d6	0.03788074
146	0x3ac431b0	0.0014968421
147	0xbccc6795	-0.024951736
148	0x3dd77e26	0.10522108
149	0x3a905815	0.0011012579
150	0xbde14266	-0.109989926
151	0xbe1382c8	-0.14405358
152	0x3d43e33b	0.047824126
153	0x3d763c80	0.06011629
154	0xbdea6bd2	-0.11446346
155	0xbd8827ea	-0.06648238
156	0x3d01db6e	0.031703405
157	0xbdc5e71c	-0.09663221
158	0x3dae222f	0.08502614
159	0xbc87cf0d	-0.016578222
160	0x3da712c3	0.081578754
161	0x3cc465a7	0.023974253
162	0xbc499cc8	-0.012305446
163	0x3d044e88	0.032301456
164	0xbd13e981	-0.03611136
165	0x3d39b9f2	0.045343347
166	0xbd0a80af	-0.03381413
167	0x3de81642	0.1133237
168	0xbdcfea2e	-0.10152088
169	0xbdf7daf1	-0.12102307
170	0x3cdb5920	0.026775897
171	0xbd0d4310	-0.034487784
172	0x3d4e7b2d	0.05041044
173	0x3d8b6bae	0.06807648
174	0xbda76029	-0.08172638
175	0x3ca95cf7	0.020674212
176	0xbcd2b34f	-0.025720267
177	0xbd96f8bf	-0.07371663
178	0xbd329c47	-0.04360607
179	0x3e39e91a	0.18155327
180	0xbabff6d8	-0.0014645709
181	0xbe04e39f	-0.12977456
182	0x3d56f74c	0.052481934
183	0xbdcbaf33	-0.09945526
184	0xbd150902	-0.036385544
185	0x3d93fdab	0.07226118
186	0xbd33153a	-0.043721415
187	0xbd9175bd	-0.07102535
188	0x3e2a2096	0.16613993
189	0xbd9e9a70	-0.077443
190	0xbd34e3f3	-0.0441627
191	0x3dd3c4b8	0.103402555
192	0xbc9e2d75	-0.019308785
193	0x3cf927ec	0.030414544
194	0x3d6585b6	0.05603572
195	0xbd27fc54	-0.041012123
196	0xbdb987cf	-0.090591066
197	0xbe12af41	-0.14324667
198	0xbca4aaad	-0.020100916
199	0xbd96f242	-0.07370426
200	0x3e715a1a	0.23569527
201	0xbdb7ac75	-0.089684404
202	0xbd47ea8c	-0.048807666
203	0x3dc11488	0.09427744
204	0x3e0d00c0	0.13769817
205	0x3de55f4a	0.111998156
206	0xbd4d6ee9	-0.0501546
207	0x3d81761e	0.06321357
208	0x3d6cf888	0.057854205
209	0x3d521d05	0.051297206
210	0xbd3d5640	-0.046224833
211	0x3ceb2248	0.02870287
212	0x3dc38100	0.09546089
213	0xbdf232ef	-0.11826121
214	0xbe6019fc	-0.21884912
215	0x3c9ed906	0.019390594
216	0xbe2df380	-0.16987419
217	0x3e269b34	0.16270143
218	0xbcb1c087	-0.02169825
219	0x3c2fea57	0.010737023
220	0xbd90410a	-0.07043655
221	0xbdf23fc0	-0.118285656
222	0x3e09be5c	0.13451523
223	0xbd185a4e	-0.037195496
224	0x3d547419	0.05186853
225	0x3d29bb3f	0.041438337
226	0xbdd05dc9	-0.10174138
227	0xbe773919	-0.24142875
228	0x3df7aeb9	0.120938726
229	0xbdc5e319	-0.09662456
230	0xbe4ab6a8	-0.1979624
231	0xbe4bed46	-0.19914731
232	0x3dee8dbd	0.11648128
233	0x3b8dd648	0.004328523
234	0xbd69d08f	-0.057083663
235	0xbd490c7d	-0.049084175
236	0x3cc73686	0.024317991
237	0xbdbadaeb	-0.091237865
238	0xbe091176	-0.13385567
239	0xbd3ecca3	-0.046581876
240	0x3db892c9	0.09012372
241	0x3da9d5e1	0.08292747
242	0x3e5aa0fd	0.21350475
243	0x3e9293da	0.28628427
244	0xbe10f71f	-0.14156769
245	0xbe5b30e4	-0.21405369
246	0x3d6f222d	0.058382202
247	0xbb7cb8f1	-0.0038562382
248	0x3dca5885	0.09880165
249	0x3e09d1d1	0.13458945
250	0x3dab0409	0.08350379
251	0x3daa25f8	0.08308023
252	0x3d5d34ac	0.05400531
253	0x3dfdd3ec	0.123939365
254	0xbde0d5be	-0.10978268
255	0x3e0123df	0.1261134

lstm2.weight_hh_l0 f4 [256, 64]
0	0x3d28a1f7	0.041170087
1	0xbb8b5633	-0.004252219
2	0xbe1de1f5	-0.15418227
3	0xbca27cb2	-0.01983485
4	0x3e17a6f2	0.14809778
5	0xbdedb1b5	-0.116061606
6	0x3e0f76bc	0.14010137
7	0x3c564d4c	0.013079952
8	0x3d352e08	0.044233352
9	0xbd872d01	-0.06600381
10	0xbdc7e327	-0.09760123
11	0xbd2d09bc	-0.04224561
12	0xbd2db83a	-0.04241202
13	0x3d689efd	0.056792248
14	0x3af28363	0.0018502291
15	0xbd28ba27	-0.041193154
16	0xbc5c9ca1	-0.013465078
17	0x3d230224	0.039796963
18	0xbd2ac02a	-0.04168717
19	0x3de26d0a	0.11055954
20	0xbd520d04	-0.051281944
21	0x3d958ecb	0.07302626
22	0xbe152f6a	-0.14568868
23	0x3dda8851	0.106705315
24	0x3cd69066	0.026191901
25	0x3d5458b5	0.05184241
26	0xbdef0ad7	-0.116719894
27	0x3d1f1a63	0.038843524
28	0x3daa6e81	0.08321858
29	0x3e23f463	0.16011195
30	0x3d868c77	0.0656976
31	0x3d222aaf	0.039591487
32	0x3de0f153	0.10983529
33	0xbd9775a4	-0.07395485
34	0xbe7d598e	-0.24741194
35	0x38bf25d8	9.114639e-05
36	0xbd8260ed	-0.063661434
37	0xbdfbdb4f	-0.12297689
38	0x3c611aca	0.013739297
39	0xbcd8a1c1	-0.026444318
40	0xbe226422	-0.1585851
41	0x3d66f1bd	0.056382883
42	0x3d255bfc	0.040370926
43	0x3cdaa517	0.02669005
44	0x3dc11412	0.09427656
45	0x3e3270da	0.17425862
46	0xbd83d765	-0.064375676
47	0xbd4eeb73	-0.05051751
48	0xbded97c6	-0.11601214
49	0x3d578888	0.05262044
50	0xbe058eba	-0.13042727
51	0xbbe2cdb5	-0.006921495
52	0xbe0bdfeb	-0.13659637
53	0xbdb3a4ee	-0.08771692
54	0xbb234633	-0.0024913668
55	0x3dd55527	0.10416632
56	0x3da04b65	0.0782688
57	0x3da1dd0b	0.07903489
58	0x3e3a12ca	0.1817123
59	0x3e3df209	0.1854936
60	0x3dafcc07	0.08583837
61	0x3e021467	0.12703095
62	0x3c8e329b	0.017358115
63	0x3cc2e5cb	0.023791214
64	0xbd798619	-0.0609189
65	0xbd8f5e35	-0.070003904
66	0xbc5f9387	-0.013646013
67	0xbe10871a	-0.14114037
68	0x3bf4271b	0.007450951
69	0x3cd4fe99	0.026000308
70	0xbe5cd3ab	-0.2156512
71	0xbe499ed1	-0.1968949
72	0x3d874128	0.066042244
73	0x3d77c5a0	0.060491204
74	0xbdf922d9	-0.1216485
75	0xbd8d96b5	-0.06913511
76	0x3de7e742	0.11323406
77	0x3cc1c9b2	0.023655746
78	0xbdba8a08	-0.091083586
79	0xbd998432	-0.074959174
80	0x3de26463	0.110543035
81	0x3bd021b3	0.0063516735
82	0x3e10e465	0.14149626
83	0xbc8b03ba	-0.01696955
84	0x3e33bb2f	0.17551874
85	0xbdb8cb86	-0.09023194
86	0x3e61feaa	0.22069803
87	0xbe6d71fd	-0.23188014
88	0xbe15e8c8	-0.1463958
89	0x3e049977	0.12949167
90	0x3d3a0be1	0.045421485
91	0x3e823857	0.2543361
92	0x3dea9647	0.114544444
93	0xbcf03d16	-0.029326003
94	0x3e39ec3b	0.18156521
95	0x3d0f2d81	0.034955505
96	0x3d593694	0.053030565
97	0xbe3be121	-0.18347599
98	0x3d8d88be	0.06910847
99	0xbd71284a	-0.058876313
100	0xbd892a8b	-0.066975676
101	0xbd21cd83	-0.039502632
102	0x3e3103d6	0.1728662
103	0x3e324ed6	0.17412886
104	0x3e7be243	0.24598031
105	0xbdd486a1	-0.10377241
106	0xbe38eb4b	-0.18058507
107	0x3d23a1fc	0.039949402
108	0xbdb83083	-0.08993628
109	0xbc8c0441	-0.017091872
110	0xbd9320bf	-0.0718398
111	0x3d8d11bc	0.06888148
112	0xbe3cc262	-0.18433526
113	0xbe300af1	-0.17191674
114	0x3d574ad2	0.05256159
115	0x3d0da1fc	0.03457831
116	0x3e25ebd4	0.16203243
117	0xbd603b1b	-0.054743867
118	0x3e023217	0.1271442
119	0xbd26981d	-0.04067241
120	0xbdc74f1f	-0.09731888
121	0x3d438dfe	0.047742836
122	0xbd514580	-0.05109167
123	0xbe2f0423	-0.17091422
124	0x3d2d2d50	0.04227954
125	0x3c8bb9a4	0.017056294
126	0x3d8b9e92	0.06817354
127	0x3d5ab039	0.053390715
128	0x3d0f72e3	0.035021674
129	0x3db5a048	0.08868462
130	0x3d20a0ff	0.039216038
131	0xbdf0157f	-0.1172285
132	0x3da8fe35	0.08251611
133	0x3dae378b	0.08506688
134	0xbdb0d68b	-0.08634671
135	0x3e08d606	0.13362893
136	0x3bcdb7f0	0.0062780306
137	0xbd2c1d75	-0.04202028
138	0xbdabd44c	-0.08390102
139	0xbd6c071d	-0.05762397
140	0xbdc6ff85	-0.09716705
141	0xbccb7b6c	-0.024839126
142	0xbdf5fc94	-0.12011066
143	0x3da3c628	0.0799678
144	0xbd266410	-0.04062277
145	0x3c2c90ef	0.010532602
146	0xbe2e3a05	-0.1701432
147	0x3c0d6c21	0.008631737
148	0xbd2410f2	-0.040055223
149	0xbd951fad	-0.07281432
150	0x3dd5ef12	0.1044599
151	0xbd5834a5	-0.05278458
152	0xbe54c923	-0.20779853
153	0x3df94126	0.12170629
154	0xbd41b330	-0.047290027
155	0xbd5fc64d	-0.054632474
156	0xbdc42a04	-0.09578326
157	0x3db8e671	0.09028328
158	0x3c45bd00	0.012068987
159	0xbc654544	-0.013993565
160	0xbd4e73de	-0.05040347
161	0xbd2e5dd7	-0.04256996
162	0xbdff8c8e	-0.124779806
163	0x3cdb1860	0.026745021
164	0x3d01fb9f	0.031734105
165	0x3da2d0e5	0.0795
166	0xbceee392	-0.029161248
167	0x3b17e930	0.0023179762
168	0xbd459c21	-0.0482446
169	0x3d3aea60	0.045633674
170	0x3da5175c	0.08061096
171	0x3dce877f	0.100844376
172	0x3de20bf8	0.11037439
173	0xbda8268f	-0.082104795
174	0x3e1737c0	0.1476736
175	0xbca4803e	-0.020080682
176	0xbc4d4313	-0.012528199
177	0x3d0c7f35	0.034301
178	0xbc5ef21f	-0.013607531
179	0x3dadeeeb	0.084928356
180	0xbd3d97d5	-0.046287376
181	0xbe0825c4	-0.13295656
182	0x3e22b755	0.15890248
183	0xbbf9cd50	-0.007623352
184	0xbbf27737	-0.0073994654
185	0x3dc46976	0.095904276
186	0xbd020395	-0.031741697
187	0x3c234208	0.009964474
188	0xbdb1faee	-0.08690439
189	0xbda6bfe5	-0.0814207
190	0xbd0d8ecc	-0.03456001
191	0xbd072840	-0.03299737
192	0xbd38410c	-0.04498391
193	0xbdac03ee	-0.08399187
194	0xbd15c65f	-0.036566135
195	0xbd2b308f	-0.041794356
196	0xbe556bb3	-0.20841865
197	0x3cd21a00	0.025647163
198	0x3d7e3f93	0.062072348
199	0xbdb23a20	-0.08702493
200	0xbb2e258d	-0.0026572675
201	0x3dfb427f	0.122685425
202	0x3cd4e275	0.02598689
203	0xbcecc1fb	-0.02890109
204	0xbc8abec9	-0.016936677
205	0xbe293d12	-0.16527203
206	0xbb96bca2	-0.0046001235
207	0x3da26745	0.07929853
208	0x3dd54bc9	0.104148455
209	0xbd70d933	-0.058800887
210	0x3c0eb4e0	0.008710116
211	0xbe903d8a	-0.2817195
212	0x3d963d2b	0.073358856
213	0x3d1bdbed	0.038051534
214	0x3db944a4	0.09046295
215	0x3dad89d8	0.08473557
216	0xbd0408a3	-0.0322348
217	0xbda9cbd6	-0.08290832
218	0x3d75c72e	0.060004406
219	0x3d738784	0.05945541
220	0x3dee5600	0.11637497
221	0xbd9befea	-0.07614119
222	0xbde317a1	-0.11088491
223	0xbd6b4334	-0.057437137
224	0x3da25a7b	0.07927414
225	0x3e5aea34	0.21378404
226	0xbe91ef89	-0.28503063
227	0xbd8fa6cf	-0.07014238
228	0xbda6cd48	-0.08144623
229	0x3ec3995c	0.3820294
230	0x3df54d3a	0.119776204
231	0xbd708471	-0.058720056
232	0x3dd7f450	0.10544646
233	0xbe0a0fd3	-0.13482599
234	0xbd3654a8	-0.04451433
235	0xbd5b60ec	-0.05355923
236	0xbdcc68b0	-0.09980905
237	0xbcff1f3b	-0.031142822
238	0xbe113aa8	-0.14182532
239	0x3dc22d28	0.09481269
240	0xbe5476a6	-0.20748386
241	0xbe0ce9c6	-0.13761052
242	0xbd5c7939	-0.053826544
243	0x3da832d1	0.082128175
244	0x3dfb9e8b	0.12286099
245	0xbbb165af	-0.005413733
246	0xbc9b589a	-0.018963147
247	0x3b284833	0.00256778
248	0xbe4993f7	-0.1968535
249	0xbc941fd1	-0.018081577
250	0xbe82b9bb	-0.25532326
251	0x3d61c0df	0.055115577
252	0xbe10c72b	-0.14138477
253	0xbe3189b5	-0.17337687
254	0x3dc12e15	0.094326176
255	0xbe494d23	-0.19658332

lstm2.bias_ih_l0 f4 [256]
0	0x3d8ded30	0.069300056
1	0x3e29237a	0.1651744
2	0x3dea000f	0.114257924
3	0xbc355177	-0.011066786
4	0x3e8af23d	0.27137938
5	0x3d556f6a	0.052108206
6	0x3e07b4c2	0.13252547
7	0x3cb27c40	0.021787763
8	0xbd3ca2c0	-0.046053648
9	0x3dd154fd	0.10221288
10	0x3e54a855	0.20767339
11	0x3e08a033	0.13342361
12	0x3e46ec63	0.19426112
13	0x3c87e35b	0.016587904
14	0xbd3ea101	-0.046540264
15	0xbd0b3b76	-0.033992253
16	0x3dcb21b8	0.09918541
17	0x3d287835	0.041130263
18	0xbc2c250d	-0.0105068805
19	0xbd35391a	-0.04424391
20	0xbdbf6587	-0.09345537
21	0x3d71d0a4	0.059036866
22	0x3e40e34c	0.18836707
23	0xbdac03c8	-0.08399159
24	0x3d0c3166	0.034226798
25	0x3d9f21c1	0.0777011
26	0x3d53ea10	0.05173689
27	0x3dbd1824	0.0923312
28	0xbb311847	-0.0027022527
29	0x3d5cea98	0.053934664
30	0xbda40de6	-0.080104634
31	0x3c3b75d3	0.011441666
32	0x3e8e2966	0.2776596
33	0x3c5beba9	0.013422885
34	0xbdd448ad	-0.10365424
35	0xbe22d8bd	-0.15902992
36	0xbe46390a	-0.19357696
37	0x3e72abd1	0.23698355
38	0xbd8798bf	-0.06620931
39	0x3e5e8464	0.2173019
40	0x3e313632	0.1730583
41	0xbd40ebbe	-0.04709982
42	0x3d9acc77	0.0755853
43	0x3e0559ff	0.13022612
44	0xbbc7e444	-0.0061002094
45	0xbdf0b011	-0.11752332
46	0xbd0cde6a	-0.034391798
47	0x3d3e6fc4	0.046493307
48	0x3d811948	0.0630365
49	0x3d0a7f7e	0.033812992
50	0xbe359dc0	-0.17735958
51	0x3e436294	0.19080573
52	0x3ce09c0c	0.027418159
53	0x3e397d97	0.18114315
54	0xbda64b48	-0.081198275
55	0xbd0c69f7	-0.034280743
56	0x3e49a5e5	0.1969219
57	0xbc74172b	-0.014898102
58	0xba7130d2	-0.0009200695
59	0x3e2d3565	0.169149
60	0x3cb419dc	0.021984987
61	0x3e3b6503	0.18300252
62	0x3d04d6ef	0.03243154
63	0x3e0a4996	0.13504633
64	0x3d173276	0.036913358
65	0xbcad056a	-0.021120746
66	0x3d598386	0.053103946
67	0x3d87b6df	0.06626677
68	0x3e71a4f9	0.23598088
69	0xbdf50cfd	-0.11965368
70	0xbc67588c	-0.014120232
71	0x3df1cfaa	0.11807187
72	0xbd1007f1	-0.035163824
73	0x3eb9994c	0.3624977
74	0x3e1be9eb	0.15225951
75	0xbd7c114d	-0.061539937
76	0x3e8a28cb	0.26984248
77	0xbc609d46	-0.013709372
78	0xbd86aa0a	-0.06575401
79	0x3de71711	0.112836964
80	0x3d31ca09	0.043405566
81	0xbd358c67	-0.04432335
82	0x3e3a7397	0.18208157
83	0x3e81e4c9	0.25369862
84	0xbe054e3b	-0.13018124
85	0xbdbbab4f	-0.09163534
86	0x3dcc1d3d	0.09966514
87	0x3e0436db	0.1291155
88	0xbceae5c0	-0.028674006
89	0x3e7a0f34	0.24419862
90	0xbdebc3e5	-0.11511973
91	0x3e5c57c3	0.21517853
92	0x3e3dc8fb	0.18533699
93	0x3e16b5d1	0.14717795
94	0xbd8f0e46	-0.06985144
95	0x3dd7cb8e	0.10536872
96	0x3d10fe8c	0.035399005
97	0x3d233a75	0.03985067
98	0x3ca88724	0.020572253
99	0x3e024fdc	0.12725776
100	0x3d1aa992	0.03775937
101	0x3e33c3f4	0.17555219
102	0x3b5cd272	0.003369477
103	0x3d641769	0.05568639
104	0x3e1fc205	0.15601356
105	0x3e3078d9	0.172336
106	0xbd028990	-0.03186947
107	0xbe0da328	-0.1383177
108	0x3d8053e4	0.06266001
109	0x3c9718e7	0.018444492
110	0x3e648b01	0.22318651
111	0x3e103f73	0.14086704
112	0x3def5bc7	0.11687427
113	0x3e772cd0	0.24138188
114	0x3d878ac9	0.06618268
115	0xbe09176b	-0.1338784
116	0xbd3dd470	-0.046345174
117	0x3cbfc6da	0.02341025
118	0xbe043460	-0.12910604
119	0x3e51bed5	0.20482953
120	0x3e8d53dc	0.27603042
121	0xbc1f2329	-0.009712973
122	0x3e91ae14	0.28453124
123	0x3e0265fa	0.12734213
124	0xbeb4c48f	-0.35306212
125	0x3d0613b5	0.032733638
126	0xbd6db865	-0.05803718
127	0x3e8dd3c5	0.2770063
128	0xbd0d8642	-0.034551866
129	0x3d88f86c	0.06688008
130	0xbde95473	-0.113930605
131	0xbc40f618	-0.011777423
132	0x3aeadb6d	0.0017918177
133	0x3ddbc966	0.10731773
134	0x3c823568	0.015894607
135	0x3e089ada	0.13340321
136	0x3ce90525	0.028444836
137	0xbd641282	-0.055681713
138	0xbda86cba	-0.08223863
139	0x3db2ab68	0.087240994
140	0x3db46998	0.08809203
141	0x3c6b0ffe	0.014347075
142	0xbdd56c10	-0.10421002
143	0xbdb1c4fa	-0.086801484
144	0xbd8f61fd	-0.07001112
145	0xbc388228	-0.0112615
146	0xbd8199a3	-0.06328132
147	0xbd51b6a4	-0.05119957
148	0xbcdb500a	-0.026771564
149	0x3d700f88	0.05860856
150	0x3e67a0fe	0.22620007
151	0xbb1c085d	-0.0023808696
152	0x3c92454c	0.017855309
153	0xbe2d0044	-0.16894633
154	0xbd49edf1	-0.049299184
155	0x3e483dd8	0.19554842
156	0xbd65000e	-0.055908255
157	0x3c3596c1	0.011083306
158	0x3e0106fd	0.12600322
159	0x3e04c54e	0.12965891
160	0xbdd8589d	-0.10563777
161	0x3d28d3cc	0.04121761
162	0x3e07ac30	0.13249278
163	0xbda3afdd	-0.07992528
164	0x3d15d5d8	0.03658089
165	0xbdee72b2	-0.1164297
166	0xbe0f1296	-0.13971934
167	0x3e8897a7	0.26678202
168	0x3e0c5531	0.13704373
169	0x3d7da7f2	0.061927743
170	0xbe05b039	-0.13055505
171	0x3d20e3bc	0.039279684
172	0xbe5c852c	-0.21535176
173	0x3e072fd4	0.13201839
174	0x3c318a5e	0.010836212
175	0xbe38d9c9	-0.18051828
176	0xbe19d26d	-0.15021677
177	0xbd3bd6f3	-0.04585929
178	0xbe036ed9	-0.12835254
179	0x3d23bd23	0.039975297
180	0xbe06a03a	-0.13147059
181	0xbdf38f6f	-0.11892592
182	0x3d5bf711	0.053702418
183	0xbe1616cc	-0.14657134
184	0x3d21cbfa	0.039501168
185	0x3c8d28bf	0.017231343
186	0x3c8191d3	0.015816605
187	0xbd012a3d	-0.031534422
188	0xbcddee00	-0.027091026
189	0xbb970aa7	-0.004609424
190	0xbe0db2b1	-0.13837697
191	0xbd66a59f	-0.056310292
192	0x3dbcef28	0.09225303
193	0x3cd2919d	0.0257042
194	0xbc9e47e4	-0.01932139
195	0x3cde86d0	0.027163893
196	0x3db80533	0.08985367
197	0x3e085d6d	0.13316889
198	0x3cbc8ee0	0.023017347
199	0x3d2684be	0.040653937
200	0x3daeab0c	0.08528718
201	0x3e28d750	0.16488385
202	0x3dea4c1f	0.114403
203	0x3d4a47c7	0.04938486
204	0x3e502fe2	0.20330766
205	0xbd1286bd	-0.035773028
206	0x3c28d66e	0.01030503
207	0xbcacdd4a	-0.021101613
208	0x3deff254	0.11716142
209	0x3dace144	0.084414035
210	0x3caa4f0e	0.02078965
211	0x3defd583	0.11710646
212	0x3da8a480	0.08234501
213	0xbc76244c	-0.015023302
214	0x3d4f2023	0.050567757
215	0xbdc65f6f	-0.09686171
216	0x3e570ccb	0.21000974
217	0x3e7b7acb	0.2455856
218	0xbccf15de	-0.025278982
219	0x3e75dfb3	0.24011116
220	0xbd4a78d5	-0.04943164
221	0x3c8b6c9c	0.017019562
222	0x3da6225d	0.08112023
223	0x3c7359d7	0.014852962
224	0x3e9f2593	0.31083354
225	0x3dd1f74b	0.102522455
226	0xbdc84192	-0.097781315
227	0xbd0d481c	-0.034492597
228	0xbd1cb24b	-0.03825597
229	0x3d2a11c8	0.041520864
230	0x3dc7a330	0.097479224
231	0x3e776725	0.2416044
232	0x3e07bbb4	0.13255197
233	0x3e05dc2d	0.13072272
234	0x3e543717	0.2072414
235	0x3e02e73b	0.1278352
236	0x3e317170	0.17328429
237	0x3e09180c	0.1338808
238	0x3ded2116	0.11578576
239	0xbcb648a6	-0.022251438
240	0x3e40e270	0.18836379
241	0x3d6823e1	0.05667484
242	0xbc67fb3a	-0.014159018
243	0x3e768dd3	0.24077539
244	0xbdcc71aa	-0.09982617
245	0x3d055d8a	0.03255991
246	0xbdb66ad0	-0.089070916
247	0x3e641427	0.22273313
248	0x3df81f94	0.12115398
249	0xbd610fe9	-0.054946814
250	0xbc598226	-0.013275659
251	0x3c89179f	0.016734896
252	0x3e01ebd1	0.12687613
253	0x3d34d312	0.044146605
254	0xbdd4b8d8	-0.10386819
255	0xbd40c87a	-0.04706619
