saved_model/DAP_Model_NonRenew.pt (torch, 231074 bytes, 12 tensors)

lstm1.weight_ih_l0 f4 [256, 3]
00000000: ef24 9c3c 287a 9d3d db37 073e c520 67bc
00000010: edfe aa3d ed96 a03d cea3 a63d a06c cd3c
00000020: cb0b d2bd 039b 73bd 5003 823d 02de f6bb
00000030: efdc 923d facc b23d 3719 23be 6dba 543d
00000040: cb28 7fbd f271 99bd b643 dcbd 4cda 0cbd
00000050: 66ae 0dbe 6215 aa3c b6ca 68be 2acc 213e
00000060: 9597 2ebd da09 f73d 1acc debd d09a 1ebf
00000070: 115b 9a3d f846 84be 4061 20be c078 6cbe
00000080: 2fe5 d5bd 86d1 a03d de66 47bd d001 0cbe
00000090: 6481 31bd a7b0 24bd 5dcb 36be 5955 efbd
000000a0: 5c20 973d d18b 82bd 028a d83c 901b c3bc
000000b0: 451e 9c3d 89de 8e3d 667d 263d b54a 1e3e
000000c0: 18b7 4c3c 77e7 2cbe 126e 9f3c d497 36bd
000000d0: 6989 d5bd 592b f33d a4b6 913c 39d2 fe3d
000000e0: a1cd 29bd 5cb4 c23c b58e 6a3d ae0e 8d3d
000000f0: b7e6 aa3d 0f42 e13c 49b2 26bd 5bf1 4e3d
00000100: f248 ed3c c342 42bd 578a 353d fbad 603c
00000110: dfe1 383c 6d1f b53d 6678 873c 888b 3f3e
00000120: ecfe 68bb e5d4 acbd 18da aa3d 9515 233d
00000130: 2de4 a8bd 6b09 b2bc 84b7 b43c 6231 96bd
00000140: bc07 7b3d 6b83 dd3b d538 2abb 5936 20be
00000150: 6bf6 12be 04bc 2abd f372 fe3c e6d5 de3b
00000160: f722 b53d 64cf 7f3c 96c0 88bd 0401 05bd
00000170: cb0e 1a3e 1101 c4bd 0447 13be 7223 a93b
00000180: 5b91 08bd 9333 b43d 4867 8d3c e715 993d
00000190: 3e51 223c af0b 1b3e c042 c6bd 1069 ba3b
000001a0: f512 72bd 5e5f 51bc 26ac cc3c f131 18bd
000001b0: a93b 293e bc81 08bd bb17 823c 310f 3cbd
000001c0: 33af 94be 3c97 913d eecc bf3b 8113 6dbe
000001d0: b701 163e 5250 d2bd 119a fbbc 9584 34be
000001e0: dc37 983d 1c5d 98bd 4fbf c83d d007 9bbc
000001f0: 25bf 0abe 4c70 e63c 573f bb3d 7a77 8abd
00000200: 5da4 8abd dc65 1cbe 5dba 343e 59bf 30be
00000210: 8703 e03d fa48 35bd 3520 9d3d 2cd6 613e
00000220: 9cf6 a1bd dc35 e03c a256 783d 02ec 06bd
00000230: 7784 f53d ab81 8abc 513e 15be 3ba4 953c
00000240: 98a1 90bd 37d3 0d3d fc6b 8f3d c34a 89bd
00000250: 8271 e8bd 829e 4c3e d854 d23d a1f0 9cbd
00000260: f048 953d c407 4e3e 3750 04bc 3964 f5bc
00000270: 0273 09be d061 aebd ae04 fdbd 3fba 9a3d
00000280: e2c3 233e 8847 07be 0152 4dbd 8c73 4dbe
00000290: c9c5 6e3e d0da 113e a485 97bc 6c24 25be
000002a0: 6ead 453d bb46 1f3e e2df 043e 008a 94be
000002b0: d44b e3bd da0e 9dbd 6676 a53d 5a3a 9ebd
000002c0: 723c ea3c bd57 b43d 8d63 d53d 4df5 96bc
000002d0: b133 7b3b 25a6 06be 0f77 8bbd 5cec 223e
000002e0: a11f 83bb 8a05 2fbd 0289 8dbe 474b 91bd
000002f0: cee5 e9bd 2a17 033e 6308 e93c 7769 87bd
00000300: 7f01 f23d e8b7 4a3d 41fd d2bd 8cf1 f43d
00000310: 80ef 843d ffbc 353e dae4 34bd 6fac 0d3e
00000320: 3746 a23d d475 b63d 9324 7fbd 3714 bf3c
00000330: 6ae5 a8bc 534f 5b3e acb0 0ebe fa66 8bbc
00000340: 8ae0 75be e547 a83d 255b 60be 5a25 f13c
00000350: 02bb 92be 06dd adbd decb 7fbd c198 be3d
00000360: d705 103e c5a9 9c3d 4c51 033d 3529 b4be
00000370: f9c4 983d b576 cabd d354 8a3d f04f 2cbe
00000380: 4fa9 e9bd 92de e63d 23e2 0f3e 6a76 3e3e
00000390: 46ac 773c 9fab f03d c21e ebbd 28a6 923d
000003a0: 0b88 afbd fb1e 3d3d eef8 0c3d cfc0 1ebe
000003b0: 0098 9abd ac65 aa3d 4f34 643d 5e98 a0bd
000003c0: 7e57 02bc c010 e8be e4c3 ce3d 96da 88bd
000003d0: c4cd 6cbd 0d4d 7c3e 99fa 7d3d ef7c edbd
000003e0: 201a a43e bf4d 3ebd b340 0bbd b8c2 fa3c
000003f0: 2eec 173d c8fe 893c 4548 c5bd aab3 7c3d
0.01906058 0.07689315 0.13204901 -0.014106934 0.083494045 0.07841287 0.08136712 0.02507621
-0.102561556 -0.059474003 0.06348288 -0.0075337896 0.07171046 0.087305024 -0.15927587 0.051935602
-0.062294763 -0.074924365 -0.10755102 -0.03438787 -0.13836059 0.02076215 -0.22733578 0.15800539
-0.04262503 0.12062426 -0.10878773 -0.61954975 0.07536901 -0.25835395 -0.15662098 -0.23092937
-0.10444104 0.078524634 -0.048682086 -0.13672566 -0.043336287 -0.04020753 -0.17851014 -0.11686201
0.07379219 -0.06374324 0.026432995 -0.023816854 0.07622961 0.06976039 0.040646933 0.15458186
0.012494825 -0.16885172 0.019461665 -0.04457839 -0.104265995 0.11873502 0.017787285 0.124424405
-0.04145587 0.023767643 0.057265002 0.068875656 0.083447866 0.02749732 -0.04069737 0.050523143
0.028965447 -0.04742695 0.044321384 0.013713355 0.011284321 0.088438846 0.016536903 0.1870557
-0.0035552336 -0.08439044 0.08342379 0.039815504 -0.08246646 -0.021733006 0.022060163 -0.07333638
0.061286673 0.006760051 -0.0025973816 -0.15645732 -0.14351813 -0.041683212 0.031060671 0.006800401
0.0884456 0.015613411 -0.06677358 -0.03247167 0.15044706 -0.09570516 -0.14382559 0.005161696
-0.033341747 0.087988995 0.017261162 0.07474881 0.009907065 0.15141176 -0.096807 0.005688794
-0.05910011 -0.012779085 0.02498443 -0.037157003 0.16526665 -0.03332685 0.015880456 -0.045912925
-0.29039916 0.07108924 0.005853287 -0.23151971 0.14649092 -0.10269226 -0.030713113 -0.17628701
0.07432529 -0.07439634 0.09802114 -0.018924624 -0.13549478 0.02812972 0.091429405 -0.067610696
-0.06769631 -0.15273231 0.17649217 -0.17260493 0.10938173 -0.04425905 0.07672159 0.22054356
-0.07908365 0.027369432 0.060629494 -0.03293992 0.11988156 -0.016907534 -0.14574553 0.018266788
-0.070620716 0.03462526 0.07003018 -0.06703713 -0.11349775 0.19982341 0.10270089 -0.07663084
0.07289302 0.2012015 -0.008075765 -0.029955016 -0.13422778 -0.0851475 -0.12354408 0.07555055
0.15992692 -0.13210881 -0.050127033 -0.20063609 0.23317637 0.14243627 -0.018496342 -0.16127175
0.0482611 0.15554325 0.1297603 -0.29011536 -0.110984474 -0.07668848 0.08079223 -0.077259734
0.028593276 0.08805797 0.104193784 -0.018427515 0.003833037 -0.13149317 -0.06809818 0.15910476
-0.004001573 -0.04272989 -0.2764359 -0.07094436 -0.11420785 0.12801805 0.028446382 -0.06611913
0.118166916 0.049491793 -0.103022106 0.11960134 0.064909935 0.17747878 -0.044163562 0.1383531
0.07923549 0.08909193 -0.06229074 0.023325069 -0.020617206 0.21416979 -0.13934582 -0.017016876
-0.24011436 0.08216838 -0.21909769 0.029436756 -0.286583 -0.084894225 -0.062450282 0.09306479
0.14064728 0.076495685 0.032059953 -0.35187688 0.074594446 -0.09885923 0.0675446 -0.16827369
-0.11409246 0.11272921 0.14051108 0.18599859 0.015116757 0.11751484 -0.11480476 0.07160598
-0.0857087 0.046172123 0.034417085 -0.15503238 -0.07548523 0.083201736 0.055713948 -0.07841562
-0.00795543 -0.4532528 0.10095957 -0.06682317 -0.05781342 0.24638768 0.062006567 -0.11596095
0.32051182 -0.046460863 -0.03399725 0.030610427 0.037090473 0.016845122 -0.09632925 0.06169478

lstm1.weight_hh_l0 f4 [256, 64]
00000000: 9a3e 5cbd 41d7 42bb 521e a9bd 6242 3bbe
00000010: efd7 0f3e 9725 743e 57b1 0a3d 3aae 063d
00000020: d1c6 cbbb 7d36 113c 04de 1d3e 1afb 013e
00000030: c0ec 3a3e 421b fd3d 509a b03d e6fa dc3d
00000040: a076 43be 30b9 8f3e a7b2 ee3d f3a2 63be
00000050: 97d6 493e 2f47 27be 0f5b a7bd 6517 0ebe
00000060: d7e7 a7bc 5970 20be 0b22 75bc 17c7 1a3e
00000070: 9483 e7bd 90a6 6b3d 51f6 73bc 4501 0bbe
00000080: dad6 29bd 5f7c 20be dbe1 e33c 8686 94bd
00000090: 076f 66bd 613c d83d e744 4f3e 8f1e 2bbd
000000a0: a26e 9a3d 03c6 5d3d ca3a 88be 9844 1b3d
000000b0: 8897 093e 7695 20be 122a e5bd c1bc 5fbd
000000c0: c1be 05bd 4238 7abe 47c6 fcbd abea 493c
000000d0: 0cf7 443e ab40 063d 66a2 5cbe d48b a7bb
000000e0: 5367 2c3e 4eb9 62bd 7a17 76bd 9b4a 1d3c
000000f0: d852 083d 9e37 bd3d 9bae 783d 9cab 0f3e
00000100: 546a bb3d f399 b2bd c84f 043e b609 ff3d
00000110: 6745 a3bd 0e70 b9bd 245b 3cbe ad1c 3f3c
00000120: bfd7 a6bd 768f 423e 126b 16bd 3119 ca3b
00000130: 1fe4 1abc 3755 cabd 560e 7abd 6171 7a3d
00000140: 0a0f 253e 3812 033e b383 1fbb 2c5d 8bbd
00000150: 0acc ae3d d77c 033e b41f dfbb 675e 38bd
00000160: 1655 cb3d 21e0 a3bd f6cc 15be 25ae 03be
00000170: 2db9 753c badd 323d fe2b ee3c 97fc 78bd
00000180: dade 133d 41fa e93d 58e4 1dbe 4050 64bd
00000190: e8a8 873d c717 a13d be0d 2f3e cc27 62bd
000001a0: b517 18be e029 2ebd 6745 d83d 6615 113e
000001b0: d93c 123c 89d9 65bc d2c1 cdbc 7db1 04b9
000001c0: 7d41 bdbd bc42 983c e57d c2bc 0d3d d5bd
000001d0: b315 3f3e b805 f23b 708c 7e3d 3e90 b43d
000001e0: 1fcf 10bd f436 5b3e c66b 123d 5826 393b
000001f0: 9366 4f3d 5245 1f3e 20ea 743e 2c5d 2cbd
00000200: 14c6 adbd 22c3 0f3e 23a1 9cbd cc8d d5ba
00000210: cb35 e43c ff4f d6bc 5007 95bd 8e84 11be
00000220: ebdb 7ebd eb10 f23d 71de 1bbe db64 243e
00000230: 8621 763d 649f 0d3e 35c7 e13c e460 bdbc
00000240: 41cf 95bc 5798 963d 6495 283d 5589 febd
00000250: 65d6 3d3c 2a3d 89bc 5e24 88bd f2ad dfbd
00000260: 0c62 acbc 4284 0dbe 9995 19be aa93 25bd
00000270: 2189 f73d d2c4 143e 0789 cb3c e6d3 39bd
00000280: 1b07 f0bd 8d0f c73d 322a b2bd b9d7 6a3d
00000290: 39af 2abd e7ad 103e 33b9 fa3d 8e59 59bd
000002a0: 39ef b73d faad e23d f549 ddbb efd0 b83c
000002b0: 46ba 6d3d 202f 0a3c 7dbb a3bd 1d6c acbc
000002c0: 2087 01bc 44ea 87bd d061 de3c 28b0 95bd
000002d0: 886b 62bd a6fd b1bd a58d 99bd ea1f 023d
000002e0: 9eb8 ec3d 625f d83d 2a1a e9bb 8a96 8c3c
000002f0: 6ff5 0fbd 71b2 3d3d c6d5 6e3c 07f1 783d
00000300: c278 7abd 85d4 3d3d bbed f1bd ce09 ca3d
00000310: 42e3 99be 4d30 433e 5bc3 173e d1e3 53be
00000320: 7b28 e1bd ad8c 2ebc 9fa8 f2bd 1ee7 ca3d
00000330: 920c 69bd e27f b23d 63ce 603d 5b9d 123d
00000340: d85d 0cbe 6091 51be fe37 0fbd 60bf fbbd
00000350: 4534 7bbe 1744 0bbd c02c 0cbe 6923 6b3c
00000360: c31b 8bbd 1066 00bd cc2b 08be 5e91 78bd
00000370: 8749 6e3e 8560 acbb fe55 e53c 6c38 853d
00000380: 7817 01be c44d 483e 2e41 2d3e 46eb 06bc
00000390: 68ea 9bbd cc1d b0bb 111d d03d 5c15 98bd
000003a0: 1fa5 0fbd 7cb8 ab3d 96d6 45be bb64 bc3d
000003b0: 330b 063d 79c2 3fbe 95c8 55be dcc9 143d
000003c0: b009 433d 082c babc f660 4ebd d2e7 aebd
000003d0: f93a b4bb 95ab 2cbe 2556 cabd 3862 c23d
000003e0: b2e9 fa3d 7ae0 73bd f671 36be e5c6 2ebd
000003f0: b2b4 103d 76bd 99bd 011a 003e 7a97 c13d
-0.05377064 -0.0029730352 -0.08257736 -0.18287042 0.14047216 0.23842464 0.03386053 0.032881
-0.006218769 0.008863089 0.15416723 0.12693444 0.18254375 0.12358715 0.08623183 0.107900426
-0.1908822 0.28070974 0.11655169 -0.22230129 0.19710766 -0.16335748 -0.08171665 -0.13876112
-0.020496292 -0.15667857 -0.01496173 0.15115009 -0.113043934 0.057531893 -0.014890269 -0.13574703
-0.041464664 -0.15672444 0.027817657 -0.07252221 -0.056258228 0.10558391 0.20241128 -0.04177719
0.07540633 0.054143917 -0.26607352 0.037907213 0.13436711 -0.15682015 -0.11189665 -0.05462337
-0.03265262 -0.24435523 -0.12342506 0.012324016 0.19234866 0.032776516 -0.21546325 -0.0051131044
0.1683629 -0.0553525 -0.060080983 0.009600307 0.03328213 0.09239124 0.06071339 0.14030308
0.0915114 -0.0872077 0.12921059 0.12453024 -0.07972222 -0.09054576 -0.18394142 0.011664552
-0.08146619 0.19000039 -0.036723204 0.006167554 -0.009453802 -0.09879535 -0.061048828 0.061143283
0.16119018 0.12799919 -0.0024339973 -0.068048805 0.08535011 0.12840591 -0.006809199 -0.045011904
0.09928338 -0.080017336 -0.14628968 -0.128594 0.014997763 0.043668486 0.029073711 -0.060787763
0.0361012 0.11424685 -0.15419137 -0.055740595 0.06624013 0.07865863 0.17095086 -0.055213735
-0.14852794 -0.042520404 0.105601124 0.14168319 0.00892564 -0.014028915 -0.025116835 -0.0001265462
-0.092410065 0.018586509 -0.023741672 -0.10412035 0.18660621 0.0073859356 0.06214565 0.088165745
-0.035353776 0.21407682 0.035747312 0.0028251614 0.05063493 0.15553787 0.23917437 -0.042081043
-0.08485046 0.14039281 -0.07647922 -0.0016292869 0.027857682 -0.026161192 -0.072767854 -0.14210722
-0.06222145 0.11819633 -0.15221573 0.16054098 0.060090564 0.13830334 0.02756081 -0.02311749
-0.018287303 0.07353275 0.041158095 -0.12428538 0.01158676 -0.016752798 -0.066475615 -0.10921849
-0.021042846 -0.13819984 -0.14998473 -0.040424027 0.12086702 0.14528206 0.024845613 -0.045368098
-0.11720105 0.09719763 -0.08699454 0.057334635 -0.04167101 0.14128838 0.12242355 -0.05306392
0.08981175 0.1106834 -0.006753201 0.022560565 0.058038972 0.008434087 -0.07994745 -0.021047646
-0.0079057515 -0.066364795 0.02714625 -0.0730899 -0.05527833 -0.08690958 -0.0749772 0.031768717
0.115586504 0.10565068 -0.0071137147 0.017161626 -0.035146173 0.046312753 0.014577335 0.060776737
-0.06115032 0.046345253 -0.118129216 0.09865151 -0.30056196 0.19061394 0.14820616 -0.20692374
-0.10994049 -0.010653657 -0.11848568 0.09907363 -0.056896754 0.08715798 0.054884326 0.035794597
-0.13707674 -0.20465612 -0.034965508 -0.12292361 -0.24531658 -0.034000482 -0.13688946 0.014351704
-0.067924045 -0.031347334 -0.13297957 -0.060685508 0.23270236 -0.0052605295 0.027995106 0.06504902
-0.12606609 0.19560915 0.16919395 -0.0082348045 -0.07613069 -0.005374646 0.10161794 -0.07425949
-0.03506958 0.08384797 -0.1932014 0.091989 0.032725524 -0.18726529 -0.20877297 0.03632532
0.04761666 -0.022726074 -0.050385438 -0.0854031 -0.005500194 -0.16862328 -0.09879712 0.0949139
0.12251605 -0.05954025 -0.1781691 -0.04267015 0.035328574 -0.0750684 0.1250992 0.0945272

lstm1.bias_ih_l0 f4 [256]
00000000: c3f2 ff3d 3ffc 6fbd 3916 23be 48f9 903d
00000010: 6339 b83b 36d3 6ebe e9b7 e3bc 1b5a 0dbd
00000020: 0a12 d1bd 9aa3 e0bd 0367 fe3c b053 dabd
00000030: 43d0 033e 41b1 80be 8d51 a4bc 83d0 ef3c
00000040: 1c5b 2f3e 1844 3dbe 1f31 2a3e 7b9e 84bd
00000050: 101b 053e 2eb8 0ebe 3af7 8d3e 3206 d9bd
00000060: cb38 d43d face bcbd 243a ac3d 151e 0a3d
00000070: 661f ebbc b2d3 4fbb 6971 9f3b d75e 213e
00000080: 3aa6 c5bd cbe7 0a3e a49d 583d a443 823d
00000090: 8b15 82bc 4449 a23c 91bb 89bc 0911 37be
000000a0: 2124 9c3d 5794 14be 3866 e8bc edd7 d6bd
000000b0: 3f7d 993d 1a4d 933c 4441 c6bc bfae b1bc
000000c0: 9607 b83d b561 2fbd 74fd bfbb 3aef a93d
000000d0: 64ce e5bd 9a8b 71bc a254 463d 6e16 02be
000000e0: d8b5 a3bd 92a3 51be 9f9e 8c3e 9a6c 7e3d
000000f0: 0752 bcbd e3ec ae3c 17bc 2dbe 523a 49bd
00000100: 31c2 7a3d 19a4 e3bd 0f11 adbd 1b59 adbd
00000110: 31ec 533d 0b68 2dbd 94a2 18be ac1d b93d
00000120: ccfe b1bd 7590 8b3d 885c fb3d f1ca 623d
00000130: e385 21be 4123 f0bd 0a2b f9bc 4212 18be
00000140: 5e0e 0e3d e73f 923e eb06 af3d 502e 173e
00000150: 8397 18be 22a4 bebd eb3d 303d 83b3 0a3d
00000160: 59da e73c 1518 febd baa1 363e 41d2 633d
00000170: 4ccb a4bd 5f8e 3fbe f78d 823d 590d 1e3e
00000180: f547 60be 4507 0c3e 420d 0d3d e2aa 973d
00000190: 46da a6bc ecf0 4a3e 3636 10be cfa5 14bc
000001a0: 4e5b 433e 90ce f3bd dbee 3f3d c192 debd
000001b0: 9242 bdbd e961 1dbd 781a 813b 161f 2b3d
000001c0: 3224 6b3d b27a b43d 973f 2ebd a86f 943d
000001d0: 3a3a bfbc 9a68 4e3e 45fb c3bb 53d1 c5bc
000001e0: 8bc4 fd3d 74e6 b0bd 8d80 dbbd ed06 05be
000001f0: 4ece 39be 1e87 bbbd 6fed 7b3e 5451 8d3d
00000200: 9bc2 073e a29b 05be 52f2 c43d 58cf 07be
00000210: 3018 f13d 6aed 9b3d 817a 993d fb9f ca3d
00000220: 6ddf fd3d 5093 efbd 6c83 633e 9012 98bd
00000230: 8750 ad3d 2217 55bc 1f03 03bc 9947 24be
00000240: 42f6 43be c71a 273e f46b acbd b973 19be
00000250: 7612 823e 465d 603c 6fb0 413e d12c 443e
00000260: 72fe e43c bbfa a53c fce0 023e 7a5f 6b3e
00000270: 5063 91bd 64f8 4cbe 646b e2bd ee99 5abe
00000280: fb27 13bd ac76 c4bd 6ed1 9dbc 5c0d 203e
00000290: c40f 733d b65c 1c3c 64fc 91bd 7196 08bc
000002a0: 79c5 493c 87da 1aba d3f8 1abb db77 5abe
000002b0: 70be 953d d1c2 243c 2abb e83d 6e49 3f3e
000002c0: dc4f 183e 6171 3dbd a40d b13c e55c 633e
000002d0: 374a 873d 9f47 e23d 9872 503e aeaa 15be
000002e0: e19d 33be 58ca bebd f0e5 6f3e 77c0 633e
000002f0: f4c7 31be 3799 fa3d a434 27bd 7b8a 14bd
00000300: 457c 183d 1f81 34bd fabc ab3d dea1 cd3c
00000310: 8dfb 533d 0ba4 81bb f579 f5bc 4006 013e
00000320: 8d5d 2ebe 378d 7e3d 591a 2abd caf2 8cbb
00000330: 7352 063e 5cd0 08be 4487 97bd 8532 a53d
00000340: 01f9 1d3d f348 0a3d 8e09 dd3c 177b 09bd
00000350: 9476 483e bc0a b73d a15e b53d d2cc ca3d
00000360: 75d1 f3bd 7a1b a3bd 949a f2bb ee77 b93d
00000370: 435a af3b 8bf3 dc3c 7bf6 c9bb 9db2 763e
00000380: 48e6 503d 739e 0d3e 2066 8ebd ee95 93bc
00000390: 758f fdbc 2552 2b3e 9e38 62bd 81e2 66bd
000003a0: 58f8 72bd 3699 c6bc abf2 293e dde1 81bc
000003b0: f1d7 45bd 4020 ec3c 0eb1 80bc 21e4 a33d
000003c0: 5793 423d 0e5c 3dbb 6fe6 d7bc 06d1 bbbd
000003d0: 739c ba3d 8984 96bd 5c48 573d 55aa bb3d
000003e0: 158c 253d 9deb 62bd 02c2 7b3e 2d35 cf3d
000003f0: 068f 333c 8eae 9cbc 2579 053e fea0 923c
0.12497475 -0.05859017 -0.15926446 0.070787966 0.0056220754 -0.23322758 -0.027797656 -0.03450976
-0.10208519 -0.109687045 0.03105498 -0.106604934 0.12872414 -0.25135234 -0.020058418 0.02927423
0.17124599 -0.18483007 0.166203 -0.0647554 0.12998605 -0.13937446 0.2772768 -0.10596885
0.10362395 -0.09219165 0.08409527 0.033720095 -0.028701495 -0.0031711874 0.0048658145 0.15758835
-0.09650846 0.13564985 0.052884713 0.06360558 -0.015879413 0.019810326 -0.016813071 -0.17877592
0.076240785 -0.14509712 -0.028369054 -0.10490403 0.07494592 0.0179811 -0.024201043 -0.02168977
0.08985822 -0.04281779 -0.0058590714 0.08297582 -0.112210065 -0.014742756 0.048420556 -0.12703869
-0.07993668 -0.20472553 0.27464768 0.06211529 -0.09195333 0.02135319 -0.16966282 -0.049127884
0.06122035 -0.111152835 -0.08450519 -0.08464261 0.05173892 -0.04233555 -0.14905769 0.090388626
-0.08691177 0.06814662 0.12273508 0.05536932 -0.1577373 -0.11725474 -0.03041603 -0.14850715
0.03468167 0.2856438 0.085462414 0.1476376 -0.14901547 -0.093086496 0.0430278 0.033862602
0.028302358 -0.12406937 0.17835131 0.055620436 -0.08046588 -0.18706654 0.06374734 0.15434779
-0.2190245 0.13674648 0.03443647 0.0740564 -0.020367753 0.19818467 -0.1408318 -0.009072735
0.19077799 -0.11904633 0.04685865 -0.10867835 -0.09241213 -0.038423453 0.003939923 0.041777693
0.057407565 0.08812465 -0.042541113 0.07247859 -0.023343194 0.2015709 -0.0059808814 -0.024147665
0.12391003 -0.086377054 -0.107178785 -0.12990923 -0.18145105 -0.09156631 0.24602292 0.06900278
0.1325783 -0.1304765 0.096165314 -0.13262689 0.117721915 0.076136425 0.07494069 0.09893795
0.12396131 -0.116980195 0.22218102 -0.074254155 0.08462625 -0.013006004 -0.00799635 -0.16042937
-0.19136909 0.16318808 -0.08419028 -0.14985551 0.2540471 0.013694113 0.1891496 0.19157721
0.02795336 0.02026116 0.12781137 0.2298564 -0.070990205 -0.20016629 -0.110556394 -0.21347782
-0.0359268 -0.09592947 -0.019264903 0.15630096 0.059341207 0.009543588 -0.07128218 -0.008336649
0.012315148 -0.0005907197 -0.0023646846 -0.21334784 0.07311714 0.0100562135 0.11363824 0.18680355
0.14874214 -0.046250705 0.02161295 0.22203405 0.06605952 0.11048817 0.20356214 -0.1461589
-0.17540695 -0.09315938 0.23427558 0.22241388 -0.17361432 0.12236255 -0.040821686 -0.036264878
0.037227888 -0.044068452 0.08385654 0.025101598 0.05175357 -0.003956323 -0.02996538 0.1260004
-0.17027874 0.06214639 -0.041529033 -0.0043014036 0.1311739 -0.13360733 -0.07398847 0.080662765
0.038567547 0.033760976 0.026982095 -0.033564653 0.19576484 0.08937594 0.0885594 0.099023476
-0.11905185 -0.07964225 -0.007403681 0.09056078 0.005351336 0.0269716 -0.006163416 0.24091573
0.051000863 0.13829975 -0.069530725 -0.018015828 -0.030952195 0.16730554 -0.055229776 -0.056368355
-0.05931887 -0.024242979 0.16596477 -0.01585477 -0.04830164 0.028823972 -0.015709426 0.080024965
0.047503795 -0.002889398 -0.026354996 -0.091707274 0.091118716 -0.07349498 0.05255924 0.09163348
0.040416796 -0.05540048 0.24585727 0.10117564 0.010959392 -0.019126203 0.13034494 0.017899033

lstm1.bias_hh_l0 f4 [256]
00000000: 1998 113e b77e 96bd 3141 aebd 0584 06bd
00000010: 32ee d0bd 14db 79be 674a 45be 28dd d1bd
00000020: d183 15bd 5afa 293b d862 de3c fe9c c7bd
00000030: fcc8 4d3c 3e4f 4ebe 8eee 7cbd ffc7 84bd
00000040: 2576 92bc ab01 87bd 870d 823d 2639 923d
00000050: 1c7b 803e 72a0 9ebd eaec 273e c9f9 92bd
00000060: bd60 bebc 2dfb 39be 0887 043b 1787 143e
00000070: f285 04bb ba98 f13d ce95 173e 8f1a f03c
00000080: 450e a4bd 5a47 c53c f838 2c3d 243d 913d
00000090: 6e99 33bc cb4d d03d f665 39be 7d1a 05be
000000a0: 4dc2 0a3e 8c29 00be 8643 33bc 54bd 643d
000000b0: 4358 d7bc 0756 aa3b 3705 c03d 097b 02bd
000000c0: 26e2 56ba 35aa 273c 4ea6 9b3c f579 59bc
000000d0: 83d9 a7bd a59c 4fbc 2da2 a23d 678a 8dbd
000000e0: 5e6a 29bb 281f 05be 0926 833e b0f1 c23c
000000f0: d16d 713c a704 e8bd 1b53 01be 0631 49bd
00000100: a4c8 4a3c 833c bc3c ad7b 6d3c 4eea e43d
00000110: 70bc c3bd f91e bcbd 6e2b 9cbd 4b86 683b
00000120: 74ee 05be 97bb 943d 0bc2 063e d2b6 02be
00000130: 1a9a ddbd 33b4 4abe 72b1 d1bd 8667 debd
00000140: 4c40 ba3d fcfd e43d 5663 533e daa8 ae3d
00000150: d705 b93c ff66 9abd 6d4d 613c a6db 563d
00000160: b282 003e 5c98 81bd ecb1 453e c5e2 90bd
00000170: c489 b03d 2245 f8bd c2ef 843d 3077 763d
00000180: a753 c4bd 4943 ef3c 55dd dbbc 73d0 613e
00000190: af06 4dbd f631 873e 52fd 963d 2151 32bd
000001a0: 4212 983d 091b 043a 2dc9 843b 7395 c4bc
000001b0: 1e9e 67be 51b5 ee3d 4443 3bbe e25c 44bd
000001c0: aa2a 3c3c 7f8c c0bd d7b9 df3d 55b9 d9bb
000001d0: 0003 4bbc 5611 ce3d 1a15 9cbd 4bcb 4cbd
000001e0: 9880 433e 9c22 59bd 3268 2ebe 93ad 153d
000001f0: 6527 86bc b759 ffbd 1ae9 2a3e 66b0 4f3d
00000200: 0c08 873e 9fd6 7bbd 7728 c53d 8e8b 07be
00000210: 5b8c 303e 9d87 943c 9bb7 c53a 67c1 de3d
00000220: ddab 173e 1488 1dbe 0e7a 573e 96c1 5cbd
00000230: 3134 093e ade2 a2bd 92ab eb3d 9748 60bd
00000240: 0242 e8bd ecf6 24bd 4bee 713c fe47 97bd
00000250: 57b0 213e a114 093e c71c 2b3e d282 c23d
00000260: 0f07 1e3e 9998 26bc 1799 3e3e a92c 403e
00000270: 20fa 36be 868b c8bc 09ca 57be 5e9f 48bc
00000280: 9780 883d 8d75 85be 0ede 2ebe e3ad 603d
00000290: 778f 98bc 3a0d babd 1cda 08bd e4ed a63d
000002a0: 025a d0bc e719 3bbe b7c1 d93d 64fe 47be
000002b0: a985 18bd 8c25 023e e5ed 563e 515f 933c
000002c0: a724 363e 988c f5bd 7ea0 883d 61c5 4e3d
000002d0: 7954 4c3d d76b 363e f708 bb3d f3b2 33bd
000002e0: 55cc 1fbe 5f37 99bb bcea 7a3e c2f5 1a3e
000002f0: f350 2cbd 45e0 5f3c 4a7f 63bd cc96 29bc
00000300: 5c36 643d da7c 8fbd 6f35 1dbc 9d2e f63b
00000310: 4eca c3bd 021e 9abd 84fd 9ebd 3613 e73c
00000320: 6a33 123d 133b db3c 9721 633d 55f7 b3bc
00000330: 4662 a3bd 715a 0fbd c0f7 d63d 27ee f7b9
00000340: 82a7 9a3c 3a4c 45bc 076f cf3d 1966 9b3d
00000350: dc08 d33d 8ddf e83d a5ed 963e 1698 bf3d
00000360: 9a31 0dbe 1684 98bc 98c8 30bd 03bb b1bc
00000370: b8fe d3bd 67fc 80bd 9332 5a3d 89be 6e3d
00000380: bdd5 013c f732 273d 74e8 d4bd a04f a1bd
00000390: f3b8 c03b 4988 133c e1ea afbd 1255 053c
000003a0: 889b 1f3e 4be2 743d 98e7 47bd 76fd 053d
000003b0: 1578 bd3c 3e29 6d3d 7e30 f13d ac0d 3a3e
000003c0: 9169 033d 6ee8 8b3d 819d 8e3c 6fef b7bd
000003d0: 02cb e63d a612 d6bd 6489 d93d 6987 92bd
000003e0: 6edc cb3d 06fa 1dbe 1204 8c3e 8655 303e
000003f0: cc1c c6bd 678c 1fbe c855 d2bd d339 16bd
0.14218177 -0.07348388 -0.08508528 -0.032840747 -0.10201682 -0.24399978 -0.19266663 -0.1024726
-0.036502663 0.0025936575 0.027146742 -0.09746741 0.012560125 -0.20147416 -0.06175094 -0.06483459
-0.017878601 -0.06592115 0.063502364 0.071398064 0.25093925 -0.07745446 0.1639897 -0.07176549
-0.023239488 -0.18162222 0.0020222086 0.14504658 -0.002022144 0.117967084 0.1480324 0.02930954
-0.08010534 0.024081875 0.042046517 0.0709174 -0.010961873 0.10171088 -0.18105301 -0.12998386
0.13550682 -0.12515849 -0.010941392 0.05584462 -0.026287204 0.0051982435 0.09375995 -0.031855617
-0.0008197151 0.010233452 0.019000199 -0.013273706 -0.08195784 -0.012671624 0.07941089 -0.06911164
-0.0025850753 -0.13000166 0.25614956 0.023796886 0.014735655 -0.11329012 -0.12629358 -0.049119018
0.012376938 0.022978073 0.014494819 0.111775026 -0.09557426 -0.09185595 -0.07625471 0.0035480435
-0.13079244 0.072623424 0.13159959 -0.12765053 -0.10820408 -0.19795303 -0.10238923 -0.10859589
0.09094295 0.11181256 0.20643362 0.085283 0.022585792 -0.07539176 0.01375137 0.052455567
0.12549856 -0.06327888 0.19306153 -0.07074503 0.08620027 -0.12122561 0.06491043 0.06017226
-0.09586268 0.029206889 -0.026838938 0.22052173 -0.050055202 0.26405305 0.07372536 -0.0435344
0.074253574 0.0005039429 0.0040523023 -0.023997044 -0.2261891 0.11655677 -0.18287379 -0.047940142
0.011484781 -0.094017975 0.10924118 -0.0066444078 -0.012390852 0.100619 -0.07621212 -0.049998563
0.19092023 -0.05301152 -0.17031935 0.036542486 -0.016376207 -0.124682836 0.16690484 0.050705336
0.26373327 -0.061483975 0.09626859 -0.1323683 0.17241041 0.018131072 0.0015084626 0.10876732
0.14811654 -0.15383941 0.21042654 -0.053895555 0.13398816 -0.07953391 0.11507334 -0.054756727
-0.11340715 -0.040274546 0.014766286 -0.07386778 0.15789925 0.13386776 0.16710196 0.09497608
0.1543238 -0.010168218 0.18613087 0.18767036 -0.17868853 -0.024480592 -0.21073164 -0.012245027
0.066651516 -0.26066247 -0.17076895 0.05485333 -0.018623097 -0.09084554 -0.03341113 0.08150843
-0.025433544 -0.182716 0.10632651 -0.19530636 -0.037236843 0.12709635 0.20989187 0.017989786
0.1778742 -0.11989707 0.066712365 0.050481204 0.049885247 0.17814575 0.09132569 -0.04387183
-0.1560529 -0.00467579 0.24503607 0.15132812 -0.042069387 0.01366431 -0.055541314 -0.010350894
0.055715904 -0.070062354 -0.009595259 0.007512881 -0.09560071 -0.07525255 -0.07763198 0.028207403
0.035693564 0.026761567 0.055451956 -0.021968523 -0.079777285 -0.03499836 0.10496473 -0.0004728895
0.018878702 -0.0120421 0.10128599 0.07587833 0.10304424 0.11370764 0.29478183 0.0935518
-0.13788453 -0.018617671 -0.04316005 -0.02169562 -0.10351318 -0.06298142 0.053270888 0.058287177
0.007924494 0.04082009 -0.103958994 -0.078765154 0.0058814227 0.009004661 -0.085897215 0.008137958
0.15586674 0.059786122 -0.04880485 0.032712422 0.023128549 0.05790066 0.11776827 0.18169278
0.032083098 0.06831442 0.017409088 -0.08981215 0.112691894 -0.10452776 0.10621908 -0.07154734
0.09954153 -0.15427408 0.27346855 0.17220125 -0.09673461 -0.15580903 -0.10270268 -0.03667624

lstm2.weight_ih_l0 f4 [256, 64]
00000000: 93b6 963d f709 d5bd 1e03 aabc bf4e cebd
00000010: 8397 273e ee7c 7ebd 4158 633e ab93 5abc
00000020: b668 9abc 78f8 45be 6f85 81bc 63af 5f3d
00000030: 6d19 8b3e a716 793d 17a3 27bd 6d56 a9bd
00000040: 60c3 b7bc a54a 8c3d 4863 f43a 7305 cd3c
00000050: c48b 753e 41fc 1b3e 761d 6e3d 4c88 a53c
00000060: e1a5 cf3c e963 1d3d d5c9 f53d a938 d23d
00000070: ec2f ebbc 2501 98bd 28e8 e83d 1fe0 e6bd
00000080: d14b 003e 59d2 40be 91f8 87bd 39d7 4839
00000090: 7ac8 94bc 4676 9dbd fce7 89bd 8823 08be
000000a0: cb0a a73c a933 63bd 187a c4bc e365 803d
000000b0: 13c1 c93d b381 2d3d 4ab1 0e3d 99f3 273e
000000c0: 438c 00bd ba85 b63d 8732 003e 13d3 103d
000000d0: 22cb 9a3c 93ae 9a3d ad5f 1dbe e4af d5bd
000000e0: 9a2f febd 2567 f4bd f5c7 74bd 15e5 483e
000000f0: a886 213d c5f2 a7bc 73c8 cdbc 80b4 303d
00000100: 88bd b5bc 1cc2 943d 264c 333d 4df6 49be
00000110: 09ed 20be 3b75 c63d 0102 76be a4e7 163e
00000120: 6fa7 0dbe d37c 933c c153 a73e d6b4 743e
00000130: c827 3c3d 5285 c63c 1867 2abd 7fe2 8e3d
00000140: 086e 8fbe a98b 5c3e 5f6d 263e 8160 debd
00000150: 10fd f53c 6397 4ebe 6351 22bd 56f5 37be
00000160: 69ad 29be 2c00 66bd 211c 43bd 596d e03d
00000170: bd43 9e3e 91c5 533e 7046 e9bd 8895 8dbc
00000180: 7d5b ffbd 84bd 773d 9272 8f3d 4457 5a3d
00000190: 9c44 c2bc a39f a03d e770 863e 7434 c13c
000001a0: c7a3 b23c 35da c33b 715f 59be 324c a83c
000001b0: 5912 6a3e e1de 9d3d a913 12be f36f d6bc
000001c0: 1a50 ba3c c390 9ebe ece5 46be a633 21be
000001d0: 8324 85be b06a 993d dc15 79bd eebf 0d3e
000001e0: 4172 613d 9652 1cbe 9dd9 68bc 6294 0f3e
000001f0: e322 c43d 0305 c9bc 1099 c93b 7b04 073e
00000200: abbb bd3c 4f1d 40bd 9790 17be 9943 58bd
00000210: 2bf2 a0bd 699f 933c c4e8 d23d 8d70 03bd
00000220: d0b5 7bbc d796 e93d 5417 18bd cb0e c63c
00000230: d77c c9bd b1ae fe3d dc7f a0bd 1a1e 373e
00000240: 6c8d d7bd 6cba 47bd ab0b 833e e6e3 0abe
00000250: 8645 17be 7bf5 3bbe bf9f 1cbd 66da 8abe
00000260: 2e58 2ebe b00d 213d 85c5 4bbe 9836 7ebc
00000270: 49a1 24bd c67d 0e3d ab75 c4bd 7185 023e
00000280: 37ca e43c 33f6 4f3d 9568 983d 6950 b13d
00000290: d370 b8bd 9ec9 58bd 2a25 7b3c 171d af3d
000002a0: 42b0 433e 043a 863e 2812 9bbd e54b 613d
000002b0: f19e 193e 19e3 15be b754 05bd 76ca 2cbc
000002c0: de98 2dbe 76c2 87be ae24 6ebe 1068 b1bd
000002d0: f981 9fbe f6d7 973d 1a36 8e3c 0e4c c8bb
000002e0: 6e72 643e a1f5 0fbe 38e7 12be 90b3 38bd
000002f0: 3c90 093e 5e6a b9bd e182 013d 9c44 003e
00000300: 7496 8dbd 0bf3 0c3d 8ae3 4fbc dd48 43bd
00000310: 6081 f2bc 26df d3bd 64a1 3a3e 4ec1 01be
00000320: 2cf2 763d b1f3 0a3e e97e 4c3c 4ca6 11be
00000330: f061 1f3e f859 0dbe 0747 0a3d ef00 5c3c
00000340: 416b 93bc 56dc eabd 75b3 d33d a666 d9bd
00000350: ff87 9dbd 4542 18bd 107e ecbd 355f 3ebd
00000360: b478 bb3d ee35 89bd 5d2a f73c 79ae f3bd
00000370: b728 a63d e6c3 c63d d158 1dbe 6d3e 133d
00000380: 5762 f2bc b633 0b3d 39eb 093c fb4d 233d
00000390: cdd8 e63c 6d30 2ebd 7258 95bc edab e0bd
000003a0: 0e3f 8dbd e8d0 6abb a29b 02bc fc29 8bbd
000003b0: 0c5a 54bd 8763 193e 5f91 00be c38d ed3d
000003c0: 8323 e13c fc71 1fbe 1860 1a3d 1cd8 7bbc
000003d0: 0dcd 48bd 8c42 5abd dc58 4d3c a5fd 0fbe
000003e0: 0291 023e 7540 2abe 86d7 aa3a 0a04 02be
000003f0: 69a4 cabd dca6 e4bd 40ac 4e3e 6bf1 d7bc
0.07359042 -0.10402291 -0.02075344 -0.100736134 0.16366391 -0.06213086 0.22201635 -0.013340871
-0.018848758 -0.19333065 -0.015810696 0.05461062 0.27167836 0.06081262 -0.04092702 -0.082684375
-0.02243203 0.06850175 0.0018645311 0.025027012 0.23979098 0.15232946 0.058133565 0.020206593
0.025347652 0.03842536 0.12001387 0.10264713 -0.028709374 -0.07422093 0.11372405 -0.112732165
0.12528922 -0.18830241 -0.06639207 0.00019153663 -0.018162 -0.076885745 -0.06733701 -0.13294804
0.020390889 -0.05546919 -0.023984 0.06269433 0.09851279 0.04236002 0.034837045 0.16401519
-0.031383764 0.08912225 0.12519275 0.035357546 0.01889569 0.07552829 -0.15368529 -0.10433939
-0.12411423 -0.11933736 -0.059761006 0.19618638 0.03943506 -0.020501504 -0.025119996 0.04314089
-0.022185102 0.07263586 0.043773793 -0.19722863 -0.15715422 0.09690329 -0.24024202 0.14736801
-0.13833402 0.018003857 0.32681087 0.23897108 0.045936376 0.024233494 -0.041602224 0.069767945
-0.28013635 0.21537651 0.1625266 -0.108582504 0.030027896 -0.20174937 -0.039628398 -0.17964682
-0.16570057 -0.056152508 -0.047634248 0.109583564 0.30911055 0.20680834 -0.11390388 -0.017283216
-0.12468622 0.06048347 0.070042744 0.05330588 -0.023714356 0.07842948 0.26258013 0.023584582
0.02180661 0.00597694 -0.21227814 0.020544145 0.22858562 0.077085264 -0.14265312 -0.026176428
0.022743274 -0.3096982 -0.19423646 -0.15742359 -0.2600442 0.07491052 -0.060811862 0.13842747
0.0550406 -0.15265879 -0.014212039 0.14021447 0.095769666 -0.024538523 0.0061522797 0.13185303
0.023160776 -0.04690295 -0.1480125 -0.05279884 -0.0785869 0.018020349 0.10298303 -0.03208976
-0.015363172 0.114057235 -0.037131622 0.024176976 -0.098382644 0.124356635 -0.07836887 0.17882577
-0.10525021 -0.04876177 0.2559484 -0.13563499 -0.14772615 -0.18355362 -0.038238283 -0.2711975
-0.17025825 0.039319694 -0.19899566 -0.015515946 -0.040192876 0.034787916 -0.09592756 0.12746216
0.027928455 0.050771903 0.074418224 0.08657915 -0.090058945 -0.052926652 0.015328685 0.0855047
0.19110206 0.26216137 -0.075718224 0.05500402 0.15002038 -0.14637412 -0.032551493 -0.010546317
-0.16952845 -0.2651555 -0.2325618 -0.086624265 -0.3115385 0.07414238 0.017359782 -0.006112582
0.22309276 -0.14058544 -0.14346015 -0.04509312 0.13433927 -0.09053491 0.031618956 0.12526172
-0.06913462 0.03441147 -0.012688527 -0.04767691 -0.029602706 -0.103452966 0.18225628 -0.12671396
0.060289547 0.13569523 0.01248143 -0.14223593 0.15564704 -0.13803852 0.033759143 0.013427957
-0.017995479 -0.11467807 0.10336963 -0.10615282 -0.07691955 -0.037172575 -0.11547482 -0.046477515
0.09153882 -0.066997394 0.030171568 -0.118985124 0.081132345 0.097053334 -0.15365912 0.035948206
-0.029587908 0.033984862 0.008417898 0.03986929 0.02817955 -0.04252665 -0.01823065 -0.10970292
-0.06896792 -0.0035830084 -0.007971676 -0.06795117 -0.051843688 0.14979373 -0.12555455 0.115993045
0.027482754 -0.15570825 0.0376893 -0.015371349 -0.049023677 -0.05328612 0.012533393 -0.14061601
0.12750629 -0.16626151 0.0013034202 -0.12696853 -0.0989464 -0.111646384 0.20182896 -0.026360234

lstm2.weight_hh_l0 f4 [256, 64]
00000000: 9c89 bc3c 5926 b23d 6c8a 993c 41a5 a0bd
00000010: 0325 643d 4f1b 86bc bb2d dd3d 6c9d 3e3c
00000020: e8a6 323d 6c05 723d 4928 8e3c 0944 e03b
00000030: af85 cabd 5d17 05bd dc25 0d3c 2382 083d
00000040: b253 3dbd 0645 adbd 2709 27be e26a c13c
00000050: d633 fdbd e840 f83d cefc a8bd 8e33 9bbb
00000060: 2243 1a3d 3d30 3ebe c86a c9bd 551d 8c3d
00000070: 5fe4 9e3d e7fe 82bd 2dd0 4dbd 2284 a13d
00000080: 4bbf a7bc 6ff4 7a3d b51b 9cbc 5e07 dfbb
00000090: baa1 df3d fce7 5cbc 6c7b 76bc 70ec 07be
000000a0: af33 833d a52c 04bd 94c5 09bd 67f8 dcbd
000000b0: 64b5 47bd af86 973d 3cc4 61bc 1753 7dbd
000000c0: b8c3 8f3d 28c7 15bd eb56 0ebe f23f 0f3e
000000d0: 0a47 183d ce39 373e 34ef 51bd 8e82 3c3e
000000e0: 01b0 0c3d fcf2 a1bd 4cee 723d 82f3 243e
000000f0: b237 603c 174f 96bc 0b62 b83d f9f2 453d
00000100: c228 87be 351d 2fbe 9b40 273e b8de 99be
00000110: 948b 40be 1519 08be af28 15be 5ca5 1cbe
00000120: b125 063e fdd4 26bd 6ead a5bc 2c75 09be
00000130: 041b ac3d cc91 c1bc b7d7 e03d 873f 6d3d
00000140: 9341 b73c 634c 4fbe 0e3b 6cbd c272 c83d
00000150: 0f58 65bc 9dd9 71bc b250 043e 4c88 123e
00000160: 70ba 8b3d c1d0 aa3b ac1b 67bd aeba 05bd
00000170: 9f4a 0f3e a9b6 d03c 6e9f fa3d be31 213e
00000180: 65a8 0fbd ef3c 52bd 2f3b 7a3d 0a89 753a
00000190: e3af 76bb 566d 04be f058 ac3d 3859 9fbd
000001a0: 9c1c 6f3c 63e4 403d f7e2 7cbd 426c 5ebe
000001b0: ebd4 a7bd 4012 07bd 1449 62be 673c 023e
000001c0: 8475 70bd 4385 cebd f084 bfbd 3bf2 1ebe
000001d0: 8708 d9bd e71b 41bd 59ef a63d a443 05be
000001e0: 9a53 0ebe 3aef 9a3d 1ead abbc 5fe0 243d
000001f0: 5319 ff3c 56c8 9f3d b694 16be f830 96bd
00000200: 5eb7 b5bd 0a3a c4bd 6fb1 4abc 6c17 60bd
00000210: 0249 593b 6ad2 72bc edd8 abbd f548 1abd
00000220: 027e cabc c4ac 4ebd 0e03 6d3d 9c71 043e
00000230: 34a9 753d 5fc8 e73d d6ca c73b d6da e93d
00000240: 62a9 b53d 0097 343b 8237 5e3c b35e 38bc
00000250: ad5d 353d 3474 95bd d0cc 153d d397 833d
00000260: 3150 b4bd db95 063e 8884 733d 9a1b 01bc
00000270: 75eb 043d f745 333c 88a3 003e 1219 313e
00000280: 6efe fbbc de04 69bd 764f bdbd c441 393d
00000290: 930e a73a 4f25 42bd 4d6a 5abd 39e9 073d
000002a0: 07d8 04bd 11f5 a3bd ea67 793c 6a77 5abd
000002b0: 04e6 9d3d efdd c93d f0ea a03d af7c 9ebd
000002c0: 64a9 14be f1f2 133e a78c 12be f390 cabd
000002d0: 388d 43bd a0b3 1b3d fb3e 23be ee2b 883d
000002e0: 569e 29be b4c2 bcbd ca3e 61bb d7f6 04be
000002f0: cc96 35be 6e12 213e 035e 6c3d dcee 993c
00000300: f149 7e3c 6d16 ec3d 8d16 093e 875c 50be
00000310: 60e5 0c3e 87c2 8d3d 2a38 e7bd f109 a53d
00000320: 47f4 ad3c 224f 40bc 616b 7b3d 1438 1ebe
00000330: 6fea b93d d786 433e 55fe 793d 8742 623e
00000340: aed4 563e 1b61 1a3d 7ad5 823e 5215 2a3e
00000350: 0643 5f3c bb0f 48bd 14bf 073e fd1c a43d
00000360: 1d57 083e 14f6 1ebe 3b81 e9bd 043e 103e
00000370: 0a65 50bd 0540 613d f376 1e3e 5ed5 bcbd
00000380: 5d62 f6bd 247b 0bbe bd38 00be 46f3 d1bc
00000390: 3b13 2a3d 7426 36be 273a 12be 6362 60bd
000003a0: ffa9 093e 7de0 e4ba 34b5 233e 7db5 30be
000003b0: 184f 9cbd 0ca9 70bd 3b58 86bd 3113 1b3d
000003c0: 003e 0cbd 4a1d 5bbd 093a f2bc 3cd4 063d
000003d0: abf9 a1bd 3344 87bc 0cf9 ab3c c6f3 f43c
000003e0: 594e 883c 6fe7 2c3e a665 683d 478b 383d
000003f0: fa54 783d df85 5f3d 916f 9bbd 6df0 a1bd
0.023014836 0.086987205 0.018742763 -0.0784402 0.05569936 -0.016370444 0.10799738 0.011634212
0.043616205 0.059087202 0.017353194 0.006844048 -0.09888779 -0.032492984 0.008614983 0.033327233
-0.046222396 -0.08460431 -0.16312085 0.023610536 -0.123634025 0.12121755 -0.08251344 -0.0047363704
0.03766168 -0.18573089 -0.0983482 0.06841532 0.07758402 -0.06396275 -0.05024736 0.078865305
-0.020476958 0.061268266 -0.01905618 -0.006806298 0.10919519 -0.013483044 -0.0150440745 -0.13273787
0.06406342 -0.03226914 -0.03363569 -0.107895665 -0.048756972 0.07398736 -0.013779696 -0.06184682
0.07019752 -0.036566883 -0.13900344 0.13989237 0.037177123 0.17893144 -0.051253513 0.18409178
0.034347538 -0.07907674 0.05930929 0.16108516 0.013685154 -0.01834826 0.09003075 0.04832742
-0.26398283 -0.17100985 0.16333239 -0.30052733 -0.18803245 -0.13290818 -0.14566301 -0.15297455
0.13100316 -0.040730465 -0.0202243 -0.13423604 0.0840359 -0.023629092 0.10978644 0.057921913
0.022370135 -0.20243983 -0.057673506 0.09787513 -0.013998046 -0.014761356 0.12921408 0.14309806
0.068226695 0.0052128737 -0.056422874 -0.032648735 0.1399331 0.025477724 0.1223744 0.15741631
-0.035072703 -0.051327642 0.061091598 0.0009366429 -0.0037641458 -0.12932333 0.08415401 -0.07780689
0.014594223 0.047092807 -0.061739888 -0.21720985 -0.08194908 -0.03297639 -0.2209819 0.12718354
-0.05870582 -0.100840114 -0.09351528 -0.15522091 -0.105973296 -0.04714575 0.08151121 -0.13014084
-0.13899079 0.0756516 -0.020956572 0.04025304 0.031140005 0.07801883 -0.14705166 -0.07333559
-0.08872865 -0.095813826 -0.012371405 -0.054709837 0.0033155088 -0.014820674 -0.08390985 -0.037667233
-0.024718288 -0.05045773 0.05786424 0.12933964 0.059975818 0.11317515 0.006097178 0.11418693
0.08870198 0.0027555823 0.013563039 -0.011253047 0.04427879 -0.072975546 0.036572278 0.064254425
-0.08804358 0.13143103 0.059452564 -0.007880116 0.03245111 0.010941974 0.12562382 0.1729472
-0.03076097 -0.056889407 -0.092436716 0.045228735 0.0012745432 -0.04739886 -0.053324033 0.033181403
-0.032432582 -0.08005727 0.015222529 -0.05333654 0.077098876 0.098567836 0.07857311 -0.07738625
-0.14517742 0.14448144 -0.14311467 -0.09890928 -0.0477421 0.0380131 -0.15941994 0.06649004
-0.16564307 -0.09216824 -0.00343697 -0.12984787 -0.17733306 0.15729687 0.057706844 0.018790655
0.015520559 0.11527715 0.13387509 -0.20347796 0.13759375 0.06921869 -0.11290009 0.08058537
0.021234645 -0.011737617 0.0613817 -0.1545108 0.09077918 0.19094406 0.061033566 0.2209569
0.20979568 0.037690263 0.25553495 0.16609696 0.0136268195 -0.048843127 0.13256484 0.080133416
0.13314481 -0.15523559 -0.11401602 0.14086157 -0.05087761 0.054992694 0.15475063 -0.09220384
-0.1203048 -0.13621193 -0.12521644 -0.025628697 0.041522246 -0.17788106 -0.14279996 -0.05478133
0.13443755 -0.0017461922 0.15987092 -0.17256732 -0.076322734 -0.058754966 -0.065597974 0.0378601
-0.034238815 -0.05349473 -0.029568689 0.032917246 -0.079089485 -0.016512012 0.020992778 0.029901396
0.016638922 0.1688516 0.056737565 0.0450547 0.060627915 0.05457103 -0.07589639 -0.07907186

lstm2.bias_ih_l0 f4 [256]
00000000: 2b8e 45bc 9b0a ff3d 5456 2039 d043 34be
00000010: 6a07 d63d 8728 f33d 4749 693e 74f4 bc3d
00000020: 9be4 9ebc 66ee 1f3e f520 543e ab6a 25bd
00000030: f603 dbbc 1938 b13d dd6f c1bc a368 ffbd
00000040: 2e41 b33d 9322 613d 65d6 1c3d 7745 973c
00000050: 9707 e23d 1704 35bd ef34 ed3c a2c1 2ebd
00000060: fa1f 4e3e 38d2 0e3e 6795 913e 92ed 073c
00000070: ed4a a13d d5f7 2f3e 9a99 b13d 2f0e 553e
00000080: 9f31 b43d d564 c63c f997 2cbd 4f66 a8bd
00000090: 8d3f 543d 8bbe 54bd e1ac a6bc 345f ff3d
000000a0: 0d2e 8c3d 584d 5d3d 82db 49bd acad c7bd
000000b0: fbc6 693e 8d57 443d ebf4 a03d 5c17 17be
000000c0: 82af fe3d 5f99 aabd fa73 073c 81dc 3bbe
000000d0: 45e5 0c3e 287e bdbd f0e6 f5bc c5c0 5d3d
000000e0: 5315 14bd b281 b53d f9d9 c83c 504d b23d
000000f0: 77db 2cbb 6d16 343d f712 d6bd 1205 163c
00000100: dae9 a93d 094a 533d b09f 89bb a3aa 07bd
00000110: adfa 943d 24ba 283e 25af 00bc f5bc b33e
00000120: 1c43 efbb d9ae 2b3e a944 8d3e ddf3 92bd
00000130: 7ad5 9d3e 7106 313d b5f5 bb3c 952f 12bd
00000140: ee48 163d d568 3bbd 1a78 90bd 741f bebd
00000150: 64cf b2bb c102 a73d 6dcb 91bb a606 933c
00000160: 9a05 233e 76f5 d63d ede3 6a3e 3bf9 6b3e
00000170: c5cb 493e dfac af3e f241 0a3e aa2c 163d
00000180: c423 7b3e a9a5 683d 8756 133e 661a bfbd
00000190: cb2b c5bd 942e 843e 1298 5a3e 0670 1c3e
000001a0: 7720 3c3e a8f5 1ebd a0db fcbc b369 393e
000001b0: af8e 723e 01ab fb3d 3f18 0a3e c80e 6fbd
000001c0: 72d3 813d 1550 d4bd c4c7 0c3e 9cb5 91bd
000001d0: 5f20 1a3e 0de7 e1bb 43b4 da3d dfc5 583d
000001e0: cefc 453c 8849 80bb debf d33d c426 c63d
000001f0: 4643 993d 2c33 d9bd 2f8f cb3c 9afb eabd
00000200: 9aff 093e aaf4 7cbb e9db 253e a7da a33b
00000210: b724 84bd 3a47 97bd 493a 003d ae6c 9b3d
00000220: d5bd 073e 4201 11bd 08ba 28be b423 b93d
00000230: e441 a5bd 3936 c13d 25e6 95bd c572 69bc
00000240: 276f 583d 3164 6cbd 3650 663d 06bd 1fbe
00000250: 76a7 b33c c303 963d 23a8 3f3d 412a b1bb
00000260: 9218 84ba 8e4f de3c 9a69 c7bc 556f 0a3e
00000270: d8ab c1bd 4ba5 b4bd bd5d 5d3b 4653 283d
00000280: 8629 c8bd d5e3 983d 60a5 8a3d 5c43 0c3d
00000290: 6513 0cbe 62c9 b8bd c31d e03d 5aa6 353d
000002a0: 624e 843c 4286 a43d dd73 b4bd a770 8c3c
000002b0: b2fd d9bd f9fa 18be 746a 71bc cf11 e83c
000002c0: 7744 04be 76a6 08bb 0ae0 6abd c4e8 683d
000002d0: da95 a9bd b358 803c b40a 82bd 2d63 71bd
000002e0: 9fed dd3d 92d7 e0bd 2f1b bc3c a4b3 d9bd
000002f0: a7bf 90bd e82b abbc c9a1 99bd 12c0 a1bd
00000300: 6180 e6bd 232d 173e 821f 2e3e 2997 653c
00000310: 1a78 bc3c b06f e9bc 0552 8d3e fe00 693d
00000320: 5311 a1bd 68ff b03c 7a76 eb3d f772 3bbd
00000330: 1c9d 883d 18c8 1e3e c428 443e e4c2 26bc
00000340: 4879 303e ff8f 683d 7428 d2bc 36b5 d13c
00000350: 8707 d73d 8129 b53b e54a aebb 5108 2ebd
00000360: e417 e73d 90e0 283e 4ae3 543d f50d ee3d
00000370: df6a be3d 3f10 a23b cced eb3b 9961 5b3e
00000380: dfb9 003e 2ac9 ae3d 58d1 4dbd 8dc2 b63d
00000390: 8413 3b3d f74c 013e d4e6 003e b58b e43d
000003a0: 4513 193e 382c eabc 77c7 2fbd 1855 b7bc
000003b0: f43f 863d 6057 54bd ab69 983d b80f 0abd
000003c0: 46bb f83d e4c4 003b c239 7bbc 089e 33bb
000003d0: 0e48 393d 96ef 523e a444 cd3d 5096 2b3d
000003e0: 2e3d 053e e8b8 e33b 1d78 033d a2cf 253d
000003f0: 29bb c43d bdb2 97bd 7fb3 573d eb41 bebc
-0.012057821 0.12453195 0.00015290949 -0.17603993 0.10450633 0.11872964 0.2278186 0.09226313
-0.019396117 0.15618286 0.20715697 -0.04038493 -0.026735287 0.08653278 -0.02361291 -0.1247113
0.087526664 0.054964613 0.0382904 0.01846574 0.11036604 -0.044193354 0.028955905 -0.04266513
0.20129386 0.1394738 0.28434297 0.008296387 0.07875619 0.17184384 0.08671875 0.20806192
0.08798527 0.024218002 -0.04213712 -0.08222639 0.05181842 -0.05193953 -0.020346107 0.124693304
0.06844721 0.05402884 -0.049281605 -0.09749922 0.22829811 0.047935057 0.078592144 -0.14755005
0.12435819 -0.083300345 0.008267397 -0.18345834 0.13759334 -0.09252578 -0.030017346 0.054138917
-0.03615315 0.08862628 0.024518 0.087061524 -0.0026375928 0.0439667 -0.10452836 0.009156482
0.08296557 0.051584277 -0.0041999444 -0.033121716 0.07274375 0.16477257 -0.007854258 0.351051
-0.007301701 0.16765918 0.27591446 -0.071754195 0.30826932 0.043219034 0.02294431 -0.03568991
0.036690645 -0.045754272 -0.070541576 -0.09283343 -0.005456852 0.08154822 -0.004449299 0.017947506
0.15920106 0.10496037 0.2293851 0.23044293 0.19706638 0.34311578 0.13501719 0.03666369
0.24525362 0.05679861 0.14388476 -0.09331207 -0.096274935 0.25816786 0.21347073 0.15277109
0.1837176 -0.038808495 -0.030866444 0.18106727 0.23687242 0.12288476 0.13485812 -0.058363706
0.06339158 -0.10366837 0.1374808 -0.07114717 0.15051411 -0.0068939985 0.106789134 0.05292308
0.012084199 -0.0039150156 0.1033933 0.09675363 0.074835345 -0.106054634 0.024848549 -0.114737704
0.1347641 -0.003859798 0.1619717 0.0050004306 -0.06452315 -0.07386632 0.031305585 0.075890884
0.13256009 -0.03540159 -0.16477215 0.09040013 -0.08069208 0.0943417 -0.07319287 -0.014248555
0.052840378 -0.057712737 0.05622884 -0.1559945 0.021930438 0.07324936 0.046791207 -0.0054066484
-0.0010078123 0.027137544 -0.024342347 0.13519032 -0.09456605 -0.0882059 0.0033777796 0.04109504
-0.09773545 0.074653305 0.06769824 0.034243926 -0.13679273 -0.09022786 0.109431766 0.0443481
0.016150657 0.0803342 -0.08811162 0.01714356 -0.10644092 -0.14939488 -0.014734853 0.028328804
-0.12916742 -0.0020851172 -0.057342567 0.056862608 -0.08280535 0.015667295 -0.06349698 -0.058932472
0.10836338 -0.10978617 0.02296218 -0.10629967 -0.07067805 -0.02089496 -0.07501561 -0.07897963
-0.11254955 0.14763312 0.17004207 0.01401309 0.023006488 -0.02849564 0.27601638 0.05688571
-0.078646325 0.021606162 0.11497207 -0.045763936 0.06670591 0.15506017 0.19156176 -0.0101783015
0.17233765 0.05677795 -0.025654055 0.025599103 0.104994826 0.0055286293 -0.0053189867 -0.0424884
0.11283854 0.16491914 0.051974572 0.11623756 0.09297728 0.0049457843 0.0071999785 0.2142395
0.12570904 0.08534463 -0.050248474 0.08923826 0.04567291 0.12627016 0.12588054 0.111594595
0.14948757 -0.028585538 -0.042914834 -0.022379443 0.06555167 -0.05184114 0.074420296 -0.033706397
0.121450946 0.0019648606 -0.015333595 -0.0027407426 0.045234732 0.20599207 0.10022858 0.041891396
0.1301162 0.006949533 0.03209697 0.040481217 0.096060105 -0.074071385 0.052661415 -0.023224792

lstm2.bias_hh_l0 f4 [256]
00000000: dab9 fa3d 23b1 953d 8b1d 1c3e 06a5 563d
00000010: e59f 2c3d 7d3b df3b d523 483e f0c4 063e
00000020: 13b6 fbbc 0a94 073e 37d0 1c3e de92 92bd
00000030: de7b a93c 1b2c 473e 4f50 293e 06e0 483d
00000040: 7b07 f83d 87c3 693e 490f bd3d 37fc af3d
00000050: 59f2 8ebc 5d25 80bd ed6b 17bd 9f75 ac3d
00000060: b29d 6e3d 598b 553d c2cf 553d 5233 203d
00000070: bce0 f4bc 338e cc3d 9552 733d b3b3 cc3e
00000080: 34bc be3d a597 d73c 0302 7bbd 974b 02be
00000090: cd03 51b9 f708 5b3d f9ff 7dbc 47d5 403d
000000a0: d39b 893d 7069 84bd 9b78 473d 966f 0e3e
000000b0: 811a 643e 3182 fe3d e0c9 7b3d 8147 72bd
000000c0: 371b 8b3d 11ab 643d 5575 2f3d d574 83bd
000000d0: 84ff 213e 8cda fabd 4cb0 d33c 9b03 88bd
000000e0: aa52 703d 2ddf 913d 0bb2 f33c 705a 483d
000000f0: 55ce b03d 6355 74bd 9919 fd3d ee41 8abc
00000100: 9a8b e5bc 2fbd c0bc e1c0 613e 77ca 84bc
00000110: 30e2 903d 2651 ad3e 3b85 1dbe 43fc a13e
00000120: 54f3 1abd fe18 263e 7d8c 843e d1fd 0ebd
00000130: b2b7 a43e cc55 933d 015c d6bd 8562 e5bd
00000140: fbf6 2e3e e014 31bc 2b80 b5bc 79e3 753d
00000150: 57c7 bc3d ac29 d23d 6d5b cf3c 27ad 023e
00000160: a9fe 363e 12ae 1f3e ac5f 313e 959b 543e
00000170: 085a 813e 855e 563e b0ab 63bb e862 d2bd
00000180: c941 f93d 391f f33d ed01 bbbd d22d 9bbd
00000190: 1421 053e 9707 ab3e 2fd0 783d c6d2 bd3d
000001a0: 2e1e dc3d 35f0 1c3e 19ac 88bd c2ad 3c3e
000001b0: 4b1a 753e e83a 0c3e 2611 b5bd b064 bbbd
000001c0: a61b 0d3d 38af 48be 5a4e 65bd 4526 11be
000001d0: 3694 0e3e c752 12bd 315e 9a3d 27e5 193e
000001e0: 5619 4e3d a2f0 483d d46d 7dbd 41cb 7a3d
000001f0: 8a78 bc3b 4509 a5bc 712f 6e3d 2bc4 5ebd
00000200: 4b40 babd 283a b73c 670d 103e cdc9 083d
00000210: 4ba5 ebbd 3332 223d 07c1 e9bd 7c47 e1bd
00000220: 0b11 ca3d 540e ca3d c407 b3bd c814 bf3d
00000230: 007c db3b f61e 49bd d32e 343c 89e9 ca3c
00000240: 30f7 8b3a 80ed 003d 75fd 203d 50f7 973d
00000250: e822 7ebc f3de b6bd cf0b 2bbd d1f7 ccbd
00000260: 7bb3 05be 78ab 20be b430 893c 48ce 653c
00000270: f68c 93bd 9c27 b73d 62af 5c3d c9dc ce3c
00000280: 1723 633a 97fb 403d 5b60 993d 365c 243c
00000290: 45d1 c93d 8e0c bfbd 4fe7 ea3c a264 1ebd
000002a0: 921d a23d e0ed ae3c cf2c d9bd 1642 73bd
000002b0: 1b91 1bbd 1d5c 013d a940 103c a70d d8bd
000002c0: 09f5 32bd 6821 233c 4f85 3cbe 0fa5 a9bd
000002d0: 3676 acbd 3e7a 313e 992e b1bd 944d 233e
000002e0: 87a0 ecbd 26e4 07bd ba17 383d 4dd2 eebd
000002f0: b46e b9bd f04b b03d 39b5 d73d ce9f 59bd
00000300: 50ab b4bd ef11 053e 0211 7a3d 537f 56bc
00000310: e379 d13c 8c58 193c b0f2 7a3e ffed 903d
00000320: d081 3fbd 5d70 0d3e f52a 7f3c 5c5f 0f3d
00000330: 0cc0 0d3d 5cca 783e 5bda 893b b2fe 0e3e
00000340: 6576 073e 7b49 5a3d a4ae 3f3e ca4d a83d
00000350: d8ff fd3b 3db7 99bc 3c88 b93d 54e7 3c3e
00000360: 86a8 933c c655 593c b0d8 c43d eb18 3f3e
00000370: 66ad f83d 6ba8 193d b0ac 293e cc6d a33e
00000380: c42e 563c 4925 093e 4e47 2b3e 9d20 f93d
00000390: 195d 7fbd f024 a03d a1e3 dabd eccf e63c
000003a0: a9a8 96bc 6096 82bd 9779 123c ea4b 2f3e
000003b0: 5a68 533e d9a3 413e 19af a73d 2ce9 783c
000003c0: 6a80 193e 62a8 03be 136e 493d 8176 c4bc
000003d0: 56d4 5b3e bbdf 8e3c 5b3a fd3b f9b8 8d3d
000003e0: b580 4d3d 2bfa 263e ea2d e13d c6d7 af3d
000003f0: c5cd b03d 32c9 a3bd fa15 5c3c e6e5 0d3e
0.122424796 0.07309177 0.15245645 0.052403472 0.042144675 0.0068125115 0.19544919 0.13161063
-0.030726468 0.13240066 0.15313803 -0.07156919 0.020688947 0.19450419 0.16534542 0.04904177
0.12110802 0.22828494 0.09231431 0.08593028 -0.017449545 -0.062571265 -0.03696816 0.08420872
0.05825586 0.052134845 0.052200086 0.039111443 -0.029892318 0.0998806 0.05940493 0.3998085
0.09313241 0.026317427 -0.061281215 -0.12724148 -0.00019933209 0.053475346 -0.015502923 0.047078397
0.06719174 -0.06465423 0.048699003 0.13909754 0.22275735 0.12427176 0.06147182 -0.059150223
0.067923 0.055827204 0.042836506 -0.06418768 0.15820128 -0.12248716 0.0258409 -0.06641313
0.058672585 0.071226455 0.029747983 0.048914373 0.08633105 -0.059651744 0.12358398 -0.01687714
-0.028020669 -0.02352771 0.22046234 -0.016209824 0.07074392 0.33850974 -0.15382855 0.31637773
-0.037829712 0.16220471 0.25888434 -0.034910027 0.32171398 0.07194099 -0.10466767 -0.11200432
0.17086403 -0.0108082 -0.022155842 0.060031388 0.092177086 0.102618545 0.02531215 0.12761365
0.17870583 0.15593746 0.17321652 0.20762475 0.25264 0.20934494 -0.0034739785 -0.10272771
0.12170751 0.118711896 -0.09131227 -0.07577099 0.130009 0.33404228 0.060745414 0.092687175
0.10747944 0.15326007 -0.0667345 0.18425658 0.23935811 0.13694346 -0.088411614 -0.09150064
0.034450196 -0.1959809 -0.055982925 -0.14174755 0.13923725 -0.035723474 0.07537497 0.15028821
0.05031713 0.04905761 -0.06187232 0.061228994 0.005751674 -0.020146022 0.058150712 -0.0543863
-0.09094294 0.022366598 0.14067613 0.033395577 -0.115061365 0.039598655 -0.1141377 -0.10999963
0.09866532 0.09866014 -0.087417156 0.093301356 0.0066981316 -0.049101792 0.010997492 0.024769561
0.0010678526 0.031476498 0.039304215 0.07420218 -0.015511252 -0.08929243 -0.04175931 -0.10008205
-0.13056748 -0.1569041 0.016746856 0.014026232 -0.072046205 0.08943102 0.053878196 0.025251763
0.00086645916 0.047114935 0.074890815 0.01003175 0.09854368 -0.093285665 0.02867475 -0.03867019
0.07915796 0.021353662 -0.1060425 -0.059389196 -0.03798018 0.031581987 0.008804479 -0.10549479
-0.043690715 0.009956695 -0.18410228 -0.082834356 -0.084209844 0.17331788 -0.08651466 0.15947562
-0.11554056 -0.033176564 0.044944502 -0.116612054 -0.09054318 0.08608234 0.10532612 -0.053130917
-0.08821738 0.12995122 0.061051376 -0.01309188 0.025570815 0.00935949 0.2450664 0.07076644
-0.04675466 0.13812394 0.015574207 0.03500305 0.03460698 0.24295944 0.004206938 0.13964346
0.13228758 0.053292733 0.18718964 0.08217962 0.007751446 -0.018764133 0.09059188 0.1844762
0.018024694 0.013265079 0.09611642 0.18661849 0.12142448 0.03751413 0.16569781 0.31919706
0.013072673 0.1339313 0.1672642 0.121644236 -0.062344644 0.07819545 -0.10687948 0.028175317
-0.01839097 -0.06376338 0.008940122 0.17118803 0.20645276 0.18910159 0.08187694 0.015192311
0.14990392 -0.12857202 0.04917724 -0.023982288 0.21467718 0.017440667 0.007727904 0.06920046
0.050171573 0.16306369 0.109950855 0.085860774 0.086329974 -0.07997359 0.013432974 0.1385723
