saved_model/DAP_Model_NonRenew.pt (torch, 231074 bytes, 12 tensors)

lstm1.weight_ih_l0 f4 [256, 3]
0	0xbe25468f	-0.16140197
1	0x3dd400eb	0.103517376
2	0x3e2128c8	0.15738213
3	0xbd538e6a	-0.05164949
4	0xbdbfeece	-0.0937172
5	0x3e6d47dd	0.23171945
6	0xbc81d88f	-0.015850333
7	0xbe00a673	-0.12563495
8	0x3dae9028	0.085235894
9	0xbe024124	-0.12720162
10	0xbd04ccc1	-0.03242183
11	0x3cd41e8c	0.025893472
12	0x3c9380a3	0.018005675
13	0xbd7180bb	-0.058960658
14	0xbe273b0e	-0.16331121
15	0xbdab3309	-0.083593436
16	0xbda2cf99	-0.07949752
17	0xbc90abd2	-0.017660055
18	0xbdf93994	-0.12169185
19	0xbe42d9a5	-0.19028337
20	0x3cca846b	0.024721345
21	0x3d29ca9c	0.04145299
22	0x3da412b3	0.08011379
23	0x3e30d2d9	0.17267932
24	0xbd51ab6d	-0.051188875
25	0x3e0a080f	0.13479637
26	0xbdd9224c	-0.10602245
27	0xbbdc9c8c	-0.006732529
28	0x3deda86f	0.11604392
29	0x3dc1e19d	0.094668604
30	0xbe0f5dd3	-0.14000635
31	0x3e4f577b	0.20248215
32	0xbe00d7a0	-0.12582254
33	0xbd6d6a3a	-0.057962634
34	0xbe060a95	-0.13089974
35	0x3e169e28	0.1470877
36	0x3ccd8e46	0.025092255
37	0xbd1be54e	-0.03806048
38	0xbe0c5d4e	-0.13707468
39	0x3e0f9cae	0.14024612
40	0xbdb1ad5e	-0.08675645
41	0x3e8b93c9	0.2726119
42	0x3e0a77d6	0.13522276
43	0x3ddcf9f7	0.107898645
44	0xbe1d2215	-0.15345033
45	0x3d79381f	0.060844537
46	0x3cbccb6c	0.023046218
47	0xbdf5b158	-0.11996716
48	0xbdd4f183	-0.10397627
49	0x3dd63f3e	0.10461281
50	0x3d12c30b	0.03583054
51	0x3e287cf8	0.16453922
52	0xbd83392f	-0.06407391
53	0x3d21e2f7	0.03952309
54	0x3e0d93e9	0.13825954
55	0x3db26b21	0.087118395
56	0xbd38b0ff	-0.04509067
57	0xbd982a06	-0.0742989
58	0x3ddb8e02	0.10720445
59	0xbdb820fd	-0.08990667
60	0x3e0c70bb	0.13714878
61	0x3d0de415	0.034641344
62	0xbc7cff20	-0.015441686
63	0xbd12e63d	-0.035864104
64	0xbdfb0d13	-0.12258353
65	0xbdbe2ce7	-0.09285908
66	0xbe0ccdf4	-0.1375044
67	0xbe3d3451	-0.18476988
68	0xbe1e3482	-0.15449718
69	0x3e004692	0.1252692
70	0x3d4d0961	0.050057773
71	0xbd661f6d	-0.056182314
72	0xbe01e5ab	-0.12685268
73	0xbd3006f7	-0.042975392
74	0x3e12c5d4	0.14333278
75	0x3e5a0863	0.21292262
76	0x3d281f65	0.041045565
77	0xbc02104c	-0.007938456
78	0x3db84b6b	0.0899876
79	0x3da05c11	0.0783006
80	0x3e53a5da	0.20668736
81	0x3dbf5a42	0.09343387
82	0xbd0619d0	-0.03273946
83	0xbdcb55ee	-0.09928499
84	0xbe1c2baf	-0.15251039
85	0xbe2c8889	-0.16848959
86	0xbd8df585	-0.06931595
87	0xbd11e15e	-0.035615318
88	0xbdb3caaf	-0.08778893
89	0x3c2e2aff	0.010630368
90	0xbdd27692	-0.10276522
91	0xbdf52745	-0.11970381
92	0xbd5caf45	-0.053878088
93	0x3dca0267	0.098637395
94	0xbdab16fb	-0.083539926
95	0x3dbe3fb4	0.09289494
96	0x3ae6c7c9	0.0017607148
97	0xbd479c11	-0.04873282
98	0x3d0b76d6	0.034048878
99	0xbd3d8cd4	-0.046276882
100	0xbdae9505	-0.08524517
101	0x3e0aee96	0.13567576
102	0xbddec317	-0.10877054
103	0xbe74dc78	-0.23912227
104	0x3d728c29	0.0592157
105	0xbd10cc9a	-0.035351373
106	0x3ca7a450	0.020464092
107	0x3d1454b0	0.036213577
108	0xbdf6e477	-0.12055295
109	0xbe4b718d	-0.19867535
110	0x3e232d1a	0.15935174
111	0x3c9b246c	0.018938266
112	0x3b9360b7	0.0044976133
113	0x3a7296dd	0.0009254048
114	0x3d868cf4	0.065698534
115	0xbd8724dd	-0.06598828
116	0xbddef7ea	-0.108871296
117	0xbdfdc6f6	-0.123914644
118	0x3d82f3f3	0.06394186
119	0xbe21370e	-0.15743658
120	0x3e1a9cf8	0.15098941
121	0xbe1ace9d	-0.15117879
122	0xbdd45754	-0.10368219
123	0xbd208660	-0.03919065
124	0xbe414b9b	-0.18876497
125	0xbd1cb55a	-0.038258888
126	0x3dc91000	0.09817505
127	0xbdebf97e	-0.11522196
128	0xbdc91e79	-0.09820265
129	0xbd183653	-0.037161183
130	0xbb60b701	-0.0034288766
131	0xbd06f3e5	-0.03294744
132	0x3e11c9d7	0.14237152
133	0xbd682b3f	-0.056681868
134	0xbe3c469b	-0.18386309
135	0x3e1da1e0	0.15393782
136	0xbdabe506	-0.08393292
137	0x3c23d9e0	0.010000676
138	0x3d98589a	0.074387744
139	0x3cf312bc	0.02967202
140	0x3c3c18ce	0.011480523
141	0x3da885f1	0.08228672
142	0x3d3a423a	0.045473315
143	0x3e396581	0.18105127
144	0xbcbf8ba1	-0.02338201
145	0xbe7cb3a7	-0.24677907
146	0x3e8afad3	0.2714449
147	0xbe2d485f	-0.16922139
148	0xbde5acde	-0.112146124
149	0xbe0ecb1f	-0.13944672
150	0x3d9987cd	0.07496605
151	0xbd299f64	-0.041411772
152	0xbddfaa26	-0.10921125
153	0x3dbf4d08	0.093408644
154	0xbcc1c1f6	-0.023652058
155	0x3d45c670	0.048284948
156	0xbc751c2e	-0.014960332
157	0xbe0b5bff	-0.13609312
158	0x3e2e117a	0.16998854
159	0x3d764c94	0.060131624
160	0x3d88e5e1	0.06684471
161	0xbe3fc5e6	-0.18727836
162	0x3d9e9883	0.07743933
163	0xbd93d8d7	-0.07219093
164	0x3d976192	0.07391657
165	0xbcc36582	-0.023852114
166	0x3df17395	0.11789624
167	0xbda84221	-0.08215738
168	0x3c190585	0.009339695
169	0x3dab19d1	0.083545335
170	0x3e365bcc	0.17808455
171	0x3c4be1a1	0.012443931
172	0xbddedfcc	-0.108825296
173	0x3e2a3569	0.16621937
174	0xbe22c3f9	-0.1589507
175	0xbe3fb494	-0.18721229
176	0xbdc7fc70	-0.097649455
177	0x3e04c338	0.12965095
178	0x3d0d8fb2	0.034560867
179	0xbc736235	-0.014854957
180	0x3c0d397b	0.008619661
181	0xbd0542bc	-0.032534346
182	0x3d14bae1	0.036311034
183	0x3e17dd41	0.14830495
184	0x3e0b385d	0.1359572
185	0xbe256227	-0.16150723
186	0x3b24350e	0.0025056037
187	0xbe3439d3	-0.17600183
188	0xbc42ae08	-0.011882313
189	0x3d2eccd2	0.0426758
190	0x3d7b7f0c	0.06140046
191	0x3d027742	0.031852014
192	0xbd596a35	-0.053079803
193	0xbdce5ad9	-0.100759216
194	0xbe084629	-0.13308014
195	0xbcf0891e	-0.029362258
196	0xbea1130c	-0.31459844
197	0x3e583765	0.21114881
198	0xbdf94484	-0.121712714
199	0xbe2cb883	-0.1686726
200	0xbcb3fed7	-0.021972103
201	0xbdde65c9	-0.10859258
202	0xbdef6333	-0.116888426
203	0xbd8c4fbd	-0.06851146
204	0xbd81e6d6	-0.063428566
205	0x3e4c6222	0.1995931
206	0xbdc104f1	-0.094247706
207	0xbd643f67	-0.055724528
208	0xbe62ecc8	-0.22160637
209	0xbe0a2d75	-0.13493903
210	0xbcc1adc7	-0.023642434
211	0xbc013f73	-0.007888663
212	0x3e0857a9	0.1331469
213	0xbc388313	-0.011261719
214	0x3e4d3400	0.20039368
215	0x3e624829	0.2209784
216	0x3ca65077	0.02030204
217	0x3e895619	0.268235
218	0x3e02eb75	0.12785132
219	0x3cd02f03	0.025413042
220	0x3e8f60fc	0.2800368
221	0x3e0f02c2	0.13965896
222	0xbf087fbd	-0.53319913
223	0xbd6f6a0b	-0.05845074
224	0xbe7995b9	-0.24373521
225	0x3ceed313	0.029153382
226	0xbd48aa9e	-0.04899084
227	0x3e97f693	0.2968031
228	0x3e2c69bb	0.16837208
229	0x3d255acc	0.040369794
230	0xbd6280e4	-0.0552987
231	0xbe129424	-0.14314324
232	0xbe57a2c9	-0.21058191
233	0x3e2a093f	0.1660509
234	0xbc453484	-0.0120364465
235	0x3d66b763	0.056327235
236	0x3d54a5ad	0.051915813
237	0x3dae97de	0.0852506
238	0x3e8ef2f3	0.2791973
239	0x3db00667	0.08594971
240	0x3de761ad	0.11297927
241	0x3e1bc939	0.15213479
242	0xbcdc6524	-0.026903696
243	0x3e24936c	0.16071862
244	0x3e2a11f8	0.16608417
245	0x3de28f10	0.11062443
246	0xbc09c97e	-0.008409856
247	0x3e7177b0	0.23580813
248	0x3e1ae62e	0.15126869
249	0x3cb2c225	0.021821091
250	0x3df9cbe3	0.121970914
251	0xbe1e8146	-0.15479001
252	0xbd310ac4	-0.043223158
253	0x3e85b0e0	0.26111507
254	0x3dcee610	0.10102475
255	0xbd19e844	-0.03757502

lstm1.weight_hh_l0 f4 [256, 64]
0	0x3df192f8	0.1179561
1	0xbd480614	-0.04883392
2	0x3db2ae96	0.08724706
3	0xbdf2d0f4	-0.11856261
4	0xbe0214d8	-0.12703264
5	0xbd9cde24	-0.076595575
6	0xbdf0369b	-0.11729165
7	0x3c958ec5	0.018256554
8	0x3d8a662b	0.06757768
9	0xbd89c42a	-0.067268685
10	0xbe354d2c	-0.1770522
11	0xbd9093fb	-0.07059475
12	0x3e2cca96	0.16874155
13	0x3e61d6dd	0.2205462
14	0x3d21468d	0.039373923
15	0x3cd5a737	0.02608071
16	0x3d9aa523	0.075510286
17	0x3d51f6c4	0.051260725
18	0x3d38136d	0.0449404
19	0x3e51c3a1	0.20484783
20	0xbddf6f5e	-0.109099135
21	0xbe1093bd	-0.14118858
22	0x3e5b6d92	0.21428517
23	0xbd89332b	-0.06699213
24	0x3d66452b	0.056218307
25	0xbd4460ba	-0.04794381
26	0x3d085135	0.03328057
27	0x3d3faa67	0.046793368
28	0xbe35b9e2	-0.1774669
29	0x3ded36d8	0.11582726
30	0xbe3528f0	-0.17691398
31	0xbcba9c51	-0.022779616
32	0x3cd9012b	0.026489815
33	0x3dc91a18	0.0981943
34	0xbe659937	-0.22421728
35	0xbdfcf845	-0.12352041
36	0xbd668dfb	-0.056287747
37	0x3abfd6c1	0.0014636145
38	0x3ea6c635	0.32573095
39	0xbe04d3a0	-0.12971354
40	0xbc931d04	-0.017958172
41	0x3cec0521	0.02881104
42	0x3e511d82	0.20421413
43	0xbd54d6a2	-0.051962502
44	0x3ca59c2e	0.020216074
45	0xbb80e940	-0.0039340556
46	0x3dfb4cf3	0.12270536
47	0x3dbd6b08	0.0924893
48	0x3dc4691f	0.09590363
49	0xbe4c8654	-0.19973117
50	0x3db03517	0.08603876
51	0xbdf301c0	-0.11865568
52	0xbca06b13	-0.019582307
53	0x3d656958	0.056008667
54	0x3cf94240	0.030427098
55	0x3d65d6e4	0.05611314
56	0xbda76d79	-0.08175177
57	0x3d8178f7	0.063219
58	0x3d5fc054	0.054626778
59	0x3d9c5f82	0.07635404
60	0xbd91d56c	-0.07120785
61	0xbddc8e71	-0.10769356
62	0xbd8185d0	-0.06324351
63	0xbb947c61	-0.0045314287
64	0xbe1cb441	-0.15303136
65	0xbcb4f457	-0.022089167
66	0xbd335f10	-0.04379183
67	0x3dfd7e19	0.12377567
68	0x3c1f0d70	0.009707794
69	0x3e38b3b2	0.18037298
70	0x3d937b57	0.072012596
71	0xbd6759d3	-0.056482147
72	0x3c80e421	0.01573378
73	0x3e3a0953	0.1816762
74	0xbe9512ae	-0.29115814
75	0x3e161464	0.14656216
76	0xbd8a5b9e	-0.06755756
77	0xbe4357ce	-0.19076464
78	0x3d5323fb	0.051547986
79	0xbdbe9de6	-0.093074605
80	0xbdac3840	-0.08409166
81	0xbdc67e15	-0.09692017
82	0x3d980b53	0.07424035
83	0x3ad2ae0a	0.0016073596
84	0x3afd32bd	0.0019317489
85	0xbe145eca	-0.14489284
86	0x3e1b6348	0.15174592
87	0xbd9b0615	-0.075695194
88	0xbd11ca09	-0.035593066
89	0xbd5f4830	-0.054512203
90	0x3d6e3b90	0.058162272
91	0x3ddc7142	0.1076379
92	0xbde526bc	-0.111890286
93	0xbd8d02d4	-0.06885305
94	0x3c3012eb	0.010746698
95	0xbe1263df	-0.1429591
96	0xbc2d0813	-0.010561007
97	0xbccb5180	-0.024819136
98	0x3d3b1243	0.045671713
99	0xbdfbedbc	-0.123012036
100	0x3c96db43	0.018415099
101	0x3d3ed44a	0.046589173
102	0x3e8c9043	0.27453813
103	0x3d41af6c	0.047286436
104	0x3df6c798	0.12049788
105	0xbd9d3c3b	-0.07677504
106	0x3b849787	0.004046384
107	0xbc726ae6	-0.014795994
108	0x3d746e78	0.059675664
109	0x3dfe7e9b	0.12426492
110	0xbd7b9d49	-0.061429296
111	0xbdca9257	-0.09891193
112	0xbdb41547	-0.08793121
113	0xbcedab9c	-0.029012494
114	0xbdfd15db	-0.12357684
115	0xbd52cbac	-0.051463768
116	0x3d2059f4	0.039148286
117	0x3df8745f	0.12131571
118	0x3dfe8d92	0.12429346
119	0xbdab5969	-0.08366663
120	0xbd975f8e	-0.073912725
121	0x3e4bbedc	0.19897026
122	0xbd244d63	-0.040112864
123	0x3e8d66f6	0.27617615
124	0x3da8d7f9	0.082443185
125	0x3cbdf13f	0.023186324
126	0x3c344094	0.011001725
127	0xbcaffda1	-0.021483244
128	0xbd787926	-0.06066241
129	0x3e87907c	0.2647742
130	0x3b6f3bb8	0.00365041
131	0x3d8e56b5	0.06950132
132	0x3e00d7e7	0.1258236
133	0x3ce51abe	0.027966853
134	0x3e8847c1	0.26617244
135	0x3db33cc1	0.08751822
136	0x3d80c0b7	0.062867574
137	0x3db293e9	0.08719618
138	0xbe24ca70	-0.16092849
139	0xbda562f6	-0.08075516
140	0xb9f66f2a	-0.000470036
141	0xbe5e6974	-0.21719915
142	0xbe074705	-0.13210686
143	0x3e3b1b0f	0.18272041
144	0x3dc44ac9	0.09584577
145	0x3c8f0448	0.017458096
146	0xbd777ef9	-0.060423825
147	0xbe1a185b	-0.15048353
148	0x3d17c369	0.037051592
149	0x3d5a2ecd	0.05326729
150	0xbe5f7534	-0.21822053
151	0x3d43d908	0.0478144
152	0xbe522d98	-0.20525205
153	0xbce7f841	-0.028316619
154	0x3d3d0cd4	0.046154812
155	0xbda199b6	-0.07890646
156	0x3d0940bf	0.033509012
157	0xbcd5e838	-0.026111707
158	0xbd48673b	-0.048926573
159	0x3dea9249	0.11453683
160	0xbde7f300	-0.113256454
161	0xbc1d43db	-0.009598698
162	0x3e1c6eaa	0.1527659
163	0x3caea03c	0.02131664
164	0x3e51f8fb	0.20505135
165	0xbd585d94	-0.052823618
166	0xbd32f557	-0.043691006
167	0x3d2abeb7	0.041685786
168	0xbe1fde46	-0.15612134
169	0xbdd8adc1	-0.10580016
170	0x3d3e75f2	0.0464992
171	0x3d62f93d	0.055413473
172	0x3d3c86b1	0.04602689
173	0xbddb46d7	-0.10706871
174	0x3d586157	0.052827206
175	0x3d6333da	0.05546937
176	0x3e88b06d	0.26697102
177	0xbded3c87	-0.1158381
178	0xbdf93f5a	-0.121702865
179	0x3be58e2d	0.007005474
180	0x3e6de224	0.23230797
181	0x3cdcf0fe	0.026970383
182	0xbd2ebeca	-0.04266242
183	0xbdddd069	-0.10830767
184	0x3d4bc19f	0.0497452
185	0x3e0d4ba4	0.13798386
186	0x3d1f92ec	0.038958475
187	0x3cb02df4	0.021506287
188	0x3e223540	0.15840626
189	0xbd69fa8f	-0.057123717
190	0xbdac5c19	-0.08416004
191	0xbe044f44	-0.12920862
192	0xbe3b672d	-0.18301077
193	0x3d0bb81a	0.03411112
194	0x3cb88d22	0.022528235
195	0xbad52dea	-0.0016264294
196	0xbd108505	-0.035283107
197	0xbd8d1db5	-0.06890432
198	0x3e3dcb8e	0.18534681
199	0x3cca4949	0.024693148
200	0x3d4dbdd0	0.050229847
201	0x3d06e20f	0.03293043
202	0xbe9e37c5	-0.30901924
203	0x3ce70973	0.028202748
204	0x3e4c6f04	0.19964224
205	0x3e1bbcc0	0.15208721
206	0x3d26ebea	0.04075233
207	0xbdb4c2dc	-0.08826229
208	0x3e702e77	0.23455225
209	0x3de3df15	0.11126534
210	0xbd45c6d2	-0.048285313
211	0x3c22cd90	0.009936705
212	0xbe0c6ad1	-0.13712622
213	0xbe0a2ce4	-0.13493687
214	0x3dd5f217	0.104465656
215	0x3a65db2c	0.0008768316
216	0xbd4f641c	-0.05063258
217	0x3e4a86b4	0.19777948
218	0x3d70592f	0.058678802
219	0xbe0ce46d	-0.13759013
220	0xbc043eb4	-0.00807159
221	0xbdc47efe	-0.09594534
222	0xbdf70cc1	-0.120629795
223	0x3de1ac5d	0.11019204
224	0x3e11926c	0.14216012
225	0xbe162b87	-0.14665042
226	0xbd022f39	-0.031783316
227	0xbd89e20e	-0.0673257
228	0xbe0edd69	-0.13951649
229	0x3dd63ab0	0.104604125
230	0x3e6b3431	0.22969128
231	0xbc33f18f	-0.010982885
232	0xbe3ea267	-0.18616639
233	0xbe579aae	-0.210551
234	0x3d933fc9	0.071899004
235	0xbcf14259	-0.029450582
236	0x3e5df3dd	0.21675058
237	0xbe34d2f9	-0.17658605
238	0x3e3c4788	0.18386662
239	0x3d4adcea	0.049527086
240	0x3e03f1c6	0.12885198
241	0xbd7fb447	-0.062427785
242	0xbe64880f	-0.22317527
243	0x3d8dbf5e	0.06921266
244	0x3e30d2f2	0.17267969
245	0xbdc4e346	-0.096136615
246	0xbd433753	-0.047660183
247	0xbdfe27fa	-0.12409969
248	0xbdb6a23f	-0.08917665
249	0x3e162a4c	0.14664572
250	0xbde81c7f	-0.1133356
251	0x3e665a72	0.2249544
252	0x3882d684	6.23884e-05
253	0xbd6130a8	-0.054978043
254	0xbdb696f6	-0.08915512
255	0x3d8c0903	0.06837656

lstm1.bias_ih_l0 f4 [256]
0	0xbdb88659	-0.0901
1	0x3e185f25	0.14880045
2	0xbadbbc61	-0.0016764515
3	0x3ddfb1bf	0.10922574
4	0x3c9b8ade	0.018987115
5	0x3c82bf7b	0.015960446
6	0x3d1f7577	0.038930383
7	0x3da9bd30	0.08288038
8	0xbd3c10f9	-0.045914624
9	0xbe06e006	-0.13171396
10	0x3db45d25	0.088068284
11	0x3d8a1662	0.067425504
12	0xbdd20232	-0.10254325
13	0x3dcab418	0.098976314
14	0xbdbf86a1	-0.0935185
15	0xbdf62c20	-0.12020135
16	0xbc4553cc	-0.0120439045
17	0xbdc1222c	-0.09430346
18	0xbdd1a56e	-0.10236631
19	0x3c893335	0.01674805
20	0x3d25e4b5	0.040501315
21	0xbe61dd65	-0.22057112
22	0x3dcdec8b	0.100548826
23	0xbde80ba4	-0.11330345
24	0xbc19883b	-0.009370859
25	0x3c904b15	0.017613927
26	0x3c147177	0.009060255
27	0x3db0d33d	0.086340405
28	0xbce522d6	-0.027970713
29	0xbd805d8f	-0.06267845
30	0xbe078f56	-0.13238272
31	0x3dc8943c	0.097938985
32	0xbe0c4799	-0.13699187
33	0x3dcc98f9	0.09990115
34	0xbb7e88e1	-0.003883891
35	0x3d8773b3	0.06613865
36	0xbd028d36	-0.03187295
37	0xbba76126	-0.0051080165
38	0x3c90a9bf	0.017659066
39	0xbbd7b794	-0.0065831635
40	0xbe1d59ed	-0.15366335
41	0x3d1dc931	0.03852195
42	0xbd64c583	-0.055852424
43	0xbd5ed16f	-0.05439895
44	0x3dc29439	0.095009275
45	0x3d8f8951	0.07008613
46	0x3dcf1a57	0.10112446
47	0xbde1154b	-0.109903894
48	0x3d5af161	0.053452853
49	0xbe23e5a5	-0.16005571
50	0xbcf656e1	-0.030070724
51	0x3e4f70d1	0.2025788
52	0xbd3385e4	-0.04382886
53	0xbe4e7e19	-0.2016529
54	0xbcba21a1	-0.022721114
55	0xbc5b70fc	-0.013393637
56	0x3e2f0b64	0.17094189
57	0x3d6b5f4f	0.05746394
58	0xbaf743ab	-0.0018864771
59	0x3dd94968	0.10609704
60	0xbb0fd8df	-0.0021949334
61	0x3d8e5f02	0.06951715
62	0x3d63ad99	0.055585478
63	0xbd30e2be	-0.04318499
64	0xbcb607da	-0.02222054
65	0x3e625baa	0.2210528
66	0x3c2eedd6	0.010676822
67	0xba784c08	-0.0009471779
68	0x3c06da70	0.0082307905
69	0xbdeb1f1f	-0.11480545
70	0xbcbc1c7e	-0.022962805
71	0x3e55d53b	0.20882122
72	0xbd69eef2	-0.05711264
73	0x3c912887	0.01771952
74	0xbd1a51e6	-0.03767576
75	0xbd96128e	-0.07327758
76	0xbd2217ea	-0.039573587
77	0xbe06a6fd	-0.13149638
78	0x3d126650	0.035742104
79	0xba248756	-0.000627627
80	0xbc9bc9a5	-0.01901705
81	0xbcaf1e8e	-0.021376874
82	0x3c9591a5	0.018257925
83	0xbde79b55	-0.11308924
84	0x3cd836d9	0.02639334
85	0xbe0ccf29	-0.137509
86	0xbd8b2bb8	-0.06795448
87	0x3d6e91ed	0.058244634
88	0xbdaf10d2	-0.0854813
89	0xbde863f4	-0.113471895
90	0x3b9a889a	0.004715991
91	0x3d675a30	0.056482494
92	0xbcd129ce	-0.02553263
93	0x3c3736ab	0.011182467
94	0xbd3aa180	-0.045564175
95	0xbdad7b3d	-0.084707715
96	0xbdab77a6	-0.083724305
97	0xbce2c9e3	-0.027684158
98	0xbd4ebb84	-0.050471798
99	0x3c910adb	0.017705372
100	0xbdd87d17	-0.10570734
101	0xbdd6dd27	-0.104914
102	0x3df526bf	0.11970281
103	0xbd620320	-0.05517876
104	0xbdce5d0f	-0.10076343
105	0x3e7cbe99	0.24682082
106	0xbe0d5d73	-0.1380518
107	0xbdd26103	-0.1027241
108	0xbe21474c	-0.15749854
109	0xbc7ab06b	-0.01530085
110	0xbd72e7c4	-0.05930306
111	0x3e2fdf8e	0.17175123
112	0x3da85aa6	0.08220415
113	0x3d92013f	0.07129144
114	0xbdebc2cb	-0.11511763
115	0x3e037d44	0.12840754
116	0x3e65d49f	0.2244439
117	0xbdba9044	-0.09109548
118	0xbe1bdefe	-0.15221784
119	0x3dc97db3	0.09838428
120	0x3e8199a8	0.25312543
121	0xbe22fec3	-0.15917496
122	0x3e1b6ec8	0.15178978
123	0xbcda4b83	-0.026647335
124	0x3e1f46a1	0.15554287
125	0x3de8a616	0.113598034
126	0x3e9591b2	0.2921272
127	0xbcba500e	-0.022743251
128	0xbe323a35	-0.17405017
129	0x3e37dc6b	0.17955177
130	0xbdf65fc5	-0.12029985
131	0x3e5f29f2	0.21793345
132	0x3df7c0cb	0.12097319
133	0x3d82e01c	0.06390402
134	0x3dffdb17	0.1249296
135	0x3e840fe6	0.2579338
136	0x3e0f0fb5	0.13970836
137	0xbc3f2ba3	-0.011668119
138	0xbe260f31	-0.16216733
139	0xbda0fcfd	-0.07860754
140	0xbc812751	-0.015765818
141	0xbe1e7bec	-0.1547696
142	0xbd72c18a	-0.059266604
143	0x3e4c4476	0.19947991
144	0x3e1ec8a8	0.15506232
145	0xbdeb8e8f	-0.115018
146	0x3e34c540	0.1765337
147	0xbe8b9fe5	-0.27270427
148	0x3dffbbf0	0.12487018
149	0xbc0e7a43	-0.008696142
150	0x3ce5aef1	0.02803752
151	0x3e282a4d	0.16422386
152	0xbd8cf8fe	-0.06883429
153	0x3e866183	0.2624627
154	0x3d99355e	0.07480882
155	0xbe3d890d	-0.18509312
156	0x3d4b753c	0.04967235
157	0x3e4ace16	0.19805178
158	0x3cb102ba	0.021607745
159	0x3e46c598	0.19411314
160	0x3d5a9706	0.053366683
161	0xbcb92aac	-0.022603355
162	0x3dd135d0	0.10215342
163	0x3ca52fa1	0.020164313
164	0xbdb692bf	-0.08914708
165	0x3d2631c3	0.0405748
166	0xbd9e4fb5	-0.07730047
167	0x3e296130	0.1654098
168	0x3d012d27	0.0315372
169	0xbb795e35	-0.0038050537
170	0xbbfc5634	-0.007700706
171	0x3e43e8a4	0.19131714
172	0x3de20ff4	0.11038199
173	0xbcd0d8e3	-0.025494045
174	0x3e4ee446	0.20204267
175	0x3d967b59	0.073477454
176	0x3dad3fe5	0.084594525
177	0x3e10b237	0.14130484
178	0xbe006914	-0.12540084
179	0x3e49ac62	0.19694665
180	0x3dedb80a	0.11607368
181	0xbd8bfadc	-0.06834957
182	0x3bd55131	0.006509923
183	0x3dbb81cf	0.091556184
184	0x3dd0d8a2	0.101975694
185	0x3db2065a	0.08692618
186	0xbd77ddbb	-0.060514193
187	0x3e0ba551	0.13637282
188	0x3e3c31fd	0.18378444
189	0xbe6faafb	-0.23405068
190	0xbdd5bd21	-0.10436464
191	0xbe340562	-0.17580178
192	0xbd38dfde	-0.04513537
193	0xbc876f09	-0.016532438
194	0x3d8aeec9	0.06783826
195	0xbc198037	-0.009368948
196	0x3d88ef6a	0.066862896
197	0x3dce5219	0.10074253
198	0x3a911590	0.0011069048
199	0x3b71938d	0.0036861629
200	0xbdf707cf	-0.12062036
201	0xbe11b801	-0.14230348
202	0x3cb1b9bc	0.02169501
203	0x3de11ae7	0.10991459
204	0x3c77f606	0.01513434
205	0xbdebd9c8	-0.11516148
206	0xbd6563e7	-0.056003477
207	0x3dae8e96	0.0852329
208	0x3e02fa0f	0.12790702
209	0xbd8e6fcf	-0.069549195
210	0xbdb97575	-0.09055606
211	0xbd3f898a	-0.046762027
212	0x3dd1f464	0.10251692
213	0xbe83e60b	-0.25761446
214	0xbd201c42	-0.03908945
215	0xbdb33914	-0.08751121
216	0xbc627c47	-0.013823575
217	0x3d3f4f10	0.04670626
218	0x3dc50dc7	0.096217684
219	0x3da81ccb	0.08208617
220	0x3da00c44	0.078148395
221	0x3d9e6129	0.077333756
222	0xbe0a7976	-0.13522896
223	0x3d0a3db5	0.033750255
224	0xbd82aece	-0.063809976
225	0x3c67666a	0.0141235385
226	0x3db8905f	0.090119116
227	0xbe266f38	-0.16253364
228	0x3da8bcaf	0.082391135
229	0x3aeb30bf	0.0017943605
230	0xbe226778	-0.15859783
231	0xbdb25607	-0.08707815
232	0xbd8c7415	-0.068580784
233	0x3dfcac72	0.12337579
234	0xbd05c760	-0.032660842
235	0xbe255002	-0.16143802
236	0x3d9d9889	0.076951094
237	0x3e23538b	0.15949838
238	0x3d8aa775	0.06770221
239	0x3d81ce90	0.06338227
240	0x3e148bf4	0.14506513
241	0xbd1ccc13	-0.038280558
242	0xbadac11f	-0.0016689635
243	0xbd32085f	-0.043465015
244	0x3c3ab63a	0.011395985
245	0xbe56a4af	-0.2096126
246	0xbd6e7b14	-0.058222845
247	0xbdf28015	-0.11840836
248	0x3def0153	0.116701744
249	0x3dd401e6	0.103519246
250	0xbde55a75	-0.11198894
251	0x3dbf9272	0.09354104
252	0x3c9d7020	0.019218504
253	0xbdc552e6	-0.09634952
254	0x3e39b7b5	0.18136485
255	0x3be20de7	0.00689863

lstm1.bias_hh_l0 f4 [256]
0	0xbdb62f19	-0.08895702
1	0x3d525fb9	0.05136082
2	0xbde529e5	-0.111896314
3	0x3d084c44	0.033275858
4	0x3d640e1a	0.05567751
5	0x3cf117c4	0.029430278
6	0xbb6551af	-0.0034991314
7	0x3d2f579f	0.04280817
8	0xbe1743f2	-0.14772013
9	0xbde9f346	-0.11423354
10	0x3e310a1b	0.17289011
11	0x3e27f3f3	0.16401653
12	0xbb70b420	-0.0036728457
13	0x3d5b4418	0.053531736
14	0xbdaba7a4	-0.08381584
15	0xbc8fdd47	-0.017561568
16	0x3d89ac3e	0.06722306
17	0xbcb50c72	-0.022100661
18	0x3cfbbaed	0.030728782
19	0x3d49844f	0.049198445
20	0xbc9d82cc	-0.019227408
21	0xbd9a0633	-0.07520714
22	0xbd95bd55	-0.07311503
23	0x3d8682fb	0.06567951
24	0xbe1dd3db	-0.15412848
25	0xbd520e83	-0.05128337
26	0x3d6f60cb	0.05844192
27	0xba788c57	-0.00094813615
28	0xbe2df5a5	-0.16988237
29	0xbd812ca1	-0.063073404
30	0xbb88bc24	-0.0041728187
31	0xbcd72d8b	-0.026266834
32	0xbd900848	-0.070328295
33	0x3debcc97	0.11513632
34	0x3d8d1d37	0.06890338
35	0xbe1b532d	-0.15168448
36	0xbdb0439e	-0.08606647
37	0xbe570aa1	-0.21000148
38	0xbe3599ea	-0.17734495
39	0xbd758ed4	-0.059950665
40	0xbde16297	-0.11005133
41	0x3da59979	0.08085913
42	0xbda61e91	-0.08111299
43	0xbdc0c018	-0.09411639
44	0x3defcd0d	0.11709032
45	0x3e0906c2	0.13381484
46	0x3dcf0ef0	0.10110271
47	0xbdd125c2	-0.1021228
48	0x3e3a59da	0.18198338
49	0x3b08543e	0.0020802165
50	0xbd7afe18	-0.06127748
51	0x3d583ff7	0.052795377
52	0x3c41f9e1	0.011839361
53	0xbe0aa568	-0.1353966
54	0xbd948b1e	-0.07253097
55	0xbe1271c1	-0.14301206
56	0x3e28ced4	0.16485149
57	0x3ca52bff	0.02016258
58	0xbd6e1526	-0.058125637
59	0x3ca4500c	0.0200577
60	0x3e69c1e1	0.22827865
61	0xbbdfda85	-0.0068314695
62	0xbd51c07b	-0.051208954
63	0xbd7732e8	-0.060351282
64	0xbd0ab356	-0.033862434
65	0x3dc8120f	0.097690694
66	0xbe10643a	-0.14100733
67	0x3ccc7349	0.024957316
68	0xbde076c6	-0.10960154
69	0x3d8cff7e	0.06884669
70	0x3d450361	0.048098926
71	0x3e1dfa2f	0.15427469
72	0xbde05a8d	-0.10954771
73	0x3e299763	0.16561656
74	0xbe08f369	-0.13374104
75	0x3d4b26b8	0.049597472
76	0x3d3b2d4f	0.045697507
77	0x3dacdb84	0.08440307
78	0xbd3896d5	-0.04506572
79	0x3c6edab9	0.014578515
80	0x3de4c69d	0.11170695
81	0x3e495ae6	0.19663581
82	0xbc2bb872	-0.010480987
83	0xbcda23dd	-0.02662843
84	0xbe122d33	-0.14275055
85	0xbe5c3008	-0.21502697
86	0xbcba88a8	-0.02277024
87	0x3de9e416	0.11420457
88	0x3dab3f3e	0.08361672
89	0xbe30021f	-0.17188309
90	0x3d05f3c1	0.032703165
91	0x3d91311f	0.07089447
92	0x3d5f8b67	0.054576304
93	0xbdc96655	-0.098339714
94	0xbe31abb9	-0.17350663
95	0xbd1f54cf	-0.03889924
96	0xbe28fde9	-0.16503109
97	0xbda1d150	-0.07901251
98	0x3d49394a	0.0491269
99	0xbe0317f1	-0.12802102
100	0xbd9ae9af	-0.07564103
101	0xbe05e2d7	-0.13074814
102	0xbcdc589b	-0.02689772
103	0xbc24de68	-0.010062791
104	0xbb4258fd	-0.0029655092
105	0x3e6552f6	0.22394928
106	0xbd05e8b3	-0.032692622
107	0xbdae2e2a	-0.08504899
108	0xbe002759	-0.1251501
109	0xbbb6a98c	-0.005574411
110	0x3c06bda5	0.008223926
111	0x3d3a6209	0.04550365
112	0x3d754639	0.059881423
113	0xbd060265	-0.032717127
114	0xbe3719fe	-0.17881009
115	0x3d5e5268	0.054277807
116	0x3d143315	0.036181528
117	0xbc75a665	-0.014993285
118	0xbd24a4d8	-0.04019627
119	0x3c467632	0.012113141
120	0x3df84566	0.12122612
121	0xbc4d7451	-0.012539939
122	0xbdb1a7f7	-0.08674615
123	0xbe5cb87a	-0.21554747
124	0x3e601145	0.21881588
125	0x3cec0428	0.028810576
126	0x3e92d63a	0.28679067
127	0xbda5b28d	-0.080906965
128	0xbdcec35f	-0.10095858
129	0x3e11bbf0	0.14231849
130	0xbe1c3501	-0.15254594
131	0x3e2484a4	0.16066223
132	0x3e817707	0.25286123
133	0xbc9f890f	-0.019474534
134	0x3da9b5bf	0.082866184
135	0x3e578219	0.21045722
136	0x3d9602e7	0.07324772
137	0xbe6c70e9	-0.23089947
138	0xbe4f3e19	-0.20238532
139	0x3d76c467	0.060245898
140	0xbc0f3fc5	-0.008743231
141	0xbdf8f85b	-0.12156745
142	0xbdd7ac5f	-0.10530924
143	0x3d9425e8	0.072337925
144	0x3df35b79	0.118826814
145	0xbe479d88	-0.19493687
146	0x3de44b4c	0.11147174
147	0xbe10f340	-0.14155293
148	0x3e2ac57b	0.16676895
149	0xbcb7e8cb	-0.022449872
150	0x3c9ebdc0	0.01937759
151	0x3d2720cf	0.040802773
152	0x3d849cf0	0.06475246
153	0x3d88583c	0.06657454
154	0x3e8a4c89	0.27011517
155	0xbe1952ee	-0.14973041
156	0xbcd5fb6f	-0.02612087
157	0x3db3349a	0.08750267
158	0x3aac5c1f	0.0013150013
159	0x3c4de116	0.012565872
160	0x3d0ad548	0.033894807
161	0x3d95e719	0.07319469
162	0x3e416f43	0.18890099
163	0x3d382317	0.04495534
164	0x3d9c46bb	0.07630678
165	0x3d931fd3	0.07183804
166	0x3d71cd23	0.059033524
167	0x3e394926	0.1809431
168	0xbca0bbe6	-0.019620847
169	0xbcd6e107	-0.026230348
170	0xbda3023a	-0.07959409
171	0x3d80c183	0.062869094
172	0x3e052643	0.13002877
173	0xbe478446	-0.19484052
174	0x3da26b40	0.079306126
175	0x3dac6842	0.08418323
176	0xbdaea6e1	-0.085279234
177	0x3e13d400	0.1443634
178	0xbe34c7d6	-0.17654356
179	0x3e0698a9	0.13144173
180	0x3e4b691f	0.1986432
181	0xbe6d9e2f	-0.23204874
182	0x3cb1726b	0.021661004
183	0x3db3e525	0.0878394
184	0xbd9f8553	-0.077891015
185	0x3e5c6927	0.21524487
186	0xbdd6ccff	-0.10488319
187	0x3e516e46	0.20452222
188	0x3e1aaffa	0.15106192
189	0xbbb9a02b	-0.0056648455
190	0xbe1db019	-0.15399207
191	0xbe1a250c	-0.15053195
192	0xbdb09843	-0.086227916
193	0x3e4e2e0e	0.20134756
194	0x3da41eea	0.08013709
195	0x3e036185	0.1283017
196	0x3d33b81b	0.04387675
197	0x3b02aae5	0.0019938287
198	0xbc79c87d	-0.015245554
199	0xbcbf58e4	-0.023357816
200	0xbdb67757	-0.08909481
201	0xbdc5b90a	-0.09654434
202	0x3e2f4861	0.17117454
203	0xbd8d72e1	-0.06906677
204	0xbdc45cff	-0.0958805
205	0xbe316da5	-0.17326982
206	0x3e0f921d	0.14020582
207	0xbcf24b10	-0.029576808
208	0x3e0f9d9a	0.14024964
209	0x3d7d85a2	0.06189502
210	0xbdc02233	-0.09381523
211	0xbdcde3b4	-0.100531965
212	0xbe003f01	-0.12524034
213	0xbe21a554	-0.15785724
214	0x3cc7e3e6	0.024400663
215	0x3915151e	0.00014217614
216	0x3d4e41dc	0.050355777
217	0x3dadb4a5	0.08481721
218	0x3c48598a	0.012228379
219	0xbc9d8d35	-0.019232372
220	0xbdc0fb44	-0.09422925
221	0xbbd42c4d	-0.0064750076
222	0xbdd181df	-0.10229849
223	0x3d567531	0.052357856
224	0xbe3997d8	-0.1812433
225	0xbd0f2250	-0.034944832
226	0x3d603110	0.05473429
227	0xbdb75da0	-0.089534044
228	0xbd7f98b8	-0.062401503
229	0xbdcd9bc3	-0.10039475
230	0xbdece2c2	-0.11566688
231	0x3df64719	0.120252796
232	0x3d2007a9	0.039069805
233	0x3d2c233b	0.042025786
234	0xbd06d6f7	-0.03291985
235	0xbe3d7f14	-0.18505508
236	0xbbf7583f	-0.0075483616
237	0xbcb67d82	-0.022276644
238	0x3c851a81	0.01624799
239	0x3d08ffc7	0.033447053
240	0x3e0cec2c	0.13761967
241	0x3ca7c12a	0.02047785
242	0x3d320ab2	0.04346723
243	0x3e35316c	0.17694634
244	0x3d6eb2a4	0.058275834
245	0xbdd2672f	-0.10273587
246	0xbd38276f	-0.04495948
247	0xbe12784e	-0.14303705
248	0x3e26eb51	0.16300704
249	0x3c5dc639	0.0135360295
250	0xbe35f23d	-0.17768188
251	0xbd04210f	-0.03225809
252	0x3d680bd9	0.056651924
253	0xbb32d9fa	-0.0027290569
254	0xbc51f204	-0.012814049
255	0x3d3f3af6	0.04668709

lstm2.weight_ih_l0 f4 [256, 64]
0	0x3e291cf8	0.16514957
1	0xbe7089ee	-0.23490116
2	0xbd49b008	-0.049240142
3	0xbda0a560	-0.07844043
4	0xbd02b9d6	-0.03191551
5	0xbc8a30cc	-0.016868971
6	0x3cb68042	0.022277955
7	0x3dcc0e71	0.09963692
8	0xbd217c66	-0.039425276
9	0xbdf2997a	-0.118456796
10	0x3d77b096	0.06047114
11	0x3ca274e3	0.019831127
12	0xbc648134	-0.01394682
13	0x3c7193da	0.014744723
14	0x3dc44a8d	0.09584532
15	0xbe2c561c	-0.16829723
16	0xbe031277	-0.12800013
17	0x3e514680	0.2043705
18	0xbdb31cfb	-0.08745762
19	0x3db7ee05	0.089809455
20	0x3d602cf7	0.05473038
21	0x3ce6c713	0.028171098
22	0xbd6c7e9f	-0.057737943
23	0x3ceeee57	0.029166384
24	0x3e404f09	0.1878015
25	0xbdf3642f	-0.11884343
26	0x3dd63806	0.104599044
27	0x3e0572ea	0.13032117
28	0x3e0f6edb	0.14007132
29	0xbd8b934d	-0.06815205
30	0x3de0a4d2	0.10968937
31	0xbc21e8ac	-0.009882133
32	0x3d556553	0.052098583
33	0xbd9fbfd9	-0.07800264
34	0xbe3f49f0	-0.18680549
35	0x3d96fc48	0.073723376
36	0xbe18c1f8	-0.14917743
37	0xbd3aaad9	-0.04557309
38	0x3bfefff0	0.007781975
39	0xbd600a0c	-0.05469708
40	0x3d96a1ee	0.073551044
41	0xbd1eba50	-0.0387519
42	0xbd5e2e05	-0.054243106
43	0xbd2d5300	-0.042315483
44	0xbe0a7124	-0.13519722
45	0x3df1cb03	0.118062995
46	0x3d9c75e6	0.07639675
47	0x3d66cf0b	0.056349795
48	0x3d4c8b0d	0.049937297
49	0x3adafab6	0.0016706798
50	0x3d7a0896	0.061043344
51	0x3d2f0655	0.042730648
52	0xbc960d94	-0.018317021
53	0xbcc2d5b8	-0.02378355
54	0xbd8c8183	-0.0686064
55	0x3d56fdac	0.052488014
56	0x3deeace8	0.11654073
57	0xbe2b6611	-0.16738154
58	0x3d21f226	0.03953757
59	0x3e08ae44	0.13347727
60	0xbe6fc6d8	-0.23415697
61	0x3db1a4ce	0.08674012
62	0xbd7acf7c	-0.06123303
63	0xbdea0964	-0.11427572
64	0xbe801841	-0.25018504
65	0xbd712431	-0.058872405
66	0xbe4979d8	-0.19675386
67	0x3e09effc	0.13470453
68	0x3d988863	0.07447889
69	0xbd293d99	-0.04131851
70	0xbe46981f	-0.19393967
71	0x3c988320	0.018617213
72	0xbe4ce8b6	-0.20010647
73	0x3dbeeae8	0.093221486
74	0x3bea00ce	0.007141209
75	0x3da36a9f	0.07979321
76	0xbdabe53b	-0.083933316
77	0xbc14391a	-0.009046817
78	0x3d487cd7	0.04894718
79	0xbcf82e1d	-0.030295426
80	0x3dde414d	0.10852299
81	0x3e06a36b	0.13148277
82	0xbe29834d	-0.16553994
83	0xbdd9b3cc	-0.10629997
84	0xbd1262a7	-0.035738613
85	0xbb3454f6	-0.002751646
86	0x3df41147	0.11917358
87	0xbe22a7f3	-0.1588438
88	0x3e0bceef	0.13653158
89	0xbd3483b5	-0.044070918
90	0xbd939142	-0.0720544
91	0x3d08f4ed	0.033436704
92	0xbdea49eb	-0.1143988
93	0x3e29c4a9	0.16578926
94	0x3d160296	0.03662356
95	0xbb43239a	-0.002977586
96	0xbe0ec132	-0.13940886
97	0xbc86f64f	-0.016474871
98	0xbdc7c823	-0.0975497
99	0xbd28282c	-0.041053936
100	0xbd4b39c9	-0.049615655
101	0xbe237212	-0.15961483
102	0xbd6da559	-0.058019016
103	0x3d81eb46	0.06343703
104	0x3de69e8c	0.11260709
105	0xbe3abe86	-0.18236741
106	0xbd5dea5b	-0.054178577
107	0xbdffadd7	-0.12484329
108	0x3e03821f	0.12842606
109	0x3dbaf295	0.091283
110	0x3d761b6c	0.060084745
111	0xbe364f44	-0.17803675
112	0xbe092789	-0.13393988
113	0x3e16778b	0.1469404
114	0x3e09de2f	0.13463663
115	0x3d1d7ee0	0.038451076
116	0x3e408837	0.18801962
117	0x3e14605f	0.14489888
118	0xbd2a3bce	-0.04156094
119	0xbe0e3f9d	-0.13891454
120	0xbdab7439	-0.08371777
121	0x3c125c6d	0.008933169
122	0xbce26d15	-0.027639905
123	0x3d44f9bc	0.048089728
124	0xbe10da50	-0.1414578
125	0x3c39af39	0.01133328
126	0xbe476822	-0.19473317
127	0x3db3e18d	0.08783255
128	0xbe685be9	-0.22691311
129	0x3e1de74d	0.15420265
130	0x3d60420a	0.05475048
131	0x3dd4cad4	0.10390249
132	0xbdf70ee6	-0.120633885
133	0xbd8b00aa	-0.06787236
134	0x3d10c671	0.0353455
135	0x3de2a1cc	0.110660166
136	0x377b531c	1.4980116e-05
137	0x3e5c45b0	0.21510959
138	0xbe892789	-0.26787975
139	0x3e27587d	0.1634235
140	0xbe032759	-0.12807979
141	0xbd168b37	-0.03675386
142	0x3e4cc8f1	0.19998528
143	0x3bd74dd1	0.0065705557
144	0xbe0ba6df	-0.13637875
145	0xbc1694d8	-0.009190761
146	0xbdf4a006	-0.119445845
147	0x3dddc463	0.108284734
148	0x3c7d232c	0.01545028
149	0x3d81a03d	0.06329391
150	0x3dc95ae7	0.09831791
151	0xbcf68116	-0.03009085
152	0xbe668761	-0.2251258
153	0x3d60e10e	0.05490213
154	0x3d9c84e5	0.07642535
155	0x3ddae896	0.106888935
156	0x3c7a1cc8	0.015265651
157	0xbd55f9b1	-0.052240077
158	0xbde62f50	-0.11239493
159	0xbe71428f	-0.23560546
160	0xbd081351	-0.033221547
161	0x3e47337d	0.19453235
162	0x3e32e24d	0.1746914
163	0xbe64e618	-0.22353399
164	0x3e89c1a9	0.26905563
165	0xbe1d8501	-0.15382768
166	0x3cce0eff	0.025153635
167	0x3d24632f	0.04013365
168	0xbba1080d	-0.00491429
169	0xbed135c9	-0.40861347
170	0x3d008482	0.03137637
171	0xbda3ff32	-0.08007659
172	0x3d32499a	0.043527223
173	0xbe171017	-0.14752232
174	0x3baf8e78	0.00535756
175	0xbe16d74b	-0.14730565
176	0x3e912371	0.28347352
177	0x3b524509	0.0032084605
178	0xbd0c527d	-0.034258354
179	0x3c34a194	0.011024851
180	0x3e4e7ba6	0.20164356
181	0x3dcc5ea0	0.09978986
182	0x3d627813	0.055290293
183	0xbd2845f9	-0.041082356
184	0xbdb2ba77	-0.087269716
185	0x3d61c757	0.055121746
186	0xbe0399b9	-0.1285161
187	0x3dcf30d6	0.101167366
188	0xbb89e4c2	-0.0042081783
189	0x3e70e386	0.23524293
190	0x3c6bd476	0.014393916
191	0x3e3307bb	0.17483418
192	0xbda4bba3	-0.08043601
193	0xbe0dd56a	-0.13850942
194	0x3e025b1c	0.12730068
195	0x3e1b16f5	0.15145476
196	0x3e1376db	0.14400809
197	0x3da7ce1e	0.081936106
198	0xbd89f754	-0.06736627
199	0x3e17db3e	0.14829728
200	0x3e129e35	0.14318164
201	0xbd3f5897	-0.046715345
202	0xbe5b1160	-0.21393347
203	0xbd0506f4	-0.032477334
204	0xbc2a6539	-0.01040011
205	0x3d2285f8	0.039678544
206	0xbe52ecac	-0.20598096
207	0x3d96a2df	0.07355284
208	0x3e8283d2	0.25491196
209	0xbc89c67b	-0.016818276
210	0x3d80d4d6	0.06290595
211	0xbdccdf25	-0.10003499
212	0x3d8a04c0	0.06739187
213	0xbded50d1	-0.1158768
214	0x3e131e3b	0.14367001
215	0x3e499960	0.19687414
216	0xbd900d73	-0.07033815
217	0x3da1b748	0.07896286
218	0x3e566460	0.20936728
219	0xbdc980df	-0.09839033
220	0x3b8d5256	0.0043127937
221	0x3d01695a	0.03159461
222	0x3cbba063	0.022903627
223	0x3c87e7d4	0.016590036
224	0x3e0352bf	0.12824534
225	0xbd8f9a19	-0.07011814
226	0x3e03b85c	0.12863296
227	0x3de734c5	0.11289362
228	0x3e23d95a	0.16000882
229	0xbd95570f	-0.07291996
230	0x3e3eed1c	0.18645138
231	0xbd8c4785	-0.06849579
232	0xbd7b1898	-0.06130275
233	0x3db3ea7f	0.08784961
234	0x3e221d36	0.15831456
235	0x3de8dcc8	0.11370236
236	0x3e4a1a50	0.197366
237	0xbe370324	-0.17872292
238	0xbdae8cd8	-0.085229576
239	0xbd2659be	-0.04061293
240	0xbd5051f3	-0.050859403
241	0xbdb7e146	-0.089785144
242	0x3bc1b5ed	0.00591158
243	0x3ca315b9	0.01990782
244	0x3d843816	0.0645601
245	0xbd983ef0	-0.074338794
246	0xbccf9a11	-0.02534202
247	0x3ae76d9a	0.0017656565
248	0xbd21884e	-0.03943663
249	0x3e20b851	0.15695311
250	0xbe04fc5f	-0.12986897
251	0x3df6b1df	0.12045645
252	0x3a46a29f	0.0007577333
253	0xbe2a353e	-0.16621873
254	0xbe10123e	-0.14069459
255	0xbd8c6446	-0.06855063

lstm2.weight_hh_l0 f4 [256, 64]
0	0xb81c7e94	-3.7311183e-05
1	0x3e478850	0.19485593
2	0x3e34f348	0.1767093
3	0x3e77095d	0.24124666
4	0x3d172da5	0.036908764
5	0xbd527312	-0.05137927
6	0xbe592a3b	-0.21207516
7	0xbc9ba260	-0.018998325
8	0xbe0d6d30	-0.13811183
9	0x3e34fdc1	0.17674924
10	0x3cab33c8	0.020898715
11	0x3e36a71b	0.17837183
12	0xbb4bc6eb	-0.0031093906
13	0x3df64da1	0.12026525
14	0x3dc02924	0.09382847
15	0xbdcd3d22	-0.10021426
16	0x3e59f973	0.21286564
17	0xbde940c3	-0.113893054
18	0xbd99302e	-0.07479893
19	0xbc0221f5	-0.007942666
20	0xbe542c43	-0.2072001
21	0xbe542149	-0.20715822
22	0x3bd583e2	0.006515966
23	0x3dfc324d	0.123142816
24	0xbe2bb7c0	-0.16769314
25	0x3d11b109	0.035569225
26	0x3d06e219	0.032930467
27	0xbde3c7e3	-0.1112211
28	0x3d934f8a	0.07192905
29	0x3e1270f3	0.14300899
30	0x3c93ac83	0.018026596
31	0x3e3facf6	0.18718323
32	0x3dcb8415	0.09937302
33	0x3db199cd	0.08671913
34	0x3d8859c8	0.066577494
35	0xbd10d2e5	-0.035357375
36	0xbdf3a627	-0.118969254
37	0x3de35d1c	0.111017436
38	0x3d83a472	0.0642785
39	0xbd16b2b2	-0.03679151
40	0xbd8412dd	-0.064489104
41	0xbc08f133	-0.008358288
42	0xbe4f09b8	-0.20218551
43	0x3dada6f1	0.08479107
44	0x3c049b3b	0.00809365
45	0x3de13723	0.109968446
46	0xbd30c3cb	-0.043155473
47	0x3c30b4dc	0.010785308
48	0x3e1d7cbc	0.15379614
49	0x3dcdb563	0.100443624
50	0x3e554503	0.20827107
51	0xbe5121b3	-0.20423011
52	0xbd482251	-0.04886085
53	0x3d183663	0.037161242
54	0x3daa988e	0.08329879
55	0x3e57ac2f	0.21061777
56	0xbbbb7010	-0.005720146
57	0x3d892286	0.06696038
58	0xbdcc50a5	-0.09976319
59	0x3e43dc3a	0.19126979
60	0xbe12380f	-0.14279197
61	0xbe1c1bcb	-0.15244977
62	0xbcb8c12c	-0.022553049
63	0xbc8db4f3	-0.017298197
64	0xbe1a50ed	-0.15069933
65	0xbe0904f9	-0.13380803
66	0xbe4f7670	-0.20260024
67	0xbdad9fb2	-0.08477725
68	0x3ba62560	0.0050703734
69	0x3c1d724d	0.009609771
70	0x3dd55967	0.10417443
71	0x3da75a0b	0.08171471
72	0x3d288a24	0.041147366
73	0xbe0609aa	-0.13089624
74	0xbe115a07	-0.14194499
75	0x3bc439f0	0.005988352
76	0x3e0cb05c	0.13739151
77	0x3db11d59	0.08648176
78	0xbc5bd6e5	-0.013417934
79	0xbe78d2b0	-0.24299121
80	0xbe1c3e4d	-0.15258141
81	0x3e071c11	0.131943
82	0x3d193074	0.037399724
83	0xbdc51ebc	-0.09625003
84	0xbdfc05e6	-0.123058125
85	0x3dd92796	0.106032535
86	0x3d9ee637	0.07758754
87	0xbc6ca325	-0.014443194
88	0x3d7052c7	0.058672693
89	0xbd08b776	-0.033378087
90	0xbd916556	-0.070994064
91	0x3c07a2bb	0.008278544
92	0x3c9c3eb2	0.019072864
93	0x3d820c8c	0.063500494
94	0xbca13b40	-0.019681573
95	0xbe0b4ed3	-0.13604288
96	0x3dacf304	0.08444789
97	0xbc8c6e9f	-0.017142592
98	0x3db1fdc6	0.086909816
99	0x3e344fe7	0.17608605
100	0x3ddcf948	0.10789734
101	0xbdf89be6	-0.1213911
102	0xbda3348a	-0.079690054
103	0xbe2a46d6	-0.16628584
104	0xbe63eac6	-0.22257528
105	0x3e4319a9	0.19052757
106	0x3e08e19a	0.1336731
107	0xbdca2a26	-0.098713204
108	0xbb62af59	-0.0034589379
109	0x3da8e588	0.082469046
110	0xbcbd68b3	-0.023121214
111	0x3a6a6c21	0.0008942504
112	0xbe02f3b2	-0.12788275
113	0x3de2063f	0.110363476
114	0xbe87ffd6	-0.26562375
115	0xbc76c03c	-0.015060481
116	0x3db2c5cb	0.08729132
117	0xbe5400ec	-0.20703477
118	0xbda3910f	-0.07986652
119	0xbdae2183	-0.085024856
120	0x3e21e400	0.15809631
121	0xbd633249	-0.055467878
122	0xbda4023e	-0.0800824
123	0xbd31aace	-0.043375783
124	0x3c26a6b2	0.010171579
125	0xbd19a053	-0.037506413
126	0x3e20e307	0.15711604
127	0xbe58a174	-0.2115534
128	0x3b6f76a2	0.0036539217
129	0xbd6d9d02	-0.058011062
130	0xbde0351e	-0.10947631
131	0xbe54d4c9	-0.20784296
132	0x3e0bd8a6	0.13656864
133	0x3c20551b	0.009785916
134	0xbc90c62d	-0.017672623
135	0x3df05f2d	0.11736903
136	0x3dd80151	0.10547126
137	0xbd58ac52	-0.052898712
138	0x3cc2ccca	0.023779292
139	0xbc7f37b2	-0.015577244
140	0x3da0f74e	0.078596696
141	0x3debee07	0.115200095
142	0x3d5ae43b	0.053440314
143	0xbdff1781	-0.12455655
144	0xbdcb8486	-0.09937386
145	0xbc06e28a	-0.008232722
146	0x3d6c2703	0.057654392
147	0xbc0a6efc	-0.008449312
148	0x3e1ee2b7	0.15516172
149	0x3e015cd2	0.12633064
150	0x3e8bc105	0.272957
151	0xbe250fb7	-0.16119276
152	0x3d593ae6	0.053034686
153	0x3e26202c	0.1622321
154	0xbd95dceb	-0.073175274
155	0xbdd1a865	-0.10237197
156	0xbb5c7f17	-0.0033645087
157	0x3e34fc2f	0.17674325
158	0x3ccfe966	0.025379848
159	0x3d07c974	0.033151105
160	0x3d148b7f	0.036265846
161	0xbdf836bd	-0.121198155
162	0xbe08ec9e	-0.13371512
163	0x3d88b52b	0.0667518
164	0x3c45aa14	0.012064476
165	0xbcc89ccc	-0.02448883
166	0xbbbef5a9	-0.005827625
167	0xbc33e298	-0.010979317
168	0xbe0548f5	-0.13016112
169	0x3d5ba68d	0.053625632
170	0xbd876ae7	-0.06612187
171	0xbc56ffbd	-0.013122496
172	0x3e424fce	0.18975756
173	0xbd71b78d	-0.05901294
174	0x3e26ca4f	0.16288112
175	0x3dc33e08	0.09533316
176	0x3d76b875	0.060234506
177	0xbe355a14	-0.17710143
178	0xbda503df	-0.08057379
179	0x3e0f81a3	0.14014296
180	0xbc81a44d	-0.015825415
181	0x3d841977	0.064501695
182	0x3dd03485	0.10166267
183	0xbe048211	-0.12940241
184	0x3ddf2343	0.108953975
185	0xbd84fa67	-0.06493073
186	0x3d7a1446	0.06105449
187	0x3d4e575e	0.05037629
188	0x3c6b30fd	0.014354941
189	0xbd341af6	-0.043971024
190	0x3e51007e	0.20410344
191	0xbb66516c	-0.0035143746
192	0x3d368173	0.044557046
193	0x3e0714dc	0.13191551
194	0xbd338c12	-0.043834753
195	0xbddcf1ef	-0.10788333
196	0xbe5fbf88	-0.21850407
197	0xbe862ec6	-0.2620756
198	0x3cfbde3a	0.030745614
199	0x3e175a3b	0.14780514
200	0x3d852fed	0.06503282
201	0x3e3a56b0	0.18197131
202	0x3c984e4d	0.018592024
203	0x3e0a7b32	0.13523558
204	0x3c091722	0.008367332
205	0x3e550020	0.20800829
206	0x3dd2031b	0.102544986
207	0xbbae04cb	-0.00531063
208	0x3e01a27e	0.12659642
209	0xbdde5378	-0.10855764
210	0xbdb211fd	-0.08694837
211	0xbddf8575	-0.10914127
212	0xbd6c1bf2	-0.05764384
213	0xbe0a1db4	-0.13487893
214	0xbe3feb6f	-0.18742155
215	0xbd406263	-0.04696883
216	0xbd5de633	-0.054174613
217	0x3ddd232a	0.10797723
218	0x3be3976d	0.0069455416
219	0xbda54776	-0.08070271
220	0xbcad930d	-0.021188283
221	0x3ddbaa4c	0.10725841
222	0xbc32e724	-0.010919366
223	0x3e6ec70d	0.2331812
224	0xbe33062d	-0.17482825
225	0x3da94627	0.082653336
226	0xbe42a998	-0.19010007
227	0xbe17d016	-0.14825472
228	0xbd3f0d0c	-0.0466433
229	0x3e10a152	0.14124039
230	0x3dac1689	0.08402736
231	0x3e2b206d	0.16711588
232	0xbd9f2390	-0.07770455
233	0x3d5b3195	0.053514082
234	0x3d573fee	0.052551202
235	0x3e5432f7	0.20722567
236	0x3c164bd8	0.009173356
237	0x3e2781ba	0.1635808
238	0xbe3b8188	-0.18311131
239	0x3dee167f	0.116253845
240	0xbd96f40b	-0.07370766
241	0x3d96d346	0.07364516
242	0x3ccf1cd2	0.025282297
243	0x3dfbcdf2	0.1229514
244	0x3d949495	0.07254902
245	0xbddc44ae	-0.10755287
246	0x3da56426	0.080757424
247	0x3e0609bc	0.13089651
248	0xbe3a199b	-0.1817383
249	0x3e16dd59	0.14732875
250	0x3db61397	0.08890455
251	0x3cfbfbf8	0.030759797
252	0x3d67e536	0.056615077
253	0xbdca4936	-0.09877245
254	0xbdf75ac8	-0.12077862
255	0xbc6c474d	-0.014421296

lstm2.bias_ih_l0 f4 [256]
0	0x3d98dcb3	0.0746397
1	0x3d80924c	0.06277904
2	0xbc8ad3f0	-0.016946763
3	0xbd5f1aef	-0.054469045
4	0x3d690877	0.05689284
5	0x3d5e1c09	0.054225955
6	0x3d79ac1a	0.060955144
7	0x3e7ec6ed	0.24880572
8	0x3c8c920d	0.017159486
9	0x3ddcdbeb	0.107841335
10	0x3c087b16	0.008330127
11	0xbdb7533f	-0.08951425
12	0x3dc81a1c	0.09770605
13	0xbc4047d5	-0.011735876
14	0x3cc84b42	0.024449948
15	0x3e82a988	0.25519967
16	0x3e183986	0.14865693
17	0x3dac2caa	0.084069565
18	0xbd9bc39a	-0.076056674
19	0x3e1bacf5	0.15202697
20	0x3d4e3908	0.050347358
21	0xbd9eb662	-0.077496305
22	0xbd288dde	-0.04115092
23	0xbcbcd755	-0.023051897
24	0xbe212b35	-0.15739138
25	0x3db30024	0.08740261
26	0x3be5665e	0.0070007285
27	0xbe422197	-0.18958126
28	0x3d93e217	0.072208576
29	0xbd359e3a	-0.04434035
30	0xbded7718	-0.11594981
31	0x3ad88724	0.0016519767
32	0x3ecdcc5f	0.40194985
33	0x3dd3a59a	0.1033432
34	0x3e822025	0.2541515
35	0x3db68229	0.08911545
36	0x3d5459c2	0.051843412
37	0xbdcb5d64	-0.09929922
38	0x3e9e95b2	0.30973583
39	0xbdccf28e	-0.10007201
40	0x3dda880c	0.1067048
41	0x3c29fcb3	0.01037519
42	0xbd8d1858	-0.06889409
43	0xbc4bca2e	-0.01243834
44	0xbd22d9dd	-0.039758552
45	0x3e1bb30b	0.15205018
46	0xbd48fc94	-0.049069002
47	0x3b9721ba	0.004612175
48	0xbc851611	-0.016245874
49	0x3d84d527	0.06485968
50	0xbdbdf936	-0.09276049
51	0xbd8c15ff	-0.06840133
52	0x3d2c4d49	0.042065892
53	0xba62a3f2	-0.00086456456
54	0xbe3839b3	-0.1799076
55	0xbd28bb2d	-0.04119413
56	0xbe13d5fd	-0.14437099
57	0xbdc1f208	-0.09469992
58	0xbdbb1e54	-0.09136644
59	0x3e01e94e	0.12686655
60	0xbd1c35fb	-0.038137417
61	0x3de31a41	0.11088992
62	0x3d1d41c1	0.038392786
63	0xbceb38f0	-0.028713673
64	0x3e46e9d4	0.19425136
65	0xbe060caa	-0.13090768
66	0x3d12e91d	0.035866845
67	0x3dd36bdd	0.10323308
68	0x3df7d53d	0.12101219
69	0xbc9e7d5c	-0.019346885
70	0xba94e28e	-0.0011359022
71	0xbde494b4	-0.11161175
72	0x3d7990f7	0.060929265
73	0x3e2ea5c2	0.17055419
74	0x3e89d8de	0.2692327
75	0x3d999708	0.0749951
76	0x3cc75e7b	0.024337044
77	0x3df02b57	0.117270164
78	0x3dd46932	0.10371627
79	0x3a58d5b9	0.0008271593
80	0x3e93b557	0.2884929
81	0x3d2cba68	0.04216996
82	0xbd3def45	-0.046370763
83	0x3e0b9676	0.13631615
84	0x3e1ebfeb	0.15502898
85	0x3df20701	0.11817742
86	0x3d73c961	0.05951822
87	0xbbece9b0	-0.007230006
88	0xbd1b3019	-0.037887666
89	0x3e37d6a6	0.17952976
90	0xbe49a7ea	-0.1969296
91	0xbb0d0ced	-0.0021522597
92	0x3d08469e	0.03327047
93	0x3d078f93	0.033095907
94	0xbdcaf0c1	-0.099092014
95	0x3e7a272e	0.24429008
96	0x3d19a836	0.037513934
97	0xbda5d07d	-0.080964066
98	0xbe2df3e4	-0.16987568
99	0x3dbb66f8	0.09150499
100	0x3e2012a2	0.15632108
101	0x3d5b8b45	0.053599615
102	0x3e6fb8ec	0.23410386
103	0x3d978f47	0.07400375
104	0x3e26f5ad	0.16304655
105	0x3e148e3e	0.14507386
106	0x3df5e44a	0.12006433
107	0x3dbe4477	0.092904024
108	0x3c939357	0.018014593
109	0x3dd11a43	0.10210087
110	0x3d7a0b37	0.06104585
111	0x3d90e5d9	0.0707509
112	0x3d83e6fa	0.0644054
113	0x3e3d88a4	0.18509156
114	0x3d97c3c5	0.07410387
115	0x3e5057b3	0.20345955
116	0x3dafc5a5	0.085826196
117	0xbd52e571	-0.051488344
118	0xbb6bcc68	-0.003597999
119	0x3e0da2a9	0.13831581
120	0x3e0cb694	0.13741523
121	0xbd0a81cf	-0.0338152
122	0x3d252a99	0.040323827
123	0x3e396642	0.18105415
124	0x3da0a219	0.07843418
125	0xbe402df5	-0.18767531
126	0xbd405c01	-0.04696274
127	0x3e467a77	0.19382654
128	0x3e1da8fb	0.15396492
129	0x3cf7bd37	0.030241592
130	0xbe2718cf	-0.16318057
131	0xbd2fe706	-0.04294493
132	0xbdd63458	-0.104592025
133	0x3d022c31	0.031780425
134	0xbdb215ff	-0.08695602
135	0xbe06ac85	-0.13151748
136	0x3d91fc25	0.07128171
137	0x3d848346	0.06470351
138	0x3c4ded39	0.012568765
139	0x3e27fee7	0.16405831
140	0x3d9479b4	0.072497755
141	0x3d07e41e	0.033176534
142	0x3d9bc0e7	0.076051526
143	0xbb01c02f	-0.0019798388
144	0xbdf18e36	-0.11794703
145	0x3d5347ad	0.051582027
146	0xbd1007e3	-0.03516377
147	0xbe13571e	-0.14388701
148	0x3dc3c579	0.09559149
149	0xbcb3cfba	-0.021949638
150	0xbe07fcb9	-0.1328
151	0xbe1146f5	-0.14187224
152	0xbd35365a	-0.044241287
153	0x3e1fcb92	0.15605
154	0xbd7db74d	-0.061942387
155	0x3d93cdc2	0.072169796
156	0x3d2726c6	0.04080846
157	0xbe0ccb88	-0.13749516
158	0xbdff3f70	-0.124632716
159	0x3cc588c9	0.024113076
160	0xbdb030f1	-0.08603085
161	0xbd7bf493	-0.06151254
162	0xbd1645d8	-0.036687702
163	0xbdd8eef0	-0.10592449
164	0xbe071da5	-0.13194902
165	0x3d2234ed	0.039601255
166	0xbde5dc7f	-0.11223697
167	0xbd5d6740	-0.054053545
168	0xbe38f944	-0.18063837
169	0xbd3b8099	-0.045776937
170	0x3dfcd42e	0.123451576
171	0x3dfc6db2	0.1232561
172	0xbdf89287	-0.12137323
173	0xbdf58b8f	-0.11989509
174	0xbc402db4	-0.0117296465
175	0x3dc07907	0.09398084
176	0xbd6b6c04	-0.05747606
177	0x3df41318	0.11917704
178	0xbe34e630	-0.17665935
179	0x3bc27e67	0.0059354785
180	0x3d2ad1a0	0.04170382
181	0x3d778e59	0.060438488
182	0x3def1f9c	0.11675951
183	0x3df7e488	0.12104136
184	0xbd3e789a	-0.046501733
185	0xbd5a22f1	-0.05325598
186	0xbd4c73f9	-0.049915288
187	0x3d01bc13	0.031673502
188	0x3cb7dc2f	0.022443859
189	0xbd17de85	-0.037077446
190	0x3c0c5a52	0.008566456
191	0x3e387046	0.18011579
192	0x3bfd2745	0.0077256286
193	0x3e0fe5fe	0.14052579
194	0xbd22b781	-0.039725784
195	0x3d92fc4f	0.0717703
196	0x3dc04407	0.09387975
197	0x3dacf5fe	0.08445357
198	0x3c656bc0	0.01400274
199	0x3eba5bf1	0.3639827
200	0x3d9f9cf4	0.07793608
201	0xbd9b8dfb	-0.0759544
202	0x3d4cdb64	0.050013915
203	0xbe6dfa74	-0.23240072
204	0x3df572ee	0.11984812
205	0x3d4eabf5	0.05045696
206	0x3c418631	0.011811779
207	0x3e6d634d	0.23182411
208	0x3e4f68a8	0.20254767
209	0xbc8d72d1	-0.017266663
210	0xbca23e31	-0.019805046
211	0xbbd574ea	-0.0065141814
212	0xbd8b2432	-0.06794013
213	0x3dc7d54f	0.09757482
214	0x3e19e813	0.15029936
215	0xbdcdbabd	-0.10045383
216	0xbdc00a6c	-0.09376988
217	0x3dd8ed9c	0.105921954
218	0xbd5a8242	-0.05334688
219	0xbdb481af	-0.08813798
220	0x3dadd4ad	0.0848783
221	0xbc0e9381	-0.00870216
222	0x3d49de5c	0.049284324
223	0xbdf87543	-0.12131741
224	0x3e846df6	0.25865144
225	0x3e3bee2e	0.18352577
226	0x3e7061a7	0.23474751
227	0x3dd458fe	0.103685364
228	0x3d25f98b	0.040521186
229	0xbd6d6d11	-0.057965342
230	0x3e72b3e2	0.23701432
231	0x3d7417cc	0.059593007
232	0x3def55f5	0.11686317
233	0x3ba09694	0.004900763
234	0x3e1517a1	0.14559795
235	0x3cdf3234	0.027245618
236	0x3dec5198	0.11539
237	0x3db85881	0.09001256
238	0xbdfd7341	-0.123754986
239	0x3d407340	0.04698491
240	0xbd6aee8f	-0.057356413
241	0x3df742c8	0.120732844
242	0x3dc41dd5	0.095760025
243	0xbbd51f76	-0.0065039946
244	0xbd73bcf4	-0.05950637
245	0xbcdf35aa	-0.027247269
246	0xbd723ca9	-0.05913988
247	0xbdb350b1	-0.08755625
248	0xbcc879f6	-0.024472218
249	0x3cb72da5	0.022360632
250	0xbd8fb4df	-0.0701692
251	0x3d92405c	0.07141182
252	0x3dda5843	0.10661366
253	0x3e5358c6	0.20639333
254	0xbe27115f	-0.1631522
255	0x3e877b62	0.2646132
