saved_model/DAP_Model_Load.pt (torch, 231010 bytes, 12 tensors)

lstm1.weight_ih_l0 f4 [256, 3]
000000 5b aa ee bd df 2b 94 bd be c3 95 3d d2 32 30 3c
       -0.116535865 -0.0723493 0.073127255 0.010754304
000010 6d 5e 48 be 2d 6f be 3d 82 c6 03 3e fd 7b 0b be
       -0.1956727 0.09298549 0.12868693 -0.13621517
000020 4f 99 87 3b 7d 64 49 3d 92 db 1f be 25 87 14 3d
       0.004138149 0.0491681 -0.15611103 0.036261696
000030 f4 5a 3b 3c ab 1b 09 3e 6e 79 f7 bd 8f f9 d1 3d
       0.011435259 0.1338946 -0.12083708 0.10252678
000040 1f 5c 72 bc 19 90 4a bd ac ad e9 3d ff db db bd
       -0.014792471 -0.04945383 0.114100784 -0.1073532
000050 97 81 d4 bd b3 33 44 bd e0 35 73 3d be 8e e2 3d
       -0.1037628 -0.047900867 0.05937755 0.11062382
000060 98 3f 8a 3d 9f 5b 9e bd 3c 26 23 bd 92 48 1d 3c
       0.06750411 -0.07732319 -0.039831385 0.009599822
000070 f3 c1 b9 3c 7f 8a d8 bd 30 01 07 3d d4 03 5e be
       0.02267549 -0.10573291 0.032960117 -0.21681148
000080 4d d4 38 3e ef 6b 8b bd b5 0b 66 3d 08 e2 bd 3d
       0.18049736 -0.06807696 0.05616351 0.09271628
000090 11 9c 8e 3c 43 ea b8 bc b6 81 10 3e aa ea fe 3c
       0.017408403 -0.022572642 0.14111981 0.031117756
0000a0 2a c2 bc 3c ab 4c 35 3e b6 40 52 bd c9 59 a6 bd
       0.023041803 0.17705028 -0.051331244 -0.08122594
0000b0 fd 9b 50 be 8e e7 05 3e bf 15 96 bc 38 e2 fc 3d
       -0.20372005 0.13076612 -0.018320916 0.12347835
0000c0 da ff a2 3c c7 73 43 3d 02 23 89 bd 8a 48 82 3a
       0.01989739 0.047717836 -0.0669613 0.0009939831
0000d0 bd 59 94 bd b0 02 e0 36 99 96 02 3d 38 6b 34 3d
       -0.07243679 6.676033e-06 0.031881902 0.044047564
0000e0 33 ba 95 bc 95 e5 d7 bd c2 9e 97 bd cb 45 5d bb
       -0.018277263 -0.10541836 -0.074033275 -0.0033763524
0000f0 03 5a 71 bd 21 28 10 bd 7a 27 04 3e d7 01 d1 bd
       -0.058923732 -0.03519452 0.12905684 -0.10205429
000100 e2 47 da bb 20 e0 5f bd 01 da de 3d 7b e9 8b bc
       -0.006661401 -0.0546571 0.10881425 -0.017079106
000110 fd b3 41 be 60 4c 77 3d b4 45 83 3c fc d8 03 be
       -0.18916316 0.06037557 0.016024448 -0.12875742
000120 8f b9 b6 bd cf 33 d7 3d a6 87 a6 3d 9e b2 8a 3d
       -0.08922111 0.105079286 0.08131342 0.0677235
000130 ad 38 ae 3d 98 d6 a4 bc 4f a9 6a 3c 2f 25 aa bd
       0.08506904 -0.020121858 0.014322593 -0.083078735
000140 02 fc a8 3d 88 5c c5 3d 3a b3 63 bd 27 b1 90 3d
       0.08251192 0.096367896 -0.055590846 0.07065039
000150 e7 6a af 3c 71 83 0e bd 91 20 c8 bb 43 85 2a 3e
       0.02141328 -0.03479332 -0.006107398 0.16652398
000160 d5 cc a2 bd 79 a4 83 3a cc 64 29 3e 4b 6d b9 bd
       -0.07949225 0.0010043524 0.16542357 -0.09054049
000170 37 0d 49 be e1 56 0a be cf 32 30 be 91 01 4b bc
       -0.19633947 -0.13509704 -0.17206882 -0.01239051
000180 25 5f 0d bd 31 83 b1 3d aa cd e4 bd 7d f9 80 3b
       -0.034514565 0.08667601 -0.1117204 0.0039359913
000190 10 fd 6d bc 96 c8 1d 3e 8d 41 4e bd f1 ee 7d bd
       -0.014525667 0.15408549 -0.050355483 -0.06199545
0001a0 3e a8 b1 bd ae 49 c4 bc 3a 22 a0 3d b4 22 39 3d
       -0.08674668 -0.023960914 0.07819028 0.04519911
0001b0 4f 6c de bd bf 8f bf bd 9d 90 26 bd 48 4a d7 3d
       -0.10860502 -0.09353589 -0.040665258 0.10512215
0001c0 65 23 79 bb 18 cf 02 3e af e1 64 3d 78 c2 a6 3d
       -0.0038015482 0.12774312 0.05587929 0.08142561
0001d0 d5 13 71 bd 72 9e 09 be d2 e9 dc bd da 99 d3 bd
       -0.058856804 -0.13439348 -0.10786785 -0.10332079
0001e0 2e 15 aa 3c 5f 28 4c bd 89 53 df bd 17 7f c7 bd
       0.020762052 -0.04984319 -0.10904605 -0.09741037
0001f0 34 1d 3c be 64 ea da 3d f8 be 19 3e 64 23 85 bd
       -0.18370515 0.10689238 0.15014255 -0.06500891
000200 a1 89 85 3d f1 0b 17 3e 8d 9c 92 3d ff 10 42 be
       0.06520391 0.14750649 0.07158766 -0.18951796
000210 54 c7 38 bc 75 8e f0 bd aa 59 ea 3d c3 21 eb bd
       -0.011277992 -0.117459215 0.11442883 -0.11481049
000220 a0 e4 3a be 41 ee 4b be 4a fd 47 3d da 43 df 3c
       -0.18251276 -0.19915105 0.04882554 0.027254034
000230 08 71 0c be fa 1e 78 bc d5 d7 89 bd 97 d0 1c bd
       -0.13714993 -0.015144104 -0.0673062 -0.038284864
000240 70 d3 0c 3b 09 16 07 3d c8 7a a0 3d 91 93 70 3d
       0.0021488331 0.03298 0.07835919 0.05873448
000250 e8 dc b1 bd 7e a0 80 bd 0c 2e ee 3b f0 d5 8c 3d
       -0.08684713 -0.062806115 0.007268673 0.06876743
000260 33 f7 7d bd e6 54 a3 bc 80 34 c6 3d 06 31 2b be
       -0.062003326 -0.019937944 0.09677982 -0.1671792
000270 fb a4 21 3c c1 8e 7c bd 24 58 9e 3c 27 65 c1 3d
       0.009865995 -0.06165958 0.019329138 0.094431214
000280 87 06 d3 bd 82 bb 21 3e 68 d1 bd 3d 17 3c 2a 3d
       -0.10303979 0.15794185 0.09268457 0.041561212
000290 6b 4c ee 3b f2 f1 25 bd 26 2b 07 be 4b b1 ea 3d
       0.0072722933 -0.04051394 -0.13200054 0.11459597
0002a0 a8 0d 08 bd 6f cb 04 3e 7e cf 95 3d 08 58 25 3e
       -0.03321615 0.12968229 0.073149666 0.16146863
0002b0 a4 ca 9b 3c b7 f2 f1 bd b4 38 40 bd 2c 2b f5 bd
       0.019017525 -0.11813872 -0.046929076 -0.11971125
0002c0 26 b3 60 3d 7b 29 8c bd 84 51 ff bc b1 5a 9a 3d
       0.05485835 -0.06843849 -0.0311668 0.07536829
0002d0 e6 98 06 be e9 7a 55 bd 3f 60 91 bc 71 97 3d 3e
       -0.13144264 -0.05211917 -0.017746089 0.18514802
0002e0 b7 84 74 bd 5c 40 b2 3c 8d 18 3c 3d 52 9b e4 3d
       -0.05969688 0.021759205 0.04592185 0.111624375
0002f0 1e f7 1a be d2 0b e1 3d 4f 8d 04 bd 1d 5f d2 3c
       -0.1513333 0.10988583 -0.032361325 0.02568012
000300 07 95 86 bd 17 dd 0c be 02 84 0e 3e aa 29 11 bd
       -0.065713935 -0.13756214 0.13917544 -0.035440125
000310 0c 10 69 be dc 26 f2 bc 5f 3f fc 3d 3b 36 d6 bd
       -0.22760028 -0.029559545 0.123167746 -0.104595624
000320 9e 1f 88 3d 8e 33 84 3b a8 c1 02 be 35 06 ad 3b
       0.066466555 0.004034466 -0.12769186 0.005280281
000330 ee 92 18 3e 12 16 8e bd a2 c1 0c bd 8a 6d 38 bd
       0.14899799 -0.06937803 -0.03436435 -0.04502634
000340 b2 f5 a4 3d 42 ed 34 3e 16 2f 63 3d 3c e5 4a bd
       0.08054675 0.17668632 0.055464827 -0.04953502
000350 f5 42 cd bd d3 93 ef 3c 59 af 32 bd 03 68 3d 3c
       -0.10022537 0.029245293 -0.043624256 0.011560443
000360 2b 6d 25 3d b7 5e 82 bd a8 3a 1a be 3e 69 41 bd
       0.040387314 -0.06365722 -0.15061438 -0.047219507
000370 e6 09 0e be 0a 02 d9 bd 28 76 e5 bc f2 85 36 be
       -0.13870963 -0.10596092 -0.028010443 -0.17824534
000380 d0 9a c1 3d 10 89 54 3c b0 ba cd 3b 34 fb ec 3d
       0.09453356 0.012972131 0.0062783584 0.11571351
000390 85 94 0a 3e 63 ec 4f 3d b6 a1 fb 3c 7e 2a 8a 3a
       0.13533218 0.050762545 0.030716758 0.0010541228
0003a0 62 aa c4 3c a5 b2 8a 3d 7f 70 e8 3d 43 d9 5d bd
       0.024007026 0.06772355 0.11349582 -0.054162275
0003b0 55 1e fa bd ca 81 19 3b e8 86 8f bd c4 67 14 3d
       -0.122128166 0.0023423308 -0.07008153 0.03623177
0003c0 53 d0 eb 3d c7 aa f9 3d 3e 1b f7 bc 02 77 82 3d
       0.11514344 0.12190776 -0.030164357 0.06370355
0003d0 5b f9 fc 3c e0 fa 93 3d 67 a0 4d 3d 31 1a 83 bc
       0.03088062 0.07225585 0.0502018 -0.0160037
0003e0 cb b3 95 3d 9d 2e 11 3d 3f 35 a9 3c e1 13 08 3d
       0.073096834 0.035444845 0.020655273 0.033222083
0003f0 3b 58 8e bd 87 43 ce bc 0a e7 6d 3d 66 20 d2 bd
       -0.069504224 -0.025178684 0.058081664 -0.10260086

lstm1.weight_hh_l0 f4 [256, 64]
000000 06 aa 0d 3e 8b 50 ef bd 25 71 95 bc e0 ea 2b 3d
       0.1383439 -0.11685284 -0.018242428 0.04197204
000010 05 f5 cb bc f0 78 d1 bd d6 52 13 3e e8 d2 a5 3d
       -0.024897108 -0.10228145 0.14387068 0.08096868
000020 ae 9a 83 3b 59 b5 5e bc 96 ee 26 3d 36 25 c7 3a
       0.004016242 -0.013593041 0.040754877 0.0015193585
000030 7d aa ba bd 88 14 da 3d a9 0d d5 bc cb 06 f9 bd
       -0.09114549 0.10648447 -0.02600749 -0.12159499
000040 4f 63 a1 3d db 2d fd 3d 06 e1 35 bc 2f 8a e7 3c
       0.0788027 0.12362262 -0.011101013 0.028264133
000050 58 ac 9d 3b 32 77 89 3d 04 6d 76 bd 8b 48 9e bd
       0.0048118047 0.06712188 -0.06016256 -0.0772868
000060 63 d7 e1 3d 56 1d a0 3c 09 20 b7 3b 93 4c e9 bd
       0.1102741 0.019545238 0.0055885357 -0.113915585
000070 e9 4d c9 bc 21 0e 1b bd 35 a5 c7 3d 8f 1c e8 bc
       -0.024573283 -0.03785527 0.097483076 -0.02833393
000080 2d eb 26 3b 0f fd 61 3d 67 30 50 3d b0 03 74 bd
       0.0025469766 0.055172976 0.05082741 -0.05957383
000090 0b 50 94 3d d4 63 2d 3d f5 f8 ff bc 84 cf c2 3d
       0.072418295 0.04233153 -0.031246642 0.09512237
0000a0 9d cb 1b 3d 5e 40 c5 bd 4d 02 0a 3d 73 65 af bc
       0.038035978 -0.09631418 0.0336936 -0.02141068
0000b0 37 08 d6 3d 80 c5 26 bd 89 a4 d7 bd 36 23 ef 3d
       0.104507856 -0.040715694 -0.105294295 0.11676638
0000c0 77 81 13 3d 18 d8 f9 bc 6e 90 bf 3b 1f 3c 10 bd
       0.03601214 -0.03049855 0.005846075 -0.035213586
0000d0 fb 0a 5a bd fd 5f 46 bc 4a 15 a3 39 f4 0b a3 3c
       -0.053233128 -0.012107846 0.00031105644 0.01990316
0000e0 f3 8d 1a be aa bf 57 bd 36 85 2e 3d e2 50 69 3d
       -0.15093212 -0.05267302 0.04260751 0.0569619
0000f0 d9 ee a0 bc e2 8a bc bc c0 c6 c9 3c 7f d1 b3 3d
       -0.019645141 -0.023015443 0.024630904 0.087801926
000100 07 62 ff 3c a9 fc f5 3d 10 f6 87 bd 33 dd 3c 3e
       0.031174673 0.12011082 -0.066387296 0.18443756
000110 16 9a e6 bd 4c 5a 54 bd 86 b5 bb 3d 58 5b 14 3d
       -0.11259858 -0.051843926 0.09165482 0.036219925
000120 7a 4a 50 bd 5f ac 0d be 70 e4 54 3d 5a 91 cb bd
       -0.050852276 -0.13835286 0.051975667 -0.09939833
000130 12 de 1f bd 1b 7d 9a 3d 91 aa bf 3d a5 10 93 3d
       -0.039030142 0.07543393 0.09358705 0.07180909
000140 6f bc ba bd 60 e4 49 bc 7f d1 59 3d ec db 2c 3d
       -0.09117972 -0.012322515 0.053178307 0.04220192
000150 3b ee 6f bd 3b 96 b3 bb f0 6e 56 3d 32 00 e4 3d
       -0.058576804 -0.0054805554 0.052351892 0.1113285
000160 5e 31 7f 3d 6a 55 8f 3d 72 fc b2 bd 12 ae 24 3d
       0.06230294 0.06998713 -0.08739556 0.04020507
000170 4b 0a 90 bd 48 16 9e bd c1 cb b3 bd 20 52 59 bd
       -0.07033213 -0.077190936 -0.08779097 -0.053056836
000180 1a 89 3d 3e 70 da c8 3b c1 a8 90 bd a4 70 cd 3c
       0.18509331 0.0061295554 -0.07063437 0.025078125
000190 9e 99 d9 bd 52 76 2a bc 75 5d 8f 3d ee 01 7b 3c
       -0.10625003 -0.010404186 0.070002474 0.015320284
0001a0 41 5a 33 bc 0a d1 da bd 76 62 cd bd af 02 e3 bd
       -0.010946811 -0.10684402 -0.100285456 -0.11084496
0001b0 bf 2d f1 bd 0e e3 15 3e 22 bc a6 3c 24 12 17 3e
       -0.117763035 0.14637396 0.02035338 0.14753014
0001c0 0f 2f d2 bd 33 9f 5c 3d 11 b1 cd 3d 0b 52 3d bd
       -0.10262882 0.05386276 0.10043538 -0.04622082
0001d0 2f 95 00 3e 2b 90 3f 3c cb 74 83 bc 22 3d f2 3d
       0.12556909 0.011692087 -0.016046902 0.118280664
0001e0 00 9b 60 bd 7f 25 39 3e 43 9f 1c 3e 8d cd 81 bc
       -0.05483532 0.1808071 0.15295129 -0.015845085
0001f0 1c a2 10 bd b4 e6 c7 bd 81 70 a2 3c 48 76 94 bd
       -0.03531085 -0.097608 0.019829037 -0.07249123
000200 92 14 82 3c cd 0f 18 bd 32 c0 65 bd fb d6 86 3d
       0.01587895 -0.037124444 -0.056091495 0.06583973
000210 35 db 78 bd 31 be 7a 3d 12 f5 a9 3d 98 b5 ad bd
       -0.060755927 0.061216537 0.082986966 -0.08481902
000220 f2 ef db 3c 38 f2 f4 3c e1 2b c2 3d f0 95 0d be
       0.026847813 0.029900655 0.094810255 -0.13826728
000230 33 ba b0 3c cd ac 08 3e 73 2c 86 bd 7e e8 8b 3d
       0.021573162 0.13347168 -0.06551447 0.06831454
000240 8d 32 6c bd de 2e 3c bc 56 19 3c bd 32 4f f9 3d
       -0.057665396 -0.011485783 -0.0459226 0.121733084
000250 d0 58 8d bd 5b db 51 3e 64 d0 eb bc a3 fd 8f bd
       -0.06901705 0.20493834 -0.028785892 -0.07030799
000260 f4 d1 86 bd 15 93 9d bd 07 27 be bc f8 af 03 bd
       -0.06583014 -0.07694069 -0.023211969 -0.03215024
000270 9e 1e f9 bc 6f 69 81 3d 3a 2c 9a bd 26 10 3e 3e
       -0.030410107 0.06318938 -0.07527967 0.18560848
000280 03 29 33 3d 1e 6e 82 3c 5f f1 11 be 7e d5 d1 bc
       0.043740284 0.015921649 -0.14252232 -0.025614496
000290 1f 1f 38 be 06 3a 12 be 16 d9 0a be af d7 33 be
       -0.17980622 -0.14279947 -0.13559374 -0.17562746
0002a0 01 27 b2 3d 4b 4e 9a 3d f8 5e 72 3c 04 7d b7 3d
       0.08698846 0.075344644 0.01479315 0.08959392
0002b0 cb 03 a5 bd 5a a2 48 3d 98 10 5d bb ae 91 21 bd
       -0.08057364 0.048982956 -0.0033731814 -0.03944557
0002c0 67 2a d0 3c 12 92 57 bc 2d f2 c9 3c 6a 22 5b 3d
       0.025410844 -0.0131573845 0.024651611 0.053499617
0002d0 d0 a1 5c 3d d1 01 23 3d f8 c1 0d 3e 60 e0 11 3e
       0.053865254 0.039796654 0.13843524 0.14245749
0002e0 a9 68 de 3c b5 e7 9e 3c 25 65 0e 3d 17 af fe 3d
       0.027149515 0.019397596 0.034764428 0.124357395
0002f0 a6 65 16 3d 93 e7 da bd ac e3 02 3d ce 5e fc 3c
       0.036718033 -0.106887005 0.031955406 0.030806925
000300 8d af 71 3d d3 63 ab 3d f3 f9 8b 3d d6 74 1c bb
       0.05900531 0.08368649 0.068347834 -0.002387335
000310 85 a9 58 3d f8 b5 d5 bd d0 1a 47 3d f8 32 7a bd
       0.05289604 -0.104350984 0.048609555 -0.061083764
000320 af 9c b0 bc d3 2d fa 3d 53 ba 28 3d 6e 6c 57 3b
       -0.021559088 0.122157715 0.041193318 0.0032871026
000330 f5 10 7a 3c 07 c4 97 3b 6d 2f 11 3e 27 1d 1f 3d
       0.015262832 0.0046315226 0.14178248 0.03884616
000340 88 91 97 bd fd 87 9d bd e5 d1 dc 3a f6 2c fc bd
       -0.07400805 -0.07691953 0.0016847221 -0.12313263
000350 63 9d 85 3d eb 59 0c 3e fd a9 c3 3d 85 2b 1d 3d
       0.0652416 0.13706176 0.09553907 0.03837158
000360 99 2a d1 3d 24 ec db bd 69 25 8e bd 86 29 1e 3d
       0.10213203 -0.107383996 -0.06940729 0.03861382
000370 c7 a3 3b 3d d6 05 cf bd 5e f8 3b 3c 41 71 9a 3d
       0.045810487 -0.10108535 0.01147279 0.07541133
000380 29 6e f5 bd f9 65 d6 bd 33 ae e3 bd 01 ae 7e bc
       -0.11983902 -0.104686685 -0.1111721 -0.015544415
000390 45 37 04 be 2d a3 a4 3d f7 a2 40 bc 69 d3 46 3d
       -0.12911709 0.08038936 -0.011757604 0.04854146
0003a0 21 21 f9 bd 0f 7f cb 3d 04 17 94 bd 86 d8 0f 3e
       -0.12164522 0.09936344 -0.072309524 0.14047441
0003b0 2e c8 ea bc 78 c0 8c 3c 91 d2 8a bd dd 51 8a 3d
       -0.028659906 0.01718162 -0.067784436 0.067538954
0003c0 cf b7 b1 3c bc c2 db 3c e9 60 b4 bd 5a 71 cf 3d
       0.021694092 0.026826255 -0.08807547 0.10129042
0003d0 07 6e 18 3e 94 c3 12 bd bd 16 57 3c 60 d6 d2 bc
       0.14885722 -0.03583105 0.01312798 -0.025736988
0003e0 84 99 26 bd d4 b6 48 3e 04 4e cd 3c 87 d1 0f be
       -0.040673748 0.19600993 0.025061615 -0.14044772
0003f0 63 d8 24 bd 07 6a 8f ba c6 0d 4f bc 87 4b 88 3d
       -0.040245425 -0.0010941633 -0.012637561 0.06655031

lstm1.bias_ih_l0 f4 [256]
000000 44 82 0a be b3 12 02 be 35 12 62 bc e6 98 00 be
       -0.13526255 -0.12702446 -0.013798286 -0.12558326
000010 d4 79 1a 3e d8 1c 01 be 39 c7 bd bc e2 57 82 3d
       0.15085536 -0.1260866 -0.023166286 0.063644186
000020 75 50 d3 bd a3 99 51 be 26 08 45 bd 83 07 22 3e
       -0.1031808 -0.20468764 -0.048103474 0.15823178
000030 14 a1 2b 3d d2 9d 84 3e f2 4d 01 bd d3 d5 0c 3e
       0.041901663 0.25901657 -0.031568475 0.13753442
000040 b5 1e cf bd c3 7c 8c 3d 4a 0e 12 be 45 e3 bf 3a
       -0.10113279 0.06859734 -0.14263263 0.0014639875
000050 ac ad b2 bc 4d bd 4c bd 40 8e da bc 98 b9 b4 3c
       -0.021811329 -0.04998522 -0.026679158 0.022061154
000060 e1 ac 83 bd c1 12 56 be da 09 de bd af 39 60 bd
       -0.064294584 -0.20905592 -0.10841723 -0.05474251
000070 88 ed e5 3d 5c 2f a3 3b d2 9b a7 bd 4d 90 fa bd
       0.11226946 0.004980011 -0.08184017 -0.122345544
000080 c8 4b 6f 3b ba ac b9 3c 33 f3 62 bd 14 03 35 3e
       0.0036513675 0.02266537 -0.055407714 0.17676955
000090 14 27 a8 3d c6 b9 29 bd 56 21 d6 bd 6f 2d 21 3e
       0.082105786 -0.041436933 -0.10455577 0.15739988
0000a0 a6 2b 8c bd 04 ee c4 3c 8d ff ee 3b e3 8c 11 bd
       -0.06844263 0.024039276 0.0072936476 -0.03553475
0000b0 c1 69 08 bc c0 01 2e bc 65 27 ea 3c bd 51 95 b9
       -0.008325995 -0.010620534 0.028583238 -0.00028480394
0000c0 b9 c7 bf bd a2 ab 6a bd 18 2f f6 3d 52 3a d9 3b
       -0.09364266 -0.057292588 0.12020701 0.006629267
0000d0 53 9d a1 bd b3 d3 5c 3d ea 79 14 bd 5c e9 85 bd
       -0.07891335 0.05391283 -0.03624908 -0.065386504
0000e0 91 bf be bd f6 eb 12 3d 64 74 96 3d 39 3d 00 3e
       -0.09313882 0.03586956 0.073464185 0.12523355
0000f0 4e 5c 04 be bb 3b f0 bd 7c 33 61 bd 8f 9e 7d bd
       -0.12925836 -0.11730143 -0.05498074 -0.06191879
000100 5d 2d b1 bc a9 cc 40 3d 19 be 85 3d 4b 08 6d 3c
       -0.021628076 0.04707018 0.06530399 0.014467309
000110 54 32 66 3e cf bc 8f bc 1e f1 e1 bd 51 f5 ff bb
       0.22480136 -0.017546086 -0.110323176 -0.0078112264
000120 1a 26 79 bd 0e 07 fc bd 3c 1a e7 3d 0a 59 b1 3d
       -0.060827352 -0.12306033 0.11284301 0.08659561
000130 21 2b f5 3d 73 b2 80 3d fd 71 6e 3d b9 2c ac 3d
       0.11971117 0.062840365 0.058214176 0.08406968
000140 fc f9 6e bd 01 bb 06 bd 77 d7 54 bd 62 1d 99 bb
       -0.058343872 -0.032893185 -0.051963296 -0.004672692
000150 0d d4 6f bd fa 14 df 3d 71 7c f9 bd 7b 68 82 3b
       -0.058551837 0.10892673 -0.121819384 0.00397974
000160 5a 06 84 bd a2 71 11 be 11 89 a3 3d 72 4b 3d 3c
       -0.06446524 -0.14203504 0.07985128 0.011553632
000170 f9 7c 07 3d 44 02 f7 3c 04 0c ff bc b3 81 01 3d
       0.033078168 0.030152448 -0.03113366 0.03161783
000180 64 c9 03 3e f0 66 17 3d 41 f2 e0 bd 31 f0 8d 3d
       0.12869793 0.036963403 -0.10983706 0.069305785
000190 a4 18 e2 3d 81 df ec bd cd 84 4a bd 1b 1b b5 3d
       0.11039856 -0.115660675 -0.049443055 0.088430606
0001a0 24 47 fb 3d 72 ba 9c bd 2f 6d ec bc 4c 40 c2 bd
       0.12269428 -0.07652749 -0.028860657 -0.0948492
0001b0 4d 18 b4 bd e3 44 7a 3d 5f cc b9 bd 8d 58 a6 3d
       -0.087936975 0.06110085 -0.09072184 0.081223585
0001c0 b4 2d 57 bb 2a 0e 03 3d 03 26 67 bd 7f ac a2 3d
       -0.0032833638 0.03199593 -0.056432735 0.07943057
0001d0 d1 52 d5 3c 52 45 fd bc 35 d3 54 bd 1f ce 7e be
       0.026040467 -0.030916844 -0.051959235 -0.24883316
0001e0 64 25 31 3d 54 b8 e4 bd eb 59 1b 3e 5f 2b a8 3d
       0.04324855 -0.1116797 0.1517102 0.082113974
0001f0 27 57 b7 3d 25 7d f0 bd 78 24 58 3d c8 2c b6 3d
       0.0895217 -0.117426194 0.052769154 0.0889526
000200 82 3e 82 bd e1 61 41 3d bd 48 5e 3d 05 b4 0b be
       -0.06359579 0.047212485 0.054268587 -0.13642891
000210 83 94 14 3e a3 28 58 bc e4 bc 98 3d cc fa a7 bd
       0.14509778 -0.013193282 0.07457903 -0.082021326
000220 4e 50 8d 3b 5e 05 02 3e 84 11 4d 3d 78 15 7b 3c
       0.0043125516 0.1269736 0.050065532 0.015324943
000230 20 15 1d 3d dd 2c 31 be 21 28 40 3d 3c 1a f6 bd
       0.038350224 -0.1730227 0.04691327 -0.120167226
000240 c7 a1 09 be 22 21 1a 3e af 35 98 bd b3 a5 52 be
       -0.1344062 0.15051702 -0.07432114 -0.20571022
000250 38 24 51 be 30 e7 39 be 96 9e 00 3e 9e 57 fb 3d
       -0.20423973 -0.18154597 0.12560496 0.12272571
000260 19 1e 44 3e 36 af 17 3e d6 1a 93 3d c3 57 46 bc
       0.19152106 0.14812931 0.07182853 -0.012105885
000270 ac 88 29 3d 4f 75 f2 bd ea 13 5f 3d d9 a4 98 bb
       0.041390106 -0.11838781 0.05446235 -0.0046583232
000280 05 61 59 bd fe 36 4d bd 17 ea 40 3e 09 62 21 be
       -0.05307104 -0.050101273 0.18839298 -0.15760054
000290 44 a3 9c bb b1 e5 64 3d d7 49 6d 3e b0 79 38 3e
       -0.004780205 0.055883113 0.23172699 0.1801517
0002a0 cd bd 78 bc 7a 13 3a 3d 56 38 b4 bd ed 5a 94 3d
       -0.015181971 0.04542873 -0.08799808 0.07243905
0002b0 24 3c cf 3c 0f 03 bb bc 0b 93 8c bc da 27 6e bd
       0.025297232 -0.022828607 -0.01715996 -0.058143474
0002c0 be df 1a be e7 6e 79 3c e8 5f 2f be 09 0c 64 3e
       -0.15124413 0.015224195 -0.17126429 0.22270216
0002d0 6b d3 54 bd b7 bf 91 3d a5 a1 98 3d 9c c9 8a 3d
       -0.051959436 0.07116645 0.07452706 0.06776735
0002e0 14 ce bf 3d 53 44 98 3d 3f 88 ec bd aa 0e cf bd
       0.09365478 0.07434907 -0.115494244 -0.10110219
0002f0 ba 0a 9f 3d 40 ba 09 3d 68 d4 97 bc 45 14 3a 3e
       0.07765718 0.033624887 -0.0185339 0.18171795
000300 09 8b 3e bd 89 a2 c1 bc bb be 9e 3d 1d e1 a2 bc
       -0.046519313 -0.023637073 0.07751223 -0.019882733
000310 c4 89 bb 3d ee 61 2d bc f4 3c b3 bd 2d de 06 be
       0.09157136 -0.01058243 -0.0875186 -0.13170691
000320 f2 44 89 bd 89 08 75 bd 1e 8e 2a 3d b1 9b 80 bd
       -0.067026034 -0.059822593 0.04163944 -0.06279696
000330 f0 41 68 bd 99 3e 65 3d 92 c6 7e 3d e7 cf 66 3d
       -0.056703508 0.0559679 0.06220109 0.056350615
000340 fe f8 4b bd 81 a7 4e bd 59 b7 3e 3c e1 01 13 3e
       -0.049798004 -0.050452713 0.011640393 0.14356185
000350 5c b9 3c bb e5 93 f9 3d d1 43 b3 3d cc 72 34 3e
       -0.0028797006 0.12186412 0.08753169 0.17621917
000360 7a c0 4d 3d fe 6c 0c be df 29 50 bd 9e 85 51 3d
       0.050232388 -0.13713452 -0.05082118 0.051152818
000370 a2 19 17 3d 5d e3 56 bd 38 56 8c ba 8c 41 1f be
       0.03688968 -0.052462924 -0.0010706848 -0.15552348
000380 b2 0a fd 3c 04 ff b0 bd d4 82 fe b9 50 86 2a 3d
       0.030888889 -0.0864239 -0.0004854413 0.041631997
000390 aa dd 38 3e d0 78 23 3d 1a d8 8d 3d 04 74 07 3e
       0.18053308 0.039910138 0.06925984 0.1322785
0003a0 46 44 4f bd 5a 22 17 3d cf 86 99 3d a9 5d 30 bd
       -0.05060222 0.036897995 0.07496416 -0.04305807
0003b0 21 b7 32 39 a8 84 10 3c 19 0a 02 bd 05 d8 5e 3e
       0.00017043624 0.00882069 -0.03174791 0.21762092
0003c0 08 79 c9 bb 7d fb 7f bd 17 17 ad bd 56 47 ac 3d
       -0.0061484613 -0.062495697 -0.0845167 0.08412044
0003d0 c6 9a bc bd df d0 e5 3d a6 14 ee bd e0 30 27 3d
       -0.09209208 0.112214796 -0.11625032 0.040818095
0003e0 8d df a3 bd fe 8d 85 3c 8b fd 39 3e 87 3b 39 3c
       -0.08001623 0.016303059 0.18163125 0.011305696
0003f0 a0 16 a9 3d 3e fb df bc 46 02 11 3e e0 ca 3a 3e
       0.082562685 -0.027341481 0.14161023 0.18241453

lstm1.bias_hh_l0 f4 [256]
000000 20 5d 86 bd ed c2 d8 bd 8b b0 0d be ab 0c 89 bc
       -0.06560731 -0.10584054 -0.13836877 -0.016729673
000010 45 4e dc 3c dd e7 36 be 36 83 b3 bd eb 95 e4 bb
       0.02689279 -0.17861886 -0.08765261 -0.0069758794
000020 2f 40 41 3c d9 2b ed 3b c2 1f 96 bd b0 53 00 3e
       0.011795088 0.007237893 -0.07330276 0.12531924
000030 fe e9 86 bd 32 fc db 3d da 0f f2 bd 54 7a 66 3c
       -0.06587599 0.10741462 -0.1181943 0.014067251
000040 9e b0 96 3d 80 57 87 bd bb bd ad bd aa 0d 8e bd
       0.07357906 -0.06608486 -0.08483454 -0.069362
000050 37 33 c0 3d da cc 67 3d 58 e0 99 bc 1f 68 07 3b
       0.093847685 0.056591846 -0.018783733 0.0020661426
000060 50 93 86 bc f6 2d 0c be 07 fb 98 bd 6f bd e2 bd
       -0.016427666 -0.13689408 -0.07469755 -0.11071288
000070 a6 42 46 3d 34 fa bc bb b4 ba 07 bd 37 dd 03 be
       0.048403405 -0.005767131 -0.03313704 -0.12877356
000080 ad c2 f4 bd 1f 9f f4 bd 4c c4 da bd b9 87 d8 3c
       -0.11951194 -0.119444124 -0.10681972 0.026431905
000090 ea 2d 05 3c ce 3e ee bd ff 9c c9 bd 7a 3e 9f 3c
       0.008128623 -0.11633073 -0.09844398 0.01943897
0000a0 be 87 99 bd 89 62 7d bd 64 83 1a 3e 2f dc 17 be
       -0.07496594 -0.06186155 0.15089184 -0.14830087
0000b0 8c 13 72 bc 21 d8 37 be 2b 1b 94 3c 2a c8 03 3b
       -0.014775168 -0.1795354 0.018079361 0.002010832
0000c0 70 e2 fc 3d 56 71 4f be 9f bd e2 bd 43 cf ea bd
       0.12347877 -0.20258078 -0.110713236 -0.11465313
0000d0 3d 11 c7 bd ba f2 82 bd 57 ed 90 bd 9d 66 72 bd
       -0.09720085 -0.06393953 -0.07076519 -0.05917989
0000e0 76 78 51 bd 7a f9 05 be df c3 a6 3d 8a 56 30 3d
       -0.05114027 -0.13083449 0.08142828 0.04305128
0000f0 90 bc 87 3d f0 a2 04 3c 34 fe 19 be 36 f4 a8 bc
       0.06627762 0.008095488 -0.15038377 -0.020624261
000100 87 4e a8 bd 8d 88 ca bd 30 b1 68 3c 35 1a e5 bd
       -0.08218103 -0.09889326 0.014202401 -0.11186639
000110 b9 71 53 3e d7 88 2e bd 56 d9 42 bd 31 2f 44 bd
       0.2064885 -0.04261097 -0.04757055 -0.047896568
000120 50 59 4d be 18 66 19 be e5 30 f1 bd 09 f2 36 bd
       -0.20053601 -0.14980352 -0.11776904 -0.044664416
000130 39 d4 47 bb fc 46 20 3e 79 72 28 bb 1c 81 e0 3d
       -0.0030491485 0.15652078 -0.0025702997 0.10962126
000140 43 97 4d bd 78 6f 2e 3d 0d d9 43 3d 3e 60 7f bd
       -0.050193083 0.042586774 0.047814418 -0.062347643
000150 3b ef ed bd a9 77 2e 3e 43 06 6c 3d 2c 3e db bd
       -0.11617895 0.17037834 0.05762316 -0.10705218
000160 93 43 b2 3d f0 bd 4c 3d ff ba dc bd f1 8a 99 bd
       0.08704295 0.049985826 -0.10777854 -0.07497204
000170 f2 48 76 bd 22 92 14 be 6d 95 b4 3b 0c b9 be bd
       -0.06012816 -0.1450887 0.005510977 -0.09312639
000180 58 d7 c3 bd de be c0 3b 72 65 03 be cd aa db 3c
       -0.09562558 0.005882128 -0.12831667 0.026814843
000190 14 9a 8a 3d 22 ab 53 3c 20 ae 83 bd 0c 61 cc 3d
       0.06767669 0.012919219 -0.06429696 0.09979448
0001a0 ce b2 39 3d bb 6e 2c 3d 8d 8b 85 bd f2 87 08 3e
       0.045336537 0.04209779 -0.06520758 0.13333109
0001b0 17 eb 09 be e4 8f cc bd a3 45 27 be d1 64 e3 3d
       -0.13468586 -0.099883825 -0.16335158 0.111032136
0001c0 4f d3 09 be f9 15 51 3d 39 b4 04 3e 72 3d da bd
       -0.13459514 0.051046345 0.12959374 -0.10656251
0001d0 23 ca 47 bd 37 00 ed bc 34 b0 2b 3d db db 3c be
       -0.048776757 -0.028930767 0.041916087 -0.18443243
0001e0 33 ea 91 bd 27 71 6c bd 04 c1 24 3e 1f 8c 9c 3b
       -0.07124748 -0.057725098 0.16089255 0.004777446
0001f0 d0 e3 c4 bb d5 d0 c9 bd a1 fa ee 3c 54 0f 24 3e
       -0.0060086027 -0.09854285 0.029172244 0.16021472
000200 6d 76 ea bd fc f8 44 3d 1d 48 0d bc 6d 3a ff bd
       -0.11448369 0.048089013 -0.00862315 -0.12462316
000210 c4 54 4f 3e a3 b3 aa bd 1c d9 28 bd 6e 58 b6 bd
       0.2024718 -0.08335044 -0.041222677 -0.089035854
000220 28 75 aa bd e3 79 ce 3b bf 90 30 be 54 ab 82 3e
       -0.08323127 0.006301151 -0.17242716 0.25521338
000230 2e cf 82 bd d9 e9 5a be dc d8 b2 3d 5b f0 64 bd
       -0.06387173 -0.21378268 0.08732769 -0.055893283
000240 1c c8 04 be 52 84 d9 3d ea a4 49 be 93 85 a9 bd
       -0.1296696 0.10620941 -0.19691816 -0.082774304
000250 a8 20 2e 3d 30 e8 26 be f8 4b 02 3e 30 64 10 3e
       0.042511612 -0.1629951 0.12724292 0.14100718
000260 72 c8 0c 3c 28 4b 41 3d 28 3e 7f 3d 2f 18 4e 3d
       0.008592712 0.047190815 0.062315136 0.050316032
000270 33 c1 45 be d5 22 6c be a8 70 77 3d d7 fc 51 bd
       -0.19311981 -0.23060162 0.06041017 -0.051266517
000280 05 6e 7f bd 51 3b 2a be 22 37 70 bd 99 22 35 be
       -0.062360782 -0.1662419 -0.05864633 -0.17688979
000290 3b a1 5f 3d c8 77 15 3e df 44 d2 3b d9 d9 0e 3e
       0.05459712 0.14596474 0.0064169015 0.1395029
0002a0 69 a0 31 3e c2 e6 1f 3d 0b 3a 6a be 7d 17 7d bd
       0.17346348 0.039038427 -0.22873704 -0.06178998
0002b0 aa 91 c5 3d 69 aa 0d be dc b1 00 3e bb 84 7c bd
       0.09646924 -0.13834538 0.12567848 -0.06165002
0002c0 c7 38 5f be 87 fc 3f be a7 f2 c8 bd a0 39 40 3d
       -0.21799003 -0.18748675 -0.09811907 0.046929955
0002d0 f3 95 15 bd c5 27 ba 3d 86 2c fb 3d f3 ff 90 3d
       -0.036519956 0.09089617 0.122643515 0.070800684
0002e0 0b e7 4a 3b 8b 77 81 3c b6 0f 5b bd 9a d6 01 be
       0.0030960466 0.015804073 -0.05348178 -0.1267952
0002f0 ae 7d 5f 3e 1b a9 d8 3b b2 89 75 be 54 1f ef 3d
       0.21825287 0.006611956 -0.23978308 0.11675897
000300 e6 fb 06 be bb 43 7d 3d f8 89 e5 bc e0 27 85 3d
       -0.13182029 0.06183217 -0.02801989 0.06501746
000310 3a ac b6 b9 67 7f ce 3d 41 0e 12 3c f9 0e 81 bd
       -0.00034842064 0.10082894 0.008914531 -0.06301684
000320 91 89 ea bd 82 64 8f 39 80 ae df 3d a8 63 3f bd
       -0.1145202 0.0002734997 0.10921955 -0.0467259
000330 42 68 ee 3d f6 19 3e 3e 7a 9f bc 3d fb 57 49 3e
       0.11640979 0.18564591 0.09210105 0.19662468
000340 d0 d3 1d bd 65 c4 f8 bc bf 1b b8 3c 61 92 0c 3e
       -0.03853208 -0.030367086 0.022474168 0.13727714
000350 73 24 29 3e 71 ce 48 bd c3 fe c4 3d ce 70 27 3e
       0.1651781 -0.049025003 0.096189044 0.16351625
000360 64 80 14 3e 37 19 2d be 72 9f ae bd 6f c3 ac bd
       0.14502102 -0.1690415 -0.085265055 -0.084357135
000370 5b 1c e1 bd fa e8 43 bd 8e 4c 4a be a8 ef 27 be
       -0.109917365 -0.047829606 -0.19755766 -0.16400015
000380 37 79 8a bd af 40 86 bd 0a 73 ef 3c ad bf 4a bd
       -0.06761401 -0.06555306 0.02922966 -0.049499203
000390 08 56 9f bc 3e d6 83 bd c4 b0 f5 3d dc 50 0a 3e
       -0.019450203 -0.06437348 0.11996606 0.13507408
0003a0 b9 1c b8 3c 6e b9 5b bd 93 93 98 bd 8b 31 d6 bd
       0.022474634 -0.053643636 -0.074500225 -0.10458668
0003b0 3f c4 3b 3d e4 17 c5 3b d1 9b 17 bd 7d d4 9c bc
       0.04584145 0.006014811 -0.037013832 -0.019144291
0003c0 6f 3b 23 3e 45 12 94 bd f2 ab 07 3d d6 ab 99 3d
       0.15940641 -0.07230047 0.033122964 0.07503478
0003d0 cb c6 3d 3d a2 59 6a 3d ea fe bd bd 26 4a 80 3d
       0.046332162 0.057214387 -0.092771366 0.06264143
0003e0 bb f0 81 3d 98 06 25 bd 89 b3 29 3c 99 7f a9 bd
       0.06344744 -0.04028949 0.010357746 -0.082762904
0003f0 cd e0 51 bd 07 fd 04 be 49 f9 f7 3c ab ca 44 bd
       -0.051239777 -0.12987147 0.030270236 -0.04804484

lstm2.weight_ih_l0 f4 [256, 64]
000000 a8 78 be bd c0 36 2f 3e d4 d2 06 3c e1 b5 14 3e
       -0.09300357 0.17110729 0.008228976 0.14522506
000010 59 97 34 3d f7 10 6f 3d 10 36 f2 3c a8 f7 51 3e
       0.04408965 0.05836579 0.029566795 0.2050463
000020 cf 7e aa 3b 3e e3 03 be 3f 9e 94 be 24 ed c1 3d
       0.005203105 -0.12879655 -0.29026982 0.09469059
000030 fc 64 c9 bb 2c 75 25 bd b9 f2 38 3e bd 3d 7f 3d
       -0.0061460715 -0.040394947 0.18061341 0.062314738
000040 13 d0 cb 3b ac f1 6d 3e f4 28 bb bd f3 d0 20 be
       0.0062198727 0.23236722 -0.091386706 -0.15704708
000050 b0 bc 39 bc 5a 2e 7f be 12 bb dd 3c 66 db 46 3d
       -0.0113364905 -0.24920025 0.027066741 0.04854908
000060 62 75 1d 3d 28 f5 4b bd 9c c8 01 3e 8e 53 26 bb
       0.038442023 -0.049794346 0.12674183 -0.0025379392
000070 6a ec 8d bd 59 27 0f 3d 77 5d 7a 3d 87 b5 bd bd
       -0.06929858 0.034949634 0.06112429 -0.09263139
000080 20 13 32 3e f9 34 77 bd 40 37 cb 3d cf b1 a1 bb
       0.17390108 -0.060353253 0.099226475 -0.0049345265
000090 1b cb 8a 3d 9a 10 22 bd 5e 07 71 3b 8e 1a b6 3e
       0.067770205 -0.039566614 0.0036778073 0.35567135
0000a0 b8 fd 75 3d ec ad f2 3d bc 75 2d 3d 19 e7 14 3c
       0.06005642 0.11849579 0.04234861 0.009088301
0000b0 dc ae dc 3d 93 35 68 be 6d db 03 bd 7c 1f 64 3e
       0.10775539 -0.22676687 -0.032191683 0.22277635
0000c0 5e 61 e4 bc dc c9 4a 3d 76 02 99 bd ed 80 a2 bd
       -0.02787846 0.049508914 -0.074711725 -0.07934747
0000d0 a9 e2 03 3d c5 fa ba 3d a9 8d e9 bd f0 c5 b5 bd
       0.03219858 0.09129862 -0.11403973 -0.08875644
0000e0 39 01 1b be 6f ce 18 3d 05 8a 13 3e 14 60 c2 3d
       -0.15137185 0.037306245 0.14408119 0.09490982
0000f0 29 f4 88 bc cc fe ce bd 72 b4 c2 bd a2 6e b2 bd
       -0.016717987 -0.101071924 -0.095070735 -0.08712508
000100 e4 31 22 bb 24 8d e2 3c 06 8b f2 bd 20 c7 7e bc
       -0.0024748975 0.027655192 -0.11842923 -0.015550405
000110 50 d7 1e 3e a7 38 03 be 34 af a2 bd 7c e8 a5 3d
       0.15511823 -0.1281458 -0.079435736 0.081009835
000120 8e 87 03 3e 74 82 cf 3d c7 b0 66 be 26 f6 18 bd
       0.12844679 0.10132304 -0.22528373 -0.03734412
000130 34 4b 2c 3e 7f df 89 bd fa 35 da 3d b5 26 e1 bd
       0.16825563 -0.067320816 0.106548265 -0.10993711
000140 9e b2 e5 ba b2 18 15 3e 02 2b 23 be 39 87 64 bd
       -0.0017524546 0.14560202 -0.15934375 -0.05579302
000150 59 fc cd bd 6d af 33 be 46 30 24 3e 63 9e 56 3e
       -0.10057897 -0.17547388 0.1603404 0.20958857
000160 22 f6 eb bd 37 3d 1a 3e d1 f0 33 3e 59 9f b3 3b
       -0.115215555 0.15062414 0.17572333 0.005481642
000170 b6 49 34 be b9 7b 97 bd 12 99 a0 bd ec 94 e3 bd
       -0.17606243 -0.07396645 -0.07841696 -0.11112389
000180 ba a5 83 3b 92 5a c4 3d 71 85 07 bd d1 75 4f 3d
       0.004017559 0.095875874 -0.033086244 0.050649468
000190 fb 7a d9 3d ad 4d 27 3e f1 03 8a 3d f3 f0 6e 3d
       0.1061916 0.16338225 0.06739033 0.058335256
0001a0 27 09 45 3c be f9 3d 3e 1e 47 18 be c0 01 67 3c
       0.012026108 0.185523 -0.14870879 0.014099538
0001b0 0d 15 64 bd 98 ad 1e be 75 1d 88 bc ef 09 0e 3d
       -0.055684138 -0.15495908 -0.016615609 0.034677442
0001c0 bd 79 74 bc 0f 24 b6 bc 29 c5 9a bd 81 4d 7e bc
       -0.014921603 -0.022233991 -0.075571366 -0.015521408
0001d0 d7 3e 19 bd c1 84 dd 3d 25 05 a1 bc 0b 58 14 bd
       -0.037413444 0.108163364 -0.019655773 -0.036216777
0001e0 d7 d7 f4 bc 6f 4b 05 bd 33 f7 89 3c 0f 01 e7 bb
       -0.029888077 -0.032542642 0.016841507 -0.0070496867
0001f0 36 74 a4 3d 55 c0 36 bd d3 f0 8d bd 1b c1 8f 3d
       0.08029978 -0.044617016 -0.06930699 0.07019254
000200 0e a6 f6 3d 45 8f 3a 3c bc dd 20 bd f7 8a f6 3c
       0.12043391 0.011386697 -0.039273962 0.03009556
000210 59 36 8e bd 34 1e e8 3d 66 52 a9 bd 11 34 19 bd
       -0.0694396 0.11333886 -0.082676694 -0.03740317
000220 70 cd 5b ba 11 10 de 3d d8 ca ea bd ae f0 10 be
       -0.00083847996 0.10842908 -0.114644706 -0.14154312
000230 97 47 c7 bd b9 9a 39 3e bc 91 d3 3d ec eb 5c bd
       -0.097304516 0.18125428 0.10330531 -0.05393593
000240 88 58 52 3d 37 48 27 be 12 1d f4 3d 6c a5 71 3c
       0.05135396 -0.16336142 0.11919607 0.014748912
000250 29 ac cf 3d 56 a4 9a 3d cc 42 ae 3d 1b 9a 9c bd
       0.10140259 0.07550876 0.08508834 -0.07646581
000260 6e 36 5f bc 9b 70 d1 bd 18 10 48 3d 58 be 64 3d
       -0.013623817 -0.10226556 0.048843473 0.05584559
000270 2c b8 eb bd c3 8f ea bd 5c 32 15 3e 8b 0c e0 bc
       -0.11509737 -0.114532016 0.14569992 -0.027349731
000280 a4 c9 a5 3d 92 ad 07 be f4 8f 18 bc 9b ad cd 3c
       0.080951005 -0.13249806 -0.009311665 0.025107196
000290 7c 9b 4e bd 9f 81 52 3c 06 5b ca 3d d1 8a bc bd
       -0.05044125 0.012848287 0.098806426 -0.09206165
0002a0 a5 e1 17 bd 2a 99 b0 bd 07 bd 74 bc 83 72 d0 3d
       -0.037080426 -0.08622964 -0.014937646 0.101780914
0002b0 4f d9 c7 bd 47 2f fb bc 92 5f 12 bd c6 dc 23 bd
       -0.09758245 -0.030662192 -0.035735674 -0.040005468
0002c0 43 48 81 3d 29 e5 c1 3d 59 ae ae bd bc 96 f2 3c
       0.06312611 0.09467537 -0.08529348 0.029612891
0002d0 be d7 5c bc 31 99 ab bd d7 6e 50 bd 9d e2 0c be
       -0.013479171 -0.08378828 -0.050886955 -0.13758321
0002e0 be 31 44 3d 90 9a 57 3c a0 87 be bd 35 dc d9 3c
       0.047899 0.013159409 -0.09303212 0.02659426
0002f0 c4 35 3f 3d 36 32 18 3d e9 aa 0e bd 26 3d e4 3d
       0.046682134 0.03715726 -0.03483096 0.11144476
000300 1e 7e 16 3d a1 53 4c 3d 78 1c 02 bd e1 b1 12 3d
       0.03674137 0.049884442 -0.03176543 0.03581417
000310 6d de 22 3d 32 88 9b bc 63 b1 2a be 97 46 38 bd
       0.039762903 -0.018985841 -0.1666923 -0.044989195
000320 76 b9 5c 3e a5 9e 3c bd 66 b3 47 be 33 4a 90 bd
       0.21555123 -0.046049733 -0.19502029 -0.070454024
000330 68 8b 4a bd 98 7e 92 bc 31 45 b0 3d d9 0e b1 bc
       -0.049449354 -0.01788263 0.08606947 -0.021613525
000340 56 48 ec bd f2 39 05 3e f3 ec 3e 3b fb 68 0f bd
       -0.115372345 0.13010386 0.0029132932 -0.035012227
000350 44 e4 b7 3d 14 02 8e be 98 01 f9 3d 81 28 8e 3d
       0.08979085 -0.2773596 0.12158507 0.06941319
000360 70 a6 38 be 0c f0 a4 bd 10 5c c0 3d 1b cd 74 3d
       -0.18032241 -0.08053598 0.093925595 0.059765916
000370 68 33 35 3d 68 aa f3 bd 91 62 ba bd 30 ed 0a bc
       0.044238478 -0.11897737 -0.09100831 -0.0084794015
000380 fe f4 1f bd ea e6 f0 3d 0e 6a f5 3d c1 00 f0 bd
       -0.039052002 0.11762793 0.11983119 -0.11718894
000390 cd 95 5d 3e df b3 f1 3d cd e0 e8 bc 73 a4 82 3e
       0.21639176 0.11801886 -0.028427506 0.2551609
0003a0 6a ae e7 bc 52 77 4e 3e 4f e1 8b 3c 3b 09 b9 3c
       -0.02828141 0.20162705 0.017075209 0.02258741
0003b0 a2 72 81 3c 69 58 72 be e3 63 1d 3e 84 71 21 3d
       0.015801731 -0.23666538 0.15370135 0.039414898
0003c0 c3 ba e2 bd 42 5a 8c bd 1c ad 5e bd 6b 61 00 be
       -0.11070778 -0.06853153 -0.05436431 -0.12537162
0003d0 68 5c 21 be 12 ca 03 3d 09 2a 63 3d 4f 4f f0 bd
       -0.15757906 0.03217513 0.05546001 -0.11733877
0003e0 99 95 70 3d 3c e5 6f bd 54 90 29 3d 1e c0 43 3d
       0.058736417 -0.058568224 0.041397408 0.04779064
0003f0 48 1f 97 bd 9e 9a 4a bd a3 bd bb bd 0e 05 bb 3d
       -0.07379013 -0.04946386 -0.0916703 0.091318235

lstm2.weight_hh_l0 f4 [256, 64]
000000 f4 e0 05 be 4f 55 0d 3e bc 66 1d 3e 91 df 2f bd
       -0.13074094 0.13802074 0.15371221 -0.04293782
000010 a0 59 5c 3e 90 7a f6 3d 43 0f 96 bd 9a d9 64 3d
       0.21518564 0.12035096 -0.0732713 0.055871584
000020 ef fc 66 bd 06 bb fe bd 5c 5c ea 3c a6 0e 2f 3e
       -0.05639356 -0.12438016 0.028608494 0.17095432
000030 d6 e2 06 bd 18 9a 8b 3d 11 23 a1 bc c6 41 a0 bd
       -0.03293117 0.068165004 -0.019670041 -0.07825045
000040 0b be 08 3e 5e 4a 0a bb 04 60 c2 3d 04 6a ea bd
       0.13353746 -0.0021101455 0.0949097 -0.11446002
000050 2d 09 7a bd 3d 48 5b 3e 9a 6a a0 bc 76 c5 cc bd
       -0.061043907 0.21414275 -0.019582082 -0.099986
000060 5c 99 9c 3e e5 f9 84 3e 99 d9 b0 bd 6b a9 ab bd
       0.30585754 0.25971904 -0.086352535 -0.08381923
000070 50 9f a0 bc 79 b3 cc 3c 9b fe de bd b9 5c 2b bc
       -0.019607216 0.024987923 -0.10888406 -0.0104591185
000080 5d fd 16 bc 8d 0e 3f be 5f 57 7f bd 7e 66 bf bc
       -0.00921568 -0.18657894 -0.062339183 -0.023364302
000090 60 1b 08 bc 7e 5e 58 3c 44 1b 69 bd a2 3a eb 3d
       -0.008307308 0.013206122 -0.05691077 0.11485793
0000a0 c0 7e e9 bd 7b 8b ae bc b4 0a 54 bc 68 16 cc bd
       -0.11401129 -0.021306744 -0.012942005 -0.09965211
0000b0 31 75 68 3d 9b 4e 37 3e 1f 25 84 3d c2 8f 3a be
       0.056752387 0.1790108 0.06452393 -0.18218902
0000c0 36 89 4e 3d 57 78 4f be 79 a1 8a 3d 56 e7 81 3d
       0.050423823 -0.2026075 0.0676908 0.06342952
0000d0 66 9a 6f bc 22 d5 ac bd 60 01 e4 3c 21 48 f2 bd
       -0.014624214 -0.08439089 0.027832687 -0.11830164
0000e0 f6 95 98 3d 75 7b a4 3d 3a 11 17 bd 6e eb 01 3d
       0.07450478 0.0803136 -0.036881663 0.031718664
0000f0 5a 3e 22 3e 46 fb a6 bd c7 fa 9b bc f0 82 49 be
       0.15844098 -0.08153395 -0.019040478 -0.19678855
000100 47 1a 00 3d b8 e4 18 3d dd 09 36 be f9 51 66 3d
       0.03127506 0.0373275 -0.177772 0.05623052
000110 05 3d f4 3d 56 06 d8 bd 0d 41 ac 3d 02 ea 0a 3e
       0.11925701 -0.105480835 0.08410845 0.1356583
000120 db d0 06 bc f2 cf b6 bd 49 1b cb bc 04 3e 2f 3e
       -0.008228506 -0.08926381 -0.024793284 0.17113501
000130 b4 8f ac 3d 35 0c d7 3c 99 56 65 bc cb d7 fb bc
       0.08425847 0.026250938 -0.013997697 -0.030742547
000140 01 be 7e bb fd 26 0a 3d ff 3b 58 be a9 81 11 3d
       -0.0038870575 0.03372859 -0.21116637 0.035524044
000150 f6 08 70 3d 95 2e ba 3d 7c 13 fb bb f1 ba a4 bd
       0.058602296 0.09090916 -0.007662235 -0.08043469
000160 2b b5 d0 bc ae 48 8f 3b d6 2a e4 bd e4 69 5a 3d
       -0.025477013 0.0043726778 -0.11140983 0.05332364
000170 da 15 a7 bd f2 67 67 3c 58 d6 1d be d4 3c cc bd
       -0.08158465 0.014123904 -0.15413797 -0.099725395
000180 b7 39 e3 3a 7d 7a 8b bd 05 23 af 3d f1 51 1e 3e
       0.0017335926 -0.06810472 0.08551601 0.15460946
000190 70 c3 dc bd 95 68 01 3d 5b e5 e2 3d 13 b7 f5 3d
       -0.10779464 0.031593878 0.11078902 0.11997809
0001a0 f1 a3 85 3d 25 23 8b bd ee bf 98 bd 2a d4 21 be
       0.0652541 -0.06793813 -0.07458483 -0.1580359
0001b0 82 5e a6 3d 38 49 04 3d 37 4c 9a 3d 58 20 57 bd
       0.08123495 0.03229639 0.07534068 -0.05252108
0001c0 b5 0e d2 bd 36 eb 78 3d 86 73 7c bd 24 47 50 bd
       -0.102567114 0.06077119 -0.06163361 -0.050849095
0001d0 37 0a 72 3c 77 04 0c bd f4 27 ee 3c 01 4b 3b bd
       0.014772943 -0.034183946 0.029071786 -0.045725826
0001e0 30 3b 96 3d 74 26 15 3e dc 91 56 3d 29 ef 4f 3b
       0.07335508 0.1456545 0.052385196 0.0031728244
0001f0 56 4e cf 3b af a8 05 bd 43 78 b6 bd 9a e4 29 3e
       0.006326477 -0.032631572 -0.08909657 0.16591111
000200 d7 14 03 3e 3c 5e ac 3d d6 02 be 3d e9 db bc 3d
       0.12800919 0.08416411 0.09277885 0.09221632
000210 34 96 25 3e 4b 9f 5b 3e ed 47 50 bd c5 92 8c bc
       0.16170579 0.21447484 -0.050849844 -0.017159829
000220 69 48 03 be 43 20 12 bd 9c f0 21 3d c8 e2 fa bd
       -0.12820591 -0.0356753 0.039536104 -0.12250286
000230 f9 16 2b 3e 9b 28 7e ba e6 ad a4 3d a9 94 d6 bd
       0.16707982 -0.0009695382 0.08040981 -0.104775734
000240 49 00 13 bd 43 c4 c0 3c 35 55 f7 3d ff 8e 38 be
       -0.035888944 0.023531085 0.12076799 -0.18023299
000250 d8 b8 07 3e 35 14 bd 3d 48 b9 9d bd 39 65 cd 3d
       0.13254106 0.0923237 -0.07701355 0.10029072
000260 1e e1 01 3e 5a cc 69 3e c8 44 e8 3d 8d 20 62 3d
       0.12683532 0.2283186 0.11341244 0.055206824
000270 d3 dd 74 bd 0f b8 97 3c 34 7e 22 3e e4 8b 73 3c
       -0.05978186 0.018520383 0.15868455 0.0148648955
000280 6d c1 cc 3d 2d 6d 18 3d 63 69 31 bd 2a 77 1b bd
       0.099978305 0.037213493 -0.043313395 -0.03795544
000290 5f 96 3b bd 69 50 b8 bd 37 7a df bd 9d 18 34 bd
       -0.045797702 -0.08999712 -0.109119825 -0.043968786
0002a0 42 ea 2e be b9 5e d6 bd 0c 2c 1a be 87 97 4b 3c
       -0.1708155 -0.10467286 -0.15055865 0.012426264
0002b0 72 97 d3 bd ba 3d a8 bd 1f 61 0c be 58 60 21 3e
       -0.1033162 -0.082148984 -0.13708924 0.15759408
0002c0 95 25 3e 3d 11 57 ca bd 68 b2 b6 3b 44 ee 1a bd
       0.04642256 -0.09879888 0.005575467 -0.037824884
0002d0 c6 29 8d 3d d2 03 09 3d 66 1f 8a bd 7d b2 18 3e
       0.06892733 0.03345091 -0.0674427 0.14911838
0002e0 14 08 eb 3d 9d 82 a8 3e 24 93 80 bd b4 0b 83 bd
       0.1147615 0.3291215 -0.06278065 -0.063987166
0002f0 89 ec b0 3c e4 8e 4c bd d9 29 29 be 56 07 a2 3d
       0.021597164 -0.04994096 -0.1651987 0.079115555
000300 28 61 af bc 6a 0a d0 3b 16 52 87 3a 72 00 a7 ba
       -0.021408632 0.0063488977 0.0010324146 -0.0012741222
000310 a0 53 03 3d 21 a1 8a 3d c4 a2 2e 3e e2 8e bf bd
       0.032062173 0.06769014 0.17054278 -0.093534246
000320 25 66 f5 bc 5a a2 e7 3d e8 b0 64 3c 10 9c 13 3e
       -0.029955933 0.11310263 0.013958193 0.14415002
000330 ad ad 4f bd 7f 52 9f bd 8b 56 5a 3c 49 c7 62 bd
       -0.05070274 -0.07779407 0.0133262975 -0.055365834
000340 3f de 0e 3e f2 09 0a 3d 15 f5 65 3d bd 4c a0 bb
       0.13951968 0.03370089 0.05614193 -0.0048919604
000350 18 0a 2b 3d a7 24 34 3d 0f 2f b5 bc 39 06 7e bd
       0.041757673 0.043980267 -0.022117166 -0.062017653
000360 ab 3e 8b 3c e1 22 39 bc 65 69 7f bc 01 f5 60 bb
       0.016997656 -0.01129982 -0.015589093 -0.0034325721
000370 65 a8 a7 3d 1d f5 10 bd b1 6f 4e bd 74 62 ff ba
       0.081864156 -0.03539001 -0.050399486 -0.0019484297
000380 23 05 e1 bc 7a 15 15 3d c5 ed e4 3c 80 90 89 3d
       -0.02746827 0.036397435 0.027945409 0.06717014
000390 b3 78 29 3d e6 ed 82 bb 4c 56 f6 3d e4 b0 fe 3d
       0.041374873 -0.003995645 0.120281786 0.12436083
0003a0 b0 46 99 3d a0 31 c2 bd e2 53 9a ba cb 70 df bc
       0.07484186 -0.094821215 -0.0011774267 -0.027275464
0003b0 c2 d8 1e 3d 59 0c 1e bd 37 2f db 3d 9e df d8 bd
       0.038780935 -0.038585994 0.10702365 -0.105895266
0003c0 c0 0e 80 3c 3e 51 70 3c bf 93 e9 3d eb 19 10 bd
       0.015632033 0.014667807 0.114051335 -0.035180967
0003d0 aa 4e 7a 3d 58 7e 96 bc 18 21 4c 3e e9 9b 34 be
       0.061110176 -0.018370792 0.199345 -0.176376
0003e0 bb 3b b1 bd 3d 97 ff bd 4b 08 35 bd 45 3e 8e bd
       -0.08653971 -0.12480018 -0.044197362 -0.06945471
0003f0 aa b5 c7 3d 69 01 75 bb 14 52 2f 3d 86 68 f7 bc
       0.097514465 -0.0037384874 0.042802885 -0.030201208

lstm2.bias_ih_l0 f4 [256]
000000 17 92 2b bd d7 6f 82 3b 18 08 d9 3c 76 4d 0e 3d
       -0.04188737 0.0039806175 0.026493117 0.03474184
000010 45 30 05 be 66 d9 13 3d 73 98 03 3e c4 4c bf bd
       -0.13006695 0.036096 0.12851124 -0.09340814
000020 9c ee 4c 3e 03 f7 bb 3d b7 bd 14 bd d7 aa 06 be
       0.20012897 0.09177973 -0.03631374 -0.13151108
000030 3d 3e c3 3d 88 33 49 3d b9 9d 18 be 73 25 95 3c
       0.095333554 0.04912141 -0.14903916 0.018206334
000040 dd e8 ba bd f0 26 ee 3c fb 39 48 be 1e 66 0d bc
       -0.091264464 0.029071301 -0.19553368 -0.008630304
000050 86 6b f1 3b 54 4c 9e 3d 05 01 67 bd 40 05 b8 3d
       0.007367554 0.07729402 -0.056397457 0.08985376
000060 da fb bf 3d 76 44 17 3d 5b bd 71 3e 31 d5 08 3b
       0.09374209 0.036930524 0.2360739 0.0020879025
000070 09 a6 ca bc cd 4e bf 3d 7a 93 f5 bc bf a5 19 3e
       -0.024737375 0.09341202 -0.029977549 0.15004633
000080 3c 59 3b 3e de 8f 04 be 3a 4f 39 3d 6e f3 ae bd
       0.18295759 -0.12945506 0.045241572 -0.08542524
000090 73 50 5e bd 58 a9 6c 3d 5f 27 b9 3d 83 7e 73 bd
       -0.05427594 0.057778686 0.090407126 -0.059446823
0000a0 c1 41 50 bc 9b 20 06 3e 79 65 2f 3d 7b 6e 55 3c
       -0.012710989 0.13098375 0.04282138 0.013026829
0000b0 d3 96 cd 3d d9 fa f6 bd 10 84 c9 3d e4 aa 69 bd
       0.10038533 -0.12059564 0.09839642 -0.05704774
0000c0 7f 08 b7 3c 30 d9 d6 bd 7d f4 70 3d 63 0d cc 3d
       0.022342918 -0.10490644 0.058826912 0.09963491
0000d0 ec a1 2a 3e 85 1d bd bd 92 26 97 bd 41 06 0f bd
       0.16663331 -0.09234146 -0.073804036 -0.034918074
0000e0 dc 45 17 3d 93 3e 69 bd 82 99 5c bd 2d ef 85 3d
       0.036931857 -0.05694444 -0.053857334 0.0653976
0000f0 73 0e a0 bb b8 4f 26 3e d3 b6 f5 3d 0b a2 51 bd
       -0.004884535 0.16241348 0.119977616 -0.051179927
000100 95 c8 0d 3e e8 61 97 3d a9 b9 81 3e 06 e9 df 3d
       0.13846047 0.07391721 0.2533696 0.109331176
000110 3f 08 a6 3d 0b 9b ed 3c 80 66 64 3e 32 2f 15 3d
       0.081070416 0.029004594 0.22304726 0.036421962
000120 e8 5e de 3c 59 f0 06 3d 58 96 64 bd 25 19 8f 3d
       0.027144864 0.032944057 -0.05580744 0.06987218
000130 4f c8 ec 3d 95 cd 2b 3e ad 22 ca 3c 56 c5 b3 bc
       0.11561643 0.16777642 0.024674738 -0.021944683
000140 2c df ac 3d e7 a6 5f 3e 06 dc ce 3d 37 ed 06 3d
       0.08441004 0.21841012 0.1010056 0.03294107
000150 4c 3f 3c bd e3 35 25 3e 27 14 27 3e 75 b3 4c 3d
       -0.045958802 0.16133837 0.16316281 0.04997583
000160 14 3e b7 3d 35 10 d2 3d 9f ae 8c 3e 33 59 e9 bc
       0.08947387 0.102569975 0.27476975 -0.028484916
000170 93 b8 25 3d 3c af 62 3d 36 23 c2 bd a7 b1 ad 3c
       0.040459227 0.055342898 -0.09479372 0.021202875
000180 94 43 44 bb bc da b3 3d 86 b2 18 3e 99 02 20 be
       -0.0029947506 0.08781955 0.14911851 -0.15625991
000190 88 13 1f 3d 66 76 ac 3d e0 e8 04 3e 8f 88 03 3b
       0.038836986 0.0842102 0.1297946 0.002007041
0001a0 0d 57 8f 3d 4d ce 4b bd f2 e1 c6 3c c8 b6 b7 3b
       0.069990255 -0.04975729 0.024277661 0.005606506
0001b0 f9 15 80 3d 7a b2 68 3e 79 45 0f bd 5e 5c 68 3e
       0.06254191 0.22724333 -0.034978364 0.22691485
0001c0 cf c5 dc 3d a9 05 bd 3c 25 3b 82 3e 98 ff 9f 3d
       0.107799165 0.023073988 0.2543575 0.078124225
0001d0 17 84 8e bd 70 40 69 3d ec c7 ae 3d aa 2f 2a bb
       -0.06958788 0.056946218 0.08534226 -0.0025968351
0001e0 89 d2 dc 3d 7a f2 5b 3c aa ef 0e 3e 60 4f 04 3e
       0.10782344 0.01342451 0.13958612 0.12920904
0001f0 53 a7 af 3d 79 09 7c 3c ee 3d 05 3c d8 7c 77 bd
       0.085768364 0.015383118 0.008132441 -0.060421795
000200 2c d6 b7 3d 8c b6 3b 3e 59 db b9 bd 27 07 ee 3d
       0.08976397 0.18331355 -0.0907504 0.11622458
000210 37 ad 0d bd 03 07 2c bd 4d 1b 31 be 62 3a 72 3e
       -0.03458902 -0.041998874 -0.1729557 0.23655084
000220 3f 89 13 3e 7c 57 aa 3d 12 de d9 3b 56 51 9b 3d
       0.14407824 0.083174676 0.0066487873 0.07583873
000230 dc 03 91 bb 3c af 18 3d 99 71 db 3b e2 e0 9b bd
       -0.004425509 0.03727649 0.0066968915 -0.07611252
000240 d8 d8 27 bd f3 69 7a bd 66 f3 97 bd 0d 38 87 3d
       -0.040978283 -0.061136197 -0.074194714 0.06602488
000250 c7 fe 84 3c 3b 8f a2 bd 00 5c e5 3b a3 8b 11 3e
       0.016234769 -0.07937475 0.0069994926 0.14213423
000260 2d fa 88 bd 17 af 03 be 81 b8 ff 3d 79 f8 9a bc
       -0.06688342 -0.1285976 0.12486363 -0.01891731
000270 13 76 0b be b7 21 12 3d e5 39 c6 bd 5f cc 9c bd
       -0.1361926 0.035676684 -0.09679011 -0.07656168
000280 25 c7 e5 bd d8 61 ff bd fa 74 d1 bc 13 c6 d9 3d
       -0.112196244 -0.12469834 -0.025568474 0.10633483
000290 cd 8f 21 3c f9 50 a8 bc a4 12 87 bd 67 12 b3 3d
       0.009860945 -0.020546423 -0.06595352 0.08743744
0002a0 10 75 f3 bc bd 5f ad bd 14 4f ba bb 76 41 be bd
       -0.029718906 -0.08465526 -0.0056856964 -0.092898294
0002b0 36 f4 36 bd 1b 23 1c 3e 50 55 cc 3d 2a 44 1c 3e
       -0.04466649 0.15247767 0.099772096 0.15260378
0002c0 9c 1a 61 bd de c4 ba 3d 06 1e 33 be fd cd 96 bd
       -0.054957017 0.09119581 -0.17491922 -0.07363508
0002d0 3c d3 a8 bb 2c cc 5a bd a8 87 04 bd ea 0b a9 bd
       -0.005152134 -0.05341737 -0.032355934 -0.082542256
0002e0 e6 f6 0c 3e bd 67 3f be 52 b1 29 be 7e 30 59 bd
       0.1376606 -0.18691917 -0.16571549 -0.05302476
0002f0 a9 cc ad bd 30 f0 8f 3d 80 bc 68 bd 8f 16 93 3c
       -0.084863015 0.07028234 -0.056820393 0.017955093
000300 bb 81 0f 3e 33 15 25 bd 4a 0c 24 3e ad 21 b7 3d
       0.14014332 -0.04030342 0.16020313 0.0894197
000310 13 1f d5 bd 44 81 0c 3e 59 42 06 be 36 e3 b9 3d
       -0.104063176 0.13721186 -0.13111247 0.0907654
000320 ac 69 48 3e 42 0a 43 3e bb 4e 10 3e c0 83 4a 3b
       0.1957156 0.19046882 0.14092533 0.0030901283
000330 a5 c0 6e 3d 36 37 c0 3d cb b2 99 3d 60 14 ad bd
       0.05828919 0.09385531 0.07504805 -0.08451152
000340 57 78 5a bd 65 96 8e bd 67 99 0b bb cb c2 9a 3d
       -0.05333742 -0.06962279 -0.0021301152 0.07556685
000350 00 b6 d7 3d cb ae 8e 3d 94 2b 88 3d 58 82 b2 3d
       0.105327606 0.06966933 0.06648937 0.08716267
000360 2b 93 2e 3e 9b 7d 0c 3e 84 fc a3 bc 9e cb d7 bd
       0.17048328 0.1371979 -0.02001787 -0.10536884
000370 31 fc 82 3d ca 4f 07 3e ae 07 dd bd d7 96 cc 3d
       0.06395758 0.13214031 -0.107924804 0.09989708
000380 06 46 1d 3e 7b 91 7e bd ca e3 ac 3c 49 e6 2c be
       0.15358743 -0.06215046 0.021104712 -0.16884722
000390 a7 65 08 bd af 62 1b 3d 4b 11 f0 bc 7e 22 fc 3c
       -0.03330007 0.03793591 -0.02930512 0.030778166
0003a0 a5 18 4c 3c bf e9 33 bd 94 6c 6d bd 39 97 bf 3b
       0.012457048 -0.04392409 -0.057964876 0.0058468846
0003b0 2e 81 45 3d fa 01 09 3e 3d 42 65 3d 7e 71 dc 3c
       0.0482189 0.1337966 0.055971373 0.026909586
0003c0 6c 47 cf 3c 14 12 ae ba 2c 64 cf bc 49 55 14 3e
       0.025302611 -0.0013280534 -0.02531632 0.14485659
0003d0 66 62 75 3d 52 cc b0 bd bb 81 54 bd a3 e2 9b 3d
       0.059908293 -0.08632721 -0.051881533 0.07611587
0003e0 62 16 e9 3c 06 1b 48 3e e2 81 32 3c 09 72 21 3d
       0.028453056 0.19541559 0.010895224 0.039415393
0003f0 72 16 24 3e a3 b2 07 3e c0 7f 50 3e 4f f3 56 bd
       0.16024187 0.13251738 0.20361233 -0.05247813
