saved_model/DAP_Model_Fuel.pt (torch, 231010 bytes, 12 tensors)

lstm1.weight_ih_l0 f4 [256, 3]
0	0x3d89d242	0.067295566
1	0x3d112d54	0.03544362
2	0xbe14d3bb	-0.14533894
3	0x3d681440	0.056659937
4	0xbd180151	-0.03711063
5	0xbdeedafb	-0.11662861
6	0xbd1e3680	-0.038626194
7	0xbcc8b77c	-0.024501555
8	0x3da82075	0.08209316
9	0x3d787fae	0.06066864
10	0xbd9690a4	-0.07351807
11	0xbd9d455b	-0.07679244
12	0x3e3f83b4	0.18702585
13	0xbdd1d472	-0.10245599
14	0xbc1294ca	-0.008946607
15	0x3dea6822	0.11445643
16	0xbdefc6de	-0.11707853
17	0x3d518b09	0.051157985
18	0x3d77435b	0.06036697
19	0xbcbd4b64	-0.023107238
20	0xbd9a0318	-0.07520121
21	0x3e377561	0.1791587
22	0x3dca212a	0.09869607
23	0xbd12fc04	-0.035884872
24	0xbd182251	-0.0371421
25	0x3c226ca1	0.009913594
26	0x3d0afe3c	0.033933863
27	0x3d8c2fed	0.068450786
28	0xbd8adb40	-0.067801
29	0xbbc422eb	-0.005985608
30	0x3b6a6c2a	0.0035770037
31	0x3dce1b9d	0.100638606
32	0xbd8d7c1b	-0.06908437
33	0x3d55853a	0.052129008
34	0xbd6a2d18	-0.05717191
35	0x3d29defc	0.04147242
36	0xbcb0c935	-0.021580318
37	0xbd7e1748	-0.06203392
38	0x3b0191b2	0.001977068
39	0x3d981702	0.074262634
40	0xbe0469c8	-0.12930977
41	0xbe1abc3d	-0.1511087
42	0x3d3f51bb	0.046708804
43	0xbde8525d	-0.113438345
44	0x3cb4bf1d	0.022063786
45	0x3e160d0c	0.14653414
46	0x3d101ab0	0.0351817
47	0x3d5574fd	0.05211352
48	0x3d35730c	0.04429917
49	0x3d88279b	0.06648179
50	0xbd985c9f	-0.07439541
51	0xbe2ae7cf	-0.1668999
52	0xbcd5625b	-0.026047876
53	0xbda225fe	-0.07917403
54	0x3d8cfe48	0.06884438
55	0xbcadc221	-0.021210732
56	0x3a7f8e15	0.000974865
57	0x3df3c5f9	0.11902995
58	0x3d6049a6	0.054757737
59	0x3d810d0c	0.063013166
60	0xbdde32b7	-0.10849517
61	0xbe7fd0b9	-0.24981965
62	0x3bdabc45	0.0066752755
63	0x3da25bb0	0.07927644
64	0x3e18b9ed	0.14914675
65	0x3d996445	0.07489828
66	0x3df10717	0.117689304
67	0xbe2f33ce	-0.17109606
68	0x3e57e722	0.21084264
69	0x3d46cd5b	0.048535686
70	0xbb8adcdb	-0.004237754
71	0x3e10019e	0.14063117
72	0xbd9080f8	-0.07055849
73	0x3ce6e324	0.028184481
74	0x3de84f36	0.11343233
75	0xbd95a328	-0.0730651
76	0x3d7cc05b	0.061706882
77	0xbd0bd710	-0.034140646
78	0x3dc5588d	0.0963603
79	0xbc389ad3	-0.011267382
80	0xbcc1ba00	-0.023648262
81	0x3d1105d4	0.03540595
82	0x3e244f30	0.16045833
83	0xbd186c5b	-0.03721271
84	0x3d2ba78a	0.041907825
85	0x3dfd4dd1	0.12368358
86	0xbb150f18	-0.0022744592
87	0xbcce5fca	-0.02519216
88	0xbd2ad341	-0.041705374
89	0x3e0ce6f3	0.13759975
90	0x3de1e7e8	0.11030561
91	0x3d819e9e	0.06329082
92	0x3c75c5aa	0.01500074
93	0xbbb4873d	-0.0055092857
94	0x3e40884a	0.1880199
95	0x3d8aa524	0.06769779
96	0x3e5f8245	0.21827038
97	0x3d6a8355	0.057254154
98	0xbb8e58cf	-0.004344083
99	0x3dd6dfc0	0.10491896
100	0x3df8a447	0.121407084
101	0x3cc16792	0.023608956
102	0x3dbfe48c	0.09369764
103	0xbdbc66bc	-0.091992825
104	0xbe2af773	-0.16695957
105	0x3e167f13	0.14696912
106	0x3e1a99a1	0.15097667
107	0xbd469f02	-0.048491485
108	0x3cae0c1a	0.021246005
109	0xbca08195	-0.01959304
110	0x3d0acdaf	0.03388756
111	0xbcb65226	-0.022255968
112	0xbdc1930f	-0.09451877
113	0x3dd52d12	0.10408987
114	0x3c0700d4	0.0082399435
115	0x3db824fa	0.08991428
116	0x3dfa1ba2	0.12212302
117	0x3de1592c	0.11003336
118	0xbddd687d	-0.10810945
119	0xbd3db226	-0.046312474
120	0xbdc3281a	-0.09529133
121	0xbe1016f0	-0.1407125
122	0x3e6abd02	0.22923663
123	0x3dc2d0b5	0.09512464
124	0x3bcc8c31	0.006242298
125	0x3e34e977	0.17667185
126	0x3c87b5a3	0.016566103
127	0x3ce7a98e	0.028279092
128	0x3db9f1f9	0.09079356
129	0x3d24ba3b	0.040216666
130	0x3d319252	0.043352433
131	0x3d9cfafd	0.0766506
132	0x3d90f5a3	0.070781015
133	0x3e181f56	0.14855704
134	0xbdd3c4e0	-0.10340285
135	0xbd3a9d43	-0.045560133
136	0xbe02edbd	-0.12786002
137	0x3d9d2005	0.07672123
138	0x3e2416a0	0.16024256
139	0xbd193a44	-0.037409082
140	0x3d039e7b	0.03213356
141	0x3e166ced	0.1468999
142	0xbcc1774f	-0.023616461
143	0x3cc6ab63	0.024251645
144	0xbd16385e	-0.03667485
145	0xbd5558d5	-0.05208667
146	0xbd8fdb87	-0.070242934
147	0xbd79f8e7	-0.061028387
148	0xbd0a9c96	-0.03384074
149	0x3d8ef5c4	0.0698047
150	0xbdaa42ad	-0.08313499
151	0xbdf0c77b	-0.11756798
152	0x3d4d3b2e	0.050105266
153	0x3cc72c21	0.024313034
154	0x3db4d7e5	0.08830241
155	0xb9a53e86	-0.00031517836
156	0xbe35d2fa	-0.17756262
157	0xbe2fac10	-0.1715548
158	0x3e2fc185	0.17163666
159	0xbc2840d7	-0.010269365
160	0x3c922d35	0.017843822
161	0xbd5cb7b2	-0.053886123
162	0x3e2fdfc8	0.1717521
163	0x3cdad5da	0.0267133
164	0x3e2dd320	0.16975069
165	0x3dd6efa0	0.104949236
166	0x3e06d4d8	0.13167131
167	0x3e133609	0.14376082
168	0xbda82d3e	-0.08211754
169	0xbd660711	-0.056159083
170	0x3d009404	0.03139116
171	0xbdf368b9	-0.11885209
172	0xbd9471e0	-0.072482824
173	0x3d322704	0.04349424
174	0xbdc08293	-0.09399905
175	0x3c487473	0.012234795
176	0x3da3e295	0.080022015
177	0x3cbb4e74	0.022864558
178	0x3c1763c6	0.009240096
179	0x3d545126	0.0518352
180	0x3dd5ec74	0.104454905
181	0x3d6b5fa0	0.057464242
182	0xbd949d14	-0.07256523
183	0xba3717f8	-0.00069844676
184	0xbe050637	-0.12990652
185	0xbda79b72	-0.08183946
186	0x3e04c20e	0.12964651
187	0x3d543a3a	0.05181334
188	0x3d864ff2	0.06558217
189	0xbe1cf8d3	-0.15329294
190	0xbda38c49	-0.07985742
191	0x3c286c83	0.010279777
192	0x3d1e437f	0.038638588
193	0xbdbf601e	-0.09344505
194	0xbdb61dda	-0.088924125
195	0xbd010eeb	-0.031508368
196	0xbd18e57d	-0.037328232
197	0x3dd0b03a	0.101898625
198	0x3b59759d	0.0033181675
199	0xbdd687fb	-0.10475155
200	0x3cbfe0cd	0.023422623
201	0x3d31d4bc	0.04341577
202	0x3da9c6d2	0.08289875
203	0xbc13bfd2	-0.0090179015
204	0x3a8cb86e	0.0010736117
205	0x3c7f361b	0.015576865
206	0x3d109599	0.035298917
207	0xbd9bcc89	-0.07607371
208	0xbe213f0e	-0.1574671
209	0x3ded333b	0.11582037
210	0x3d8b5dd7	0.06805008
211	0x3dd0565d	0.101727225
212	0xbdbf279c	-0.09333727
213	0xbd56a822	-0.052406438
214	0xbceeb40f	-0.029138593
215	0x3cd9e311	0.026597532
216	0xbcc50b75	-0.024053315
217	0xbdc638bd	-0.09678791
218	0x3e2a7ff0	0.16650367
219	0xbd906fd3	-0.07052579
220	0xbd5214e1	-0.051289443
221	0x3d952ee5	0.07284335
222	0x3d4e1c67	0.050320055
223	0xbc90db8d	-0.017682815
224	0xbe1d1259	-0.1533903
225	0x3dcd81ff	0.100345604
226	0x3bec1d80	0.007205665
227	0x3c8d8352	0.017274532
228	0xbd5521a8	-0.05203405
229	0xbdb5cdff	-0.08877181
230	0x3c3215d3	0.010869461
231	0xbc0b59f2	-0.008505331
232	0xbdf0bc09	-0.11754615
233	0x3d422ffe	0.04740905
234	0xbd86cfa6	-0.065825745
235	0xbcc423e6	-0.023942899
236	0xbd00ce8a	-0.03144697
237	0x3d1eea65	0.038797755
238	0xbe46de58	-0.19420755
239	0x3e3e79a8	0.18601096
240	0x3c32ca46	0.010912484
241	0x3d3953de	0.045245998
242	0x3d8aee24	0.06783703
243	0x3d18c073	0.03729291
244	0x3e2b455d	0.16725679
245	0xbd30e516	-0.043187223
246	0x3d661e7e	0.056181423
247	0xbd663b46	-0.05620887
248	0xbd666391	-0.056247298
249	0xbb928bb8	-0.004472222
250	0xbc6f17f8	-0.014593117
251	0x3d988a93	0.07448306
252	0xbc27611e	-0.010216026
253	0xbe9442a7	-0.28957102
254	0x3d53e847	0.05173519
255	0x3e1700b3	0.1474636

lstm1.weight_hh_l0 f4 [256, 64]
0	0xbd8d6d3c	-0.069056004
1	0xbe21f24e	-0.15815088
2	0xbdca1b83	-0.09868529
3	0xbdae7abe	-0.08519505
4	0x3de5abcc	0.11214408
5	0xbd342396	-0.04397925
6	0xbdc49346	-0.09598403
7	0x3d9e9b19	0.07744426
8	0x3d74cc54	0.059765175
9	0xbbad598b	-0.0052902154
10	0xbda0ceef	-0.078519695
11	0xbe27bbfd	-0.16380306
12	0xbd93db56	-0.072195694
13	0xbdd822a6	-0.10553484
14	0xbb99947f	-0.0046868916
15	0xbd42f16f	-0.04759353
16	0xbe2155ad	-0.15755339
17	0x3e05230f	0.13001655
18	0xbd681006	-0.056655906
19	0x3c956433	0.018236255
20	0xbb6811eb	-0.003541107
21	0x3ceb0d32	0.028692815
22	0xbd5d3ca3	-0.054012906
23	0xbcecafea	-0.028892476
24	0xbcda3cc2	-0.0266403
25	0x3ce3c1e4	0.027802415
26	0x3b9f203a	0.0048561366
27	0xbc1f61ae	-0.0097278785
28	0xbd816987	-0.06318956
29	0x3c18d8b6	0.009329012
30	0x3d2b253c	0.041783556
31	0x3cb8c007	0.022552503
32	0xbcac914f	-0.021065382
33	0xbdc1a9b6	-0.09456198
34	0xbce2809c	-0.027649216
35	0x3db95f3a	0.09051366
36	0x3dd1242e	0.10211979
37	0x3de36f61	0.11105228
38	0xbe25778d	-0.16158886
39	0x3d86da66	0.06584625
40	0x3ceaba4f	0.028653292
41	0x3d9b424d	0.07581005
42	0xbd532ea2	-0.051558144
43	0x3ca698d3	0.020336544
44	0x3d8c0421	0.06836725
45	0xbdc778d3	-0.09739842
46	0xbd09ecd4	-0.033673123
47	0x3d0847c1	0.033271555
48	0xbda820b6	-0.08209364
49	0x3d0aeba4	0.03391613
50	0xbe33619b	-0.17517702
51	0xbc896f1b	-0.016776612
52	0x3d754b97	0.05988654
53	0xbe291e11	-0.16515376
54	0xbb07f560	-0.002074562
55	0x3e378a8b	0.17923944
56	0xbd919f07	-0.0711041
57	0x3d142468	0.036167532
58	0x3d424af5	0.047434766
59	0xbd9005f6	-0.07032387
60	0xbe6426e5	-0.22280462
61	0xbdbbb7c5	-0.09165911
62	0x3d8b372c	0.067976326
63	0xbdbbf184	-0.09176925
64	0x3dc84323	0.0977843
65	0x3d4887e4	0.04895772
66	0xbdf9a312	-0.12189306
67	0xbd01a96d	-0.031655718
68	0xbd01b033	-0.031662177
69	0xbbfd484b	-0.0077295653
70	0x3d5f5971	0.054528657
71	0xbdc8e8d2	-0.09810032
72	0x3e3da936	0.1852158
73	0x3d13e55c	0.036107406
74	0xbd378b89	-0.044810805
75	0x3c35a544	0.011086766
76	0xbdfbc413	-0.122932576
77	0xbe5d4aeb	-0.2161061
78	0x3d59e9ac	0.053201362
79	0x3d7f355f	0.062306758
80	0x3d0cb86d	0.03435557
81	0x3cdbe501	0.026842596
82	0xbc316cd3	-0.010829168
83	0x3d232abb	0.039835673
84	0xbc863ecb	-0.016387364
85	0xbd5d57d3	-0.054038834
86	0x3c9a908a	0.01886775
87	0x3d9a0849	0.075211115
88	0x3e1c020b	0.15235154
89	0x3df90073	0.12158289
90	0x3e218e6f	0.1577699
91	0x3e122033	0.14270096
92	0x3d0fdacf	0.03512078
93	0x3d820c62	0.06350018
94	0xbc23bc50	-0.009993628
95	0x3e00febf	0.12597178
96	0xbe1f6494	-0.15565711
97	0xbdc0d313	-0.09415259
98	0x3c1652f3	0.00917505
99	0x3d3924b7	0.04520103
100	0xbd0810c1	-0.033219103
101	0xbd917592	-0.07102503
102	0xbe325d01	-0.1741829
103	0x3df01d62	0.11724354
104	0x3c3bcbc6	0.011462158
105	0xbdef21d0	-0.11676371
106	0x3db2bce1	0.08727432
107	0xbd272c52	-0.04081375
108	0xbdd50e10	-0.10403073
109	0xbe116795	-0.1419967
110	0xbd1a74e7	-0.037709143
111	0xbd98ec13	-0.074669026
112	0xbe635a4f	-0.22202419
113	0x3d771b34	0.060328677
114	0xbd551d8c	-0.05203013
115	0x3d3e8a09	0.04651836
116	0xbdbfb85a	-0.09361334
117	0xbbd4bbf5	-0.006492133
118	0xbd0ce0a7	-0.034393933
119	0xbd10d7f6	-0.035362206
120	0xbdc0f1ce	-0.094211206
121	0xbd7106e4	-0.058844462
122	0xbbe7188d	-0.007052487
123	0x3be1ceba	0.006891099
124	0xbe2150ed	-0.15753527
125	0x3aae169c	0.0013281885
126	0x3d02cef4	0.031935647
127	0x3ba61373	0.0050682365
128	0xbdaa761e	-0.0832331
129	0x3db29820	0.08720422
130	0x3daf0684	0.08546165
131	0xbd929fc4	-0.07159379
132	0xbdda91d0	-0.10672343
133	0x3cbb34e8	0.022852376
134	0x3d9054ed	0.07047448
135	0x3e0d6b39	0.13810433
136	0xbdb03af5	-0.08604995
137	0x3cd1e599	0.025622176
138	0x3d673857	0.056450214
139	0xbad2604b	-0.0016050426
140	0xbb81c50e	-0.0039602583
141	0xbd934005	-0.07189945
142	0x3d17e436	0.037082873
143	0x3d76e766	0.060279272
144	0x3e619f0f	0.22033332
145	0x3d8f633b	0.070013486
146	0xbdd4eb2d	-0.10396419
147	0x3d615c4c	0.05501966
148	0x3d83aab8	0.064290464
149	0xbd2289e8	-0.0396823
150	0x3dc09072	0.09402551
151	0xbd9c7e72	-0.07641305
152	0xbe23b65f	-0.15987538
153	0x3c9354c0	0.017984748
154	0x3c5700d6	0.013122758
155	0x3d531dd2	0.05154211
156	0x3e057a57	0.1303495
157	0xbd6bcd85	-0.057569046
158	0x3c2c5e1f	0.010520487
159	0xbc897902	-0.016781334
160	0x3e09c9cf	0.1345589
161	0x3e2aa3b5	0.16664012
162	0xbd7060ab	-0.05868594
163	0xbdde5727	-0.10856467
164	0xbdbda385	-0.092597045
165	0x3d83b212	0.064304486
166	0xbd416d08	-0.04722312
167	0x3d8c6caa	0.068566635
168	0xbd1ac63d	-0.03778671
169	0xbbef5bc8	-0.0073046423
170	0xbe30c489	-0.17262472
171	0x3e30d193	0.17267446
172	0x3df87f4d	0.12133656
173	0x3e5c5d3f	0.21519946
174	0x3e1a3b2d	0.15061636
175	0x3defe7b3	0.11714115
176	0x3e0d726f	0.13813184
177	0x3c75bede	0.01499912
178	0x3db49179	0.08816809
179	0x3d93abb4	0.07210484
180	0xbc539ffe	-0.012916563
181	0xbba9e90c	-0.005185252
182	0xbdead766	-0.11466865
183	0xbdf6dbcd	-0.120536424
184	0x3caad9f9	0.02085589
185	0xbe2063ec	-0.15663117
186	0x3e3dd45f	0.18538044
187	0x3daab2e0	0.08334899
188	0x3e2662d4	0.16248637
189	0xbd02d47d	-0.031940926
190	0xbd5ca433	-0.05386753
191	0x3db005df	0.0859487
192	0x3e1d8446	0.1538249
193	0xbc8c5886	-0.017132055
194	0xbc9cf2a8	-0.019158676
195	0xba0f2925	-0.0005461148
196	0x3d4e691d	0.050393213
197	0xbdb18652	-0.08668198
198	0x3d49d5bc	0.0492761
199	0xbda0cb25	-0.07851247
200	0x3d5784b2	0.052616782
201	0xbd1de3ef	-0.038547453
202	0x3de487b9	0.111586995
203	0x3d003f52	0.031310387
204	0x3dea68ec	0.114457935
205	0x3d7a3608	0.061086684
206	0x3dc0cb20	0.09413743
207	0xbd9ddee4	-0.07708529
208	0x3cf11bcd	0.029432202
209	0xbd91df35	-0.071226515
210	0x3e04df1a	0.12975731
211	0x3e0ce473	0.13759021
212	0xbbe1633c	-0.0068782847
213	0xbe4a68eb	-0.19766586
214	0x3e1a01b0	0.15039706
215	0x3e1d4dbf	0.15361689
216	0x3e042cab	0.12907664
217	0x3ddfb28e	0.109227285
218	0x3e1c7217	0.15277897
219	0xbd07f2e2	-0.033190615
220	0x3d0a907c	0.033829197
221	0xbc66c117	-0.014084122
222	0x3e185348	0.1487552
223	0x3d698066	0.057007216
224	0xbc51d553	-0.012807208
225	0xbddf4b93	-0.109030865
226	0xbd779a96	-0.06045016
227	0x3d191a62	0.037378676
228	0x3e1d66eb	0.15371291
229	0xbd17ae90	-0.03703171
230	0xbe0bf929	-0.13669266
231	0x3dcf1c68	0.1011284
232	0x3d920b93	0.07131114
233	0xbb8a4b15	-0.0042203763
234	0x3d68459c	0.05670701
235	0xbd773e18	-0.06036195
236	0xbdbbced7	-0.09170311
237	0x3cb877e2	0.022518102
238	0xbdaec177	-0.08532994
239	0xbad80da6	-0.001648356
240	0xbc726051	-0.014793471
241	0x3e1a8f6b	0.15093772
242	0xbd4385e4	-0.04773511
243	0xbdcac9ad	-0.09901748
244	0x3e391c70	0.18077254
245	0xbde09af8	-0.10967058
246	0xbc44d1d0	-0.012012914
247	0xbcab2fd1	-0.020896824
248	0x3e5788a8	0.21048224
249	0xbbea0d45	-0.007142695
250	0x3dd26eb9	0.10275025
251	0xbced6e27	-0.028983189
252	0xbcbad5ca	-0.02280702
253	0xbe17766c	-0.14791268
254	0xbd34f275	-0.044176538
255	0xbcc4f529	-0.024042683

lstm1.bias_ih_l0 f4 [256]
0	0x3d74dd7f	0.059781548
1	0x3d81b7e2	0.06333901
2	0xbce4d14a	-0.027931828
3	0xbe29cc00	-0.16581726
4	0x3d2c8e4b	0.04212789
5	0xbd949563	-0.07255056
6	0x3ae19236	0.0017209712
7	0xbd3690bc	-0.044571623
8	0x3cb7b63f	0.022425769
9	0x3dc51d55	0.09624735
10	0xbde57221	-0.11203409
11	0xbda08230	-0.07837331
12	0x3b92d464	0.0044808853
13	0xbdd48074	-0.10376063
14	0x3d9dd947	0.07707458
15	0x3e13c6de	0.1443133
16	0x3d7f714b	0.062363904
17	0xbc998432	-0.018739793
18	0xbc00e396	-0.007866761
19	0xbd9a2361	-0.07526279
20	0x3c6ae71d	0.014337328
21	0x3e385e9e	0.18004844
22	0xbd9ba6ec	-0.07600197
23	0x3a1688ba	0.000574242
24	0xbdf82f4f	-0.121183984
25	0xbd56ecca	-0.052471913
26	0xbcfac6b7	-0.030612333
27	0xbd9e0a03	-0.07716753
28	0xbe0a0224	-0.13477379
29	0xbde12ac0	-0.10994482
30	0xbd95cefe	-0.07314871
31	0xbdaeef3c	-0.08541724
32	0xbbeed30f	-0.0072883437
33	0xbd8ea60f	-0.06965267
34	0x3d3a8f34	0.045546725
35	0xbda1e96d	-0.079058506
36	0xbe1c53f9	-0.15266408
37	0xbe5c433f	-0.21510027
38	0x3d8df163	0.069308065
39	0xbd61e474	-0.05514951
40	0x3dd683cd	0.10474358
41	0x3afa0437	0.0019074742
42	0x3d9011be	0.07034634
43	0x3dd8a826	0.10578947
44	0x3e1ec2ee	0.15504047
45	0xbde29972	-0.110644236
46	0x3df8986d	0.12138448
47	0x3e136c56	0.14396796
48	0xbd821bd6	-0.063529655
49	0xbd1421a7	-0.036164906
50	0xbc261255	-0.010136207
51	0x3db383de	0.08765386
52	0xbd8588ac	-0.06520209
53	0x3deeafff	0.11654662
54	0x3dced075	0.10098354
55	0x3d800ddf	0.06252646
56	0xbe3c42ed	-0.18384905
57	0x3e007a30	0.12546611
58	0xbdf4b5e3	-0.11948755
59	0x3d3e527c	0.046465382
60	0x3cf28700	0.029605389
61	0x3e001de6	0.12511405
62	0xbdd0e3f8	-0.101997316
63	0xbd32431c	-0.04352103
64	0xbdc1c51d	-0.094614245
65	0x3d9c4cfe	0.076318726
66	0xbdea3861	-0.11436535
67	0xbdfddfa0	-0.12396169
68	0x3da1f18e	0.07907401
69	0x3d62d96b	0.055383127
70	0x3da8b2c0	0.08237219
71	0x3e067282	0.13129619
72	0x3bb7a898	0.0056048147
73	0x3d0d6750	0.034522355
74	0xbcaa6165	-0.020798394
75	0x3d534b53	0.051585507
76	0xbdaeaaac	-0.08528647
77	0x3c2ed065	0.010669802
78	0x3e0507bd	0.12991233
79	0x3e011502	0.1260567
80	0xbdc0558a	-0.09391315
81	0x3e5f0a02	0.21781161
82	0x3c74012e	0.014892859
83	0x3d1f1fb4	0.038848594
84	0x3e651dc1	0.22374631
85	0x3d8de05e	0.0692756
86	0x3cacada4	0.021078892
87	0x3d8f4f85	0.06997589
88	0xbd8f9581	-0.070109375
89	0xbccaae3d	-0.024741286
90	0xbd5602a6	-0.05224862
91	0x3e49c5ac	0.19704312
92	0xbcbf6c87	-0.02336718
93	0xbce27fc3	-0.027648812
94	0x3da61e37	0.08111232
95	0x3cb82a41	0.022481086
96	0x3d1de0b1	0.03854436
97	0xbdf8a714	-0.121412426
98	0xbe24894c	-0.16068
99	0xbd7ee8a4	-0.062233582
100	0x3d27064a	0.040777482
101	0xbd9ada2e	-0.07561146
102	0xbddf6472	-0.1090783
103	0x3df5e93f	0.12007379
104	0xbd2f67b7	-0.04282352
105	0x3d0c24a1	0.03421462
106	0x3dd7beca	0.10534437
107	0x3d825bee	0.063651904
108	0x3d6d6de8	0.057966143
109	0x3d2e65b1	0.04257745
110	0xbdecb0e9	-0.115571804
111	0x3de2320f	0.11044704
112	0xbba79340	-0.005113989
113	0x3d742f16	0.059615217
114	0xbcf34584	-0.029696234
115	0x3deff342	0.117163196
116	0x3e190c6b	0.14946143
117	0x3d432bef	0.04764932
118	0x3d948131	0.07251204
119	0x3e1cc5ac	0.15309781
120	0x3d45483c	0.04816459
121	0x3ba5ff87	0.0050658616
122	0xbe49ed0c	-0.19719332
123	0xbe47c6f7	-0.19509493
124	0xbd431abd	-0.04763292
125	0xbdf03605	-0.117290534
126	0x3e11e070	0.14245772
127	0x3d88bb79	0.066763826
128	0xbd53a6d3	-0.051672768
129	0xbc842b4b	-0.016133925
130	0x3df679c2	0.12034942
131	0xbdbe5397	-0.09293287
132	0xbd2b06ee	-0.041754656
133	0xbd8635d8	-0.06553239
134	0xbdecfaf8	-0.11571306
135	0x3e32c584	0.17458159
136	0xbddd4e96	-0.10806005
137	0xbde53663	-0.11192014
138	0x3c027f55	0.007964929
139	0x3dc39684	0.09550193
140	0x3dfd5bcb	0.12371024
141	0x3de47532	0.11155166
142	0xbd95fa81	-0.073231705
143	0x3bd440ed	0.0064774663
144	0x3cbbe09d	0.022934252
145	0xbd58665b	-0.05283199
146	0xbdd341a6	-0.10315256
147	0xbdc2d154	-0.095125824
148	0x3da0f678	0.0785951
149	0x3da94b14	0.08266273
150	0x3d8957af	0.067061774
151	0xbd9dd7b6	-0.07707159
152	0xbddd2e94	-0.107999
153	0xbd883e4c	-0.06652507
154	0xbe45f91d	-0.1933331
155	0xbddcc5e3	-0.107799314
156	0xbb4f5a1d	-0.0031639405
157	0xbc592388	-0.0132531
158	0xbe166a7a	-0.14689055
159	0xbd0b1956	-0.03395971
160	0x3dd4bbb2	0.103873625
161	0x3de89bc7	0.11357837
162	0x3d2f6e4a	0.04282979
163	0xbdf359ab	-0.11882337
164	0x3ca78f07	0.020453943
165	0x3bd1d425	0.0064034634
166	0x3d4f07e7	0.050544646
167	0xbe5ea6b5	-0.21743281
168	0xbdb950a1	-0.09048582
169	0x3df6eb10	0.12056553
170	0xbd92365b	-0.07139274
171	0x3dd7104c	0.10501155
172	0x3e0791a1	0.13239147
173	0x3e0fff25	0.14062174
174	0x3e1c2b3a	0.15250865
175	0x3dceff77	0.1010732
176	0xbd2b0075	-0.041748483
177	0xbdb04928	-0.086077034
178	0x3d0d67c1	0.034522776
179	0x3d4ca74a	0.049964227
180	0xbe1b173b	-0.1514558
181	0x3c0a147d	0.008427736
182	0xbd088a60	-0.03333509
183	0xbe3a85b9	-0.18215074
184	0x3dfd7bdb	0.12377139
185	0xbd30a75b	-0.043128353
186	0xbdb42e15	-0.08797852
187	0x3df2576b	0.1183308
188	0x3d9d5e17	0.07683962
189	0x3dd6a0ad	0.10479865
190	0xbe40f2c2	-0.18842605
191	0x3deaff75	0.11474506
192	0xbd02f835	-0.03197499
193	0xbdc2509f	-0.094880335
194	0x3c878a56	0.016545456
195	0xbe1db973	-0.15402775
196	0x3e4699f4	0.19394666
197	0xbcb49b0f	-0.022046594
198	0x3e0ab282	0.13544658
199	0xbd1a2b64	-0.037639037
200	0x3c399a20	0.01132825
201	0x3dbb12e4	0.091344625
202	0x3dece916	0.11567895
203	0x3d9ec5dd	0.07752583
204	0x3de76bad	0.112998344
205	0xbd951106	-0.072786376
206	0x3c21bb68	0.009871341
207	0x3e3afad5	0.18259747
208	0x3db9b708	0.090681136
209	0x3e0138a8	0.12619269
210	0x3d8ec7ba	0.069716886
211	0x3ded71b6	0.11593954
212	0x3e0fef95	0.14056237
213	0x3dd54a7b	0.10414597
214	0x3dc964f9	0.09833712
215	0x3d82b71f	0.06382584
216	0x3d630ce4	0.055432215
217	0xbc14748b	-0.009060989
218	0xbccc5765	-0.024944017
219	0x3d897e47	0.067135386
220	0xbca5acf2	-0.020224068
221	0x3c8ff5ab	0.017573198
222	0xbe3225f7	-0.17397295
223	0xbd92aae7	-0.07161503
224	0x3e54d99d	0.20786138
225	0x3d681a69	0.05666581
226	0x3e0ba25f	0.13636158
227	0x3ca35a6b	0.019940576
228	0x3c8b9ec2	0.017043475
229	0xbe4f886c	-0.20266885
230	0xbd910ced	-0.070825435
231	0x3da38004	0.079834014
232	0x3dc7c156	0.09753673
233	0x3d8f4c17	0.06996935
234	0x3d29cbf8	0.041454285
235	0x3d2adfb7	0.041717257
236	0x3e476d7d	0.1947536
237	0x3c43843b	0.011933382
238	0x3e105f1a	0.14098778
239	0x3e2b5199	0.16730346
240	0xbd1144f7	-0.03546616
241	0xbd3a7462	-0.045521148
242	0x3dd81c23	0.10552242
243	0x3dab4afa	0.0836391
244	0x3e1190a2	0.1421533
245	0x3d0aa8f0	0.033852518
246	0xbd9ebd32	-0.0775093
247	0x3dd923e9	0.106025524
248	0x3b6ba4ab	0.0035956304
249	0x3e199580	0.14998436
250	0x3c709b78	0.014685504
251	0xbd46c66d	-0.048529077
252	0x3e445363	0.19172435
253	0x3d7333cc	0.05937557
254	0x3dceff1e	0.101072535
255	0xbd84aebb	-0.0647864

lstm1.bias_hh_l0 f4 [256]
0	0x3d9156cc	0.07096633
1	0xbe06a426	-0.13148555
2	0x3daec773	0.08534136
3	0xbe0b33f4	-0.13594037
4	0xbbe56456	-0.0070004864
5	0xbd166468	-0.03671685
6	0xbd625e6f	-0.05526584
7	0x3c5d2fc4	0.013500158
8	0x3d78b1cf	0.060716446
9	0xbc54ea85	-0.012995367
10	0x3db06d07	0.08614545
11	0xbd9e783a	-0.07737775
12	0x3e0d205e	0.13781878
13	0xbd8dbcfc	-0.069208115
14	0x3db71037	0.089386396
15	0x3dab2191	0.08356012
16	0x3d9a9cda	0.07549448
17	0xbcfb7a99	-0.030698108
18	0xbd52fbcd	-0.051509667
19	0xbe0cd401	-0.13752748
20	0x3da43da3	0.08019569
21	0x3cb4a7a6	0.022052597
22	0xbca9e55c	-0.02073925
23	0xbbd36291	-0.006450959
24	0xbdb937f8	-0.09043878
25	0x3c86bdcb	0.016447922
26	0xbdaa5a6a	-0.08318026
27	0xbe03902f	-0.1284797
28	0xbd4abe8c	-0.049498126
29	0xbd9b6653	-0.07587876
30	0xbe60cf75	-0.21954139
31	0x3d9031a8	0.07040721
32	0xbc7743f0	-0.015091881
33	0xbe1a069c	-0.15041584
34	0xbb758859	-0.0037465303
35	0x3db0ced9	0.08633203
36	0xbe219be2	-0.15782121
37	0xbd0d7da0	-0.034543633
38	0x3d574501	0.05255604
39	0x3d3d0476	0.046146832
40	0xbc87b0ca	-0.016563792
41	0xbdfca8da	-0.123368934
42	0x3d9823d4	0.07428709
43	0x3cbc3c18	0.022977874
44	0x3ddf2386	0.108954474
45	0xbd98adc7	-0.074550204
46	0x3b8e461c	0.004341854
47	0x3dc9601c	0.098327845
48	0x3d3cc4fb	0.046086293
49	0x3d83a878	0.06428617
50	0x3d79a417	0.060947504
51	0xbd1a317f	-0.03764486
52	0x3cbcf0e6	0.023064088
53	0x3e227605	0.15865333
54	0x3dc89e9d	0.09795878
55	0xbb0c43a1	-0.0021402615
56	0xbda1cf5f	-0.07900881
57	0x3d0cb057	0.03434786
58	0x3c44a294	0.012001652
59	0xbd8f33bb	-0.06992289
60	0x3d18ef0e	0.037337355
61	0xbcf0f797	-0.029414935
62	0x3d56f624	0.05248083
63	0xbb70a575	-0.0036719714
64	0x3d5811e5	0.05275144
65	0xbd260011	-0.040527407
66	0xbdef4cd8	-0.11684579
67	0xbd7cca97	-0.061716642
68	0x3a1cd88e	0.0005983197
69	0x3e0c5342	0.13703635
70	0x3dd52b1a	0.104086116
71	0x3e01eb39	0.12687387
72	0xbc840619	-0.016116189
73	0xbdd23227	-0.10263472
74	0x3d52e72d	0.051489998
75	0x3bd55c6d	0.006511262
76	0x3dc2fcb9	0.09520859
77	0xbe229503	-0.15877156
78	0xbcc1417d	-0.023590798
79	0x3d0ecaf0	0.034861505
80	0xbdf4bcfc	-0.119501084
81	0x3db498fa	0.088182405
82	0x3dbb7060	0.09152293
83	0x3da5e996	0.081011936
84	0x3dcac928	0.09901649
85	0x3bcb44bf	0.0062032635
86	0xbc50039a	-0.012696171
87	0xbdc7e4af	-0.09760415
88	0xbd82a26d	-0.063786365
89	0xbe325142	-0.1741381
90	0xbd9d62ee	-0.07684885
91	0x3d88c78f	0.06678688
92	0x3d05db95	0.032680113
93	0xbcacc9ec	-0.021092378
94	0x3d9eba32	0.07750358
95	0x3c887256	0.016656082
96	0xbdeb64e3	-0.11493852
97	0xbe1cb643	-0.15303902
98	0xbdb5cca4	-0.08876923
99	0x3c23a282	0.009987475
100	0xbdb863c5	-0.090034045
101	0xbd064a7a	-0.03278587
102	0x3d661cbf	0.05617976
103	0x3db8ecf0	0.09029567
104	0x3cfac9bf	0.030613778
105	0xbd8aef2e	-0.06783901
106	0xbdb708ea	-0.08937247
107	0x3d978825	0.073990144
108	0x3cadd562	0.021219913
109	0x3d8eeb23	0.069784425
110	0x3c1bc3f4	0.009507168
111	0x3dd269bf	0.10274076
112	0xbd304aa4	-0.043039933
113	0x3dae7850	0.085190415
114	0x3da1eff9	0.07907099
115	0xbcea232f	-0.02858123
116	0x3e481ab3	0.19541435
117	0x3d72a8f0	0.059243143
118	0xbc6f6c25	-0.014613186
119	0x3ca0beef	0.019622294
120	0xbdd63c79	-0.10460753
121	0x3d028feb	0.031875532
122	0xbd01aa5a	-0.0316566
123	0xbe006a39	-0.1254052
124	0xbdbb18f3	-0.09135618
125	0xbdd43b5b	-0.10362884
126	0xbd8e3815	-0.069442905
127	0x3de84b4d	0.113424875
128	0xbe34f8e1	-0.17673065
129	0x3d6551f2	0.055986352
130	0x3dd8fe38	0.105953634
131	0xbda1e45a	-0.07904883
132	0xbe0220f7	-0.12707888
133	0xbc2ea345	-0.010659044
134	0x3d0f8ef2	0.035048433
135	0x3de4e832	0.111771
136	0xbe4e10fd	-0.20123668
137	0xbd4baafe	-0.049723618
138	0xbd3ecb2c	-0.04658048
139	0xbc414db2	-0.011798309
140	0x3d041f78	0.032256573
141	0xbc27063f	-0.01019436
142	0xbe4ed40f	-0.20198081
143	0xbcfd4f01	-0.030921461
144	0x3d5efca1	0.054440144
145	0x3d406615	0.046972353
146	0x3d301f37	0.04299852
147	0x3d4b70b2	0.04966802
148	0x3e2998f6	0.16562256
149	0x3e3d862e	0.18508217
150	0xbd99a414	-0.075019985
151	0x3d6e9f1a	0.0582572
152	0xbe0bcef0	-0.13653159
153	0xbe17656d	-0.14784785
154	0xbe4015c5	-0.18758304
155	0xbe05889c	-0.13040394
156	0x3df8e067	0.12152176
157	0xbd65ed7e	-0.056134693
158	0xbe1bfc3e	-0.15232942
159	0x3d683115	0.056687433
160	0x3d71b4d4	0.05901034
161	0xbda29a1a	-0.07939549
162	0x3dc5508e	0.09634505
163	0xbe42c093	-0.19018774
164	0xbde73fb7	-0.112914495
165	0xbd0ed25f	-0.034868594
166	0x3d3fb2e7	0.046801474
167	0xbe170e45	-0.14751537
168	0xbd9a3782	-0.075301185
169	0xbcc2dcf0	-0.023786992
170	0xbdde03bf	-0.10840558
171	0x3c2378ad	0.009977502
172	0x3d39a778	0.045325726
173	0x3cafc5a5	0.021456549
174	0x3dc18850	0.09449828
175	0x3e26889b	0.16263048
176	0x3e1cdc26	0.15318355
177	0xbd3a97ac	-0.0455548
178	0x3dc524db	0.0962617
179	0x3e24a912	0.1608012
180	0xbd23dd5c	-0.040006027
181	0x3da0775b	0.07835265
182	0xbd066bd5	-0.03281768
183	0xbde3515e	-0.11099504
184	0xbd3d1f42	-0.046172388
185	0x3dc6e1fb	0.09711071
186	0xbd252c9a	-0.04032574
187	0x3c6819b9	0.014166289
188	0x3e2bcea4	0.16778046
189	0xbd3fd33c	-0.04683231
190	0xbdd99159	-0.10623426
191	0x3dd12775	0.10212604
192	0xbca15189	-0.0196922
193	0x3d17a2a3	0.037020337
194	0x3d0488b0	0.032356918
195	0xbe1fa557	-0.15590416
196	0x3df7d90e	0.12101947
197	0xbd5f28f5	-0.05448242
198	0xbd6b407e	-0.05743455
199	0xbd736dc1	-0.05943084
200	0xbc6e40c3	-0.014541808
201	0x3d924cd3	0.07143559
202	0x3dc7ab05	0.09749416
203	0xbd8dcceb	-0.069238506
204	0x3df9465a	0.121716216
205	0xbdf091aa	-0.11746533
206	0x3df08e92	0.11745943
207	0x3c627c86	0.013823634
208	0xbd8ea2f3	-0.06964674
209	0x3e389353	0.1802495
210	0xbceae0ac	-0.028671585
211	0xbd8c34ba	-0.06845994
212	0x3dffec6d	0.124962665
213	0x3e4fd53f	0.2029619
214	0x3d8681ec	0.065677494
215	0x3ce9b82e	0.028530207
216	0xbd987151	-0.074434884
217	0xbdb6600b	-0.089050375
218	0x3df2fc06	0.11864476
219	0x3e28e4cf	0.16493534
220	0xbd358f2f	-0.044326004
221	0xbc840438	-0.016115293
222	0x3c1822be	0.009285627
223	0xbc3f85b7	-0.011689595
224	0x3e40e10d	0.1883585
225	0xbd9fe241	-0.078068264
226	0xbd44a84a	-0.048012055
227	0x3d4a8cdf	0.04945075
228	0xbd2dba73	-0.04241414
229	0xbd67524c	-0.05647497
230	0x3e209d1d	0.15684934
231	0x3d8a6f2e	0.06759487
232	0x3da06ca5	0.07833222
233	0xbd9504af	-0.07276284
234	0xbaa6147f	-0.0012670903
235	0x3dcda248	0.10040718
236	0x3e54c733	0.20779113
237	0xbd88d193	-0.06680598
238	0x3ad4ff05	0.0016250318
239	0x3e052d9f	0.13005684
240	0x3dcef1e8	0.10104734
241	0x3d3412a4	0.04396309
242	0x3e571095	0.2100242
243	0x3db40734	0.087904364
244	0x3dbdca17	0.09267061
245	0x3de58af5	0.112081446
246	0xbd9bb994	-0.076037556
247	0x3cfdca55	0.030980268
248	0x3c0b3786	0.008497125
249	0x3dd0810c	0.10180864
250	0xbc8201a1	-0.015869917
251	0xbd6ab4f3	-0.057301473
252	0xbd27b990	-0.04094845
253	0x3df9142d	0.12162051
254	0xbd2c7e7d	-0.042112816
255	0x3d8760b6	0.06610243

lstm2.weight_ih_l0 f4 [256, 64]
0	0x3d2b8c3d	0.04188179
1	0xbce294dc	-0.027658872
2	0x3cef9f25	0.02925069
3	0xbdba6807	-0.09101873
4	0xbde682ac	-0.112553924
5	0xbe2c563b	-0.1682977
6	0xbe3694c0	-0.17830181
7	0x3d7e833f	0.062136885
8	0xbbebba4b	-0.0071938387
9	0xbe019b4c	-0.12656897
10	0xbd9d4a7c	-0.076802224
11	0xbd87a0d3	-0.06622472
12	0x3db9aec9	0.09066541
13	0xbdaf99db	-0.085742675
14	0xbe1a15ca	-0.15047374
15	0xbda3d79d	-0.08000109
16	0xbdd6c6ba	-0.10487123
17	0xbe280528	-0.16408217
18	0xbc8d1705	-0.01722289
19	0x3cb373e6	0.02190585
20	0x3e20449d	0.15651174
21	0xbcf338bc	-0.029690139
22	0x3dbcba2d	0.09215198
23	0x3c0ddd67	0.008658743
24	0x3d839b0b	0.064260565
25	0xbe0a9a33	-0.13535385
26	0x3da9f18d	0.08298025
27	0x3e37066a	0.1787354
28	0x3d941262	0.07230069
29	0x3b7f4aaa	0.0038954415
30	0x3d08cee1	0.03340042
31	0x3c6d3cf0	0.014479861
32	0xbc6c4742	-0.014421286
33	0xbca8e550	-0.020617157
34	0xbd55f0a0	-0.05223143
35	0x3db49700	0.088178635
36	0xbd373380	-0.04472685
37	0xbe0480ea	-0.12939802
38	0xbd9d94d1	-0.076944
39	0x3dc6a58e	0.09699546
40	0x3c8c51c7	0.017128838
41	0x3ce96f17	0.028495355
42	0x3dd7c1e5	0.10535029
43	0x3d90eb80	0.07076168
44	0x3c67329a	0.014111185
45	0xbd597262	-0.0530876
46	0x3d11747e	0.035511486
47	0x3de30431	0.11084784
48	0x3b343033	0.002749455
49	0x3cf569b4	0.02995763
50	0x3cca7546	0.024714123
51	0xbd6830c6	-0.05668714
52	0x3cf51964	0.029919334
53	0xbc8e188d	-0.017345691
54	0xbcbc748c	-0.023004793
55	0xbd0aa444	-0.033848062
56	0x3d986877	0.074418
57	0xbdaaab31	-0.083334334
58	0x3d66713e	0.05626034
59	0x3dfc8040	0.12329149
60	0x3cfe61f4	0.031052567
61	0xbd4a7b29	-0.04943386
62	0xbd419645	-0.04726245
63	0x3d49a5d9	0.04923043
64	0xbdffddbd	-0.12493465
65	0xbc2ab0f8	-0.010418169
66	0x3c765323	0.01503447
67	0xbcc7d3a1	-0.024392905
68	0xbdcd784f	-0.10032713
69	0x3d285ac4	0.041102186
70	0xbcdd1511	-0.026987584
71	0xbb328dc5	-0.0027245146
72	0x3cddbd8b	0.02706792
73	0xbcde4a15	-0.027134934
74	0xbdab2169	-0.08355982
75	0x3d9453d6	0.07242553
76	0xbd27cc5f	-0.040966388
77	0x3ceea165	0.029129693
78	0x3d41da48	0.04732731
79	0xbcef8d56	-0.029242199
80	0xbcb0912b	-0.021553596
81	0x3bea224f	0.007145203
82	0x3da8fb9e	0.08251117
83	0xbe1c3bff	-0.15257262
84	0xbe1fd4a7	-0.15608464
85	0x3d9ecb77	0.077536516
86	0xbd045f42	-0.032317407
87	0xbda7859f	-0.08179783
88	0x3d8ecf55	0.06973139
89	0xbc2704cc	-0.010194015
90	0xbc5d125e	-0.013493149
91	0x3d4e7dfe	0.050413124
92	0x3dbab67f	0.091168396
93	0xbd733547	-0.05937698
94	0xbc6fd395	-0.014637847
95	0xbdb30c17	-0.0874254
96	0x3db268dc	0.087114066
97	0xbda806c4	-0.082044154
98	0x3dd5437b	0.104132615
99	0x3d5c6fc1	0.053817514
100	0x3d0b838c	0.034061
101	0xbd0446bd	-0.032294024
102	0xbcce70e0	-0.025200307
103	0x3cfc32db	0.030785969
104	0xbce1545b	-0.027506044
105	0x3d347564	0.044057265
106	0x3e1aff92	0.15136555
107	0xbd9cdd77	-0.076594286
108	0x3db4dece	0.08831559
109	0xbc83baa7	-0.016080214
110	0x3c9511aa	0.0181969
111	0x3dca9e80	0.09893513
112	0x3e14276e	0.14468166
113	0xbd4f5d8a	-0.050626315
114	0xbd08301d	-0.03324901
115	0x3df769dd	0.12080739
116	0xbd25845d	-0.040409435
117	0x3e06c363	0.13160472
118	0x3cb4a084	0.022049196
119	0xbe0e69da	-0.13907567
120	0x3c8bdfee	0.017074551
121	0x3cd3f78e	0.02587488
122	0x3c890be0	0.016729295
123	0xbd3d7a06	-0.04625895
124	0xbd683687	-0.056692626
125	0x3d0154dc	0.03157507
126	0xbd264d57	-0.0406011
127	0xbdcd8166	-0.100344464
128	0xbdec4f96	-0.11538617
129	0xbd9b5ee5	-0.07586459
130	0x3d3c9208	0.046037704
131	0x3d09c74f	0.03363734
132	0x3d4a4a2e	0.04938715
133	0x3da61d48	0.08111054
134	0xbd30a053	-0.043121647
135	0x3dd6701f	0.10470604
136	0xbd865136	-0.065584585
137	0x3d7e2733	0.062049102
138	0x3d03d314	0.03218372
139	0xbccfd9dc	-0.025372438
140	0x3e05fc77	0.13084589
141	0xbdba884f	-0.0910803
142	0x3dbdc5b8	0.092662275
143	0x3cb10bc6	0.02161206
144	0x3e0fea5d	0.14054246
145	0x3e5b32b2	0.21406057
146	0xbd395e68	-0.04525605
147	0xbc7b3641	-0.015332759
148	0xbda31fdc	-0.07965061
149	0xbacf953d	-0.0015837323
150	0x3d7e780a	0.062126197
151	0xbdc130e0	-0.0943315
152	0xbe54a30c	-0.20765322
153	0xbe18ebc1	-0.14933683
154	0xbde91534	-0.11380997
155	0xbcdd53b1	-0.027017446
156	0xbdb439af	-0.08800065
157	0xbc9d4587	-0.019198192
158	0x3d8f6abb	0.07002779
159	0x3dda3e70	0.1065644
160	0xbda9fdf8	-0.08300394
161	0xbc6cf263	-0.014462086
162	0xbd2a7848	-0.041618615
163	0x3d93f5a1	0.07224584
164	0xbc8c3888	-0.0171168
165	0xbd03f39d	-0.03221475
166	0xbe349d0b	-0.17638032
167	0xbe261377	-0.16218363
168	0x3bcbaacd	0.0062154294
169	0xbd820093	-0.06347766
170	0xbd908df4	-0.070583254
171	0x3db16c07	0.08663183
172	0x3e13ed68	0.14446032
173	0xbc87f261	-0.016595067
174	0xbc365a80	-0.011129975
175	0x3c32365b	0.010877217
176	0xbe0b1373	-0.13581638
177	0xbe06382b	-0.13107364
178	0xbc6dd94a	-0.014517138
179	0x3e2a9353	0.16657762
180	0xbdb51211	-0.088413365
181	0xbd99bdd6	-0.075069115
182	0x3e04b61e	0.12960097
183	0x3af4140a	0.0018621695
184	0xbe27df20	-0.16393709
185	0xbdd7c62f	-0.105358474
186	0x3d2b635a	0.041842796
187	0x3bdbe160	0.0067102164
188	0x3daa9618	0.08329409
189	0xbdd241a2	-0.10266425
190	0x3e2c4cbd	0.16826148
191	0x3ccc0051	0.024902495
192	0x3cb3330a	0.021874923
193	0xbdfe00f9	-0.12402529
194	0x3e04aaa1	0.12955715
195	0xbd882fdf	-0.06649756
196	0x3e72370f	0.23653816
197	0x3c6188e9	0.013765552
198	0x3c3f14fa	0.011662716
199	0x3d492a63	0.04911269
200	0x3c50a1f2	0.012733923
201	0x3e345ff7	0.17614733
202	0x3d78f8af	0.06078404
203	0xbda7fa3b	-0.082020245
204	0xbacc5604	-0.00155896
205	0x3c21d6d3	0.009877878
206	0x3dfc25d5	0.123119034
207	0xbe0b95ca	-0.13631359
208	0xbe0678b5	-0.13131984
209	0x3e4f7455	0.20259221
210	0xbd8dd54a	-0.06925447
211	0x3bd8c059	0.0066147265
212	0xbc8d6e4d	-0.01726451
213	0xbe010901	-0.12601091
214	0x3d1a53af	0.037677463
215	0x3b8b31d4	0.0042478833
216	0x3dc0b6c1	0.094098575
217	0xbd93dd8f	-0.07219993
218	0xbb22e98a	-0.0024858438
219	0xbc99ad24	-0.018759318
220	0xbd57634b	-0.052584928
221	0xbcbac342	-0.022798184
222	0x3e1774b3	0.14790611
223	0x3d8163c8	0.0631786
224	0xbd0989e3	-0.033578765
225	0x3d27a069	0.040924463
226	0xbe0dc1a3	-0.13843398
227	0x3e321267	0.17389832
228	0x3ddd935d	0.10819123
229	0xbe00bf2c	-0.12572926
230	0xbe28bd13	-0.16478376
231	0xbdb6dc5a	-0.089287475
232	0x3d0039cc	0.03130512
233	0x3ceabe3a	0.02865516
234	0xbd517c5a	-0.05114398
235	0x3d4e8023	0.05041517
236	0x3cf3d3d2	0.02976409
237	0x3e01b629	0.12667145
238	0xbb244f50	-0.0025071688
239	0xbc434373	-0.011917937
240	0xbdbcca13	-0.0921823
241	0xbd0984ab	-0.033573788
242	0xbd8a0700	-0.067396164
243	0x3d10127b	0.035173874
244	0xbe84157b	-0.25797638
245	0xbe3240f9	-0.17407598
246	0xbb810b0c	-0.0039380845
247	0x3e31f2b9	0.17377748
248	0xbde8d700	-0.11369133
249	0x3c2bc19a	0.01048317
250	0xbd51829d	-0.051149953
251	0xbdb811f5	-0.089878
252	0x3ca87ec8	0.020568267
253	0xbd85404c	-0.06506404
254	0x3e426d09	0.18986906
255	0x3df94b09	0.12172515

lstm2.weight_hh_l0 f4 [256, 64]
0	0x3dc55215	0.096347965
1	0x3dc712ef	0.09720408
2	0x3cff3184	0.03115154
3	0xbc24b609	-0.010053166
4	0xbe02bb87	-0.12766849
5	0xbe00e38c	-0.12586802
6	0x3dbf285a	0.09333868
7	0x3da30780	0.07960415
8	0x3d37e427	0.044895317
9	0xbddb8302	-0.10718347
10	0x3b3257f9	0.002721308
11	0xbcbf07e6	-0.023319196
12	0x3d62f628	0.055410534
13	0x3de813b5	0.11331884
14	0x3d72d945	0.059289236
15	0x3d8a2435	0.06745187
16	0xbd0c2f9f	-0.034225103
17	0x3c302693	0.010751384
18	0xbcafcfc3	-0.021461373
19	0x3d18da19	0.03731737
20	0xbd66175a	-0.056174614
21	0xbcb9d348	-0.022683755
22	0xbd9b2da2	-0.07577063
23	0x3d926726	0.0714858
24	0x3d5c768b	0.05382399
25	0xbd5f7b94	-0.054561213
26	0x3e0fcae4	0.1404224
27	0x3d679995	0.05654295
28	0x3b87137c	0.0041221958
29	0x3da91ce9	0.08257467
30	0xbd87ae3a	-0.06625028
31	0xbdad622a	-0.08465989
32	0x3d894d73	0.067042254
33	0xbe05bc91	-0.13060214
34	0xbd6b675b	-0.057471614
35	0x3d6ed873	0.05831189
36	0xbdd7278a	-0.10505588
37	0x3d98ca1e	0.07460426
38	0x3d9e09c6	0.07716708
39	0xbe14903a	-0.14508143
40	0x3daf0c42	0.0854726
41	0xbdfc26c4	-0.123120815
42	0xbd88550e	-0.06656848
43	0x3c7e21f1	0.015511022
44	0xbdf1175a	-0.11772032
45	0xbd27dd9b	-0.040982824
46	0xbd96a426	-0.073555276
47	0x3d340f89	0.043960128
48	0x3d68fab0	0.0568797
49	0xbc15f8f9	-0.009153598
50	0x3daef284	0.0854235
51	0xbd6305a8	-0.055425316
52	0x3d678c3a	0.056530215
53	0xbcb0ea16	-0.021595996
54	0xbd0221af	-0.031770404
55	0xbd707cac	-0.058712646
56	0xbcd04b4c	-0.02542653
57	0x3c12cf3e	0.008960543
58	0x3df91cd4	0.12163702
59	0xbd78587c	-0.06063126
60	0xbd9de265	-0.07709197
61	0x3d801ca3	0.06255462
62	0x3d151c0b	0.036403697
63	0xbe414e5c	-0.18877548
64	0xbe20a677	-0.15688501
65	0xbdeb8303	-0.11499598
66	0x3d03fd02	0.03222371
67	0x3d316d38	0.04331705
68	0xbb019666	-0.0019773482
69	0xbe589b30	-0.2115295
70	0xbd2d1e1b	-0.04226504
71	0xbd24d3a0	-0.040240884
72	0x3ca43233	0.020043468
73	0x3d9fa7d2	0.07795681
74	0xbd6788f1	-0.056527082
75	0x3d4b1e68	0.049589545
76	0xbe416cea	-0.18889204
77	0x3dce63fc	0.10077664
78	0xbb312b76	-0.0027033961
79	0x3de076ba	0.10960145
80	0xbdafe7f4	-0.085891634
81	0xbcb446c5	-0.022006402
82	0x3debf965	0.115221776
83	0x3d2f4edf	0.042799827
84	0x3d3cca3d	0.046091307
85	0x3e490d0f	0.19633888
86	0x3c1300fc	0.008972403
87	0x3cbcf1bb	0.023064485
88	0xbd3e0dba	-0.04639981
89	0x3c05f8dc	0.0081770085
90	0x3d864d0e	0.06557666
91	0xbcd1b69b	-0.025599768
92	0x3d8f185c	0.06987068
93	0x3d0ba2bc	0.034090742
94	0x3d918684	0.07105735
95	0x3d66d8f7	0.056359258
96	0xbe14ebb1	-0.14543034
97	0xbe159234	-0.14606553
98	0xbdcd414f	-0.10022222
99	0xbd39f763	-0.045401942
100	0xbb344c38	-0.002751125
101	0x3d89e0af	0.06732308
102	0x3e1a0f11	0.1504481
103	0x3d1b60ab	0.037933987
104	0xbc82470b	-0.015903017
105	0x3d221384	0.039569393
106	0xbd3f32d9	-0.04667935
107	0xbd8f5e5a	-0.07000418
108	0x3e11e934	0.14249116
109	0x3da60926	0.08107214
110	0x3c872c08	0.016500488
111	0x3c888ec9	0.016669648
112	0xbddb534b	-0.10709246
113	0x3e38651a	0.18007317
114	0x3d6a2c72	0.057171293
115	0x3d4fdd68	0.05074826
116	0xbd1d6a18	-0.038431257
117	0xbe0fe725	-0.14053018
118	0x3d8d8916	0.06910913
119	0xbdf94c01	-0.121727
120	0xbe54c84e	-0.20779535
121	0xbddf9ce7	-0.109185986
122	0xbd82fba9	-0.063956566
123	0xbdb9b135	-0.09067003
124	0x3d76704f	0.0601657
125	0x3dd97097	0.10617178
126	0xbac4cda4	-0.0015014899
127	0xbb82f9ea	-0.0039970772
128	0x3d177c93	0.036984038
129	0xbc1d9298	-0.00961747
130	0x3d9d72ac	0.076878875
131	0xbdd73145	-0.10507444
132	0x39d40e73	0.00040446557
133	0x3e1bc00c	0.15209979
134	0xbd6f3a4d	-0.05840521
135	0x3d46a24b	0.04849462
136	0x3cbd422d	0.023102844
137	0xbdcfe52d	-0.10151134
138	0xbd52aa87	-0.05143216
139	0xbd5d3a5d	-0.054010738
140	0x3de343d1	0.11096919
141	0x3d64b220	0.055833936
142	0xbc898f85	-0.016792068
143	0xbc3fd47b	-0.011708374
144	0xbadd0a5a	-0.0016864047
145	0x3deceb20	0.11568284
146	0x3cee4236	0.029084306
147	0xbca0235f	-0.019548116
148	0x3e16fd81	0.14745142
149	0xbd541075	-0.051773507
150	0x3e0d80bf	0.13818644
151	0xbd9c910e	-0.076448545
152	0x3d1d265d	0.038366664
153	0xbdb5604f	-0.0885626
154	0xbd91c082	-0.07116796
155	0x3dc9ed38	0.09859699
156	0xbe5ee9f3	-0.21768932
157	0xbd0d1b6f	-0.03444999
158	0x3e70b8a9	0.23507942
159	0x3d99b4e5	0.07505206
160	0x3cb8566b	0.022502145
161	0x3c5f1cda	0.013617719
162	0x3d033e5a	0.032041885
163	0x3df1632f	0.11786496
164	0xbddc936e	-0.107703075
165	0xbdc214cc	-0.09476623
166	0x3c121846	0.00891692
167	0x3d0a85c9	0.033818994
168	0xbd75f08d	-0.06004386
169	0x3d40e34c	0.047091767
170	0xbe137dc6	-0.14403448
171	0x3d333a80	0.04375696
172	0x3dd365a8	0.10322124
173	0x3d329e24	0.043607846
174	0x3cf30a3d	0.029667968
175	0x3ddba631	0.10725058
176	0xbdd6b386	-0.1048346
177	0x3dfcaae9	0.12337286
178	0xbd22a49a	-0.039707758
179	0x3de2176d	0.11039624
180	0x3d2a64ad	0.04159992
181	0x3c93f1c3	0.018059617
182	0x3ce87ec6	0.028380763
183	0xbde233f0	-0.110450625
184	0xbda48afc	-0.08034322
185	0xbd73b9ea	-0.059503473
186	0x3e003679	0.1252078
187	0x3e2fbeb8	0.17162597
188	0xbe05e400	-0.13075256
189	0x3a8d2a84	0.0010770117
190	0x3d532a4b	0.051554006
191	0x3e0af2bf	0.13569163
192	0x3d6c9f3c	0.057769045
193	0x3dd55c12	0.10417952
194	0xbdfb2777	-0.12263387
195	0x3db35fb7	0.087584905
196	0x3cb30a54	0.02185551
197	0x3e1204f1	0.14259697
198	0xbd129529	-0.03578678
199	0xbc2044fd	-0.009782073
200	0x3d9fd2a6	0.0780385
201	0xbd2c372d	-0.042044807
202	0x3dd6ce89	0.10488612
203	0xbe480a1f	-0.19535111
204	0xbcd6ed3d	-0.02623617
205	0xbe2e4a4e	-0.17020532
206	0xbe743f88	-0.2385236
207	0xbdcd8853	-0.100357674
208	0x3df2f775	0.11863605
209	0x3d97215f	0.07379412
210	0xbd7558d3	-0.059899163
211	0xbe4de156	-0.2010549
212	0x3d6c8258	0.057741493
213	0x3d579639	0.052633498
214	0x3d13e735	0.036109168
215	0xbe2bcc15	-0.1677707
216	0xbcba1217	-0.022713704
217	0x3df03e3b	0.117306195
218	0xbdd4e18c	-0.10394582
219	0x3c85f18d	0.016350532
220	0xbcb58ade	-0.022160944
221	0xbd0bc4b4	-0.034123138
222	0x3df15b7e	0.11785029
223	0xbdb83b54	-0.08995691
224	0x3db6eb72	0.089316264
225	0x3c8a5228	0.016884878
226	0xbd2f41c8	-0.042787343
227	0xbd225a31	-0.039636794
228	0xbdf7df11	-0.121030934
229	0x3dc9c624	0.098522455
230	0xbd9547a8	-0.07289058
231	0x3ddf7fca	0.10913046
232	0xbd93f04d	-0.07223568
233	0x3e184359	0.14869441
234	0x3c9b6b34	0.018972017
235	0xbdc7ec6c	-0.09761891
236	0x3d8eb0d4	0.06967321
237	0xbd9f27b7	-0.07771247
238	0xbd429cda	-0.047512867
239	0x3dcb4a32	0.09926261
240	0xbdee0e34	-0.11623803
241	0x3dc8a023	0.09796169
242	0x3d80087e	0.0625162
243	0xbdc2b9ce	-0.09508096
244	0x3cd204db	0.02563708
245	0x3d029d4b	0.031888288
246	0xbd945531	-0.072428115
247	0x3da9ebf7	0.0829696
248	0xbdc7dd5f	-0.0975902
249	0xbb254aa4	-0.0025221491
250	0x3d78ca9b	0.060740095
251	0x3e1f0f61	0.1553321
252	0x3cefe006	0.029281627
253	0x3c0aafa2	0.008464726
254	0xbcda9fd8	-0.026687548
255	0x3bdac9f2	0.006676906

lstm2.bias_ih_l0 f4 [256]
0	0xbd5ec205	-0.05438425
1	0xbe08a00b	-0.13342302
2	0xbd87f161	-0.06637836
3	0x3e032bba	0.12809649
4	0x3e489c49	0.19590868
5	0xbd1b30f2	-0.037888475
6	0x3c81ca3e	0.015843507
7	0xb8fcfc0d	-0.000120632445
8	0x3ad20ef2	0.0016026183
9	0x3b9c7d24	0.00477566
10	0xbdb62d7e	-0.08895396
11	0xbdb56274	-0.08856669
12	0xbdde534f	-0.108557336
13	0x3cad5df8	0.021162972
14	0x3e111f22	0.14172032
15	0xbda7c0e0	-0.08191085
16	0x3c860149	0.016358035
17	0xbd6cfdf1	-0.057859365
18	0xbc602cf5	-0.013682594
19	0x3d49bd84	0.049253
20	0x3d827830	0.0637058
21	0x3e26a488	0.16273701
22	0xbdc4552b	-0.09586557
23	0x3b0ae30e	0.0021192464
24	0xbd513cf5	-0.051083524
25	0xbd6bd7c4	-0.057578817
26	0x3d53d42b	0.05171601
27	0x3d795f1e	0.060881726
28	0x3ceea472	0.029131148
29	0xbdebc42d	-0.11512027
30	0xbdee3e83	-0.11633017
31	0x3e23172c	0.15926808
32	0xbc41d8f0	-0.011831507
33	0x3dc72fa8	0.097258866
34	0x3e245d89	0.16051306
35	0x3cc3063d	0.023806686
36	0x3e0d241d	0.13783307
37	0xbe07df70	-0.13268828
38	0xbd87f6d7	-0.06638878
39	0x3cc4ead2	0.024037752
40	0xbde0da2e	-0.109791145
41	0x3b8a692f	0.0042239646
42	0x3b0ec493	0.0021784648
43	0xbc3176db	-0.01083156
44	0x3d8a8295	0.06763188
45	0x3dfd0cbf	0.12355947
46	0xbe12e55b	-0.14345305
47	0xbc92d14e	-0.01792207
48	0x3e66efd3	0.22552423
49	0x3cc6118c	0.024178289
50	0xbdaf49d4	-0.085590035
51	0x3bd8a2a7	0.0066111865
52	0x3df46887	0.119339995
53	0x3ceb05b2	0.02868924
54	0x3d802344	0.062567264
55	0x3d95ac1f	0.0730822
56	0x3e08da66	0.13364562
57	0x3cb80bdd	0.022466594
58	0x3d0d4aa6	0.03449502
59	0x3ddf7638	0.1091122
60	0xbbd8b4f1	-0.006613367
61	0xbdc36f07	-0.09542661
62	0x3c561331	0.013066099
63	0x3e2898f8	0.16464603
64	0xbcba635f	-0.022752462
65	0xbe35d3fe	-0.1775665
66	0x3d68278a	0.056678332
67	0x3d15e307	0.036593463
68	0x3e432fe9	0.19061245
69	0xbd33b763	-0.043876063
70	0x3e07c425	0.13258417
71	0xbc92b7e5	-0.017909953
72	0x3e037e47	0.1284114
73	0x3dab5b4a	0.083670214
74	0x3ce9f197	0.028557582
75	0xbdba2e1d	-0.09090827
76	0xbdb697d0	-0.08915675
77	0x3d1a7233	0.037706565
78	0x3e640a14	0.2226947
79	0x3de22a20	0.11043191
80	0x3d53173a	0.051535822
81	0x3dd90296	0.10596196
82	0xbe27bd33	-0.16380768
83	0x3d891386	0.06693177
84	0x3d70d641	0.05879808
85	0xbd969053	-0.073517464
86	0x3ddc3200	0.10751724
87	0xbced2e7f	-0.028952835
88	0xbd90fcb9	-0.07079453
89	0xbd97eab6	-0.074178144
90	0xbe031520	-0.12801027
91	0xbdcea543	-0.10090115
92	0xbd871de4	-0.06597498
93	0x3e32072c	0.17385548
94	0x3dab70cb	0.08371123
95	0x3e60b07a	0.2194232
96	0x3e51cb44	0.20487696
97	0x3e6f63f9	0.2337798
98	0x3d702197	0.058625784
99	0xbe087e2e	-0.13329384
100	0x3ce72e7f	0.028220413
101	0xbd1591fe	-0.036516182
102	0xba8a1e61	-0.0010537618
103	0xbd89214e	-0.066958055
104	0xbd162eec	-0.036665842
105	0xbc2eb5b3	-0.010663438
106	0x3e00052d	0.12501974
107	0x3d29351f	0.041310426
108	0xbdf3d950	-0.119066834
109	0xbcd17e44	-0.025572903
110	0x3e49d8d8	0.19711626
111	0xbd85c019	-0.0653078
112	0x3e302114	0.17200118
113	0xbd0b7ea3	-0.034056317
114	0xbc57ffa8	-0.013183512
115	0x3dd3bcd4	0.103387505
116	0x3e38b945	0.18039425
117	0x3df2d3e4	0.11856821
118	0xbdb1b098	-0.08676261
119	0x3dac26a7	0.0840581
120	0xbc7c9a10	-0.015417591
121	0x3deadbb2	0.11467685
122	0x3d87a085	0.066224135
123	0x3e254063	0.16137843
124	0x3ea6c909	0.32575253
125	0xbc469b41	-0.012121976
126	0x3e3c9a20	0.18418169
127	0xbcca6025	-0.024704048
128	0x3d9b22e2	0.07575013
129	0x3d75df19	0.060027216
130	0xbc43d935	-0.011953642
131	0xbe11f05e	-0.14251849
132	0x3e34f229	0.17670502
133	0x3d6a31e2	0.05717648
134	0xbde84632	-0.11341514
135	0xbd8c0237	-0.0683636
136	0xbc136084	-0.008995179
137	0x3d9f1d58	0.07769269
138	0xbdc3d8ef	-0.09562861
139	0x3e10db38	0.14146125
140	0x3d9f4ddd	0.07778523
141	0xbda99a5b	-0.08281394
142	0xbda3722b	-0.0798076
143	0x3d9ba4ee	0.07599817
144	0x3dc201ed	0.094730236
145	0x3d7640c0	0.060120344
146	0xbdbd63fa	-0.09247585
147	0x3e1b0f05	0.15142448
148	0x3c535529	0.012898722
149	0xbd2cdd39	-0.042203162
150	0x3c529273	0.012852299
151	0x3e10ab17	0.14127766
152	0xba5f253a	-0.0008512322
153	0xbdd1a553	-0.10236611
154	0xbd3b1bc6	-0.045680784
155	0x3bc8f000	0.006132126
156	0x3dd8fdfd	0.105953194
157	0xbdaa28fd	-0.08308599
158	0x3cb4e208	0.022080436
159	0x3cd02fea	0.025413472
160	0x3d6a4552	0.057195015
161	0x3dd1b841	0.10240222
162	0x3d5248f2	0.051339097
163	0x3c7273a1	0.014798076
164	0xbd70141f	-0.05861294
165	0xbd83339e	-0.064063296
166	0xbe1f9f67	-0.15588151
167	0xbd9a9b06	-0.075490996
168	0xbc7c565d	-0.01540145
169	0xbd423866	-0.047417067
170	0x3da06319	0.078314014
171	0x3d3d35fe	0.04619407
172	0x3be6bacc	0.007041311
173	0xbe2781c5	-0.16358097
174	0xbd215a85	-0.039392967
175	0xbd50ca6f	-0.050974306
176	0x3d9a9768	0.0754841
177	0x3d5b8ff6	0.05360409
178	0x3d847d53	0.06469216
179	0xbd9ac2a0	-0.07556653
180	0x3da19ec9	0.07891614
181	0x3d93a7c7	0.07209735
182	0xbd3c4556	-0.04596456
183	0xbe2bba6e	-0.16770336
184	0x3cf0603b	0.029342761
185	0xbde96171	-0.113955386
186	0xbd3ec14b	-0.046571057
187	0xbd98e95c	-0.07466385
188	0x3ca44980	0.020054579
189	0x3d5cdf49	0.05392388
190	0xbdbf55f7	-0.09342568
191	0x3e092480	0.1339283
192	0xbdaca009	-0.08428962
193	0xbd0c3833	-0.034233283
194	0xbc8d7ede	-0.017272409
195	0x3df51647	0.1196714
196	0x3c8e6f50	0.017387062
197	0x3d92a552	0.071604386
198	0x3e533c31	0.2062843
199	0x3cb29df9	0.021803843
200	0x3d05b265	0.032640833
201	0xbb0e1868	-0.0021682028
202	0x3db24d93	0.08706202
203	0xbb826a3a	-0.0039799483
204	0xbd397c4c	-0.045284554
205	0xbd04d5af	-0.032430347
206	0x3c86ce21	0.016455712
207	0x3e224535	0.15846713
208	0x3dda9bcb	0.106742464
209	0x3d740acd	0.059580613
210	0x3d724d9c	0.059156045
211	0xbdc90545	-0.09815458
212	0x3d7e41b2	0.06207437
213	0x3e22ccb5	0.15898402
214	0x3dd2948c	0.10282239
215	0x3d4d6e75	0.05015417
216	0x3d61f78e	0.055167727
217	0xbdc0489e	-0.09388851
218	0x3cb758f2	0.02238128
219	0x3d18a482	0.037266262
220	0x3da37863	0.07981946
221	0xbd612376	-0.05496546
222	0x3db563a6	0.08856897
223	0x3e4bb971	0.19894959
224	0x3e027395	0.12739404
225	0x3de6da29	0.112720795
226	0x3df25e1f	0.118343584
227	0x3df7d0e3	0.12100389
228	0x3e1e4e23	0.15459494
229	0xbdbba310	-0.09161961
230	0x3d9ea1a7	0.077456765
231	0x3d4773d6	0.048694454
232	0xbac38177	-0.0014915903
233	0x3d3fa31e	0.04678642
234	0x3da70ee3	0.08157136
235	0xbdeb31ae	-0.11484085
236	0xbd00ee02	-0.031476982
237	0x3e223eaf	0.15844224
238	0x3d999897	0.07499807
239	0x3dfa1532	0.12211074
240	0x3e5d8765	0.2163368
241	0xbda87950	-0.082262635
242	0xbdd0521c	-0.10171911
243	0xbd243f8f	-0.040099677
244	0x3e264242	0.16236213
245	0x3d082272	0.033235975
246	0x3d9d964b	0.07694682
247	0x3b3f5a12	0.0029197973
248	0xbb8094ba	-0.0039239796
249	0x3e80ae95	0.25133196
250	0xbe093f10	-0.13402963
251	0x3e65b940	0.22433949
252	0x3e61968a	0.22030082
253	0xbd2ab50c	-0.041676566
254	0x3d8a11b1	0.067416556
255	0x3ddf763a	0.10911222
