saved_model/DAP_Model_Baseline.pt (torch, 230050 bytes, 12 tensors)

lstm1.weight_ih_l0 f4 [256, 2]
0.062775746 -0.013545983 -0.15513271 -0.20267014 0.13983618 -0.015340715 0.10865949 -0.09009751
0.063135125 -0.06278979 0.1266842 0.072299615 0.08521319 -0.0002761047 0.0569765 0.12262659
0.0824653 -0.16117594 -0.119646214 -0.13124663 -0.1348905 -0.21893397 0.06904741 0.03928796
-0.0062281955 0.155902 -0.039235033 0.0060561197 0.10237346 0.08727306 0.07612754 -0.080372006
0.015706219 0.073677585 0.064514644 -0.20531975 0.0059551294 0.042732712 -0.1006946 -0.23179641
-0.05362563 -0.11124343 0.10118316 0.081776746 -0.0181053 0.11294743 -0.032792997 0.035802897
-0.06395412 -0.022749253 -0.028524408 -0.17813024 0.110592015 -0.13263449 0.016707513 -0.0047102827
-0.121311575 0.044553623 -0.0041809212 0.015580738 -0.0009911958 -0.042102862 0.017788347 -0.0542832
-0.023946544 0.028468063 0.07445583 0.120298944 0.005594359 0.057573687 -0.014266 -0.10183544
0.09174487 -0.017517608 0.035392936 0.0029535447 0.092483684 0.03673341 0.107890435 0.032545958
0.065876074 0.037796587 0.14796306 -0.10730135 0.14044425 -0.061333798 0.10402096 0.017869424
0.028662112 -0.018983481 0.01611487 -0.072006315 -0.045021914 0.13226724 0.034127068 0.058555827
0.006016812 0.0100908205 -0.0034420488 -0.15829931 -0.10210201 -0.21848907 -0.007881059 0.11762726
-0.15693234 -0.0006218546 0.00017602462 -0.09184653 -0.03019342 0.061587468 -0.062358808 -0.0355822
-0.15871315 -0.067069046 -0.08262036 0.16364886 0.0449364 0.07537516 -0.022691732 -0.1270114
-0.07652038 0.0807745 0.10727316 0.11208458 -0.015842468 -0.25181663 0.1405847 -0.11117088
-0.048770685 -0.06537368 0.01511508 -0.026842207 0.0518682 -0.01804945 -0.07098229 -0.17350762
0.08063937 0.0069440417 0.10881855 -0.14242163 0.11291657 0.033735476 -0.10785067 -0.0541012
-0.011514678 -0.022814829 -0.09542022 -0.032591105 -0.0399725 -0.01020297 0.021257732 0.0915127
0.021674616 -0.09359449 -0.13161275 -0.004834294 -0.09115324 -0.16052663 -0.07297431 0.109289125
0.016152035 0.04474004 -0.091349944 -0.05956866 -0.021512765 0.07724146 -0.007954921 -0.16807057
0.03786033 -0.20643634 -0.030912165 -0.08038969 0.083478235 0.17792508 -0.03360226 -0.055497523
-0.20968497 -0.029078992 -0.08813076 0.027932333 0.046767563 -0.0617278 -0.1331448 0.12707807
-0.13486011 0.13273545 0.10765167 -0.057112288 -0.12807642 0.05323067 0.12670293 -0.09623026
-0.18621877 -0.1935514 0.15266584 0.036112662 0.095282204 0.14996731 -0.051652107 -0.16807215
0.09608094 -0.020408422 0.011700323 0.058493212 0.08374965 -0.038193755 0.0463568 0.08069994
-0.14142266 0.0036803521 0.10481543 -0.012606764 -0.011564721 0.14973904 0.12023109 0.1453226
0.00090593175 0.021707952 0.044256028 0.035054695 0.07627212 0.22447039 0.038194172 -0.16168357
-0.07863163 0.08216181 0.014058995 -0.1614275 0.044795446 -0.27685478 0.061039604 -0.09171385
-0.15583976 -0.17447838 -0.041147657 -0.040107027 -0.029141085 0.15275314 0.033900015 -0.013434798
-0.010892832 -0.06819623 0.006039857 0.15258013 0.029985353 0.022827355 0.028000843 -0.10568271
0.056954455 0.052249637 0.033477385 -0.011437773 -0.14283803 -0.09175071 -0.021256853 0.1580291
00000000: 9290 803d f8ef 5dbc 1cdb 1ebe c388 4fbe
00000010: 3731 0f3e 9f57 7bbc de88 de3d 0b85 b8bd
00000020: fd4c 813d ef97 80bd 81b9 013e d211 943d
00000030: 4184 ae3d 25c2 90b9 3160 693d a623 fb3d
00000040: 91e3 a83d 4e0b 25be 1309 f5bd 8465 06be
00000050: bc20 0abe 3a30 60be ba68 8d3d 69ec 203d
00000060: e415 ccbb c6a4 1f3e eab4 20bd 6a72 c63b
00000070: 2da9 d13d 38bc b23d c1e8 9b3d 149a a4bd
00000080: 54aa 803c 46e4 963d 4120 843d 573f 52be
00000090: 3f23 c33b 7f08 2f3d f838 cebd 0a5c 6dbe
000000a0: 8ca6 5bbd 98d3 e3bd 1e39 cf3d 917a a73d
000000b0: 9151 94bc fb50 e73d f351 06bd 0fa6 123d
000000c0: 61fa 82bd a45c babc 05ac e9bc c667 36be
000000d0: 117e e23d 56d1 07be 32de 883c b758 9abb
000000e0: 3472 f8bd dc7d 363d 1c00 89bb 5a46 7f3c
000000f0: 03eb 81ba 0d74 2cbd deb8 913c 1058 5ebd
00000100: 8b2b c4bc db35 e93c 4c7c 983d 4b5f f63d
00000110: e250 b73b 63d2 6b3d f1bb 69bc 198f d0bd
00000120: bce4 bb3d 1681 8fbc 2ff8 103d 4290 413b
00000130: 1668 bd3d c675 163d a9f5 dc3d e94e 053d
00000140: 09ea 863d 98d0 1a3d a183 173e cfc0 dbbd
00000150: 9ed0 0f3e 2639 7bbd f108 d53d e662 923c
00000160: cecc ea3c 3f83 9bbc 5503 843c 0c78 93bd
00000170: e668 38bd 1071 073e d3c8 0b3d 3cd8 6f3d
00000180: ad28 c53b f853 253c ff93 61bb 3719 22be
00000190: dc1a d1bd 99bb 5fbe 8f1f 01bc 90e6 f03d
000001a0: dfb2 20be f503 23ba 4093 3839 091a bcbd
000001b0: 3158 f7bc 2443 7c3d f36b 7fbd a4be 11bd
000001c0: b385 22be 7f5b 89bd dd34 a9bd 9193 273e
000001d0: 3b0f 383d 4b5e 9a3d 03e4 b9bc 470f 02be
000001e0: b8b6 9cbd 1a6d a53d 08b2 db3d 9a8c e53d
000001f0: 10c8 81bc 1cee 80be 70f5 0f3e 8fad e3bd
00000200: c5c3 47bd a3e2 85bd 3ea5 773c 30e4 dbbc
00000210: c073 543d 71dc 93bc 2a5f 91bd fbab 31be
00000220: 4126 a53d d88a e33b 43dc de3d fad6 11be
00000230: cd40 e73d 362e 0a3d d0e0 dcbd 3899 5dbd
00000240: 0fa8 3cbc 2ae6 babc ad6b c3bd 407e 05bd
00000250: 34ba 23bd 5c2a 27bc b224 ae3c 036b bb3d
00000260: f78e b13c 78ae bfbd 7ec5 06be ff68 9ebb
00000270: 8dae babd 1861 24be 8e73 95bd fad2 df3d
00000280: 4651 843c 5541 373d ae15 bbbd 44fe 73bd
00000290: 8a3b b0bc c530 9e3d 5b55 02bc b11a 2cbe
000002a0: 6f13 1b3d 0c64 53be 823b fdbc 5aa3 a4bd
000002b0: a3f6 aa3d fe31 363e 86a2 09bd 5f51 63bd
000002c0: a8b7 56be 1137 eebc e67d b4bd 59d2 e43c
000002d0: 588f 3f3d 4ad6 7cbd 1c57 08be c120 023e
000002e0: c518 0abe cdeb 073e 7b78 dc3d 93ee 69bd
000002f0: 7726 03be 6708 5a3d 6abe 013e 5f14 c5bd
00000300: 22b0 3ebe 5732 46be 6f54 1c3e dfea 133d
00000310: 5123 c33d 0891 193e 2991 53bd 1b1b 2cbe
00000320: 15c6 c43d 902f a7bc b6b2 3f3c 9496 6f3d
00000330: f084 ab3d 0e71 1cbd a1e0 3d3d 0346 a53d
00000340: 1ad1 10be 1032 713b 79a9 d63d 9a8c 4ebc
00000350: f579 3dbc 3155 193e b83b f63d 73cf 143e
00000360: 0d7c 6d3a e0d4 b13c cf45 353d 8395 0f3d
00000370: 8f34 9c3d 91db 653e 7e71 1c3d 6190 25be
00000380: 9f09 a1bd 7344 a83d b357 663c 404d 25be
00000390: 6e7b 373d e9bf 8dbe aa04 7a3d 79d4 bbbd
000003a0: 7594 1fbe 76aa 32be 728a 28bd 4447 24bd
000003b0: 49b9 eebc 526b 1c3e beda 0a3d a11d 5cbc
000003c0: d977 32bc 77aa 8bbd fee9 c53b f73d 1c3e
000003d0: d8a3 f53c 6f00 bb3c 0662 e53c 2d70 d8bd
000003e0: 1349 693d b703 563d 951f 093d 7f65 3bbc
000003f0: 2244 12be cce7 bbbd da22 aebc 61d2 213e

lstm1.weight_hh_l0 f4 [256, 64]
0.059806556 -0.01949632 -0.0044211918 -0.02231642 0.0023872657 0.10255152 -0.09450594 0.03784213
0.0593742 -0.068088055 0.01560835 0.10525388 0.12199223 -0.012362695 -0.067182414 0.047699157
0.12302772 0.12459216 0.06960516 -0.06143435 -0.06433849 -0.049233526 -0.15609534 0.070133425
-0.083544984 0.008090689 0.10027911 0.109930135 0.07447346 0.07748156 0.05679974 -0.15709862
0.18959996 -0.015841207 -0.16702455 -0.025106229 0.07410031 0.046296597 -0.11549566 -0.061115336
0.054183215 0.16725327 0.054381058 -0.05737424 0.03664588 -0.034480043 -0.0645661 0.078481235
0.022663424 -0.006587507 -0.15146299 0.042460736 -0.067229986 0.09301053 -0.059631664 -0.10262447
-0.07219635 0.059052788 -0.15008177 0.06547791 -0.057765808 0.1717098 -0.042522926 0.01518976
0.17162178 -0.12969598 -0.056948647 0.021562263 -0.13231787 -0.04934575 -0.015484568 -0.053246602
0.038763903 -0.11431328 0.09862576 0.037716746 0.044034563 -0.10213008 -0.08782399 0.12972699
-0.15218094 0.06273727 0.07259897 -0.044860594 -0.042591732 0.14671022 0.06653718 -0.006132309
0.013746178 0.09611765 0.09346029 0.03255082 0.062122703 0.15368488 -0.087742865 0.036820315
0.134172 -0.09951619 0.11726428 0.046625048 -0.09070235 0.13571253 0.027177386 0.026818732
0.14857236 -0.08203774 0.043705612 0.042526927 0.15132742 0.049870335 0.119363934 -0.018007308
0.075847104 0.08998336 -0.14530297 -0.0038663866 0.10504246 0.14015566 0.11504969 -0.096092835
-0.075161055 0.062571526 -0.079357654 0.02325452 0.017522302 -0.08948644 0.12595521 -0.06502841
-0.086308934 0.15374033 -0.0034392965 0.108602956 0.073610686 0.08190071 -0.05790615 -0.22517528
-0.11758383 0.017951215 -0.021447994 0.18949264 0.16558927 0.039305963 -0.08011835 0.28129664
0.053015005 0.08970722 -0.1925911 0.11363177 -0.067403235 -0.008669876 -0.19774607 0.2206506
-0.007962461 0.14647053 0.22623485 0.14928943 0.083093725 0.13858417 -0.006184079 -0.14511687
-0.09556327 0.055288978 -0.0150094945 -0.15832496 0.007807761 -0.007844094 0.008660308 -0.1107059
-0.08912393 0.082098976 0.16916789 -0.20157164 -0.014066563 0.12703072 -0.11691613 0.031156
0.055699103 -0.1715254 0.03379292 0.045784395 -0.05338217 0.2234834 -0.11653048 -0.035002254
-0.055800304 0.06301018 -0.28348416 0.025019934 0.021096367 0.17049702 -0.02399457 -0.24773842
-0.013159769 0.055728283 -0.076232195 -0.047144912 0.057707697 0.06995241 -0.090551786 -0.11286586
-0.10885071 0.1366644 -0.09608618 -0.08736794 0.016804373 -0.00768598 0.116227485 0.11077206
0.08090117 -0.058993362 0.045902893 0.13768975 0.05519784 0.044632375 0.08476752 0.11346718
-0.108290225 -0.09216921 0.08578037 0.120040275 -0.1603569 0.046604987 -0.08983246 0.008592223
-0.074470386 0.12201464 0.077151924 0.107734606 -0.071801044 -0.084097266 -0.029213956 -0.22492014
-0.09107131 -0.049242362 -0.09910091 0.07086771 -0.0765595 0.044859372 -0.033457592 -0.015066554
0.061710313 -0.024448741 -0.029311184 -0.019201681 -0.047827475 0.0032566155 0.0025925247 -0.07383858
-0.24808204 0.0030239185 -0.10096316 0.019199815 0.012328783 -0.03031237 0.08733883 -0.05885316
00000000: b8f7 743d bfb6 9fbc a5df 90bb edd0 b6bc
00000010: ac73 1c3b 8806 d23d 558c c1bd 5900 1b3d
00000020: 5c32 733d c071 8bbd 2aba 7f3c 598f d73d
00000030: 10d7 f93d e78c 4abc ef96 89bd 3160 433d
00000040: f5f5 fb3d 2d2a ff3d 268d 8e3d 96a2 7bbd
00000050: e6c3 83bd 18a9 49bd 75d7 1fbe 1da2 8f3d
00000060: a219 abbd cf8e 043c 225f cd3d 0d23 e13d
00000070: 8b85 983d a7ae 9e3d d8a6 683d 76de 20be
00000080: 7e26 423e 6bc5 81bc 7c08 2bbe 94ab cdbc
00000090: e7c1 973d 80a1 3d3d fd88 ecbd 1354 7abd
000000a0: 38ef 5d3d 7144 2b3e acbe 5e3d 4001 6bbd
000000b0: fe19 163d f23a 0dbd 3b3b 84bd c5ba a03d
000000c0: a5a8 b93c 04dc d7bb 1d19 1bbe 4feb 2d3d
000000d0: e0af 89bd 4e7c be3d 5540 74bd c72c d2bd
000000e0: aedb 93bd 56e1 713d 09af 19be 4819 863d
000000f0: d79b 6cbd b2d4 2f3e 852c 2ebd 79de 783c
00000100: 9fbd 2f3e 06cf 04be fc42 69bd 58a3 b03c
00000110: 567e 07be c51e 4abd fcb2 7dbc 1c19 5abd
00000120: e6c6 1e3d 151d eabd 4dfc c93d e07c 1a3d
00000130: 965d 343d 9329 d1bd 10dd b3bd 27d7 043e
00000140: 52d5 1bbe 667c 803d c5ae 943d bebf 37bd
00000150: ab74 2ebd 343b 163e a544 883d 89f1 c8bb
00000160: a637 613c 55d9 c43d 1c68 bf3d 0254 053d
00000170: 6074 7e3d 925f 1d3e 88b2 b3bd e6d0 163d
00000180: 6364 093e 25cf cbbd 4128 f03d e8f9 3e3d
00000190: 27c2 b9bd 3af8 0a3e 1ca3 de3c f5b2 db3c
000001a0: 5a23 183e 6703 a8bd a804 333d b730 2e3d
000001b0: 93f5 1a3e d644 4c3d 1475 f43d 1084 93bc
000001c0: ba55 9b3d 3249 b83d 4dca 14be 3463 7dbb
000001d0: 8020 d73d f784 0f3e 2c9f eb3d 52cc c4bd
000001e0: 0aee 99bd 8025 803d 4486 a2bd 4380 be3c
000001f0: ee8a 8f3c ab44 b7bd 67fa 003e 9d2d 85bd
00000200: bdc2 b0bd 1b6e 1d3e d265 61bb 3a6b de3d
00000210: 33c1 963d 8fbb a73d 002f 6dbd 5994 66be
00000220: cbcf f0bd 6d0e 933c b4b3 afbc 5c0a 423e
00000230: 3c90 293e 4aff 203d 1715 a4bd 1d06 903e
00000240: 4326 593d 6bb8 b73d 9a36 45be c6b7 e83d
00000250: b50a 8abd 180c 0ebc f27d 4abe 3bf2 613e
00000260: fb74 02bc 5ffc 153e 1caa 673e 54df 183e
00000270: 0b2d aa3d 02e9 0d3e d1a3 cabb 8499 14be
00000280: adb6 c3bd b276 623d 62ea 75bc f01f 22be
00000290: 3fd8 ff3b 8484 00bc f7e3 0d3c c6b9 e2bd
000002a0: 9b86 b6bd 8223 a83d 593a 2d3e cc68 4ebe
000002b0: 7177 66bc 5714 023e b971 efbd de3a ff3c
000002c0: be24 643d 5ba4 2fbe 726a 0a3d 6b88 3b3d
000002d0: 43a7 5abd d5d8 643e 88a7 eebd 865e 0fbd
000002e0: dc8e 64bd 7b0b 813d d624 91be 9bf6 cc3c
000002f0: 4ad2 ac3c c596 2e3e 4390 c4bc 24af 7dbe
00000300: 129c 57bc 5743 643d a01f 9cbd 061b 41bd
00000310: e85e 6c3d 3643 8f3d 3773 b9bd 3726 e7bd
00000320: 1fed debd c1f1 0b3e d5c8 c4bd f6ed b2bd
00000330: 53a9 893c acda fbbb ad08 ee3d 76dc e23d
00000340: 83af a53d 06a3 71bd ac04 3c3d 8bfe 0c3e
00000350: 2117 623d 70d0 363d 989a ad3d 7b61 e83d
00000360: 44c7 ddbd 36c3 bcbd 9ead af3d add7 f53d
00000370: 9934 24be dfe4 3e3d 15fa b7bd 65c6 0c3c
00000380: ee83 98bd d0e2 f93d d401 9e3d f6a3 dc3d
00000390: 6d0c 93bd 303b acbd 1b52 efbc 7751 66be
000003a0: 9883 babd 5cb2 49bd 6bf5 cabd 1723 913d
000003b0: 3acb 9cbd 76be 373d d40a 09bd b5d9 76bc
000003c0: f4c3 7c3d ba48 c8bc 021e f0bc d84c 9dbc
000003d0: bee6 43bd f16c 553b 59e7 293b ae38 97bd
000003e0: 3809 7ebe ef2c 463b c6c5 cebd ee48 9d3c
000003f0: aafe 493c a651 f8bc b3de b23d 0310 71bd

lstm1.bias_ih_l0 f4 [256]
0.124661066 0.005516302 0.043063603 -0.008565963 -0.07670418 -0.05257135 0.09400348 0.17920905
-0.15042466 0.05010132 -0.0071668252 -0.18374091 -0.12427133 0.018846681 -0.06658207 0.108287014
-0.112461984 -0.08826975 -0.01388084 -0.010592308 0.10914341 0.004364732 -0.00028148846 0.22904204
0.16677259 0.059226867 0.059460886 0.09944855 -0.14810766 0.07900821 -0.002818058 -0.12257959
0.17809284 0.08008224 -0.14903569 0.029606527 -0.16975045 0.09013161 -0.036182653 0.004006437
0.15485887 -0.039920937 -0.1060592 0.09064349 -0.13403031 -0.10680587 0.03206505 0.004150913
0.027701009 0.0921302 0.0333539 -0.14082925 -0.106143996 0.124695316 0.11835598 0.038857777
-0.05908087 0.08501042 -0.13948275 -0.1045892 -0.093408406 0.062309515 0.08128052 0.09656851
-0.012350148 0.056753717 -0.0028542138 -0.10372365 -0.07208979 -0.08551585 0.08764585 -0.068540916
0.035867013 -0.076597266 0.047755647 0.009779034 0.034441795 -0.09618492 -0.14564721 -0.13386476
0.14554983 -0.004491214 -0.02207969 0.100274816 0.1989628 -0.066743396 -0.14203146 -0.029353121
-0.04420497 0.14728993 0.051242523 0.10397894 -0.11177404 -0.019689666 -0.017459441 0.14985535
0.042522002 0.13535094 0.030650266 0.065727584 -0.11045815 0.15388462 0.083518334 -0.08621435
0.09616486 0.054386314 -0.08320106 -0.07607619 0.013129504 0.10179884 -0.008807551 0.16259839
0.15839827 -0.07376986 0.18600947 0.018492587 -0.047582258 0.27906793 0.124585554 0.082846016
-0.08843852 -0.0015501787 -0.051108353 0.04015537 0.02372748 0.049649734 -0.060456835 0.10802333
0.054164164 -0.059937965 -0.12522215 0.14585082 -0.097633995 -0.020910406 -0.0060246177 0.15369813
-0.01903472 -0.095068686 0.048034634 -0.1419669 -0.09675536 -0.0063189007 0.09402838 -0.02541162
0.013187513 0.054423235 0.17788549 0.0057806936 -0.12867878 0.05257997 0.19038174 -0.22769172
-0.060026146 0.06448896 -0.13932818 -0.14907788 0.010277692 -0.03818469 0.1243287 0.15020409
0.19387078 -0.117297694 0.02593863 -0.058838945 -0.09817173 0.070668556 0.122457564 0.11645387
0.21021578 -0.17288373 -0.1043862 0.21294154 0.13260677 0.075038485 0.13913389 -0.119001545
-0.07735619 0.061759826 0.04496564 -0.16039746 -0.0631879 -0.043215405 0.1752397 0.04563347
-0.019005163 -0.18034865 0.10759575 -0.012878376 0.051522855 -0.20012073 -0.05314003 0.2009466
-0.039526768 0.03445995 0.1398107 -0.0066362415 0.19781458 0.112492904 0.015315019 0.1088365
-0.12392953 -0.12925243 -0.098490566 -0.07793256 0.08574281 -0.09681997 0.002932076 0.058797427
0.07302301 -0.027677637 -0.06492889 0.095559746 0.13685393 0.05525644 -0.015896643 0.20148836
-0.012056641 0.017916586 0.00760216 -0.04723058 0.099157125 0.06903861 -0.0037212432 -0.088314764
-0.04703695 0.13921387 0.12598498 -0.042658117 0.096829064 0.03151337 -0.1523565 0.06392834
-0.028413478 -0.038172472 0.0442402 0.06977466 0.11307695 0.015075242 -0.03182654 0.09940167
-0.01547224 0.082451 0.019190744 0.07893458 -0.17532943 0.09824939 0.15616824 -0.01697579
-0.22731146 -0.082963705 -0.05182467 0.002452141 -0.030452559 -0.06776713 0.08348096 0.13464963
00000000: 4d4e ff3d 18c2 b43b 7663 303d 4158 0cbc
00000010: 1517 9dbd 0e55 57bd e684 c03d 9482 373e
00000020: ec08 1abe 0b37 4d3d b0d7 eabb 9426 3cbe
00000030: f881 febd 5b64 9a3c 2e5c 88bd 95c5 dd3d
00000040: 7852 e6bd c5c6 b4bd 766c 63bc 5c8b 2dbc
00000050: 9586 df3d 0706 8f3b be94 93b9 ff89 6a3e
00000060: 6fc6 2a3e df97 723d 428d 733d aeab cb3d
00000070: 89a9 17be 0ecf a13d 2baf 38bb 020b fbbd
00000080: f85d 363e 2802 a43d d09c 18be 6389 f23c
00000090: 10d3 2dbe ec96 b83d 4334 14bd 6e48 833b
000000a0: 5393 1e3e 2384 23bd 9135 d9bd 4ba3 b93d
000000b0: 3e3f 09be 09bd dabd a456 033d 6204 883b
000000c0: 3aed e23c c2ae bc3d 199e 083d 8b35 10be
000000d0: 0662 d9bd 4260 ff3d 9f64 f23d 5529 1f3d
000000e0: c8fe 71bd f119 ae3d 91d4 0ebe dd32 d6bd
000000f0: e84c bfbd 4338 7f3d 6776 a63d b6c5 c53d
00000100: 4658 4abc 9676 683d c30d 3bbb 116d d4bd
00000110: d0a3 93bd ef22 afbd ab7f b33d 2e5f 8cbd
00000120: 4ae9 123d 07df 9cbd 6d9b 433d 3e38 203c
00000130: d712 0d3d 99fc c4bd 8b24 15be d813 09be
00000140: 040b 153e 092b 93bb 77e0 b4bc e25c cd3d
00000150: e7bc 4b3e c3b0 88bd b270 11be f575 f0bc
00000160: 4510 35bd 2cd3 163e aee3 513d e9f2 d43d
00000170: cae9 e4bd 394c a1bc 1a07 8fbc ae73 193e
00000180: 8d2b 2e3d 7099 0a3e 4416 fb3c 2f9c 863d
00000190: e237 e2bd ee93 1d3e a90b ab3d 2691 b0bd
000001a0: 15f2 c43d 2fc4 5e3d 5165 aabd d5cd 9bbd
000001b0: 221d 573c e97b d03d 8c4d 10bc 3180 263e
000001c0: 2833 223e a714 97bd 4479 3e3e c47d 973c
000001d0: 9de5 42bd fee1 8e3e b626 ff3d 2cab a93d
000001e0: 411f b5bd 5e2f cbba fe56 51bd f579 243d
000001f0: 2260 c23c 855d 4b3d 96a1 77bd 563b dd3d
00000200: 3edb 5d3d 8381 75bd 3c3a 00be eb59 153e
00000210: 55f4 c7bd 4d4c abbc 286a c5bb 0b63 1d3e
00000220: b3ee 9bbc 5fb3 c2bd f7bf 443d c55f 11be
00000230: ad27 c6bd c80e cfbb f491 c03d 082c d0bc
00000240: 7010 583c e6ea 5e3d 9d27 363e f96b bd3b
00000250: 5fc4 03be 185e 573d 6ef3 423e 0528 69be
00000260: fadd 75bd ca12 843d 0cac 0ebe dfa7 18be
00000270: c463 283c 8d67 1cbd 0ca0 fe3d 1acf 193e
00000280: 1086 463e c639 f0bd 407d d43c 1b01 71bd
00000290: 430e c9bd adba 903d 08cb fa3d 5e7f ee3d
000002a0: ce42 573e 6f08 31be 6fc8 d5bd 590d 5a3e
000002b0: 12ca 073e c7ad 993d 1d79 0e3e 15b7 f3bd
000002c0: ec6c 9ebd dff7 7c3d e42d 383d 3b3f 24be
000002d0: a868 81bd a302 31bd 0972 333e 29ea 3a3d
000002e0: b7b0 9bbc 51ad 38be 295b dc3d d3ff 52bc
000002f0: a109 533d 73ec 4cbe 5ca9 59bd f2c4 4d3e
00000300: d2e6 21bd e025 0d3d 892a 0f3e d474 d9bb
00000310: e88f 4a3e ae62 e63d d8eb 7a3c ace5 de3d
00000320: c4ce fdbd c05a 04be 6cb5 c9bd 1b9b 9fbd
00000330: ed99 af3d 8c49 c6bd 1328 403b 92d5 703d
00000340: 168d 953d 36bc e2bc 70f9 84bd d4b4 c33d
00000350: 7023 0c3e 9454 623d ad39 82bc f752 4e3e
00000360: 3889 45bc cec5 923c 8a1b f93b da74 41bd
00000370: e412 cb3d 1d64 8d3d 1ae0 73bb 5fde b4bd
00000380: d1a9 40bd 158e 0e3e 3502 013e 47ba 2ebd
00000390: 514e c63d 2a14 013d 5803 1cbe ddec 823d
000003a0: 62c3 e8bc bd5a 1cbd 3635 353d 04e6 8e3d
000003b0: e394 e73d 26fe 763c 8c5c 02bd 1a93 cb3d
000003c0: 477f 7dbc 12dc a83d e835 9d3c 74a8 a13d
000003d0: 8f89 33be fa36 c93d 91ea 1f3e d010 8bbc
000003e0: 56c4 68be e0e8 a9bd 1b46 54bd 19b4 203b
000003f0: a577 f9bc 7ec9 8abd 11f8 aa3d 98e1 093e

lstm1.bias_hh_l0 f4 [256]
0.15804726 -0.16938017 -0.053476866 0.081898615 -0.03751561 -0.11940916 -0.057782706 0.22298785
0.0042925025 -0.0895113 0.10458586 -0.0061274734 -0.051596146 -0.058011733 -0.0076172855 0.035902094
-0.015459021 0.059499864 0.07915976 0.0277564 0.020137988 0.07984673 0.03656638 0.022024201
0.084336765 -0.06606186 0.007105472 -0.04413398 -0.05900603 -0.15459009 0.024680445 -0.058113355
0.18776402 -0.05845643 -0.057349857 -0.12469253 -0.02150107 0.07651833 0.013745433 -0.14071733
0.07010596 -0.042813662 -0.027021332 0.12321219 0.048891507 0.015532826 0.0046539176 0.10696347
-0.042753603 -0.11297027 0.027657377 -0.041054953 0.019757248 0.044873722 0.10218978 0.15102017
-0.2136006 -0.120953865 -0.017517982 -0.16790903 -0.16949542 0.02798355 0.03639232 -0.010097318
-0.19733243 -0.036101203 0.073019676 -0.19897024 -0.023983575 -0.07743664 0.048783995 -0.06078712
-0.06327825 -0.03859992 -0.03837837 0.07919834 0.090619475 -0.0076756356 -0.19041821 0.09759651
-0.03771564 0.05904063 0.0386087 0.22987323 0.074287154 -0.06220781 -0.16057056 0.057976954
-0.09274833 0.011997973 0.13573694 0.11732427 0.06356892 0.027222749 -0.105943434 0.1296266
0.042725135 0.13158791 -0.1027428 -0.041518312 -0.009780772 -0.010862361 -0.1349863 -0.015734792
-0.11896105 -0.0031556694 -0.010480122 0.06647253 -0.055446066 0.010316085 0.0579716 0.058619715
0.004048727 -0.17031422 0.16626646 0.09246883 -0.04923052 0.26253986 0.08069313 -0.025182316
-0.04302187 -0.09143114 0.08383262 -0.050530832 -0.18680477 0.1749983 -0.12619327 -0.029828314
0.13457766 0.016312681 0.10040152 0.093934305 -0.16522355 0.06269532 -0.06723445 0.11354164
-0.12919626 -0.013216571 0.114175215 0.023887433 0.09589512 -0.11311394 0.11265309 -0.22351824
-0.07256196 0.108214825 -0.044809468 -0.10620063 -0.16571471 0.10060982 0.11104312 -0.030600082
-0.22774972 0.093519315 -0.076204784 -0.18106909 0.04528383 -0.13036168 0.13067849 0.078778155
0.017877206 -0.06843785 0.073125616 0.034653697 0.065662846 0.10678358 -0.04391343 0.013579072
0.1712391 0.067550994 -0.16458865 0.04108844 0.1426716 -0.032786798 0.15102215 -0.10686472
-0.07526861 0.13709888 0.14839762 -0.14461266 0.010757845 -0.024718465 0.15668885 0.044832595
0.07579891 -0.005449394 0.10681673 0.083502285 -0.18516514 -0.102275304 -0.091083124 0.1993007
0.03463446 -0.049214143 -0.06268886 0.053650666 -0.036118492 0.10630825 0.07678536 0.037413497
-0.023446113 -0.15915644 -0.077475615 -0.030588973 0.12617925 -0.05539937 -0.11648481 0.14772415
-0.14106816 -0.08350748 -0.0026086746 -0.04824309 0.005261554 -0.014514382 0.18622649 0.024915762
0.046826895 0.110421605 0.05364046 -0.09824517 -0.028922029 -0.04461714 -0.14554404 -0.09159972
0.09766501 -0.01853959 -0.089208506 -0.025870394 0.09907212 -0.0140564535 -0.10752837 0.0081111025
-0.0064280615 -0.10342516 0.041139416 0.17520604 0.0030734253 -0.037925396 -0.07181096 0.010388031
-0.064787336 -0.048893787 0.08034418 -0.13414584 -0.16861671 0.22837563 -0.06608563 -0.069035776
-0.027669549 0.12502894 -0.12618801 -0.07533531 0.03950093 0.07988783 -0.13732898 0.14187004
00000000: 24d7 213e ff71 2dbe 8f0a 5bbd 76ba a73d
00000010: f8a9 19bd ca8c f4bd 8fad 6cbd ed56 643e
00000020: 1fa8 8c3b b351 b7bd 1d31 d63d f9c8 c8bb
00000030: 7b56 53bd b69d 6dbd 6c9a f9bb 130e 133d
00000040: d547 7dbc 21b6 733d 831e a23d 6461 e33c
00000050: 6cf8 a43c af86 a33d a1c6 153d 196c b43c
00000060: c1b8 ac3d 714b 87bd 05d5 e83b d5c5 34bd
00000070: 4fb0 71bd dd4c 1ebe a52e ca3c 4508 6ebd
00000080: 3645 403e 0270 6fbd afe7 6abd cc5e ffbd
00000090: 0323 b0bc a4b5 9c3d 8634 613c 3418 10be
000000a0: b793 8f3d 615d 2fbd d75b ddbc ac56 fc3d
000000b0: 7642 483d 657d 7e3c e47f 983b aa0f db3d
000000c0: 671e 2fbd f55c e7bd b991 e23c 3d29 28bd
000000d0: f4d9 a13c 82cd 373d e048 d13d 08a5 1a3e
000000e0: 1eba 5abe a9b6 f7bd df81 8fbc 58f0 2bbe
000000f0: 3590 2dbe c23d e53c 1d10 153d 396f 25bc
00000100: 8311 4abe dbde 13bd 578b 953d dbbe 4bbe
00000110: 3479 c4bc 1a97 9ebd bad1 473d eafb 78bd
00000120: 0798 81bd f31a 1ebd a332 1dbd bd32 a23d
00000130: b496 b93d e683 fbbb fefc 42be aee0 c73d
00000140: b77b 1abd 96d4 713d 2824 1e3d e363 6b3e
00000150: dd23 983d 9ecd 7ebd 9c6c 24be 3e79 6d3d
00000160: d6f2 bdbd 2593 443c a0fe 0a3e b547 f03d
00000170: 6c30 823d 3e02 df3c dff8 d8bd d6bc 043e
00000180: 8d00 2f3d fbbe 063e d16a d2bd 1b0f 2abd
00000190: 883f 20bc 0bf8 31bc d939 0abe 40e6 80bc
000001a0: daa1 f3bd 59cf 4ebb d1b4 2bbc c022 883d
000001b0: 6a1b 63bd cc04 293c a173 6d3d 3a1b 703d
000001c0: 2fab 843b da66 2ebe c141 2a3e 4c60 bd3d
000001d0: f1a5 49bd a06b 863e 7142 a53d 254b cebc
000001e0: b337 30bd 4040 bbbd 70b0 ab3d 6bf9 4ebd
000001f0: c049 3fbe c132 333e cf38 01be 825a f4bc
00000200: bace 093e 2ca2 853c 509f cd3d a160 c03d
00000210: 5d30 29be 6766 803d 37b2 89bd 8588 e83d
00000220: 064c 04be 518a 58bc b2d4 e93d 94af c33c
00000230: a964 c43d 48a8 e7bd aab6 e63d f7e1 64be
00000240: 5d9b 94bd bc9f dd3d 228a 37bd b77f d9bd
00000250: 1eb1 29be 850c ce3d 936a e33d 06ad fabc
00000260: 3937 69be 0e87 bf3d 4111 9cbd 2d6a 39be
00000270: 8a7b 393d 887d 05be 95d0 053e 7156 a13d
00000280: 3873 923c 2529 8cbd e2c2 953d 09f1 0d3d
00000290: 3e7a 863d 59b1 da3d 92de 33bd c27a 5e3c
000002a0: 4d59 2f3e 2d58 8a3d ed89 28be 5a4c 283d
000002b0: 8118 123e 734b 06bd 8da5 1a3e e4db dabd
000002c0: 6e26 9abd a663 0c3e 8cf5 173e 5715 14be
000002d0: ac41 303c 617e cabc 0b73 203e 62a2 373d
000002e0: 753c 9b3d d590 b2bb bbc2 da3d 3f03 ab3d
000002f0: ee9b 3dbe b775 d1bd ca89 babd 7c15 4c3e
00000300: dddc 0d3d c594 49bd 0463 80bd cdc0 5b3d
00000310: fcf0 13bd 24b8 d93d a541 9d3d e53e 193d
00000320: 1012 c0bc e8f9 22be 89ab 9ebd ba95 fabc
00000330: 2235 013e 73ea 62bd 978f eebd 0045 173e
00000340: 2c74 10be f805 abbd 4cf6 2abb 8c9a 45bd
00000350: 1d69 ac3b bbcd 6dbc 28b2 3e3e 241c cc3c
00000360: 8fcd 3f3d b924 e23d 19b6 5b3d c434 c9bd
00000370: e4ed ecbc 76c0 36bd 7f09 15be a298 bbbd
00000380: 9804 c83d 57e0 97bc f3b2 b6bd 26ee d3bc
00000390: 53e6 ca3d 0a4d 66bc d637 dcbd 6ee4 043c
000003a0: 7da2 d2bb 92d0 d3bd ce81 283d 3669 333e
000003b0: 856b 493b a957 1bbd a011 93bd 8f32 2a3c
000003c0: 39af 84bd da44 48bd 7d8b a43d 875d 09be
000003d0: dca9 2cbe 4ddb 693e e757 87bd a162 8dbd
000003e0: 40ab e2bc 9607 003e 6e37 01be 6649 9abd
000003f0: bacb 213d 3b9c a33d f89f 0cbe 6146 113e

lstm2.weight_ih_l0 f4 [256, 64]
-0.013734555 -0.16723332 0.10214372 0.15537262 0.029023835 0.04781049 -0.015498934 -0.11744303
0.037571058 -0.06462255 -0.17371427 -0.09062931 0.053767916 0.039721258 -0.06526327 -0.044230152
-0.11773994 -0.03630802 -0.09374991 0.16795987 -0.058372393 0.052905906 0.0021437374 -0.03765989
-0.0039872485 -0.10025479 -0.015018329 -0.055606592 -0.11983917 -0.15212461 0.09867714 -0.054722134
0.13965547 -0.04616425 0.124576524 0.117920704 -0.19872236 0.033525564 0.06501985 0.07874862
0.03390619 -0.17108808 -0.11396532 -0.033453528 -0.096893355 -0.012024387 0.017843252 -0.03990616
-0.19972709 -0.067563675 0.13487315 0.017015768 1.7223887e-05 -0.076794825 -0.118954025 -0.024095427
-0.10205765 -0.0061251847 0.053412348 0.031198515 -0.15270242 -0.07219989 -0.10318033 -0.018797155
0.14816688 0.01035573 -0.13211408 0.0037982333 -0.0058535733 0.031641494 -0.19611402 0.26063618
-0.12573019 -0.04318935 -0.050643895 0.015575277 0.1862882 0.057710283 0.018006014 -0.04595772
-0.065656565 0.21466047 0.13649607 0.29173064 -0.008464672 0.017700355 0.05070517 -0.093172505
-0.059883814 0.014713324 0.11155386 -0.028666764 -0.055660043 -0.11737189 0.019573588 0.000490423
0.011558549 0.03679064 0.16092855 -0.21363129 0.016896488 0.13040683 0.14790836 0.18153492
0.10472984 0.029247738 -0.19828916 0.1806688 0.14281532 0.12665914 0.16501565 0.11895889
-0.058216073 0.23029082 0.10335439 -0.13000411 0.1266781 0.00052383705 0.033364173 0.02991923
0.14209364 -0.030844137 0.15777344 0.15931703 -0.16450374 -0.102969766 -0.12237473 0.025797166
0.042463675 0.18945473 -0.22065876 -0.058659878 0.039145608 0.047066435 -0.17881177 0.04342708
-0.08482599 -0.14925136 -0.20087703 -0.060671754 0.17057092 -0.17431346 -0.05901096 -0.042327326
-0.045194812 -0.12530912 -0.1133967 0.24526288 -0.070007816 -0.013748142 0.07113247 0.043180503
-0.0677608 0.1453412 0.027433809 0.029673722 0.10309663 0.13378133 -0.120254606 -0.08680719
0.13021135 -0.004810901 -0.06407799 -0.043228388 -0.015972443 -0.11361495 -0.040602725 0.07510037
-0.052926756 -0.009706032 0.11250206 -0.13359088 0.02350036 0.009051417 0.018768495 -0.012087479
-0.20019642 0.14261526 0.10915998 0.012249603 0.004283414 0.056584794 -0.078510076 -0.12946652
0.027479101 0.030987682 -0.12760949 0.114042394 -0.03185419 -0.012462301 0.0047354596 -0.061029844
0.04106846 -0.07279799 -0.004944911 -0.02728511 0.110816635 0.060656995 0.16308108 -0.1179606
0.14572391 -0.05815729 -0.05380866 0.17761165 -0.0070776944 -0.022796405 -0.1510605 -0.025297394
-0.019101322 -0.1743982 -0.16523148 -0.04081901 -0.10026073 -0.1966551 -0.10167297 0.021222357
0.103775576 0.1066643 0.14586289 0.1657195 0.14809072 -0.03922311 0.012742529 -0.088509545
-0.13581374 -0.049563304 0.00420191 -0.1616108 0.14862518 0.095940396 0.040997606 -0.23308536
-0.0511541 0.15716983 -0.023871468 -0.01625559 -0.032786027 -0.09100787 -0.043288924 0.11153331
0.24528016 -0.1055476 -0.2872386 -0.024978362 -0.016129436 0.26121643 0.07031687 -0.16243623
-0.037321348 0.08627645 -0.06709565 -0.019905286 0.11088494 0.1043938 -0.0453012 0.02955442
00000000: e606 61bc 363f 2bbe ba30 d13d 001a 1f3e
00000010: 65c3 ed3c efd4 433d 3eef 7dbc f985 f0bd
00000020: 1ce4 193d d458 84bd 27e2 31be dc9b b9bd
00000030: bf3b 5c3d c2b2 223d c0a8 85bd ad2a 35bd
00000040: a321 f1bd b8b7 14bd f4ff bfbd acfd 2b3e
00000050: e417 6fbd ddb3 583d f27d 0c3b 4241 1abd
00000060: 77a7 82bb 6252 cdbd 700f 76bc bdc3 63bd
00000070: 3d6e f5bd 8ec6 1bbe 3e17 ca3d 5124 60bd
00000080: d801 0f3e b916 3dbd fa21 ff3d 6980 f13d
00000090: e07d 4bbe 1a52 093d 2129 853d f546 a13d
000000a0: 38e1 0a3d b731 2fbe a666 e9bd 9106 09bd
000000b0: 0670 c6bd ef01 45bc 032c 923c a474 23bd
000000c0: 4285 4cbe d35e 8abd 301c 0a3e a764 8b3c
000000d0: 047c 9037 9b46 9dbd 2b9e f3bd c663 c5bc
000000e0: 9a03 d1bd c6b5 c8bb e8c6 5a3d 0794 ff3c
000000f0: 065e 1cbe 89dd 93bd 3550 d3bd 7efc 99bc
00000100: 0fb9 173e 14ab 293c ea48 07be c8eb 783b
00000110: 55cf bfbb 839a 013d 1dd2 48be 1b72 853e
00000120: 6abf 00be 51e7 30bd f96f 4fbd 722f 7f3c
00000130: 55c2 3e3e 9e61 6c3d 5981 933c 2a3e 3cbd
00000140: f376 86bd f4cf 5b3e a0c5 0b3e b85d 953e
00000150: 68af 0abc 5600 913c 39b0 4f3d 3ad1 bebd
00000160: bb48 75bd 2710 713c 5a76 e43d 90d6 eabc
00000170: c9fb 63bd ac60 f0bd ca58 a03c bb8f 003a
00000180: 1160 3d3c c8b1 163d 74ca 243e 29c2 5abe
00000190: 816a 8a3c 5e89 053e 4a75 173e 4ae4 393e
000001a0: 997c d63d f498 ef3c 500c 4bbe 3e01 393e
000001b0: 2e3e 123e efb2 013e ddf9 283e b8a0 f33d
000001c0: fa73 6ebd 5bd1 6b3e 77ab d33d cc1f 05be
000001d0: e7b7 013e 1c52 093a dfa8 083d 2c19 f53c
000001e0: ff80 113e d8ac fcbc 5c8f 213e 0124 233e
000001f0: ab73 28be d0e1 d2bd 9a9f fabd 9454 d33c
00000200: 64ee 2d3d 6c00 423e 5ff4 61be 5745 70bd
00000210: 2557 203d bcc8 403d 6f1a 37be 98e0 313d
00000220: 40b9 adbd 59d5 18be b5b2 4dbe f282 78bd
00000230: 25aa 2e3e 3a7f 32be 7ab5 71bd 6b5f 2dbd
00000240: 321e 39bd 0951 00be 873c e8bd 3126 7b3e
00000250: 4260 8fbd e33f 61bc e7ad 913d 0ade 303d
00000260: 2dc6 8abd 53d4 143e debc e03c 4e16 f33c
00000270: 5324 d33d f9fd 083e 0c48 f6bd f8c7 b1bd
00000280: 2056 053e c3a4 9dbb 523b 83bd 4010 31bd
00000290: a4d8 82bc f4ae e8bd 0b4f 26bd 39ce 993d
000002a0: bac9 58bd 0d06 1fbc 7b67 e63d 0ccc 08be
000002b0: d483 c03c 654c 143c 63c0 993c 900a 46bc
000002c0: 4a00 4dbe bc09 123e 458f df3d 8fb2 483c
000002d0: e25b 8c3b 75c5 673d e4c9 a0bd df92 04be
000002e0: da1b e13c e1d9 fd3c 10ac 02be 0f8f e93d
000002f0: 8a79 02bd ae2e 4cbc ea2b 9b3b 6efa 79bd
00000300: 6737 283d 1d17 95bd ec08 a2bb 0685 dfbc
00000310: d5f3 e23d 7873 783d bafe 263e 5495 f1bd
00000320: a638 153e 5736 6ebd 7866 5cbd d4df 353e
00000330: 01ec e7bb 87bf babc 9baf 1abe 7b3c cfbc
00000340: 607a 9cbc 7195 32be 7132 29be d631 27bd
00000350: 7f55 cdbd f45f 49be eb39 d0bd 82da ad3c
00000360: 4a88 d43d d072 da3d 155d 153e 5fb2 293e
00000370: 18a5 173e 69a8 20bd 0ac6 503c 7e44 b5bd
00000380: c212 0bbe e402 4bbd 2db0 893b 4d7d 25be
00000390: 3331 183e 667c c43d 1bed 273d eead 6ebe
000003a0: f686 51bd 21f1 203e 198e c3bc 712a 85bc
000003b0: a44a 06bd 5662 babd ba4f 31bd 936b e43d
000003c0: b92a 7b3e 5729 d8bd f010 93be 6c9f ccbc
000003d0: e121 84bc 29be 853e 4b02 903d af55 26be
000003e0: 45de 18bd b5b1 b03d 7269 89bd 6910 a3bc
000003f0: a517 e33d 6bcc d53d c08d 39bd 1c1c f23c

lstm2.weight_hh_l0 f4 [256, 64]
0.0013157456 -0.08039842 -0.19746274 -0.07878202 -0.16904777 -0.019403761 -0.07451229 -0.042246897
0.2193105 -0.016663114 -0.10538445 0.1091126 -0.023118095 -0.046222232 -0.08212106 -0.028169563
-0.09447331 -0.15989473 -0.016161568 0.018219095 -0.012254292 0.257768 0.03098752 0.08651179
-0.021716082 -0.063552715 0.025188517 0.12099348 0.07928579 0.0058532455 0.10695149 0.059219707
0.055684805 -0.030515293 0.10895308 0.10198788 -0.20212992 0.2855818 0.04565517 -0.080221854
0.05153922 -0.07175407 -0.062241692 -0.05727586 -0.1918733 -0.27694163 0.20199007 0.13913478
-0.1674502 -0.1331386 0.1168593 0.012105291 0.11461851 -0.11296885 -0.06775585 0.0061354367
0.038116578 -0.15116934 -0.10816673 -0.00422847 -0.10569058 -0.15325703 -0.039048705 0.22296743
0.028867682 -0.14003219 -0.10482701 0.018124547 -0.03159743 -0.19597481 0.14408343 -0.028683081
0.090990774 -0.008316031 0.021365317 0.110290855 -0.028689802 0.10505443 -0.013914892 0.008283928
-0.09534179 0.10614771 -0.03403042 0.025123093 0.0008597773 0.010727915 0.11578285 0.023439435
-0.006449179 0.060402717 0.17472309 -0.03951503 0.09446172 0.026935408 -0.13740368 -0.07431819
-0.08725156 0.04353529 0.1354758 -0.04598279 -0.1273608 0.096005365 0.10320759 0.10198653
-0.018244946 0.010571163 -0.06532955 -0.07995167 0.01589045 0.084977716 -0.080725625 0.12689452
-0.01563355 -0.14757483 0.030807903 0.12245178 -0.11298795 0.075594634 -0.008965461 0.08705053
-0.050155893 -0.10734905 -0.05342666 -0.067658395 -0.12227358 -0.11991291 -0.036073275 0.057475448
-0.059684154 0.06398777 0.0068180626 0.07266674 -0.123155236 0.085322425 0.050017994 -0.07193183
0.15137836 -0.18543394 0.027061068 -0.020965662 0.14006245 -0.009779883 -0.039638363 0.08741644
0.021273818 -0.09418309 -0.16172765 0.17444831 -0.084286965 -0.12948194 0.06745278 0.13843985
-0.015449206 -0.19527012 0.09819182 0.10019471 0.037371848 -0.04016579 0.13061035 -0.09944884
0.10028965 0.1385191 -0.14417896 0.17505275 0.113218136 0.13248557 -0.116119675 0.050849885
0.1749674 -0.018204467 -0.07859285 0.14969498 -0.17416245 -0.10921836 0.1524019 0.11136179
0.06663224 -0.013798295 0.09875174 0.11992642 -0.18976976 0.1365456 -0.16179176 -0.043929625
-0.0938833 -0.043982755 -0.12416123 0.15548767 -0.19679905 -0.102748044 0.007552479 -0.09132603
0.11879992 0.09535503 0.06919524 -0.02247608 -0.10831477 0.17859665 0.0391755 -0.093210615
0.035054505 0.040070504 0.12718159 0.15282263 -0.0008277467 0.08762675 -0.09646246 0.029766643
-0.08272554 0.11890155 0.108653605 0.047065556 0.032426775 -0.028183734 -0.06390327 0.019525243
-0.07027356 -0.0143607855 0.11440119 0.15853496 -0.005550004 0.0028642802 0.10550062 0.015524129
0.09520522 -0.07886766 0.12997434 0.112778 -0.042163897 0.029665738 -0.059267305 0.04998553
0.047116537 0.015092283 0.08051364 -0.019667268 0.10211964 -0.078966044 0.059287116 -0.027937414
0.12262639 -0.08216067 -0.006517426 -0.076449774 -0.033194654 -0.0068823243 0.13899474 0.100272015
0.021136682 -0.08100417 0.012959303 0.08003539 0.053197965 -0.016474647 0.049240127 0.06346455
00000000: 1975 ac3a eda7 a4bd ac33 4abe 7858 a1bd
00000010: dc1a 2dbe a3f4 9ebc e699 98bd 150b 2dbd
00000020: ef92 603e 1581 88bc cdd3 d7bd 6d76 df3d
00000030: 2962 bdbc 8653 3dbd 162f a8bd dbc3 e6bc
00000040: 397b c1bd 72bb 23be 4465 84bc 3640 953c
00000050: 3ac6 48bc 2bfa 833e 8ad9 fd3c 182d b13d
00000060: ede5 b1bc ed27 82bd 2658 ce3c 6ecb f73d
00000070: 9760 a23d 95cc bf3b 6209 db3d 5d90 723d
00000080: c015 643d 35fb f9bc cb22 df3d 06df d03d
00000090: 25fb 4ebe c737 923e ea00 3b3d 5b4b a4bd
000000a0: ca1a 533d ccf3 92bd 25f1 7ebd 189a 6abd
000000b0: 6f7a 44be 4bcb 8dbe 7cd6 4e3e 5979 0e3e
000000c0: 1178 2bbe 7c55 08be ee53 ef3d 4555 463c
000000d0: 1cbd ea3d 365c e7bd 94c3 8abd c60b c93b
000000e0: 2120 1c3d 23cc 1abe 8586 ddbd fa8e 8abb
000000f0: 4e74 d8bd 69ef 1cbe 89f1 1fbd 9351 643e
00000100: eb7b ec3c 9964 0fbe 8baf d6bd ee79 943c
00000110: 4f6c 01bd 9fad 48be 9b8a 133e c8f8 eabc
00000120: 5f59 ba3d f63f 08bc 5106 af3c 2ce0 e13d
00000130: e006 ebbc c726 d73d 4afb 63bc 50b9 073c
00000140: 8e42 c3bd f863 d93d 7b63 0bbd f2ce cd3c
00000150: ae62 613a 23c4 2f3c 8f1f ed3d 0f04 c03c
00000160: a253 d3bb d768 773d 9cea 323e 83da 21bd
00000170: 2575 c13d a5a7 dc3c 8db3 0cbe 2334 98bd
00000180: f2b0 b2bd 0f52 323d 2bba 0a3e 7358 3cbd
00000190: df6a 02be 769e c43d 805e d33d 50de d03d
000001a0: 6d76 95bc ac32 2d3c 80cb 85bd b3bd a3bd
000001b0: b02c 823c cc08 ae3d 7a53 a5bd a3f0 013e
000001c0: ee11 80bc db1d 17be db60 fc3c 00c8 fa3d
000001d0: 3a66 e7bd 5cd1 9a3d dee3 12bc 8c47 b23d
000001e0: 4470 4dbd d2d9 dbbd ead5 5abd 7c90 8abd
000001f0: 926a fabd e694 f5bd 92c1 13bd 606b 6b3d
00000200: 5f77 74bd 050c 833d 0e6a df3b 4dd2 943d
00000210: d038 fcbd 86bd ae3d abdf 4c3d ff50 93bd
00000220: ee02 1b3e 65e2 3dbe 2caf dd3c 2ec0 abbc
00000230: 886c 0f3e cd3b 20bc d65b 22bd 6407 b33d
00000240: 6e46 ae3c 10e3 c0bd ef9b 25be 94a2 323e
00000250: a59e acbd ea96 04be af24 8a3d 2dc3 0d3e
00000260: ab1e 7dbc e4f4 47be cb18 c93d e232 cd3d
00000270: 3913 193d e284 24bd b8be 053e d5ab cbbd
00000280: a964 cd3d f3d7 0d3e a6a3 13be 0741 333e
00000290: e9de e73d 4caa 073e 27d0 edbd f847 503d
000002a0: a72a 333e 8921 95bc 4af5 a0bd a449 193e
000002b0: a457 32be e0ad dfbd 3e0f 1c3e a611 e43d
000002c0: 7c76 883d 3e12 62bc 5a3e ca3d fc9b f53d
000002d0: 0153 42be 9cd2 0b3e bdac 25be 8def 33bd
000002e0: e345 c0bd 4327 34bd 3e48 febd 2938 1f3e
000002f0: b185 49be 916d d2bd c97a f73b 2409 bbbd
00000300: 5f4d f33d 7f49 c33d 3cb6 8d3d c21f b8bc
00000310: 22d4 ddbd 0ae2 363e 7d76 203d 35e5 bebd
00000320: 5095 0f3d f820 243d e43b 023e 897d 1c3e
00000330: 24fd 58ba a775 b33d 1c8e c5bd 2dd9 f33c
00000340: 026c a9bd a882 f33d c885 de3d d0c7 403d
00000350: f0d1 043d 93e1 e6bc b8df 82bd 67f3 9f3c
00000360: 96eb 8fbd 8049 6bbc 2c4b ea3d fd56 223e
00000370: cfdc b5bb a6b6 3b3b b610 d83d eb58 7e3c
00000380: f4fa c23d 5e85 a1bd fe17 053e 27f8 e63d
00000390: 0db4 2cbd 9005 f33c 46c2 72bd a1bd 4c3d
000003a0: 45fd 403d 9f45 773c 56e4 a43d 401d a1bc
000003b0: 1a24 d13d f3b8 a1bd 0cd7 723d 01dd e4bc
000003c0: 8b23 fb3d da43 a8bd 2290 d5bb b391 9cbd
000003d0: 1ef7 07bd 1f85 e1bb a354 0e3e 6a5b cd3d
000003e0: d626 ad3c 84e5 a5bd 4253 543c 98e9 a33d
000003f0: 1ce6 593d d7f5 86bc 04b0 493d b4f9 813d

lstm2.bias_ih_l0 f4 [256]
0.019685311 -0.0074013853 0.036921088 0.04426468 -0.013528562 0.19182616 -0.039671525 -0.040851295
-0.043878928 0.069144495 0.03933895 0.040688895 -0.027210757 0.05455197 0.27217132 -0.16061209
0.1753678 0.056760743 -0.092989445 -0.013214668 -0.020094665 -0.11426377 -0.05633033 -0.011464322
-0.19547662 -0.028314285 -0.19181073 -0.15824933 0.0734382 -0.097351134 -0.030890131 0.1138338
-0.089833446 -0.03848819 -0.01113441 -0.017748766 0.13363409 0.0041650557 0.2624202 0.039235782
0.04429445 -0.0827611 -0.11784621 -0.0314371 -0.080597006 0.22559634 -0.056712557 -0.03365654
-0.07658857 0.3073931 0.10013093 -0.1466263 0.019105077 0.10097207 -0.13149196 -0.040757135
-0.07120174 -0.037401617 0.021078466 0.07337479 0.03851733 0.08140918 -0.087523945 -0.0577745
-0.10036585 0.058759283 -0.064512946 0.05483083 -0.05580098 -0.0475891 -0.03413771 0.029475251
0.06473893 0.063144244 -0.00308298 -0.12296046 0.059582558 0.059736546 0.22885971 -0.110789806
-0.012652806 0.14512938 -0.01697334 0.13203381 -0.077157214 0.20076674 0.13430588 -0.057278425
-0.18610424 0.023894366 -0.023895092 0.15325016 0.19353923 0.09115439 -0.10240663 -0.053371146
0.056117542 0.10429056 0.13154703 0.016177936 0.1437639 0.10518712 0.05088433 0.041190185
0.192326 -0.076870196 0.1292211 0.038306907 0.008226072 0.1000961 0.28222656 0.12255674
0.10924534 -0.18509719 0.02123177 -0.121080175 0.0023843257 0.056157574 -0.06607244 0.0682845
0.05803647 0.09880818 -0.10598323 0.21671897 -0.06187022 0.18890168 0.040900227 0.14981854
0.04160989 -0.016529636 -0.062097155 -0.06331389 -0.016694631 -0.024075996 0.006597417 0.027242107
0.09203576 0.08457313 0.11316131 0.031810664 0.020758398 0.06380501 0.1777433 -0.061774872
-0.005727965 -0.04321667 0.068264686 0.12156808 0.052558556 0.057249043 -0.08821076 -0.020039007
-0.047646724 -0.04364753 0.0685115 0.08237216 0.079380125 -0.09795982 -0.05955317 0.018261744
0.046970885 -0.04750099 0.026247203 0.0778588 0.07322504 -0.0013148907 -0.0623582 0.11393759
0.03161984 -0.17907223 -0.12672184 -0.06706936 0.09000666 0.04034613 0.049531844 0.026550693
0.012954768 0.123688385 0.058547035 0.113364376 0.12946877 -0.010920972 0.09682505 0.07018996
0.008866159 -0.13022548 0.06350549 0.162329 -0.088332824 -0.019673409 -0.069701016 -0.09341557
-0.07775189 0.025196306 0.024905026 0.027359277 -0.10376595 0.15602215 -0.01630169 0.0919044
-0.012264263 0.07688314 0.1245563 -0.039046343 -0.049630225 0.038149472 0.1475245 -0.002414967
0.017829973 0.12586421 -0.06406757 -0.014048615 0.18808842 -0.07480657 0.024215348 0.11928542
-0.059340898 0.075379856 -0.12205356 0.15369259 0.04390988 0.00017106677 -0.14553063 0.059952784
0.027222004 0.12677516 0.061571207 0.020234713 0.15146776 -0.062112726 0.2325706 0.07005315
0.08204517 0.15793979 0.04491613 0.018773858 0.010305214 0.06435973 0.17484502 0.091143355
0.10320193 0.053622637 0.03628133 0.0712113 0.06615064 0.051935874 0.09818481 0.099689335
-0.04231514 0.18082552 -0.09682239 0.16673952 0.047450956 -0.03399517 0.007991807 -0.069868244
00000000: 1743 a13c 5287 f2bb 913a 173d e24e 353d
00000010: e7a6 5dbc 146e 443e 9c7e 22bd b053 27bd
00000020: 64ba 33bd a19b 8d3d e121 213d 66a9 263d
00000030: 18e9 debc e371 5f3d 0a5a 8b3e 7f77 24be
00000040: 9e93 333e f47d 683d 4071 bebd 5682 58bc
00000050: 919d a4bc 2003 eabd a2ba 66bd dad4 3bbc
00000060: 062b 48be 5cf3 e7bc 086a 44be 1d0c 22be
00000070: c466 963d 0860 c7bd 4d0d fdbc b221 e93d
00000080: 99fa b7bd cba5 1dbd 1a6d 36bc dc65 91bc
00000090: 60d7 083e 057b 883b f15b 863e b3b5 203d
000000a0: 196e 353d a77e a9bd 5b59 f1bd 30c4 00bd
000000b0: 0b10 a5bd ba02 673e 6d4b 68bd 71db 09bd
000000c0: 78da 9cbd a162 9d3e 7211 cd3d 3425 16be
000000d0: 4082 9c3c 72ca ce3d d4a5 06be f4f0 26bd
000000e0: 38d2 91bd 7032 19bd bfac ac3c 8645 963d
000000f0: 59c4 1d3d dbb9 a63d c13f b3bd f4a4 6cbd
00000100: 9c8c cdbd 93ad 703d 5d1f 84bd 4b96 603d
00000110: 928f 64bd caec 42bd fcd3 0bbd 1576 f13c
00000120: d895 843d c551 813d d20b 4abb b2d2 fbbd
00000130: d70c 743d 4fae 743d 335a 6a3e c4e5 e2bd
00000140: b74d 4fbc cc9c 143e ad0b 8bbc df33 073e
00000150: 9a04 9ebd cc95 4d3e 7b87 093e c89c 6abd
00000160: 1c92 3ebe 1ebe c33c a4bf c3bc 9ced 1c3e
00000170: 262f 463e 27af ba3d 91ba d1bd b49b 5abd
00000180: 82db 653d 4a96 d53d 44b4 063e 9787 843c
00000190: d836 133e 586c d73d 166c 503d 0ab7 283d
000001a0: 1bf1 443e 1f6e 9dbd 8952 043e b4e7 1c3d
000001b0: a6c6 063c 2fff cc3d 0080 903e 07ff fa3d
000001c0: 05bc df3d 1e8a 3dbe 40ee ad3c e2f8 f7bd
000001d0: 5942 1c3b 7c05 663d fd50 87bd bed8 8b3d
000001e0: a6b7 6d3d f15b ca3d bc0d d9bd 94eb 5d3e
000001f0: a16b 7dbd 716f 413e ff86 273d 086a 193e
00000200: 226f 2a3d 2969 87bc 9659 7ebd b6aa 81bd
00000210: 2ec3 88bc 063b c5bc 252f d83b d72a df3c
00000220: 3f7d bc3d ad34 ad3d 1ec1 e73d e64b 023d
00000230: 840d aa3c 33ac 823d 5702 363e a607 7dbd
00000240: a7b1 bbbb f703 31bd 5bce 8b3d aff8 f83d
00000250: a447 573d f97d 6a3d d8a7 b4bd d828 a4bc
00000260: 3629 43bd c1c7 32bd c24f 8c3d bcb2 a83d
00000270: 0c92 a23d 289f c8bd 06ee 73bd a799 953c
00000280: 8b64 403d 6690 42bd 6004 d73c 6f74 9f3d
00000290: 03f7 953d 6958 acba 506b 7fbd 1c58 e93d
000002a0: ce83 013d b65e 37be 5fc3 01be a95b 89bd
000002b0: 6955 b83d fc41 253d e7e1 4a3d d780 d93c
000002c0: 3c40 543c 5650 fd3d 04cf 6f3d 952b e83d
000002d0: 7693 043e e0ed 32bc 364c c63d c1bf 8f3d
000002e0: 5e43 113c d459 05be 2b0f 823d 9339 263e
000002f0: d7e7 b4bd 212a a1bc 68bf 8ebd aa50 bfbd
00000300: 623c 9fbd 7c68 ce3c a005 cc3c 9020 e03c
00000310: 3e83 d4bd 45c4 1f3e 1f8b 85bc 6038 bc3d
00000320: 0cf0 48bc e874 9d3d 6017 ff3d 0fef 1fbd
00000330: 1049 4bbd 9f42 1c3d aa10 173e 6c44 1ebb
00000340: 2a10 923c 8ce2 003e dc35 83bd 292c 66bc
00000350: 409a 403e 3034 99bd 445f c63c ea4b f43d
00000360: 710f 73bd c160 9a3d 38f7 f9bd 9761 1d3e
00000370: d9da 333d 6360 3339 fb05 15be 0d91 753d
00000380: ae00 df3c 59d1 013e 1732 7c3d 45c3 a53c
00000390: 5d1a 1b3e ea69 7ebd fd26 6e3e 0778 8f3d
000003a0: 4c07 a83d f8ba 213e faf9 373d a2cb 993c
000003b0: 33d7 283c 09cf 833d 930a 333e 5ea9 ba3d
000003c0: 895b d33d 69a3 5b3d bb9b 143d 3bd7 913d
000003d0: fd79 873d b6ba 543d 1e15 c93d ec29 cc3d
000003e0: a452 2dbd 532a 393e d14a c6bd c4bd 2a3e
000003f0: ef5b 423d 853e 0bbd 11f0 023c 1517 8fbd

lstm2.bias_hh_l0 f4 [256]
-0.058653504 -0.06519711 0.12863833 0.02518069 -0.031995885 0.17764689 -0.013726886 0.19462425
-0.042714607 0.020913515 -0.10809897 -0.16395923 -0.008159741 -0.008770095 0.14843625 -0.16440363
0.11931699 0.08299705 -0.10613262 -0.010994368 0.122160874 -0.13412338 0.08268644 -0.06507716
-0.12284118 0.0024942525 -0.051586907 -0.13951668 0.08745057 -0.062050346 -0.19629398 0.10039866
-0.07667185 -0.060127206 0.05737904 0.035575353 0.1279991 -0.032269455 0.3488342 0.2662183
0.023195092 -0.023133552 -0.005601092 0.0055619814 0.014732621 0.060727205 0.078901775 0.01683241
0.0882062 0.18411641 -0.020573549 -0.17819242 0.0074552307 -0.08562749 -0.124735795 0.1447845
-0.11098328 0.14378135 -0.18379705 0.007058772 -0.10348172 0.028156895 0.07044522 0.03532739
0.13123785 -0.05937982 -0.016425692 -0.07410065 -0.11803 0.030174874 0.0012851015 0.05224131
-0.04351735 0.16968437 -0.018925132 -0.09362451 0.13065058 0.07157506 0.22230637 0.06280636
0.09036539 0.1632833 -0.007039117 0.14647482 -0.10565471 0.08344585 0.19421396 -0.07165336
-0.17660436 0.20384336 -0.09683051 0.08307893 0.20125927 -0.030503193 -0.09662299 -0.0054910732
0.116662286 -0.051604375 0.077945165 -0.008048933 0.07716918 0.1788653 0.073656395 0.12771028
0.07571919 0.019322678 0.03882172 0.095546804 0.19062775 0.077329375 0.12109853 0.080514915
-0.02376315 -0.0020564913 0.14781801 -0.10375126 -0.045020483 0.07265724 -0.08022227 0.11875658
0.074903876 0.060048517 -0.1599791 0.053648103 0.06821857 0.15642272 0.0741257 0.13843043
0.089730345 0.09855083 0.032895107 0.13462839 0.048437454 -0.093515955 0.040896352 0.041070808
0.074551605 0.04809253 0.103910156 0.022940023 0.02366947 -0.029566018 0.026779126 0.061234746
0.013743232 0.13846098 0.03723581 -0.11075652 0.08703915 -0.11504962 0.0922797 -0.02095161
-0.044869147 0.064750396 0.00026511948 0.052580677 0.10805337 -0.1197646 0.084666535 0.014192135
-0.118105575 0.0042012576 -0.08143164 0.0931497 0.0038970832 -0.047877993 0.09251474 0.00069003727
0.048209667 0.047074992 -0.013712623 0.1218897 0.090495184 0.04309097 -0.004504662 -0.18302353
0.0036621718 -0.081602424 0.07436953 -0.084884696 0.02662789 -0.13388754 0.09107079 -0.12582436
-0.029249951 -0.006891532 0.13355893 0.012834983 0.07681548 0.18237081 0.13178451 -0.19461122
0.084707126 -0.06759118 0.13931867 0.10733842 -0.04209735 0.06274246 0.20002766 -0.055099014
-0.07386485 0.112823255 0.04743098 -0.15545805 -0.03162659 0.046618596 0.28550172 -0.07456968
0.038777217 0.1490828 -0.072622515 -0.16816072 0.13749851 0.069164634 0.038864087 0.116809316
-0.017715257 -0.0643127 -0.037827853 0.068465374 0.0068841646 -0.047669835 -0.11663931 0.039055254
0.1410658 -0.024824917 0.15615681 0.0467197 0.17980048 0.020768391 0.22931877 0.18654263
0.08468853 0.088468455 -0.0057193963 0.11932354 0.12272876 0.12646109 0.007327447 -0.045289177
0.1924619 -0.04808717 -0.023860132 0.043194246 0.1734051 0.00040674134 -0.029935585 0.0323881
0.007888779 -0.0536145 -0.17373776 0.100780755 -0.014720118 0.072135 0.09868561 0.16053031
00000000: a83e 70bd 1086 85bd c4b9 033e bc47 ce3c
00000010: 1e0e 03bd 11e9 353e bce6 60bc 944b 473e
00000020: 83f5 2ebd d252 ab3c fe62 ddbd eee4 27be
00000030: 6fb0 05bc 72b0 0fbc acff 173e 6d59 28be
00000040: 775c f43d 5bfa a93d 0f5c d9bd b921 34bc
00000050: 7b2f fa3d a457 09be 8257 a93d 2d47 85bd
00000060: 2894 fbbd 9d76 233b cb4c 53bd 76dd 0ebe
00000070: 4919 b33d 8128 7ebd 4a01 49be d09d cd3d
00000080: 2206 9dbd f247 76bd 4906 6b3d 76b7 113d
00000090: 3212 033e fa2c 04bd 659a b23e c44d 883e
000000a0: a203 be3c 9382 bdbc 5d89 b7bb 4841 b63b
000000b0: 1761 713c 17bd 783d 4197 a13d 1fe4 893c
000000c0: 74a5 b43d 0389 3c3e dc89 a8bc 1378 36be
000000d0: 024b f43b 775d afbd 7b75 ffbd 6342 143e
000000e0: 344b e3bd 6b3b 133e 4b35 3cbe 454d e73b
000000f0: 39ee d3bd 4aa9 e63c 9545 903d 74b3 103d
00000100: 3763 063e 4138 73bd 2c8f 86bc 15c2 97bd
00000110: b6b9 f1bd 4c31 f73c da70 a83a fcfa 553d
00000120: 403f 32bd bdc1 2d3e e108 9bbc 35be bfbd
00000130: 44c9 053e f295 923d 48a4 633e 9fa0 803d
00000140: 7d11 b93d bd33 273e 65a8 e6bb 7ffd 153e
00000150: 7f61 d8bd a8e5 aa3d 06e0 463e ffbe 92bd
00000160: c6d7 34be 50bc 503e 134f c6bd 4925 aa3d
00000170: e916 4e3e d5e1 f9bc 46e2 c5bd 76ee b3bb
00000180: a3ec ee3d 1c5f 53bd b7a1 9f3d acdf 03bc
00000190: e00a 9e3d 7728 373e 2ad9 963d 7cc6 023e
000001a0: aa12 9b3d 984a 9e3c 8603 1f3d 0bae c33d
000001b0: ec33 433e dd5e 9e3d 8202 f83d 01e5 a43d
000001c0: f0aa c2bc 33c6 06bb 9b5d 173e 8a7b d4bd
000001d0: 6667 38bd 52cd 943d 934b a4bd a636 f33d
000001e0: 3467 993d 6ff5 753d 90d1 23be 1dbe 5b3d
000001f0: 2db6 8b3d 472d 203e 37cf 973d b5c0 0d3e
00000200: 8bc4 b73d 04d5 c93d 05bd 063d 06dc 093e
00000210: 5a66 463d 4b85 bfbd ef82 273d dd39 283d
00000220: 83ae 983d acfc 443d d9ce d43d b7ec bb3c
00000230: 7ae6 c13c 6f34 f2bc e65f db3c 49d1 7a3d
00000240: 4b2b 613c b7c8 0d3e 9484 183d 50d4 e2bd
00000250: 9541 b23d 239f ebbd 24fd bc3d b6a2 abbc
00000260: b6c8 37bd db9b 843d bcff 8a39 d65e 573d
00000270: 164b dd3d 2547 f5bd a665 ad3d 2186 683c
00000280: 56e1 f1bd b4aa 893b a2c5 a6bd 45c5 be3d
00000290: 3566 7f3b b71b 44bd 5e78 bd3d 9ee3 343a
000002a0: 8077 453d b5d1 403d e9aa 60bc 4fa1 f93d
000002b0: 8a55 b93d 2880 303d d89b 93bb 856a 3bbe
000002c0: 0c01 703b 2c1f a7bd 0d4f 983d 07d8 adbd
000002d0: bc22 da3c d119 09be 5383 ba3d 1ad8 00be
000002e0: 989d efbc 5cd2 e1bb acc3 083e d249 523c
000002f0: 6f51 9d3d 6abf 3a3e 85f2 063e 2a48 47be
00000300: ee7a ad3d 3f6d 8abd 8ea9 0e3e 3fd4 db3d
00000310: 456e 2cbd 1e7f 803d 0dd4 4c3e 81af 61bd
00000320: 7446 97bd e10f e73d fd46 423d 6530 1fbe
00000330: e28a 01bd 24f3 3e3d 482d 923e fdb7 98bd
00000340: dcd4 1e3d 29a9 183e 1dbb 94bd 5332 2cbe
00000350: 69cc 0c3e 30a6 8d3d f32f 1f3d b939 ef3d
00000360: 961f 91bc 60b6 83bd 61f1 1abd 9337 8c3d
00000370: 8f94 e13b 7241 43bd 97e0 eebd 67f8 1f3d
00000380: 8e73 103e a05d cbbc 92e7 1f3e 285d 3f3d
00000390: 9e1d 383e 7922 aa3c 8ad2 6a3e 0805 3f3e
000003a0: 2e71 ad3d f32e b53d c669 bbbb e65f f43d
000003b0: 3759 fb3d 047f 013e 151b f03b 2581 39bd
000003c0: bb14 453e 0df7 44bd 5376 c3bc 73ec 303d
000003d0: 1b91 313e e63f d539 793b f5bc 62a9 043d
000003e0: f03f 013c e19a 5bbd 50e8 31be 2466 ce3d
000003f0: a62c 71bc 84bb 933d ae1b ca3d 0f62 243e
