saved_model/DAP_Model_Fuel.pt (torch, 231010 bytes, 12 tensors)

lstm1.weight_ih_l0 f4 [256, 3]
0	0x3d94eb4b	0.07271441
1	0x3dc06780	0.09394741
2	0x3e62f1be	0.2216253
3	0x3e39cbf8	0.18144214
4	0xbd58937a	-0.05287502
5	0x3dd6e638	0.104931295
6	0x3ded8e7f	0.115994446
7	0x3e11d252	0.14240387
8	0x3d908355	0.070562996
9	0x3e2ace60	0.16680288
10	0xbd33f40e	-0.04393392
11	0x3e2a1215	0.1660846
12	0x3e0d57b0	0.13802981
13	0xbbc8db21	-0.006129638
14	0xbe37b85b	-0.1794142
15	0x3b4b1eed	0.0030993775
16	0xbd1b9cec	-0.03799145
17	0xbe3f69d7	-0.18692718
18	0x3dcbedf8	0.09957498
19	0x3ce3f243	0.02782548
20	0xbe0cc1da	-0.13745824
21	0xbc3eb81d	-0.011640576
22	0xbe2fe856	-0.17178473
23	0xbd7a1e21	-0.06106389
24	0xbcebc604	-0.028780945
25	0xbe10a78d	-0.14126416
26	0x3d6dd6f9	0.058066342
27	0x3c0b186b	0.008489708
28	0xbcc6983d	-0.024242515
29	0xbdb72950	-0.089434266
30	0xbe088e34	-0.13335496
31	0x3e0e845c	0.13917679
32	0x3e989be7	0.29806444
33	0xbd0502ee	-0.032473497
34	0xbbc18c89	-0.0059066457
35	0xbd1b0010	-0.037841856
36	0x3dfd5fa1	0.123717554
37	0x3d162010	0.03665167
38	0x3e876569	0.26444557
39	0xbd2244c3	-0.039616358
40	0xbd3305dd	-0.043706764
41	0xbba89fc5	-0.005145999
42	0x3d5a2239	0.053255294
43	0xbd7a7606	-0.061147712
44	0xbdaf914f	-0.08572637
45	0x3d8a7b57	0.067618065
46	0x3d513580	0.051076412
47	0xbd6e7f82	-0.05822707
48	0x3d81cb45	0.06337599
49	0x3d88788e	0.06663619
50	0x3cc30bae	0.02380928
51	0x3d9950d3	0.07486119
52	0xbd66d2ce	-0.056353383
53	0xbdee6114	-0.1163961
54	0xbe0d7826	-0.13815364
55	0x3c060526	0.008179938
56	0xbc17c601	-0.009263516
57	0xbddf48b8	-0.10902542
58	0xbd09dc49	-0.033657346
59	0x3e75f6e6	0.24019966
60	0xbe2fb1bc	-0.17157644
61	0xbe26da02	-0.16294101
62	0x3e97524c	0.29554975
63	0x3e748683	0.23879437
64	0x3cf7d186	0.030251276
65	0x3c8f9001	0.017524721
66	0xbe242188	-0.16028416
67	0x3d9c399d	0.07628176
68	0xbdf78345	-0.120855846
69	0x3d9f7215	0.07785431
70	0xbd6e81d9	-0.0582293
71	0xbd8ed39c	-0.06973955
72	0x3c24d8a5	0.010061418
73	0xbe3193dc	-0.1734156
74	0x3bf0b0b7	0.007345285
75	0x3e7b0be9	0.24516262
76	0x3df28d67	0.118433766
77	0x3ce7baf8	0.028287396
78	0xbd2792e4	-0.04091157
79	0xbe776e9e	-0.24163291
80	0x3c401eca	0.011726091
81	0x3e16bbd0	0.14720082
82	0x3db131a7	0.086520486
83	0xbcec7ae9	-0.028867202
84	0x3bea906c	0.0071583297
85	0x3de75057	0.112946205
86	0xbdf5b8ec	-0.11998162
87	0x3d482fbd	0.04887365
88	0xbc1a5680	-0.009420037
89	0x3af54801	0.0018713475
90	0xbd8af4a0	-0.0678494
91	0xbe2426a8	-0.16030371
92	0x3e15e29c	0.14637226
93	0xbded2562	-0.11579396
94	0xbec1176d	-0.37713185
95	0x3e061d91	0.13097216
96	0x3d96d515	0.07364861
97	0xbdc52637	-0.096264295
98	0x3d8779b2	0.066150084
99	0xbcd0d8a7	-0.025493933
100	0x3cafceb8	0.021460876
101	0x3e138e14	0.14409667
102	0x3dd184c9	0.10230405
103	0x3e03f5a4	0.12886673
104	0xbcdb996a	-0.026806552
105	0xbddde660	-0.10834956
106	0xbe08b593	-0.13350515
107	0x3d809939	0.06279225
108	0x3db5be82	0.08874227
109	0x3de8f445	0.11374716
110	0xbe1e4b55	-0.15458424
111	0xbd1378ba	-0.036003806
112	0xbd517f60	-0.051146865
113	0xbdd328be	-0.10310505
114	0x3d470acc	0.04859428
115	0xbe1ebc4e	-0.1550152
116	0xbd8301fa	-0.063968614
117	0xbd1e601b	-0.038665872
118	0x3b512d5c	0.0031917905
119	0xbe0ed0b5	-0.13946803
120	0xbdd52f1e	-0.104093775
121	0x3e36fa24	0.17868859
122	0x3db8993b	0.090136014
123	0xbd239e61	-0.039945964
124	0x3db7d631	0.08976401
125	0xbe39a5aa	-0.18129602
126	0x3e35b4dd	0.17744775
127	0xbd37571c	-0.04476081
128	0x3dadd8ee	0.08488642
129	0x3e443421	0.1916051
130	0x3c14a0fa	0.009071583
131	0xbe2e4bc0	-0.17021084
132	0x3e560905	0.20901878
133	0xbd992b84	-0.07479003
134	0x3e2c81db	0.16846411
135	0x3d0d7330	0.03453368
136	0x3d59e3b7	0.05319568
137	0xbdd4444e	-0.103645906
138	0x3e3dfcf9	0.18553533
139	0xbc5486da	-0.012971604
140	0x3e0f1443	0.13972573
141	0x3e5156fb	0.20443337
142	0x3bc13133	0.0058957576
143	0xbb4a220d	-0.003084305
144	0x3d82a6c2	0.06379463
145	0x3d964e60	0.073391676
146	0xbdd916b1	-0.10600031
147	0xbc510084	-0.012756471
148	0x3d7fbe14	0.062437132
149	0x3e15d72d	0.14632864
150	0x3d8c96b4	0.06864682
151	0xbd7621bf	-0.060090777
152	0x3e4b6f29	0.19866623
153	0x3e2e0269	0.16993107
154	0xbc7f170b	-0.015569459
155	0x3d5adb2f	0.053431686
156	0x3de6f4c0	0.11277151
157	0xbccdd647	-0.02512659
158	0xbe4044cf	-0.18776248
159	0x3db0e88e	0.08638106
160	0x3da1232a	0.07868035
161	0xbdb59cc5	-0.08867792
162	0x3c2172fd	0.0098540755
163	0xbdeb593f	-0.11491632
164	0x3dbc05ae	0.09180771
165	0x3e19fe57	0.15038429
166	0x3da636e1	0.08115936
167	0x3da27424	0.07932308
168	0xbcf6cf1e	-0.030128058
169	0x3d5e4e15	0.054273684
170	0xbdba4f2a	-0.090971306
171	0x3dd23f2c	0.10265955
172	0xbd351562	-0.044209845
173	0xbdee006b	-0.116211735
174	0xbdebcc78	-0.11513609
175	0xbd1eb2cf	-0.038744744
176	0xbdf0930b	-0.11746796
177	0x3c36ce39	0.011157566
178	0x3dd6d440	0.10489702
179	0x3a8e4f44	0.0010857363
180	0xbd993590	-0.07480919
181	0xbd969002	-0.07351686
182	0xba1a376b	-0.0005882892
183	0xbe031333	-0.12800293
184	0xbdf84279	-0.12122054
185	0x3db237b1	0.087020285
186	0x3d997e4c	0.07494792
187	0x3deb3ac5	0.11485819
188	0xbdff0173	-0.12451448
189	0x3c0830aa	0.008312384
190	0xbdf44a90	-0.11928284
191	0xbcfabc0c	-0.030607246
192	0xbe10ca84	-0.14139754
193	0xbd7c46b9	-0.061590884
194	0x3e3b92a8	0.18317664
195	0x3e3d893e	0.18509385
196	0x3da419a4	0.08012703
197	0xbd4816bc	-0.048849806
198	0x3da19a6d	0.078907825
199	0x3e09e4ea	0.1346623
200	0xbce1dccc	-0.027571104
201	0x3e29eeab	0.16594951
202	0x3d925952	0.07145943
203	0x3e478329	0.19483627
204	0x3e18f972	0.14938906
205	0x3da51972	0.08061494
206	0xbe1661ca	-0.14685741
207	0x3d80e5cc	0.0629383
208	0xbd8518c2	-0.06498863
209	0x3d385e53	0.04501183
210	0x3c9b2058	0.018936321
211	0x3df4375c	0.119246215
212	0xbdbffb94	-0.093741566
213	0x3a8e52f5	0.0010858463
214	0xbddc0a37	-0.10744136
215	0x3e2978bb	0.16549961
216	0x3d6fd266	0.05855026
217	0xbe65e8ac	-0.22452039
218	0x3da59cf6	0.080865785
219	0x3c545dd2	0.012961822
220	0xbca0041e	-0.019533213
221	0xbe0fe3e0	-0.14051771
222	0xbea2bb0a	-0.31783324
223	0x3e1dd73f	0.15414141
224	0x3da5e941	0.0810113
225	0x3e0d3fb2	0.13793829
226	0x3df23313	0.11826148
227	0xbdcb0088	-0.09912211
228	0xbbb23cd9	-0.0054393825
229	0x3db5658c	0.08857259
230	0x3eacd638	0.33757186
231	0x3e15efc6	0.14642248
232	0x3d6cf74a	0.05785302
233	0x3e0cb4f3	0.13740902
234	0x3bf4a8e2	0.0074664215
235	0xbdef2d7a	-0.11678596
236	0x3cf9ef32	0.030509565
237	0x3d05e1f1	0.032686178
238	0x3db27e79	0.08715529
239	0x3bcc2f83	0.00623125
240	0xbdc6100d	-0.0967103
241	0x3ce3277d	0.02772879
242	0xbd984ccf	-0.07436525
243	0xbdb0ad8d	-0.08626852
244	0x3dd9ae9a	0.10629006
245	0xbe719065	-0.23590238
246	0x3bcd4d89	0.0062653464
247	0xbbb07ae7	-0.005385745
248	0xbe241d1f	-0.16026734
249	0x3c8b2927	0.016987396
250	0xbdc54d10	-0.09633839
251	0x3e6498ec	0.2232396
252	0x3d35fb4c	0.04442911
253	0xbe0a0094	-0.13476783
254	0x3ed1ddbd	0.40989485
255	0xba7b6603	-0.0009590091

lstm1.weight_hh_l0 f4 [256, 64]
0	0xbe295be4	-0.1653896
1	0x3e1b6b42	0.15177634
2	0x3d9cda34	0.076588064
3	0x3e14cd2c	0.14531392
4	0xbe598153	-0.2124074
5	0x3e01ebb4	0.1268757
6	0x3d869e7b	0.065731965
7	0x3cc5c4cb	0.02414169
8	0xbdbefe7c	-0.09325883
9	0xbda7e7f8	-0.081985414
10	0x3dc6d25b	0.09708091
11	0x3db6f1ea	0.0893286
12	0xbe05cd06	-0.13066491
13	0x3d8eb680	0.06968403
14	0x3bdf9ff0	0.006824486
15	0xbe120767	-0.14260636
16	0x3e1630cd	0.14667054
17	0x3cc5ee29	0.024161415
18	0x3d88bf92	0.06677164
19	0xbd370f90	-0.044692576
20	0xbdc6de96	-0.09710424
21	0x3cc6afb1	0.024253698
22	0xbd6669f8	-0.056253403
23	0x3d929164	0.07156637
24	0xbcee34a7	-0.029077841
25	0x3d4d88a6	0.050179146
26	0x3debd672	0.115155116
27	0xbcd94b63	-0.026525205
28	0xbd8250fa	-0.06363101
29	0x3d9753c0	0.07389021
30	0xbd961743	-0.073286556
31	0x3e6066f5	0.21914275
32	0x3d948ab0	0.07253015
33	0xbc9f2108	-0.01942493
34	0x3e0309c0	0.12796688
35	0x3cfd0ebe	0.030890819
36	0x3e395bde	0.18101451
37	0x3d57ee34	0.052717403
38	0xbbd43368	-0.0064758547
39	0xbc0a7d36	-0.008452704
40	0xbc91337a	-0.017724741
41	0x3dca8c39	0.098900266
42	0xbd414048	-0.047180444
43	0xbe0b83e2	-0.13624528
44	0x3dea4b30	0.11440122
45	0xbdfa2737	-0.12214511
46	0xbd6b1bb7	-0.057399478
47	0xbd827d17	-0.06371515
48	0xbd2c6e76	-0.04209753
49	0xbe1702ff	-0.14747237
50	0xbdb66ace	-0.0890709
51	0xbc7a3b88	-0.015272982
52	0xbd00986d	-0.031395365
53	0x3d78b21e	0.06071674
54	0xbe04c0a1	-0.12964107
55	0xbde4fec6	-0.11181407
56	0x3bb01936	0.005374099
57	0xbdf77d9a	-0.120845035
58	0x3d840fe6	0.06448345
59	0x3e4e0c5d	0.20121904
60	0x3e2118b8	0.15732086
61	0xbdcd185b	-0.10014411
62	0xbb521e39	-0.003206147
63	0x3dbb6a99	0.09151191
64	0xbe48d474	-0.19612294
65	0x3bddd64c	0.006769931
66	0xbd2415f7	-0.04006001
67	0x3e031865	0.12802275
68	0xbe7a543d	-0.24446197
69	0x3e0a8517	0.13527332
70	0x3dd15802	0.10221864
71	0x3e055b74	0.13023168
72	0xbd3c938d	-0.046039153
73	0x3cd54cdf	0.026037632
74	0x3e1ffb84	0.1562329
75	0xbd139577	-0.036031213
76	0xbe2a2910	-0.16617227
77	0xbceb014d	-0.028687144
78	0xbd888de1	-0.06667686
79	0xbe0d7dd8	-0.13817537
80	0x3e2465b4	0.16054422
81	0xbdf6cb2f	-0.12050473
82	0xbda46340	-0.08026743
83	0x3ddc7031	0.10763586
84	0x3b8959d4	0.0041916166
85	0xbe1996e1	-0.14998962
86	0xbe22b010	-0.15887475
87	0x3d376cd8	0.044781536
88	0x3db24267	0.087040715
89	0x3c7d3afe	0.015455959
90	0xbd31b79f	-0.043388005
91	0x3d879e51	0.06621993
92	0xbe8f2bf2	-0.27963215
93	0x3deb201f	0.11480736
94	0xbdef8221	-0.11694742
95	0x3d87a656	0.06623523
96	0xbe1f7643	-0.15572457
97	0xbc731a6a	-0.014837841
98	0xbd5c7e5a	-0.053831436
99	0x3dd9c9c2	0.106341854
100	0x3cf575e5	0.029963443
101	0x3d97c697	0.07410925
102	0x3cc2a2de	0.023759302
103	0x3d8fb0fe	0.070161805
104	0xbaf978cd	-0.0019033194
105	0x3d228ddd	0.039686073
106	0xbde25350	-0.11051047
107	0x3d970036	0.07373087
108	0x3dbbbbb7	0.09166663
109	0xbe13aa36	-0.14420399
110	0x3cc4195e	0.023937877
111	0xbd258424	-0.040409222
112	0xbd5bcd67	-0.053662684
113	0x3d31ff07	0.043456104
114	0x3d8ec9c1	0.06972075
115	0x3c90c5ff	0.017672537
116	0x3e1b4b10	0.15165353
117	0x3d7660ec	0.060151026
118	0xbd80047c	-0.06250855
119	0xbd6495bf	-0.05580687
120	0xbd8e9acb	-0.06963118
121	0x3de3618f	0.11102592
122	0xbe034154	-0.1281789
123	0xbe08c76e	-0.13357326
124	0xbd6a9775	-0.057273347
125	0xbdbd02d4	-0.09229055
126	0x3e09123b	0.1338586
127	0x3d5d7a35	0.054071624
128	0xbd8f9f81	-0.07012845
129	0xbd8ab3f1	-0.06772602
130	0x3e1d713f	0.15375231
131	0xbe327040	-0.17425632
132	0xbdef1d57	-0.11675518
133	0x3ddbeaca	0.10738142
134	0xbdd24536	-0.10267107
135	0x3ad24053	0.0016040899
136	0x3d26a2fe	0.040682785
137	0x3de5ebb5	0.11226598
138	0x3dc81047	0.0976873
139	0x3df718e7	0.120652966
140	0xbe44734c	-0.19184607
141	0xbcc29cb1	-0.023756357
142	0x3e07802f	0.13232492
143	0xbe346cb1	-0.17619587
144	0x3d204b97	0.039134588
145	0xbe40e439	-0.1883706
146	0x3c34c827	0.011034048
147	0xbe808d0d	-0.25107613
148	0xbc9335f1	-0.017970057
149	0x3cc69b02	0.024243835
150	0xbd9d6195	-0.07684628
151	0xbdd575c0	-0.1042285
152	0xbd66b2ca	-0.05632285
153	0x3e2aabe6	0.16667137
154	0x3de87b74	0.11351672
155	0xbe04ba07	-0.12961589
156	0xbdbe3d26	-0.09289007
157	0x3de4a56f	0.111643665
158	0xbd590c6e	-0.05299037
159	0x3bcd22a8	0.006260235
160	0x3d4a397f	0.04937124
161	0xbd17d85e	-0.03707158
162	0xbdceac05	-0.10091404
163	0xbda9cde3	-0.08291223
164	0xbe6d33dd	-0.23164316
165	0xbd080c94	-0.03321512
166	0x3dd7ca06	0.1053658
167	0x3dafe1f4	0.08588019
168	0xbde852d9	-0.11343927
169	0xbe16b0c8	-0.14715874
170	0x3c6292cb	0.0138289435
171	0x3ce2577d	0.027629608
172	0xbdf388a8	-0.118912995
173	0xbdd88232	-0.10571708
174	0xbc7a76e2	-0.015287133
175	0xbdb9c9e7	-0.09071713
176	0xbde100e0	-0.10986495
177	0x3dcaa4fa	0.09894748
178	0xbcc05582	-0.023478273
179	0xbd6f9c2b	-0.058498543
180	0x3e14311b	0.14471857
181	0xbe825ba5	-0.25460544
182	0xbd2e2287	-0.042513397
183	0x3e00d1ad	0.12579985
184	0x3e1e0671	0.15432145
185	0x3e8980ac	0.2685598
186	0xbde3feea	-0.111326054
187	0xbc78cdfe	-0.015185831
188	0x3dfe70d6	0.124238655
189	0x3da9bba6	0.08287744
190	0x3d5cbb71	0.053889696
191	0x3d2d10ea	0.04225246
192	0x3e284996	0.16434321
193	0x3de46509	0.111520834
194	0x3d4e5c3b	0.050380927
195	0xbd20cd33	-0.039258193
196	0xbd431c60	-0.047634482
197	0x3d83af27	0.06429892
198	0xbd0fdcba	-0.03512261
199	0x3e237ff2	0.15966776
200	0xbc81c515	-0.015841046
201	0xbd617f0b	-0.0550528
202	0xbe61e853	-0.22061281
203	0xb9ddb187	-0.00042284673
204	0x3e3a6fa4	0.1820665
205	0x3de2894c	0.110613436
206	0xbd513b72	-0.051082082
207	0xbd54992c	-0.05190389
208	0xbe243893	-0.16037206
209	0x3da2f3a3	0.07956626
210	0xbd8ddb80	-0.06926632
211	0x3de510fe	0.11184882
212	0xbc5f2b33	-0.013621139
213	0xbd8be0ef	-0.06830012
214	0xbd534cf8	-0.051587075
215	0xbd91f4ee	-0.07126795
216	0x3df602ad	0.12012229
217	0xbc80124f	-0.01563373
218	0xbdc8a0c9	-0.09796292
219	0x3d0eb715	0.03484257
220	0xbdae5320	-0.085119486
221	0xbda74f38	-0.08169407
222	0x3da2417b	0.07922646
223	0x3cf29901	0.029613974
224	0x3e12f25e	0.14350268
225	0x3dd0a7c2	0.10188247
226	0xbd9a483a	-0.075333074
227	0xbd93b7df	-0.07212805
228	0x3d97ba68	0.07408601
229	0xbc2fc9ea	-0.010729292
230	0xbe01faf8	-0.12693393
231	0xbbebf7d0	-0.0072011724
232	0x3e0f3017	0.13983189
233	0xbd5badee	-0.05363267
234	0xbe067238	-0.13129508
235	0x3d98f3ca	0.07468374
236	0x3d11abeb	0.035564344
237	0x3dc06bf5	0.09395591
238	0xbde9a89a	-0.11409111
239	0xbdb2b81a	-0.08726521
240	0xbde231ca	-0.11044653
241	0x3dcbe201	0.09955216
242	0x3cc7b328	0.02437742
243	0xbdff722f	-0.12472951
244	0xbd967349	-0.07346208
245	0x3e105fc1	0.14099027
246	0x3d0775c9	0.033071313
247	0xbddd9e54	-0.10821214
248	0xbdc6e40a	-0.09711464
249	0x3d738d6f	0.059461053
250	0xbdc11e98	-0.094296634
251	0xbd308351	-0.043093983
252	0x3d9c721d	0.07638953
253	0xbdd57738	-0.1042313
254	0x3b8c4199	0.004280281
255	0xbd1998d8	-0.03749928

lstm1.bias_ih_l0 f4 [256]
0	0xbd4920cc	-0.049103543
1	0xbe21b8be	-0.1579313
2	0x3dcc3143	0.099703334
3	0x3d8c81ca	0.06860693
4	0x3e19b553	0.15010576
5	0xbc2f6818	-0.01070597
6	0x3e0364df	0.12831448
7	0x3da7401f	0.08166527
8	0xbe0071b8	-0.1254338
9	0xbe72d07c	-0.23712343
10	0x3c26d23d	0.010181961
11	0x3d8596ca	0.06522901
12	0xbd4bea2b	-0.049783867
13	0xbd8aca28	-0.067768395
14	0x3c2aac04	0.010416988
15	0xbe54e51c	-0.20790523
16	0x3e1c5252	0.15265778
17	0x3c637e03	0.013885024
18	0xbe26b05e	-0.16278216
19	0xbe6db8d4	-0.23215038
20	0xbd8c3c87	-0.06847482
21	0xbc80b6b3	-0.015712118
22	0x3d35c1da	0.044374324
23	0x3c85e162	0.016342822
24	0xbbb723e3	-0.005588995
25	0xbc6ece30	-0.014575526
26	0xbd8dc63a	-0.06922574
27	0xbd909427	-0.07059508
28	0x3e2acae5	0.1667896
29	0x3c336628	0.010949649
30	0xbe0083dd	-0.12550302
31	0x3d838be3	0.06423166
32	0xbbf4e926	-0.0074740825
33	0xbd8ea203	-0.06964495
34	0xbe5f37a2	-0.21798566
35	0xbdc46dff	-0.095912926
36	0x3decff1b	0.11572095
37	0x3c128707	0.008943326
38	0xbe2a84c4	-0.16652209
39	0xbe1ee325	-0.15516336
40	0xbc7959ee	-0.015219195
41	0xbe2c5b4f	-0.16831706
42	0x3b757c66	0.003745818
43	0xbda6cdd3	-0.081447266
44	0xbce3777e	-0.02776694
45	0xbd53ecda	-0.05173955
46	0xbdb62f72	-0.08895768
47	0x3e0fa72c	0.14028615
48	0x3d3212d2	0.04347498
49	0x3d1709a8	0.036874443
50	0xbc7fd8fc	-0.015615698
51	0x3e07f742	0.13277915
52	0xbdac76cf	-0.084210984
53	0x3d564094	0.05230768
54	0x3b827b07	0.003981951
55	0x3dfe2b40	0.12410593
56	0x3c29845c	0.010346498
57	0xbc4edf5c	-0.012626495
58	0xbdb94a40	-0.09047365
59	0x3d8bf6e3	0.06834199
60	0xbe2a9c90	-0.16661286
61	0x3cce2f33	0.02516899
62	0xbc11b247	-0.008892602
63	0xbdb768b5	-0.08955518
64	0xbdbf6e9b	-0.09347268
65	0x3c43854a	0.011933634
66	0xbdb2aa11	-0.08723844
67	0x3e7bbb69	0.2458321
68	0x3e2a3900	0.16623306
69	0x3e49195d	0.19638582
70	0xbc6c5e84	-0.014426831
71	0x3d9b5838	0.07585186
72	0xbd47b666	-0.048757933
73	0x3e203f4c	0.15649146
74	0xbe1dfdd8	-0.15428865
75	0xbc21e5fe	-0.009881495
76	0xbd13ed15	-0.03611477
77	0xbb30f344	-0.0027000466
78	0x3c9a8397	0.018861575
79	0x3d16ef78	0.03684947
80	0x3dd65788	0.10465914
81	0xbe04a712	-0.12954357
82	0x3cf282a3	0.029603308
83	0xbb344d53	-0.002751191
84	0xbc180a83	-0.00927985
85	0xbe198fae	-0.14996216
86	0xbd99c4a0	-0.07508206
87	0x3d7f4e83	0.062330734
88	0x3d49f21a	0.04930315
89	0x3be4b778	0.006979879
90	0xbc3bbb6b	-0.011458258
91	0x3b884ffd	0.004159926
92	0x3d79ebdf	0.06101596
93	0xbd3c04ba	-0.045902945
94	0x3dd2357c	0.102641076
95	0xbddf54ec	-0.109048694
96	0xbd86676d	-0.06562696
97	0x3d8c258f	0.06843101
98	0xbd23a236	-0.03994962
99	0xbd7b2f1d	-0.061324228
100	0x3d91d930	0.07121503
101	0xbdc90c05	-0.09816746
102	0x3dac42ee	0.08411203
103	0x3e470147	0.19434081
104	0x3d4dbd5f	0.050229426
105	0xbe416e95	-0.1888984
106	0x3ced69aa	0.028981049
107	0xbd3e416e	-0.046449117
108	0x3c7af6df	0.015317648
109	0xbc22b1bf	-0.009930073
110	0xbe2d4df8	-0.16924274
111	0xbe1084ad	-0.14113112
112	0x3dc9a6b8	0.09846252
113	0x3b535999	0.003224945
114	0x3e45d9a6	0.19321308
115	0xbd21bad7	-0.039484825
116	0xbd989e2a	-0.074520424
117	0x3d2efcb5	0.04272147
118	0x3ce895a1	0.028391661
119	0x3e7054f8	0.23469913
120	0x3e381952	0.17978409
121	0xbdad0fd8	-0.084502876
122	0xbdb96a33	-0.09053459
123	0x3e189b61	0.14903022
124	0x3d7ffd9b	0.062497716
125	0x3e3fc646	0.18727979
126	0xbcf21b8c	-0.029554151
127	0xbc754c87	-0.014971859
128	0x3d53172a	0.051535763
129	0xbda1a2d8	-0.07892388
130	0xbe3e8da0	-0.18608713
131	0x3ddd83e7	0.10816174
132	0x3e1f58bd	0.15561195
133	0xbdd824a9	-0.10553867
134	0x3d4e5dda	0.050382473
135	0xbe1524c1	-0.14564802
136	0xbdae34ef	-0.0850619
137	0x3d9f6577	0.07783025
138	0xbb52bba5	-0.0032155302
139	0xbccf40cf	-0.025299458
140	0x3d7aa767	0.061194804
141	0x3bd9b133	0.0066434382
142	0xbe253550	-0.16133618
143	0x3cadbd4a	0.021208424
144	0xbe4d2ec8	-0.20037377
145	0x3a3a43a2	0.0007105415
146	0x3c0b4a50	0.008501604
147	0xbd448618	-0.047979444
148	0xbcc2f78e	-0.023799684
149	0xbe43a028	-0.19104064
150	0x3e603225	0.21894129
151	0xbd57f28a	-0.052721538
152	0x3d7c8fc4	0.061660543
153	0xbc3eaf3a	-0.011638457
154	0xbda05635	-0.07828943
155	0x3df49dae	0.119441375
156	0x3e038d65	0.12846906
157	0xbdf62a9e	-0.12019847
158	0x3d130ead	0.035902668
159	0xbd7a68e4	-0.061135188
160	0xbe231250	-0.15924954
161	0x3e48f1a7	0.19623433
162	0xbd4ab180	-0.049485683
163	0xbe045218	-0.12921941
164	0x3d57239f	0.052524205
165	0xbcd985f4	-0.026553132
166	0xbce376b0	-0.027766556
167	0xbcca7e0c	-0.024718307
168	0xbe0ff08d	-0.14056607
169	0x3d47905f	0.048721667
170	0x3db29609	0.08720023
171	0x3b4b8a03	0.0031057603
172	0x3e0d64d0	0.13807988
173	0x3d4c0712	0.04981143
174	0x3da8b919	0.082384296
175	0x3e14bde0	0.14525557
176	0xbd989e06	-0.074520156
177	0xbdba32aa	-0.09091695
178	0x3e1759a4	0.14780289
179	0x3d99ae54	0.075039536
180	0xbdc28d32	-0.09499587
181	0x3d56ec41	0.052471403
182	0x3e2d17bb	0.16903584
183	0xbe4cdbe1	-0.20005752
184	0xbd91007c	-0.070801705
185	0xbe398d27	-0.18120252
186	0xbc3f1bab	-0.011664311
187	0xbc0b718a	-0.008510957
188	0xbe0fcc05	-0.14042671
189	0x3dac8ad1	0.08424915
190	0xbdf92546	-0.121653125
191	0xbd67c82c	-0.056587383
192	0xbd9f84b3	-0.07788982
193	0xbdfb6d49	-0.12276704
194	0xbb64208d	-0.003480944
195	0x3e18b297	0.14911877
196	0x3c42a2de	0.011879651
197	0x3d64afef	0.055831846
198	0xbe0c6cd6	-0.13713393
199	0x3d323577	0.04350802
200	0xbda5666c	-0.08076176
201	0x3dab0e53	0.083523415
202	0x3dfdb44a	0.12387903
203	0x3d0326f2	0.032019563
204	0x3dfa0176	0.1220731
205	0xbd7a7d0f	-0.06115442
206	0xbd22fd45	-0.039792318
207	0x3c49c7c7	0.012315697
208	0x3d0d9216	0.034563147
209	0xbc9870da	-0.0186085
210	0xbd897f7b	-0.06713768
211	0xbc64ebc0	-0.013972223
212	0xbd8e13ba	-0.06937356
213	0xbc56494a	-0.013078997
214	0x3dd37458	0.10324925
215	0xbdbff34d	-0.09372578
216	0x3e2620c0	0.1622343
217	0x3e1b796f	0.15183042
218	0x3cd71d58	0.02625911
219	0x3cc42b60	0.023946464
220	0x3e0ad00b	0.13555925
221	0x3d14e14c	0.036347672
222	0xbc18529b	-0.009297038
223	0xbc84ddea	-0.016219098
224	0x3e2a6bdd	0.16642709
225	0xbd882772	-0.066481486
226	0x3b72d2a5	0.0037051823
227	0xbd974a71	-0.073872454
228	0x3e1da614	0.15395385
229	0x3d56b7b9	0.052421305
230	0x3cb9e1ed	0.022690738
231	0x3d577462	0.052601226
232	0x3def4d80	0.11684704
233	0x3d0c603a	0.034271456
234	0x3d0e828c	0.034792468
235	0xbd834432	-0.064094916
236	0x3d94f9e5	0.07274226
237	0xbdc7b44a	-0.09751184
238	0x3cae314e	0.021263745
239	0x3e1c59db	0.15268652
240	0xbe06f6b5	-0.13180049
241	0x3df0a0d0	0.117494226
242	0x3d73db2f	0.0595352
243	0x3ca1f846	0.019771706
244	0x3d9d4718	0.07679576
245	0x3e189535	0.14900668
246	0x3e247e4a	0.160638
247	0x3ca140ea	0.019684274
248	0x3e36f6ca	0.1786758
249	0xbb7a2fe4	-0.0038175518
250	0x3d99f55d	0.075175025
251	0x3e1de5e8	0.15419734
252	0xbe46d81d	-0.19418378
253	0x3e64a787	0.22329532
254	0xbd19cd2e	-0.03754919
255	0xbdccbe78	-0.099972665

lstm1.bias_hh_l0 f4 [256]
0	0xbe6953fd	-0.22785945
1	0xbdc51012	-0.09622206
2	0xbdf329f0	-0.11873233
3	0x3e3ccedf	0.1843829
4	0x3d583da8	0.052793175
5	0x3da9a161	0.08282734
6	0xbd7f8fc7	-0.062392976
7	0x3d1b6bea	0.03794471
8	0xbdeea07e	-0.11651705
9	0xbdd62a8b	-0.10457333
10	0x3dfa5a65	0.12224273
11	0x3d621614	0.055196837
12	0x3d5fb678	0.054617375
13	0x3db788de	0.08961652
14	0x3dc46701	0.09589959
15	0xbdd0006e	-0.10156332
16	0x3c60b78e	0.013715638
17	0xbe0eff78	-0.13964641
18	0xbc7d3b58	-0.015456043
19	0xbdbad8bb	-0.09123369
20	0x3d981c57	0.074272804
21	0xbdd2202f	-0.10260045
22	0xbe23c775	-0.15994056
23	0xbe039c7d	-0.12852664
24	0x3dcb2b00	0.09920311
25	0x3ae96fee	0.0017809847
26	0xbd91b657	-0.07114857
27	0x3db20960	0.086931944
28	0x3e1c717b	0.15277664
29	0x3db251fa	0.08707042
30	0xbceebf66	-0.029144
31	0xbd81b15e	-0.06332658
32	0x3e0aed38	0.13567054
33	0xbcdd3bd4	-0.027006067
34	0xbd73c1cb	-0.059510987
35	0xbe45fdc3	-0.19335084
36	0x3da4edc5	0.080531634
37	0xbdd15a6a	-0.10222323
38	0xbe3cbbc6	-0.18431005
39	0xbd0995f1	-0.03359026
40	0xbe030f0a	-0.12798706
41	0xbdc7aa18	-0.0974924
42	0x3e008907	0.12552272
43	0xbd2f15a0	-0.042745233
44	0xbdabf335	-0.083959974
45	0x3dbc769d	0.09202311
46	0x3e10b0d6	0.14129958
47	0x3e0bf926	0.13669261
48	0xbdaf5f8d	-0.08563147
49	0x3d904c92	0.07045855
50	0xbdad70c9	-0.08468778
51	0x3c7b5d60	0.015342087
52	0xbdec834b	-0.1154848
53	0xbdd23217	-0.1026346
54	0x3d282595	0.041051466
55	0xbd70f5ab	-0.058828037
56	0x3d961b53	0.073294304
57	0x3bdab1e5	0.0066740387
58	0xbe15d9eb	-0.1463391
59	0x3e02dda7	0.12779866
60	0xbd63ce94	-0.05561693
61	0x3e1611b7	0.14655195
62	0xbe0d8488	-0.13820088
63	0xbc259c2d	-0.010108036
64	0x3e0dd3dd	0.1385035
65	0x3d8ca95b	0.068682395
66	0xbdc4f261	-0.096165426
67	0x3e6cbb6a	0.23118368
68	0x3e12b977	0.14328562
69	0x3deae0d4	0.11468664
70	0x3b9c0592	0.004761406
71	0x3c8ffe1f	0.017577229
72	0xbddcaa0c	-0.10774621
73	0x3dfec7dc	0.12440464
74	0xbe792e12	-0.2433398
75	0x3dbb2938	0.09138721
76	0x3ce1233e	0.027482625
77	0xbc423bf5	-0.011855115
78	0xbd86d130	-0.06582868
79	0x3d11bcec	0.03558056
80	0x3e0f97d5	0.14022763
81	0xbdb7002f	-0.08935582
82	0x3de10877	0.10987943
83	0x3d043003	0.03227235
84	0x3dc1c879	0.09462065
85	0x3d1b1645	0.037863035
86	0x3c99cee5	0.018775413
87	0xbc31161c	-0.010808494
88	0x3e10ea9a	0.14151993
89	0x3ddafc90	0.10692704
90	0x3dc297e0	0.09501624
91	0xbdadd355	-0.08487574
92	0x3e0469ba	0.12930956
93	0xbe154410	-0.14576745
94	0x3e24b2c5	0.1608382
95	0x3de78706	0.113050506
96	0xbd7b5ff4	-0.061370805
97	0x3cc80353	0.024415648
98	0x3de01929	0.10942299
99	0xbe06ba79	-0.13157071
100	0x3dcd4f38	0.100248754
101	0xbdc7be41	-0.09753085
102	0x3d0ea923	0.03482927
103	0x3c363e8a	0.011123309
104	0xbe37de9a	-0.1795601
105	0xbc2d5903	-0.010580304
106	0x3cc63a10	0.024197608
107	0x3e1d98f7	0.15390383
108	0xbdda3b0b	-0.10655793
109	0xbcd73aa0	-0.026273072
110	0xbdc6eb09	-0.09712798
111	0xbd203a4c	-0.039118096
112	0x3dd126e8	0.10212499
113	0x3e151efa	0.14562598
114	0x3db03e3f	0.086056225
115	0x3d8d7ce3	0.06908586
116	0x3d2c94dc	0.04213415
117	0x3e6a735b	0.22895567
118	0xbbeb9667	-0.00718956
119	0x3e3baf84	0.18328673
120	0xbb0e8e16	-0.002175217
121	0xbda0820e	-0.07837306
122	0xbdeda525	-0.116037644
123	0x3e995c86	0.29953402
124	0xbcfe712e	-0.031059828
125	0x3e129501	0.14314653
126	0x3e0af34e	0.13569376
127	0x3d8f870d	0.07008181
128	0x3dfa4a75	0.12221233
129	0x3b015db1	0.0019739682
130	0xbe102c10	-0.14079309
131	0x3d882711	0.06648076
132	0x3e1764b2	0.14784506
133	0xbe0f0767	-0.13967668
134	0xbdace436	-0.08441965
135	0x3d55f195	0.052232344
136	0x3da85502	0.08219339
137	0xbb4b566d	-0.0031026856
138	0xbd657d60	-0.05602777
139	0x3db039f2	0.08604802
140	0x3e52300a	0.20526138
141	0xbe1816c3	-0.14852433
142	0xbe162c82	-0.14665416
143	0x3d7ea4de	0.06216895
144	0xbe68200c	-0.22668475
145	0xbd39675a	-0.04526458
146	0x3d5ae187	0.053437736
147	0x3dad67f2	0.084670916
148	0xbca8b28f	-0.020592956
149	0xbe49f99e	-0.19724128
150	0x3dc93942	0.09825374
151	0xbd868272	-0.06567849
152	0xbca8d2ff	-0.020608423
153	0xbbeb0de0	-0.007173285
154	0xbdeb02b7	-0.11475127
155	0x3deac950	0.114641786
156	0x3d94b959	0.07261915
157	0xbcef1c80	-0.029188395
158	0x3d8059c3	0.06267121
159	0xbde4d56c	-0.111735195
160	0xbe43afac	-0.19109982
161	0xbc0cb064	-0.008586977
162	0xbd172d67	-0.036908533
163	0xbdba3ae2	-0.09093262
164	0x3d6085e7	0.0548152
165	0xbe19ae54	-0.15007907
166	0x3cadbe27	0.021208836
167	0xbd35193a	-0.04421351
168	0xbc77d6bd	-0.015126881
169	0x3d4291d1	0.047502343
170	0x3e57cfb7	0.2107533
171	0x3da67587	0.08127885
172	0x3dba9842	0.09111072
173	0xbd311d09	-0.04324058
174	0x3d01a479	0.031650994
175	0x3e325afe	0.17417523
176	0xbdcb8c5b	-0.0993888
177	0xbe2c570d	-0.16830082
178	0x3db063f9	0.08612818
179	0x3d816a84	0.06319144
180	0xbc608cad	-0.013705415
181	0x3e147867	0.14499055
182	0x3e4e7e4e	0.20165369
183	0xbdb50a1f	-0.08839821
184	0xbe320301	-0.17383958
185	0xbdea2586	-0.11432938
186	0x3e091b3e	0.13389298
187	0x3d5f6d24	0.054547444
188	0xbdb2f050	-0.08737242
189	0x3dbda840	0.09260607
190	0xbe106337	-0.14100347
191	0xbdc66c8b	-0.09688672
192	0xbe1b9143	-0.15192132
193	0xbe27e1fd	-0.16394801
194	0x3d30a06e	0.043121748
195	0x3e05f112	0.13080242
196	0x3b8c9a68	0.0042908676
197	0xbb528b59	-0.0032126515
198	0xbb906de4	-0.0044076312
199	0x3defbe8a	0.11706264
200	0xbdacccf9	-0.08437533
201	0x3d9b1ccc	0.07573852
202	0x3e2dd3c3	0.16975312
203	0xbd7d796a	-0.061883368
204	0x3e0d4375	0.13795264
205	0xbd8a851c	-0.0676367
206	0xbc47a2f8	-0.012184851
207	0x3d584077	0.052795853
208	0x3e360885	0.17776687
209	0xbdb2c101	-0.08728219
210	0xbd5374c5	-0.051625032
211	0xbe6a09bb	-0.22855274
212	0xbd8f3980	-0.06993389
213	0x3d2958d5	0.041344482
214	0xbde9775f	-0.11399721
215	0xbdea0317	-0.114263706
216	0x3e27275d	0.1632361
217	0x3df6f316	0.12058084
218	0xbd2b8366	-0.04187336
219	0x3e20683e	0.15664765
220	0x3db14496	0.0865566
221	0xbd9bd0dc	-0.07608196
222	0xbd1aca9e	-0.037790887
223	0xbda8d3a0	-0.08243489
224	0x3d8aa314	0.06769386
225	0xbdde3d9b	-0.10851594
226	0xbbdd976b	-0.006762435
227	0xbdaa57fc	-0.08317563
228	0x3de1339b	0.10996171
229	0x3d3b4005	0.04571535
230	0x3d849ff4	0.06475821
231	0x3d12ff2b	0.03588788
232	0xbde977c4	-0.113997966
233	0xbde24152	-0.11047615
234	0x3d9745f2	0.07386388
235	0xbd62eb0c	-0.05539994
236	0x3e145281	0.14484598
237	0x3debe84e	0.11518918
238	0xbd7b034c	-0.06128244
239	0xbc6596b1	-0.014012978
240	0xbb5c4fe2	-0.003361695
241	0xbcdb094d	-0.026737833
242	0x3d1bcedc	0.038039073
243	0x3e3c95a2	0.18416455
244	0xbdeb8c7b	-0.11501404
245	0x3dd6f6d8	0.104963005
246	0x3e227c34	0.15867692
247	0xbb313248	-0.0027038027
248	0x3df35378	0.11881155
249	0x3c8de03e	0.017318841
250	0xbd74b683	-0.05974437
251	0x3de7e7d6	0.11323516
252	0xbe4f43c6	-0.20240697
253	0x3e5d8ec7	0.21636496
254	0x3dfdcdea	0.123927906
255	0x3d5adfc4	0.053436056

lstm2.weight_ih_l0 f4 [256, 64]
0	0xbdda3b50	-0.10655844
1	0xbb749f9c	-0.003732658
2	0x3c8f977d	0.01752829
3	0xbdf1bfa9	-0.118041344
4	0x3c194467	0.009354687
5	0xbd069ba9	-0.032863293
6	0xbd751af1	-0.059840146
7	0xbd827cdd	-0.06371472
8	0xbe2d6d66	-0.16936263
9	0x3e710380	0.23536491
10	0xbdaba73e	-0.08381508
11	0xbdde0ca9	-0.108422585
12	0xbe3fda8f	-0.18735717
13	0xbb1db138	-0.002406193
14	0xbe083f9c	-0.13305515
15	0x3db539a3	0.08848884
16	0x3d090b41	0.033458
17	0xbde01d22	-0.10943057
18	0xbc62770d	-0.013822329
19	0xbda23366	-0.0791996
20	0x3e2ebe06	0.17064676
21	0x3d5e34e3	0.054249655
22	0x3de64a24	0.1124461
23	0x3d2378ab	0.03991
24	0x3d4b13f4	0.049579576
25	0x3e63862c	0.22219151
26	0xbe689cd1	-0.2271607
27	0xbd524f8c	-0.051345393
28	0xbe2450f5	-0.16046508
29	0x3dd6e4e0	0.10492873
30	0xbe2f0676	-0.17092308
31	0xbe324887	-0.1741048
32	0xba33a5d8	-0.0006853021
33	0x3db2a804	0.08723453
34	0xbdce620e	-0.10077296
35	0xbe81bd95	-0.25339952
36	0x3e1f5eb3	0.15563469
37	0xbd9681d0	-0.073489785
38	0xbc801bab	-0.015638193
39	0x3cecd4d4	0.028910078
40	0x3d62547a	0.055256344
41	0xbd2a1dc9	-0.04153231
42	0x3dfe5d1c	0.12420103
43	0x3d84e514	0.06489006
44	0x3da74d26	0.08169012
45	0xbd63cee0	-0.055617213
46	0x3de302d6	0.11084525
47	0x3e1fa20d	0.15589161
48	0xbcde272f	-0.027118294
49	0xbca2aacc	-0.019856833
50	0xbe63827a	-0.22217742
51	0x3db99603	0.090618156
52	0xbcf2c3d4	-0.029634394
53	0xbe016ed6	-0.12639937
54	0x3d623656	0.0552276
55	0x3ae98e57	0.001781891
56	0xbe319ebf	-0.17345713
57	0xbe4e9a04	-0.2017594
58	0x3e9ca3ad	0.30593625
59	0xbe1f1bd6	-0.15537962
60	0xbe2515d4	-0.16121608
61	0xbe0842d7	-0.13306747
62	0x3c1b8886	0.009492999
63	0xbe1558e4	-0.1458469
64	0xbde7b864	-0.113144666
65	0x3e47f5b3	0.1952732
66	0xbcc0b6cf	-0.02352467
67	0x3cb7b47f	0.022424934
68	0xbd4d63f7	-0.050144162
69	0x3d873095	0.06601063
70	0x3e4ebf78	0.20190227
71	0xbd00894f	-0.031380948
72	0xbd42808e	-0.04748588
73	0x3c4a027d	0.012329695
74	0x3ce9da1d	0.028546387
75	0x3e1ebc0d	0.15501423
76	0xbe174409	-0.14772047
77	0x3d88065e	0.066418394
78	0x3e852dd8	0.26011539
79	0xbe30fca0	-0.17283869
80	0x3d6c5091	0.05769402
81	0xbe45105f	-0.19244526
82	0x3d2581de	0.040407054
83	0xbdaff9c7	-0.08592563
84	0x3d902cbb	0.07039782
85	0x3e105bf5	0.14097579
86	0xbd68404b	-0.05670194
87	0xbdf67381	-0.12033749
88	0x3e3811cc	0.17975539
89	0x3db36eaa	0.08761342
90	0xbd5894bb	-0.052876215
91	0x3c78f3cb	0.0151948435
92	0xbe67d060	-0.22638083
93	0x3d539c4f	0.05166274
94	0xbc7ad1c4	-0.015308801
95	0x3d9bcf8e	0.07607947
96	0x3d25830b	0.040408175
97	0xbd4e92d2	-0.050432988
98	0x3df5e58a	0.12006672
99	0xbdc29af5	-0.09502212
100	0xbd857003	-0.06515505
101	0x3d50cd76	0.050977193
102	0xbdb30ccd	-0.08742676
103	0x3df12d2a	0.117761925
104	0xbe42e2bb	-0.19031803
105	0xbe504922	-0.20340398
106	0xbd49e560	-0.049291015
107	0xbdafa9e0	-0.08577323
108	0xbe0c4d4e	-0.13701364
109	0xbe614938	-0.22000587
110	0xbc3a2a8a	-0.011362681
111	0xbc9603b8	-0.01831232
112	0x3df1fc84	0.11815742
113	0x3e38b9c9	0.18039621
114	0xbd866ab7	-0.06563323
115	0xbd89fc43	-0.06737568
116	0x3e878d60	0.26475048
117	0xbe01db9a	-0.12681428
118	0xbe441c72	-0.19151476
119	0xbcae182f	-0.021251766
120	0xbc220934	-0.0098898895
121	0xbdd4c9e2	-0.103900686
122	0xbd94e6a3	-0.07270553
123	0xbdcca29f	-0.09991955
124	0xbd9f485c	-0.07777473
125	0xbe6a5882	-0.22885326
126	0xbbc65188	-0.0060521998
127	0x3dbae669	0.091259785
128	0x3e36caab	0.17850749
129	0xbddb6ce2	-0.10714127
130	0xbdf39a53	-0.118946694
131	0x3cb840a0	0.022491753
132	0x3e14c135	0.14526828
133	0x3e11cc29	0.14238037
134	0xbe02c83e	-0.12771699
135	0x3e35bea1	0.177485
136	0x3e3e87d1	0.18606497
137	0x3def0302	0.116704956
138	0xbeee17b7	-0.46502468
139	0x3d3193fd	0.043354023
140	0x3e306615	0.17226441
141	0xbe2a225f	-0.16614674
142	0xbe306e75	-0.17229636
143	0x3e3d800f	0.18505882
144	0xbe4ecb47	-0.20194732
145	0xbc5d8837	-0.013521246
146	0x3c673d6b	0.014113764
147	0xbdc912e6	-0.09818058
148	0x3cff7505	0.031183729
149	0x3dc2966c	0.09501347
150	0x3ea89241	0.32924083
151	0xbe23678f	-0.15957473
152	0x3e620739	0.22073068
153	0xbd0677c3	-0.032829057
154	0xbd90b2ee	-0.07065378
155	0x3e6036a8	0.2189585
156	0x3e14b566	0.14522323
157	0xbdb0a710	-0.08625615
158	0xbc028c25	-0.007967983
159	0x3d3a09f7	0.04541966
160	0xbdde1b4a	-0.10845049
161	0x3d64e1aa	0.055879273
162	0xbe36e196	-0.17859492
163	0xbdf75635	-0.120769896
164	0x3d4a334b	0.049365323
165	0xbe097ef5	-0.13427337
166	0xbd520f34	-0.05128403
167	0x3e2834fc	0.16426462
168	0x3d05013a	0.032471873
169	0xbd143a8f	-0.03618866
170	0x3e986c1d	0.29769984
171	0x3bdccc20	0.006738201
172	0x3d0b6a77	0.03403708
173	0x3eb362c2	0.35036284
174	0x3e2cddc3	0.1688147
175	0x3e193fe2	0.14965776
176	0x3c88b9b4	0.016690113
177	0xbc6a79d9	-0.014311277
178	0x3d891221	0.06692911
179	0x3e4863c9	0.19569315
180	0x3c3a341e	0.011364965
181	0xbcaffcbf	-0.021482823
182	0x3de689de	0.11256765
183	0xbda8cbf7	-0.08242028
184	0xbdb37817	-0.0876314
185	0xbe155bd5	-0.14585812
186	0x3eaa033e	0.332056
187	0xbded7b63	-0.115958
188	0xbe00c65a	-0.12575665
189	0x3dd10ab1	0.10207117
190	0x3d9c4c23	0.076317094
191	0xbe6eefb1	-0.23333623
192	0xbcaf0450	-0.021364361
193	0x3e318243	0.17334847
194	0x3e1f6e6e	0.1556947
195	0x3c6dd6d0	0.014516547
196	0x3c6cb0e2	0.014446469
197	0x3d4db5eb	0.05022232
198	0x3e01e4e4	0.12684971
199	0xbc5f70e0	-0.013637751
200	0x3dd885da	0.10572405
201	0x3d0130c7	0.03154066
202	0x3e0a9662	0.13533929
203	0x3e0533ec	0.13008088
204	0xbe4188fd	-0.18899913
205	0xbceb4503	-0.02871943
206	0x3e63b509	0.22237028
207	0x3dc8c3cb	0.098029695
208	0xbd5cd1b7	-0.053910937
209	0x3cb733cf	0.022363571
210	0xbb78ee33	-0.0037983775
211	0x3bd40d18	0.0064712875
212	0xbd89dbaf	-0.067313544
213	0x3db6d31f	0.08926987
214	0xbb79430f	-0.0038034355
215	0x3db8e728	0.090284646
216	0x3d56b979	0.052422974
217	0x3e12f3e2	0.14350846
218	0x3e1d93a5	0.15388353
219	0x3d6e3eae	0.058165245
220	0xbe1c2467	-0.15248261
221	0x3d337c2c	0.04381959
222	0xbe6081d3	-0.21924524
223	0xbc2bf458	-0.010495268
224	0x3d79680f	0.060890254
225	0xbd1fef59	-0.03904662
226	0xbbf388bf	-0.007432073
227	0x3de04afb	0.109518014
228	0xbd8a62f5	-0.06757156
229	0x3db9f0b5	0.09079114
230	0xbe4e2c40	-0.20134068
231	0x3d508e85	0.050917167
232	0xbdddf995	-0.108386196
233	0xbe234b1e	-0.15946624
234	0xbd728686	-0.059210323
235	0xbe53f7f8	-0.20700061
236	0xbe004a3c	-0.12528318
237	0x3da6a905	0.08137707
238	0xbcd0af7b	-0.0254743
239	0xbdd4fc2a	-0.10399659
240	0x3c7695bb	0.015050347
241	0xbc34cac6	-0.011034673
242	0x3dd16460	0.10224223
243	0xbe19bd95	-0.15013726
244	0x3d8eca4d	0.069721796
245	0x3d5ae429	0.053440247
246	0xbe3373a8	-0.17524588
247	0x3d495aa8	0.049158722
248	0xbc6b4db7	-0.01436179
249	0x3d879764	0.06620672
250	0x3c866d92	0.01640967
251	0x3d3883a7	0.04504743
252	0xbd63da9c	-0.055628404
253	0xbddced33	-0.1078743
254	0x3a65cef0	0.0008766493
255	0x3ce534a9	0.027979212

lstm2.weight_hh_l0 f4 [256, 64]
0	0xbddb21b9	-0.106997915
1	0x3e4f91e3	0.20270495
2	0xbdab6ee1	-0.08370758
3	0xbd852c91	-0.06502641
4	0x3dc54d32	0.096338645
5	0x3d90acf8	0.07064241
6	0x3dab3875	0.08360378
7	0xbdc6c0f1	-0.097047694
8	0xbda4062a	-0.08008988
9	0x3cd377f6	0.025814038
10	0x3dccd0d6	0.1000077
11	0xbc4b36a6	-0.012403166
12	0xbcc8a1ff	-0.024491308
13	0xbcf74e89	-0.030188816
14	0x3c93f855	0.01806275
15	0x3e1d91f3	0.15387706
16	0xbdeb3c7c	-0.11486146
17	0xbcd01d46	-0.025404584
18	0x3d09485f	0.033516284
19	0x3de0fb1a	0.10985394
20	0xbd96beb3	-0.07360592
21	0xbd1c44b0	-0.038151443
22	0xbd4ecd65	-0.05048885
23	0x3dd3d4ad	0.10343299
24	0xbcb66384	-0.02226425
25	0x3cb4f8a8	0.022091225
26	0x3d700221	0.05859578
27	0xbda68f27	-0.08132773
28	0xbd51b0e5	-0.05119409
29	0x3db2751e	0.087137446
30	0xbdd71327	-0.105017
31	0xbd963a06	-0.07335286
32	0x3bf55992	0.0074874843
33	0xbcaf65d6	-0.021410864
34	0x3dab8d2b	0.08376535
35	0xbca4cce0	-0.020117223
36	0x3db59534	0.08866349
37	0x3dca4824	0.09877041
38	0x3d7fe9c0	0.06247878
39	0xbc3d5653	-0.011556226
40	0x3d067f91	0.0328365
41	0xbd13cb8d	-0.036082793
42	0x3d3e0f58	0.04640135
43	0xbdd815eb	-0.105510555
44	0xbce5dcdc	-0.028059416
45	0x3d24bdea	0.04022018
46	0xbe5a1f30	-0.2130096
47	0x3ddfb7af	0.10923707
48	0x3df4bf92	0.11950602
49	0x3c7e9ebb	0.015540774
50	0xbdf6d012	-0.12051405
51	0x3ddb8ff9	0.1072082
52	0xb8e3a6e0	-0.000108552864
53	0xbe5bd662	-0.214685
54	0x3df5ae07	0.11996084
55	0xbcc0768b	-0.023494026
56	0x3cf1c5fb	0.02951335
57	0x3e1bdfe6	0.15222129
58	0x3dfc69fd	0.12324903
59	0xbdb64dde	-0.08901571
60	0xbd6ad8fa	-0.05733583
61	0x3da77a99	0.081776805
62	0x3dc876f3	0.09788313
63	0xbda270ad	-0.079316474
64	0xbe0b51c1	-0.13605405
65	0x3d81f720	0.063459635
66	0xbda33efd	-0.079709984
67	0xbe11d1f6	-0.1424025
68	0x3e50b4ef	0.2038152
69	0x3d2586af	0.040411647
70	0x3e0abd24	0.13548714
71	0x3c7aaca7	0.015299953
72	0x3e112136	0.14172825
73	0x3dded350	0.108801484
74	0x3dc74f73	0.097319506
75	0x3d48cf81	0.049026016
76	0x3d6694ad	0.056294132
77	0xbe2905c0	-0.165061
78	0xbdcdce90	-0.10049164
79	0x3e0b6b27	0.13615094
80	0xbea72593	-0.32645854
81	0x3ddc7dd9	0.10766191
82	0x3c022cfd	0.007945296
83	0xbe1d6731	-0.15371396
84	0xbc9d2501	-0.019182684
85	0x3e07f927	0.13278638
86	0xbdc99238	-0.09842342
87	0x3da85e5b	0.08221122
88	0xbd308b45	-0.043101568
89	0x3de78e7f	0.11306476
90	0xbd9e2e7f	-0.07723712
91	0x3d8db736	0.0691971
92	0xbd8c0f98	-0.06838912
93	0x3be69457	0.0070367265
94	0xbd7a34f2	-0.06108565
95	0xbd84a1b5	-0.06476156
96	0xbd497a91	-0.049189154
97	0x3d9e78b1	0.07737864
98	0x3d4d05c1	0.050054315
99	0x3db31627	0.087444596
100	0x3e153a99	0.14573134
101	0x3d8ac90c	0.06776628
102	0x3d493b45	0.04912879
103	0x3d85383d	0.06504867
104	0x3d6b9ba3	0.057521474
105	0xbd8bdfb2	-0.06829776
106	0x3d623dd1	0.055234734
107	0x3d5c97ab	0.05385558
108	0x3d315593	0.0432945
109	0x3d85a6d7	0.06525963
110	0xbd779910	-0.060448706
111	0x3cd2a27b	0.025712242
112	0xbcd5f83f	-0.02611935
113	0xbdef9945	-0.11699156
114	0xbd9fe7dd	-0.07807896
115	0x3d87b089	0.06625468
116	0xbc82b62b	-0.015956005
117	0x3d1048ba	0.035225607
118	0x3cb918eb	0.02259489
119	0xbdc28fa7	-0.09500056
120	0x3dfb7c82	0.12279607
121	0xbbc7f4f8	-0.0061022006
122	0xbd7f02a1	-0.062258366
123	0x3dd2e83f	0.10298204
124	0xbda23111	-0.07919515
125	0xbd56699f	-0.052346822
126	0x3db1081b	0.08644124
127	0xbe21aa50	-0.15787625
128	0xbddc24df	-0.1074922
129	0xbcae866e	-0.021304335
130	0x3d96f1da	0.07370348
131	0x39c5e0ae	0.00037742167
132	0xbdd2cc7a	-0.10292907
133	0xbc29b775	-0.010358681
134	0x3dda51b6	0.106601164
135	0x3e17c1a4	0.14819962
136	0xbe072df7	-0.13201128
137	0x3cec54b9	0.028848993
138	0x3e179cc3	0.14805894
139	0x3e05d38b	0.13068978
140	0x3e045896	0.12924418
141	0x3d896486	0.067086264
142	0xbc8965dc	-0.016772203
143	0x3ba62b1e	0.005071058
144	0x3df88ae4	0.12135866
145	0xbdc782bb	-0.09741732
146	0x3d4ac469	0.049503718
147	0x3d1744a4	0.036930695
148	0x3d4d2a1d	0.05008899
149	0xbd52a8d0	-0.051430523
150	0xbd1b89a7	-0.037973072
151	0xbd8130a6	-0.06308107
152	0xbe0c3f93	-0.13696127
153	0xbda36d7f	-0.07979869
154	0xbd7786cb	-0.060431283
155	0xbd8ea457	-0.06964939
156	0x3d4017e1	0.046897773
157	0xbcf0b23a	-0.02938186
158	0xbd83d8d8	-0.06437844
159	0x3d6f5b4f	0.058436688
160	0xbdbb8bae	-0.09157501
161	0x3d87b4f7	0.06626313
162	0x3cb61eeb	0.02223154
163	0xbcd9562f	-0.026530353
164	0x3d7769bc	0.06040357
165	0xbc6e4114	-0.014541883
166	0x3da304d5	0.07959906
167	0xbe210635	-0.15725024
168	0x3e52b660	0.20577383
169	0xbe4a0d40	-0.19731617
170	0xbd88d534	-0.0668129
171	0x3dc92178	0.09820837
172	0xbdd30c12	-0.103050366
173	0xbbe4b30d	-0.0069793523
174	0xbc0ba4e6	-0.008523202
175	0x3d3bf403	0.045887005
176	0x3e42e2eb	0.19031875
177	0x3e31c98a	0.17362037
178	0xbe28dabd	-0.16489692
179	0x3d44ab4f	0.048014935
180	0x3d791314	0.06080921
181	0x3d7bf71e	0.061514966
182	0xbb8ccc64	-0.004296826
183	0x3c0b04a5	0.008484994
184	0xbe2fe980	-0.17178917
185	0x3d968cbe	0.07351063
186	0x3de6c973	0.11268892
187	0x3d929e03	0.071590446
188	0x3cac645b	0.021043947
189	0xbc3db2eb	-0.011578302
190	0x3e02e89b	0.12784044
191	0xbe17a5f0	-0.14809394
192	0x3e2681c9	0.16260447
193	0x3d81360a	0.06309135
194	0xbd8f91fe	-0.07010268
195	0x3df971e2	0.121799245
196	0xbe002e07	-0.12517558
197	0xbe369706	-0.17831048
198	0xbccdca0b	-0.025120756
199	0xbd438c27	-0.04774108
200	0x3d01b080	0.031662464
201	0xbd8960b8	-0.06707901
202	0xbc74b41e	-0.014935521
203	0xbe3b1ef9	-0.18273534
204	0x3dfea9fe	0.12434767
205	0xbe0be429	-0.13661255
206	0xbc6ee667	-0.014581299
207	0x3e1b4f54	0.1516698
208	0x3e2afe13	0.16698484
209	0xbc085720	-0.0083215535
210	0x3d36b648	0.04460743
211	0x3e1f5a47	0.15561782
212	0x3ddd876c	0.10816845
213	0x3d96da88	0.073659
214	0x3e07d2e2	0.13264039
215	0xbdef0699	-0.1167118
216	0xbc341d2b	-0.010993282
217	0xbe01cef5	-0.12676604
218	0xbda03c83	-0.07824042
219	0xbcfee64d	-0.031115675
220	0x3e1d4f5e	0.15362307
221	0x3d675fff	0.056488033
222	0xbdaf451b	-0.08558103
223	0x3caf8767	0.02142687
224	0xbdfbfb57	-0.12303799
225	0x3d5bb539	0.053639624
226	0xbe0c8ae4	-0.13724858
227	0xbdc2d14b	-0.09512576
228	0xbe02758c	-0.12740153
229	0x3dd328c6	0.10310511
230	0x3b4e0492	0.003143583
231	0x3c23973e	0.009984789
232	0xbd854748	-0.065077364
233	0x3d4c3154	0.04985173
234	0xbdb83e66	-0.089962766
235	0x3dd7f9dc	0.10545704
236	0xbd1a2ee3	-0.03764237
237	0x3d987774	0.07444659
238	0x3c8c524c	0.017129086
239	0xbd4ffc4b	-0.050777715
240	0x3d6854da	0.056721546
241	0xbdbe7471	-0.09299553
242	0x3d01790e	0.031609587
243	0xbd9265a4	-0.07148293
244	0x3cf3868d	0.029727245
245	0x3d81d85c	0.063400954
246	0xbbaad788	-0.0052136816
247	0x3d96f337	0.07370608
248	0x3e33dc1d	0.17564435
249	0x3be76f50	0.00706283
250	0x3d9f2a5c	0.07771751
251	0xbe0cc00b	-0.13745134
252	0x3de67490	0.11252701
253	0x3b7cbdec	0.003856535
254	0xbe3321e9	-0.17493404
255	0xbdb4ddbc	-0.08831355

lstm2.bias_ih_l0 f4 [256]
0	0xbd01d5c4	-0.031698003
1	0x3e43d17e	0.19122884
2	0x3e0f3df0	0.13988471
3	0x3e3e4726	0.18581828
4	0xbd4956af	-0.049154934
5	0x3ccb8226	0.024842333
6	0xbddb0771	-0.10694779
7	0x3cf4c72d	0.02988013
8	0xbd55a2b3	-0.052157115
9	0xbdb55bb7	-0.08855384
10	0xbdda3739	-0.10655064
11	0x3dfee11a	0.124452785
12	0xbcc926a5	-0.02455456
13	0x3e4b77da	0.19869938
14	0xbdc33ca4	-0.09533051
15	0x3e0c2a2b	0.13687961
16	0xbdbe9f9c	-0.09307787
17	0x3e0a15d7	0.13484894
18	0xbdbc55d6	-0.091960594
19	0xbcd3b752	-0.02584425
20	0x3d5dcbfe	0.05414962
21	0xbe2a2009	-0.16613783
22	0xbdee8fd4	-0.11648527
23	0x3d921a0e	0.07133876
24	0x3d953c26	0.07286863
25	0x3dfc9030	0.12332189
26	0x3d7a97a3	0.06117977
27	0xbd89c3c7	-0.06726795
28	0x3d3efee8	0.046629816
29	0x3bc8ff58	0.006133955
30	0x3deb6f6e	0.11495863
31	0xbe02f85b	-0.12790053
32	0xbc96dab8	-0.01841484
33	0xbc7e74a9	-0.015530744
34	0x3e8a6d88	0.2703669
35	0xbc2d4735	-0.010576059
36	0xba9d96f2	-0.0012023135
37	0xbdcb656a	-0.099314526
38	0x3e0aa5ae	0.13539764
39	0x3d59ab74	0.053142026
40	0x3ce94389	0.028474586
41	0xbdb00cdc	-0.08596203
42	0x3da7b74c	0.08189258
43	0x3d7bd82b	0.06148545
44	0x3e39b206	0.18134317
45	0x3e79edc8	0.24407113
46	0x3cc4ba54	0.02401463
47	0xbdf4126e	-0.11917578
48	0xbda43b9c	-0.08019182
49	0xbd7db1c2	-0.0619371
50	0x3cac2b77	0.02101682
51	0x3d80dc40	0.06292009
52	0x3e263139	0.16229714
53	0x3d59baac	0.05315654
54	0xbe844d99	-0.25840452
55	0xbd832003	-0.0640259
56	0x3de41ba3	0.11138084
57	0x3d65d2a9	0.056109104
58	0x3e1c1960	0.15244055
59	0x3c8815bc	0.016611926
60	0x3ddd1d6e	0.10796629
61	0xbcc5902e	-0.024116602
62	0x3d5b6020	0.05355847
63	0x3e3451b3	0.17609291
64	0x3e15c1eb	0.14624755
65	0xbcb1bcf0	-0.021696538
66	0xbd925b0d	-0.07146273
67	0x3a74c262	0.00093368266
68	0xbcc95a24	-0.024579115
69	0xbc6d29ec	-0.014475327
70	0xbd18fdf0	-0.03735155
71	0x3e1d61d5	0.15369351
72	0x3e091453	0.1338666
73	0x3d2ce5ae	0.042211227
74	0x3d84efcc	0.0649105
75	0xbaaca7ec	-0.0013172603
76	0x3d36d9ca	0.044641294
77	0x3ebadbe0	0.36495876
78	0xbda9063b	-0.082531415
79	0x3cf4c8c3	0.029880887
80	0xbdbe3c4d	-0.09288845
81	0x3d2fc549	0.042912755
82	0x3de01c9e	0.10942958
83	0x3e1b4351	0.15162398
84	0x3db5a35b	0.08869048
85	0xbe0dc295	-0.13843758
86	0x3e24c693	0.16091375
87	0xbcd99dd7	-0.026564522
88	0x3da1ce85	0.079007186
89	0xbd2ec9e2	-0.042673
90	0x3d9ce59e	0.076609835
91	0x3dafb69c	0.08579752
92	0x3e6b93b9	0.2300557
93	0x3e12953b	0.1431474
94	0x3d490d12	0.04908473
95	0x3db68134	0.08911362
96	0x3da5e6c9	0.081006594
97	0x3da44bfd	0.08022306
98	0x3d8a4b90	0.06752694
99	0xbd897c34	-0.06713143
100	0xbd77cc35	-0.06049748
101	0x3bc72921	0.006077901
102	0xbd610cd7	-0.054943886
103	0x3e27516d	0.16339655
104	0xbd69b681	-0.057058815
105	0x3d80b460	0.06284404
106	0x3e1bb849	0.15207018
107	0x3df61c23	0.120170854
108	0xbd97b0e1	-0.07406784
109	0x3e72082c	0.2363593
110	0x3db73475	0.08945552
111	0x3cf136d5	0.029445091
112	0x3d931b55	0.071829475
113	0x3da8fef6	0.08251755
114	0xbe3076fd	-0.1723289
115	0xbd72358f	-0.05913311
116	0x3ca4c668	0.020114139
117	0xbc8a270c	-0.016864322
118	0xbb1c34ee	-0.002383526
119	0x3df5a304	0.119939834
120	0xbd7a3ad9	-0.061091278
121	0x3de68195	0.112551846
122	0x3e4e3c9b	0.20140307
123	0x3e0abd41	0.13548757
124	0x3dc3db2b	0.09563287
125	0x3e375aaf	0.17905687
126	0x3d893843	0.06700184
127	0xbda86f9e	-0.08224414
128	0x3d289ae3	0.041163336
129	0x3be2bc94	0.006919453
130	0x3d8f6db3	0.07003345
131	0x3bd257e6	0.0064191697
132	0x3d925eb9	0.07146973
133	0xbdcc1836	-0.09965555
134	0xbd00cfb8	-0.031448096
135	0x3dd175b0	0.10227525
136	0xbdb428ea	-0.08796866
137	0xbd43d994	-0.04781492
138	0xbd5ca985	-0.053872604
139	0xbe18387e	-0.148653
140	0xbc9305cf	-0.017947106
141	0xbdf70ac8	-0.12062603
142	0x3d4d9b1f	0.050196763
143	0xbe4a49a7	-0.19754659
144	0xbc747b05	-0.014921908
145	0xbdd21f1b	-0.10259839
146	0xbb10ed37	-0.0022114047
147	0x3cc6b692	0.024256978
148	0x3e2314cd	0.15925904
149	0xbd77f086	-0.060532115
150	0x3d0734f1	0.033009473
151	0x3dd84b01	0.10561181
152	0xbdcbf503	-0.09958842
153	0x3d6d919b	0.05800019
154	0x3d088091	0.033325735
155	0x3c67a024	0.014137302
156	0x3dc3deb7	0.09563964
157	0x3cee8646	0.029116761
158	0x3d13fd4e	0.036130242
159	0x3d6076f7	0.054800954
160	0xbd088f84	-0.033339992
161	0xbe1985cc	-0.14992446
162	0xbdada332	-0.08478393
163	0x3de45f05	0.11150936
164	0x3d2fccdc	0.04291998
165	0x3dc603a3	0.096686624
166	0x3d1674e7	0.03673258
167	0xbca092a9	-0.019601183
168	0xbb984f26	-0.004648107
169	0xbd8473a5	-0.0646737
170	0xbd330fda	-0.04371629
171	0xbd315024	-0.04328932
172	0x3e0cd6e4	0.1375385
173	0xbdd61eb4	-0.10455075
174	0x3df2ba00	0.11851883
175	0x3d95507e	0.07290743
176	0x3bbee1dc	0.0058252644
177	0x3e019923	0.12656073
178	0x3e065094	0.13116676
179	0xbd16b64f	-0.036794957
180	0x3df75bdc	0.12078068
181	0x3d44573d	0.04793476
182	0xbe0cf62b	-0.1376578
183	0xbd9b2bc8	-0.0757671
184	0x3ded8a8c	0.11598691
185	0x3dbc18e0	0.09184432
186	0x3ce5468d	0.027987743
187	0x3d946ded	0.07247529
188	0xbda49479	-0.080361314
189	0xbdca1916	-0.09868066
190	0x3c76a5dd	0.015054193
191	0x3d2485f9	0.04016683
192	0xbcaae3ed	-0.020860637
193	0x3d976837	0.07392924
194	0x3e03de6a	0.12877813
195	0x3e0398e7	0.12851296
196	0x3e029bd6	0.12754759
197	0xbd5776d9	-0.052603576
198	0xbd7e96d5	-0.062155563
199	0x3cc1736a	0.023614604
200	0x3e32478e	0.17410108
201	0xbe13d945	-0.1443835
202	0xbdc87155	-0.09787241
203	0x3d02e0a7	0.031952526
204	0x3c139d19	0.009009623
205	0x3e892bd1	0.26791242
206	0xbd75739f	-0.059924718
207	0xbb1deb04	-0.002409638
208	0xbda5a1f4	-0.08087531
209	0xbc49fe0f	-0.012328639
210	0xbc1bf3b6	-0.009518554
211	0xbe46f895	-0.19430764
212	0x3cee54d0	0.029093176
213	0xbe12a969	-0.14322437
214	0x3c001a57	0.00781878
215	0x3e90c56a	0.28275615
216	0x3dacc610	0.08436215
217	0xbd04e32f	-0.03244322
218	0xbdb5c998	-0.088763416
219	0xbce37d5a	-0.027769733
220	0x3c98cb94	0.018651761
221	0x3c234b2f	0.009966656
222	0x3df320eb	0.11871513
223	0xbe124890	-0.14285493
224	0x3e5aed08	0.21379483
225	0xbba9845c	-0.005173249
226	0x3dc5097c	0.096209496
227	0xbdad67b2	-0.08467044
228	0xbd2a8218	-0.041627973
229	0xbe1a5de7	-0.15074883
230	0xbcc56b7e	-0.024099108
231	0x3dcb450e	0.099252805
232	0x3e1deb4e	0.15421793
233	0xbde6abe4	-0.11263254
234	0x3d3d40a3	0.04620422
235	0x3da07e95	0.078366436
236	0x3d13d0e1	0.036087874
237	0x3e3594e1	0.17732574
238	0x3e6d2643	0.23159127
239	0xbcbed87d	-0.023296589
240	0xbb07ac34	-0.0020702006
241	0xbce29262	-0.027657691
242	0x3d6285a0	0.055303216
243	0x3e2fdcf6	0.17174134
244	0xbca0529c	-0.019570641
245	0x3e32495b	0.17410795
246	0xbddc2140	-0.107485294
247	0xbca17b31	-0.019712063
248	0x3d55cd94	0.052198008
249	0x3e01d9fc	0.1268081
250	0xbb709658	-0.0036710706
251	0x3d08a69f	0.033362027
252	0x3d8540e5	0.06506518
253	0xbdbfe285	-0.09369377
254	0xbc197318	-0.009365819
255	0x3e3a6a9d	0.18204732
