saved_model/DAP_Model_Combo2.pt (torch, 234114 bytes, 12 tensors)

lstm1.weight_ih_l0 f4 [256, 6]
00000000: 26c6 193e dd5d ec3d 238d 8fbe 8ba7 ac3d
00000010: 8f8c d93d b26f 98bd c24f 193e 9d42 123d
00000020: 0934 14be a87b e4bd f67d 63bd 431b 8abd
00000030: fad8 e1bc b0bc ecbd 8d7b 9f3d c449 04be
00000040: a3ef 953d edf9 1cbe 3c11 433d 87cb d93c
00000050: d260 c5bd 7458 923b 3362 b83d 432a 5bbe
00000060: 94cc 1dbc 8618 aabd 9f2c bebd 7b90 893b
00000070: 1607 8c3b be9c d23c bb20 07be 7e9f 463d
00000080: a359 203e 2fe3 3f3d aa26 36bd 8207 c0bd
00000090: 1ec4 e5bc 0516 303d 9d16 81bc a61d 79bd
000000a0: 24ac fcbd 2352 d83c 95f5 0bbe e630 f13d
000000b0: a88b dd3c 0998 223d 6e0b 0cbe 8169 1f3e
000000c0: 64de 2e3d 40e8 363d b300 44bd f0c6 4ebc
000000d0: f480 153d 2cbf a3bd 092d d4bd e14a 343e
000000e0: 4df9 f43d 1a75 933c 12da 083e d2ba 95bd
000000f0: c971 8e3d 2b63 a83d b527 98bd 7c7f 82bc
00000100: 762e dbbc 4678 a63d f169 b5bd 5f19 0b3e
00000110: 795a b43e fee4 85bd 5863 8b3c 9262 d33d
00000120: 5481 d93d 11e4 1dbe ac18 7abe 0b04 60be
00000130: 9472 3a3e c7ff e6bc b011 1b3d b488 3a3c
00000140: 0149 fe3d 4d39 843d c26d 093b 5a97 d93d
00000150: fed4 7e3e 8a5e 223e 798a 4fbe 8872 59bd
00000160: e766 703e b2a6 19bc 71bc 0fbd 1b2f 12be
00000170: d36c 02be 0c31 08be 30df 40bd 3d5a a2bd
00000180: 0066 d8bd c961 c8bd 4947 99bd d552 a73b
00000190: 3b67 48be 5482 05bd b536 b2bd d233 4a3d
000001a0: 66a7 383e f81a 203d 0ade e1bd 8ecb eebc
000001b0: 1b5b 4cbd ac88 06be 7c1a 453c 5cd4 4a3e
000001c0: 61ca 02be bce5 d9bd cc6a 213e 9cd0 ad3d
000001d0: cfe1 c6bd 4a6f 033d ce06 21bd 4cc3 c83d
000001e0: cf3d 423d ca2b 2cbd 5d1f 36bd ef1c bbbd
000001f0: 569e 173e c5d3 39bd 8cb7 843d 8c59 1f3c
00000200: 78de 883e ae19 13be b2b1 05bd 0844 c1bd
00000210: 6d48 88bd 5823 f0bb 613e 4d3c 0f74 e9bd
00000220: b5a5 2e3e 5c53 cebd d98a 94bc 0ffb 4a3d
00000230: a911 ca3c ade6 8c3d d6af de3d b1de 2fbe
00000240: c80f 76ba 2388 51bd 9dfe 9e3d 936e bbbd
00000250: ff7b eb3d c124 c73d 4abc c5bd adca 793d
00000260: a84d 743e a73c e4bd bed7 7c3a 7e9e e8bd
00000270: 720f 10bd d666 9bbd 70d9 e43d 8b34 68bd
00000280: dcd8 4f3d 472d 56bd b41b 3e3d b7c5 8a3d
00000290: 529d 96bd aec8 e13d 906c 8cbc 2089 7f3d
000002a0: 3d1c a73d 7b73 823c 526c 8f3c 0f37 abbd
000002b0: 6e4c 043e 1c32 393e 41fd 5d3e f026 793d
000002c0: c9de 593e c6a6 0b3d 404f 313e 2606 00be
000002d0: aa5a 213e 5001 1fbb fab1 a23e 099f 613c
000002e0: a705 b53d 7417 d1bd b8e6 2b3d e96f 02bd
000002f0: 754a 2a3e b6b3 0bbe 01fc 033e f379 dabd
00000300: b300 203e 5750 e2bd 1772 2f3e 8539 cfbc
00000310: 2b41 16bd 77bc 8e3d 314c 0e3d f24e babc
00000320: f0bd 33bb f590 20bd d350 e33c 9ae0 663e
00000330: 0cf8 293e ac09 4ebd 73e1 33bd ea6d c93c
00000340: 2031 333e c690 253e ad7e b5bd 35fa 8f3d
00000350: a773 a7bd 5ce0 d33b 8118 39bd 6ec2 ef3d
00000360: feb6 223d dbd3 173e f4b5 a03d 6086 813d
00000370: 5057 2bbd 934c 833e d9dd d93c d417 fdbd
00000380: c587 82bd c48b e3bd 5e07 f03d ab3b c43d
00000390: 88bb 3c3d 9dca 2d3e 8552 20be c8d7 903d
000003a0: c042 3eba 8245 b83c ce8a d03d f36a 9dbd
000003b0: 1a0a dc3b afb0 27be b89f d23d c6ed 493e
000003c0: c3da 243e b222 313a df8f 54be 87a2 4d3c
000003d0: 4b85 d8bd 907a b1bd 2ab1 c93d b5c1 8c3d
000003e0: 1562 0f3e 07c7 0dbe 5a42 96bd 1f0b b5bb
000003f0: 4a4b 713d ceb2 32bd 9b52 45bd bf04 343d
0.15016994 0.115413405 -0.28037366 0.08430394 0.106225125 -0.07443179 0.14971831 0.03570806
-0.14472975 -0.11156398 -0.055540048 -0.06743481 -0.027569283 -0.11559427 0.07787237 -0.12918764
0.07321098 -0.15329714 0.047623858 0.026586307 -0.09637608 0.004466111 0.09003105 -0.2140284
-0.009631295 -0.08305459 -0.092858545 0.0041981316 0.0042733056 0.025709506 -0.1319608 0.048491947
0.15659194 0.04684752 -0.044470467 -0.09376432 -0.028047618 0.04298975 -0.015757853 -0.06081929
-0.12337521 0.026406353 -0.13667901 0.11776905 0.027044132 0.039695773 -0.13676235 0.1556759
0.042692557 0.044655085 -0.04785223 -0.012620673 0.036499932 -0.079954475 -0.10360152 0.17606689
0.11961613 0.018000174 0.13364437 -0.07311024 0.069552965 0.0822204 -0.074294485 -0.01592993
-0.026755553 0.08128409 -0.08858097 0.13583897 0.35225275 -0.065378174 0.017015144 0.10321535
0.106203705 -0.15419032 -0.24423474 -0.21876542 0.1820777 -0.028198136 0.037858665 0.011385132
0.12416268 0.06456242 0.0020969962 0.10624571 0.24885938 0.15856376 -0.20267667 -0.05308774
0.23476754 -0.009378122 -0.03509182 -0.14275782 -0.12736826 -0.1329996 -0.04708785 -0.07927368
-0.1056633 -0.09784276 -0.074843 0.00510631 -0.1957063 -0.032594994 -0.08701841 0.049365826
0.18032607 0.03908822 -0.11028679 -0.029149797 -0.049891572 -0.13138074 0.01203024 0.19807571
-0.12772514 -0.106395215 0.15763396 0.08487055 -0.09711038 0.032088555 -0.03931313 0.09802875
0.047422227 -0.042033948 -0.044463504 -0.09136378 0.14806494 -0.045367975 0.06480321 0.0097259395
0.2673223 -0.14365265 -0.032640167 -0.09436804 -0.06654439 -0.007328432 0.012527079 -0.113990895
0.170554 -0.10074493 -0.018132614 0.049555834 0.024666624 0.068799354 0.10873382 -0.17174794
-0.0009386507 -0.05115522 0.077634074 -0.0915195 0.1149826 0.09723807 -0.09655054 0.060984302
0.23857749 -0.11144381 0.0009645185 -0.11358355 -0.03517098 -0.07587974 0.111742854 -0.056690734
0.050743923 -0.052289274 0.04641314 0.06775992 -0.07354225 0.11024605 -0.01714161 0.062386632
0.08159683 0.015924206 0.017507706 -0.08360111 0.1291978 0.18085521 0.2167864 0.06082815
0.21276392 0.034094594 0.17315388 -0.12502345 0.15757242 -0.0024262257 0.3177641 0.013770827
0.08838969 -0.102095515 0.041968077 -0.031845007 0.16629966 -0.13642773 0.128891 -0.10667791
0.15625267 -0.1105048 0.17133366 -0.025295982 -0.036683243 0.069695406 0.03474063 -0.022742722
-0.0027426444 -0.03920074 0.0277485 0.22546616 0.16598529 -0.050302193 -0.043916177 0.024588544
0.17499208 0.16168508 -0.08862052 0.07030145 -0.08176356 0.0064659547 -0.045189384 0.117070064
0.039725296 0.1482691 0.07847205 0.06324458 -0.041831315 0.2564436 0.026595043 -0.123580605
-0.06373552 -0.111106426 0.11720155 0.09581693 0.04607728 0.16971822 -0.15656479 0.07072407
-0.00072578713 0.022494081 0.10182725 -0.076864146 0.0067150714 -0.16375993 0.1028437 0.1971961
0.16099076 0.0006757184 -0.20758007 0.012550957 -0.105722986 -0.08665955 0.098482445 0.06872884
0.14002259 -0.13845454 -0.07336874 -0.0055250074 0.058909692 -0.043627553 -0.04817448 0.04394984

lstm1.weight_hh_l0 f4 [256, 64]
00000000: ae78 e9bd 0cc6 90bd e28f 5dbd 0198 403c
00000010: 54f7 6fbd 7238 593d b6c6 fc3c 17a8 c3bc
00000020: a41b f33b 3513 993d 1c5f d63d 4c93 85bd
00000030: f73f 44bc 07da 05bc 30c4 8e3d 3b06 b03c
00000040: 9138 b33d 11a4 76be c495 93be 5116 223d
00000050: b36d cf3d fd61 403d d690 92bd 01e3 143d
00000060: 3ef9 2d3b 9424 123e 5477 19bd 2d5d 1abd
00000070: 40f9 35be cd1e 3ebd a788 33be 7059 543e
00000080: b5bd e93d 51be 473e 6334 0ebd dbec c6bd
00000090: 9345 e4bd 45d3 b93d c385 323c a982 b2bd
000000a0: e2f4 b33d 5a67 c7bd b7f1 053e f5ee 1b3d
000000b0: d95f 28be b305 a8bd 3eeb 0e3d bed9 09bc
000000c0: 2140 f2bc 6b54 3d3b bb87 dabc 40d0 583e
000000d0: e276 b23d bf24 08be 2740 cf3d c7ce 963c
000000e0: be3b 46bc cbf0 a7bd 8326 583d bb56 86bb
000000f0: 1c36 bebe c7a7 533c edc8 713c da41 c8bd
00000100: 1796 de3c bdd3 a63c 47fc 0d3e c879 653d
00000110: d8f1 c43d c993 26bd 03f4 e5bd 7552 e43d
00000120: 3f81 0dbd 5c96 c23d 7b08 88bc 6e48 ef3c
00000130: 8dc2 f63d 68dc 683d f9e4 0c3d e129 ddba
00000140: 02c1 34be 6e03 1bbe 5992 94bd f333 2d3d
00000150: 7c27 f53d d70e 58be d91c c4bc 6a03 2dbe
00000160: 06d8 273e c376 f1bd 7537 4f3d c6bd c4bd
00000170: 9ac2 dfbd 732a 25bd 5ff8 db3c 9f50 a5bc
00000180: 501a 023d 9afd d53d ed2f 00bd ae09 273d
00000190: b460 84ba 3758 a9bd 3220 90bd d9d1 41be
000001a0: 6f0f cf3d bf8e 0e3e 0bfa 283d ab29 be3c
000001b0: 10b4 0c3d fc26 4739 b1e5 34be 0e6f 26be
000001c0: b05b d0bd d079 ff3d 721b 35bd 9b9b de3d
000001d0: 8065 803d 736a 9cbc 98cd 6bba c12f 96bd
000001e0: 8ea3 ecbd 4b52 ecba 1f35 173d 6fb9 ec3d
000001f0: 30e9 47bd 9655 e6bc 3da9 113d 91c4 52bd
00000200: a5c2 a6bd 513e 963a 7d2a 7fbc cb80 ab3d
00000210: 9a4e 42bc 7c52 023c b054 5dbd b92c 983d
00000220: db97 b2bc 021f 0b3d bc9f 613c df44 aebc
00000230: 9c70 13be aa26 243d 4a22 a2bd 4fae a0bd
00000240: 5e50 743d a99c 86bd b0a4 cf3a 76f8 97bd
00000250: b14c 1c3e 1584 78bd 5cae 8a3c fbe6 143d
00000260: d2da 033d 88b4 c1bb 2d07 ce3d 8e62 453d
00000270: c295 4c3d 2b6c 183e 1ee9 a4bd 3059 93bd
00000280: daed 303d 025f f83d 0524 503e 9d02 88bd
00000290: 2a30 e5bd 3f9e 9ebd 0e3a 92bc 7dca 9abd
000002a0: 6239 283d 30c5 6e3d 8fad 993d be08 f1bc
000002b0: 2551 a93d 5a12 473d ca19 7cbd 62ca 5fbe
000002c0: 6959 8bbd 1ea2 1d3e 1166 1a3d 1af9 a13d
000002d0: 027f 243a 3632 ffbc 298f c5bd aa0c a13d
000002e0: 6bf1 513c 8c27 0ebc db0e 46bd 8302 37bd
000002f0: be45 ff3d aac4 55bd 4e73 ab3d e7a9 093d
00000300: 5d1c a83c b317 1e3e 3200 df3c 7e27 fa3d
00000310: f28b f53c b4e4 fe3d d740 083d 7b8a 82bc
00000320: 9cb1 16be 2c63 43bc 232b 803d b497 593c
00000330: ffa6 54bd 1d25 eebd bce0 8b3d 04b6 503d
00000340: 8aec 7e3d 5bcd d7bd ecfd 32bd ab1e 4ebc
00000350: 9ad9 a93d 7738 0dbd 19c6 05be 0736 373e
00000360: 5970 1bbb 0190 32be 8714 7fbc 3fd0 e33c
00000370: edf9 813d dd23 d33d b087 323d 161e 713d
00000380: b838 923d cb48 a0bd 4059 e43c aaeb 38bd
00000390: 5dfe 3f3e 310e cfbd c052 eb3d 4c12 dabd
000003a0: 1157 d63d f5ff 0c3d 0572 233e 8d84 573d
000003b0: 1e59 9b3d 42d9 223d d635 a2bd fe81 95bd
000003c0: 827a 8e3d 2041 98bd 0998 36bd 5fc3 c1bb
000003d0: 5962 9d3d d298 3f3d f9e2 283d 5d61 85bd
000003e0: 0436 7bbc f046 303d f97e b33a d7a2 803c
000003f0: 44d8 1e3e 14a4 11be 718f 843e feb1 c13c
-0.11399971 -0.070690244 -0.054092295 0.011754991 -0.05858548 0.053032346 0.030856472 -0.023883862
0.0074190665 0.074743666 0.104673594 -0.06522235 -0.011978141 -0.008169658 0.069710135 0.021487346
0.087510236 -0.24086024 -0.288252 0.039572064 0.10128345 0.04696845 -0.071565315 0.0363493
0.0026546265 0.14271766 -0.037467316 -0.037686516 -0.17770863 -0.046416093 -0.17532597 0.20737243
0.11413137 0.19506194 -0.03471793 -0.09713145 -0.11146083 0.090734996 0.010896149 -0.08716328
0.08786942 -0.097365096 0.13080488 0.038069684 -0.16442813 -0.08204212 0.034892313 -0.00841373
-0.029571595 0.0028889428 -0.02667605 0.21173191 0.08714081 -0.13295268 0.10119658 0.018409146
-0.012099205 -0.082002245 0.052771103 -0.0040996945 -0.37150657 0.012918419 0.014757377 -0.09778185
0.027171178 0.020364637 0.13865767 0.056024343 0.096164405 -0.040668283 -0.11228182 0.1114854
-0.034547087 0.09501335 -0.016605606 0.029209342 0.12048826 0.05685082 0.034398053 -0.0016873443
-0.17651752 -0.15138027 -0.07254476 0.04228587 0.11970422 -0.21099411 -0.023939537 -0.16895834
0.16391 -0.1179023 0.050589997 -0.09606509 -0.10925789 -0.040323686 0.026851831 -0.020180045
0.031763375 0.10448761 -0.031295706 0.040780716 -0.001009962 -0.08268779 -0.07037391 -0.18927707
0.101103656 0.13921641 0.041254085 0.023213228 0.03435141 0.00018992642 -0.17665745 -0.16253302
-0.10173738 0.12474406 -0.044215627 0.10869523 0.062693596 -0.019093728 -0.00089951744 -0.07333327
-0.11554633 -0.0018029896 0.036915895 0.11558806 -0.04880637 -0.028116982 0.03556179 -0.05145699
-0.08142594 0.0011462664 -0.015574095 0.08374175 -0.01185956 0.007954236 -0.054035842 0.07430405
-0.021800926 0.03396512 0.013770994 -0.021273075 -0.14398426 0.040075935 -0.07916696 -0.07845747
0.059646957 -0.06572849 0.0015841927 -0.07420437 0.1526363 -0.06067284 0.016928844 0.036353093
0.032191105 -0.0059114136 0.100599624 0.048189692 0.049947508 0.14885013 -0.08052276 -0.071947455
0.043195583 0.12127496 0.2032624 -0.066411234 -0.11190827 -0.07745027 -0.017849948 -0.07558153
0.04107035 0.05829352 0.07503807 -0.029423114 0.0826743 0.048601486 -0.061548032 -0.21854547
-0.06804163 0.15393874 0.037694994 0.079088405 0.0006275029 -0.031151872 -0.09646446 0.078637436
0.012813906 -0.008676421 -0.04835401 -0.04468013 0.12464474 -0.052189507 0.08371602 0.033609297
0.020521337 0.15438728 0.027221773 0.12214564 0.029973958 0.124459654 0.03326496 -0.015935173
-0.1471619 -0.0119255 0.06258228 0.013280798 -0.051917072 -0.116281725 0.06829974 0.050954834
0.0622373 -0.10537215 -0.04369919 -0.012580554 0.08293457 -0.034477677 -0.1306385 0.17891704
-0.0023718087 -0.17437746 -0.015568859 0.02780926 0.06346498 0.10309575 0.043586433 0.058866583
0.071397245 -0.07826384 0.027874589 -0.04514662 0.18749376 -0.10110129 0.11490393 -0.10648021
0.10465825 0.034423787 0.15961464 0.052616645 0.07585357 0.039757974 -0.07920425 -0.07300185
0.0695696 -0.074342966 -0.044578586 -0.0059131826 0.07684774 0.0467766 0.041232083 -0.06512711
-0.015332703 0.0430364 0.0013694457 0.015702648 0.15512186 -0.14222747 0.25890687 0.023644444

lstm1.bias_ih_l0 f4 [256]
00000000: f744 94bd 9504 c83d dadc 4f3e 0225 63bd
00000010: 50ca 0c3e aea2 fcbc f55f 2fbe de43 31bd
00000020: 2c9f 103d 2539 153e 9949 86bd 5bfa 4f3d
00000030: 4730 7cbd faa0 aa3c b4c8 ccbc 0053 0cbc
00000040: 62d3 ed3d d127 64bd d0fe ce3d 9f1a 26be
00000050: 34b8 c0bd 8d66 843d 69d1 ebbd 7861 b63d
00000060: a1e7 eb3d 6bd4 84bd e89b 703c 7a86 803d
00000070: 1cb4 e73d 932e 203e 4e8d a6bd 6005 01be
00000080: b7a9 37be 657f 17be 523b 8ebd 0138 363d
00000090: ea72 2bbd 8fd3 babc edba 68bd 1304 3abd
000000a0: 4f1a d73c b883 76bd 7ad2 d63d 8057 593c
000000b0: 3e1d 013c 5082 36bd af50 003e 2f68 39be
000000c0: 1bee ab3c d654 8c3b d892 71bd fd9b 663c
000000d0: eef5 28bd f32a f33c 430f 14bc 2d07 683b
000000e0: d569 83bd f72d 123e c619 debc 0a3e acbd
000000f0: 99ae f33d 88a6 433d 8bb7 443e 5ce7 4fbe
00000100: 767d 893d bf7b 4d3d 9e3b 773e 85a4 16be
00000110: 6e0b 253e 89fb 323d 4777 17bc 5101 0a3c
00000120: 822f 9b3d e61d 533c fd23 9f3d 061d b83d
00000130: c2be ea3d 668c b43d 433a d53d a8ec bebb
00000140: 24b4 19be 66a1 14be 8001 aa3c 1894 a8bd
00000150: 4323 a43a e059 3e3d cfd3 61bd 8982 eabd
00000160: c96f 88bd 4786 053d d5bc 423d 5cd3 05be
00000170: b7ef 913d 3445 febc 3464 a53d 9262 10be
00000180: 6096 a63c 63db 26be f4ac 4a3e 8660 fabb
00000190: 5f2a 023e 1040 103e aa0a 8a3d 3182 6f3d
000001a0: 5f00 b5bc a422 48bd f46d 843c 381b dfbd
000001b0: 9d08 a5bd 8b73 1a3c 1c54 7fbd fe08 0dbe
000001c0: 04df 2abd f2c8 debc 80b0 9cbd cf24 9a3d
000001d0: 6840 96bd 981a bf3d bc0f 40be 5d21 a8bb
000001e0: 36c0 e73d 3e3f eebd 2021 9a3b 1999 c23d
000001f0: 1db0 053e 7504 01be d37f 713e 7cf4 253e
00000200: e819 31be 718f 24be 07f3 fabc 25a7 043c
00000210: 0295 573e 9139 b13d 54e3 eb3c 7c80 eabd
00000220: 31df dc3d 39d0 20be f5ec 44be 23a9 3c3e
00000230: ebbe 75bd 9be3 fe3c d83d 16bd c525 14be
00000240: 614e b739 0999 d93d feb1 b43d f93b 5b3d
00000250: 216b 86bd a0ad 5b3e ec5f 82bd 8edc a33d
00000260: b95a a5bc 5d55 36be e92f b6bd 3b9e 483e
00000270: f88f 683e 6018 453e 0145 493e b29d ed3c
00000280: 8ea8 163c 55e6 c1bd 0614 f83d 674e 24be
00000290: 649b d7bd fa6d 35be c86c 3e3d 7221 0c3e
000002a0: 4325 74bd d93f 27bd 828a 103e db94 8bbd
000002b0: b8ca b53d 06b6 15bd 0e78 25be 5736 813c
000002c0: 807e 5b3d a466 0a3e d032 863d 84fd 4bbe
000002d0: 4519 6b3d b307 14be daa1 ecbc 3472 08be
000002e0: da9e 723e d496 34be 3a74 61be 3946 e7bc
000002f0: f2c0 2e3e 3af0 6dbe 395d 50bd a173 d5bd
00000300: abd8 84bc 906e bebd f2d9 c03d ace2 c4bd
00000310: 79bf 453e eeef 3c3e 5255 88bd 4d27 d03c
00000320: e015 87bc d58c fe3b 5c86 2abd 3e3a 12be
00000330: 3b41 00bd 2940 ec3c 28d2 0e3d ad03 873d
00000340: 2ee9 91bd 8dda 853c 4278 283e 0372 e43d
00000350: 4aad 56bd f7f7 00be caac 673d 4775 2e3d
00000360: 8006 4a3d f540 07be b393 30bc ec16 143d
00000370: e08e 173d 378a b03d bfc7 623d 7c30 d5bd
00000380: 0f75 1e3d 5c24 c93b 399c 1a3e 7f6e bfbb
00000390: 6e0d 37bd c125 5a3d ddb9 eebd e56c 323e
000003a0: 5193 133d 9e67 0dbe 6b07 88bc ba62 92bd
000003b0: 8a79 62be 3222 36bc 1eab e9bb dab3 91bd
000003c0: 37cd 0cbc cb74 37be 3b65 1ebe 5983 7b3d
000003d0: 61aa 81ba ae0e e23d c589 093e 0c2a 053e
000003e0: 5a85 8fbd 9e36 da3c b61e 19be 6b15 dd3c
000003f0: 634b 0bbe 85d4 fabc fba6 c0bc fb11 363c
-0.072397165 0.09766499 0.20299092 -0.055455215 0.13749051 -0.03083929 -0.17126448 -0.043277614
0.035308048 0.1457258 -0.065570064 0.050775867 -0.06156948 0.020828713 -0.024998046 -0.008564711
0.11612584 -0.055702034 0.101071954 -0.16221093 -0.09410134 0.064648725 -0.11514551 0.089053094
0.11518789 -0.06485828 0.014685608 0.06275649 0.1131365 0.15642767 -0.081324205 -0.12599707
-0.17935835 -0.14794691 -0.06944908 0.044487003 -0.041857637 -0.022805957 -0.05681889 -0.04541404
0.026257662 -0.06018421 0.10489364 0.0132654905 0.007880507 -0.04455787 0.12530778 -0.18106149
0.020987561 0.004282574 -0.05897793 0.014075276 -0.04125016 0.029683566 -0.009036842 0.0035404668
-0.0641667 0.14275347 -0.0271119 -0.084102705 0.11898536 0.04776624 0.19210641 -0.203031
0.06713383 0.05016684 0.24143836 -0.14711197 0.16117641 0.043696914 -0.0092447465 0.008423165
0.07577421 0.012885546 0.07770536 0.08989911 0.114621654 0.088158414 0.10411503 -0.0058265515
-0.15010124 -0.14514694 0.020752668 -0.08231372 0.0012522716 0.04647243 -0.055133637 -0.11450679
-0.06661946 0.03259876 0.047543366 -0.13068908 0.071258 -0.031038858 0.08075753 -0.14100102
0.020335376 -0.16294627 0.19792539 -0.007640901 0.12711476 0.14086938 0.06740315 0.05847377
-0.022094904 -0.04886116 0.016165711 -0.108938634 -0.080582835 0.009426962 -0.062336072 -0.13772961
-0.04171659 -0.027195428 -0.07650852 0.07526552 -0.07336503 0.09331244 -0.18756002 -0.0051309303
0.11315958 -0.11633156 0.004703656 0.09501857 0.13055463 -0.12599356 0.23583917 0.16206545
-0.17295039 -0.16070344 -0.030633463 0.008096491 0.21052936 0.08653558 0.028794922 -0.11450288
0.10784758 -0.1570443 -0.19231017 0.18423896 -0.059996527 0.03111439 -0.036680073 -0.14467533
0.00034962877 0.10624892 0.08823012 0.05352399 -0.06563402 0.21452951 -0.06365952 0.08001052
-0.020184861 -0.17806001 -0.08895857 0.1959161 0.2271117 0.1924758 0.19655229 0.029005859
0.00919546 -0.094677605 0.12113194 -0.16045533 -0.10527685 -0.17717734 0.04649046 0.13684633
-0.059605848 -0.040832374 0.14115337 -0.06815501 0.08876556 -0.036550544 -0.16159078 0.015772982
0.053587437 0.13515717 0.065526605 -0.19920927 0.057397146 -0.14456062 -0.02888577 -0.13324815
0.2369341 -0.17635661 -0.22016993 -0.028231727 0.1706579 -0.2323617 -0.050870154 -0.10422445
-0.016216597 -0.09298432 0.0941657 -0.09613547 0.19311322 0.18450901 -0.066568986 0.025409365
-0.016489923 0.0077682533 -0.04163204 -0.1428003 -0.03131221 0.028839188 0.03486839 0.06592498
-0.071245536 0.016339565 0.16452125 0.111545585 -0.052411355 -0.12594591 0.05656127 0.042592313
0.049322605 -0.13208373 -0.010777402 0.036154673 0.03700149 0.086201124 0.055366274 -0.10409638
0.038685855 0.0061383676 0.15098657 -0.0058420296 -0.044690542 0.05325866 -0.11656544 0.17424352
0.036029164 -0.13809058 -0.0166051 -0.07147737 -0.22116676 -0.011116551 -0.0071309945 -0.07114382
-0.008593849 -0.17915647 -0.15468304 0.06140456 -0.0009892696 0.11037956 0.13431461 0.13004321
-0.07007857 0.026637372 -0.14953122 0.026987752 -0.13602977 -0.030618915 -0.023517122 0.011112685

lstm1.bias_hh_l0 f4 [256]
00000000: 036a fabd 7dc6 b2bc 5303 b93d c288 2c3d
00000010: 7b7b 363e 4d9a ce3d 4847 2abd 5a58 04be
00000020: 1262 573e 3199 343e 312d d7bc 1f2d 8abd
00000030: 3cc3 bb3d c8da b23d 6985 75bd f64c 17bd
00000040: a97f 263d e33e e5bd 42b6 00bd 1b25 e3bd
00000050: 57ed 1bbd 5dc8 203d bc3f fcbc 43b3 8fbd
00000060: 8cd0 423d 54fc 8abd 8d8b 833d e53a 12ba
00000070: 7d8b 993a c904 233e b028 a3bc adbe 933d
00000080: 8f10 85be 02ba 883d 09b7 d83d bfe5 853c
00000090: c4e9 2bbd 121f 163e 3b5a 303d 5295 573d
000000a0: 89aa 593d afd3 4ebe 178b 7fbd e002 8ebd
000000b0: e684 58bc e566 c5bd e6d3 49bb daa3 923a
000000c0: dec9 34bd ae02 02be 0387 3cbe da14 d1bd
000000d0: 3835 0abe 8a36 493c 1d5b b13c 4187 993d
000000e0: 5e24 863d fd6b b03d dcb5 d3bd 22fe 9cbd
000000f0: 1b49 993d 8863 7ebd 5d56 843d 479b 0bbe
00000100: e920 a93d 4c7c b33c b90f 823e 32e5 d3bd
00000110: f39c 113e 3f7c a7bd ee6f 11bd 78f4 d13d
00000120: 685d 823d 6935 44bc b44b e6bc acf0 db3d
00000130: a450 0c3d cea7 b43d cee6 033e 30e7 c83c
00000140: 2487 58bd f277 9cbd f49b 5b3d 2aed db3d
00000150: 9180 c23d 755d 143e d54d 48be 5526 21bc
00000160: b277 83bd 3944 07be 46bd 2a3e bef5 a1bd
00000170: 54bd ce3c ee44 df3d bb64 cc3d a9a7 063d
00000180: c949 3dbe e8b5 2fbd 64f9 1e3e b9b3 e3bb
00000190: 0990 643d bd13 883d 95de 663d 2ffe e53c
000001a0: cca7 48bd e7c5 28be e8c4 bdbc ce5a 11be
000001b0: 65eb ebbd af81 d4bd 5f7f 1f3e 4d88 b8bd
000001c0: 6fd3 d8bd 171c 863d ba37 273d 963b 003d
000001d0: cad3 cd3b 8979 0b3e 8c11 06be 9f76 fe3c
000001e0: 6556 df3d 4f0e e53d 512c 9e3c 3dd5 75bd
000001f0: 5428 a8bd 65a6 3d3d b430 9c3d 2f0b 76bb
00000200: 4647 51bd 8a5f 69be e9d7 35bd 4273 9b3c
00000210: 2abc 6c3d 978c 173e 6ad5 bf3b 553a 43be
00000220: d245 663d 12e9 84be 0418 80be 892b 13bc
00000230: 55ae 103e 3136 e9bb 6af4 54bd 7fcc 77bd
00000240: cf76 9e3d 87d9 f23d 59f4 503d d7fa ad3d
00000250: ad0d 763d 7d28 ee3d ddf4 27bd d0f5 023d
00000260: 0603 2a3d 1dac 28be 053b 123e 034d f93d
00000270: 374f 7a3e 3521 d73d fdd0 1cbc 0d2b 2fbe
00000280: a0d3 01be a3d0 eebd a6da e93c c6f9 21be
00000290: 287a 09be 0c50 a0bd 6d74 db3d 1384 e53d
000002a0: 1467 16bc 8233 403c f2ba ca3d e915 f5bd
000002b0: 11c6 e33d 91be f8bd 1b70 febd cd64 7a3d
000002c0: 5cf6 183e 0f1a 253e 5b31 0cbd 96d9 3ebd
000002d0: 9708 fd3b 2533 20be b0fa 30be f943 54be
000002e0: fbb9 623d 34c3 acbd bc33 1fbe a063 5fbe
000002f0: a6ca 363d fdbe 0e3b 4a11 0cbe 02e5 dfbd
00000300: faef 8e3d 093f e03d 1ec1 013e c4ac 98bd
00000310: 9f98 883d 5286 0e3e 77e0 e03c ce70 4b3d
00000320: 2a33 143d d40d 333b 76ec f03d fa4d 2abc
00000330: 887b 8bbd 7b0c ffbd 40f6 363d d725 96bc
00000340: 8e54 9d3d 2b34 93b8 5974 fa3d 9169 0cbd
00000350: c751 803d 0204 67bd c41e b23d c17a ff3d
00000360: 8b5a ed3c 2dda 20bb 7061 a43d a236 0fbd
00000370: ac1e fd3c 0fa1 273e c200 62bd 99b2 f0bd
00000380: b51d ef3b 0c23 dfbd 7a52 8e3d 6221 fc3c
00000390: 9b3d b4bd 877c 22bc a867 b83b 5040 e13d
000003a0: b513 a13d 264a 3abd ce61 f03c 02bf a4bd
000003b0: 6d6d 1bbe 674b b5bb f701 083e 4876 093d
000003c0: 9616 823c e314 99bd c7d3 41be 6004 c03b
000003d0: f665 c13d be1d f2bb 48e8 803e db9a 323e
000003e0: 4316 7a3d 6884 ab3d 2562 493c 4fed 66bd
000003f0: 69e0 aabd 24ca 673d c564 4d3e 9f11 a23d
-0.122272514 -0.021823162 0.09033837 0.04212261 0.17820542 0.10088024 -0.041571885 -0.12924328
0.21033505 0.17636563 -0.026266666 -0.067468874 0.091680974 0.087331355 -0.059941683 -0.03693863
0.04064909 -0.11193635 -0.031423815 -0.11091062 -0.03806814 0.03925358 -0.03079211 -0.07016613
0.047562167 -0.06786409 0.064231016 -0.0005578234 0.0011714544 0.15919794 -0.019916862 0.07214103
-0.25989196 0.06676103 0.10581786 0.016344903 -0.041970983 0.1466029 0.0430548 0.052632637
0.05314115 -0.20197938 -0.062388506 -0.06934142 -0.013215279 -0.09638766 -0.0030796467 0.0011187748
-0.044137828 -0.12696335 -0.18410878 -0.10209055 -0.13496864 0.0122810695 0.021649892 0.07496501
0.06549905 0.08614347 -0.10337421 -0.076656595 0.07484647 -0.06210664 0.06461785 -0.13633452
0.0825823 0.021909855 0.2540262 -0.1034645 0.14220028 -0.08177995 -0.035507135 0.10251707
0.06365472 -0.011975625 -0.02811227 0.10739264 0.034256592 0.08821069 0.12881014 0.024524301
-0.052863255 -0.07640065 0.053615525 0.10738595 0.09497178 0.14488776 -0.1956094 -0.009835799
-0.064193144 -0.13209619 0.16673765 -0.079082 0.025236763 0.10901819 0.0998015 0.032874737
-0.18485178 -0.04289809 0.15524822 -0.006948915 0.055801425 0.0664439 0.056364615 0.028075306
-0.04898815 -0.16481744 -0.023165181 -0.14194795 -0.11519507 -0.10376298 0.15575932 -0.09010372
-0.10587203 0.065483265 0.04082463 0.031306826 0.0062813507 0.1362058 -0.13092631 0.031062422
0.1090515 0.1118437 0.019308241 -0.060017813 -0.08210817 0.046301264 0.07626477 -0.0037543287
-0.051093362 -0.22790352 -0.04439536 0.018975858 0.057796635 0.14799725 0.0058542984 -0.1906522
0.05621893 -0.2595907 -0.25018322 -0.008982548 0.14129002 -0.007117056 -0.051990904 -0.060497757
0.07737505 0.11857896 0.051014278 0.084951095 0.060071636 0.11628816 -0.041005004 0.031972706
0.04150679 -0.16471906 0.14280327 0.12172892 0.2444428 0.105043806 -0.009571311 -0.17106266
-0.12678385 -0.11660888 0.028546643 -0.15817937 -0.13425505 -0.07827768 0.10715566 0.11206832
-0.009179849 0.01173103 0.09898938 -0.1196707 0.111217625 -0.12145723 -0.12423726 0.061131287
0.14937729 0.16123222 -0.034226757 -0.046594225 0.0077219713 -0.1564451 -0.1728313 -0.20729055
0.055353146 -0.084356695 -0.15547079 -0.21815348 0.044626854 0.0021781318 -0.1367847 -0.10932352
0.06979366 0.10949523 0.12671325 -0.074548274 0.06669735 0.13918427 0.027450783 0.049668126
0.036181606 0.0027321475 0.11763851 -0.010394568 -0.06810671 -0.12453552 0.044668436 -0.01832859
0.07682143 -7.019223e-05 0.12229223 -0.034280363 0.06265598 -0.056400307 0.08697274 0.12474585
0.028973838 -0.0024544105 0.08026397 -0.03496421 0.030898415 0.16370033 -0.055176504 -0.11752815
0.0072972425 -0.108953565 0.06949325 0.030777637 -0.08800813 -0.009917385 0.005627591 0.10998595
0.07865087 -0.04548087 0.029343512 -0.08044244 -0.15178461 -0.0055326703 0.13282 0.033560067
0.01587991 -0.07474687 -0.18928443 0.0058598965 0.09443276 -0.0073887995 0.25177217 0.17441885
0.061056387 0.08374864 0.012291466 -0.05637866 -0.08343584 0.05658926 0.20057972 0.07913517

lstm2.weight_ih_l0 f4 [256, 64]
00000000: 303b 89bd 08c8 aabc 57df f73d 1ec1 8c3d
00000010: 30e0 763e a88d 88bd 627b 843e 551b 82bd
00000020: 4283 253e 41c1 8fbd 53ef 1e3e e28e 15be
00000030: dc52 73be e43a 30be 9656 23bd 8dbe 90be
00000040: 29c8 d1bd ce0d f1bd 4ef3 37be db70 75bc
00000050: 0151 dbba a56a 9d3c f74f 03be 1dc6 a43d
00000060: 229a 09be 693a 66bd 018d 283d 852b 0d3e
00000070: 0c08 99bc 75db ba3d b431 cf3d 3864 0bbe
00000080: 66c6 8f3d 7bfe e3bd efdb d03d 0308 5bbd
00000090: 0230 d7bd 06bd 05be 795d a43c 167a 67bc
000000a0: 389b 10be 6603 a63d 0704 a6bb c844 da3d
000000b0: ae45 923d 383e 6f3d 6493 b1bd 5424 623d
000000c0: 3f71 453e 8f3f 633d 97ca 88bd af50 b7bd
000000d0: ef90 563e 9e70 993d 0369 cabd 19e7 35bd
000000e0: d336 8b3c 2f70 36bb 7efd 1cbd 69fd 863c
000000f0: 5d3c c23d 0b73 08be cc96 263e f279 f53d
00000100: 796f ebbc 352f c1bd 1ee5 9dbd 822a 0b3d
00000110: bf94 b33d 3764 4fbd b264 f23d de64 31be
00000120: 0399 063d 2f82 8cbd e37e 0d3e 90d5 a6bd
00000130: 94f9 d0bd e734 bf3d e080 503d 5d98 45bd
00000140: 52b2 2e3d d294 f2bc 7254 62be d1d0 803d
00000150: b4e5 1abd 38bc 6dbd e090 1cbd 4ae6 c23d
00000160: df1f b4bd a6a2 cdbd 093d 483c a67b fe3d
00000170: 4f7a 4ebd 6f9f acbd 942f 533d 4881 673d
00000180: 1e96 053e 606d 3f3d 6726 cf3d 2a8c 42bd
00000190: c476 3a3e 9df7 08be 2c1e f53c 9966 28bc
000001a0: 830e 13bd 6d70 143e 0a23 d13d 6302 e33d
000001b0: 4b0f cdbd 962f fd3b 1179 4ebe 5f1f 803d
000001c0: f0f1 943d b890 21bd 7cd1 f2bd 5575 233e
000001d0: ca96 a53d 76ec 65bd 0c4d 05be 8464 9cbb
000001e0: 7366 abbd 5d7e 603d 601e 243e 703f 4b3d
000001f0: 6ad0 95be 49c4 acbd f0fa 273e cc24 c4bd
00000200: 2307 f5bb cbf9 eb3c 3a5c 32be e227 9c3a
00000210: dab5 be3b 5b0f aa3d fe26 6fbd dcdc bfbd
00000220: 475b e4bd f211 debb efc2 0e3d ff36 9f3c
00000230: 3f18 27be 139d e93d a2ab d3bc fe8d 9d3d
00000240: 2a77 043d c7d7 063e 5991 4bbe bbe8 d63d
00000250: 312b 92bc 499a b5bd f17e d13d cd33 c6bc
00000260: 0055 ce3d bafe 01be 5c56 583d b6de 6e3d
00000270: 8388 3e3d 15c8 0abe d7a1 173d 311d 003d
00000280: fc63 313e fe75 9f3b 9214 e4bd 0f0e 6e3d
00000290: ab54 fe3d 63f0 9bbb 99d4 ce3d 4457 a5bd
000002a0: b6f1 543d 82cd 83bc 6a6e 083d ada7 953d
000002b0: 84bf fcbd d2d5 ef3d 4098 18bd f85c f73d
000002c0: 09f6 403d 383a 873d 6ba0 393c faed 4abd
000002d0: 04f9 113e 7f14 c93c 94b1 363e 94b2 1abd
000002e0: 3bf8 d0bd e7d4 fe3d b6ec 1c3e bb88 273e
000002f0: 2f16 05be c85a 903d 06ef dc3d 6d22 3a3d
00000300: 724f b23c 3e5a a03d b6da d73d af91 9cbc
00000310: e0af 51bd 4f81 45bd c8a9 c63d 2fae e2bc
00000320: 4fda 87bd 1e3e 7d3d 30b1 f83d e02d 1fbc
00000330: 44d6 db3b 6f2b 373b 677e f43c abea 73be
00000340: 7439 98bd 765b d9bd 4be1 76be 3f03 693d
00000350: e76b 7abb 4d94 83bd 8046 ddbc 5d9e 813d
00000360: 8f0e a43d 48d8 2e3e c41a b53d 13f8 7d3e
00000370: 664c 313e e57d ebbd 5f82 debd 9cff 5f3a
00000380: db38 463d 7018 efbb e131 e83c 7f3b cabd
00000390: 8a09 2fbe 6a0c f8bc 45ae 203e 1153 103c
000003a0: 2fce b6bc e6ba 2cbd ce7b 91bc 8bde b9bd
000003b0: f283 46bd fc70 27bd 0995 34be 42e6 ce3d
000003c0: a12f 533e c4a4 623d 01f7 34bd fb77 58bd
000003d0: cef9 dfbc 4cb4 a1bd 6baa ec3d c341 873d
000003e0: e9d5 b4bc b918 fb3c 8580 bb3d 6219 d9bd
000003f0: 2eff d0bd cdd7 72bd ff33 213e 8aff 08bd
-0.06700742 -0.020847335 0.121031456 0.06872772 0.24108958 -0.06667644 0.25875384 -0.063528694
0.16163352 -0.07019282 0.15520982 -0.14605287 -0.23762077 -0.17209965 -0.039877497 -0.2827038
-0.10243256 -0.11770211 -0.17963907 -0.01498052 -0.0016732515 0.019215891 -0.12823473 0.080455996
-0.13437703 -0.056208048 0.041150097 0.13786133 -0.018680595 0.09123889 0.10116902 -0.13612449
0.070202634 -0.11132523 0.10198199 -0.053474437 -0.10507204 -0.13060388 0.020064102 -0.014128229
-0.14121711 0.08106117 -0.005066398 0.1065765 0.071421966 0.058408946 -0.08670691 0.055210426
0.19281481 0.055480536 -0.06679266 -0.08950936 0.20953725 0.07492183 -0.09883311 -0.044409845
0.016993916 -0.0027837863 -0.038327686 0.016478257 0.0948417 -0.13325135 0.16268462 0.1198615
-0.028739678 -0.09432832 -0.07709716 0.033976085 0.087686054 -0.05063268 0.11835612 -0.17323634
0.032860767 -0.06860768 0.13817935 -0.081462026 -0.10203853 0.09336262 0.050904155 -0.048241008
0.04265053 -0.029611979 -0.22102526 0.062898286 -0.03781672 -0.058040828 -0.0382241 0.095165804
-0.087951414 -0.10040788 0.012221583 0.12425928 -0.05040961 -0.08428847 0.051559046 0.056519777
0.13045546 0.046735168 0.101147465 -0.047496952 0.18209368 -0.13375707 0.029921614 -0.010278367
-0.03590251 0.14496012 0.10211761 0.110844396 -0.100126825 0.00772662 -0.2016337 0.062559836
0.072727084 -0.039444655 -0.11856362 0.15962727 0.08085401 -0.05613371 -0.13017672 -0.0047727246
-0.0836915 0.05480801 0.16027212 0.049621046 -0.2926057 -0.08435876 0.16404319 -0.09577331
-0.0074776574 0.028805634 -0.17417994 0.0011913741 0.0058200182 0.0830371 -0.058386795 -0.093682975
-0.11150222 -0.0067770416 0.034853872 0.019435404 -0.16317843 0.11406913 -0.025838677 0.076930985
0.032340206 0.1316825 -0.19879664 0.104936086 -0.01784286 -0.08867318 0.1022929 -0.024194622
0.10074806 -0.12694827 0.052816734 0.058317862 0.046516906 -0.13552888 0.037019577 0.03127784
0.17323297 0.0048663607 -0.11136736 0.058118876 0.12418493 -0.004758881 0.100991435 -0.08073285
0.051988326 -0.016089205 0.033308424 0.07307372 -0.12341216 0.11710705 -0.037254572 0.12078279
0.047109637 0.06602901 0.0113297505 -0.04954336 0.14255148 0.024545906 0.17841178 -0.03776796
-0.10203596 0.12442952 0.15324673 0.16360752 -0.12996744 0.07048565 0.107877776 0.045442987
0.021766398 0.07829712 0.10539763 -0.019112436 -0.051193118 -0.04821902 0.09700352 -0.027670948
-0.06633436 0.061826818 0.12143171 -0.009715527 0.006708892 0.0027949472 0.02984543 -0.23819987
-0.07432833 -0.10613148 -0.2410938 0.05688786 -0.0038211287 -0.064247705 -0.027011156 0.063290335
0.08010589 0.17074692 0.08842996 0.24801664 0.173143 -0.11498622 -0.1086471 0.00085448637
0.048394065 -0.0072966143 0.028344097 -0.09874629 -0.17093483 -0.030279357 0.15691479 0.008808867
-0.022315113 -0.042170428 -0.01775923 -0.0907565 -0.048465677 -0.040879235 -0.17634977 0.10102512
0.20623638 0.055332914 -0.044180874 -0.052848797 -0.027340796 -0.07895717 0.11555942 0.0660434
-0.022074657 0.030651437 0.091553725 -0.106005445 -0.10204922 -0.059287835 0.15742491 -0.033446826

lstm2.weight_hh_l0 f4 [256, 64]
00000000: eae0 2abd 9213 ae3c c523 f93d 98bf 42be
00000010: 075c a5bd 68e1 5dbc 740e c83d c026 0ebd
00000020: 26b5 98bc ef78 333e 2729 483d ac43 18bb
00000030: 5fef b73d c85b c33d 35d5 873d e4ba 1bbd
00000040: 7dde 543e 9fef fb3b f648 d13d d832 e53d
00000050: 5f85 df3d 8801 1abe c464 813d 13a4 bf3d
00000060: e127 d3bc 4465 6bbd 8a86 7b3b a690 2ebe
00000070: a5c4 d2bd 4f83 6abd 071f 13be 92a4 2fbe
00000080: ba5b 50bd efb8 1b3d 3ada bc3d 05a3 353d
00000090: aa1c 893d 98ef b6bc 1051 f33d ae91 183d
000000a0: bb5e 003e 6ed5 9e3d 2e2c 943d 3f10 073e
000000b0: ce0a f23d b866 8d3d d034 eabd b5ec 2e3d
000000c0: c1c1 733d 2d51 6a3e ef68 29bb fbcb cfbd
000000d0: dcd1 583c 486e a5bc 7f95 85bd 7c13 7dbd
000000e0: d2d4 b6bb 0df5 6fbd 825d cbbd 2c7c a7bd
000000f0: 58b0 e4bd 5c71 b0bd afe3 b1bd 2609 9cbd
00000100: 81ea d03b 00b8 c1bd 2776 773c 3b34 713d
00000110: ae63 123e 494f 88bc 5b80 15bd 5455 da3c
00000120: 38d2 ca3b ad0f ac3d bfe9 14bd 8b3b b3bd
00000130: d997 e63d c7e1 2abd b9b2 043e 92aa 20be
00000140: 9f33 d2bd 12a1 03be c975 a83d 961c eebd
00000150: 69c7 92bd efbb fdbd ebe9 253e b279 4d3a
00000160: b34e 3abe b1cc 10bd 01e9 523e a4d2 96bd
00000170: bb90 39bc 6d79 1f3d 7fef 00bd 4918 083e
00000180: 0321 073e 7565 cbbb 3d3f 00bd bb18 543d
00000190: 8506 c73d a2c1 c43d 30b8 8e3d f029 cfbd
000001a0: a184 bd3c a240 24bd 63d0 a0bd 48c2 ad3d
000001b0: e4ba fa3c e428 073e 78d2 e3bd 208f 023d
000001c0: 8d59 183e 5bb1 d3bd a9bf 9e3d f13a 773d
000001d0: fa63 35bd dc34 65bd 7823 353d 9448 a8bd
000001e0: ac64 c2bd e86e a03d fbda b1bd a04c f6bd
000001f0: 4d2b 1abc e634 963d 4a7d 1f3e e839 f83d
00000200: 5b9c 983d 0cc2 18be c656 93bc 48ec bcbe
00000210: f0d4 8bbb 18c0 e6bd 147c abbd 7150 36be
00000220: ca44 3fbe d2dd 423e 7bf2 aab9 297b 83bd
00000230: fc73 c5bc dbd3 f93d 9f38 82bd dd50 373d
00000240: 4c36 673d 7ac6 953d 75d7 d13d dc9d b73c
00000250: 5453 93bc ed23 41be b762 4ebc 0392 8bbe
00000260: 16a7 b83d 2440 8abc ef12 123d ef48 9f3b
00000270: 84d4 f13c 3c77 373d 8ddf c6bd bbf5 923c
00000280: ea39 a53c dd44 b3bb b5c7 1b3e 2232 4abc
00000290: d4ac 9fbc fb62 3b3e c290 cc3d 6bcd 93bc
000002a0: edae e6bd f280 333e acf1 c03d ec83 02bd
000002b0: 8752 3f3e e55d 00be aa82 75bd 670b 0b3e
000002c0: 29cb d7bd ae21 7d3e f2af df3b 1a4a 293d
000002d0: 82e0 e2bd aa96 603d 1eb3 32bd f150 64be
000002e0: 4a12 6cbd 64df 18bb 51f8 a0bc 4cc0 64bd
000002f0: 996f f13b 192d 8bbd f19c 0c3e 813f dcbc
00000300: e4ad 103e d1a9 25be fd07 fc3d ad3d 453d
00000310: f914 a83d c779 87bd 0e89 84bd 369c 1abe
00000320: ebb8 b13c 9947 ac3c 2ce4 16bb a634 7bbb
00000330: 7d75 7abd 73f4 57bd 18c5 7dbd fa2e cbbd
00000340: 3de4 403c 4892 ccbd 77a6 bb3c 0df7 61bd
00000350: 2a68 5b3d 1f6f eebd acc7 343e c40b 6dbd
00000360: 2e29 9fbc f627 b2bd 082c 4f3d a819 0bbd
00000370: 6550 93bc 4556 653c 7498 f6bd 7a84 f83c
00000380: 4f13 6b3c 83e6 a2bd a3d1 9fbd a068 cd3d
00000390: e483 e03d 426e 163e 020e 0abe 5c44 0bbe
000003a0: e468 96bd c1e3 b8bd 738e 9d3d db48 87be
000003b0: 2732 93bd d4e3 753d 935b 6abd d223 50bd
000003c0: 6fa3 083e 8555 16be faca 3e3e bc5a 1b3c
000003d0: c50e 853e 04d6 c63b 5bf6 433c 81d7 c5bd
000003e0: 1824 1bbe 95f5 ebbd 727b b63d ea53 a13d
000003f0: 962a 30be 523e 613d 907b a2bd e0cc 7fbd
-0.0417184 0.021249566 0.121650256 -0.190184 -0.080741934 -0.013542511 0.09768382 -0.034704924
-0.018641066 0.17526601 0.04886737 -0.0023233695 0.08981203 0.0953899 0.06632463 -0.03802003
0.20787998 0.007688477 0.10218994 0.11191338 0.109141104 -0.15039647 0.06318048 0.093574665
-0.025775852 -0.05746962 0.0038379752 -0.17047366 -0.10291413 -0.057254132 -0.14367305 -0.17152622
-0.050868727 0.038018163 0.09221311 0.04434492 0.0669492 -0.022331044 0.11880696 0.037248306
0.12536137 0.07755552 0.07234989 0.13189791 0.11818467 0.06904358 -0.114358544 0.04270621
0.05951095 0.22882529 -0.0025849899 -0.10146328 0.013233628 -0.020194188 -0.06522655 -0.06178616
-0.0055795694 -0.058583308 -0.099299446 -0.08177981 -0.111664474 -0.086153716 -0.08686005 -0.076189324
0.0063756113 -0.09458923 0.015103853 0.0588877 0.14295837 -0.016639369 -0.036499362 0.026652016
0.006189611 0.084014274 -0.03635573 -0.08751591 0.112594314 -0.041719224 0.12958802 -0.15690067
-0.10263752 -0.12854412 0.08225591 -0.11626546 -0.07166941 -0.12389361 0.16202514 0.00078382634
-0.18194084 -0.03535146 0.20596696 -0.07364395 -0.01132601 0.03893416 -0.0314784 0.13290514
0.13196187 -0.006207163 -0.03131031 0.051781397 0.097180404 0.09607245 0.06968725 -0.10115421
0.023134531 -0.0401007 -0.078522466 0.08484322 0.030606695 0.13199192 -0.11124128 0.031874776
0.14877911 -0.10336562 0.077514 0.060358945 -0.0442848 -0.055958614 0.04422328 -0.08216968
-0.09491858 0.07833654 -0.08684345 -0.12026334 -0.009409738 0.07334308 0.15575138 0.1212042
0.074516974 -0.14917773 -0.017985713 -0.36899018 -0.0042673275 -0.11267108 -0.083732754 -0.17804123
-0.18678585 0.1902993 -0.0003260559 -0.06419975 -0.024103157 0.12198611 -0.06358456 0.04475485
0.056448266 0.07313247 0.10246173 0.02241414 -0.01798407 -0.18861361 -0.012596778 -0.27259836
0.09016244 -0.016876288 0.035662588 0.0048609893 0.02952028 0.044791445 -0.09710608 0.017939439
0.020169217 -0.0054708556 0.15212901 -0.012341054 -0.01949159 0.18299477 0.09988548 -0.018042287
-0.11263833 0.17529657 0.09421095 -0.03186409 0.18683825 -0.12535818 -0.059939064 0.13578568
-0.105367966 0.24719879 0.0068263942 0.041330434 -0.11077978 0.054831184 -0.04362785 -0.22296502
-0.05763463 -0.002332651 -0.019649656 -0.05584745 0.00736804 -0.06795711 0.13731743 -0.02688575
0.14128834 -0.16178061 0.12306211 0.04815452 0.08207125 -0.06615024 -0.064714536 -0.15098652
0.021694621 0.021030234 -0.0023024185 -0.0038330941 -0.0611472 -0.05272336 -0.06195554 -0.099210694
0.011773166 -0.099888384 0.022906525 -0.055167247 0.053566135 -0.116422884 0.17654294 -0.05787255
-0.019428816 -0.08699028 0.0505791 -0.033960015 -0.017982671 0.013997619 -0.12040797 0.030336607
0.014347865 -0.07954123 -0.07803657 0.10029721 0.10962656 0.14690498 -0.13481906 -0.13600296
-0.07344225 -0.090278156 0.07693186 -0.26422772 -0.071873 0.060031727 -0.05721624 -0.05081541
0.13343595 -0.1468106 0.18632117 0.009482082 0.2598783 0.006067993 0.011960591 -0.09660245
-0.15150487 -0.115214504 0.08910264 0.078773335 -0.17203745 0.054991074 -0.07933724 -0.062451243

lstm2.bias_ih_l0 f4 [256]
00000000: fadf a8bc 205a 9bbd df40 57bd 0ee2 29be
00000010: 6c1c 4bba 54d1 3fbe 1532 c0bd cd77 663d
00000020: 9c11 693c 3462 1abc 6101 dcbd 84ca 6b3d
00000030: 6434 c5bc 90af 103e d55b 803e 69ee 0cbe
00000040: 4c58 c1bd 40d5 883d 49db 59bd 7ea5 c93d
00000050: ca5f fb3d 4a66 1c3d d1f4 abbd c2ed 333d
00000060: 4cdc ec3c 3b55 40be 8a07 d13d c331 5bbd
00000070: 1315 133e 2068 8abe a887 75bc 1614 efbb
00000080: 94ea 883d da00 693d 579f e03d 5f3e 1e3e
00000090: 8630 86bd 723d f8bc 2176 88bd aee5 61be
000000a0: 4242 903d e08b 33ba 83e6 8a3d b11a 01be
000000b0: 0719 8fbc f38b c0bc b219 d73c 918d b13d
000000c0: f041 f63d 5ba2 fabc e1f3 783d 1414 313d
000000d0: 8e25 923c d518 e13d e2ce d83c ebb1 f0bd
000000e0: 5d18 93bd 9896 153d b936 d8bb 5b2e fe3d
000000f0: 2fce 86bd 7d18 b3bc 1b4d cc3c c3b9 c3bd
00000100: 0fc8 9a3c 0dcc c5bd 667d 1cbe a061 ca3d
00000110: 2942 873d 43d6 623d cf46 693e c84c 5039
00000120: 0c77 45bd dcb4 56bd ed66 69ba d213 8d3d
00000130: 7599 ed3c 0aab 363c 379e 03bd 7889 a6bb
00000140: ee28 3f3d aee4 323e 1e8b a53b 9f35 c33d
00000150: b07b 24bc 1d9c 1e3e 7b0f cdbb 1804 2b3e
00000160: dea6 cb3d e60e 08be 2392 28bb 2d8c f8bc
00000170: a88a 2b3d f2c4 47be 4cc5 3e3d d918 373d
00000180: dbcb 5abd 4783 e13d fb39 33bd c4a5 f83c
00000190: 3c0b b8bd d146 1dbd 063a c3bd 9aec 29be
000001a0: 0001 f93c 7021 223c 7fd2 9bbd a43b 7c3e
000001b0: 6220 2c3d b2e6 f1bd 2287 babd a7f7 fd3d
000001c0: 1ab1 5a3e b494 86bd 2dad 1c3e cb53 833c
000001d0: 5bbd 713e 30ae e83c e8a8 50bd 864a 773b
000001e0: e6d8 383e a2c1 07bd cf1a 8c3d 5caa 8d3d
000001f0: dabb 1f3d 2119 e53d f066 f33c bae5 c1bc
00000200: eeed 793d e928 52bb 2305 833d bc01 e5bd
00000210: d40f 07be b0de 06bd 84c4 603c c161 56bd
00000220: 4ba7 72bd 36aa 0d3e 15f4 ccbc 874b a23c
00000230: b978 9ebc 5cdf 77bc 3e2b c2ba abfa a3bd
00000240: ff53 bc3d 0a18 b23d 0ee2 85bd 575b b7bd
00000250: b816 83bd d1b8 fcbd 74e1 d9bd 6867 0abe
00000260: a377 85ba cad2 0fbc edb7 8b3d b4d6 963d
00000270: 0866 4c3d 23f5 803d ab61 8d3c 629b 9fbd
00000280: e35d 453d 9f30 a7bd e556 c6bc d21b 5cbd
00000290: 122a 1a3d b812 adbd 1699 c0bc 3fc2 353d
000002a0: c9b7 373d 3bdf 173d 27c3 133d 658c 563d
000002b0: 857b b6bd 14bc a4bc 3f89 51bc acb2 fd3b
000002c0: 141c 083d 50b9 babd b172 cc3d 4c26 c9bd
000002d0: 2368 033d 65bb ea3b 5211 813d 4629 ec3d
000002e0: cdf7 9a3d 7ff2 133e 8703 5a3c 038a ef3d
000002f0: a11a b03c 7ca0 0cbe 3f75 7b3d cd17 763c
00000300: 92e4 8c3d d97a 033e b9c3 a03c a8e4 6d3d
00000310: f82d b2bd 10c6 e5bd 80b0 c83d 0637 2fbd
00000320: e571 37bd 4ffe b1bd 8cee d13d 304b 853d
00000330: 7e1c c6bd bf63 3cbd 9d75 753e ddf1 ac3c
00000340: ad2e 443d 81a3 20bd 88fb 483e 2e7b febc
00000350: fa3c a13d 5cda 33bd 10c1 6abc ac22 633d
00000360: 797e 3ebd e012 bd3d ad5e 523e 44d6 ae3c
00000370: 81ec cb3d 3def 45be b310 cbbc ec1f 8bbd
00000380: 4c01 553d 574f 203d d08a 3c3e 03bb 6b3e
00000390: 4737 c9bd dbea b93d 77b6 2e3b 1b78 9c3c
000003a0: f997 b5bd 1e9d a7bd 0f72 8cbd 0895 17bd
000003b0: f0b2 843d 8deb 8d3d c698 903b f766 953d
000003c0: 9cf3 02be be65 a03b b790 c03d cb6e 2f3d
000003d0: 7f69 d5bc 32b3 283e 010c 273c 61b4 653c
000003e0: bcca 1d3e 1d11 df3c b010 8ebd 5938 f2bc
000003f0: 58ec e1bd 1193 0e3e 07b9 0abe 59ec 74bd
-0.020614613 -0.07585549 -0.0525521 -0.1659014 -0.00077480706 -0.18732196 -0.093845524 0.056266595
0.01422539 -0.0094228275 -0.107424505 0.05756618 -0.024072833 0.14129472 0.25070062 -0.13762821
-0.094406694 0.06681299 -0.053187642 0.09846018 0.1227413 0.038183488 -0.083963044 0.043927915
0.02891364 -0.18782513 0.10206516 -0.053514253 0.14363508 -0.27032566 -0.014985956 -0.0072960956
0.06685367 0.056885578 0.10967892 0.1545348 -0.06552224 -0.030302737 -0.06663156 -0.22060272
0.07043888 -0.0006849151 0.06782248 -0.12607838 -0.017467989 -0.023504233 0.02625737 0.0866958
0.12024295 -0.030594995 0.060779456 0.04323204 0.017840173 0.109910645 0.026465837 -0.11752685
-0.07182381 0.03652057 -0.0065983203 0.12411185 -0.06582295 -0.021862263 0.02493911 -0.095569156
0.018894223 -0.0965806 -0.1528221 0.09881902 0.06604416 0.055380117 0.22780918 0.00019865029
-0.048209235 -0.052418575 -0.0008903582 0.06888546 0.029003838 0.011149177 -0.032133307 -0.0050823055
0.046669893 0.17470047 0.0050519845 0.09531712 -0.010039255 0.1548924 -0.006257949 0.1670078
0.09943937 -0.13286933 -0.002572187 -0.030340279 0.04188028 -0.19508722 0.046574876 0.04470143
-0.053417068 0.11011367 -0.043756466 0.03035248 -0.08986518 -0.038397614 -0.095325515 -0.16594163
0.030395985 0.009895667 -0.07608508 0.24632126 0.04202307 -0.1181158 -0.09107806 0.124007516
0.21356621 -0.065713316 0.15300436 0.016031167 0.2360739 0.028403372 -0.05094233 0.0037733628
0.1805149 -0.033143647 0.06841051 0.06917259 0.03899751 0.111864336 0.02971217 -0.023669112
0.061017923 -0.0032067841 0.06397464 -0.111819714 -0.13189632 -0.032927215 0.013718728 -0.05233932
-0.059241574 0.13834462 -0.025018731 0.019811405 -0.019344674 -0.015128937 -0.0014813913 -0.080067955
0.091957085 0.08695991 -0.06537257 -0.089529686 -0.06400818 -0.123399384 -0.10638705 -0.13516009
-0.0010182749 -0.008778283 0.068221904 0.0736517 0.049901992 0.06296756 0.017258486 -0.07793309
0.04818524 -0.081635706 -0.024211356 -0.05373747 0.037637778 -0.08450836 -0.023510497 0.0443747
0.044853006 0.037078124 0.036074784 0.052379984 -0.08910278 -0.020109214 -0.01278907 0.0077422466
0.033229902 -0.09117377 0.09982813 -0.09821758 0.032081734 0.0071634525 0.06302132 0.1153131
0.075667955 0.14447974 0.013306505 0.116962455 0.021497073 -0.13733095 0.06139111 0.015020323
0.06879534 0.12839831 0.019624578 0.05807939 -0.08700174 -0.11219418 0.0979929 -0.042777084
-0.044786353 -0.08691084 0.10250577 0.065084815 -0.09673403 -0.045993563 0.23970647 0.021111423
0.047896076 -0.03921843 0.19627202 -0.031064596 0.078729585 -0.043909416 -0.014328256 0.055452988
-0.046507332 0.09232116 0.20543928 0.021342404 0.09957219 -0.19329543 -0.024788236 -0.06793198
0.05200319 0.039138164 0.18412328 0.23020558 -0.098249964 0.09077998 0.002665905 0.01910024
-0.08866877 -0.081842646 -0.068576925 -0.03700736 0.06479442 0.06929693 0.0044127433 0.072950296
-0.12788242 0.004894941 0.09402602 0.04283027 -0.026051281 0.16474608 0.010195733 0.014020056
0.15409368 0.02722984 -0.06936777 -0.029567884 -0.11031407 0.13923289 -0.13547145 -0.05979571

lstm2.bias_hh_l0 f4 [256]
00000000: a831 2b3d 35db f33d bd34 c03c a443 22be
00000010: 4d88 993b 533b 30be ebfe 053d 49ee 253c
00000020: d763 2dbe 796d 97bd da0b 7a3d 15f2 85bd
00000030: ede4 37bd 2024 ce3c ef9c d03c df3e ac3b
00000040: 2441 0f3e c10a 8fbd e8a6 043d be45 81bd
00000050: 1943 0fbd 48ee 96bc fcc4 71bd 18c7 393c
00000060: 5a10 05be 4587 44be 1a0c 0f3e e1eb c1bd
00000070: 40f4 00bd 7585 14be 1c0b 0e3e ee2a 933d
00000080: f7f2 d0bd 031e 893d d4d6 483e 99f2 413e
00000090: bbe2 35be 1eba 25bd 6f43 29be 3433 27be
000000a0: 30f9 b1bd 7635 c7bc 8233 7ebd 08b5 7b3d
000000b0: 9a2c 1bbe 4a2a de3c 2b7c 683d 5363 3bbd
000000c0: 85d3 303c 2a96 58be f4d4 07be cfb7 c1bd
000000d0: 2189 ee3d 212c 9a3d fbd9 97bd f48b 053d
000000e0: 8b91 44bc 63ed 20bd 35bc a5bd aa2e d63d
000000f0: 2a7e e6bd 642a a5bd 446b b0bc c777 a23d
00000100: cac4 403d 9751 14be 9349 ddbd bd71 bb3c
00000110: 30cc 873d b8e6 ad3d 6913 f53d 554a 003e
00000120: f787 f03d 7aa2 c03d 6972 12be 572a 093e
00000130: 6898 acbd 37e4 1abe 8b62 a0bd 1a4e 3b3e
00000140: 2abc 0d3e dddd 433c f6ea 13be cb52 0a3e
00000150: 94ba 16be 388b 653d 5a1d 843d 9bdc 5b3e
00000160: 67ea 273e 2733 4fbd e94e e13d 6b2f 9a3d
00000170: 0482 d3bd 033f 44bd 1064 963d 7d1a 943d
00000180: 86b3 003d 7030 bcbc 54f5 ea3a d3b6 5cbd
00000190: f979 953d b105 623d ef0e 793d 4033 71bd
000001a0: b5ef 743c 6d51 eabd 3361 c23d 81bb d93d
000001b0: 889e 7abd b8f9 e2bc 6663 b23d 6bce 373e
000001c0: 0852 2d3d 6100 21bc aef0 ef3d 2f1e b2bd
000001d0: 48af cb3d 6125 7dbd 74cf 313d 6cf7 343e
000001e0: 0d3b 613e df2d da3d beed 8e3d a257 1dbd
000001f0: 2f0d d13b 6ed5 5a3e e56b 213c 3f31 c039
00000200: f37f 5c3d 5a75 503d 0c86 eebd 2090 0abd
00000210: b23a b2bd c02b aabc 3250 b6bd 7fb2 0e3e
00000220: 9376 f4bc 46ec 233d a5a8 3e3d 96f1 103d
00000230: c0d7 84bd 627b 673d f5b4 dfbc 886e c83d
00000240: 0e0d 8fbd 0d6c f63d 7e13 ce3d 15a4 7b3d
00000250: 6a59 d73b bed9 abbd 62c7 22bd 07a9 c1bd
00000260: a1e6 fd3d 9e73 703c 83f2 1c3d 8121 e4bd
00000270: 602d c03c 3700 813d 5e89 f8ba c7ff c23d
00000280: 3dec 443c f4b9 273c 1d03 06bc e8a1 763d
00000290: 3860 17bd 7cb1 f7bc 1861 a43d c22e 9abd
000002a0: d54b 5ebd 56da 083e 9785 3f3d 6561 b8bc
000002b0: 73ec bd3d bb28 f3bd 9aaf e83a d76b 573d
000002c0: 3fa2 89bd 93f0 f5bd b3ea 8e3c 9e08 b0bd
000002d0: e0a8 1bbe 5325 cdbc 277f e9bd 54a0 6bbd
000002e0: 316b 8e3d 7ddf b83c 4bd4 d03c f88f d1bd
000002f0: 2ef8 e63d 63a9 d3bd 3b13 cf3d f7d7 bc3d
00000300: a51a 133e 0401 4e3e 4862 d8bd a68b 37bd
00000310: be75 8abd a477 06bd 5e44 89bc 633b 753d
00000320: 64f1 813d 65b6 ba3d cb10 0b3e b055 15bb
00000330: 265c ffbc f01c e13c e490 a53d 5a67 dbbc
00000340: aa63 6fbd 7bff ae3d 33fb 2a3d 2404 cebc
00000350: c9a6 b2bd 94d2 94bd 3320 103d 1be2 77bc
00000360: 44ca 95bd 3bfb 42bc df68 ef3d 54c0 0e3e
00000370: ae8b ed3d c696 e5bb f7e8 2a3e 5fb5 b8bd
00000380: 01b5 033e 4b5b 1e3d 4f61 913d 3315 803e
00000390: 8320 1abd 3c13 423d c08f 81bd 16ca a3bc
000003a0: 972a e43b db79 193d 3ea7 9ebc 9e72 013e
000003b0: fc32 ae3c 7c1b 60bd 694c a3bc 531a b23d
000003c0: 049a b4bd deb0 8fbd 2d3c ec3d 1564 c8bc
000003d0: c04e 213e 050a 073e 4ea5 dc3d edbc b03d
000003e0: af84 253e 0f96 cbbc a269 863d 1902 b73d
000003f0: 19ca 9e3d 68c7 e53b ca0c b03d d4f5 0bbe
0.041795403 0.11907045 0.023462648 -0.15846115 0.004685438 -0.1721013 0.03271381 0.010127612
-0.16932617 -0.07393927 0.06104646 -0.06540314 -0.044896055 0.02516371 0.025465457 0.0052565183
0.13989693 -0.06984473 0.032385737 -0.063121304 -0.0349761 -0.018424168 -0.05902575 0.011338972
-0.12994519 -0.19192226 0.1396946 -0.094688185 -0.031482935 -0.14504035 0.13871425 0.071859226
-0.10202592 0.066951774 0.196132 0.189402 -0.17762272 -0.0404607 -0.1652963 -0.16328126
-0.08690107 -0.024317484 -0.06206084 0.06145194 -0.15153733 0.027119774 0.05675904 -0.04574902
0.010792618 -0.21151033 -0.13264829 -0.09458887 0.11647249 0.07527948 -0.07414623 0.032604173
-0.011997591 -0.03928889 -0.08092538 0.10458119 -0.11254533 -0.08064726 -0.021535523 0.07933002
0.047062673 -0.14484249 -0.10805049 0.022881383 0.066307425 0.08491272 0.11966593 0.12528355
0.11744683 0.0940599 -0.14301457 0.13395058 -0.08427507 -0.1512612 -0.078312956 0.18291512
0.1384131 0.011954752 -0.14445099 0.13508146 -0.14719611 0.056040972 0.06450911 0.21470873
0.16398011 -0.050585892 0.11001379 0.075285755 -0.10327533 -0.047911655 0.07343304 0.07231615
0.031421207 -0.022972316 0.0017925897 -0.053885292 0.07298655 0.05518121 0.060805257 -0.058886766
0.014949729 -0.11441312 0.094911955 0.10631467 -0.061186343 -0.027706966 0.08710365 0.17949836
0.04231456 -0.0098267505 0.11715828 -0.08697163 0.099455416 -0.061803225 0.043410733 0.17672509
0.21995182 0.106532805 0.069789395 -0.03841365 0.0063797454 0.2137048 0.009852384 0.00036657785
0.05383296 0.050893165 -0.11646661 -0.033828855 -0.087026015 -0.020772815 -0.08902015 0.13935278
-0.029841697 0.04002025 0.04654755 0.035386644 -0.064864635 0.05651415 -0.027307967 0.09786707
-0.06984912 0.12032328 0.100623116 0.061435778 0.0065719383 -0.083911404 -0.039740928 -0.094560675
0.123975046 0.014676003 0.038317215 -0.11139203 0.023459136 0.06298869 -0.0018961837 0.09521442
0.012019214 0.010237206 -0.008179453 0.060213 -0.036956996 -0.030235998 0.08026332 -0.075284496
-0.054271538 0.13364539 0.04675826 -0.022507379 0.09273615 -0.11873003 0.0017752529 0.05259308
-0.06720399 -0.120087765 0.017445898 -0.085953936 -0.1520114 -0.025042212 -0.114012055 -0.057525948
0.06954039 0.022567505 0.025491854 -0.10232538 0.11277805 -0.10335042 0.1011109 0.092208795
0.14365633 0.20117575 -0.10565621 -0.044810914 -0.06760739 -0.032828942 -0.016756233 0.05987109
0.0634487 0.0911682 0.13580625 -0.002278667 -0.03117187 0.027479619 0.08084276 -0.02678268
-0.058444656 0.08544823 0.04174347 -0.025148459 -0.08723218 -0.07266727 0.035186958 -0.015129591
-0.0731397 -0.011900718 0.116899244 0.13940555 0.115989074 -0.007006499 0.16690432 -0.09018969
0.12862016 0.038661283 0.07098638 0.25016174 -0.03762866 0.047381625 -0.06326246 -0.019993823
0.006963085 0.037469726 -0.019366857 0.12641379 0.021264546 -0.05471371 -0.019933896 0.08696427
-0.08818439 -0.070161566 0.11534915 -0.024461785 0.15752697 0.13187416 0.10773717 0.08629785
0.16163896 -0.024851827 0.065631166 0.08935947 0.07753391 0.0070122965 0.08596189 -0.13667995
