saved_model/DAP_Model_TLF.pt (torch, 230994 bytes, 12 tensors)

lstm1.weight_ih_l0 f4 [256, 3]
00000000: b528 0d3d 3a03 89bd 1b0d 53bd 042d 073b
00000010: d92b 2b3a 9942 1f3c 6523 73bd c708 cb3d
00000020: 8fe0 753c b964 3b3d 155b 8c3d faaf 173d
00000030: 5b05 8dbd 0078 37bd bda2 833d 07c3 973d
00000040: 66e1 c0bd da77 e0bd 8511 9f3d 8cab 37bd
00000050: 8056 c93d dc81 07be 4402 a0bd 314b 883c
00000060: 3446 ca3d d865 fd3c 39b8 29bc 57b5 8e3d
00000070: 5424 883d 00d0 81bb f3d0 bd3b 1d9d 9ebc
00000080: ba95 cdbd 6827 363e 941b 4bbd 7e52 423d
00000090: 70a5 57bc 3779 a03d 26de ce3d 5156 88bd
000000a0: 7714 d1bc 4798 cdba ec72 33bd 071f a33d
000000b0: 7df1 5bbd 1a14 113e 398e 6d3a 59de 713d
000000c0: 6083 0c3c 2132 d5bd 2bc0 adbd 4fdd 1fbd
000000d0: 2301 b73d bea9 c4bd 68fe 823c f04e 7c3d
000000e0: c2d8 87bd 6d46 073e dab3 8dbd 64f9 b43d
000000f0: 0d44 09be f396 66bc d240 72bd b496 9c3d
00000100: 7a87 79bd 6d2a cb3d d568 64bd fd81 42bd
00000110: 951c 23be 3b2e cfbd 2967 d4bd 686d 363d
00000120: c0bd c43d fba8 843d d91f febd 3043 f33c
00000130: 8efa 13be 840c 333d 1b85 033e e87c 7bbd
00000140: d6db e9bc 51d9 af3d 122c 0e3d 9b11 cbbd
00000150: bd80 c8bc 964b 833d b76c cb3c 4d3e 0e3e
00000160: a998 b63c 3b5d 323c 09ba 25bd 5cf9 66bc
00000170: e06a ebbc 71ff f4bb c3ad 363d d3f5 a0bc
00000180: f85b 0a3d d097 0d3e c889 113b 7fde a83d
00000190: 0a91 9ebd ec90 09bd 25b4 8dbd 4906 74bc
000001a0: ae0f c03d 4c7d f7bd 92dd 493d 3106 b9bc
000001b0: a260 b13d d876 bfbd 070f e0bc ead7 503e
000001c0: d9cd 72bd ad67 203a 6729 0b3e 6c29 ba3d
000001d0: 3029 203e 8043 103e 8383 093e 5a18 90bd
000001e0: 0413 133e 83d4 b23d b193 56bd 024c 0cbe
000001f0: 7b81 1b3c 5735 c73c e711 b23d 8ada b03d
00000200: 4513 e63d d0e8 4e3d c7cb 9f3d 2c4f 013e
00000210: e8da ee3d 2960 debd f1eb a53d 9ab5 cdbc
00000220: 7a03 483c 07a3 5c3d ae49 0b3e 663c 90bd
00000230: 02c1 9b3d 5531 b3bd ec44 86bc cf45 473d
00000240: aac7 4e3b e8af 013c 3786 e9bd 7e91 0fbc
00000250: a6b1 34bd 1d15 593d e03f cdbc 7aa5 81bd
00000260: e012 01be 0468 673b e3e0 c8bd 06d2 123d
00000270: d13d 1fbd c778 403b fb6a e63d 4372 383d
00000280: c04f 483b 2380 043e 1441 c93d ce21 0f3d
00000290: 3ae4 37bb d795 d13d 6814 91bd f141 47bd
000002a0: 30db e9bc 6f7c 5cbc b051 a63d efea ee3d
000002b0: 3d2c a7bd aabc b6bd fc65 40bd 8384 02bd
000002c0: 0508 09be 78f2 e4bd ae71 eebd 6fd9 653c
000002d0: 3abf 88bc 550e 87bd ddf9 8ebd d354 07be
000002e0: db69 e5bd f749 a63d 1bf4 d6bd 767e 1abc
000002f0: 6099 9c3d 22c2 aa3c a313 7a3c 8410 153e
00000300: 9aca e7bc 9f14 a4bd 7693 2dbd 5171 953d
00000310: 021e 9cbd 3237 8b3d 12f1 ef3d 8cb4 db3d
00000320: 99a6 2e3d 9d0f e3bc 1179 0cbe c5c8 f3bc
00000330: b73f bdbd f781 17be bddb ec3d 6aa6 f73d
00000340: bb03 dcbd 9050 be3d 6775 22bd ea92 4b3d
00000350: de60 953d b132 bd3d c91f 733c f295 08be
00000360: 3ceb 9c3c dc18 f63c 1008 7abd 4679 bf3a
00000370: 0ef5 283d 5a7f 83bc 9fd5 ea3d 71c7 ed3c
00000380: 3650 28bd 1c5b 053d 5097 f3bd e7b2 b13d
00000390: 55fc 6fbd 5e39 873c 6461 1abd 2daf b5bd
000003a0: 6e4a a4bd 4ef5 fcbd 2c20 58bd 4c03 a9bb
000003b0: d6da 33bd a2a0 723d efc7 263c ca92 1ebc
000003c0: 655d c23c 7c2f 0b3d 5cf1 7a3c 8dcd ec3d
000003d0: bee2 39bd 2416 03bd a1fb 483d 272a 4fbc
000003e0: d035 913d 51a5 eabc ef0c 863d 5bbd 4e3d
000003f0: 02de 403c 81c0 bfbc 5a90 2abb 6ff2 9cbc
0.03446265 -0.066900685 -0.05152617 0.0020626197 0.0006529666 0.009720468 -0.059359927 0.099137835
0.015007152 0.045750353 0.0685331 0.03703306 -0.06885787 -0.044792175 0.06427524 0.074102454
-0.09417991 -0.1096036 0.077670135 -0.044841334 0.09830952 -0.13233131 -0.07812932 0.016637417
0.098766714 0.030932352 -0.0103588635 0.069681816 0.06647554 -0.003961563 0.005792731 -0.019362027
-0.10038324 0.1778847 -0.049586847 0.047441952 -0.013162002 0.0783562 0.10100965 -0.066570885
-0.025522454 -0.0015685641 -0.04381077 0.07964902 -0.053697098 0.14167824 0.00090620253 0.059049938
0.008576244 -0.10409952 -0.08483919 -0.039029416 0.08935764 -0.09602688 0.015990451 0.06159872
-0.0663314 0.13210459 -0.069190696 0.0883663 -0.13404866 -0.014074075 -0.05914385 0.07645932
-0.060920216 0.099202015 -0.055764038 -0.047487248 -0.15928872 -0.1011624 -0.10371239 0.04453793
0.096065044 0.06477543 -0.12408418 0.029695123 -0.14451048 0.043713108 0.12843744 -0.061398417
-0.028547209 0.08586372 0.034709997 -0.09915467 -0.02447545 0.06410901 0.024832113 0.13890953
0.02228959 0.010886486 -0.04046062 -0.014097538 -0.028737485 -0.00747674 0.044599306 -0.019648468
0.033779114 0.13827443 0.0022207368 0.08245563 -0.07742508 -0.033585474 -0.069191255 -0.014894077
0.09377991 -0.12084445 0.04928357 -0.02258596 0.08661009 -0.093488395 -0.027350916 0.20394865
-0.059278343 0.00061189645 0.13590012 0.09089932 0.15640712 0.14088249 0.13429074 -0.07035895
0.14362723 0.0873194 -0.052386943 -0.1370087 0.00949132 0.024317427 0.08694821 0.08635433
0.11234144 0.050514996 0.07802539 0.12627858 0.11662847 -0.10858185 0.08101643 -0.025111008
0.01220786 0.053866412 0.13602325 -0.0704277 0.07605173 -0.08749644 -0.016390286 0.04865056
0.0031552115 0.0079154745 -0.114025526 -0.008762715 -0.04411473 0.05299865 -0.025054872 -0.0633039
-0.12604856 0.00353098 -0.09808519 0.035844825 -0.038877312 0.0029368864 0.11250874 0.045030843
0.0030565113 0.12939505 0.09826866 0.034944348 -0.0028059618 0.10233658 -0.0708397 -0.04864687
-0.0285469 -0.013457402 0.081210494 0.11665904 -0.08162735 -0.089227036 -0.04697226 -0.031864654
-0.13381965 -0.1117906 -0.116427764 0.014028891 -0.016692746 -0.065945305 -0.069812514 -0.13215952
-0.11201831 0.081195764 -0.10495778 -0.009429565 0.076464415 0.020844523 0.015263471 0.14557081
-0.02829485 -0.08011746 -0.042376958 0.07297004 -0.07622911 0.06797637 0.117159024 0.10727796
0.04263935 -0.027717406 -0.13718058 -0.02975882 -0.09240668 -0.14795671 0.11565349 0.12092288
-0.10742899 0.0929271 -0.039662745 0.049700655 0.072938666 0.09238184 0.014839121 -0.1333845
0.019155137 0.03004115 -0.061042845 0.0014608286 0.041249327 -0.016051937 0.11466526 0.029025765
-0.04109212 0.03255759 -0.11894095 0.08676701 -0.058590252 0.016506847 -0.037690535 -0.08871303
-0.08022009 -0.12351476 -0.052765056 -0.0051578637 -0.04390987 0.059235223 0.010179504 -0.009678552
0.023726175 0.03398083 0.015316334 0.11562643 -0.045382254 -0.032003537 0.049068097 -0.012644327
0.07090342 -0.028643282 0.06545436 0.050473552 0.011771681 -0.023407223 -0.0026025982 -0.01915857

lstm1.weight_hh_l0 f4 [256, 64]
00000000: d18b c2bd 4afd d2bd d03a 5f3d db04 d53d
00000010: bb53 e6bd c6e2 f63d 471f 6abd 3cb7 d4bd
00000020: 399c 30bc c8db e03d ab7d 8dbd f56b b1bc
00000030: 65f2 8e3d 0278 6dbd e486 7ebd fd6d 3b3d
00000040: 9070 153e 916c 99bc 8881 8e3d bb9e 1bbc
00000050: 6c3e 82bd a8cc 00b9 308c dabd a37d 033e
00000060: 0f11 f13d fc94 d23d 7184 8d3d d8a5 0cbd
00000070: 3c1d d9bd 33ac 8d3d 171d 92bd 17a0 5cbc
00000080: a77f 4f3d 9c2e a03d ae99 823d 0dbf a6bd
00000090: c65b 5dbd 77c3 ca3d fb3c 8f3d 4f0d e1bc
000000a0: f8a0 0a3c 56b6 9d3d 9082 fabc c174 c5bd
000000b0: ebc9 8b3d 04d0 1d3c a8a9 c7bd 2a03 383d
000000c0: 6f56 c7bd 902d 233e 0cc7 fc3c 918c f8bc
000000d0: 4f27 8ebd 3351 b83c ef71 1c3c 5cc3 3c3c
000000e0: 0e40 d53d 8316 febc 5691 ed3d 2c85 30bd
000000f0: f391 bf3d 76ab 853d 0282 8c3d 5572 c93d
00000100: fd6d 26bd f9e6 f4ba 2450 163c b04f 13bc
00000110: 3761 103b cf0c 04bd b1f1 f5bc 4d37 903d
00000120: 4bed 52bd 615a 4a3d aaa7 913a 2b55 5abd
00000130: d284 1b3d bff6 0ebd c60b 103b c97e b2bc
00000140: 9859 ab3c c1e0 53bd d813 43bc abdb 423d
00000150: 056c 193e 1e2d 2b3d ae22 d0bd 128e 73bd
00000160: 498b a6bd 7d3a 10be a25a e2bd 2a5f abbd
00000170: 5382 d0bd e3b9 95bd 6088 9abc e5e3 a6bc
00000180: 0ed9 c3bd 7865 d13d 4ff9 b03d 647f 6ebd
00000190: 0a79 debd e36e a9bd 2c7e 74bd 0d79 833d
000001a0: 9e86 d0bc dc54 14bd 68fa be3d 6c97 dd3d
000001b0: 5d6e 03be 44f9 c33d d6ae a83d b11e cbbd
000001c0: 0928 37bd 1424 b0bd 06e1 f93d 3afe cb3b
000001d0: 4e3a a13d 7c56 613d f85d 983d 7457 0b3e
000001e0: f669 4cbd 0b73 5cbd 0ab3 b63d 4bd6 4f3d
000001f0: 98e2 fb3d 9978 f8bd 4c5b 4c3d 89a4 fd3d
00000200: f49e 133e dde1 26bd c038 88bc 251c c83d
00000210: 6995 76bd 2342 cbbd 0f9a 15bd 97a5 ee3b
00000220: 7f21 ebbd 7e14 db3d 7f5a 173d 475f 5bbd
00000230: c537 8cbd e5ba ec3d 1dd9 d8bc d483 ed3d
00000240: bbed 74bd 45cb 6f3c 27e3 11be 46eb 40bd
00000250: 0ea7 87bc a428 a93d dad4 acbd 758e 21bd
00000260: 4350 e73d 3101 5e3d 059a d2bd 4a28 89bc
00000270: 1867 0e3d 6b7b 183d e874 1c3d aa73 8dbc
00000280: ad1e e9bd a01b 113d b5ad c3bd f2f1 1bbd
00000290: 4d13 113b d6af 0f3e 3030 04be c466 57bd
000002a0: 7d12 b63d 9ed9 d6bc afbe 9a3d 976c 9ebd
000002b0: fa0f 10be c0e9 953d 1fc0 d33d a6ad 933d
000002c0: 04b1 863d 7e18 fbbb 360a 89bd 79cb 15bd
000002d0: 55ef 87bb c4cd 133c afaa 193d fdd7 043e
000002e0: 7192 273e 9d40 723d 4507 05be 1696 9abc
000002f0: 675c 023e 9cac 0ebe 79a3 f5bc 6c25 5fbd
00000300: 8cce 763d c253 b4bd 948f 15be 8e21 2fbc
00000310: 990a 9e3d d33c 0d3d 6117 64bd 2366 c6bd
00000320: dfab e03d a0c9 003e 6ee2 ea3c dd34 13bd
00000330: 7693 77bd e365 02bc 7e3d e8bd 31fb bdba
00000340: 748c 6bbd 7420 9abd fa84 e8bd a2e8 6cbd
00000350: b6e0 a6bd 5f49 483c fdda fdbc a869 30bc
00000360: 6bce 93bd 7355 903d 03cd 103e 78ad b63d
00000370: 7ff4 c33d 9cbf 013d 2b2c debc 643e f93d
00000380: ff43 48bd a4bd 87bc f31b 193d f9d0 aebd
00000390: 3ad5 6f3d 49db ba3d 3d63 dc3c c3d8 f23d
000003a0: 634e b23d 9854 07bd 2b46 d0bc 945e acbd
000003b0: 983d 75bd fa4a 02bd a1d9 a3bd e741 2abd
000003c0: d7eb 70bd 6682 063c d69c 4a3c 4670 c03d
000003d0: f465 8bbd bbd7 fa3c 5c05 ef3d 908a 31bd
000003e0: 0282 0bbd 9bd1 293d a550 dbbc 7458 953c
000003f0: f59f 28bc c222 0f3d d718 bb3c 9432 b3ba
-0.09499324 -0.10302217 0.054499447 0.10401317 -0.11246439 0.12054972 -0.057158735 -0.10386512
-0.010779434 0.1097942 -0.06908735 -0.021657923 0.06979827 -0.057975776 -0.06214036 0.04575919
0.1459372 -0.018728526 0.069583 -0.0094982935 -0.06359562 -0.00012283272 -0.1067127 0.12840895
0.11770832 0.10282323 0.06910027 -0.03433785 -0.10601279 0.0691761 -0.07134455 -0.013465903
0.050658848 0.0782139 0.06376968 -0.08141909 -0.0540426 0.09900563 0.06994053 -0.027472166
0.0084612295 0.077007934 -0.030579835 -0.0964141 0.06825622 0.009632114 -0.09749156 0.044924892
-0.09733283 0.1593535 0.030856632 -0.030340465 -0.06941091 0.022499656 0.009548648 0.011521187
0.10412608 -0.031016594 0.11599986 -0.043095753 0.093540095 0.06526844 0.068607345 0.0983626
-0.040632237 -0.0018684558 0.00917438 -0.008991167 0.00220306 -0.032238778 -0.030022474 0.07041798
-0.05149583 0.0494026 0.001111259 -0.05330388 0.037968464 -0.034903284 0.0021979674 -0.021788971
0.020916745 -0.051728014 -0.011906587 0.047572773 0.14982612 0.041791074 -0.101628646 -0.05946166
-0.08132035 -0.14084812 -0.11052443 -0.083677605 -0.10181107 -0.07310846 -0.018863857 -0.02037234
-0.09562884 0.10224432 0.08641302 -0.058226958 -0.1086293 -0.08273103 -0.05969064 0.06419573
-0.025454815 -0.03621374 0.09325105 0.10819897 -0.12835069 0.09569028 0.08236472 -0.09917963
-0.044715915 -0.08600631 0.12201123 0.0062253745 0.07872449 0.05501412 0.07439798 0.1360758
-0.04990574 -0.05382065 0.08920868 0.050741475 0.12299079 -0.12132377 0.049891755 0.12384898
0.14416105 -0.040742744 -0.016628623 0.09770993 -0.060201082 -0.09924724 -0.036523875 0.0072829234
-0.11480998 0.10697268 0.03695154 -0.05355766 -0.06846575 0.11559085 -0.026470715 0.1159741
-0.05979703 0.014635866 -0.14246808 -0.047099374 -0.01655915 0.08259705 -0.08439036 -0.0394425
0.112946056 0.054200355 -0.10283283 -0.016742844 0.034766287 0.037227076 0.038197428 -0.017267067
-0.11382804 0.035426736 -0.09554616 -0.038072534 0.0022136748 0.1403192 -0.12909007 -0.05258824
0.08890245 -0.026226815 0.07555901 -0.077355556 -0.14068595 0.07319975 0.103393786 0.07210855
0.06576732 -0.007662832 -0.06691401 -0.036571 -0.0041484036 0.009021226 0.037516292 0.12973018
0.16364457 0.05914365 -0.12991054 -0.018870395 0.12730561 -0.13933033 -0.029985176 -0.054479048
0.060255572 -0.08805038 -0.14605552 -0.010689152 0.07716865 0.034481835 -0.05568636 -0.0968745
0.10970282 0.12576914 0.028672423 -0.035939086 -0.060443364 -0.007958862 -0.11339854 -0.0014494417
-0.057506993 -0.07525721 -0.11353488 -0.057839043 -0.08148329 0.012224524 -0.03098821 -0.010767378
-0.072171055 0.07047548 0.14140706 0.08919805 0.09568118 0.031676874 -0.02712067 0.12170103
-0.04889297 -0.01656992 0.03738017 -0.08535952 0.058552958 0.091238566 0.02690279 0.1185775
0.08706357 -0.03303966 -0.025424084 -0.08416477 -0.059873194 -0.031809784 -0.08000494 -0.041566756
-0.058818664 0.0082098 0.012366494 0.093964145 -0.068065554 0.030620446 0.11670944 -0.043345034
-0.034059532 0.04145966 -0.026771853 0.018230654 -0.010292043 0.034945257 0.022838993 -0.001367169

lstm1.bias_ih_l0 f4 [256]
00000000: bf4d 76bd 1290 9e3d b7fc 243e da84 8cbc
00000010: 6b4e b4bb 9369 183d 7cc7 453d f39f f7bd
00000020: d2f0 973d 8e52 403d 2048 ed3d dd5e 843d
00000030: a648 2d3e 1073 533d ec10 d83c 3fc0 1c3e
00000040: cb0b a1bd 5e81 333d 30e6 e8bb 824c 603b
00000050: 18af 0dbe eb58 0b3e 2a3e 693c 6844 9e3d
00000060: c9d1 0fbe 5a33 a23d c0d1 cabd 452f 2c3d
00000070: 7b3e 0b3d 70fb 7a3d aa96 b53d 2a87 a03b
00000080: 76bb 6cbd 7d6b 12be a70e 4839 d09e e23d
00000090: 67a4 fcbd 8c8c d13d 661f 7c3d fc9a e33d
000000a0: 6af0 893d 5df8 ca3c 95c9 d33d 8a23 2a3c
000000b0: 53df b93d 7ebe 6e3d 4d43 453e 2478 33bd
000000c0: 64d2 743d 709e bbbd ada6 2c3c 38ba 033e
000000d0: b5db 0d3d d57b 0dbe 5c6d 1d3d e9e9 2fbd
000000e0: 01a3 b8bc 6865 0b3e 1146 bfbd c49f 223d
000000f0: db34 eb3d 93ba 1cbe 48c8 5abd 7d24 d5bd
00000100: 454e 93bd 94bd fdbd b798 363b b335 d1bb
00000110: 8384 e53a e0bf 9abc b7a0 3d3e 514e ef3c
00000120: bd72 c0bd 8d26 aebd e53a 8abd 6508 523d
00000130: d4e8 a0bc d6be d5bc 48a9 c33d ef70 003e
00000140: 23af fabd 074e c23d 6572 873b 6c70 debd
00000150: fccb c83c 1c78 fc3d 974f 87bd ede8 a13d
00000160: 5f24 b43d 9fef e3bd e8f7 b7bd fcbc e93d
00000170: d5d0 97bd 1d1d c53d 872a 1f3e 7edc 533d
00000180: 7ba5 07be d511 01be 052d a63d e344 13bd
00000190: 11c8 debd 27dd d1bc a233 b73d dcfa 5b3d
000001a0: 4e0b 80bd e526 bf3b 7599 f23d fa7a 12bc
000001b0: 6920 e23d b0c8 a23d a98f 18bd b93b f3bd
000001c0: 16b0 ef3c 6081 ca3d 3ac4 a1bd 9d00 a63d
000001d0: 80e9 813d d65d e3bd 15b4 533d 8841 943d
000001e0: 9e6e fa3d 65dc 8bbd 7834 063e 9608 f5bb
000001f0: 953d c53d 31ef 1b3d 04a1 1c3d fa43 2a3c
00000200: 6d8c ed3d 5492 eb3c 1f22 8ebd dc9a b13c
00000210: fcab 1dbd 2864 313d 4fb0 c3bd 001e 97bd
00000220: 0317 063d e72d 043d 46c5 91bd 225f 3f3d
00000230: 467c 13bd 6b03 61bd 46d2 29bd f188 90bd
00000240: 6d54 b93b 5ec1 85bd e7c8 b13d 99fe cfbd
00000250: 2cd2 ad3c dd2b a7bd b587 9a3d 47ce 453c
00000260: e4d4 f23c a643 9e3d 2b3a bdba 90e9 b7bd
00000270: 7bc9 883d 6cf6 2f3d 403a 67bd 56c1 f63d
00000280: c580 853d f66e 983c e79f aabd d56b 32bd
00000290: b383 903d 9341 6d3d be3d 863d fac4 57bd
000002a0: 4c8f d03d 2115 c0bd 6c3c 923d 2726 f8ba
000002b0: 1501 80bd d5c4 94bd b235 8d3d 3509 ac3c
000002c0: 6ef4 a7bd 4209 99bc 2f2b 81bc af0e b3bd
000002d0: dea1 d3bd 931b 80bd 019e a23d e187 7ebc
000002e0: 876b 84bd 0a4f 673c 8d41 d03d 5310 fc3c
000002f0: baac 843c 8b78 c13d f8b3 d2bd 10f0 ccbd
00000300: efa2 e03d 6b33 103e feac 34bd 81ad 35bd
00000310: f08b 0cbe 4c6b 063e d0c1 883d de94 05bd
00000320: 89ff d0bc 410e bf3d dfdb 9abb ff31 693d
00000330: 3dc7 be3d e186 cfbd 4a22 a6bd 64cd 1a3e
00000340: fbaf 563d 82a8 24bd aaaa 053d a8ba dfbd
00000350: c8dc 08be afe2 a2bd 54f5 dd3d aba2 f03c
00000360: 9d46 f73d 3cd8 b9bd 3e84 e5bd 098d 43bd
00000370: bb5c 58bd 3ac8 8ebd 037e 10bd f037 8e3d
00000380: 5676 b63d 1f77 e7bc 3624 293d c78c a0bd
00000390: bda4 8c3d 6725 1d3d 2d59 5a3d f0b3 273e
000003a0: f143 8d3d f8d1 1f3e a33f ae3d e120 173e
000003b0: 3508 9c3d 2772 1ebe e687 883d 8a46 473d
000003c0: e03f 0dbe a3b3 d53d a25c 8a3d c849 993d
000003d0: 78ca 583d e742 313d 428d eb3d f856 9d3d
000003e0: bf23 ba3c 6d27 90bd 716f fbbc 1733 dc3d
000003f0: 32b6 01be f3da 60bd 471d 78bb 264f 95bb
-0.06013274 0.07742323 0.16112028 -0.017153192 -0.005502512 0.03721006 0.048285946 -0.12091055
0.0741898 0.04695373 0.115860224 0.06463406 0.16922244 0.051623404 0.026375256 0.15307711
-0.078635775 0.043824546 -0.0071075186 0.003422529 -0.13836324 0.13608138 0.0142360125 0.07727891
-0.1404487 0.07919951 -0.09903288 0.042037267 0.033995133 0.061274946 0.088666275 0.0048989253
-0.057795964 -0.14298816 0.00019078945 0.11065447 -0.12336045 0.10231885 0.06155338 0.11113545
0.067353085 0.024776632 0.10341183 0.01038445 0.09075799 0.058287136 0.19263954 -0.043815747
0.059770957 -0.09161079 0.0105377855 0.12864006 0.034633357 -0.1381677 0.03843437 -0.042947683
-0.022538664 0.13612902 -0.09339536 0.039703146 0.11484691 -0.15305547 -0.05341366 -0.1040735
-0.07192663 -0.12389675 0.0027862021 -0.0063845753 0.0017510805 -0.018890321 0.18518339 0.029212149
-0.093968846 -0.08503447 -0.067495145 0.051277537 -0.019642271 -0.026091974 0.09553772 0.12543081
-0.12240436 0.09487539 0.00413351 -0.108612865 0.02451133 0.123275965 -0.066069774 0.07905755
0.08796 -0.111296885 -0.08982831 0.11412999 -0.074128784 0.096246935 0.15543567 0.05172395
-0.1324672 -0.12604459 0.081140555 -0.035954367 -0.108780034 -0.025618149 0.08945395 0.053706035
-0.06252156 0.005833494 0.11845676 -0.008940453 0.11041338 0.07948434 -0.03724638 -0.118766256
0.029258769 0.098879576 -0.07898755 0.08105586 0.06343365 -0.11101882 0.05168541 0.072390616
0.1222813 -0.06829146 0.13105953 -0.00747783 0.096308865 0.038069908 0.038239494 0.010392183
0.1159905 0.028756298 -0.06940102 0.021680288 -0.038494095 0.043308407 -0.095551126 -0.07378769
0.03273679 0.03227034 -0.07117705 0.046721585 -0.03600719 -0.0549349 -0.041460298 -0.070573695
0.0056558163 -0.065310225 0.08680897 -0.101559825 0.021218382 -0.08162663 0.07545415 0.012073106
0.02964253 0.07727747 -0.0014436891 -0.089800954 0.06679054 0.042959616 -0.056452036 0.12048595
0.065187015 0.018607598 -0.0833128 -0.043559868 0.0705637 0.057923865 0.06554745 -0.052678086
0.10183582 -0.0937903 0.07140431 -0.0018932269 -0.062502064 -0.07264105 0.06895007 0.021000484
-0.08200918 -0.018681172 -0.015767662 -0.08743035 -0.10333608 -0.06255259 0.07940293 -0.015535326
-0.06465822 0.0141179655 0.10168753 0.030769503 0.016195644 0.0944682 -0.102882326 -0.10006726
0.10968577 0.14082114 -0.04411029 -0.04435492 -0.13725257 0.13126868 0.06677592 -0.032612674
-0.025512474 0.093288906 -0.0047259177 0.056932446 0.093153454 -0.10133148 -0.08112009 0.15117413
0.05241392 -0.040199764 0.03263346 -0.10924274 -0.13365471 -0.07953393 0.10837808 0.029374441
0.12074015 -0.090744466 -0.11206864 -0.047741923 -0.05282281 -0.06971784 -0.035276424 0.06944263
0.089092895 -0.028255044 0.0412943 -0.07839351 0.06867359 0.038365748 0.0533077 0.16377234
0.068977244 0.1560744 0.085082315 0.14758636 0.07618753 -0.15473233 0.066665456 0.048651256
-0.13793898 0.104346536 0.067559496 0.07484776 0.052927464 0.043276694 0.11501552 0.076826036
0.022722123 -0.0703877 -0.030692788 0.10751932 -0.12667158 -0.054896306 -0.0037859248 -0.0045565544

lstm1.bias_hh_l0 f4 [256]
00000000: 91bb 9ebc 2461 da3d 2979 7cbd 4dbf 11bd
00000010: 0c80 1abc 89b4 903c 8885 f8bc 697a 103d
00000020: 9c36 bf3d 1ea9 9fbd e8af 8cbb 0d82 bf3c
00000030: 6a3f 1a3e c1c4 f1bd f70b a9bd 102b 2c3e
00000040: 6694 00be 2220 ffbd 74c6 8a3d 3ebf acbd
00000050: d356 14be d96d 93bd af42 c53d 6179 133e
00000060: af83 773c 2b61 b4bd e672 e7bd 5048 b4bc
00000070: cb7a 5e3d 5aad 913d 7463 ef3d 674a 983d
00000080: bfc3 8f3c 9d65 823d b6fd fc3d a575 aabc
00000090: 4948 cc3d 2f4b 2e3d e5a6 51bc 8522 173d
000000a0: 04fd 213e da07 863d 5e77 dbbd 7d11 14bd
000000b0: 3f92 b63d 6852 f2bd daa5 0c3e 557a 013d
000000c0: b2e1 af3b a00c b6bd 50d4 cf3c cc64 963d
000000d0: fb47 78bd c3ca 29bd e5b2 153e 6a0b 63bd
000000e0: a021 183e e3a7 d33d e7ab d63d 6f90 533d
000000f0: 5a8e 6e3d 6383 d7bd c1ce a9bd 3658 87bc
00000100: a5b0 ef3d a71c a1bd 54bb 833d 638b 11bd
00000110: 42ca afbc 2895 edbc 9c1b 233e a7f7 4c3d
00000120: 9b4b 833d 460c f3bd b281 513d 6ae0 4bba
00000130: c6db 07bd 379b f0ba a0c3 fb3d a925 a13b
00000140: e55f 6bbb 31fb c9bd f105 103e 9cde 3f3d
00000150: 77a1 27be e763 a63d be67 c1bd 8006 f43d
00000160: ab06 3ebd ee06 b63d 70da c33d 466d 99bd
00000170: 0d21 b03d 34df 66bd a7f5 f93d 76f7 d53d
00000180: b49c ffbd 8572 b73b c86b b83d a956 ffbc
00000190: 534f 9f3d 7e4a 8e3d de6f 233e efc0 ea3d
000001a0: fb70 f4bb 7283 37bd 8df5 0c3e dc70 c0bd
000001b0: 556b 003d c259 99bc 61b3 97bd e907 cebd
000001c0: 78e5 eabd f7aa 273d 3032 4c3d 9056 3fbd
000001d0: f0ed 68bd db9b 233d bbef a0bc a196 dcbc
000001e0: 3b40 94bd 7ed7 3c3b 4c22 b7bd 3bea 0cbd
000001f0: 1f0b 143d 5c63 383d 97db bf3d 8a5a 513d
00000200: bed5 cd3d 5a3d d2bd 5adc b7bd a81b ec3d
00000210: 53b9 d4bd bb18 33bc b101 cc3c a0a3 e1bd
00000220: 854c 5c3d 4b05 0bbd bd7b 103e 40da 6e3b
00000230: d495 c2bd 32e1 e0bd 470f ab3c d52a 82bc
00000240: a1d1 b43b e155 47bd 9b30 85bc 1d6e 2f3d
00000250: bf1c c3bc 22c6 df3d d73a d7bd dcf2 0f3c
00000260: 1cdb 8a3d 4e43 323c 20e9 96bd 9c0d 913d
00000270: 8d6e cb3b 3263 ab3c 25c2 bfbd 41d5 44bd
00000280: ba14 85bc 1a8e 1a3d 1822 c6ba 461a 06be
00000290: a363 f2bd 68a9 1d3d fa46 4cbd 8ff8 573d
000002a0: d26a d43d 28a6 4ebd d4c4 333c 2a89 643d
000002b0: c58d 703d e038 27bc e7fa 6a3d ac5b 193c
000002c0: a01c bfbd e47a 14bd df63 dbbd 8e67 b13d
000002d0: e760 903d 9f54 d43d c310 ff3d 3678 373d
000002e0: ffd2 c03c 62de 113d b5e5 203c 6b63 7fbd
000002f0: c3c6 69bd 46ef 643d 4cb1 373d c938 81bd
00000300: 4ef8 cabc ff99 a53d 4b0d 603d 1b0f c7bd
00000310: 0042 b0bd c585 26bc f578 213e c4fa 92bb
00000320: b27c 803d 954c f7bc 4066 0d3e dd5c 003e
00000330: 52a1 813d b1c7 a6bd b7d2 b9bb 7a18 153d
00000340: ee04 863c ca9a b43d 3780 ff3c 47fe d23d
00000350: 5896 5e3d f9fc b3ba b693 d73c 5f35 903d
00000360: 497f 82bc c274 b0bd a3ae 24bd 3553 8a3d
00000370: 3fc5 9bbd 9f6f bb3d 77d0 bebc 25e9 0bbd
00000380: 6376 543d 53cf 9fbd 53e1 7bbd a3e7 c53d
00000390: 686e 20bc baed ce3d 668a cd3d e062 123e
000003a0: 0164 933d 0601 243e b1ed e93d 95ad 8c3d
000003b0: d587 4ebd c1b4 13be a630 3a3e 2c8b ff3c
000003c0: 49e7 b53d edb2 17bd 9726 9c3d ab48 fdbc
000003d0: d8a8 be3d 2f9b d3bd 9683 e438 d14c b2bc
000003e0: 5839 dbbb 6fb2 273e 340c 3a3d c4b7 33bd
000003f0: d13e e5bd 1c74 2bbe 92ab d73c 98b9 3b3c
-0.019376548 0.10663059 -0.061638985 -0.03558283 -0.009429943 0.01766421 -0.03033711 0.03527299
0.09336588 -0.077959284 -0.0042934306 0.023377443 0.15063253 -0.11805106 -0.08254235 0.16813302
-0.1255661 -0.12457301 0.06776133 -0.08434914 -0.14486246 -0.07198686 0.096318595 0.14401771
0.015107079 -0.08807596 -0.11301212 -0.022007138 0.054316323 0.07113142 0.11688891 0.07436066
0.017549394 0.063670374 0.12353079 -0.02080805 0.09974725 0.04255217 -0.012796138 0.036898155
0.15819174 0.06544466 -0.10716127 -0.03614949 0.08914613 -0.11832124 0.13735142 0.031610806
0.005367481 -0.08889127 0.025369793 0.07343444 -0.06061552 -0.041453134 0.14619024 -0.055430807
0.14856577 0.10334756 0.104820065 0.051651414 0.058241226 -0.10523107 -0.08291388 -0.016521554
0.11703614 -0.07866793 0.064322144 -0.03553332 -0.021458749 -0.029001787 0.15928501 0.050040867
0.06410905 -0.11867575 0.051149078 -0.0007777276 -0.033168577 -0.0018356805 0.12293172 0.0049178195
-0.0035915312 -0.09862364 0.14064766 0.046843156 -0.16370188 0.081245236 -0.094436154 0.11915302
-0.046393078 0.088880405 0.09563148 -0.074915454 0.08600054 -0.056365207 0.122050576 0.1044759
-0.124810606 0.0055983686 0.09004933 -0.031169252 0.07778802 0.06947802 0.15960643 0.114625804
-0.0074597574 -0.04480309 0.13765545 -0.09396526 0.03135236 -0.018719558 -0.07407261 -0.100601025
-0.11469549 0.04093453 0.04985255 -0.04671341 -0.05686754 0.039943557 -0.019645562 -0.026927294
-0.072388135 0.0028814967 -0.089420885 -0.034403067 0.03614342 0.04501663 0.09368055 0.051111735
0.10050534 -0.10265608 -0.089775756 0.115287125 -0.1038691 -0.010931189 0.02490315 -0.11017537
0.053783912 -0.033940595 0.14109702 0.0036446005 -0.09501234 -0.109804526 0.020881308 -0.015889565
0.005518154 -0.048665885 -0.016258528 0.04282962 -0.023817418 0.10926463 -0.1050927 0.0087859295
0.06780073 0.0108803045 -0.07368684 0.07082674 0.006208247 0.020921323 -0.09363202 -0.048054937
-0.016245235 0.037733175 -0.0015116362 -0.1309596 -0.118354104 0.038491637 -0.049872376 0.05272728
0.10371937 -0.050451428 0.01097222 0.055794872 0.058728952 -0.010206431 0.057368185 0.009360235
-0.09331632 -0.03625001 -0.10712408 0.086623296 0.07049733 0.10367703 0.12454369 0.044792376
0.02353811 0.03561247 0.009820391 -0.06235067 -0.05707432 0.05589225 0.044846818 -0.06309659
-0.024776604 0.08086013 0.054700177 -0.09719678 -0.086063385 -0.010163729 0.15768798 -0.00448546
0.06273784 -0.030187884 0.13808537 0.12535425 0.063295975 -0.08143557 -0.005670871 0.036400296
0.016359773 0.08818586 0.031189067 0.10302406 0.054342598 -0.0013732008 0.026315551 0.0704143
-0.015929835 -0.0861602 -0.04020561 0.06754152 -0.07605981 0.091521494 -0.023292763 -0.03415789
0.051870715 -0.07803216 -0.061494183 0.09663322 -0.009791948 0.101039365 0.10036163 0.1429553
0.071968086 0.16016015 0.11422289 0.06869046 -0.05042251 -0.14424421 0.1818262 0.031194292
0.08882005 -0.03703587 0.07624548 -0.03091844 0.09309548 -0.10332333 0.00010896397 -0.021765145
-0.0066901855 0.16376661 0.045421794 -0.043876424 -0.11193622 -0.16743511 0.026326928 0.011457823

lstm2.weight_ih_l0 f4 [256, 64]
00000000: 848c 8e3d 53f9 533d c084 5e3d ce3f 8cbd
00000010: b080 003e d787 9abc 5b0c c13d 08f8 a03d
00000020: 11a7 133d cf72 ab39 52b6 8abb 3a85 8a3d
00000030: aaa5 39be 3d60 833d 4fc6 c33d d2bd d83b
00000040: 4b33 21be 93bc 423c 674f b73d 4a49 af3d
00000050: b7c0 81bd a482 3cbd fd3f f5bc b086 debc
00000060: 25c1 653d d683 f93c 9ecc da3d 1818 003e
00000070: e766 9d3c a364 703d 77e4 223d 16fa 8dbc
00000080: 48b4 e03d 4fe0 d8bd 1f87 643d 7ad4 2b3d
00000090: de41 a2bd f4ba 42bd d41e 723c e738 603c
000000a0: f03a cdbd 06c2 aebd df49 0ebe 8469 f73d
000000b0: f980 89bd ee34 c73d 662d 2f3e 826a f1bc
000000c0: e007 f33d e255 07bd b564 a03d 2858 3dbd
000000d0: c419 5e3c 7094 22be 27c7 fc3d 7905 3dbd
000000e0: 89a1 b03d ac99 cb3d d609 83bc e65c 19be
000000f0: 0287 4dbd 2415 bebd 8fb9 f1bd a262 133e
00000100: 8591 233d 3357 833c 30fd 023d 215c 8ebd
00000110: d21e 09be 5ba8 9c3c d220 a43d 419a e1bd
00000120: 4409 293d 3933 9e3d 04be 14be a357 89bd
00000130: f27a e1bd aecf 5abd 4e08 34bc c194 203d
00000140: c1f5 1cbd 8d60 253e a6d6 a9bb a6c4 36bc
00000150: d3f3 063e f23f 1fbe eb88 113e 13de a4bd
00000160: 4b97 213d 27a2 ec3d 44d2 3e3c 03e0 a8bb
00000170: eef9 dbbd 9a09 1dbe a22a f8bc 7168 0abe
00000180: c6ab babd 2f38 1cbd d6ab eabd 2f2b 3dbc
00000190: ffe5 133e d035 0b3d 04c6 cabc a71f 173d
000001a0: 27f6 21be 47e5 a2bc 74c5 d9bc 7e96 aa3d
000001b0: 5e01 59be 2eea d2bd 45ab 01be 9df2 143c
000001c0: f3bd a33d 194a bc3c d0d4 033e f3e5 1b3d
000001d0: 76f5 b2bd 6158 923d 3587 fcbd a14c ae3d
000001e0: de43 ac3c 3d34 d6bb 0c54 c4bc 6f9e 9b3d
000001f0: 21f9 3b3d 0d71 ce3d ca93 eabd 96ae 4bbb
00000200: 650e 493d 44b7 8bbd 1492 ce3d 7637 afbd
00000210: 792e ac3c a71e af3c 72a5 e73c 25b1 a33d
00000220: 2645 8cbd 0bae 1c3e 20ce 133d 965a 8abc
00000230: cbcb 12be 020e bd3d d5db 383e a39d 1dbd
00000240: e3ce 95bc 743b 073e 7a69 e4bc b82f 3bbb
00000250: ea6e ab3d 2563 653b 8b1a 593d 5949 ac3a
00000260: 5abf d23d bec3 20be 71bd 043d b7eb 073e
00000270: 0cfa 0fbe 9adc 55bd 76bd acbc aad6 17be
00000280: decc 733c 4900 b1bd 34f3 8e3d 0466 90bd
00000290: 4a0f 963d 3d0f 283b 6a6c 17be 4f4a 4f3d
000002a0: 1939 423d c8dd ce3d 95dc 053d 2c7e be3d
000002b0: fa7e 283d 1842 083e 0524 823d f5b5 113d
000002c0: 0dc3 0e3e 4aa9 77bd 8163 bd3d f6ef cd3c
000002d0: 3d48 c1bd 0407 8dbd 592d 0bbe 7510 1f3e
000002e0: 4e62 8c3a 626f c23b 3f90 28be c134 503c
000002f0: fb29 fb3d 750b b53d 5a68 b5bd c34f a03d
00000300: cd36 a8bd 01c1 dfbc 537b ebbd 7038 f6bc
00000310: 830a 0f3e f2db b83c 31b6 a1bd d33b cabd
00000320: 90ca 853c e3e0 abbd eb4e e43b bc9c c9bd
00000330: 9d8a 80bd ba99 89bd 9bd4 da3d 417b b93d
00000340: 4e37 c3bd cfe1 12bd 879e 973d 31f7 a23b
00000350: c98f 1fbd e70d 26be d9dd 0a3e 6e43 263d
00000360: ba29 c4bd 70b4 29be 4f26 383d 50d8 d63d
00000370: 90dd b9bd 17ae eb3d 4bc3 8abc 54b5 ba3d
00000380: 003e 753d cc95 b3bd 6eaa dd3d 654b bfbd
00000390: 4fb3 19bd f0d1 ac3d 6eb1 2f3d 771c debd
000003a0: 6f20 03be 6525 2fbc d442 f0bd 8b44 403d
000003b0: 7035 6d3c a125 063e 607a 343c 4770 63bd
000003c0: b031 b2bd 3c2f 8ebc f547 14bd a94a c73d
000003d0: a1d8 5b3b 5342 05bc 65ce ce3d 0386 02bd
000003e0: 5d3f b2bc c728 e5bd 515f 5c3d 69a4 853c
000003f0: 051c 35bd f63e 863d d84e 77bd fd64 d63d
0.06960395 0.051751446 0.05432582 -0.06848107 0.1254909 -0.018863602 0.09426185 0.07859808
0.036048 0.000327012 -0.00423316 0.06763692 -0.18129602 0.0641484 0.09559309 0.006614425
-0.15742223 0.01188578 0.08950692 0.08558901 -0.063355856 -0.046023026 -0.029937739 -0.027163833
0.0560924 0.030458372 0.10683559 0.12509191 0.019214107 0.058689725 0.039768662 -0.017331164
0.10971886 -0.105896585 0.055792924 0.04195068 -0.079227194 -0.047541574 0.014777858 0.013685442
-0.10021007 -0.08533101 -0.13895367 0.120806724 -0.06714053 0.097268924 0.17107162 -0.029469732
0.118667364 -0.03304089 0.07831708 -0.04622665 0.013555948 -0.15876937 0.12342673 -0.046147797
0.086245604 0.0994142 -0.015995901 -0.14976844 -0.05017758 -0.09281376 -0.118029706 0.14393094
0.0399337 0.01603279 0.03197974 -0.06951166 -0.13390663 0.019123247 0.080140725 -0.1101575
0.041268602 0.07724614 -0.1452561 -0.067061685 -0.11009778 -0.053420715 -0.010988308 0.039204363
-0.038320307 0.16150112 -0.005183059 -0.011155283 0.13178949 -0.15551737 0.14212386 -0.0805017
0.039450925 0.115543656 0.011646811 -0.0051536574 -0.1074103 -0.15335694 -0.030293766 -0.13516404
-0.091147944 -0.03813952 -0.11458556 -0.01154594 0.14443205 0.033986866 -0.024752624 0.03689542
-0.15816556 -0.019884719 -0.02658341 0.08329485 -0.21191928 -0.102985725 -0.1266299 0.009091047
0.07995214 0.022984551 0.1287415 0.038061094 -0.08738224 0.07145763 -0.12330476 0.085107096
0.021028455 -0.006536989 -0.023965858 0.07598578 0.045891885 0.100801565 -0.1145397 -0.0031079403
0.049085993 -0.068220645 0.10086456 -0.085555 0.021018254 0.02137692 0.028277133 0.07992772
-0.068491265 0.15300767 0.036085248 -0.016888898 -0.14335553 0.092311874 0.1805261 -0.038480412
-0.018287128 0.13206273 -0.027882326 -0.0028562378 0.083707646 0.0035001722 0.05300383 0.0013144418
0.10290404 -0.1569967 0.032407228 0.13273512 -0.14060229 -0.052212335 -0.021086436 -0.14827982
0.014880387 -0.086426325 0.06979981 -0.07050708 0.07327135 0.0025643848 -0.1478745 0.050607976
0.047417734 0.10100895 0.032681067 0.09301409 0.04113672 0.13306463 0.063545264 0.03557392
0.13941593 -0.06046418 0.092474945 0.025138836 -0.094376065 -0.06886104 -0.13591518 0.15533622
0.001071045 0.005933688 -0.16461276 0.01270789 0.122638665 0.08840076 -0.08857794 0.07827713
-0.082135774 -0.027313711 -0.114981316 -0.030056208 0.13968854 0.022565816 -0.078960784 -0.09874692
0.01633194 -0.08392503 0.0069674156 -0.09844348 -0.062764384 -0.06718774 0.106850825 0.09056712
-0.09532033 -0.03585988 0.074032836 0.004973315 -0.038955484 -0.16216241 0.1356119 0.04059165
-0.09578271 -0.16572738 0.04495841 0.10490477 -0.09075463 0.115078144 -0.016938826 0.09116617
0.05987358 -0.08768806 0.108235225 -0.09340552 -0.037524518 0.0843848 0.04289382 -0.10845273
-0.12805341 -0.010690068 -0.117314965 0.046940368 0.0144780725 0.13100292 0.011015505 -0.055526998
-0.087008834 -0.017356507 -0.036201436 0.09731037 0.003354587 -0.008133489 0.100979604 -0.031866085
-0.02175873 -0.11189418 0.05380184 0.016313748 -0.044216175 0.065549776 -0.060377926 0.10468481

lstm2.weight_hh_l0 f4 [256, 64]
00000000: 0e65 5cbd b3be cabd 0307 0f3d 30c5 f03d
00000010: cf68 a83d bac9 d6bd aa7a bbbb f19c d03c
00000020: 640f 16bd e257 373d 8dc8 7d3d b9ca 983d
00000030: c31e 9eb9 ced7 e33d 6901 223e 9c3e 483d
00000040: a6e3 9b3d b8f9 063e 2f48 413d de13 cc3d
00000050: 4588 17be 7e56 91bb 494b 123d acb8 b0bd
00000060: c65e 483e 3858 5e3d ce96 8c3d a6de cbbd
00000070: af18 283d e1ff 7e3d d2da c93d ae37 703d
00000080: 2caa 9abd f34d 303c 7fa2 d9bd edbe e9bd
00000090: 750d c8bc 51bd 1cbd 00ee 9a3c bb88 7a3d
000000a0: 8652 303b 0c12 bcbd a585 98bd e327 c63c
000000b0: 67ba 3cbd 1c03 083e efe1 e3bd eb37 e03c
000000c0: 6028 893c ae04 f9bc 041e cfbd 0b74 283d
000000d0: bb06 cd3d 3ae3 6f3c 12b7 eabc 908c 81bd
000000e0: 8941 ad3c 9e50 3bbd 972b afbd 2b21 92bd
000000f0: cbe0 ca3d 3b15 4fbd 2101 b43d 5e3b 19be
00000100: 0ce8 a43c 69c1 12bc 6908 423d 45fd 01be
00000110: 5035 b13d d80c d83d c883 61bd 4749 a9bd
00000120: 3ac2 12be 2928 123c 8ebe 0ebe 7201 0c3e
00000130: 2e54 39be aab4 32bd 2c74 02be 01b6 39be
00000140: 8d4b b1bc deaa 16bc 5085 243e bb9a 1d3e
00000150: b628 493e fb86 153e 35ae 25be c8d7 cc3d
00000160: 5820 5c3c d0e5 b83d 373d b83c 4da2 003e
00000170: 51b9 f5bd f2f5 4b3d a6f9 bc3c 2609 19bd
00000180: fe07 10be 8662 ecbc 2369 643c 9c55 e6bd
00000190: 55d2 b83c 3eb4 1fba 16e3 b93d ca83 913d
000001a0: 301f f4bd 62a4 28bd 0c61 18bc 799d 83bd
000001b0: 87f2 9c3d 03b1 32be 26ed c73d 15d1 3dbd
000001c0: 056a 6ebc 6561 11bd 628e f03d 8818 a4bc
000001d0: 0ab0 033d e197 323d 7932 8f3c 954a bf3d
000001e0: 9e22 74bc 9d8d 563d 0536 7dbc 1c80 abbd
000001f0: 0ffa 10bb 1f1e 27bd 15f7 333c 2450 5dbc
00000200: 4379 0a3d 35ae 24be d6c1 fdbd bc4e 883d
00000210: 4336 7e3d 9361 cdbd b39a 143e b358 863d
00000220: 6b4b 00be 38b1 c7bd 0ca6 8f3d 255d da3d
00000230: 1b2b a5bd 7a90 d1bd af2a d73d c6cc b03d
00000240: e4a3 acbc f075 53bd 2983 203d 628f 82bc
00000250: a251 c1bd 4c36 9f3c 3a4e 2fbd aa38 5a3d
00000260: 1172 983d 8893 f93c e4c7 19bd b4d3 24bc
00000270: e54f 22be 27a4 a1bd 72ba c0bd 36b6 b8bd
00000280: 73f3 1f3d 4847 b8ba d6ca 47bd 91a2 cbbd
00000290: f1d6 103c 4b30 efbd cfd7 e73c b09e ab3d
000002a0: eef8 45bd befe 0f3b 3f0c 0e3e 6419 7b3d
000002b0: eacd 803d be01 b4bd ab7b 763d 6d81 cebd
000002c0: b054 8cbc 8590 ba3d 275d 0b3e 6492 853d
000002d0: e150 573c e306 3e3d 2846 a8bd 55f8 443c
000002e0: 4e23 383d cdf6 4c3d c5e2 c9bc d306 cbbd
000002f0: cfba 9f3d 94c9 db3c c57d 013d 0e52 753d
00000300: a143 b8bd d0ff 6f3d 1b59 963d 556b ccbd
00000310: 0dd2 d13d 0d79 483d ad04 1b3c 3fa6 5a3d
00000320: 63de 0a3d b5d1 603d 1446 c03d c29a 05bd
00000330: 1106 7bbd 4ede af3d c567 dd3d 35b2 4d3d
00000340: 1526 973d 6613 4fbd 94ae aebd 70c2 26bd
00000350: dd68 1dbd bf76 bdbd 04f3 873d ab59 ff3c
00000360: 1821 56bd 1abf ee3d 4c80 7cbd 48fb b6bc
00000370: 8873 9d3d f34e c5bc 5488 353d 0f8e 3f3d
00000380: f10d 86bd 9397 ba3d 7893 da3b d386 d13c
00000390: 539d 82bc dcfb b73d 9bc9 b93d 0658 d8bd
000003a0: dce0 9cbc 89ee 39bd 5bed e2bd 7388 19bd
000003b0: b01d f9bd e201 a1bd d134 15be 167c 26bd
000003c0: 092b d63d cd83 ea3d 04de abbd c314 483c
000003d0: 01c2 f63d 7dc2 3bbc 0f1b 083d e6e7 22bd
000003e0: 32c9 5e3d 8f59 033e 6dcd cf3d 8ebd 003e
000003f0: 53d9 f9bd 9953 fb3d 92d2 bfbd a5ab 1fbd
-0.05380731 -0.09899654 0.034918796 0.117563605 0.08223116 -0.10487695 -0.00572141 0.02546546
-0.03663577 0.044761546 0.06195884 0.07460541 -0.00030159028 0.11125146 0.1582085 0.048887834
0.0761178 0.13181198 0.04718798 0.09964727 -0.14798076 -0.0044353595 0.03571633 -0.08628973
0.19567403 0.05428335 0.06864701 -0.09954576 0.041039165 0.062255744 0.0985619 0.05864685
-0.07551989 0.010760772 -0.10626697 -0.11413369 -0.02442048 -0.038266484 0.018912315 0.061165553
0.0026904657 -0.0918313 -0.07447366 0.024188941 -0.046076205 0.13282436 -0.11127078 0.027370414
0.016742885 -0.03039774 -0.10113147 0.041126292 0.10011049 0.014641577 -0.028651748 -0.06325638
0.021149414 -0.04573118 -0.08553236 -0.071352325 0.09906157 -0.050557356 0.08789278 -0.14964053
0.02013018 -0.008957245 0.0473713 -0.12694271 0.08652747 0.10549325 -0.055057317 -0.0826593
-0.14331904 0.008920708 -0.13939878 0.13672426 -0.18098518 -0.043629326 -0.12739629 -0.18135835
-0.02164247 -0.009196011 0.1606648 0.15391056 0.19644436 0.14602272 -0.16179736 0.100020945
0.013435446 0.09028208 0.022490127 0.12561913 -0.11998237 0.0497951 0.02306826 -0.03736224
-0.14065549 -0.028855573 0.013941082 -0.112467974 0.022561232 -0.0006092227 0.09076516 0.07105215
-0.11920011 -0.041172393 -0.0093004815 -0.0642652 0.07663446 -0.17450337 0.09762029 -0.046341974
-0.014551644 -0.035493273 0.11745907 -0.020031229 0.032150306 0.043601874 0.017480122 0.09340397
-0.0149008315 0.052381147 -0.015454774 -0.08374044 -0.0022121703 -0.04080021 0.010984202 -0.013507877
0.03380705 -0.1608208 -0.12390487 0.066556424 0.062063467 -0.100283764 0.14512138 0.06559887
-0.1252877 -0.09750599 0.07014093 0.10662297 -0.08064862 -0.10232635 0.10506188 0.086328074
-0.021074243 -0.051626146 0.039187584 -0.01593751 -0.09439398 0.01943507 -0.042799212 0.053276695
0.074436314 0.030465856 -0.037544146 -0.01006024 -0.1585079 -0.07892638 -0.094105616 -0.09019129
0.03905053 -0.0014059329 -0.048777424 -0.099431165 0.0088403085 -0.11679133 0.028301148 0.083798766
-0.0483331 0.0021971907 0.13871859 0.06130351 0.06289275 -0.08789395 0.060176533 -0.1008328
-0.017130226 0.09109596 0.13609754 0.065220624 0.013141842 0.046393286 -0.08216506 0.012022098
0.044955544 0.050040055 -0.024644265 -0.09913411 0.07799303 0.026829518 0.031614084 0.059892707
-0.08997274 0.05859357 0.07341214 -0.099814095 0.10245142 0.048943568 0.009461564 0.0533812
0.03390349 0.054887492 0.09388366 -0.03261829 -0.061285082 0.08587323 0.10810808 0.05021878
0.073803104 -0.05055561 -0.08529392 -0.040712774 -0.038430084 -0.09251165 0.066381484 0.031170687
-0.052277654 0.116575435 -0.06164579 -0.022336617 0.076880515 -0.024085497 0.044319466 0.046766337
-0.06545628 0.09110942 0.0066704117 0.025576985 -0.015944159 0.08983585 0.09071656 -0.10563664
-0.01915019 -0.0453935 -0.11080428 -0.037483644 -0.121638656 -0.07861687 -0.14570929 -0.04064568
0.10457427 0.1145092 -0.083919555 0.012211981 0.12048722 -0.011459944 0.03322893 -0.039771937
0.054391094 0.12827133 0.10146604 0.1257231 -0.121996544 0.12271804 -0.09366335 -0.038982052

lstm2.bias_ih_l0 f4 [256]
00000000: 31ca 00bd d00d be3d 755f 0c3e 89ff c53d
00000010: 4cdb 683d d25e c03a 58ec 15be 048c 81bc
00000020: 2ad4 6b3e dd09 f53d 5e19 6f3d 9f42 fd3c
00000030: 0c87 a6bd ee97 07bd 9fa7 dd3c 9d5f 283e
00000040: 37c1 3cbd 271b 8f3d 0937 3ebd 1392 f6bb
00000050: ea80 9c3d 8bbe 0f3e 1488 f6bd 2754 8cbd
00000060: 04e4 9bbd 25f8 29bd 8457 5a3c 3393 19bd
00000070: d796 99bd 369a 69bb 6207 e03d f554 d5bc
00000080: e87f a0bd 1e2a f2bb a49d a13c 24de 35bc
00000090: e9d6 d0bd 2e8d 203e a221 84bb 2cf3 fe3d
000000a0: 320c 44bd 1b1d 733d 60bd 5ebd 8863 2b3e
000000b0: 7f73 89bd acc4 a2b9 a49e 9abd 9f1d c6bc
000000c0: 8c39 233e 1ab4 503d 1b95 193e 4647 b63d
000000d0: f0b8 2abd 4c8c 7c3c fe20 a9bd cbbb 4fbd
000000e0: 4320 2bbe 7b11 e63c 7886 093e ded0 c43d
000000f0: 17ef 263d a6d5 2a3d 5751 08be 4363 593e
00000100: ba26 c23d d938 fe3d bf4b 0c3d a517 823d
00000110: 3593 1ebd 31bb b1bd eb32 ffbd 2ba4 c9bd
00000120: 45b0 193e feb9 163d b062 353e 798c ccbc
00000130: 7fb6 0d3e e5a7 993d 6fd0 e63d 64d5 293e
00000140: e4f9 a5bd 9360 f83c b9d5 6d3d 49af c0bb
00000150: df6e f63d 5e68 8bbd cf98 c6bd 3394 313e
00000160: 5c89 a8bd 18fa 96bc a1e9 033e 4577 493e
00000170: b149 05be a7cf 0c3e 9e81 103e b631 223e
00000180: 6f71 9dbd 7d39 1abd 50d5 443e 6f61 fc3d
00000190: 30a8 f23c 73e3 863d 47fb a73d 34f4 ed3b
000001a0: 7f0e 85bc dab4 a43d 4c73 30bd fadb 2c3e
000001b0: 349c e8bc 1b4e 233e 8dc6 043d 2790 023e
000001c0: 646b 4c3e edf6 b63d bc56 dcbd 7d06 ab3d
000001d0: 978b 383d fc4f 363d 31bc 003e 6e1c 2c3e
000001e0: 4076 b0bc 25e3 c2bd 8a3b ec3d cd64 243e
000001f0: 0f65 eebd 47bc df3d faf4 4cbc 8918 74bd
00000200: 3047 8bbd b17a abbd d5b0 dfbd a3d9 cfbd
00000210: e3dc f03d bde8 00ba 1112 c1bd 6f8d 983d
00000220: d6ae 04be dffa 5e3d b179 b23c a82b bf3c
00000230: 4f37 96bd bc2c d13c 26a1 5d3b 3b70 803c
00000240: 40c9 1cbd 9da6 773d cae9 66bd 61ca 8fbd
00000250: 250f 6dbd 0831 d6ba d098 04be bdac c8bd
00000260: 1733 5a3c 57fc bb3d 07e9 bdbc da97 283d
00000270: 9318 52bb 2fa4 ef3d ca13 fbbd 77ba a63c
00000280: 150a cdbd aac9 0fbd 5f3b dbbd 9449 9ebd
00000290: ae20 7d3d 95e9 aa3d 18cf 113c 7978 9bbd
000002a0: 08cf d7bc de91 a6bd 2c28 2fbd bad2 19bd
000002b0: 3711 023c afcb 8abb 54bc 203d 5b4c a8bd
000002c0: 8c42 c0bd 88ca 383d 22c4 af3d 834f c63d
000002d0: 34ec de3d 1aba 833c 1b7f e03d 811a 10bc
000002e0: 80ff a43d c412 2ebd efdb 86bd d0c2 38bd
000002f0: 7c95 b9bd aff0 afbc 7aa8 c63d 5999 19bd
00000300: 90d8 033e bdb9 093e cfd9 a63d 339d cdbd
00000310: 6a4e fc3c 09ed 043e cc8c f13d 7652 b3bd
00000320: e319 ed3d 1f58 083d 4aee 0b3e 5f5b 173e
00000330: e738 76bc 51ec 633c b16d ebbc 8a45 f23d
00000340: 6a5a 6ebd 1eaf c13d 8ba4 cabc b244 8e3b
00000350: b194 90bd 8913 133e d4e3 ce3d 593e 053d
00000360: 0309 863d f361 6ebb 2e4c a43d 560b adbd
00000370: 5e48 6fbd 681a b93d 4a44 a2bd 7fd6 893d
00000380: 3e18 84bd 5952 4abc 7763 223e c745 e4bd
00000390: 7cac 22bd da76 88bd 4994 23bc 93dd 0f3e
000003a0: 9e3c 53bd 19e5 80bd c91d 063e e2e1 af3d
000003b0: f939 af3b 26b6 a73d 6440 47bd c1ac 303e
000003c0: b9d3 ca3d ad1d 123d e689 1f3e eee2 0fbd
000003d0: 0940 a03d 4d43 d63d c807 efbd 6a71 543c
000003e0: 89f3 a7bd 03e4 96bd a890 e53d 26cd f73d
000003f0: 69ca 943d 01d7 23bd cbe6 0a3e 02a4 093e
-0.031442825 0.09279978 0.13708289 0.0966788 0.056849763 0.0014676696 -0.14640939 -0.015813835
0.23030153 0.11964772 0.0583738 0.030915556 -0.08131227 -0.033103876 0.027057467 0.16442724
-0.0460827 0.06987601 -0.046439204 -0.0075247376 0.07641776 0.1403753 -0.120376736 -0.06851988
-0.0761185 -0.041496415 0.013326529 -0.037493896 -0.074994735 -0.0035644895 0.10938908 -0.026041487
-0.07836896 -0.0073902747 0.01972849 -0.011100326 -0.10197241 0.15678856 -0.0040323297 0.12448725
-0.047863193 0.05935393 -0.05437982 0.16737187 -0.06711482 -0.0003104558 -0.075497895 -0.024184046
0.15939921 0.05095301 0.14998285 0.08900313 -0.041680276 0.015414309 -0.08258246 -0.050716203
-0.16711526 0.028084507 0.13430202 0.09610151 0.040755358 0.041707657 -0.13312279 0.21229272
0.09480043 0.124131866 0.034251925 0.06352166 -0.038714606 -0.08678282 -0.12460884 -0.09845766
0.15008648 0.03679847 0.17713428 -0.024969326 0.13839148 0.075027265 0.11270224 0.16585308
-0.081043035 0.030319488 0.05806515 -0.0058802706 0.12032866 -0.06807016 -0.09697115 0.1734169
-0.08229324 -0.0184298 0.12882091 0.19674404 -0.13016392 0.13751088 0.14111945 0.15839276
-0.07687651 -0.03765248 0.19221997 0.123232715 0.029621214 0.06586351 0.08202224 0.0072617773
-0.016242264 0.08042307 -0.043078706 0.1688079 -0.028394796 0.15947764 0.032415915 0.12750302
0.19962841 0.08933816 -0.10758731 0.08350847 0.045055 0.044509873 0.1257179 0.1680772
-0.021540761 -0.09515981 0.11534794 0.16054077 -0.11640369 0.10924583 -0.012509579 -0.05959371
-0.06800687 -0.08373011 -0.109224 -0.10148933 0.11760881 -0.0004917493 -0.09427274 0.07448851
-0.1295732 0.054438468 0.021786543 0.023336247 -0.07334768 0.025534026 0.0033817976 0.015678516
-0.038277864 0.06046163 -0.056375302 -0.070210226 -0.05787577 -0.0016341517 -0.12948918 -0.09798572
0.013317845 0.091789894 -0.023182405 0.041160442 -0.0032058104 0.117012374 -0.12259634 0.020352585
-0.100116886 -0.03510443 -0.107046835 -0.07728878 0.061798744 0.083453335 0.008899473 -0.07591338
-0.026343837 -0.08133291 -0.04276292 -0.03755448 0.007938675 -0.0042357068 0.039242104 -0.08217689
-0.09387693 0.045115024 0.08582331 0.096831344 0.10884896 0.016079951 0.109617434 -0.0087953815
0.08056545 -0.042498365 -0.06584918 -0.045107663 -0.09061715 -0.021477072 0.09700103 -0.03749976
0.12875581 0.1344976 0.081470124 -0.10039749 0.03079911 0.12981047 0.11794433 -0.087559626
0.11577203 0.033287164 0.13665119 0.14780949 -0.015028215 0.013911323 -0.028738828 0.1182967
-0.058191694 0.09457229 -0.024736663 0.004341685 -0.07059611 0.14362921 0.101020485 0.032530162
0.065446876 -0.00363743 0.080223426 -0.08449428 -0.058418624 0.0903824 -0.07923181 0.06730365
-0.06449936 -0.012348735 0.15858255 -0.111461215 -0.039715275 -0.06663294 -0.009984084 0.14049368
-0.05157148 -0.06293697 0.130973 0.085880056 0.005347487 0.08189039 -0.048645392 0.172534
0.09903664 0.035672832 0.15579948 -0.035128526 0.07824714 0.10462055 -0.11671406 0.012966493
-0.082007475 -0.073677085 0.112092316 0.12099676 0.07265169 -0.039999966 0.13564603 0.1344147

lstm2.bias_hh_l0 f4 [256]
00000000: efb3 d13d af0c ca3d 5fe9 42bc 4d92 a7bd
00000010: b3d4 e73d d8ae fabc 240d cdbd be84 f4bd
00000020: 2cfa fa3d 637a 88bd e273 46bc 34f1 b8b8
00000030: 17f5 ba3d db88 1d3e aa5a 08bd aaba 5bbd
00000040: 3a0c edbd c1f2 35bc bbaf 0d3d b685 59bd
00000050: 1fd3 72bc bdda 033e e604 cabd dc80 93bc
00000060: f9e5 cbbd ba32 b53d 029f 3bbd 1a64 0a3e
00000070: 743a 9abd 9e9d 153e 0d4e 8cbd 386d 053d
00000080: 8bdc e73c 02b9 c8bd 838f e13c 2c96 e7bc
00000090: b624 e939 96a0 96bd 2c74 693d 1a07 c0bd
000000a0: 5661 b8bd c016 43bd 85ad 4dbd 1226 1a3e
000000b0: a37e 55bd d74c 83bc b31d 683d 3dc2 9d3d
000000c0: 64cd a83d db10 333e fe93 773d 2dc4 993d
000000d0: b8b8 abbd 7d02 353e 9c44 d5ba 93e4 093e
000000e0: 0849 003d 026f 38bd 40b6 dc3d 3c93 f43d
000000f0: 6d76 803c b430 503e 2680 82bc d732 6f3e
00000100: 6084 603d fed6 24bd 6e8e be3d d399 4c3d
00000110: a56a 043e b4c6 843d b647 babd 1b8c 91bc
00000120: 0a19 123e 374a 0b3e 70d7 103e 7a8b c13d
00000130: 49b5 70bc d3ef 05bd 635e ae3c c8b6 203e
00000140: 0922 33bc 6e7d 99bc ec4d 88bb ada3 293d
00000150: fec5 1f3d c5d2 dfbd 5006 d63d 934e aabc
00000160: 05e4 e3bc 7bb6 263e fdf4 e5bc 2694 403e
00000170: 9b2e 0dbe eadd 1c3c f4ae f73d dd3f 623e
00000180: b367 cf3c 0ca5 b23c 77e8 7c3d b04a 9d3d
00000190: 1ef4 81bc 91f1 26bd 93b3 203d d174 03bd
000001a0: 2987 953c ea7e 5d3d 91b4 263e 0c7f 2d3e
000001b0: 9cd5 07bd 2ead 24b9 41d9 7d3d d468 003d
000001c0: 6046 503e 2d7d 283e a0bc 1c3d 0f27 203d
000001d0: 913d 4d3b e150 d73d 0fe3 a13d d2d1 913d
000001e0: 1c11 25be f70e b73d 5393 5a3e b674 603d
000001f0: 6100 c4bd 7cf8 1a3d aa20 c0bd 45d0 97bd
00000200: abf3 91bd 7e23 9cbd 253e 06bd 406e 273d
00000210: 4497 fa3c bd21 d7bd 87b2 babd 36c0 7cbd
00000220: 1ac0 2a3c b5e3 88bb 697c 36bd c1c6 9fbd
00000230: 3a79 b33d ab79 c5bb 4be2 f2bd 9475 e6bd
00000240: 6167 103d bc57 6f3d 00c5 953c f1d4 ac3d
00000250: 18c1 373d e03e c63d 26e1 58bd 80b7 843d
00000260: 1dcb b5bb edf9 68bc 46e0 ba3d 2917 823d
00000270: 1224 0b3b 410f b43d bb71 d3bd 64ff 123e
00000280: b409 783d b48f fbbc 1cd7 edbd 514b e6bd
00000290: 35a9 d2bd b052 f13c 7bc4 383d 26ff 85bd
000002a0: e69b eabd 5157 90bd 3f9a 20bd afff f5bc
000002b0: f949 82bd 91d4 06be 255c 4a3d f3a5 c33d
000002c0: 3009 ee3d abae 013e 8344 9e3d 746c 93bd
000002d0: 693e d13d bb76 c8bd 4957 dd3d 696e db3d
000002e0: 5c39 3f3d b6d9 d93d 8a3f c93c b775 87bd
000002f0: bdb5 afbd 4fc4 a23d 7a8c 353d 47ac 05bd
00000300: 7be4 f5bc a934 653e 592a f93d e4fc 08bd
00000310: f037 223e 2c1a 213e c111 b63d b6b5 45bd
00000320: 8c63 433e 9f56 0b3e 046b 0e3e c55d 473e
00000330: c7b1 853d 801a e83d cdbf 943d 689d d23d
00000340: 1b38 8e3d bc9d fc3d ebd1 313c ca0d 3e3d
00000350: 7f39 033d cc0a c13d ec28 ed3d 49ad cdbb
00000360: 4f97 cbbd 2700 313e 83b8 bebc 6891 9f3d
00000370: b502 633d aff3 b83c 69aa 1cbc 651a eb3d
00000380: 36a7 8c3d 0336 dcbd de1b 2a3c be6f 1ebd
00000390: a8a3 113e 280b 8fbd ec05 55bd 6c13 d7bb
000003a0: 32d7 1c3d 3f0b 22bd df4e fc3d 12a1 90bc
000003b0: c63d 47bc 820e 203e 0803 f5bc 794f 2f3e
000003c0: 240d 9d3d d45e 2c3e 1dc4 7cbd dd1e fb3d
000003d0: 385f 09bd c1eb c23d 52b5 e73d 9069 9c3d
000003e0: 3be1 283c d78c 043e 21fd 343e 425f 193e
000003f0: 3143 cbbd 1474 47ba 27a2 b9bd 8bec 713e
0.10239398 0.098657005 -0.01189646 -0.081822015 0.11319866 -0.03060095 -0.10012272 -0.11939381
0.12254748 -0.066639684 -0.01211259 -8.818731e-05 0.091287784 0.15384237 -0.03328959 -0.053644814
-0.11574598 -0.01110524 0.034591418 -0.053106032 -0.014820843 0.12876411 -0.098642156 -0.01800578
-0.09955973 0.08847566 -0.04580594 0.13514748 -0.0753068 0.14610907 -0.068508245 0.032574862
0.028303405 -0.098009124 0.027534252 -0.02826985 0.00044468575 -0.07354848 0.056995556 -0.093763545
-0.0900294 -0.047629118 -0.05021431 0.15053585 -0.052122723 -0.016027851 0.05666895 0.07703064
0.082423 0.17486899 0.06044387 0.07508121 -0.08384842 0.1767673 -0.0016271058 0.134661
0.031319648 -0.04502774 0.10776949 0.11942145 0.01568147 0.20331079 -0.015930247 0.23359238
0.054813743 -0.040244095 0.0930451 0.049951386 0.12931307 0.06483212 -0.09095709 -0.017767003
0.14267364 0.1360253 0.14144683 0.09450431 -0.014691659 -0.032699417 0.021285241 0.15694726
-0.010933408 -0.018736567 -0.0041596796 0.04141586 0.03900718 -0.10928873 0.10450423 -0.02078942
-0.02781869 0.16280548 -0.028070921 0.18806514 -0.1378731 0.009574393 0.120939165 0.22094674
0.025318002 0.021807216 0.061745133 0.07680261 -0.015863474 -0.04075772 0.039233755 -0.032093827
0.018252926 0.054076113 0.16279818 0.16942996 -0.0331627 -0.00015704773 0.061974768 0.031349972
0.20339346 0.16454001 0.038265824 0.03909975 0.0031317214 0.10513473 0.07904636 0.07120098
-0.16119808 0.08938401 0.21345262 0.054798804 -0.09570385 0.03783463 -0.0938123 -0.07412771
-0.07126554 -0.07623957 -0.03277411 0.040876627 0.030589707 -0.10504482 -0.09116083 -0.061706744
0.010421777 -0.0041775354 -0.04455224 -0.07801581 0.087633565 -0.006026467 -0.11859568 -0.11252895
0.03525484 0.05843328 0.018282413 0.08439053 0.044861883 0.09679961 -0.052949093 0.06480312
-0.0055478946 -0.014219743 0.09124808 0.06352074 0.0021231216 0.08791972 -0.10324427 0.14355236
0.06055613 -0.030708171 -0.116132945 -0.11244834 -0.1028618 0.029458374 0.045109253 -0.06542806
-0.114555165 -0.07047904 -0.0392096 -0.030029146 -0.063617654 -0.13167025 0.049404282 0.09553137
0.11622846 0.12664287 0.07727911 -0.0719842 0.10216982 -0.09788271 0.10807664 0.107144184
0.04668556 0.10637228 0.02456643 -0.06614249 -0.08579586 0.07947599 0.044323422 -0.032635
-0.030016175 0.2238337 0.1216628 -0.0334443 0.15841651 0.1573264 0.08890105 -0.048268996
0.19080943 0.13607262 0.1390801 0.19469364 0.06528049 0.113331795 0.072631456 0.10283929
0.06944295 0.12334773 0.010853271 0.04639987 0.032037254 0.094258875 0.11580071 -0.0062767607
-0.09940969 0.17285214 -0.023281341 0.07791406 0.055422504 0.022577135 -0.009562113 0.11479644
0.068678305 -0.107524894 0.010382621 -0.038680784 0.14222586 -0.0698455 -0.0520076 -0.0065635946
0.038291164 -0.039561506 0.12319731 -0.01765493 -0.012160724 0.15630534 -0.029908672 0.1712016
0.07668522 0.16833049 -0.061710466 0.12261746 -0.033538073 0.09517623 0.11313881 0.07637322
0.010307605 0.12944351 0.17674686 0.14977744 -0.09924925 -0.00076085445 -0.09064131 0.2362539
