saved_model/DAP_Model_TLF.pt (torch, 230994 bytes, 12 tensors)

lstm1.weight_ih_l0 f4 [256, 3]
0	0xbca46c14	-0.020071067
1	0x3c8b9f63	0.017043775
2	0x3e1b21d0	0.15149617
3	0x3c936263	0.01799125
4	0x3d9600ed	0.07324395
5	0x3d246ba3	0.040141713
6	0x39adf2e2	0.00033178093
7	0xbd5fa9e8	-0.054605395
8	0xbdbdc0ce	-0.0926529
9	0x3da17b9a	0.07884903
10	0xbe434e51	-0.19072844
11	0xbd83315a	-0.064058974
12	0x3d8be800	0.0683136
13	0xbd384a50	-0.044992745
14	0x3daeb680	0.08530903
15	0xba17ef4f	-0.00057958526
16	0xbd11013d	-0.03540157
17	0x3d6b6de3	0.057477843
18	0xbe551f08	-0.20812619
19	0xbdb2878d	-0.087172605
20	0x3d7b6896	0.061379038
21	0xbe1d8630	-0.1538322
22	0xbde936e5	-0.113874234
23	0x3de32f7f	0.110930435
24	0xbc1dc290	-0.009628907
25	0xbcce04f2	-0.025148842
26	0xbc1c5150	-0.009540871
27	0x3ddca82e	0.10774265
28	0xbdbee7f7	-0.093215875
29	0xbdc95474	-0.09830561
30	0x3d20d808	0.039268523
31	0xbd3cb139	-0.04606745
32	0x3e546d95	0.20744927
33	0x3dc90330	0.09815061
34	0xbd957fb3	-0.07299747
35	0xbe4620d5	-0.19348462
36	0x3e0c1b8e	0.13682386
37	0x3dc748a3	0.09730651
38	0xbdc82a7a	-0.09773727
39	0x3d84aa8c	0.06477842
40	0xbca48136	-0.020081144
41	0x3dbee3e4	0.093208104
42	0x3ca1d7d7	0.01975624
43	0x3d09e833	0.033668708
44	0x3dc578d5	0.096421875
45	0xbd8972ba	-0.067113355
46	0xbe1282b5	-0.14307673
47	0x3d8da723	0.069166444
48	0x3d9f9e13	0.07793822
49	0xbe3272a2	-0.17426541
50	0x3d875023	0.06607082
51	0xbd88f897	-0.0668804
52	0x3dbfecec	0.09371361
53	0x3d11d70a	0.035605468
54	0xbd0a39d6	-0.033746563
55	0x3c907b31	0.017636867
56	0x3d7d44a0	0.061833024
57	0x3e07b229	0.13251556
58	0x3cb8baa0	0.022549927
59	0x3e46e4dd	0.19423242
60	0x3ddf4723	0.1090224
61	0x3d84983d	0.0647435
62	0xbd262353	-0.04056103
63	0x3ca05d70	0.019575804
64	0x3dc18c72	0.09450616
65	0xbcce3091	-0.025169643
66	0x3dba8251	0.09106887
67	0xbd0c6d80	-0.034284115
68	0x3ded3b1e	0.11583541
69	0xbd2e43ba	-0.042545058
70	0xbd238455	-0.039921124
71	0xbdcd2bff	-0.10018157
72	0xbe1ea501	-0.15492631
73	0xbe145ab6	-0.14487728
74	0xbd8c8a8d	-0.06862364
75	0xbd530811	-0.051521365
76	0xbdc03898	-0.093857944
77	0xbd82d4a1	-0.06388212
78	0xbd1a3ead	-0.03765743
79	0xbd824e3f	-0.063625805
80	0xbd067f50	-0.03283626
81	0x3dce9e35	0.10088769
82	0xbdd8f79d	-0.105941035
83	0x3d824d1e	0.06362365
84	0x3d841bd4	0.0645062
85	0xbdb0f9e8	-0.08641416
86	0xbe287c3c	-0.16453642
87	0xbd214451	-0.039371792
88	0x3dbe480f	0.09291088
89	0xbd63aa19	-0.05558214
90	0x3e257cc6	0.16160879
91	0x3dc9fc2d	0.09862552
92	0x3cee97a1	0.029125037
93	0xbc76f0a5	-0.015072023
94	0xbd5e0bfa	-0.05421064
95	0xbe292a0e	-0.16519949
96	0x3b37378f	0.00279567
97	0x3d7e86ed	0.062140394
98	0x3c8bb48e	0.017053869
99	0x3c5ce398	0.013481997
100	0xbab7bd8a	-0.0014018279
101	0x3bf9fb7a	0.0076288553
102	0x3caa260f	0.0207701
103	0x3c0ed33b	0.008717353
104	0x3d811848	0.063034594
105	0x3de099ec	0.10966858
106	0xbd9c2654	-0.07624498
107	0xbdeeef83	-0.11666777
108	0xbc628799	-0.013826274
109	0xbd4b017c	-0.049561962
110	0xbdb87a54	-0.09007707
111	0xbce83154	-0.028343834
112	0x3da5a311	0.08087743
113	0xbd7225e9	-0.059118185
114	0x3dca2fc8	0.09872395
115	0xbce6fafe	-0.028195854
116	0xbd57b59e	-0.052663438
117	0xbb2e1d39	-0.002656771
118	0x3c837f8e	0.016052034
119	0xbbaefc8c	-0.0053401645
120	0x3e428148	0.1899463
121	0xbcd1cb6e	-0.025609698
122	0x3db7e9f3	0.08980169
123	0x3c5209af	0.012819692
124	0xbdc39eca	-0.09551771
125	0xbe002c47	-0.1251689
126	0x3dc3491e	0.0953543
127	0xbd5e0479	-0.054203484
128	0xbce85c0f	-0.02836421
129	0x3d594c80	0.05305147
130	0x3bd4bf05	0.006492498
131	0x3e34e54d	0.17665596
132	0x3d1eabaf	0.03873795
133	0x3c6d7521	0.014493258
134	0xbd976405	-0.07392124
135	0x3c85367c	0.016261332
136	0x3e1156a3	0.14193206
137	0x3e807d11	0.25095418
138	0xbdeab140	-0.11459589
139	0xbd9914d4	-0.07474676
140	0xbdb1b2dd	-0.086766936
141	0x3e23b165	0.1598564
142	0x3d6528f5	0.055947263
143	0xbde0d888	-0.109788
144	0x3dad4124	0.0845969
145	0x3bd3d9b2	0.0064651603
146	0xbe34eb74	-0.17667943
147	0xbd35da25	-0.044397492
148	0xbd8495c8	-0.06473881
149	0x3c8c6ed3	0.017142689
150	0x3e0cc12d	0.13745566
151	0xbdbf36c2	-0.09336616
152	0xbd8cfde9	-0.06884367
153	0x3d7607d3	0.060066056
154	0x3ca8a6f9	0.020587431
155	0xbde12503	-0.109933876
156	0xbe13ae81	-0.14422037
157	0xbdc78f9b	-0.097441874
158	0xbe0fc59e	-0.14040229
159	0x3e0c432c	0.13697499
160	0xbabb5145	-0.0014291188
161	0x3e4ed5ca	0.20198742
162	0x3de29189	0.11062915
163	0xbc4cc628	-0.012498416
164	0xbe633933	-0.22189789
165	0xbe215be8	-0.15757716
166	0xbdf2638d	-0.11835394
167	0xbcb3752b	-0.021906456
168	0xbdf27ea3	-0.1184056
169	0xbdb729c8	-0.08943516
170	0xbe05e7cb	-0.13076703
171	0x3d492476	0.049107037
172	0xbd31b370	-0.043384016
173	0x3dd4923f	0.10379457
174	0x3e33a584	0.17543608
175	0xbc35c721	-0.011094839
176	0xbe124b39	-0.14286508
177	0x3dac56d2	0.08414997
178	0xbd313372	-0.043261953
179	0xbcd3e800	-0.025867462
180	0xbde34ea6	-0.110989854
181	0xbd97462a	-0.073864296
182	0x3e05f7cb	0.13082807
183	0x3ca923e7	0.020647002
184	0xbd9111b1	-0.070834525
185	0xbe050807	-0.12991343
186	0x3e0dccce	0.13847658
187	0xbde2201e	-0.11041282
188	0x3e2f2729	0.17104782
189	0xbd48d2b6	-0.049029075
190	0x3e13dabb	0.14438908
191	0x3e274796	0.16335902
192	0xbdcaab7a	-0.09895988
193	0x3bdd5f01	0.00675571
194	0xbdfc7da3	-0.12328651
195	0xbbe3a7d3	-0.0069474964
196	0xbdaeccb9	-0.085351415
197	0xbdae6268	-0.08514863
198	0x3e0b1357	0.13581596
199	0x3d45761d	0.048208345
200	0xbe632b20	-0.2218442
201	0x3d013f3c	0.031554446
202	0x3c0c3144	0.008556668
203	0x3c115639	0.008870655
204	0x3c5e9eca	0.013587663
205	0xbdc014e6	-0.09378986
206	0xbdd20195	-0.10254208
207	0xbb24dbf7	-0.0025155523
208	0x3dadefb9	0.08492989
209	0x3cdc5824	0.026897497
210	0xbe4a14e1	-0.19734527
211	0xbde0cc23	-0.10976436
212	0xbd1d4a50	-0.038400948
213	0xbccd195c	-0.025036506
214	0xbe041399	-0.12898101
215	0x3d1faa8b	0.038981
216	0x3e052374	0.13001806
217	0xbdc7718c	-0.09738454
218	0x3d326b85	0.04355957
219	0x3d80a6a0	0.06281781
220	0x3d81c0c4	0.06335595
221	0xbdb78586	-0.089610144
222	0x3e08078d	0.1328413
223	0x3d33034b	0.043704312
224	0x3e204642	0.15651801
225	0x3cf6c753	0.030124342
226	0xbd9f8ed6	-0.07790916
227	0xbe3d79c4	-0.18503481
228	0x3d302980	0.043008327
229	0x3a49dd55	0.00077005225
230	0xbe7248af	-0.23660539
231	0x3db6f661	0.08933712
232	0x3d40fde5	0.047117133
233	0x3cf4445f	0.029817758
234	0x3c338a31	0.01095824
235	0x3deb1774	0.11479083
236	0x3d16398f	0.036675986
237	0x3d51a9cf	0.051187333
238	0xbdb24ae6	-0.08705692
239	0x3d5a2448	0.053257257
240	0xbdf5c329	-0.120001145
241	0x3c845e9f	0.0161584
242	0x3cb0bdb6	0.021574836
243	0x3de11228	0.10989791
244	0x3ddd9f6e	0.108214244
245	0x3d8b774e	0.06809865
246	0x3bc8c12a	0.0061265426
247	0xbd354d41	-0.04426313
248	0xbdb165b7	-0.08661979
249	0x3d2a067f	0.0415101
250	0x3dd7a54c	0.10529575
251	0x3c63d713	0.013906258
252	0xbc3426a0	-0.010995537
253	0xbd6e5dd5	-0.058194954
254	0xbd83f1d6	-0.06442611
255	0x3b4d50f7	0.0031328776

lstm1.weight_hh_l0 f4 [256, 64]
0	0xbdb20781	-0.086928375
1	0xbb5e13fd	-0.0033886426
2	0xbd2fabc9	-0.042888436
3	0xbd8cefd9	-0.06881685
4	0x3e031b6c	0.1280343
5	0x3d5900a6	0.052979134
6	0xbb23c997	-0.0024991983
7	0xbda47d5e	-0.080317244
8	0x3b9f6f97	0.0048655975
9	0x3d812a49	0.063068934
10	0xbd155a08	-0.036462814
11	0xbd86352f	-0.06553113
12	0xbd37a113	-0.044831347
13	0xbdf29576	-0.11844914
14	0x3d69acdb	0.057049613
15	0xbd6f2bab	-0.058391254
16	0xbd810a03	-0.06300738
17	0x3d185eb2	0.037199683
18	0x3cee790e	0.029110458
19	0xbd617a56	-0.05504831
20	0x3d46068f	0.0483461
21	0x3c2a4b0d	0.01039387
22	0x3dec726c	0.11545262
23	0xbd8d8cf3	-0.069116496
24	0x3da58364	0.080817014
25	0x3dff36a5	0.124615945
26	0x3c934ab2	0.017979953
27	0xbe3acf70	-0.18243194
28	0xbdc9d969	-0.09855921
29	0x3d9ecf9b	0.07754441
30	0xbcaa5303	-0.020791536
31	0xbc4147d9	-0.011796915
32	0x3d7645d2	0.06012518
33	0xbca0e8ce	-0.01964226
34	0xbd7f8a76	-0.062387906
35	0xbd32fe25	-0.043699402
36	0xbd725f87	-0.059173133
37	0x3c66398a	0.014051804
38	0xbcc71e57	-0.02430646
39	0xbd67b732	-0.056571193
40	0x3e132923	0.14371161
41	0xbd62117b	-0.055192452
42	0x3d82320d	0.06357203
43	0xbdae1d53	-0.08501687
44	0xbc4a6055	-0.012352069
45	0x3b89d24a	0.0042059766
46	0xbd9aa6ac	-0.075513214
47	0xbcceaf58	-0.025230095
48	0xbdef4e0d	-0.11684809
49	0x3d5f61cf	0.054536637
50	0xbd86bfe6	-0.065795705
51	0xbb5d423e	-0.0033761407
52	0xbd5e8e01	-0.054334644
53	0x3dbce869	0.09224016
54	0x3c90ebce	0.017690565
55	0xbdcd6805	-0.10029606
56	0xba8d78e3	-0.0010793473
57	0x3d52ddeb	0.05148117
58	0x3c135a03	0.008993628
59	0x3dad4ca0	0.08461881
60	0xbd70777a	-0.05870769
61	0x3dd34f87	0.10317903
62	0xbe03552f	-0.12825464
63	0xbdb1802d	-0.08667026
64	0x3db605b8	0.088878095
65	0xbe1fa351	-0.15589644
66	0x3e57394f	0.21017955
67	0xbd8aef6d	-0.06783948
68	0x3e2984d7	0.1655458
69	0x3daa9827	0.08329802
70	0xbcf5ced5	-0.030005852
71	0x3c7b80d4	0.015350539
72	0xbd0e754f	-0.034779843
73	0xbd599c84	-0.05312778
74	0x3dcddba0	0.10051656
75	0xbe6123de	-0.21986338
76	0x3dd5c280	0.104374886
77	0x3e1e266d	0.15444346
78	0x3cd0c068	0.025482371
79	0xbb19aa41	-0.0023447427
80	0xbe1a3e9a	-0.15062943
81	0xbd30762a	-0.04308144
82	0x3de6e104	0.11273387
83	0x3e130f17	0.14361225
84	0xbcebf275	-0.028802136
85	0x3d6aa167	0.05728283
86	0x3c7141c4	0.014725152
87	0xbc892563	-0.01674146
88	0xbdf6a82e	-0.120437965
89	0x3db27dcb	0.08715399
90	0xbd842de6	-0.06454067
91	0xbe2bbf3b	-0.16772167
92	0xbde91256	-0.113804504
93	0xbd7c55a2	-0.061605103
94	0x3dde75f9	0.10862345
95	0x3da2f490	0.07956803
96	0x3dc18a4e	0.09450208
97	0x3e05396a	0.13010183
98	0x3d2811ed	0.04103272
99	0x3d15299b	0.03641663
100	0xbdb564b3	-0.088570975
101	0x3dbb3cd6	0.09142463
102	0xbdd77179	-0.1051969
103	0x3d073c7c	0.033016667
104	0x3d9bf53a	0.07615133
105	0x3d1a09aa	0.037606873
106	0x3cfb4b39	0.030675517
107	0x3e0a0733	0.13479309
108	0xbd08c343	-0.03338934
109	0xbd5a5696	-0.05330523
110	0x3d92266f	0.07136237
111	0xbb8fe7e7	-0.0043916586
112	0x3c12118a	0.008915314
113	0x3cecc80f	0.02890399
114	0xbe1d3665	-0.15352781
115	0x3df63143	0.12021115
116	0xbdcaff9c	-0.09912035
117	0x3dfe8280	0.12427235
118	0x3e2228d5	0.15835889
119	0xbe1cf365	-0.15327223
120	0x3da41cca	0.080133036
121	0x3c22029e	0.009888319
122	0x3d307bda	0.043086864
123	0x3dd41059	0.103546806
124	0xbd6e5655	-0.0581878
125	0xbe0e1b40	-0.13877583
126	0xbdc5b81d	-0.096542574
127	0xbd854242	-0.06506778
128	0x3e679a4b	0.22617452
129	0x3d9f6a8e	0.077839956
130	0x3d5ee737	0.054419722
131	0xbdf22176	-0.118227884
132	0x3d2f25cb	0.04276065
133	0xbe267bc9	-0.16258158
134	0xbcded228	-0.02719982
135	0x3d172072	0.036896177
136	0xbd700aaf	-0.05860394
137	0xbdfae44f	-0.12250578
138	0x3ddcbf30	0.107786536
139	0x3dd45921	0.103685625
140	0x3c8c357d	0.017115349
141	0x3daececd	0.08535538
142	0xbdb3270a	-0.087476805
143	0xbe26ffaa	-0.16308466
144	0xbd068522	-0.03284181
145	0x3c8b810c	0.017029308
146	0xbd91dfa2	-0.07122733
147	0xbe30f8ef	-0.1728246
148	0xbd32c3a9	-0.043643627
149	0x3e0bf8cb	0.13669126
150	0xbe2e6f53	-0.17034654
151	0x3ce6a193	0.028153216
152	0x3d14332e	0.03618162
153	0xbe1b537c	-0.15168566
154	0xbc3eff7e	-0.011657594
155	0xbd37de42	-0.044889696
156	0xbcaf8051	-0.02142349
157	0xbdaa9f57	-0.08331173
158	0x3d2a91d1	0.041642968
159	0x3d9c4c5e	0.076317534
160	0xbd6a7e03	-0.05724908
161	0xbe2d141e	-0.16902205
162	0xbd9e0bd6	-0.07717101
163	0x3cde2e0e	0.02712157
164	0x3d52bb80	0.051448345
165	0x3d587cda	0.052853443
166	0xbd8218d0	-0.06352389
167	0xbb47c9c3	-0.003048525
168	0xbd956d19	-0.07296199
169	0x3d310c0b	0.043224376
170	0xbd16c511	-0.03680903
171	0xbd9d9cd0	-0.07695925
172	0x3d9d3462	0.07676007
173	0xbe2c9efa	-0.1685752
174	0xbe0f94ba	-0.14021578
175	0x3ddac5e9	0.106822796
176	0xbca37b8d	-0.019956375
177	0x3e1fb42c	0.15596074
178	0x3d396fac	0.045272514
179	0xbd32ec6a	-0.043682493
180	0x3e0a457b	0.13503067
181	0xbe505405	-0.20344551
182	0xbe138f7b	-0.14410202
183	0x3c95aba8	0.018270329
184	0xbda2a0b0	-0.07940805
185	0xbceb0842	-0.028690461
186	0x3d444bef	0.04792398
187	0xbdfb6e8f	-0.12276947
188	0x3d90b71a	0.07066174
189	0xbdc8a7ed	-0.09797654
190	0x3df678b7	0.12034743
191	0x3e0a8cb8	0.13530242
192	0xbcc175e7	-0.02361579
193	0xbdd11fbe	-0.102111325
194	0x3c0167bc	0.007898267
195	0xbe2ae0ed	-0.16687365
196	0x3d4916ca	0.049094
197	0xbd43e11c	-0.047822103
198	0xbda2b31e	-0.0794432
199	0x3da889c3	0.08229401
200	0xbe0f55d7	-0.13997589
201	0x3cf7c3f6	0.030244809
202	0xbe212d22	-0.15739873
203	0xbd0d5351	-0.034503285
204	0x3d9ddf2c	0.07708582
205	0xbac0b40f	-0.0014702099
206	0x3c31a0ce	0.0108415615
207	0x3e260ff4	0.16217023
208	0x3dbb6a34	0.09151116
209	0x3dd42590	0.10358727
210	0xbca0620b	-0.019578
211	0xbcb66733	-0.022266006
212	0x3bcdd8ab	0.0062819324
213	0x3d5641ca	0.052308835
214	0x3dcf6b9d	0.101279475
215	0xbcb6b5f7	-0.022303564
216	0x3d3e3326	0.046435498
217	0xbd6a45a9	-0.05719534
218	0x3d0df112	0.03465373
219	0xbc9b2450	-0.018938214
220	0x3e124f28	0.14288008
221	0x3e14f78c	0.14547557
222	0x3e860948	0.26178956
223	0x3bdf5f5a	0.0068167867
224	0x3d37b81f	0.044853326
225	0xbd929458	-0.071572006
226	0x3d820a01	0.06349564
227	0x3d48a21a	0.048982717
228	0xbcf0af68	-0.029380515
229	0xbd6bfbae	-0.057613067
230	0xbe145a9d	-0.14487691
231	0xbd038612	-0.03211028
232	0x3e0bab7f	0.1363964
233	0xbb4c2286	-0.0031148507
234	0x3e2ef76d	0.17086573
235	0xbcc9be1e	-0.024626788
236	0x3cd4ee14	0.02599243
237	0xbd64693b	-0.055764418
238	0xbe4d94cb	-0.20076291
239	0x3d154023	0.03643812
240	0xbd9ccb8c	-0.07656011
241	0xbd700ab2	-0.05860395
242	0xbd99e0cc	-0.0751358
243	0x3e3244dd	0.17409082
244	0x3df960c7	0.12176662
245	0x3e365d6d	0.17809077
246	0x3ce3a45f	0.02778834
247	0xbc588c3a	-0.013217026
248	0x3e2e0712	0.16994885
249	0xbd460262	-0.048342116
250	0x3c26989c	0.010168221
251	0x3d15d4db	0.036579948
252	0x3cbc599c	0.022991948
253	0x3d68e496	0.05685862
254	0xbd9ba49f	-0.07599758
255	0xbd830753	-0.06397881

lstm1.bias_ih_l0 f4 [256]
0	0x3d35447a	0.044254757
1	0xbdb012fb	-0.0859737
2	0x3b69283d	0.0035576962
3	0x3e258159	0.16162623
4	0xbde45060	-0.11148143
5	0xbcefe4ae	-0.029283848
6	0xbd704739	-0.058661673
7	0xbd23ea13	-0.040018152
8	0x3d3b8175	0.045777757
9	0xbe0e5d5f	-0.13902806
10	0x3dac1918	0.08403224
11	0x3c8bb089	0.017051952
12	0x3ca6cbd5	0.020360867
13	0x3da7c368	0.08191568
14	0xbe002d3f	-0.1251726
15	0x3dda3f0e	0.10656558
16	0xbd9c8344	-0.076422244
17	0xbd557ba0	-0.05211985
18	0xbca9cfce	-0.020728972
19	0x3d6bd406	0.05757525
20	0xbe150389	-0.1455213
21	0x3d9edfe5	0.07757548
22	0x3d7bed35	0.061505515
23	0xbd068c4b	-0.032848638
24	0xbdbebaac	-0.093129486
25	0xbcfda685	-0.030963192
26	0xbaad90c4	-0.0013241996
27	0xbd58dff8	-0.05294797
28	0x3d148e5b	0.036268573
29	0xbc80fa46	-0.01574434
30	0xbd58cac0	-0.052927732
31	0x3e00fba1	0.12595989
32	0x3bb72048	0.005588565
33	0x3df77bf2	0.120841876
34	0xbc5c5581	-0.01344812
35	0xbd1955da	-0.03743539
36	0x3ccd122f	0.025033085
37	0x3b7efa3d	0.0038906478
38	0x3cf3477d	0.029697174
39	0x3d48685c	0.04892765
40	0x3cb9223b	0.02259933
41	0x3d11f9aa	0.03563849
42	0x3d2b5c8c	0.041836306
43	0xbd928340	-0.0715394
44	0xbc703187	-0.014660246
45	0xbd9fee3d	-0.07809112
46	0x3e12be20	0.1433034
47	0xbd592aec	-0.05301945
48	0x3d7a37d5	0.0610884
49	0xbd933152	-0.071871415
50	0xbd6a66ae	-0.05722683
51	0x3bc012d2	0.0058616186
52	0xbd54cdbf	-0.051954027
53	0x3cbb924a	0.022896904
54	0xbd9128a5	-0.070878305
55	0xbcd2c0f0	-0.025726765
56	0x3bef1f0b	0.007297402
57	0x3c7ab965	0.015302991
58	0xbae69b89	-0.001759396
59	0x3d516fa5	0.051131863
60	0xbd0eb713	-0.034842562
61	0xbdb448f0	-0.08802974
62	0x3e1e2898	0.15445173
63	0xbde8ecda	-0.11373301
64	0x3d4db4b4	0.05022116
65	0xbda5ce9d	-0.08096049
66	0xbdce6a4e	-0.1007887
67	0x3dbb0e6e	0.091336116
68	0xbd978dcc	-0.074000925
69	0x3db38fa1	0.087676294
70	0x3d0d35a8	0.034475
71	0xbdefc48b	-0.117074095
72	0xbdc51b97	-0.09624403
73	0xbd16e5e1	-0.036840323
74	0xbab5f7de	-0.0013883074
75	0x3dc107d1	0.09425319
76	0x3dbba6f7	0.091627054
77	0x3dcb4b31	0.09926451
78	0x3e03ff94	0.12890464
79	0x3d384139	0.044984076
80	0xbd8556ed	-0.065107204
81	0x3be34347	0.0069355103
82	0x3dfbcf37	0.122953825
83	0x3d5da1d6	0.054109417
84	0xbd6f1379	-0.05836818
85	0xbd6efd34	-0.058346942
86	0xbd7cf6cd	-0.061758805
87	0x3d0e348a	0.034718074
88	0xbba08b5b	-0.004899425
89	0x3c22b4f2	0.009930836
90	0xbd85cfaf	-0.06533753
91	0xbc5a7211	-0.01333286
92	0x3c633b8b	0.013869177
93	0xbdce1cb6	-0.1006407
94	0x3e0a8db3	0.13530616
95	0xbe3720fb	-0.17883675
96	0x3d769d39	0.060208533
97	0xbd13f770	-0.036124647
98	0xbd26e522	-0.04074586
99	0x3daae3e6	0.083442494
100	0x3c138e43	0.009006086
101	0x3e1a2edf	0.15056942
102	0x3d7eaca5	0.062176365
103	0x3d872ff2	0.06600942
104	0x3df493f3	0.119422816
105	0x3d535855	0.051597912
106	0xbd589296	-0.05287417
107	0x3d7130c3	0.058884393
108	0x3e8857db	0.26629528
109	0x3d3d8706	0.046271347
110	0x3e2e3e62	0.17015985
111	0x3e17a2be	0.14808175
112	0x3d997908	0.07493788
113	0x3e07eba9	0.13273491
114	0x3dd78eea	0.105253056
115	0x3ccfbcf7	0.02535866
116	0x3d15d20a	0.036577262
117	0x3e36023a	0.17774287
118	0x3df36450	0.118843675
119	0x3dc34bf0	0.09535968
120	0x3d6c821f	0.05774128
121	0xbd8af0cd	-0.0678421
122	0x3d8ecf9c	0.06973192
123	0x3cbc2516	0.022966903
124	0x3e06db36	0.1316956
125	0xbd67b2a6	-0.056566857
126	0xbdcbaf87	-0.099455886
127	0x3ddca9d7	0.10774582
128	0xbe0717a9	-0.1319262
129	0xbdfd07c4	-0.12354997
130	0x3c984ba4	0.018590756
131	0x3d7a8396	0.061160646
132	0x3c22377c	0.009900924
133	0x3d6d8940	0.05799222
134	0x3e259d6a	0.1617333
135	0x3c917df0	0.017760247
136	0xbd873c2a	-0.06603272
137	0x3cc47ee0	0.02398628
138	0xbdfb492f	-0.12269818
139	0xbda42b49	-0.080160685
140	0xbd18f4f7	-0.03734299
141	0xbd280ff0	-0.041030824
142	0x3cd09852	0.025463257
143	0x3e17635d	0.14783998
144	0xbdfc2c11	-0.123130925
145	0x3c11a00f	0.008888259
146	0x3e044812	0.12918118
147	0xbc038bdd	-0.0080289515
148	0xbd8dc442	-0.06922199
149	0x3de7887a	0.11305328
150	0x3ddb9d01	0.107233055
151	0xbbcfc7c4	-0.0063409526
152	0x3bf8d3a5	0.0075935894
153	0xbdc29ca2	-0.095025316
154	0x3cdb20ad	0.02674898
155	0xbe01b90d	-0.12668248
156	0xbb643de4	-0.0034826929
157	0x3e3463f3	0.17616253
158	0x3dfbd676	0.122967646
159	0x3db025f1	0.08600987
160	0x3d892485	0.06696419
161	0xbe1f23fb	-0.15541069
162	0xbd919a39	-0.07109494
163	0x3e04703e	0.12933442
164	0x3b05438a	0.0020334446
165	0xbdca6e4e	-0.0988432
166	0x3902871e	0.00012448101
167	0x3d116dcf	0.035505112
168	0xbe134bd3	-0.14384393
169	0x3bd12b21	0.006383315
170	0x3db764bd	0.08954761
171	0x3cfe4b53	0.031041777
172	0x3dc93651	0.09824813
173	0x3dbd4700	0.09242058
174	0x3c69528f	0.014240875
175	0xbdc9a36b	-0.09845623
176	0x3dc16e3b	0.09444853
177	0x3c463a87	0.012098915
178	0x3da56a86	0.08076958
179	0x3ddb1773	0.10697832
180	0xbc65a4aa	-0.01401631
181	0x3e299500	0.16560745
182	0x3d8b902c	0.06814608
183	0x3d58709c	0.052841768
184	0xbd0ace10	-0.033887923
185	0x3d5115a8	0.051046044
186	0xba2682ba	-0.0006351877
187	0xbbb2ba5e	-0.0054543456
188	0x3c0a40b0	0.008438274
189	0x3ca3b9e9	0.01998611
190	0xbda4892b	-0.08033975
191	0xbe1b78a8	-0.15182745
192	0xbc1c02b4	-0.009522129
193	0xbd4c9655	-0.049948055
194	0x3d8952c9	0.06705243
195	0x3d63d045	0.055618543
196	0x3de0444f	0.10950529
197	0xbd719fa4	-0.058990136
198	0x3cf92561	0.030413331
199	0xbda42cff	-0.08016395
200	0xbe357f27	-0.17724286
201	0x3dc4692d	0.09590373
202	0xbcdb54ab	-0.026773771
203	0x3d4b5340	0.04963994
204	0x3e17edfe	0.1483688
205	0x3cb3f65b	0.021968057
206	0xbd898070	-0.06713951
207	0xbbb8c0a8	-0.005638201
208	0xbd8585b4	-0.065196425
209	0x3d815f70	0.063170314
210	0x3c5ddaeb	0.013540964
211	0xbd0681a8	-0.032838494
212	0xbd08db30	-0.03341216
213	0x3e126075	0.14294608
214	0x3dac8d9a	0.08425446
215	0x3d81f9b3	0.063464545
216	0x3ca89d74	0.020582892
217	0xbd8e9e2f	-0.06963765
218	0x3cc3aa16	0.023884814
219	0xbb426d2a	-0.0029667118
220	0xbd3742f8	-0.0447416
221	0x3c2e0258	0.010620676
222	0x3e0a6e69	0.1351868
223	0x3d65c75f	0.05609834
224	0xbda75803	-0.08171084
225	0x3da55db0	0.0807451
226	0xbc350e3b	-0.011050756
227	0x3d850552	0.064951554
228	0x3e113a6e	0.14182445
229	0xbd72c50d	-0.059269954
230	0x3c0ee49c	0.008721497
231	0x3b13209d	0.002244986
232	0x3da5fba1	0.08104635
233	0xbda55e75	-0.08074657
234	0x3c869714	0.016429462
235	0xbd6e9f19	-0.058257196
236	0x3dbb8a77	0.091572694
237	0x3ccd1503	0.025034433
238	0xbc175971	-0.009237633
239	0xbcd6d803	-0.02622605
240	0x3dc4ddb0	0.09612596
241	0xbd38f74f	-0.045157727
242	0x3b3c878d	0.0028767318
243	0xbd7f8948	-0.06238678
244	0xbdc62505	-0.0967503
245	0x3e41e819	0.18936194
246	0x3dad97f3	0.08476248
247	0xbdd6e790	-0.10493386
248	0x3e16a6c5	0.14712055
249	0xbdc61c49	-0.09673364
250	0x3bf71fb1	0.0075416197
251	0x3dcca314	0.09992042
252	0xbd460437	-0.048343863
253	0xbb4207fb	-0.0029606808
254	0x3d698a45	0.05701663
255	0xbc9d1dea	-0.019179303

lstm1.bias_hh_l0 f4 [256]
0	0xbbf858a8	-0.007578928
1	0xbc9a9e55	-0.018874327
2	0xbe03fb61	-0.12888862
3	0xbc6be250	-0.014397219
4	0x3d32b6b5	0.043631274
5	0x3c7b5336	0.015339663
6	0xbe0dcbea	-0.13847318
7	0xbbb098b8	-0.0053892992
8	0xbd518547	-0.051152494
9	0xbdb144ae	-0.08655678
10	0x3de2bd1f	0.11071228
11	0xbd82d589	-0.06388385
12	0x3db8e6d7	0.09028404
13	0x3cbdc24c	0.023163937
14	0xbe068eb8	-0.1314038
15	0x3d12966e	0.035787992
16	0xbd892141	-0.06695796
17	0xbddf4641	-0.10902072
18	0xbd246621	-0.04013646
19	0xbc92582a	-0.017864306
20	0xbdc1f4bc	-0.094705075
21	0x3de11acf	0.109914415
22	0x3c2b463f	0.01045376
23	0x3e13a41b	0.1441807
24	0x3dd3f3d4	0.10349241
25	0x3c30673c	0.0107668005
26	0xbdcf64e7	-0.101266675
27	0x3e080b33	0.13285522
28	0xbc10fab4	-0.008848835
29	0xbdabe05b	-0.08392402
30	0x3d6dd1c6	0.058061384
31	0x3d8443fd	0.0645828
32	0x3c714cd1	0.014727787
33	0x3dab4f84	0.08364776
34	0xbe013531	-0.12617947
35	0xbc5626b5	-0.013070752
36	0x3e018454	0.12648135
37	0x3c900791	0.017581733
38	0xbd626c82	-0.055279262
39	0x3c3856b7	0.011251143
40	0x3e1e5373	0.15461521
41	0xbdcd349d	-0.10019801
42	0xbd1c76ea	-0.038199343
43	0xbc842076	-0.01612876
44	0x3c683a15	0.014174004
45	0x3da5495b	0.08070632
46	0x3dd64860	0.10463023
47	0xbdb47f11	-0.088132985
48	0x3df379a1	0.11888433
49	0xbd94cba0	-0.07265401
50	0x3d9f4725	0.077772416
51	0x3cae82f0	0.02130267
52	0xbd3e37e9	-0.04644004
53	0xbd846365	-0.064642705
54	0xbd17ce10	-0.03706175
55	0x3d778f98	0.060439676
56	0x39563ca4	0.00020431221
57	0xbd1b3051	-0.037887875
58	0xbd70fb53	-0.05883343
59	0xbd3e14bd	-0.046406496
60	0x3daae440	0.083443165
61	0xbd5a5fb5	-0.05331393
62	0xbd1956d4	-0.03743632
63	0xbd4874b2	-0.048939414
64	0x3d9d695b	0.076861106
65	0x3de84ce0	0.11342788
66	0x3d98b7a3	0.07456901
67	0x3ca18bca	0.019719977
68	0xbdd2cf77	-0.10293477
69	0x3de1a409	0.11017615
70	0xbd8409ff	-0.06447219
71	0xbc36d976	-0.011160245
72	0xbd529f58	-0.051421493
73	0x3ce95e26	0.028487276
74	0x3c07939e	0.008274941
75	0xbbe7a3a8	-0.00706907
76	0xbce77cd1	-0.02825776
77	0x3c83a70d	0.016070867
78	0xbd72ca04	-0.05927469
79	0x3c97862e	0.018496599
80	0xbbff8be3	-0.007798658
81	0x3d84c671	0.06483162
82	0xbcb3fea3	-0.021972006
83	0x3c2771f0	0.010220036
84	0xbd8b7cc0	-0.068109035
85	0x3c1587de	0.009126632
86	0xbdc13d58	-0.094355285
87	0xbdb90fef	-0.09036242
88	0xbc427c41	-0.011870445
89	0x3d85ee72	0.065396205
90	0x3e078200	0.13233185
91	0xbce0f4f6	-0.027460556
92	0x3dc02d05	0.09383587
93	0xbca775f0	-0.02044198
94	0x3ca5b314	0.020226993
95	0xba63ba33	-0.00086871086
96	0x3cfc0591	0.030764373
97	0x3d82cac8	0.06386334
98	0xbd8963f8	-0.06708521
99	0x3d7e93ae	0.062152557
100	0xbca9663c	-0.020678632
101	0x3e46fd1c	0.19432491
102	0x3870f640	5.7449797e-05
103	0x3e5c2a6f	0.21500562
104	0x3e0856d0	0.13314366
105	0x3ce11d80	0.027479887
106	0x3b9ca7cb	0.0047807447
107	0x3df46674	0.11933604
108	0x3e84c78c	0.25933492
109	0x3d526a71	0.05137104
110	0x3c5d7153	0.013515788
111	0x3d1e2b37	0.03861543
112	0x3e0841e4	0.13306385
113	0x3d9f3c4b	0.07775172
114	0xbc1159bc	-0.008871492
115	0x3dddf2df	0.108373396
116	0x3d977638	0.07395595
117	0xbc2de3d9	-0.010613405
118	0xbd1e843f	-0.03870034
119	0xbdb725fe	-0.08942793
120	0x3d86ec97	0.06588095
121	0x3d8137c1	0.06309462
122	0xbdf42359	-0.119208045
123	0x3d2a989b	0.041649442
124	0x3dcd55d9	0.1002614
125	0xbc6da16c	-0.014503818
126	0x3d7699ff	0.060205456
127	0x3d44400c	0.047912642
128	0x3cee60f7	0.02909897
129	0xbd2901ea	-0.04126159
130	0xbd5664e2	-0.052342303
131	0x3ddfe6e4	0.10932711
132	0xbc7c3d4b	-0.015395473
133	0xbd7752cc	-0.060381696
134	0xbd2c290a	-0.042031325
135	0x3e168399	0.14698638
136	0xbdba8e72	-0.091092005
137	0x3dd0df28	0.10198814
138	0xbd8944c8	-0.06702572
139	0x3e010843	0.12600808
140	0x3b5a9ac7	0.0033356415
141	0xbd987cb3	-0.074456595
142	0x3d47d695	0.048788626
143	0x3e25d73a	0.16195384
144	0x3b451639	0.003007306
145	0x3e23a3e8	0.15980494
146	0xbc94ea82	-0.018178228
147	0x3e016ab0	0.12638354
148	0x3cfd9451	0.030954512
149	0xbdb6d356	-0.08927028
150	0xbd09f2cf	-0.033678826
151	0xbdad9a1a	-0.08476658
152	0x3be7ee3f	0.0070779617
153	0xbd14c291	-0.036318365
154	0xbd9e35ba	-0.07725091
155	0x3d6ad61f	0.057333108
156	0x3d904ef3	0.07046308
157	0x3d857afb	0.06517597
158	0x3ddc892a	0.107683495
159	0x3d2cf665	0.042227168
160	0xbe237052	-0.15960816
161	0x3d5f6baa	0.054546036
162	0x3d5247c4	0.051337972
163	0xbcc0314a	-0.023461003
164	0xbe16c963	-0.1472526
165	0xbd41fbff	-0.047359463
166	0x3d96b4e8	0.07358724
167	0x3e139cff	0.14415358
168	0x3da4cd41	0.080469616
169	0x3ca08e9e	0.019599255
170	0x3ca498db	0.020092418
171	0x3d00cceb	0.031445425
172	0xbdd1816f	-0.102297656
173	0xbc1251bf	-0.008930623
174	0xbc962645	-0.018328795
175	0xbd5865eb	-0.05283157
176	0x3e206904	0.1566506
177	0xbd1b625e	-0.037935607
178	0x3e092403	0.13392644
179	0x3e1024c9	0.14076532
180	0x3c9991a5	0.018746207
181	0xbca38074	-0.019958712
182	0xbdc7a427	-0.097481064
183	0x3d7862b3	0.060641002
184	0x3d92c569	0.07166559
185	0x3d88b3dd	0.06674931
186	0xbdfa48dd	-0.12220929
187	0x3c5a8614	0.013337631
188	0xbb9295e3	-0.0044734343
189	0x3bf32485	0.007420125
190	0x3ba50074	0.0050354544
191	0x3c839827	0.016063763
192	0xbda7983f	-0.081833355
193	0xbd8fbf48	-0.07018906
194	0x3cf2f506	0.029657852
195	0x3d57753d	0.05260204
196	0xbbad6b4e	-0.0052923327
197	0x3da99575	0.0828046
198	0xbe1c6709	-0.1527368
199	0x3d8a63f5	0.067573465
200	0xbe49b1a2	-0.19696668
201	0x3ac71055	0.0015187362
202	0xbd082085	-0.033234138
203	0xbd8be020	-0.06829858
204	0xbb956ba3	-0.0045599504
205	0xbd9ea77a	-0.07746787
206	0x3d755440	0.0598948
207	0x3e011a89	0.12607779
208	0xbc9f3019	-0.019432114
209	0x3c310f43	0.010806861
210	0x3e098599	0.1342987
211	0x3d503834	0.05083485
212	0xbd941be2	-0.07231881
213	0x3de8e944	0.11372617
214	0x3d221537	0.039571013
215	0x3d7ba484	0.06143619
216	0x3df7908b	0.12088116
217	0xbd0d0c7f	-0.034435745
218	0x3d14cb5d	0.036326755
219	0x3be10715	0.0068672993
220	0x39b0b3be	0.00033703254
221	0x3da55a44	0.080738574
222	0xbb965c07	-0.0045886072
223	0x3d553232	0.052049823
224	0xba8d17f2	-0.0010764583
225	0x3df15ffc	0.11785886
226	0xbd5f5a84	-0.05452968
227	0x3deae6b7	0.114697866
228	0x3def61c4	0.11688569
229	0x3c81b0e2	0.015831415
230	0x3e05333b	0.13007824
231	0x3cfca9a0	0.030842602
232	0xbcc4f036	-0.024040323
233	0xbc31ad8e	-0.010844601
234	0xbc3d0f42	-0.011539282
235	0xbda86bc9	-0.082236834
236	0x3d4ab827	0.049492028
237	0x3c9025ab	0.017596086
238	0x3d3eab1b	0.046549898
239	0x3d91cdb4	0.07119313
240	0x3e3b8aad	0.1831462
241	0xbb8439e9	-0.0040352237
242	0xbd2210ed	-0.039566923
243	0x3de4fd13	0.111810826
244	0xbdfcb745	-0.123396434
245	0x3d3fe68f	0.046850737
246	0xbd65b35f	-0.056079265
247	0x3de71a78	0.112843454
248	0x3def6787	0.11689668
249	0xbdc137cd	-0.09434471
250	0x3ded1283	0.115757965
251	0x3a9a0dfd	0.0011753436
252	0x3d3bc363	0.045840632
253	0xbe3063c8	-0.17225564
254	0x3dd1f628	0.10252029
255	0xbd8609d7	-0.065448456

lstm2.weight_ih_l0 f4 [256, 64]
0	0x3e0a3eba	0.13500491
1	0xbe023972	-0.12717226
2	0x3c955dae	0.018233147
3	0xbcb386c8	-0.021914855
4	0x3d7d9008	0.061904937
5	0xbc3bc702	-0.011461021
6	0xbe0a4a53	-0.13504915
7	0xbb8659d2	-0.004100063
8	0xbd9b4535	-0.075815596
9	0x3d63f209	0.055650745
10	0xbd9f3941	-0.07774592
11	0x3ded3d7d	0.115839936
12	0xbdc626f7	-0.09675401
13	0x3d8c215e	0.06842302
14	0x3d918199	0.07104797
15	0xbdcdcb97	-0.10048597
16	0x3d85f595	0.06540982
17	0x3d92829d	0.07153819
18	0x3e03a43f	0.12855624
19	0xbda6e85f	-0.0814979
20	0xbd3a42d7	-0.0454739
21	0xbda3930d	-0.07987032
22	0x3e43bd1f	0.19115113
23	0xbd513f4e	-0.051085763
24	0x3e0390a8	0.1284815
25	0x3c897506	0.016779434
26	0xbd7a2fc3	-0.061080705
27	0xbd6153ab	-0.055011433
28	0x3db1cfca	0.08682211
29	0x3dbafa1a	0.09129734
30	0x3d63b815	0.055595476
31	0x3e023dc6	0.12718877
32	0xbe1f26bc	-0.1554212
33	0xbe0f0cd6	-0.1396974
34	0xbdaf279a	-0.08552475
35	0x3c0cf892	0.008604186
36	0xbd7a10a7	-0.061051037
37	0x3e5d4a2b	0.21610324
38	0x3e2bd904	0.16782004
39	0x3c89686f	0.01677343
40	0xbe47ca0c	-0.19510669
41	0xbdffa9c3	-0.12483551
42	0x3b68d1d4	0.0035525458
43	0xbbc80f82	-0.0061053643
44	0xbcf3068b	-0.029666206
45	0x3e10dbfe	0.1414642
46	0x3dd180ed	0.10229669
47	0xbc85e24b	-0.016343256
48	0x3cf12564	0.029436775
49	0x3d5e3677	0.05425116
50	0x3cc401e1	0.023926677
51	0xbd2b807b	-0.041870575
52	0x3de43ef1	0.111448176
53	0xbd210556	-0.03931173
54	0x3a879370	0.0010343622
55	0xbe09625f	-0.13416432
56	0x3dadef5f	0.08492922
57	0x3ddfb364	0.10922888
58	0x3d193300	0.037402153
59	0x3e11cc7e	0.14238164
60	0xbdda7422	-0.10666682
61	0xbc443883	-0.011976364
62	0xbe1505f0	-0.14553046
63	0x3bbef4a5	0.0058275037
64	0x3e1cafdf	0.15301464
65	0xbdb3989f	-0.087693445
66	0x3d51c412	0.051212378
67	0x3ce9641a	0.028490115
68	0xbd79d4f7	-0.060994115
69	0xbd2eea2c	-0.042703792
70	0xbe052b2f	-0.13004754
71	0xbbeb8fd5	-0.007188777
72	0xbb8b4845	-0.0042505586
73	0x3d94f77c	0.072737664
74	0x3d973866	0.07383804
75	0xbdbf8dfa	-0.09353252
76	0xbd74e014	-0.05978401
77	0x3e399103	0.18121724
78	0xbdfbd125	-0.122957505
79	0x3d6336d5	0.055472214
80	0x3df6aeb8	0.12045044
81	0xbd7a3b67	-0.061091807
82	0x3d66f626	0.05638709
83	0x3dabef8e	0.08395301
84	0xbb9f5cd8	-0.0048633628
85	0x3deb4606	0.11487965
86	0xbca36cdc	-0.01994937
87	0xbd003d5f	-0.031308528
88	0x3c805489	0.01566531
89	0xbd62ba91	-0.055353705
90	0x3c972aac	0.018452965
91	0x3d85f125	0.06540135
92	0x3e0e3a52	0.13889435
93	0xbdab5153	-0.08365121
94	0xbde8f613	-0.1137506
95	0xbd5a310a	-0.053269424
96	0x3cca3100	0.024681568
97	0xbdf6718d	-0.12033377
98	0x3d9958a8	0.07487613
99	0xbd1a37ac	-0.03765075
100	0xbda0e66d	-0.0785645
101	0xbca49b04	-0.020093448
102	0xbdcd835b	-0.1003482
103	0xbd6e011a	-0.05810652
104	0xbe2eb3f1	-0.1706083
105	0xbd7f2f5f	-0.062301036
106	0xbd9980c2	-0.07495262
107	0x3e071bab	0.13194148
108	0xbe2d0ad9	-0.1689867
109	0xbda8bfe4	-0.08239725
110	0xbc4bd310	-0.012440458
111	0xbdf34109	-0.11877639
112	0x3e13f131	0.14447476
113	0xbe117d58	-0.14207971
114	0xbc63c160	-0.013901085
115	0x3d03de0c	0.032194182
116	0x3e598d26	0.2124525
117	0xbd477568	-0.04869595
118	0xbc25d576	-0.010121694
119	0x3cc5e290	0.024155885
120	0xba01d65f	-0.0004952903
121	0xbdcf5651	-0.101238854
122	0xbe1c8235	-0.15284045
123	0x3d440bfa	0.047862984
124	0xbd7baad4	-0.06144221
125	0x3db4a980	0.08821392
126	0xbdce845e	-0.10083841
127	0x3a4ac955	0.0007735689
128	0x3dd15bed	0.102226116
129	0x3d7ebeef	0.062193807
130	0xbc4c3a23	-0.012465033
131	0xbdb1a7ad	-0.0867456
132	0xbdc8220c	-0.09772119
133	0x3d85c24c	0.065312
134	0xbe1468a2	-0.14493039
135	0xbd747e93	-0.059691023
136	0x3db2d9a5	0.08732919
137	0x3cfa9741	0.030589702
138	0x3e0d26d3	0.13784342
139	0xbd8285fe	-0.06373213
140	0xbdba18e4	-0.09086779
141	0x3e525784	0.20541197
142	0x3b54bddc	0.0032461798
143	0xbe2cabc7	-0.16862403
144	0x3e582d7d	0.21111102
145	0xbcd7643d	-0.026292915
146	0xbd0f9325	-0.035052437
147	0xbd2fe8fc	-0.0429468
148	0x3ac4bf67	0.0015010656
149	0x3df1a8fd	0.1179981
150	0xbd14a966	-0.036294363
151	0x3c06130c	0.008183252
152	0xbd3aa693	-0.045569014
153	0xbd302e65	-0.043012995
154	0xbce57076	-0.028007727
155	0x3d836d50	0.06417334
156	0xbd8cc341	-0.06873179
157	0xbdcdac50	-0.100426316
158	0xbe36ea6f	-0.17862867
159	0xbd454a99	-0.048166845
160	0xbd269910	-0.040673316
161	0xbcd20e2c	-0.025641523
162	0xbda79e69	-0.08184511
163	0xbe1958ec	-0.14975327
164	0x3d3a9ebc	0.045561537
165	0x3c2f89a5	0.010713969
166	0x3cdba99a	0.02681427
167	0x3d8ad58c	0.06779012
168	0x3d2a4298	0.041567415
169	0x3d3e8df1	0.046522085
170	0xbdb20a15	-0.08693329
171	0xbd90fad8	-0.07079095
172	0xbdc79f1a	-0.09747143
173	0xbe07b0e4	-0.13251072
174	0xbc70de5a	-0.01470145
175	0xbda3f306	-0.080053374
176	0xbd779eed	-0.060454298
177	0xbd314204	-0.043275848
178	0xbe2293fd	-0.15876766
179	0x3ceb3628	0.028712347
180	0xbd33bd3b	-0.043881636
181	0xbe4c0158	-0.19922388
182	0x3c3ea505	0.011636023
183	0xbd6b438f	-0.057437476
184	0x3dd024f0	0.10163295
185	0xbc9d0047	-0.019165171
186	0x3d868eba	0.06570192
187	0xbdde1537	-0.1084389
188	0x3cd4b78a	0.025966424
189	0xbe2e9de2	-0.17052415
190	0xbc20a95a	-0.009806002
191	0x3d3c2b4a	0.04593972
192	0xbdae914e	-0.085238084
193	0x3d6a9a08	0.057275802
194	0x3a482f5c	0.00076364516
195	0xbe4746ef	-0.19460653
196	0x3d7af6ea	0.06127063
197	0x3d1e0333	0.03857727
198	0x3d174373	0.03692956
199	0x3d3a2305	0.045443553
200	0x3dc12c72	0.094323054
201	0x3e15fca5	0.14647157
202	0xbd0f7391	-0.035022322
203	0xbc8d61df	-0.017258583
204	0x3ca5b8f1	0.020229788
205	0xbde56ae1	-0.11202026
206	0x3da6a3a2	0.08136679
207	0x3dc8c874	0.098038584
208	0x3e24e376	0.16102394
209	0x3d90e100	0.07074165
210	0x3d9bd14f	0.07608282
211	0x3d8fbad5	0.07018057
212	0x3d6d8547	0.05798843
213	0x3d1d4fb7	0.0384061
214	0x3d292963	0.041299235
215	0xbb95951d	-0.004564895
216	0xbce190d9	-0.027534889
217	0xbdf9f48c	-0.12204847
218	0x3c40a95b	0.0117591275
219	0x3d1054bf	0.03523707
220	0xbcb04344	-0.02151645
221	0xbcec0611	-0.028811486
222	0x3da2f792	0.079573765
223	0x3c77c55c	0.015122738
224	0xbd8ed6a2	-0.06974532
225	0xbd834b31	-0.06410826
226	0xbde7a90e	-0.113115415
227	0x3de0a1d8	0.10968369
228	0xbcc52e5b	-0.024069956
229	0x3d1ddce1	0.038540725
230	0x3dc40fe1	0.09573341
231	0xbafec7e0	-0.001943823
232	0x3d8e9080	0.06961155
233	0xbc0769b4	-0.008264948
234	0x3ddfd41e	0.1092913
235	0xbcf712dd	-0.030160362
236	0x3c1756b9	0.009236985
237	0x3a8c60e4	0.0010710028
238	0xbdb4d468	-0.08829576
239	0xbd84064b	-0.06446513
240	0x3bfdc4f1	0.0077444245
241	0x3dc4c918	0.09608668
242	0x3da1a956	0.078936264
243	0xbd9423f8	-0.07233423
244	0x3d4747ed	0.04865258
245	0x3df433bd	0.11923931
246	0x3bebec54	0.0071998034
247	0xbe6af11b	-0.22943537
248	0x3d09442f	0.03351229
249	0xbd45104f	-0.048111256
250	0xbdc62c95	-0.09676472
251	0x3d8c28c1	0.06843711
252	0x3d2b68ff	0.04184818
253	0xbce70456	-0.02820031
254	0xbcd92bc4	-0.026510127
255	0xbd65b5ff	-0.056081768

lstm2.weight_hh_l0 f4 [256, 64]
0	0xbd8924a6	-0.06696443
1	0xbd89e70c	-0.06733522
2	0x3d6c4f33	0.057692718
3	0x3da89686	0.08231835
4	0xba877c40	-0.0010336712
5	0xbd9ca4e8	-0.07648641
6	0xbd0b5eba	-0.034025885
7	0xbda7d750	-0.081953645
8	0x3dc8a6c2	0.097974315
9	0xbd8dee2f	-0.069301955
10	0x3d3035a0	0.04301989
11	0x3e63b9b4	0.22238809
12	0xbac2afe8	-0.001485345
13	0xbc602f1b	-0.013683106
14	0x3d6536d8	0.055960506
15	0x3d47224c	0.048616692
16	0xbdff01d9	-0.12451524
17	0x3d949af1	0.07256115
18	0xbda49a40	-0.08037233
19	0xbc0341b7	-0.008011273
20	0xbe11dbdd	-0.14244027
21	0xbdb579dc	-0.088611335
22	0xbda6f47c	-0.081521004
23	0x3daac7a7	0.08338862
24	0x3c13e7ca	0.009027431
25	0x3d3c0607	0.045904186
26	0x3d6a85d4	0.057256535
27	0x3daeaad0	0.08528674
28	0xbd1434cd	-0.036183167
29	0x3aacf7df	0.001319643
30	0xbe052e9f	-0.13006066
31	0xbd9b6fd6	-0.075896904
32	0xbcb3fac3	-0.021970158
33	0x3d53c758	0.05170378
34	0x3e1ed5a4	0.15511185
35	0xbdb51bea	-0.08843215
36	0x3dc6246a	0.09674914
37	0x3b5f4b26	0.0034071892
38	0x3bd28584	0.0064246077
39	0xbcfa32e1	-0.03054184
40	0xbe08f16d	-0.13373347
41	0xbdb1adbd	-0.08675716
42	0xbe114588	-0.1418668
43	0xbdc17b35	-0.09447328
44	0xbce50dbb	-0.027960649
45	0xbdfb8233	-0.12280693
46	0xbdc69dce	-0.096980676
47	0xbda3c743	-0.079969905
48	0x3e086396	0.13319239
49	0xbcaecab2	-0.021336887
50	0x3dd7762a	0.10520585
51	0xbcce610a	-0.025192756
52	0x3d872e38	0.066006124
53	0xbde7db30	-0.113211036
54	0x3da4583e	0.08024643
55	0x3dbc9d61	0.09209705
56	0x3e3b0228	0.18262541
57	0x3dc27b38	0.09496158
58	0xbd6c88ee	-0.057747774
59	0x3c8b19ad	0.016980017
60	0xbc88cd55	-0.016699472
61	0xbd59b807	-0.053154018
62	0xbd834a5a	-0.06410666
63	0x3db47267	0.08810883
64	0xbd424fb9	-0.04743931
65	0xbe30acee	-0.17253467
66	0xbdd87f69	-0.105711766
67	0xbdfa11eb	-0.12210449
68	0xbcb64903	-0.022251612
69	0xbc144a22	-0.009050878
70	0x3d9119ec	0.07085022
71	0x3dca044d	0.098641016
72	0xbc943b82	-0.018094782
73	0x3cee9f4e	0.029128697
74	0x3e030fbe	0.12798974
75	0x3e29b326	0.16572246
76	0xbe27a0dc	-0.16369957
77	0xbdde2d00	-0.10848427
78	0x3c264e20	0.010150462
79	0x3db86e24	0.09005383
80	0x3e00e03f	0.12585543
81	0x3d167592	0.036733218
82	0x3e17dd1b	0.14830439
83	0xbdd52cf2	-0.10408963
84	0x3d22d66e	0.039755277
85	0x3e24cbd7	0.16093384
86	0x3dc3f2c8	0.09567791
87	0x3d819b8b	0.063284956
88	0x3e1ab304	0.15107352
89	0xbbbf90dd	-0.0058461265
90	0xbe53d933	-0.20688324
91	0xbe0a085e	-0.13479754
92	0xbcf6ea15	-0.030140916
93	0xbdbd7016	-0.09249894
94	0xbdc77ebf	-0.09740972
95	0xbdc2a525	-0.09504155
96	0x3d1b1bb2	0.03786821
97	0x3db3d06f	0.0877999
98	0x3d2a1930	0.041527927
99	0x3d8ba368	0.06818277
100	0xbe1fc772	-0.15603426
101	0x3d759958	0.059960693
102	0x3d99a20c	0.07501611
103	0x3c1c36e4	0.009534571
104	0xbe243ce5	-0.16038854
105	0xbe399ef7	-0.18127047
106	0x3d32114c	0.043473527
107	0xbd64e711	-0.055884425
108	0x3d95c740	0.073133945
109	0xbdcb2b5c	-0.099203795
110	0xbe2eb597	-0.17061459
111	0xbb7f8e5c	-0.0038994765
112	0x3c4d90ac	0.0125466995
113	0x3e6a09da	0.2285532
114	0x3ce1645d	0.027513677
115	0xbe39a7ba	-0.18130389
116	0x3dc5d36c	0.09659466
117	0x3dc3d2a0	0.09561658
118	0x3cc71d0b	0.024305841
119	0x3d2ee595	0.042699415
120	0x3d3f4282	0.046694286
121	0x3c6133c3	0.013745251
122	0x3db53d2d	0.08849559
123	0xbe23c459	-0.1599287
124	0xbd5841f0	-0.052797258
125	0xbd3cb0db	-0.0460671
126	0xbe30ab53	-0.17252855
127	0xbde1afed	-0.11019883
128	0xbdc9c08c	-0.098511785
129	0x3db3751b	0.087625705
130	0xbdf1a5cb	-0.117992006
131	0x3cae6b73	0.02129147
132	0x3c98e2f0	0.0186629
133	0xbdfefd96	-0.124507114
134	0xbdcfa552	-0.10138954
135	0xbd7235fa	-0.059133507
136	0x3d862331	0.06549681
137	0xbdd96c3b	-0.106163464
138	0x3d35bdee	0.044370584
139	0x3d8ed2d5	0.06973807
140	0x3d712d72	0.05888123
141	0x3e25a049	0.16174425
142	0xbdf4fc89	-0.1196223
143	0xbd914a01	-0.07094193
144	0x3d98bec8	0.07458264
145	0x3dcd8587	0.10035234
146	0x3de741a1	0.112918146
147	0xba949d04	-0.0011338298
148	0x3c6a3e87	0.014297134
149	0x3ce882d5	0.028382698
150	0x3e0b6c91	0.13615634
151	0xbc849f30	-0.016189188
152	0xbe03f34b	-0.12885778
153	0x3c6a5de6	0.014304614
154	0x3e2a8eb1	0.16655995
155	0x3bfa2d3e	0.007634788
156	0x3d983279	0.07431502
157	0x3c9a5a0e	0.01884177
158	0xbdc87cbe	-0.09789418
159	0xbe1194be	-0.14216897
160	0x3b8675eb	0.0041034124
161	0xbc72b1ae	-0.01481287
162	0xbd08c284	-0.03338863
163	0xbdc12948	-0.09431702
164	0x3d951dc3	0.07281067
165	0x3bbee6de	0.0058258614
166	0x3d15dd52	0.03658802
167	0x3e16f509	0.14741911
168	0x3de503b9	0.11182351
169	0x3b6a2323	0.003572651
170	0xbc9720bc	-0.018448226
171	0x3d9da834	0.07698098
172	0x3d5f1482	0.054462917
173	0x3d50278e	0.050818972
174	0xbdfc3d27	-0.123163514
175	0x3e06d040	0.13165379
176	0x3d35ba68	0.044367224
177	0xbdcd9bbe	-0.10039471
178	0xbe22de4c	-0.15905112
179	0x3da90688	0.08253199
180	0x3e4377d0	0.19088674
181	0xbce42294	-0.02784852
182	0x3e58f673	0.21187763
183	0x3d1a8941	0.03772855
184	0xbce92228	-0.02845867
185	0xbcc07eec	-0.023498021
186	0xbdb5f3d6	-0.08884399
187	0x3bd2f6a4	0.0064380933
188	0x3d7c3ebc	0.061583266
189	0xbc3cc84c	-0.011522364
190	0xbe0833f6	-0.13301072
191	0x3d4c2c96	0.049847208
192	0x3cede8f3	0.029041743
193	0x3dbc8c85	0.092064895
194	0x3d89bec7	0.06725841
195	0x3df218d9	0.118211456
196	0x3dac25b4	0.08405629
197	0xbc8f6b42	-0.0175072
198	0x3d2df7a4	0.042472497
199	0xbe082f4a	-0.1329929
200	0xbcf4798c	-0.029843114
201	0x3e3baaad	0.18326826
202	0x3d80bcd5	0.06286017
203	0x3e079770	0.13241363
204	0xbbc489a6	-0.0059978543
205	0xbcdd18c2	-0.026989345
206	0xbbbff9b3	-0.005858624
207	0x3ce4c9e4	0.0279283
208	0x3de29a89	0.110646315
209	0xbdaccdcb	-0.084376894
210	0x38da1672	0.00010399231
211	0xbdbf16d1	-0.09330524
212	0xbe1c0e93	-0.15239935
213	0x3de3c6de	0.11121915
214	0x3c45388a	0.012037406
215	0x3e132fc4	0.1437369
216	0xbd12a686	-0.03580334
217	0x3c383a23	0.01124433
218	0xbcb9e201	-0.022690775
219	0x3d9f037d	0.07764337
220	0xbd3deb11	-0.046366755
221	0xbc4bc105	-0.012436156
222	0x3d46db6c	0.0485491
223	0xbdc2a7f0	-0.09504688
224	0x3cc6c023	0.02426154
225	0xbbf1c3d7	-0.0073780823
226	0x3beb6320	0.0071834475
227	0x3df1b3a2	0.1180184
228	0x3cf19d4d	0.029493952
229	0xbdd5f1c5	-0.104465045
230	0xbd9ab35b	-0.075537406
231	0xbdb27cf1	-0.08715237
232	0xbe0146ef	-0.12624715
233	0x3d5ddb4b	0.054164212
234	0xbd37d8b2	-0.04488439
235	0x3d1e4b45	0.038646
236	0x3d44b846	0.0480273
237	0x3d2c07a7	0.041999485
238	0xbb4dd7a8	-0.0031409059
239	0x3e875b8d	0.26437035
240	0xbe0b24e5	-0.13588293
241	0x3e146558	0.14491785
242	0x3c9dd948	0.019268647
243	0xbb4dfbbe	-0.0031430568
244	0x3d42c523	0.047551285
245	0xbd8b509c	-0.068024844
246	0x3dbf5e3b	0.09344145
247	0x3a982ba3	0.0011609684
248	0x3d90664d	0.07050762
249	0x3d48144b	0.048847478
250	0x3d22dccb	0.039761346
251	0x3dcd6931	0.10029829
252	0xbd979a89	-0.07402522
253	0xbdee622c	-0.116398185
254	0xbc8c7859	-0.01714723
255	0xbdca63ff	-0.09882354

lstm2.bias_ih_l0 f4 [256]
0	0xbe29686b	-0.16543739
1	0x3c4b4ef5	0.012408962
2	0xbd82c5d9	-0.06385393
3	0x3d829f27	0.06378012
4	0x3cad4cfd	0.021154875
5	0x3e064c14	0.13114959
6	0x3d1e342e	0.03862398
7	0x3db301f2	0.087406054
8	0x3ce56bf8	0.028005585
9	0x3c624734	0.013810921
10	0x3cfcd2d8	0.030862257
11	0xbcc616bf	-0.024180768
12	0x3c0c87d5	0.008577307
13	0x3cd12f56	0.025535267
14	0xbd23b7e5	-0.039970297
15	0x3b2a7932	0.002601218
16	0xbd9255fb	-0.07145306
17	0x3c8558c5	0.01627768
18	0xbddf1851	-0.1089331
19	0x3e2065d6	0.15663847
20	0xbadb8914	-0.0016749226
21	0xbc839b0c	-0.016065143
22	0xbd8526a9	-0.065015145
23	0x3d249d56	0.04018911
24	0x3c384444	0.011246745
25	0xbd7a3622	-0.06108678
26	0xbdeb589c	-0.1149151
27	0x3b250e67	0.0025185586
28	0x3dc82183	0.09772017
29	0xbc8e449d	-0.017366702
30	0x3dae1d32	0.08501662
31	0xbddbb5ee	-0.1072806
32	0xbdb75de0	-0.08953452
33	0xbda81421	-0.08206964
34	0x3e8e6c58	0.27817035
35	0xbde7de34	-0.11321679
36	0xbe1ff092	-0.15619114
37	0x3e4fe7e0	0.20303297
38	0x3dc38e62	0.09548642
39	0x3d2442f9	0.040102933
40	0xbd0de361	-0.034640674
41	0x3c89d083	0.016823059
42	0xbdd2efe3	-0.10299661
43	0x3df7cf71	0.12100113
44	0xbcf9dd12	-0.030500922
45	0xbd9ae96d	-0.07564054
46	0x3e0ef603	0.13961034
47	0x3d8a2c73	0.06746759
48	0x3bf8a9e1	0.0075886105
49	0x3dc871b6	0.09787314
50	0x3da26e47	0.0793119
51	0x3cce2320	0.025163233
52	0x3d331a0b	0.04372601
53	0x3c384f16	0.011249324
54	0x3d7ed0b9	0.062210772
55	0x3db62d0e	0.08895312
56	0xba5e0c75	-0.0008470484
57	0xbd2d9ae4	-0.042384043
58	0xbce9f562	-0.02855939
59	0xbdd58c3e	-0.1042714
60	0xbcb316cb	-0.021861454
61	0x3de9d47d	0.11417482
62	0x3dc4d6ed	0.09611306
63	0xbe062406	-0.1309968
64	0x3da0199e	0.07817386
65	0x3da9792f	0.08275067
66	0xbcf2cc28	-0.029638365
67	0x3d1bebca	0.038066663
68	0x3d0ab92a	0.033867992
69	0x3dd2fd4b	0.10302218
70	0xbcb0adfd	-0.02156734
71	0x3de3f6d4	0.11131063
72	0xbc25c728	-0.010118283
73	0x3ccbea19	0.0248919
74	0x3dc48216	0.095951244
75	0x3d3ba86d	0.04581492
76	0x3d99a183	0.07501509
77	0x3dc0b3cd	0.09409294
78	0x3df0c91e	0.1175711
79	0x3e21ddfa	0.15807334
80	0xbda14c3a	-0.07875867
81	0x3d6f2d88	0.05839303
82	0x3e1017b9	0.1407155
83	0xbda691f1	-0.08133305
84	0xbd505ac5	-0.050867815
85	0x3ded554c	0.11588535
86	0xbccbb5ba	-0.024866927
87	0xbcf3da55	-0.029767195
88	0xbc7000bc	-0.014648613
89	0x3d16a4f8	0.03677842
90	0x3e15c2d2	0.146251
91	0x3e5b0c39	0.21391381
92	0x3de3b68f	0.11118805
93	0x3cb8c973	0.022556996
94	0x3cf4294c	0.029804848
95	0xbcdbeba4	-0.02684576
96	0x3d8f4ea8	0.06997424
97	0x3d8260d1	0.063661225
98	0xbc857312	-0.016290221
99	0xbd2496a8	-0.04018274
100	0xbca919df	-0.02064222
101	0x3dbaa214	0.09112945
102	0x3e111903	0.14169697
103	0xbe0069ee	-0.12540409
104	0x3de33701	0.110944755
105	0x3e590e88	0.2119695
106	0x3da8b028	0.08236724
107	0xbe079bd1	-0.13243033
108	0x3dab3c71	0.08361138
109	0x3e09f333	0.1347168
110	0x3dfa8f8a	0.12234409
111	0x3cae838a	0.021302957
112	0xbd17c7c0	-0.03705573
113	0x3dc130c0	0.094331264
114	0x3d8f9642	0.07011081
115	0x3c021380	0.0079392195
116	0x3e2a8f97	0.16656338
117	0x3da6b4d5	0.0813996
118	0x3d9dfebe	0.07714604
119	0xbd8c8686	-0.06861596
120	0x3dfff85b	0.12498542
121	0x39180bff	0.00014500319
122	0xbd8e5288	-0.06949335
123	0x3e28aad7	0.1647142
124	0xbd746e12	-0.059675284
125	0x3d0edc7e	0.034878246
126	0x3cc69ee0	0.02424568
127	0x3c6841cf	0.014175846
128	0x3d3b0f5e	0.045668952
129	0x3d6da5bd	0.05801939
130	0x3ce980ee	0.028503861
131	0x3b73c18c	0.003719422
132	0x3c407073	0.01174556
133	0xbd2e9af6	-0.04262825
134	0xbdb2c300	-0.087285995
135	0xbcc61661	-0.024180593
136	0xbdc7bb5e	-0.09752534
137	0x3e3109da	0.17288914
138	0xbc3c7bb5	-0.011504103
139	0x3e24f185	0.16107757
140	0xbc801055	-0.015632788
141	0xbd2bedae	-0.041974716
142	0xbd6ae724	-0.05734934
143	0x3deddc7b	0.11614319
144	0x3c175837	0.009237341
145	0x3d2365a2	0.039891846
146	0x3c87125f	0.016488252
147	0x3d6be3bf	0.057590242
148	0x3dbc96fa	0.09208484
149	0x3d32cca0	0.043652177
150	0xbca9c84c	-0.020725392
151	0x3d2868f0	0.0411157
152	0xbda5577c	-0.08073327
153	0xbc402eb6	-0.011729887
154	0x3e1312ab	0.1436259
155	0x3c0e036b	0.008667807
156	0x3df95217	0.121738605
157	0xbd8db72b	-0.06919702
158	0xbd6cd406	-0.05781939
159	0xbdfd8633	-0.12379112
160	0xbd69a646	-0.057043336
161	0x3df70d3b	0.120630704
162	0x3bb01118	0.0053731315
163	0x3d77e28f	0.060518797
164	0xbd0c93d9	-0.034320686
165	0xbd7978ad	-0.0609061
166	0x3dc64424	0.096809655
167	0x3db6aa80	0.08919239
168	0xbd86521f	-0.06558632
169	0xbbb78fe5	-0.0056018704
170	0x3e1f811f	0.155766
171	0x3d9bb893	0.07603564
172	0xbd05312d	-0.0325176
173	0xbd825426	-0.06363706
174	0xbdda7f79	-0.10668845
175	0x3dba3e10	0.09093869
176	0xbd98770f	-0.074445836
177	0xbe057701	-0.13033678
178	0x3cf94c6c	0.030431949
179	0x3e02f7b0	0.12789798
180	0x3d936de7	0.071986966
181	0x3e08c28b	0.13355462
182	0x3dd9c9ba	0.106341794
183	0xbd956179	-0.07293982
184	0x3d6ac5fa	0.05731771
185	0x3d9bab0f	0.07600986
186	0xbd9e5532	-0.077310935
187	0x3df5fdab	0.12011274
188	0xbd0342b7	-0.032046046
189	0xbc8dca0c	-0.017308258
190	0xbd81678c	-0.06318578
191	0x3b60ff60	0.0034331903
192	0xbc43f318	-0.011959814
193	0x3e488ba2	0.19584516
194	0xbd436b4d	-0.047709752
195	0x3df5109e	0.1196606
196	0x3d824441	0.06360675
197	0x3e03c544	0.1286822
198	0xbad98fd6	-0.0016598653
199	0x3d4eee02	0.05051995
200	0x3d8c19ef	0.06840884
201	0x3d516de3	0.051130187
202	0x3d21e83a	0.03952811
203	0x3d8c6a37	0.068561964
204	0x3d85eab7	0.06538909
205	0x3e1fb911	0.15597941
206	0xbe036851	-0.12832762
207	0x3dc53237	0.09628718
208	0xbc6e361f	-0.014539271
209	0xbdadd820	-0.08488488
210	0x3d89b611	0.067241795
211	0x3d058080	0.03259325
212	0x3e77a91c	0.24185604
213	0x3dc87900	0.09788704
214	0x3cecf5db	0.028925827
215	0x3dade065	0.084900655
216	0x3dbd351e	0.09238647
217	0x3db50587	0.08838945
218	0x3db2bf6d	0.08727918
219	0x3e574f9d	0.21026464
220	0x3d5cbdd5	0.053891975
221	0x3dd84203	0.10559466
222	0x3c10095c	0.008791294
223	0xbca214c2	-0.019785289
224	0x3dc002e4	0.09375551
225	0x3d93fc29	0.0722583
226	0x3ddf2d52	0.10897316
227	0xbd082aac	-0.03324382
228	0xbcf0a602	-0.029376034
229	0x3d8e6468	0.06952745
230	0x3d620f8e	0.055190615
231	0x3dcb9d6a	0.09942134
232	0x3e178359	0.14796199
233	0x3d0db4a5	0.034596104
234	0xbc8230a2	-0.01589233
235	0xbd38a4d6	-0.045079075
236	0xbd975ab4	-0.07390347
237	0x3ac42d14	0.0014967048
238	0x3e3d3151	0.18475844
239	0xbb56e142	-0.0032788073
240	0x3d70ec71	0.058819238
241	0xbd025bbd	-0.03182577
242	0x3e27eda0	0.1639924
243	0x3d875606	0.066082045
244	0x3cb2cc84	0.021826036
245	0xbcbfe0c6	-0.02342261
246	0x3e20e131	0.15710904
247	0x3da70869	0.08155901
248	0xbd54483e	-0.051826708
249	0x3e454306	0.19263849
250	0xbcb4103a	-0.021980394
251	0xbd87c2a5	-0.066289224
252	0xbd5f6768	-0.054541975
253	0x3de425d7	0.1114003
254	0xbd728d0d	-0.059216548
255	0xbc93bea1	-0.018035235
