saved_model/DAP_Model_Combo1.pt (torch, 232066 bytes, 12 tensors)

lstm1.weight_ih_l0 f4 [256, 4]
0	0xbd19b152	-0.03752262
1	0x3d75e76b	0.06003515
2	0xbc883d35	-0.016630748
3	0xbe18eeef	-0.14934896
4	0xbd666a51	-0.056253735
5	0x3d8738c3	0.06602623
6	0xbe9e3959	-0.30903128
7	0x3d94c66c	0.072644085
8	0xbd81c79d	-0.06336901
9	0xbbac4ab4	-0.0052579287
10	0x3d7b8fed	0.061416555
11	0xbd858d98	-0.065211475
12	0xbe157a1e	-0.14597365
13	0xbdb25085	-0.08706764
14	0x3b86c574	0.0041128937
15	0x3c8239ab	0.015896639
16	0x3d973108	0.07382399
17	0x3ded8a68	0.115986645
18	0xbdb88896	-0.09010427
19	0x3e17c1d3	0.14820032
20	0x3c0873c5	0.008328383
21	0x3d3bdefe	0.04586696
22	0xbda7b42f	-0.08188664
23	0x3dc9e564	0.09858206
24	0x3dbbf9df	0.091785185
25	0xbd21b480	-0.03947878
26	0xbba1e253	-0.00494031
27	0x3e95b88c	0.2924236
28	0x3d232d1a	0.039837934
29	0x3e1958aa	0.14975229
30	0x3dfb6801	0.122756965
31	0x3d3d79e4	0.046258822
32	0xbd2d207c	-0.042267308
33	0xbe4dac8f	-0.20085357
34	0x3d8313aa	0.06400235
35	0x3d53c7e3	0.0517043
36	0x3e127d0d	0.14305516
37	0x3dceaa51	0.10091079
38	0x3ddac9ed	0.106830455
39	0x3e840126	0.25782126
40	0xbd49a583	-0.04923011
41	0x3d6e8c80	0.05823946
42	0xbe0d2332	-0.13782957
43	0x3d3b6e91	0.04575974
44	0xbe0ba0a4	-0.13635498
45	0x3d0855db	0.033285003
46	0xbd79e1f9	-0.06100652
47	0xbd19c883	-0.03754474
48	0x3d02cc76	0.03193327
49	0x3d406f15	0.046980936
50	0xbd87dffa	-0.06634517
51	0x3d2513a3	0.04030193
52	0xbd80712d	-0.062715866
53	0x3d5e141e	0.054218404
54	0x3e9995d3	0.2999712
55	0x3e19d31a	0.15021935
56	0x3dcc3e85	0.09972862
57	0xbb65b573	-0.003505078
58	0x3e7f2513	0.24916486
59	0x3c9a3030	0.018821806
60	0xbddfee73	-0.109341525
61	0xbe1423f7	-0.14466844
62	0x3e099790	0.13436723
63	0x3e127757	0.14303337
64	0xbd11b505	-0.035573024
65	0xbd86401e	-0.06555198
66	0x3e2963d5	0.16541989
67	0xbdf1fc1c	-0.11815664
68	0xbe415dde	-0.18883464
69	0x3dcec26e	0.10095678
70	0x3d4a3551	0.049367253
71	0xbd036963	-0.032082926
72	0xbcbf8c5f	-0.023382364
73	0xbd34426a	-0.04400865
74	0x3d853888	0.06504923
75	0x3d44ae51	0.048017804
76	0x3e13d61d	0.14437146
77	0xbe0b8a52	-0.13626984
78	0xbdfe061e	-0.124035105
79	0x3e5d5533	0.21614532
80	0x3b567c0e	0.003272775
81	0x3c7881c6	0.015167659
82	0xbdb5efe5	-0.08883647
83	0xbe959034	-0.2921158
84	0x3dcd74a8	0.10032016
85	0xbc81be4d	-0.015837813
86	0x3cbdb02c	0.023155294
87	0xbdd85deb	-0.105647884
88	0xbdf2813f	-0.11841058
89	0x3d975973	0.07390108
90	0x3e174f33	0.14776306
91	0xbcb1797d	-0.021664375
92	0x3e311d9f	0.17296456
93	0x3dab9804	0.08378604
94	0x3de6d2b6	0.11270659
95	0xbe6a8e76	-0.22905907
96	0xbe47c7df	-0.19509839
97	0xbcb2da77	-0.021832688
98	0x3ca9de2a	0.020735819
99	0x3e031f06	0.12804803
100	0xbda582df	-0.08081602
101	0xbcda4a34	-0.026646711
102	0x3d8567a8	0.065139115
103	0x3d8138ac	0.063096374
104	0x3b017036	0.001975072
105	0xbdc96939	-0.09834523
106	0xbc8c765d	-0.017146284
107	0x3b9e9285	0.004839244
108	0x3e1fe194	0.15613395
109	0x3db786b4	0.089612395
110	0x3e47893f	0.19485949
111	0x3d07eb59	0.03318343
112	0xbd84d9d2	-0.064868584
113	0xbd393e29	-0.045225296
114	0xbd643b19	-0.055720422
115	0xbe80be62	-0.2514525
116	0xbca6d0ce	-0.020363238
117	0x3d46d068	0.048538595
118	0xbd437094	-0.047714785
119	0xbe39669a	-0.18105546
120	0xbd36f411	-0.044666354
121	0xbe1b999a	-0.15195313
122	0x3d2dfa92	0.04247529
123	0x3d340c82	0.04395724
124	0x3b4dd6d5	0.0031408567
125	0xbda6879d	-0.08131335
126	0xbdfef6cc	-0.124494165
127	0x3d89d01c	0.06729147
128	0x3e30ce8b	0.1726629
129	0xbcc958f3	-0.024578547
130	0x3d833d34	0.06408158
131	0x3e5c95a4	0.21541458
132	0x3e076ab8	0.13224304
133	0xba7d0728	-0.00096522504
134	0x3b3ab5fe	0.0028489823
135	0xbaf9fc30	-0.001907235
136	0xbdba1509	-0.090860434
137	0xbd0ae3ad	-0.033908535
138	0xbe4f54a4	-0.20247132
139	0x3d8df010	0.06930554
140	0x3e71b178	0.23602855
141	0xbbd04709	-0.0063561243
142	0x3e4c706b	0.19964759
143	0xbcb081e4	-0.021546312
144	0xbdb6789a	-0.08909722
145	0x3d2a52aa	0.04158274
146	0x3e0c263c	0.1368646
147	0x3cdb0fe1	0.02674097
148	0xbdb87e35	-0.09008447
149	0x3d91e8fa	0.07124515
150	0xbd8e7adb	-0.069570266
151	0x3e2ed698	0.17074049
152	0x3ab2343b	0.0013595888
153	0xbd8afb97	-0.06786268
154	0x3e504270	0.20337844
155	0x3e0970e4	0.1342197
156	0x3de8b767	0.11363106
157	0xbca8dd65	-0.020613382
158	0x3da6bfe1	0.08142067
159	0xbdffeb2f	-0.124960296
160	0xbdaa075d	-0.08302186
161	0xbd9cc97e	-0.07655619
162	0xbe2ad9ab	-0.16684596
163	0xbd49707f	-0.04917955
164	0x3d73d3a8	0.059528023
165	0xbcf3e529	-0.029772358
166	0x3d4521df	0.048128005
167	0xbe54c68f	-0.20778869
168	0x3e7499db	0.23886816
169	0xbc825ef1	-0.015914412
170	0x3cb07ebb	0.021544805
171	0xbc51017a	-0.0127567
172	0xbda3dd15	-0.080011524
173	0xbe12fca7	-0.14354192
174	0x3de81e39	0.113338895
175	0xbc8c4e75	-0.017127255
176	0x3dc6b151	0.09701789
177	0x3d5dd0a2	0.054154046
178	0xbd34ead3	-0.04416926
179	0x3e5e4c39	0.21708764
180	0x3ddcf04a	0.10788019
181	0x3e1a0154	0.15039569
182	0xbd1b2af3	-0.037882756
183	0xbe81e25f	-0.2536802
184	0x3db84096	0.08996694
185	0x3d04bf58	0.032409042
186	0x3d2f5bdb	0.04281221
187	0x3d6031de	0.054735057
188	0x3d2ba464	0.041904822
189	0x3cf71d6c	0.030165397
190	0xbe5bd17e	-0.21466634
191	0x3d2c6339	0.042086814
192	0xbcc2d0b9	-0.023781167
193	0x3de7a90d	0.11311541
194	0xbda73a09	-0.08165366
195	0xbdebe38f	-0.11518013
196	0xbd5dd0fb	-0.054154377
197	0x3e05d0df	0.13067959
198	0x3de3260f	0.110912435
199	0xbe870820	-0.26373386
200	0x3d3a730f	0.045519885
201	0x3cb9153a	0.02259313
202	0x3d912e7c	0.07088944
203	0x3cb59f34	0.02217064
204	0xbd4489a1	-0.047982816
205	0xbd625467	-0.055256274
206	0x3d3f8594	0.04675825
207	0xbd20b2ad	-0.0392329
208	0x3c99a727	0.018756462
209	0xbdc3feb8	-0.09570068
210	0x3e3fe72a	0.18740526
211	0x3dffebe4	0.124961644
212	0x3d367a53	0.04455025
213	0x3e627def	0.22118352
214	0x3d48c1d5	0.049012978
215	0xbd068124	-0.032838
216	0x3e04ac71	0.12956406
217	0xbb83a8b6	-0.0040179146
218	0xbca064bc	-0.019579284
219	0xbdf6ac11	-0.12044538
220	0x3d306162	0.04306162
221	0xbc7a504d	-0.015277934
222	0x3dc237f8	0.094833314
223	0xbd7983ce	-0.060916714
224	0x3dc699c7	0.096972995
225	0xbe3b5f90	-0.18298173
226	0x3bb886fc	0.0056313258
227	0xbe479f87	-0.19494449
228	0xbdf44cad	-0.11928687
229	0xbdda9af6	-0.10674088
230	0xbe97ecea	-0.2967294
231	0xbe8d55f7	-0.27604648
232	0xbc16bab7	-0.00919979
233	0x3d9af237	0.0756573
234	0x3c1e791e	0.009672431
235	0xbdf0ff13	-0.117674015
236	0xbe03758b	-0.12837808
237	0xbd4f1ddc	-0.050565585
238	0x3d351103	0.044205677
239	0xbd1a9ac8	-0.037745267
240	0xbb39a25a	-0.002832553
241	0x3de8afc4	0.1136165
242	0xbe4e95b5	-0.20174296
243	0x3e4f31f3	0.20233898
244	0xbcbcd2cc	-0.023049735
245	0xbda143df	-0.078742735
246	0xbc7189f3	-0.014742362
247	0x3ea8bc99	0.3295639
248	0xbd8b5d71	-0.06804932
249	0xbe0fb348	-0.14033234
250	0xbe11c8e7	-0.14236794
251	0x3ea1520f	0.31507918
252	0x3cde554e	0.027140286
253	0xbe1b999b	-0.15195315
254	0xbd80c43d	-0.062874295
255	0xbe652a2e	-0.22379372

lstm1.weight_hh_l0 f4 [256, 64]
0	0x3d931dca	0.07183416
1	0xbdc5f044	-0.09664968
2	0x3d76057e	0.06006383
3	0x3db26698	0.087109745
4	0xbd8be381	-0.06830502
5	0x3de3fa38	0.1113171
6	0x3c841809	0.016124742
7	0x3dc79d5e	0.09746812
8	0x3dcdf5fe	0.10056685
9	0x3db7203e	0.089416966
10	0x3dcb2a83	0.09920218
11	0x3dad4b13	0.08461585
12	0xbd9b2df5	-0.07577125
13	0xbd94b8a1	-0.07261778
14	0x3d97ad79	0.07406134
15	0x3c624aa0	0.013811737
16	0xbd6af92f	-0.057366546
17	0x3d27eabd	0.04099535
18	0x3d654bff	0.05598068
19	0xbe3019f3	-0.17197399
20	0x3e06f46f	0.13179182
21	0x3d5c937a	0.053851582
22	0x3dc28dfb	0.09499737
23	0xbd891e5b	-0.06695243
24	0x3e248531	0.16066433
25	0xbdbbdf58	-0.09173459
26	0x3e0a58ab	0.13510387
27	0x3db8f9ad	0.09031997
28	0xbdd20e5e	-0.102566466
29	0xbd2cea4f	-0.04221564
30	0xbe39a73e	-0.18130204
31	0xbe0b591c	-0.13608211
32	0xbdb289de	-0.08717702
33	0x3e16482b	0.14675967
34	0xbe215802	-0.15756229
35	0xbd1235f5	-0.03569599
36	0xbd886dab	-0.066615425
37	0x3d1d4d6f	0.038403925
38	0x3d3da58b	0.046300452
39	0xbe261bbc	-0.16221517
40	0x3e119d25	0.14220102
41	0x3d83ad56	0.064295456
42	0xbb349c77	-0.002755908
43	0xbd44bd52	-0.048032112
44	0x3d8d4396	0.068976566
45	0x3dedec0c	0.11617288
46	0x3d0f2268	0.03494492
47	0xbdca78b7	-0.09886306
48	0xbdc3389a	-0.0953228
49	0x3bf51a43	0.0074799373
50	0xbe332e07	-0.17498027
51	0x3e2af454	0.16694766
52	0x3c82971f	0.0159412
53	0xbdf0f118	-0.11764735
54	0xbdc7a0cb	-0.09747466
55	0xbe126ad5	-0.14298566
56	0xbde9f673	-0.114239596
57	0xbdc7c64f	-0.09754621
58	0xbde3140b	-0.11087807
59	0xbe653cef	-0.22386526
60	0xbd2c66f3	-0.042090368
61	0x3c8af9c0	0.016964793
62	0xbbc78bdc	-0.0060896706
63	0xbe7e93a0	-0.24861002
64	0x3d88ce95	0.066800274
65	0x3b2328f1	0.002489623
66	0xbb502ba5	-0.0031764295
67	0xbd930362	-0.071783796
68	0xbdc0e986	-0.09419541
69	0xbd421285	-0.047380943
70	0x3d1486a1	0.036261205
71	0x3e02c994	0.12772208
72	0xbe4e00e9	-0.20117535
73	0x3d9ef938	0.077623785
74	0x3e3825bf	0.17983149
75	0x3e05f561	0.13081886
76	0x3bffdc38	0.0078082345
77	0xbc9ab5f6	-0.018885594
78	0xbc3d9f26	-0.0115735885
79	0x3e0705be	0.13185784
80	0xbcee2187	-0.029068721
81	0xbe2885d2	-0.16457298
82	0xbb91b641	-0.004446775
83	0xbdfda57c	-0.12385079
84	0x3ddad334	0.10684815
85	0x3e10e8a5	0.14151247
86	0xbe64c9fd	-0.22342677
87	0x3a0d18a5	0.00053823955
88	0x3d08b5d9	0.03337655
89	0x3d8ccf50	0.06875479
90	0xbd57ff89	-0.05273393
91	0x3ca75481	0.020426037
92	0xbd91c8ca	-0.071183756
93	0xbc5dbf1e	-0.013534335
94	0x3ddb1156	0.10696666
95	0x3d80984b	0.062790476
96	0xbdb48539	-0.08814473
97	0x3e1721c7	0.14758979
98	0x3d1f79bd	0.038934458
99	0x3cba724f	0.022759585
100	0x3e259b98	0.16172636
101	0xbe208be0	-0.15678358
102	0x3d14f576	0.036366902
103	0xbd0806c7	-0.03320959
104	0x3e2f2d4b	0.17107122
105	0xbde7ba8a	-0.113148764
106	0x3cc86400	0.024461746
107	0xbe3638d8	-0.17795122
108	0xbd7e1665	-0.062033076
109	0x3d57c152	0.0526746
110	0x3d64934c	0.055804536
111	0xbc7db5a4	-0.015485201
112	0x3e0d9f80	0.13830376
113	0xbc9a7731	-0.018855663
114	0xbe2d62fc	-0.16932291
115	0xbe832a6e	-0.2561831
116	0x3d3e0582	0.04639197
117	0xbd121332	-0.035662837
118	0xbd5cc23a	-0.053896166
119	0xbc91a243	-0.017777568
120	0x3dce0546	0.100595996
121	0xbde6971a	-0.11259289
122	0xbd776b42	-0.060405023
123	0x3a1d502c	0.0006001021
124	0xbdcb3ddb	-0.09923907
125	0x3bcbee59	0.0062234816
126	0x3d43f6dc	0.047842845
127	0x3c7c1bd9	0.015387499
128	0xbdb5775e	-0.08860658
129	0x3e027d51	0.12743117
130	0xbe0e09cb	-0.13870923
131	0x3e124040	0.14282322
132	0x3da27281	0.07931996
133	0x3c77d921	0.015127451
134	0x3c9b1846	0.018932473
135	0x3dc8d19a	0.09805603
136	0xbd923c3b	-0.07140394
137	0xbe173066	-0.14764556
138	0xbc63388a	-0.01386846
139	0x3d4a70ab	0.049423855
140	0x3d9b1725	0.07572774
141	0x3c565c1d	0.013083485
142	0xbd68b53e	-0.05681347
143	0x3e93e49b	0.2888535
144	0x3d0672d4	0.032824352
145	0x3c488233	0.012238073
146	0x3db90ea0	0.090359926
147	0x3bdfed84	0.006833734
148	0x3d6e8de0	0.05824077
149	0xbdb3de86	-0.08782677
150	0xbe411d63	-0.18858866
151	0xbc8afacd	-0.016965294
152	0x3c51849d	0.012787965
153	0xbdccad44	-0.09993985
154	0x3d82b209	0.06381614
155	0xbde96284	-0.113957435
156	0xbe10c485	-0.14137466
157	0x3aef50dd	0.0018258352
158	0xbd7d579c	-0.06185113
159	0xbd540ba0	-0.0517689
160	0xbd29cc26	-0.041454457
161	0x3de4dfc5	0.11175493
162	0xbcfb68cb	-0.030689618
163	0xbdd3a7d9	-0.10334749
164	0xbd1e369a	-0.03862629
165	0xbdcbc76b	-0.09950145
166	0xbc6f2920	-0.014597207
167	0xbb113e29	-0.0022162294
168	0xba938f0c	-0.0011257841
169	0x3d958865	0.07301406
170	0x3df4243b	0.11920973
171	0xbe51607c	-0.20446962
172	0x3da80dab	0.08205732
173	0xbd41a621	-0.047277573
174	0xbd7e75a9	-0.06212393
175	0x3b7582ad	0.0037461922
176	0x3c528180	0.012848258
177	0x3d9c2dca	0.07625921
178	0xbe38a93f	-0.18033312
179	0xbe4493c2	-0.1919699
180	0x3e00ff3c	0.12597364
181	0xbe3d9db4	-0.1851719
182	0x3d2c510f	0.04206949
183	0xbe766b77	-0.24064432
184	0x3e072f7f	0.13201712
185	0xbe1997f4	-0.14999372
186	0xbdb67bf1	-0.08910359
187	0xbdb0fab6	-0.08641569
188	0xbe19530e	-0.14973089
189	0x3c65763f	0.014005243
190	0x3e376b9c	0.17912143
191	0xbdb55103	-0.088533424
192	0x3d96058d	0.073252775
193	0x3b412e52	0.0029477072
194	0xbc94696a	-0.018116672
195	0x3e51c92e	0.204869
196	0xbb685d96	-0.0035456172
197	0x3c8cc9b5	0.017186025
198	0x3d0d3f55	0.034484226
199	0x3cf56880	0.029957056
200	0x3e135c2e	0.14390633
201	0x3de2416f	0.11047637
202	0x3d0f2405	0.03494646
203	0xbdd9ebe7	-0.10640698
204	0xbddd2e9b	-0.10799905
205	0xbe600559	-0.2187704
206	0x3df77d94	0.12084499
207	0xbe8b04ef	-0.27152202
208	0x3d0e1ddb	0.03469644
209	0x3e43450a	0.19069305
210	0xbdf2ef61	-0.11862064
211	0xbdef6ff2	-0.11691274
212	0x3d9f50fd	0.07779119
213	0xbd33589d	-0.04378568
214	0x3c3ee92f	0.011652275
215	0x3e0bb0d7	0.13641678
216	0xbd85bf71	-0.06530655
217	0xbe6a6a7b	-0.22892182
218	0x3d7b3d91	0.06133801
219	0xbc0c676b	-0.008569579
220	0xbd4c23bc	-0.049838766
221	0xbe15020f	-0.14551567
222	0xbe00165d	-0.12508531
223	0x3c8a9c28	0.016920164
224	0x3d980e92	0.07424654
225	0x3e12dde7	0.14342462
226	0xbdec9072	-0.11550988
227	0x3cde6734	0.02714882
228	0xbbf6555c	-0.0075175
229	0xbd686262	-0.05673445
230	0x3dfa7085	0.12228493
231	0x3da402c3	0.08008339
232	0xbd2cdbc9	-0.04220179
233	0xbd02c1bb	-0.031923037
234	0xbbda871c	-0.0066689383
235	0x3d80bb67	0.06285744
236	0xbdd5bae3	-0.104360364
237	0xbc55be61	-0.013045878
238	0x3dba24b9	0.090890355
239	0x3cf53448	0.029932156
240	0x3d32950b	0.04359917
241	0x3d257a6f	0.040399965
242	0x3bb29b01	0.005450607
243	0x3de14d39	0.11001057
244	0xbe3e879e	-0.18606421
245	0x3d9eb201	0.07748795
246	0x3d840294	0.06445804
247	0x3c36d866	0.011159992
248	0xbb5ac1b7	-0.0033379623
249	0x3de31966	0.11088829
250	0xbcb0efbe	-0.021598693
251	0xbd77b19b	-0.060472112
252	0x3e16b42b	0.14717166
253	0xbd270f64	-0.040786162
254	0xbdc9540d	-0.098304845
255	0xbd917045	-0.07101492

lstm1.bias_ih_l0 f4 [256]
0	0xbe4de711	-0.20107676
1	0x3cd27316	0.025689643
2	0xbe19ac40	-0.15007114
3	0xbc4d3f2c	-0.012527268
4	0x3e2b087f	0.1670246
5	0xbd33eb42	-0.04392553
6	0x3da48955	0.080340065
7	0x3d3bfb8f	0.0458942
8	0x3a62197b	0.00086250127
9	0xbd0d58cf	-0.034508523
10	0xbe8385c0	-0.2568798
11	0xbe242dff	-0.16033171
12	0x3cd4afb3	0.025962686
13	0x3d91eac6	0.071248576
14	0x3cb9ed23	0.022696083
15	0x3d50146e	0.050800733
16	0x3df0cdcd	0.117580034
17	0xbdd3e77f	-0.10346889
18	0x3b957e63	0.0045621856
19	0x3caf6ad0	0.021413237
20	0xbe54eca9	-0.20793404
21	0x3d5d7a79	0.054071877
22	0x3e071bfa	0.13194266
23	0xbd55dd0b	-0.052212756
24	0x3e3ecf45	0.18633755
25	0xbdffb82f	-0.12486302
26	0xbbb34ec8	-0.005472038
27	0x3e7aecd7	0.2450441
28	0x3ddc724a	0.107639864
29	0x3d849704	0.064741164
30	0xbd8c8d95	-0.06862942
31	0xbda65038	-0.08120769
32	0x3c303abc	0.010756191
33	0xbda37e4d	-0.07983074
34	0xbb991875	-0.004672105
35	0x3d85ae3e	0.06527375
36	0xbbd0e542	-0.006374986
37	0xbd8a8c54	-0.06765047
38	0x3dc1c3f4	0.09461203
39	0x3d1e313f	0.038621183
40	0xbd56bd28	-0.052426487
41	0xbdb649bf	-0.08900785
42	0xbcad0db7	-0.021124704
43	0x3db087a1	0.08619619
44	0x3d63792f	0.05553549
45	0xbd56cd07	-0.052441623
46	0xbd2425de	-0.040075175
47	0xbdb68984	-0.08912948
48	0x3df46784	0.119338065
49	0x3d83762b	0.06419023
50	0xbd011d2a	-0.031521954
51	0xbd50c09f	-0.050964948
52	0x3d70698a	0.0586944
53	0x3e57c4da	0.21071187
54	0x3bcfa987	0.006337348
55	0xbd851c5d	-0.064995505
56	0xbde2182e	-0.11039768
57	0x3d03185f	0.032005664
58	0x3d8cfd59	0.0688426
59	0x3e5a92b0	0.2134502
60	0xbe8ca557	-0.27469894
61	0xbddbd535	-0.107340254
62	0x3d117c3a	0.035518862
63	0xbd505066	-0.050857924
64	0xbd7ed362	-0.06221331
65	0xbe15c87e	-0.14627263
66	0xbe32fcbe	-0.17479226
67	0xbd0bc9f2	-0.034128137
68	0x3e2a104b	0.16607778
69	0xbe0d847d	-0.13820072
70	0xbc1327f6	-0.008981695
71	0x3d6970e1	0.056992415
72	0xbdb2a1bc	-0.08722255
73	0x3e1f4a2a	0.15555635
74	0xbc597433	-0.013272333
75	0xbd44a4e5	-0.04800882
76	0xbe3ffa6e	-0.18747875
77	0xbcec1797	-0.028819842
78	0xbe052e01	-0.1300583
79	0x3e8a9598	0.27067256
80	0xbcdae3ed	-0.026720012
81	0xbd100068	-0.035156637
82	0xbdbbf3ad	-0.09177337
83	0xbdeaf921	-0.11473299
84	0xbe8579fb	-0.26069626
85	0xbd10a33a	-0.035311915
86	0x3d5b5bd9	0.05355439
87	0x3cbd9397	0.023141665
88	0x3dc718a3	0.09721496
89	0x3e1ebe81	0.15502359
90	0xbd4c4b40	-0.04987645
91	0x3e1da30a	0.15394226
92	0xbcbdc2f7	-0.023164256
93	0x3c8f41f3	0.017487502
94	0xbdd7a988	-0.105303824
95	0x3db326c1	0.08747626
96	0xbe4042fb	-0.18775551
97	0xbdc59b16	-0.09648721
98	0x3ca9c70f	0.020724801
99	0x3e0df8dd	0.13864465
100	0xbb57bfeb	-0.0032920789
101	0xb97ffeef	-0.00024413665
102	0xbda6f7e5	-0.08152751
103	0xbd6ab976	-0.057305776
104	0xbe01b8ba	-0.12668124
105	0xbe16aef9	-0.14715184
106	0x3d7f7abd	0.06237291
107	0x3dd38fc4	0.103301555
108	0x3e0aa954	0.13541156
109	0x3e107650	0.14107633
110	0xbd071df5	-0.032987554
111	0xbcdab9cf	-0.026699929
112	0x3e6d52ce	0.23176119
113	0x3db024e2	0.08600785
114	0xbdccec7e	-0.10006045
115	0x3e2069f3	0.15665416
116	0x3dbf5dee	0.093440875
117	0x3e3c279e	0.18374488
118	0xbcfb888b	-0.030704757
119	0x3c2436f6	0.010022869
120	0xbdc4e8c3	-0.09614708
121	0xbdc4e2b3	-0.09613552
122	0x3e5aa9a9	0.21353783
123	0x3e64aa44	0.22330576
124	0xbd7405dc	-0.0595759
125	0x3d232048	0.039825708
126	0xbdaedfe5	-0.08538798
127	0xbdd96195	-0.106143154
128	0x3e24a384	0.16078001
129	0xbe0dd612	-0.13851193
130	0x3d9e78ef	0.0773791
131	0x3cce9d75	0.025221566
132	0x3e51ec0a	0.20500198
133	0xbe0156bd	-0.12630744
134	0x3e32c517	0.17457996
135	0x3e03bf74	0.12866002
136	0xbdcb4fb0	-0.099273086
137	0xbd677a77	-0.056513276
138	0x3d2c6020	0.04208386
139	0xbdd24a11	-0.10268033
140	0x3d92cefd	0.07168386
141	0xbe1ac9a5	-0.15115984
142	0x3d8e9e2c	0.06963763
143	0x3c9e6685	0.019335994
144	0x3d87e7be	0.06635998
145	0x3c2ac710	0.010423437
146	0xbc44009f	-0.011963039
147	0xbd2cb502	-0.04216481
148	0x3db84eab	0.0899938
149	0x3db22786	0.08698945
150	0x3e141f92	0.14465168
151	0x3ddbe918	0.107378185
152	0xbe43e9eb	-0.19132201
153	0x3e06d853	0.13168459
154	0x3e0e5f2e	0.13903496
155	0xbdbbbcb2	-0.0916685
156	0xbe6c377e	-0.23068044
157	0xbe83db38	-0.25753188
158	0xbde0d8b4	-0.10978833
159	0x3df6f09a	0.1205761
160	0xbd9816e4	-0.07426241
161	0x3dd55d05	0.10418133
162	0xbe6d976a	-0.23202291
163	0x3c98891f	0.018620072
164	0xbe0d897a	-0.13821974
165	0x3e4dba09	0.20090498
166	0x3e310d49	0.17290224
167	0xbce29c01	-0.02766228
168	0x3c5b2d29	0.013377466
169	0xbdfd592e	-0.12370525
170	0xbe4d3e6e	-0.20043346
171	0xbdce41c0	-0.100711346
172	0x3e255bf4	0.16148359
173	0x3d54c11f	0.051941987
174	0x3e2ddbf8	0.16978443
175	0x3e2c6dfa	0.16838828
176	0x3e8312aa	0.25600177
177	0x3c7a0770	0.015260562
178	0xbdcfceff	-0.10146903
179	0x3d8f2b9f	0.06990742
180	0xbc3d91a1	-0.011570365
181	0x3d88a0a9	0.066712685
182	0x3df0173d	0.11723182
183	0x3dc63bbf	0.096793644
184	0xbbaea1c3	-0.005329342
185	0x3e2e7a89	0.17038931
186	0xbe15e7aa	-0.14639154
187	0x3d94ee91	0.072720654
188	0x3db1ff5c	0.08691284
189	0x3da62eaf	0.08114373
190	0xbdb5266b	-0.08845218
191	0xbda3fd4e	-0.080072984
192	0xbe172b3f	-0.14762591
193	0xbc733d2b	-0.014846127
194	0xbda9342a	-0.08261903
195	0x3d3e18cb	0.046410363
196	0xbb882a30	-0.0041554198
197	0xbcaaa48a	-0.020830411
198	0x3e094bab	0.13407771
199	0xbc3037b0	-0.010755464
200	0x3c94d809	0.01816942
201	0x3db44096	0.08801381
202	0x3d83a789	0.06428439
203	0x3d0778f1	0.033074323
204	0xbd83f86f	-0.06443869
205	0x3d80ccb0	0.06289041
206	0x3db5b1e3	0.0887182
207	0x3e12b7db	0.14327948
208	0x3c1242f2	0.008927094
209	0xbe07f59b	-0.13277285
210	0xbd4485d7	-0.047979202
211	0xbdd2ef23	-0.10299518
212	0x3ca3c9cd	0.019993687
213	0x3df84924	0.121233255
214	0x3e12b538	0.14326942
215	0x3d97e8a8	0.074174225
216	0x3d7b34b6	0.061329566
217	0xbcb040a4	-0.021515198
218	0xbe52a27c	-0.20569795
219	0x3d6b2f41	0.05741811
220	0x3c8da8de	0.017292436
221	0x3d9f1e7c	0.07769486
222	0xbdeb1ea2	-0.11480452
223	0x3d07fe76	0.033201657
224	0x3e4730ce	0.19452211
225	0x3ccd1a88	0.025037065
226	0x3dd734f2	0.105081454
227	0x3de25e12	0.11053099
228	0x3beff6bb	0.0073231137
229	0x3d97b55a	0.07407637
230	0xbba62842	-0.005070717
231	0x3d950712	0.07276739
232	0xbde4e7a9	-0.11176998
233	0xbdae10e4	-0.084993154
234	0xbde0ccac	-0.10976538
235	0xbd89d0cc	-0.06729278
236	0xbc9dd5d2	-0.019266997
237	0xbb176b00	-0.0023104548
238	0x3cbcbe2b	0.023039898
239	0xbe27cc14	-0.16386443
240	0x3d1decc0	0.03855586
241	0x3d191e4d	0.037382413
242	0xbe1bcce5	-0.1521488
243	0x3c915867	0.017742349
244	0x3cd5934c	0.026071213
245	0xbd120498	-0.035648912
246	0xbe180945	-0.14847286
247	0xbd8a8ada	-0.06764765
248	0x3bdac7ec	0.0066766646
249	0xbdd5bb80	-0.104361534
250	0x3e129166	0.14313278
251	0x3e671621	0.22567035
252	0xbe202876	-0.15640435
253	0xbdefd655	-0.117108025
254	0xbcd3af8b	-0.025840541
255	0x3d9bd37d	0.076086976

lstm1.bias_hh_l0 f4 [256]
0	0x3d3c95da	0.046041347
1	0xbe40fe41	-0.1884699
2	0xbd52470d	-0.05133729
3	0x3c9c25fe	0.019061085
4	0x3dd032fb	0.10165974
5	0x3a0fe7f5	0.00054895814
6	0xbddfb22c	-0.109226555
7	0x3d1e5a1f	0.038660165
8	0xbc85c847	-0.016330851
9	0xbd16b9ad	-0.036798168
10	0xbe846e82	-0.2586556
11	0xbe0198da	-0.12655964
12	0xbe0d4653	-0.13796358
13	0x3d127e97	0.035765257
14	0x3dfbcf1d	0.12295363
15	0x3dc2a5ea	0.09504302
16	0x3cae253a	0.021257985
17	0xbdd5f8ed	-0.104478694
18	0xbe212d10	-0.15739846
19	0x3d68a13d	0.056794394
20	0xbe056a50	-0.13028836
21	0xbdf4e082	-0.11956884
22	0x3e02289c	0.12710804
23	0xbb54d65c	-0.00324764
24	0x3de0bc84	0.109734565
25	0x3d3367d3	0.043800186
26	0x3c906959	0.017628359
27	0x3c9f0443	0.019411212
28	0x3dea4e87	0.11440759
29	0x3b324d1e	0.002720661
30	0x3d6df6c3	0.05809666
31	0xbdad6dee	-0.08468233
32	0x3d31198b	0.04323725
33	0xbdedf800	-0.11619568
34	0x3d7b488f	0.061348494
35	0x3df03e41	0.11730624
36	0x3dee831b	0.116461
37	0x3e1a5d47	0.15074645
38	0xbb445a9a	-0.002996123
39	0xbe0cb5b7	-0.13741194
40	0x3d765c17	0.060146417
41	0x3d732000	0.05935669
42	0xbd453caa	-0.048153557
43	0xbcdf8827	-0.027286602
44	0x3e177e1e	0.14794204
45	0xbdc7b16a	-0.09750636
46	0xbc956ddd	-0.018240863
47	0xbe1ffa2a	-0.15622774
48	0xbce59ad4	-0.02802793
49	0xbe1d7713	-0.15377454
50	0xbcc4cc1c	-0.024023108
51	0xbcd04187	-0.02542187
52	0x3da967a7	0.08271723
53	0x3dcf7f30	0.10131681
54	0xbc50e317	-0.012749455
55	0x3ddde857	0.10835331
56	0xbde56710	-0.11201298
57	0x3cdab678	0.026698336
58	0x3e2ea410	0.17054772
59	0x3df757fa	0.12077327
60	0xbe3009b7	-0.17191206
61	0x3c2477bb	0.010038312
62	0xbd8dc659	-0.069225974
63	0xbd181a92	-0.037134714
64	0xbd91ed1c	-0.07125303
65	0xbe2bde07	-0.16783915
66	0xbc73f428	-0.014889754
67	0x3da06acd	0.07832871
68	0x3e8b9e3d	0.27269164
69	0xbd490484	-0.049076572
70	0x3e13e931	0.14444424
71	0x3d45ddd2	0.048307247
72	0x3e0269fd	0.12735744
73	0x3df8ebc4	0.12154344
74	0x3dfa6fa5	0.12228326
75	0xbd8ede08	-0.06975943
76	0xbcc71cbf	-0.0243057
77	0x3de84db0	0.11342943
78	0xbe70087b	-0.23440735
79	0x3e13f306	0.14448175
80	0x3c04201d	0.008064297
81	0x3d9aabf6	0.0755233
82	0xbdf1011c	-0.1176779
83	0x3d642771	0.055701677
84	0xbccd14c1	-0.02503431
85	0xbd2b5f0f	-0.0418387
86	0x3de4c8be	0.11171101
87	0x3d11d0a4	0.035599366
88	0x3dd582b3	0.104253195
89	0xbcc24c66	-0.02371807
90	0xbe4a4987	-0.19754611
91	0x3e17bd3e	0.14818284
92	0xbd8b1bb6	-0.06792395
93	0x3c2664c4	0.01015586
94	0xbc9149a0	-0.017735302
95	0xbc2fc2b0	-0.010727569
96	0x3cb408a2	0.021976773
97	0xbde6cc8e	-0.112694845
98	0x3e2f0eeb	0.17095535
99	0x3df0427a	0.117314294
100	0xbd72876e	-0.059211187
101	0x3e59a540	0.21254444
102	0xbd9d53c8	-0.07681996
103	0xbda970e3	-0.082734846
104	0x3d15b2ca	0.03654746
105	0xbdc5575a	-0.096358016
106	0xbe09e182	-0.1346493
107	0xbd7ed4bb	-0.062214594
108	0x3e371cef	0.17882131
109	0x3e1e1724	0.15438515
110	0xbdb6e6fc	-0.089307755
111	0xbe37b6b8	-0.17940795
112	0x3cda626b	0.026658257
113	0x3d31d4fc	0.04341601
114	0xbddb40d0	-0.107057214
115	0x3e0562fc	0.13026041
116	0x3da52a50	0.08064711
117	0x3e2c1628	0.16805327
118	0x3e132ad3	0.14371805
119	0x3df1a9e4	0.11799982
120	0x3d994867	0.07484513
121	0xbdbf97d4	-0.09355131
122	0x3dad2260	0.08453822
123	0x3e559125	0.2085615
124	0xbe177fb8	-0.14794815
125	0x3d812bc6	0.06307177
126	0xbcecdf73	-0.028915143
127	0x3c97d492	0.018533979
128	0x3dd81e71	0.10552681
129	0xbe65ad09	-0.22429289
130	0xbbf6b118	-0.0075284354
131	0x3ce1df19	0.027572202
132	0x3e55d204	0.20880896
133	0xbe33a7cc	-0.17544478
134	0x3df580fb	0.11987492
135	0x3e6f2468	0.23353732
136	0x3d733408	0.059375793
137	0xbe12f913	-0.14352827
138	0x3cca1ca3	0.024671858
139	0xbe5eaa0a	-0.21744552
140	0xbe0173f0	-0.12641883
141	0xbcec25cd	-0.028826619
142	0x3bed60d1	0.0072442074
143	0x3d835158	0.064119995
144	0x3e23dec6	0.1600295
145	0xbdeebf83	-0.11657622
146	0x3e2e9169	0.17047657
147	0xbe11913d	-0.1421556
148	0x3cb97bc4	0.022642024
149	0x3d8311a7	0.06399851
150	0x3d5773da	0.05260072
151	0x3deddf9f	0.11614918
152	0xbe64ebbf	-0.22355555
153	0x3cd0113b	0.025398841
154	0xbc56538a	-0.013081441
155	0xbdd9b30e	-0.10629855
156	0xbc5ab7e5	-0.013349508
157	0xbe1e02ae	-0.1543071
158	0x3d82e956	0.063921615
159	0x3da7609e	0.08172725
160	0xbe868285	-0.26271453
161	0x3cf89c8a	0.030348081
162	0xbe690641	-0.22756292
163	0x3e0039ab	0.12521999
164	0xbd970a5e	-0.07375024
165	0x3e34457e	0.17604634
166	0x3e7b5032	0.24542311
167	0xbe0aead6	-0.13566145
168	0x3ceaf599	0.028681563
169	0xbd97dba8	-0.07414943
170	0xbd2901c8	-0.041261464
171	0x3d81abcb	0.06331595
172	0x3db8a0d8	0.090150535
173	0x3cbf0c51	0.023321303
174	0x3e3dcafe	0.18534467
175	0x3d034160	0.03204477
176	0x3e2deaac	0.16984051
177	0xbb533a16	-0.0032230667
178	0x3c6bd8d3	0.014394957
179	0x3dd52f6c	0.10409436
180	0xbca9ab7f	-0.020711659
181	0xbe26435a	-0.1623663
182	0x3cd56870	0.026050776
183	0x3dd11f30	0.10211027
184	0x3dadf39a	0.08493729
185	0x3bc536fc	0.0060185175
186	0xbd89fcc8	-0.06737667
187	0x3e19cc03	0.1501923
188	0x3ca40077	0.020019753
189	0x3d8fd77d	0.07023523
190	0xbe389292	-0.18024662
191	0xbd2e0e54	-0.042494133
192	0xbe108658	-0.14113748
193	0x3d8d0a6b	0.06886753
194	0xbd406fa5	-0.046981473
195	0xbc96c143	-0.018402701
196	0x3c338a61	0.010958285
197	0xbd949dd0	-0.07256663
198	0x3bd7f633	0.0065906285
199	0x3de94a88	0.11391169
200	0xbd5823d4	-0.052768543
201	0xbcbda762	-0.023151103
202	0xbe08d1ec	-0.13361329
203	0x3a1d0c10	0.0005990872
204	0x3cec892a	0.028873999
205	0x3e228154	0.15869647
206	0x3cacba97	0.021085067
207	0x3e094899	0.134066
208	0x3d34f463	0.044178378
209	0xbd418fd7	-0.047256317
210	0xbdcd5c7b	-0.10027405
211	0x3e032072	0.12805346
212	0x3d2a3bb7	0.041560855
213	0x3d061e1a	0.03274355
214	0x3ea74823	0.32672223
215	0x3d85933a	0.06522222
216	0x3e2480ad	0.16064711
217	0x3d7a545f	0.06111562
218	0xbe2e17d9	-0.17001285
219	0x3cd85e1c	0.026412062
220	0x3d308c06	0.043102287
221	0x3e4bbce7	0.1989628
222	0xbdec85ca	-0.11548956
223	0x3d854ca4	0.06508759
224	0x3e487128	0.19574416
225	0x3dd8de73	0.10589304
226	0x3cc7d1b9	0.024391996
227	0x3e17e428	0.14833128
228	0x398c138c	0.00026717444
229	0x3e000f6f	0.12505887
230	0x3da053b4	0.07828465
231	0x3e1f4928	0.1555525
232	0xbc5b6025	-0.013389622
233	0xbdd87a48	-0.10570198
234	0xbcd04367	-0.025422765
235	0xbe1fac03	-0.15592961
236	0x3e071630	0.13192058
237	0xbd34fcee	-0.044186525
238	0xbd931099	-0.071809
239	0xbdca7757	-0.098860435
240	0x3de784cd	0.113046266
241	0x3df09d12	0.11748709
242	0xbe3d5ea6	-0.18493137
243	0xbbd01ed1	-0.00635133
244	0x3e0ea352	0.1392949
245	0x3de3bad6	0.111196205
246	0xbc29855d	-0.010346738
247	0xbd817fb9	-0.06323189
248	0x3d788fa3	0.060683858
249	0xbd528ea7	-0.051405575
250	0x3deb561a	0.11491032
251	0x3d052414	0.03250511
252	0xbcff4a52	-0.031163368
253	0x3d8517d4	0.064986855
254	0x3bf9b45b	0.007620377
255	0x3c6e9312	0.0145614315

lstm2.weight_ih_l0 f4 [256, 64]
0	0xbd89781d	-0.06712363
1	0xbde79344	-0.113073856
2	0x3e20d8ba	0.15707675
3	0x3dbc4dde	0.091945395
4	0xbd910475	-0.07080928
5	0xbe54a2f4	-0.20765287
6	0x3d145b76	0.036220036
7	0x3cb8dd41	0.02256644
8	0x3df0db87	0.117606215
9	0xbe372eed	-0.17888995
10	0xbd819be7	-0.06328564
11	0xbbe7fe49	-0.0070798737
12	0x3df949d6	0.12172286
13	0xbe044b4a	-0.12919345
14	0x3bcba7e2	0.0062150816
15	0x3e67df70	0.22643828
16	0x3dee33a1	0.11630941
17	0x3e006d62	0.12541726
18	0x3e62c78c	0.22146434
19	0xbd3fa23f	-0.04678559
20	0x3e0ef4a3	0.13960509
21	0xbe04397b	-0.12912552
22	0x3e38b5f2	0.18038157
23	0x3c98e8da	0.01866572
24	0x3e2fe40c	0.17176837
25	0x3d1c8d7e	0.038220875
26	0x3bd33d62	0.0064465264
27	0xbdbbedde	-0.09176229
28	0x3c926761	0.01787156
29	0xbd12ad41	-0.03580976
30	0xbe20595b	-0.15659086
31	0x3d6437cc	0.055717275
32	0xbeb18f3a	-0.34679586
33	0x3e8692ee	0.26283973
34	0xbcf822e9	-0.030290084
35	0x3dd39e14	0.103328854
36	0xbe317c89	-0.17332663
37	0xbdc6b9e9	-0.09703428
38	0x3e300c18	0.17192113
39	0xbda78eb1	-0.08181513
40	0xbb0739e7	-0.0020633878
41	0xbe1812b3	-0.14850883
42	0xbe84e0aa	-0.25952655
43	0xbe01b039	-0.1266488
44	0x3e8916bc	0.26775157
45	0x3c794946	0.015215224
46	0x3c1ca0f6	0.00955986
47	0x3da795a2	0.08182837
48	0xbc97cb49	-0.018529551
49	0xbce27e16	-0.027648013
50	0x3c0ea525	0.008706366
51	0x3e6d2bfb	0.23161308
52	0xbe23261e	-0.1593251
53	0xbd518e61	-0.051161174
54	0xbda915f6	-0.08256142
55	0x3d7c4792	0.061591692
56	0xbcdd0ee6	-0.026984643
57	0x3da4f5a4	0.08054665
58	0xbcab54a0	-0.020914376
59	0xbe1fe4a0	-0.15614557
60	0x3dce1adc	0.10063717
61	0x3e71868e	0.23586485
62	0xbe2eee61	-0.17083122
63	0xbd5966f4	-0.0530767
64	0xbdc87e9f	-0.09789776
65	0xbd865f81	-0.06561185
66	0x3e1b52be	0.15168282
67	0x3e5535db	0.20821325
68	0xbe1a2504	-0.15053183
69	0xbd95ebd4	-0.07320371
70	0x3c66e1c2	0.014091911
71	0x3d9c57e3	0.076339506
72	0x3dae8be9	0.085227795
73	0xbe096574	-0.13417608
74	0xbe1a919a	-0.15094605
75	0x3dca496d	0.09877286
76	0xbda0bf3e	-0.078489766
77	0xbcc83c57	-0.024442835
78	0x3dc43529	0.09580452
79	0x3c8b5f35	0.017013172
80	0x3de66aa4	0.11250809
81	0x3dfd6926	0.12373571
82	0xbe82b12c	-0.25525796
83	0xbd3f7612	-0.04674346
84	0x3df3590b	0.11882218
85	0x3de820b7	0.11334365
86	0x3e965fda	0.29370004
87	0xbe2a7787	-0.16647159
88	0xbe0eaa7a	-0.13932219
89	0xbda9fceb	-0.083001934
90	0xbdb633d2	-0.08896603
91	0x3da21cd4	0.07915655
92	0xbdc38621	-0.095470674
93	0xbc7430ec	-0.014904242
94	0xbdf66787	-0.12031465
95	0x3dbee598	0.09321135
96	0xbc2f08fc	-0.010683294
97	0x3ce42fa3	0.027854746
98	0x3d4707f4	0.04859157
99	0x3e81874d	0.2529854
100	0xbdb2a3e6	-0.087226674
101	0xbe2ae1fc	-0.16687769
102	0x3e023b67	0.12717973
103	0x3d9ffb16	0.07811563
104	0x3e4fe448	0.20301926
105	0xbc68d900	-0.014211893
106	0x3cf52839	0.029926406
107	0x3e5aaeae	0.21355698
108	0xbe2c7715	-0.16842301
109	0x3cf2d97f	0.029644726
110	0xbdf78940	-0.12086725
111	0xbe2acf3a	-0.16680613
112	0xbe476a85	-0.19474228
113	0xbe18c0aa	-0.14917246
114	0x3c98a0e3	0.018631404
115	0x3cb6870f	0.022281198
116	0xbdf7c351	-0.120978005
117	0x3d933b50	0.07189047
118	0x3c75dd9a	0.015006447
119	0x3e65a00e	0.22424337
120	0xbd65d8e5	-0.05611505
121	0xbd42fd64	-0.047604933
122	0x3d6a80bc	0.057251677
123	0x3d1422fc	0.036166176
124	0x3e1993df	0.14997815
125	0xbdc82469	-0.0977257
126	0xbdb07974	-0.08616915
127	0xbe1cae73	-0.15300922
128	0xbdf74823	-0.12074306
129	0xbd2e0049	-0.04248074
130	0xbd3261b7	-0.04355022
131	0x3d4bbb4d	0.04973917
132	0xbdb4b9b5	-0.08824483
133	0x3d9181cf	0.07104837
134	0xbdf0f6a1	-0.11765791
135	0x3da74f3c	0.0816941
136	0x3e05fc67	0.13084565
137	0x3e58c489	0.21168722
138	0x3b7f0f4c	0.003891903
139	0xbe0f0e54	-0.1397031
140	0xbbecd99d	-0.00722809
141	0xbe23faa0	-0.16013575
142	0x3dff63a7	0.12470179
143	0x3d9de197	0.077090435
144	0x3ca1aacc	0.019734763
145	0xbe07b090	-0.13250947
146	0xbe026b55	-0.12736256
147	0x3d61ea4b	0.05515508
148	0xbdcd8170	-0.10034454
149	0x3af8a0eb	0.0018968856
150	0x3e37a614	0.17934448
151	0xbdcb1fc7	-0.099181704
152	0x3c99ef9b	0.01879101
153	0x3e3b766d	0.18306895
154	0xbd585092	-0.052811213
155	0xbcfef3bb	-0.03112208
156	0xbd51ae75	-0.051191766
157	0xbced8770	-0.028995246
158	0x3c965985	0.018353233
159	0x3e118c08	0.14213574
160	0x3d1092ff	0.035296436
161	0xbde53455	-0.11191622
162	0x3c326030	0.010887191
163	0x3d2779af	0.04088753
164	0xbde63103	-0.11239817
165	0x3d67f83f	0.05663323
166	0x3e110d3a	0.14165202
167	0x3d507112	0.050889082
168	0x3dd2c87c	0.102921456
169	0x3e5744c1	0.21022321
170	0x3d5deda9	0.05418173
171	0x3d880ece	0.06643449
172	0x3bbaac46	0.005696806
173	0x3d83f2bf	0.064427845
174	0x3dc95727	0.09831076
175	0x3c6f7d0e	0.014617218
176	0xbde269de	-0.11055349
177	0x3dac52b7	0.08414214
178	0x3df7f29e	0.121068224
179	0x3d81a080	0.06329441
180	0xbc1de180	-0.009636283
181	0x3e742559	0.23842372
182	0xbda11d9f	-0.07866978
183	0x38c26715	9.2698414e-05
184	0xbdcb3150	-0.09921515
185	0xbe94b20b	-0.29042086
186	0xbd0b8117	-0.034058657
187	0xbdf99ad9	-0.12187738
188	0x3dc98be8	0.09841138
189	0x3c213266	0.009838676
190	0x3cd76449	0.026292937
191	0xbe3d3ddc	-0.18480629
192	0x3db87ca2	0.09008147
193	0xbcdcac51	-0.026937636
194	0x3cc0bc0b	0.023527166
195	0x3e2453f8	0.16047657
196	0xbdc240f9	-0.09485049
197	0xbe788410	-0.24269128
198	0xbe3267bf	-0.17422388
199	0x3d07a825	0.03311934
200	0x3daa1c31	0.08306158
201	0xbb5180a2	-0.003196754
202	0xbe095af0	-0.13413596
203	0xbdc61300	-0.09671593
204	0xbdac155c	-0.084025115
205	0xba380615	-0.0007019949
206	0xbe4295bb	-0.1900243
207	0x3d7668fa	0.060158707
208	0x3de4875d	0.11158631
209	0x3e336196	0.17517695
210	0xbdba1407	-0.09085851
211	0x3d4b7af0	0.04967779
212	0xbe2345bf	-0.15944575
213	0xbd092ad3	-0.033488106
214	0x3dcb13d4	0.09915891
215	0x3cf7b548	0.030237809
216	0xbb99810e	-0.004684574
217	0xbd4e9a2a	-0.05043999
218	0x3d0fcb24	0.03510584
219	0x3dc04442	0.09388019
220	0x3db44ab3	0.0880331
221	0xbd9b6e84	-0.075894386
222	0xbe93a9ca	-0.28840476
223	0xba5eb96e	-0.0008496259
224	0x3d7a6aec	0.061137125
225	0xbdab379c	-0.08360216
226	0x3c44644c	0.011986803
227	0x3de20952	0.11036934
228	0xbe931400	-0.28726196
229	0x3c805f6e	0.015670504
230	0x3e5d2d83	0.21599393
231	0x3d9840a6	0.07434206
232	0xbe52d728	-0.20589888
233	0xbcccd66a	-0.025004584
234	0x3c3481b0	0.011017248
235	0x3e291711	0.16512705
236	0x3e01da4e	0.12680933
237	0x3e4d8273	0.20069294
238	0xbd0e001d	-0.034668077
239	0x3cec32d4	0.02883283
240	0x3cd9a3b0	0.02656731
241	0x3d20eeb9	0.039290164
242	0x3e0d4b63	0.13798289
243	0x3e87f06c	0.26550615
244	0xbe276874	-0.1634844
245	0x3dbfe4c3	0.09369805
246	0xbe0c005c	-0.13672012
247	0x3d8d0c8e	0.0688716
248	0xbc87750c	-0.016535304
249	0x3e16b3ab	0.14716975
250	0x3de9d393	0.11417308
251	0xbcc19bdf	-0.023633895
252	0x3dc8b666	0.09800415
253	0x3de54cfb	0.111963235
254	0xbea7c6ad	-0.32768765
255	0x3cfe7c56	0.031065147

lstm2.weight_hh_l0 f4 [256, 64]
0	0xbcc51875	-0.024059514
1	0xbda32e0f	-0.07967769
2	0xbddf1b25	-0.10893849
3	0xbe4eeaaf	-0.20206712
4	0x3c632510	0.013863817
5	0xbe165773	-0.14681797
6	0x3c8da7a3	0.01729185
7	0x3db3713a	0.08761831
8	0x3d7463da	0.05966554
9	0xbd2c22f9	-0.04202554
10	0xbde909fc	-0.113788575
11	0xbd75bc02	-0.05999375
12	0x3d8a1dc0	0.067439556
13	0xbcb1d826	-0.021709513
14	0x3de2f007	0.11080938
15	0xbe165a0a	-0.14682785
16	0xbdd42dc5	-0.10360292
17	0x3b6bec7f	0.0035999117
18	0xbe1e74ee	-0.15474293
19	0x3e190635	0.14943774
20	0xbd9a881d	-0.07545493
21	0xbe1a5880	-0.15072823
22	0x3deb82f1	0.114995845
23	0x3e36a944	0.17838007
24	0x3d8b8625	0.068126954
25	0xbd21a584	-0.03946449
26	0x3d9407d6	0.07228057
27	0xbd2fd9d9	-0.042932365
28	0xbe4b504d	-0.19854851
29	0x3e097f50	0.13427472
30	0xbd1610a5	-0.036636967
31	0xbcaaffb0	-0.020873874
32	0xbd882383	-0.06647398
33	0xbcf02c6c	-0.029318057
34	0xbe0bb986	-0.1364499
35	0x3e15ff45	0.14648159
36	0xbdeb76e1	-0.11497284
37	0x3e354bad	0.1770465
38	0xbd978124	-0.073976785
39	0x3e28de54	0.16491061
40	0x3c5349a3	0.012895974
41	0xbd8737af	-0.06602418
42	0x3bb477d1	0.0055074473
43	0x3de0b437	0.10971873
44	0xbe0bb294	-0.13642341
45	0x3d649237	0.055803504
46	0x3da22ee7	0.07919102
47	0x3db89431	0.0901264
48	0x3d8079b6	0.062732145
49	0xbe37fea5	-0.17968233
50	0x3d8c0e19	0.068386264
51	0xbe789196	-0.24274287
52	0x3db72455	0.08942477
53	0x3c783e04	0.015151504
54	0xbd431cc3	-0.04763485
55	0x3d46eee8	0.048567683
56	0x3e3e1b24	0.18565041
57	0x3db0b74f	0.08628713
58	0xbd95b840	-0.073105335
59	0x3e261692	0.16219547
60	0x3e0356ac	0.12826031
61	0x3cc793c0	0.024362445
62	0xbd310bdb	-0.043224197
63	0xbc8c309c	-0.017113023
64	0xbdabfa98	-0.08397406
65	0x3cc65be5	0.02421374
66	0x3c88b1b8	0.016686305
67	0xbe0b74d1	-0.1361878
68	0x3da1edd6	0.07906692
69	0x3e26da6e	0.16294262
70	0xbdb041d7	-0.08606308
71	0x3d7dc6ab	0.061957043
72	0xbbad37d8	-0.005286198
73	0x3dca9329	0.0989135
74	0x3ba850a9	0.0051365686
75	0xbdc90fa9	-0.0981744
76	0xbd8d1582	-0.06888868
77	0x3dab551c	0.08365843
78	0x3b14dd54	0.002271493
79	0x3dd7c1b1	0.105349906
80	0xbd87693c	-0.06611869
81	0x3e0ccd68	0.13750231
82	0x3d8f4ecb	0.069974504
83	0xbc3c5127	-0.011493958
84	0x3d0a86c6	0.033819936
85	0xbdcda494	-0.100411564
86	0xbd32ff5b	-0.043700557
87	0x3ea50431	0.3222976
88	0xbe8f48cb	-0.27985224
89	0x3dc0df22	0.09417559
90	0x3de02ce7	0.109460644
91	0x3e851c2c	0.25998056
92	0x3d88e313	0.06683936
93	0xbe0cb72e	-0.13741753
94	0xbbc5d341	-0.0060371463
95	0xbe954582	-0.29154593
96	0x3e8b50bd	0.27210036
97	0x3c754c4f	0.014971807
98	0x3e09a99c	0.13443607
99	0x3e32049d	0.17384572
100	0xbdb7539a	-0.089514926
101	0xbcb8b424	-0.022546835
102	0xbe1ff149	-0.15619387
103	0x3e2ad03d	0.16680999
104	0xbdf9b57e	-0.1219282
105	0x3c5d1948	0.013494797
106	0x3e0b1fa5	0.1358629
107	0x3de6d386	0.11270814
108	0xbd5e0ad1	-0.054209534
109	0x3d29996b	0.041406076
110	0xbe7c241f	-0.24623154
111	0x3c55d115	0.013050337
112	0x3e30ff4c	0.17284888
113	0xbc69cd24	-0.014270101
114	0xbd0987d5	-0.033576805
115	0xbd5bc934	-0.05365868
116	0xbdb38d02	-0.087671295
117	0xbd387f2d	-0.04504316
118	0xbd2677b9	-0.04064152
119	0xbdedd893	-0.11613574
120	0xbd983ed9	-0.07433862
121	0x3dc7fe49	0.09765298
122	0xbcbe0641	-0.023196341
123	0xbdd391b1	-0.10330523
124	0x3baf0eb2	0.005342328
125	0x3d6ec1a6	0.058290146
126	0xbe740a08	-0.23831952
127	0xbd4ca8ad	-0.04996555
128	0x3df5dbe7	0.12004834
129	0xbd915efa	-0.070981935
130	0xbe30c5c6	-0.17262945
131	0x3d8d1717	0.0688917
132	0xbb8ff2c0	-0.0043929517
133	0xbba2cdf1	-0.004968398
134	0x3cc80747	0.024417533
135	0x3e3e400e	0.18579122
136	0xbc3313da	-0.010930026
137	0xbcb868d2	-0.02251092
138	0xbc342dbf	-0.010997235
139	0xbe15d2ef	-0.14631246
140	0xbd430ec0	-0.04762149
141	0x3e0227dd	0.12710519
142	0xbe17c46d	-0.14821024
143	0xbd6af0f7	-0.05735871
144	0x3be7b2d1	0.007070877
145	0x3d8c657f	0.06855296
146	0xbdc9a34f	-0.09845602
147	0xbe001b07	-0.1251031
148	0xbcbb5919	-0.022869634
149	0xbd409c72	-0.047024198
150	0xbca4cd71	-0.020117493
151	0xbcc76833	-0.024341678
152	0xbe054072	-0.13012865
153	0x3d8a79b3	0.067614935
154	0xbd21779c	-0.03942071
155	0x3dc5002e	0.09619175
156	0xbd8eb1b9	-0.06967492
157	0xbd8f58c5	-0.06999353
158	0xbdec5806	-0.11540227
159	0xbe71bbab	-0.23606746
160	0x3e199505	0.14998253
161	0x3c19ca8a	0.009386668
162	0x3e2da543	0.16957574
163	0xbdabed1f	-0.08394837
164	0xbe5cb6b1	-0.21554066
165	0xbc153725	-0.009107386
166	0xbd93f7d5	-0.072250046
167	0x3d9ce4c2	0.076608196
168	0x3e00eca2	0.12590268
169	0xbd91d14d	-0.07119999
170	0xbd22d3e1	-0.039752845
171	0x3e3ebe53	0.1862729
172	0x3e1c812f	0.15283655
173	0xbd4ed63f	-0.05049729
174	0xbd099d0d	-0.03359704
175	0xbe115aa6	-0.14194736
176	0x3e18dab8	0.14927185
177	0x3dbc9d9f	0.09209751
178	0x3e0e7a6a	0.13913885
179	0xbd07b315	-0.03312977
180	0x3d77d5f5	0.06050678
181	0x3d62758f	0.055287894
182	0x3c1718aa	0.009222189
183	0x3c5cb4cb	0.013470839
184	0xbc00ef67	-0.007869578
185	0x3e0b8acf	0.1362717
186	0xbe2bcf58	-0.16778314
187	0xbd267e2c	-0.04064767
188	0xbd904d56	-0.07046001
189	0xbd92872a	-0.07154687
190	0xbe11b57f	-0.14229392
191	0x3d435cfc	0.0476961
192	0x3d593945	0.053033132
193	0xbe17be76	-0.14818749
194	0x3dbdb259	0.09262533
195	0x3cd7d859	0.02634828
196	0x3d698eb1	0.057020847
197	0xbd5f5855	-0.0545276
198	0x3da862c5	0.08221964
199	0x3d378890	0.04480797
200	0xbe454f54	-0.19268543
201	0x3d819d0a	0.06328781
202	0xbd965659	-0.07340688
203	0xbe17890c	-0.14798373
204	0xbc06a0a3	-0.00821701
205	0x3c610f27	0.013736523
206	0xbdec330e	-0.115331754
207	0xbde84728	-0.11341697
208	0xbd9df872	-0.07713403
209	0xbe18b203	-0.14911656
210	0xbc343422	-0.010998758
211	0xbd070215	-0.03296097
212	0xbe1b0a2f	-0.15140603
213	0xbd91a44b	-0.071114145
214	0xbd835bc0	-0.06413984
215	0xbdab2e32	-0.083584204
216	0x3b267c35	0.0025403623
217	0x3e16936f	0.14704679
218	0x3e4a5cfc	0.19762033
219	0xbd089b61	-0.033351306
220	0xbe354b1a	-0.1770443
221	0xbd2ab4cc	-0.041676328
222	0x3ba37393	0.0049881428
223	0xbcdafa3d	-0.026730651
224	0x3d6b3f2e	0.0574333
225	0xbd3c4c73	-0.045971345
226	0xbd83532a	-0.06412347
227	0x3d93e405	0.07221226
228	0xbd9ca22c	-0.07648119
229	0xbd2dfb9f	-0.042476293
230	0x3da945b5	0.08265249
231	0xbc0f4eb5	-0.008746793
232	0x3d5aed5f	0.05344903
233	0x3e220d11	0.15825297
234	0xbddddc38	-0.10833019
235	0x3da41214	0.08011261
236	0xbda220ee	-0.07916437
237	0x3dd7d671	0.10538948
238	0x3ca2b27b	0.019860497
239	0xbd96af3a	-0.073576406
240	0xbd16361d	-0.0366727
241	0x3d286288	0.04110959
242	0x3bfc4c50	0.007699527
243	0xbe04901f	-0.12945603
244	0x3dfcfdc1	0.12353087
245	0x3d317709	0.04332641
246	0xbe31a32d	-0.17347403
247	0x3dbbf15c	0.09176895
248	0x3d851c32	0.064995185
249	0x3da98b46	0.082785174
250	0xbe05a91e	-0.13052794
251	0x3ca9ecbc	0.020742767
252	0x3e23ebcd	0.1600792
253	0xbd95f4b9	-0.07322068
254	0xbe0a1f0d	-0.13488407
255	0x3b0a0e34	0.0021065595

lstm2.bias_ih_l0 f4 [256]
0	0x3ba073a8	0.0048966
1	0x3de30ee5	0.11086825
2	0xbd97b3f3	-0.074073695
3	0x3e4d6188	0.20056736
4	0xbd5c8487	-0.053837325
5	0x3dbbc224	0.09167889
6	0xbe59d58e	-0.21272871
7	0x3e10b9b7	0.14133345
8	0x3d410ecc	0.047133252
9	0x3d5f1ed0	0.054472744
10	0x3da2b8a7	0.07945376
11	0xbe04ba6a	-0.12961736
12	0x3d33b4fa	0.043873765
13	0x3cf68e9c	0.030097298
14	0x3e3052a0	0.17219019
15	0x3d9d5ca5	0.07683686
16	0xbd1f8254	-0.03894265
17	0x3c8960ad	0.016769731
18	0x3c1fce59	0.009753787
19	0xba2b9fcd	-0.00065469445
20	0xbda0ca47	-0.07851081
21	0x3df831b0	0.12118852
22	0xbcf5777e	-0.029964205
23	0xbd676973	-0.05649705
24	0x3e53f433	0.20698623
25	0x3df51846	0.119675204
26	0x3e6cb66d	0.23116465
27	0x3dd6f259	0.10495443
28	0x3dc9e581	0.098582275
29	0x3d1ebcc0	0.038754225
30	0xbe1e5533	-0.15462188
31	0x3d2f5e98	0.04281482
32	0xbd84064b	-0.06446513
33	0x3e24a3bd	0.16078086
34	0xbb1410e1	-0.0022593068
35	0xbcd2b81a	-0.025722552
36	0xbba47e9e	-0.0050199768
37	0x3e163fa5	0.14672716
38	0x3d6f7e4a	0.058470048
39	0x3c273224	0.010204826
40	0xbdbeb453	-0.09311738
41	0x3c0bb318	0.008526586
42	0x3eaa8664	0.33305657
43	0x3eaceb6f	0.33773372
44	0x3d9a460d	0.075328924
45	0xbd461edc	-0.048369274
46	0x3e16c86b	0.14724891
47	0xbd767f44	-0.060179964
48	0xbde2e81e	-0.11079429
49	0x3d0a667a	0.033789136
50	0xbb5b7ce9	-0.00334912
51	0x3ecbd296	0.39809102
52	0x3cfdd6d9	0.030986236
53	0xbcd6cbea	-0.02622028
54	0x3cc51bdd	0.024061138
55	0x3d4cdfc5	0.05001809
56	0x3e304563	0.17213969
57	0x3d67bdfa	0.05657766
58	0xbd91385c	-0.07090828
59	0x3e36e749	0.17861666
60	0xbde827bb	-0.11335703
61	0xbcbf0742	-0.02331889
62	0xbdb5e3ce	-0.08881341
63	0xbd38d211	-0.04512221
64	0x3c409c14	0.011755962
65	0x3e1ec4b2	0.15504721
66	0x3d495152	0.04914982
67	0x3e7ac3a6	0.24488696
68	0xbc0ee600	-0.008721828
69	0x3d2f1c76	0.04275175
70	0xbd0850c6	-0.033280157
71	0x3dd6ec21	0.10494257
72	0x3d71ecc4	0.059063688
73	0x3cf0c13b	0.029389014
74	0x3e0abab3	0.13547783
75	0x3dec7076	0.11544888
76	0x3d82e2db	0.063909255
77	0x3c1d3b13	0.009596604
78	0x3d55cf09	0.052199397
79	0xbdae1e07	-0.08501821
80	0x3e33ee7c	0.17571443
81	0xbd5604b2	-0.05225057
82	0xbe029bf9	-0.12754811
83	0xbc9de34e	-0.019273426
84	0x3e39a153	0.18127947
85	0x3e033712	0.12813976
86	0x3e669d32	0.22520903
87	0x3e1e58ac	0.15463513
88	0xbd37145b	-0.044697147
89	0x3e0c954d	0.13728829
90	0xbccae9c8	-0.024769679
91	0xbca565f8	-0.020190224
92	0x3dbab253	0.09116044
93	0x3b1493e5	0.002267116
94	0x3daf0010	0.08544934
95	0xbcaa0c8a	-0.020757932
96	0x3da79a74	0.081837565
97	0xbe1a57ed	-0.15072604
98	0x3e6f1aa4	0.23350006
99	0x3e563a6c	0.20920724
100	0xbcd28145	-0.025696406
101	0x3c0074f6	0.007840386
102	0x3e034e8b	0.1282293
103	0x3e65c0fc	0.22436899
104	0x3e5260d5	0.20544751
105	0xbe12cdc2	-0.14336303
106	0xbbbe0076	-0.005798395
107	0xbd0ba871	-0.034096185
108	0xbd7e9b68	-0.062159926
109	0x3c229002	0.009922029
110	0xbdadc37d	-0.08484552
111	0x3dbf5b0d	0.093435384
112	0x3da3583e	0.07975815
113	0xbd36a7ec	-0.044593737
114	0x3e51d6e6	0.20492133
115	0xbb8dda72	-0.004329019
116	0x3ca1d480	0.019754648
117	0x3db983bf	0.09058332
118	0xbdd7ff91	-0.10546792
119	0x3e89ecc8	0.26938462
120	0x3de133eb	0.10996231
121	0x3dd056a0	0.101727724
122	0xbd1b7b57	-0.037959423
123	0x3d756ac1	0.05991626
124	0x3e78307a	0.24237242
125	0x3c94df0f	0.018172769
126	0x3dcc81ed	0.09985719
127	0x3db5cf39	0.08877415
128	0xbdc6924d	-0.096958734
129	0x3dc6da6f	0.09709632
130	0x3daba79d	0.08381579
131	0xbe008247	-0.12549697
132	0xbd32ff96	-0.043700777
133	0x3d998183	0.074954055
134	0x3dffc470	0.12488639
135	0x3e21915a	0.15778103
136	0xbc82c62c	-0.015963636
137	0x3e630067	0.22168122
138	0xbdbbf412	-0.09177412
139	0xbe30ada4	-0.17253739
140	0x3dd0c0d5	0.1019303
141	0xbdc90bd3	-0.098167084
142	0x3ca65c53	0.020307695
143	0xbdce3298	-0.10068244
144	0xbe111867	-0.14169465
145	0x3dbd68e2	0.092485204
146	0xbd58f866	-0.052971266
147	0x3d819daa	0.063289
148	0xbde67c4b	-0.11254176
149	0xbdd106e6	-0.10206394
150	0xbd2cea10	-0.042215407
151	0x3bd1ebd2	0.006406286
152	0xbcdf711a	-0.02727561
153	0xbe154c3a	-0.1457986
154	0x3cafec59	0.021475004
155	0xbdcc2c40	-0.099693775
156	0xbd2588ce	-0.04041367
157	0x3dd94002	0.10607912
158	0xbd803e82	-0.062619224
159	0x3dda7b7a	0.106680825
160	0x3c0ee7c6	0.008722251
161	0xbdab5471	-0.08365715
162	0xbdb66a39	-0.08906979
163	0xbb50a67b	-0.0031837511
164	0x3dec456c	0.11536679
165	0xbe15cc90	-0.14628816
166	0x3c0d9e57	0.008643708
167	0xbe09ca73	-0.13456134
168	0x3ce231c8	0.027611628
169	0xbd7cfb03	-0.06176282
170	0xbe001e0f	-0.12511466
171	0x3e340a92	0.17582157
172	0xbc9a00b7	-0.018799169
173	0x3d97aa76	0.0740556
174	0x3caec7e6	0.021335553
175	0xbdacfd8a	-0.08446796
176	0x3e14d040	0.14532566
177	0x3d8f4b4a	0.06996782
178	0x3cffdafa	0.031232346
179	0xbc76a6dc	-0.015054431
180	0xbd655723	-0.055991303
181	0x3d62bc6f	0.055355486
182	0xbe0657a1	-0.13119365
183	0x3da401e7	0.08008175
184	0x3c680a5e	0.014162628
185	0xbd297622	-0.041372426
186	0x3d8e3704	0.06944087
187	0xbdd7c647	-0.10535865
188	0x3cefbd8e	0.029265191
189	0xbd4eea54	-0.05051644
190	0xbe314088	-0.17309773
191	0x3dba2827	0.0908969
192	0xbcdf68de	-0.027271684
193	0x3d8f7aff	0.070058815
194	0xbc963642	-0.018336419
195	0x3e10e855	0.14151128
196	0x3dad3bc0	0.08458662
197	0x3b90f6d9	0.004423958
198	0x3de5ca93	0.112202786
199	0x3e6591b7	0.22418867
200	0x3c045cc3	0.008078757
201	0x3cbef4a7	0.023310019
202	0x3d973d51	0.07384742
203	0xbe1b2c59	-0.15153636
204	0x3d0b6850	0.034035027
205	0xbdeec17d	-0.11657999
206	0xbd62c0e7	-0.055359747
207	0x3dd5332e	0.104101524
208	0x3dc0a288	0.094060004
209	0x3d624dc7	0.055249956
210	0x3e2b2b6b	0.16715781
211	0x3e2f15f5	0.1709822
212	0x3d2ac394	0.041690424
213	0x3ddebe9a	0.10876198
214	0xbc504444	-0.012711588
215	0x3e2d01c3	0.16895203
216	0x3d18dde4	0.037320986
217	0x3e231c22	0.159287
218	0xbd8c961b	-0.06864568
219	0x3c80f1d0	0.015740305
220	0x3cdbce32	0.02683172
221	0xbdea5240	-0.11441469
222	0x3b84c313	0.004051575
223	0x3bed3295	0.007238696
224	0xbc5f553a	-0.013631159
225	0xbc9c9db0	-0.01911816
226	0x3e2ce25d	0.16883226
227	0xbda9fa23	-0.08299663
228	0x3d778ae3	0.060435187
229	0x3e1a896a	0.15091482
230	0x3e24b546	0.16084775
231	0x3de7404a	0.11291559
232	0x3e22af7c	0.15887254
233	0x3d4c8846	0.049934648
234	0x3ee70178	0.45118308
235	0x3ec76ef0	0.38951826
236	0x3e2355bf	0.15950678
237	0x3d8f9158	0.07010144
238	0x3d1f1dbf	0.038846727
239	0x3e0ac84c	0.1355297
240	0x3df05f13	0.11736884
241	0x3e879038	0.26477218
242	0x3daa61cd	0.08319435
243	0x3ede43d1	0.43411115
244	0xbd318fac	-0.043349907
245	0x3e352572	0.17690066
246	0x3d9a49c2	0.075335994
247	0x3daa5b77	0.08318227
248	0x3d32a08e	0.043610148
249	0x3c3d9f5f	0.011573642
250	0xbc80badc	-0.015714101
251	0xbb86e764	-0.0041169394
252	0xbd165b3e	-0.03670811
253	0xbd98b049	-0.07455499
254	0x3e43d9d2	0.1912606
255	0x3d32de29	0.0436689
