saved_model/DAP_Model_Combo2.pt (torch, 244354 bytes, 12 tensors)

lstm1.weight_ih_l0 f4 [256, 16]
0	0x3e1c0dc5	0.15239628
1	0x3d5b95c2	0.053609617
2	0xbd11217b	-0.03543232
3	0x3e05922d	0.13044043
4	0x3d00ea5c	0.031473503
5	0xbe71709d	-0.23578115
6	0xbc3236b0	-0.010877296
7	0x3ccd5b7c	0.025068037
8	0x3de210ee	0.11038385
9	0x3d9f098e	0.07765494
10	0x3d53544c	0.051594064
11	0x3e6bb1d9	0.23017062
12	0x3e09434e	0.13404581
13	0xbe5a1f10	-0.21300912
14	0xbe356ff9	-0.17718495
15	0xbe60ca85	-0.21952255
16	0x399e7ff2	0.00030231435
17	0xbdb9822d	-0.09058032
18	0x3d11e34a	0.03561715
19	0x3ce31c68	0.027723506
20	0xbe220bc4	-0.158248
21	0x3dedc8eb	0.11610588
22	0x3df39d57	0.118952446
23	0x3d63d1d6	0.055620037
24	0xbd4b0ca4	-0.049572602
25	0x3c491e94	0.012275357
26	0x3d585140	0.05281186
27	0x3c67ee5f	0.014155953
28	0xbe278ebc	-0.16363043
29	0x3d47e05b	0.048797946
30	0x3d5b2fc1	0.05351234
31	0x3bf36995	0.007428358
32	0x3e28b97e	0.1647701
33	0x3d8a7935	0.067614
34	0x3dc77483	0.0973902
35	0xbbc56ad8	-0.0060246997
36	0xbd33d923	-0.04390825
37	0xbd994b0e	-0.07485019
38	0x3d5a742f	0.053333458
39	0xbdb109cc	-0.08644447
40	0x3d939c00	0.07207489
41	0xbd4124af	-0.047154125
42	0x3da4855d	0.080332495
43	0x3d45a86f	0.048256334
44	0x3dc315ce	0.09525643
45	0xbc40c0ce	-0.011764718
46	0x3acef54d	0.0015789658
47	0xbd1d5ac3	-0.038416635
48	0x3c07222c	0.008247893
49	0xbc06bd5f	-0.0082238605
50	0xbe601623	-0.21883444
51	0xbbfd9500	-0.0077387094
52	0xbe294331	-0.16529538
53	0xbce5cbae	-0.028051224
54	0x3d14a588	0.036290675
55	0xbdf455e3	-0.11930444
56	0x3d064a3c	0.03278564
57	0x3e3a9d0f	0.18223976
58	0x3a43144b	0.00074416836
59	0x3dfb78cb	0.12278899
60	0xbe0a42ac	-0.13501996
61	0xbdbdded7	-0.09271019
62	0xbd7e7e7a	-0.062132336
63	0x3d0bc879	0.034126732
64	0xbd6115bd	-0.054952372
65	0x3dbca3f9	0.09210963
66	0x3da096d8	0.07841271
67	0xbda36fac	-0.07980284
68	0x3cb4916e	0.022042003
69	0xbd9f39eb	-0.07774719
70	0x3d4cb691	0.049978796
71	0xbd7e3217	-0.06205949
72	0xbdaac936	-0.08339159
73	0x3e06cf43	0.13165002
74	0xbd7aa716	-0.0611945
75	0x3d51e5f3	0.051244687
76	0x3e3e1826	0.185639
77	0xbd42a9f4	-0.04752536
78	0x3e1f6710	0.15566659
79	0x3e2cdce8	0.16881144
80	0xbdfdb8c2	-0.123887554
81	0xbd5d78de	-0.054070346
82	0x3d12606c	0.035736486
83	0x3d43ba93	0.047785353
84	0xbd805ebb	-0.062680684
85	0xbc1def6a	-0.0096396
86	0xbc46fa29	-0.012144604
87	0x3ce242b4	0.027619697
88	0xbdd27b32	-0.10277404
89	0x3dda849f	0.10669827
90	0xbdb4d76e	-0.088301525
91	0xbe16da9c	-0.1473183
92	0xbd995a55	-0.074879326
93	0xbe3dac25	-0.18522699
94	0xbd8cfbf2	-0.06883992
95	0xbcbb21c7	-0.022843255
96	0x3c06705b	0.008205499
97	0xbd208af1	-0.039195005
98	0x3d294ca0	0.04133284
99	0x3e6a0741	0.2285433
100	0x3c152693	0.009103435
101	0x3b9bae94	0.004751036
102	0xbbf1943c	-0.0073724072
103	0xbe817f8f	-0.25292632
104	0xbdd364d2	-0.10321964
105	0x3baa2481	0.00519234
106	0x3d471ca0	0.048611283
107	0x3de0da99	0.10979194
108	0x3d8d37bd	0.06895397
109	0x3e202ea8	0.15642798
110	0xbe12ec57	-0.14347969
111	0xbd92478f	-0.07142555
112	0x3e28de1d	0.1649098
113	0x3d9f4a49	0.07777841
114	0x3d500797	0.05078849
115	0xbde10d9f	-0.10988926
116	0x3d391b8d	0.04519229
117	0xbd0a5243	-0.033769857
118	0xbd8b4c22	-0.068016306
119	0x3ae9f9a3	0.0017850887
120	0x3daf1dca	0.08550604
121	0xbdc9ff93	-0.098632
122	0x3cee1ddc	0.029066972
123	0x3c3f3a1a	0.011671567
124	0xbcc2e6d0	-0.0237917
125	0x3dd4a44f	0.10382902
126	0x3dd80dcb	0.10549506
127	0x3e067867	0.13131867
128	0x3e161afc	0.14658731
129	0x3d74e09e	0.059784524
130	0x3dd75fc3	0.10516312
131	0xbcd5a384	-0.026078947
132	0x3d904e03	0.070461296
133	0x3d080140	0.033204317
134	0x3df03760	0.11729312
135	0x3cf2b6e6	0.029628228
136	0x3d8fb308	0.070165694
137	0xbcbc9da4	-0.023024388
138	0xbdcf6ec1	-0.101285465
139	0xbc8c19ec	-0.017102204
140	0x3dd805ec	0.105480045
141	0xbe1013ef	-0.14070104
142	0x3e7460b8	0.2386502
143	0x3d46db0a	0.048548736
144	0xbe386411	-0.18006922
145	0xbe1075b1	-0.14107396
146	0x3d982bbe	0.07430218
147	0xbd8bfa55	-0.068348564
148	0x3cb58df1	0.02216241
149	0xbd8eab92	-0.06966318
150	0xbdeee51e	-0.116647944
151	0xbd7cf50f	-0.061757144
152	0xbbe442e0	-0.00696598
153	0x3e78ad34	0.24284822
154	0x3d86964a	0.06571634
155	0x3d52a945	0.05143096
156	0x3dcb66d7	0.099317245
157	0xbccc9fbc	-0.024978511
158	0x3d49f37e	0.049304478
159	0xbd1b9648	-0.037985116
160	0x3e032bc6	0.12809667
161	0xbd99ae75	-0.07503978
162	0xbdefc57d	-0.1170759
163	0xbc4191aa	-0.011814514
164	0xbccf6dea	-0.025320966
165	0x3dbd8fc2	0.09255935
166	0x3e94d3e2	0.29067904
167	0x3de6bfa5	0.11267022
168	0x3c19b0f0	0.009380564
169	0x3de1b788	0.11021334
170	0x3d93452e	0.07190929
171	0xbb29f90c	-0.0025935797
172	0x3c675f45	0.014121835
173	0xbd9f4686	-0.07777123
174	0x3e88f12f	0.26746508
175	0xbe2ed51c	-0.17073482
176	0xbd2a0351	-0.04150707
177	0xbd7f98ed	-0.0624017
178	0xbb8948e1	-0.004189596
179	0xbdc0ada7	-0.094081216
180	0x3d81b316	0.06332986
181	0x3e86cea5	0.26329532
182	0xbd8d1b3b	-0.068899594
183	0xbdba27cc	-0.09089622
184	0xbc4f7ce0	-0.01266405
185	0x3d8f8c9c	0.07009241
186	0xbe175bc2	-0.14781097
187	0xbd5ecb75	-0.05439325
188	0x3d7b006d	0.061279703
189	0x3d850b8c	0.06496343
190	0x3e5b7eb8	0.21435058
191	0x3e778c20	0.24174547
192	0xbda72aea	-0.08162482
193	0x3c92dfeb	0.017929038
194	0xbd59aa51	-0.053140942
195	0x3ca6ecfc	0.020376675
196	0x3de30ee8	0.110868275
197	0x3daaeae1	0.08345581
198	0x3df353fb	0.118812524
199	0x3d815ed8	0.06316918
200	0xbd9b3c16	-0.0757982
201	0xbe53b93e	-0.20676133
202	0x3e02f2dd	0.12787957
203	0xbc83177b	-0.016002407
204	0x3e119893	0.14218359
205	0x3e00a6d3	0.12563638
206	0x3cdf53c3	0.02726162
207	0x3daadb10	0.08342564
208	0xbe30a465	-0.17250212
209	0x3ccfe3b6	0.025377136
210	0x3d473478	0.048634022
211	0x3def83d1	0.11695064
212	0x3d2e4282	0.042543896
213	0x3cb0cbe7	0.021581603
214	0xbdd86660	-0.105664015
215	0xbd4ec08a	-0.05047659
216	0x3df460da	0.119325355
217	0xbd1e95e9	-0.038717184
218	0x3c59bbcf	0.013289406
219	0x3d1606d5	0.03662761
220	0xbdd72c07	-0.105064444
221	0x3d853dbf	0.06505918
222	0x3e49575f	0.19662236
223	0x3c8777c3	0.016536599
224	0x3e1a3fbd	0.15063377
225	0x3c33a30e	0.010964168
226	0x3d3fccdc	0.04682623
227	0x3de693ee	0.11258684
228	0x3c9d37e1	0.019191684
229	0x3c19ba06	0.00938273
230	0x3d94ccc6	0.0726562
231	0xbdc44c86	-0.09584908
232	0xbd5ec24c	-0.054384515
233	0xbe0606cb	-0.13088529
234	0x3d997e80	0.07494831
235	0x3cc44262	0.023957435
236	0xbc7d2e41	-0.015452922
237	0xbe4bb00b	-0.19891374
238	0x3e029be1	0.12754776
239	0x3ddec196	0.10876767
240	0x3d2e5f38	0.042571276
241	0x3df52ed7	0.119718246
242	0x3e21cfbe	0.15801904
243	0x3e5e571b	0.21712916
244	0xbd7a9cf6	-0.061184846
245	0x3d66b676	0.056326352
246	0x3d0cf935	0.03441735
247	0xbe75e66b	-0.24013679
248	0xbdc35d36	-0.09539263
249	0x3ca4700b	0.020072958
250	0xbe0d74ae	-0.13814041
251	0x3e13c7c3	0.14431672
252	0xbda86080	-0.08221531
253	0x3c9c682f	0.019092647
254	0x3c06369a	0.008191729
255	0x3b9b51f7	0.0047399956

lstm1.weight_hh_l0 f4 [256, 64]
0	0xbd772633	-0.060339164
1	0xbd421794	-0.047385767
2	0x3e0f130c	0.1397211
3	0x3e0c965b	0.13729231
4	0x3b925a6f	0.004466347
5	0xbe5c47ff	-0.2151184
6	0x3c376944	0.011194531
7	0xbe4012d8	-0.18757188
8	0xbc6f3e09	-0.014602193
9	0x3d281bc6	0.04104211
10	0x3e1afffd	0.15136714
11	0x3da3af79	0.07992453
12	0xbcab2a17	-0.020894093
13	0xbd4f63d0	-0.050632298
14	0xbd88b1c6	-0.066745326
15	0x3af314dd	0.0018545646
16	0xbbbaa3ae	-0.0056957817
17	0x3d079d37	0.033108916
18	0x3ce7a0ff	0.028275011
19	0x3e14550a	0.14485565
20	0xbd7dcc1b	-0.06196223
21	0xbdf1f64d	-0.11814556
22	0x3da4b1ee	0.0804175
23	0xbdaca853	-0.08430543
24	0xbdafb9c1	-0.085803516
25	0x3e179f47	0.14806853
26	0x3e08cafa	0.1335868
27	0x3e1e83eb	0.1548001
28	0xbd9c5078	-0.07632536
29	0xbe0430be	-0.12909219
30	0xbb25001c	-0.0025177067
31	0xbcce7350	-0.02520147
32	0xbe07ba5a	-0.13254681
33	0xbcdaa2a1	-0.026688876
34	0xbc676b1c	-0.014124658
35	0x3e317cf6	0.17332825
36	0x3c8c7d69	0.017149644
37	0x3de48514	0.11158195
38	0xbd75fe0a	-0.060056724
39	0x3e04d764	0.1297279
40	0x3e26352c	0.16231221
41	0xbd13b4d7	-0.036061134
42	0xbc6b7df4	-0.014373291
43	0x3d400b37	0.046885695
44	0x3d0e87b6	0.034797393
45	0x3e307ae5	0.1723438
46	0x3e213033	0.15741043
47	0xbd80960b	-0.062786184
48	0x3d9919a3	0.07475593
49	0xbd7b3353	-0.061328243
50	0xbe232790	-0.1593306
51	0xbe6a0abd	-0.22855659
52	0xbdb4a262	-0.088200346
53	0x3e0b3c0b	0.13597123
54	0x3d4f4063	0.050598513
55	0xbdb5efbd	-0.08883617
56	0xbc87da65	-0.01658363
57	0x3e573d4c	0.21019477
58	0xbd8ca623	-0.068676256
59	0x3d259bb2	0.040431686
60	0xbdbd4d55	-0.092432655
61	0x3d2b2ca4	0.04179062
62	0xbd595295	-0.053057272
63	0x3dc45320	0.09586167
64	0x3b1488d1	0.0022664557
65	0x3dedd9e2	0.116138235
66	0xbbe4a7a3	-0.0069779917
67	0x3cb3578d	0.021892333
68	0xbd27bf11	-0.0409537
69	0x3d46e11d	0.04855453
70	0x3d85275a	0.06501646
71	0x3d2c3021	0.042038087
72	0xbdd2fe0e	-0.10302363
73	0x3d88d8ab	0.06681951
74	0xbc3d2d2c	-0.011546414
75	0xbcd37865	-0.025814245
76	0x3cf1793a	0.02947675
77	0x3dbc919a	0.09207459
78	0x3db34981	0.08754254
79	0x3b829268	0.003984738
80	0xbbdcbdf0	-0.0067365095
81	0x3cd87828	0.026424482
82	0x3db269e8	0.08711606
83	0x3d3d82ef	0.046267446
84	0xbc6500e9	-0.013977268
85	0xbcf372e4	-0.02971787
86	0x3cdbe3e5	0.026842067
87	0xbddfcf1b	-0.10928174
88	0xbe01730a	-0.1264154
89	0x3d7c3155	0.061570484
90	0x3da5ed2a	0.08101876
91	0xbd4c614f	-0.04989749
92	0xbd5a4e17	-0.05329713
93	0xbd8d68bc	-0.06904742
94	0xbde73241	-0.11288882
95	0xbdb42379	-0.08795828
96	0x3df84b89	0.12123782
97	0xbc987d5e	-0.018614467
98	0x3d6d526c	0.05793993
99	0x3aa556aa	0.0012614329
100	0x3d74c874	0.05976148
101	0x3e20535d	0.156568
102	0x3d5e6617	0.05429658
103	0x3bf2a73d	0.0074051903
104	0x3dbe4064	0.09289625
105	0x3c4be79e	0.012445359
106	0xbd90a002	-0.07061769
107	0x3dd8a910	0.10579121
108	0x3de75c2b	0.112968765
109	0x3d4c8e86	0.04994061
110	0x3dc25e20	0.09490609
111	0xbe2eb612	-0.17061642
112	0xbd7fbfb1	-0.06243867
113	0xbde7e87b	-0.11323639
114	0x3d3c2d10	0.045941412
115	0x3bf4e62b	0.007473727
116	0xbd7c3477	-0.061573472
117	0x3c0adc23	0.008475336
118	0x3df59b88	0.11992556
119	0xbdec5061	-0.115387686
120	0xbc05fd1e	-0.008178024
121	0x3db6db7e	0.089285836
122	0x3d91c417	0.07117479
123	0xbdb5155b	-0.08841964
124	0xbdbbd740	-0.09171915
125	0xbd1ff806	-0.039054893
126	0x3dab6050	0.083679795
127	0xbc956642	-0.018237237
128	0xbdb2928d	-0.087193586
129	0x38d6baf7	0.0001023914
130	0xbce379f9	-0.027768122
131	0x3da9726e	0.08273779
132	0xbe1e6b81	-0.15470697
133	0xbc60f664	-0.013730619
134	0xbdf2e74b	-0.11860522
135	0xbe1b35c2	-0.15157226
136	0x3d061854	0.032738045
137	0x3e05a11b	0.13049738
138	0x3d780c4e	0.06055861
139	0xbdbd6cc2	-0.092492595
140	0xbe19366e	-0.1496217
141	0xbe403ceb	-0.18773238
142	0x3d394759	0.045234058
143	0x3d56f735	0.05248185
144	0xbe517108	-0.20453274
145	0x3d0c69c4	0.034280553
146	0xbe5202cd	-0.20508881
147	0x3e1120bd	0.14172645
148	0xbe0d0f23	-0.13775305
149	0x3d3ca1b1	0.04605264
150	0x3d47ca17	0.048776712
151	0x3d5421a0	0.05178988
152	0x3d804e1f	0.062649004
153	0x3e29edce	0.16594622
154	0x3d4353aa	0.04768721
155	0x3d45d9aa	0.048303284
156	0xbd0d478e	-0.034492068
157	0xbd49b019	-0.049240205
158	0xbdd35826	-0.10319547
159	0x3d940909	0.07228286
160	0x3c434234	0.0119176395
161	0xbc98fcb6	-0.01867519
162	0x3c505db4	0.012717653
163	0xbda1224a	-0.07867868
164	0x3d1a6323	0.0376922
165	0x3d69948e	0.05702644
166	0x3d91eb7f	0.071249954
167	0x3ded7752	0.11595024
168	0x3e0b4849	0.13601793
169	0xbda5e8ee	-0.081010684
170	0xbd720f8c	-0.059096858
171	0x3d07d7f4	0.033164933
172	0x3da05b75	0.07829944
173	0x3e1888c7	0.14895926
174	0xbd4f081f	-0.050544854
175	0xbcc241cd	-0.023713017
176	0x3d3cf0a8	0.046127945
177	0x3df97941	0.121813305
178	0xbdd73356	-0.105078384
179	0x3b9af928	0.004729409
180	0xbda68226	-0.081302926
181	0x3dab0d82	0.08352186
182	0x3d88c454	0.066780716
183	0x3db8482d	0.089981414
184	0x3d93ebf0	0.07222736
185	0x3d59cabf	0.05317187
186	0x3e0803cb	0.13282697
187	0xbb8fec23	-0.0043921634
188	0xbd306f64	-0.04307498
189	0xbcb9c928	-0.022678927
190	0xbdbb35a5	-0.09141091
191	0x3e246521	0.16054203
192	0xba07dbe7	-0.00051826093
193	0x3d97b5a1	0.0740769
194	0xbb2c4539	-0.0026286377
195	0x3d449594	0.04799421
196	0x3dba25cf	0.09089243
197	0xbd568888	-0.0523763
198	0x3db4ebde	0.088340506
199	0xbd8b02c8	-0.0678764
200	0x3e72ec9c	0.23723072
201	0xbdef0bac	-0.11672148
202	0xbdd3471c	-0.103162974
203	0xbd88c69b	-0.06678506
204	0x3d000e1a	0.03126345
205	0x3e221eee	0.15832111
206	0xbd6a7165	-0.057237048
207	0x3da2db7d	0.0795202
208	0xbd90e316	-0.07074563
209	0x3c495dbe	0.012290416
210	0xbc7f69f1	-0.015589223
211	0x3d464a8c	0.048410937
212	0xbc773360	-0.015087932
213	0xbe50bd3f	-0.20384692
214	0xbcf5113b	-0.029915443
215	0x3cf0ed31	0.029409977
216	0x3df3c668	0.11903077
217	0x3e0ba3d8	0.1363672
218	0xbc9d2970	-0.019184798
219	0x3c93f846	0.018062722
220	0xbd3a327d	-0.045458306
221	0x3e51c544	0.20485407
222	0x3d95c7f0	0.07313526
223	0xbc6b559f	-0.014363675
224	0x3df0a6bf	0.11750554
225	0xbc511c5c	-0.012763109
226	0x3e28133b	0.16413586
227	0x3b6d1018	0.0036172923
228	0x3d1fdc05	0.039028186
229	0x3d868bee	0.06569658
230	0xbe17c8d6	-0.14822707
231	0x3d53665e	0.051611297
232	0x3a02dfbf	0.0004992447
233	0x3d951601	0.072795875
234	0x3d866e9c	0.06564066
235	0x3e828760	0.25493908
236	0xbd1e9753	-0.038718533
237	0xbdbd7b06	-0.092519805
238	0x3ca7bb0d	0.020474935
239	0xbcc96458	-0.02458398
240	0xbe1beed6	-0.15227827
241	0xbb19eb8a	-0.002348634
242	0xbdddd7de	-0.10832189
243	0xbded54ce	-0.11588441
244	0x3e2e9868	0.17050326
245	0xbd91c0c3	-0.071168445
246	0xbe21bae3	-0.15793948
247	0xbe29b117	-0.1657146
248	0xbcb28c68	-0.021795467
249	0x3d5bddb3	0.053678226
250	0xbdc5dcf8	-0.09661287
251	0xbd486fbc	-0.048934683
252	0xbc93dba6	-0.018049072
253	0xbdf540db	-0.11975261
254	0xbdaa127b	-0.08304306
255	0x3cb49311	0.022042783

lstm1.bias_ih_l0 f4 [256]
0	0x3dbeafe4	0.09310892
1	0xbdc15761	-0.09440494
2	0x3dc433df	0.09580206
3	0x3d47e2d3	0.0488003
4	0xbd7228b3	-0.059120845
5	0x3e18e0ea	0.14929548
6	0xbaa0da62	-0.0012272114
7	0x3e105cf8	0.14097965
8	0x3d9edc37	0.077568464
9	0xbd4cf78e	-0.050040774
10	0xbdde392c	-0.108507484
11	0xbd1b822b	-0.037965935
12	0xbc5a781a	-0.0133342985
13	0xbd542e67	-0.051802065
14	0xbdc42679	-0.095776506
15	0x3e545fd9	0.20739688
16	0x3e298b74	0.16557103
17	0x3d9420f7	0.0723285
18	0x3d6bad84	0.057538524
19	0x3e1a9b81	0.15098383
20	0xbd23ea7b	-0.04001854
21	0xbd197253	-0.037462544
22	0x3d4953aa	0.049152054
23	0xbd17a844	-0.037025705
24	0x3d4b42ef	0.04962438
25	0xbe08f438	-0.13374412
26	0xbd8c8cdf	-0.068628065
27	0x3c80c15f	0.015717207
28	0xbcf652b4	-0.030068733
29	0x3d1ed0ff	0.038773533
30	0x3e05ea9c	0.13077778
31	0xbbcef502	-0.0063158283
32	0xbd23cb03	-0.03998853
33	0x3dfafaa9	0.12254841
34	0x3c61a14c	0.013771366
35	0x3e1a3f78	0.15063274
36	0x3ceea034	0.029129125
37	0xbdf3f41c	-0.119117945
38	0x3d7e020b	0.062013667
39	0xbd94ae21	-0.07259775
40	0xbe200e68	-0.15630496
41	0x3db646d1	0.08900226
42	0xbda0ed7e	-0.07857798
43	0x3c3e8bb9	0.011629992
44	0xbd2e0124	-0.042481557
45	0x3da2c1f7	0.07947152
46	0x3df3192b	0.11870035
47	0x3db3d11d	0.087801196
48	0xbd659963	-0.056054484
49	0x3c6f908e	0.014621867
50	0xb8c0b226	-9.188456e-05
51	0xbd501e4e	-0.05081015
52	0xbcd1ff0f	-0.025634317
53	0xbd1e0ca4	-0.038586274
54	0x3db55d2d	0.088556625
55	0xbde0d373	-0.10977831
56	0xbdad1f33	-0.084532164
57	0xbd8e3a68	-0.06944734
58	0x3e490f9a	0.19634858
59	0x3dbc1000	0.09182739
60	0xbcbac433	-0.022798633
61	0x3ccf9668	0.025340274
62	0x3df96e60	0.121792555
63	0x3b22ea06	0.0024858727
64	0x3d3d76d2	0.046255894
65	0xbdb5967e	-0.08866595
66	0x3c48774a	0.012235472
67	0xbc5a066b	-0.013307194
68	0x3d452689	0.048132453
69	0x3d3a7520	0.045521855
70	0x3e0dc92c	0.13846272
71	0xba9c8f3e	-0.0011944545
72	0x3e27b745	0.16378506
73	0xbda65736	-0.08122103
74	0xbd322b2e	-0.04349821
75	0xbc615a47	-0.013754434
76	0xbdc70b46	-0.09718947
77	0xbda037fe	-0.0782318
78	0xbd826550	-0.0636698
79	0xbd0ad7b9	-0.033897135
80	0xbccaca6f	-0.024754731
81	0x3e358cdb	0.17729513
82	0x3dc90547	0.0981546
83	0x3e365c24	0.17808586
84	0xbd1dad24	-0.038495198
85	0x3e80b098	0.2513473
86	0x3da399c1	0.079883106
87	0x39b5bed0	0.00034665177
88	0x3df943f9	0.12171168
89	0x3e3a1305	0.18171318
90	0x3c5cbc9c	0.013472702
91	0xbd954f59	-0.07290525
92	0x3c1c6cdd	0.009547439
93	0x3d0c6458	0.034275383
94	0xbd198eb6	-0.037489615
95	0x3e0dc817	0.1384586
96	0xbd9a29f5	-0.07527534
97	0x3cfd2185	0.030899772
98	0x3d76b3c6	0.06023004
99	0xbdead767	-0.11466866
100	0x3e092d21	0.13396122
101	0x3e0c0baa	0.13676324
102	0x3c20fa56	0.00982531
103	0xbd2f28f0	-0.04276365
104	0x3dca79fe	0.098865494
105	0x3ddb25a5	0.107005395
106	0x3d80c213	0.06287017
107	0x3e3c31f3	0.18378429
108	0x3dcd78e6	0.10032825
109	0xbdb7d50c	-0.08976182
110	0xbc12653a	-0.008935267
111	0x3e0a4d6f	0.13506101
112	0x3b7c7d54	0.003852685
113	0xbdba27c8	-0.09089619
114	0x3d041c46	0.032253526
115	0xbc9a752f	-0.018854706
116	0x3d227cd4	0.039669827
117	0xbc8288fa	-0.015934456
118	0x3d4a154e	0.049336724
119	0x3e03e319	0.128796
120	0xbdab2c93	-0.08358111
121	0x3d36bc9b	0.044613462
122	0xbc7078d4	-0.014677245
123	0x3d373965	0.04473247
124	0xbdab0e26	-0.08352308
125	0x3cb474a4	0.022028275
126	0x3c1eed15	0.009700079
127	0x3db392ae	0.08768211
128	0x3c7d5f2a	0.015464583
129	0x3ce42b1a	0.027852584
130	0xbddb51c9	-0.10708959
131	0xbdb7d627	-0.08976393
132	0x3dca0dd6	0.0986592
133	0xbe0c5c61	-0.13707115
134	0x3e4e7868	0.20163119
135	0x3d7df36f	0.061999734
136	0x3e474c47	0.19462691
137	0xbdee747d	-0.11643312
138	0xbd5b88a3	-0.053597104
139	0x3dbc4b98	0.09194106
140	0x3bdcc3b1	0.0067371954
141	0x3e4920d8	0.19641435
142	0xbd49b04d	-0.0492404
143	0xbdd08c2a	-0.10182984
144	0x3e580973	0.21097355
145	0x3e1faf57	0.1559423
146	0x3e67c342	0.22633079
147	0xbdac0c2d	-0.0840076
148	0xbdbcb906	-0.09214978
149	0x3e544bf8	0.20732105
150	0xbd602564	-0.05472316
151	0xbe2bfc12	-0.16795376
152	0x3dea70d4	0.114473015
153	0x3d31e0b8	0.0434272
154	0xbdb86cde	-0.0900514
155	0xbd140c6a	-0.03614465
156	0xbe49866e	-0.19680187
157	0x3dc90a32	0.09816398
158	0xbe4fae37	-0.20281301
159	0xbdf23e0b	-0.1182824
160	0xbd4da66c	-0.05020754
161	0x3dca9c16	0.09893052
162	0xbe0efe0e	-0.13964102
163	0xbd0b9594	-0.034078196
164	0xbd70eb94	-0.058818415
165	0x3c351417	0.011052153
166	0xbe1fb3f4	-0.1559599
167	0xbd8d4428	-0.068977654
168	0xbdf21824	-0.11821011
169	0x3d16e85f	0.0368427
170	0x3e0cdc81	0.1375599
171	0xbe40723c	-0.18793577
172	0xbe19f3ea	-0.15034452
173	0xbe2fea09	-0.17179121
174	0xbd7f8bee	-0.062389307
175	0x3d13744e	0.03599959
176	0x3cce7d75	0.025206307
177	0xbd82e0ad	-0.0639051
178	0x3d20b60d	0.039236117
179	0xbe1a4f49	-0.15069307
180	0x3dff95ab	0.12479719
181	0xbd584a00	-0.052804947
182	0xbdbe7d2a	-0.09301217
183	0x3ac1cea3	0.0014786314
184	0xbcdcc369	-0.026948648
185	0xbd9a17ef	-0.07524096
186	0x3d9363e2	0.071967855
187	0x3d117e68	0.03552094
188	0x3dff5f85	0.12469391
189	0xbe296d37	-0.16545568
190	0x3e4a0169	0.197271
191	0xbddeec51	-0.108849175
192	0xbdb95c12	-0.09050764
193	0x3cca75c0	0.02471435
194	0xb8e6778e	-0.000109895234
195	0x3cdbcef4	0.026832081
196	0x3e0e30db	0.13885824
197	0x3c0db611	0.008649365
198	0x3cc74fb7	0.024330003
199	0x3c7b8b8b	0.015353094
200	0xbd496962	-0.049172767
201	0x3b8ce61f	0.0042998935
202	0x3c2367b5	0.009973456
203	0xbd199ad7	-0.037501182
204	0xbe0f0533	-0.13966827
205	0x3da3554c	0.079752535
206	0x3d91a358	0.071112335
207	0x3dbd4d3f	0.09243249
208	0xbcdeb7d3	-0.027187264
209	0x3dd0f296	0.102025196
210	0x3d491eb1	0.049101535
211	0x3d8c4a1d	0.068500735
212	0x3da832ac	0.0821279
213	0x3e33e4c6	0.17567739
214	0x3d087528	0.033314854
215	0x3d8736d4	0.066022545
216	0x3cdb56c9	0.02677478
217	0x3cc6ea3a	0.02428161
218	0x3e3466e5	0.17617376
219	0x3d852259	0.06500692
220	0xbd12afb1	-0.035812084
221	0x3e582a13	0.211098
222	0x3d975b5f	0.073904745
223	0x3dab7047	0.083710246
224	0x3d918e98	0.07107276
225	0x3ddcff94	0.10790935
226	0x3d08cf26	0.033400677
227	0x3d3f9c3c	0.046779856
228	0x3d74864c	0.059698388
229	0xbc0b8e26	-0.008517778
230	0x3d254ad7	0.040354576
231	0x3da528e2	0.080644384
232	0x3e4ba1a5	0.19885881
233	0x3b5ce3c0	0.0033705086
234	0x3ca6bed5	0.020354668
235	0x3cb0b958	0.021572754
236	0x3dc9a8fd	0.09846685
237	0xbceec6a5	-0.029147455
238	0x3cf38ebf	0.029731153
239	0x3e200953	0.15628557
240	0x3d77f314	0.06053455
241	0xbbd6fa6f	-0.0065606157
242	0x3dc8a8ce	0.09797822
243	0xbd6c54cf	-0.057698067
244	0x3da13d36	0.07873003
245	0xbd30b045	-0.043136854
246	0x3e3a529e	0.18195578
247	0xba1868f3	-0.00058139785
248	0x3da43544	0.08017972
249	0x3e1199fb	0.14218895
250	0x3e616c78	0.22014034
251	0x3d963a8e	0.07335387
252	0x3db6b789	0.08921725
253	0xbd43419b	-0.047669988
254	0x3e484d1c	0.19560665
255	0xbd96cc67	-0.073632054

lstm1.bias_hh_l0 f4 [256]
0	0xbb9a1199	-0.004701805
1	0x3c8a6676	0.01689456
2	0x3dd69f0a	0.10479553
3	0x3dc14597	0.09437101
4	0x3d0e1398	0.034686655
5	0x3cd1361a	0.025538493
6	0x3e213e60	0.1574645
7	0x3e2d9af6	0.16953644
8	0x3e284d2c	0.16435689
9	0xbb771a53	-0.00377049
10	0x3deb52b5	0.114903845
11	0x3daf8abb	0.085713826
12	0x3d4c1571	0.049825136
13	0xbc85abea	-0.016317327
14	0xbce80930	-0.028324693
15	0x3dbe31cc	0.09286842
16	0xbda2b12f	-0.07943951
17	0xbd6c30ee	-0.05766385
18	0x3cf27015	0.02959446
19	0x3e4c6c54	0.19963199
20	0x3d9d713b	0.076876126
21	0x3debba6f	0.11510169
22	0x3e2ba42e	0.16761848
23	0x3d79a21f	0.060945626
24	0xbc828e84	-0.015937097
25	0xbc144d1e	-0.009051589
26	0x3d11d2d3	0.03560145
27	0x3ddda052	0.10821594
28	0xbdae366a	-0.085064724
29	0x3e16f977	0.14743601
30	0xbda45681	-0.08024312
31	0x3ccb5c07	0.024824155
32	0xbd48fc38	-0.04906866
33	0xbda913d7	-0.08255737
34	0xbd0709ad	-0.032968212
35	0x3e1d2fe9	0.15350308
36	0xbd467316	-0.0484496
37	0xbd8cf645	-0.0688291
38	0x3de1f196	0.11032407
39	0xbe0cca14	-0.13748962
40	0xbbaa7cb4	-0.005202854
41	0xbd59e206	-0.05319407
42	0x3c7f8636	0.015595963
43	0x3dc7a8f2	0.09749021
44	0x3ddf7c99	0.10912437
45	0xbd2ab977	-0.04168078
46	0x3d2c3eeb	0.04205219
47	0x3e4f691f	0.20254944
48	0xbcde7aed	-0.027158225
49	0x3d09c399	0.033633802
50	0x3d915cc2	0.0709777
51	0xbdc05e2d	-0.093929626
52	0x3ba73bbc	0.0051035564
53	0x39f1369e	0.00046007795
54	0x3cc3bcd4	0.023893751
55	0x3d9c7101	0.07638741
56	0xbcfbc3bf	-0.030732987
57	0x3dd6d4e3	0.10489824
58	0x3e4be1a6	0.19910297
59	0xbd562cc4	-0.052288786
60	0xbde3c8ae	-0.11122261
61	0xbd486310	-0.0489226
62	0x3bb73aa8	0.005591709
63	0xbd3bdf55	-0.045867283
64	0x3e5c6392	0.21522358
65	0x3dc2010f	0.09472858
66	0xbd1e459d	-0.038640607
67	0x3d9e348b	0.077248655
68	0x3d9bdda6	0.076106355
69	0x3e55291d	0.20816465
70	0x3d99703b	0.074921094
71	0x3dd270f4	0.1027545
72	0x3d7cd5ec	0.06172745
73	0xbbe4115f	-0.0069600786
74	0x3c974196	0.018463891
75	0xbcb44a3d	-0.022008056
76	0x3d6c916e	0.05775588
77	0x3cb7e07e	0.022445913
78	0xbdc6554e	-0.09684239
79	0x3cc02155	0.023453394
80	0xbd736cfc	-0.059430107
81	0x3e17b14b	0.14813726
82	0x3d294632	0.04132671
83	0x3db8d57b	0.09025093
84	0xbdbad3f3	-0.09122457
85	0x3e13e43f	0.14442538
86	0x3de222c4	0.11041787
87	0xbd0a82b2	-0.033816047
88	0x3d899014	0.06716934
89	0x3cbd588a	0.023113508
90	0x3d00c9e8	0.031442553
91	0x3cb06465	0.021532247
92	0xbda127f4	-0.078689486
93	0x3e1f5b45	0.1556216
94	0xbd059ef3	-0.03262229
95	0xbc28fbea	-0.010313967
96	0x3dc534c4	0.09629205
97	0xbdc55a72	-0.09636392
98	0x3d421a81	0.047388557
99	0xbdccd316	-0.10001199
100	0x3e2fe4fc	0.17177194
101	0x3e3c6ef4	0.184017
102	0xbc2342a3	-0.009964618
103	0x3bcb2382	0.006199301
104	0x3e0d381b	0.13790934
105	0x3e0d6bdf	0.13810681
106	0xbad7b256	-0.0016456346
107	0x3e6b0db7	0.2295445
108	0x3d7105bf	0.05884337
109	0x3d1a0d15	0.037610132
110	0xbd1091fa	-0.035295464
111	0x3d85d2b5	0.0653433
112	0x3d891f09	0.066953726
113	0xbdc3e65d	-0.09565423
114	0x3dc4b35f	0.09604525
115	0x3c93ebfd	0.018056864
116	0x3dde9462	0.108681455
117	0xbda04151	-0.07824958
118	0x3d180bae	0.037120514
119	0x3e147951	0.14499404
120	0xbbbf64de	-0.0058408817
121	0xbd7d90d0	-0.061905682
122	0xbb6eaa77	-0.0036417523
123	0x3db882ac	0.09009299
124	0x3bba728d	0.005689925
125	0xbdce1d43	-0.10064175
126	0x3e2bd17c	0.1677913
127	0xbc8f20e5	-0.01747174
128	0x3dba01dd	0.09082387
129	0x3dc8dad5	0.09807364
130	0xbdd371b2	-0.1032442
131	0x3d8804a1	0.06641508
132	0x3e3b086a	0.18264928
133	0xbe235c00	-0.15953064
134	0x3d4cf87e	0.050041668
135	0x3df190b6	0.117951795
136	0x3e1d8c94	0.15385658
137	0xbe0c9407	-0.13728343
138	0x3b8da28c	0.0043223556
139	0x3dc14d21	0.09438539
140	0x3e161532	0.14656523
141	0x3e06c324	0.13160378
142	0xbe53a1b5	-0.20667155
143	0xbc7d7b88	-0.015471347
144	0x3e5b47a4	0.21414047
145	0xbba211c6	-0.0049459664
146	0x3e0baad9	0.13639392
147	0x3dc83e56	0.09777515
148	0xbe1d2591	-0.15346362
149	0x3d94b2c7	0.072606616
150	0xbe58395b	-0.2111563
151	0xbdcd24b0	-0.10016763
152	0x3e4f0cfa	0.20219794
153	0x3e1de24d	0.15418358
154	0xbd06de35	-0.032926757
155	0xbceb3d5b	-0.02871578
156	0xbe32280e	-0.17398092
157	0xbde226ef	-0.11042582
158	0xbe0a2994	-0.13492423
159	0xbbe51630	-0.0069911703
160	0xbd2517fa	-0.04030607
161	0x3dbfa486	0.09357552
162	0x3d8d52ba	0.069005445
163	0x3d902a98	0.07039374
164	0xbcb8ea7a	-0.022572745
165	0xbe42a148	-0.19006836
166	0xbe4c38fb	-0.19943611
167	0x3d8cbaeb	0.06871589
168	0xbe1f6d6b	-0.15569083
169	0x3db15ce6	0.08660297
170	0x3d88f10c	0.06686601
171	0xbe35c148	-0.17749512
172	0xbc82bf0e	-0.015960243
173	0xbd9c4702	-0.07630731
174	0x3b3d5d91	0.0028894881
175	0xbd75c5c7	-0.06000307
176	0x3dcdb280	0.10043812
177	0x3ccf9f52	0.025344525
178	0xbdb50b51	-0.08840049
179	0xbe2a12a5	-0.16608675
180	0x3d8ef615	0.0698053
181	0xbc212f26	-0.009837901
182	0x3d941ed3	0.07232442
183	0x3daf0821	0.08546472
184	0x3df3f4cd	0.119119264
185	0xbe37647c	-0.17909425
186	0x3d33c50c	0.04388909
187	0x3de4a8b7	0.11164992
188	0x3e311d20	0.17296267
189	0xbe0c162b	-0.13680331
190	0x3b8f44b4	0.0043722037
191	0xbe57029c	-0.20997089
192	0x3d906f19	0.0705244
193	0xbcd3ce42	-0.025855187
194	0x3c05915c	0.008152332
195	0x3e24b815	0.16085847
196	0x3cb1a7ca	0.021686453
197	0x3e2e218b	0.17004983
198	0x3e285041	0.16436864
199	0xbc766d0a	-0.015040645
200	0x3e125c7b	0.14293091
201	0xbd3d85a2	-0.04627002
202	0x3c90781b	0.017635396
203	0xbd439b6b	-0.04775564
204	0xbc0b35a3	-0.008496675
205	0x3db74c0e	0.08950053
206	0xbd3e5938	-0.046471804
207	0x3dec67bf	0.115432255
208	0x3e3eefb8	0.18646133
209	0xbd801ec7	-0.0625587
210	0x3b72e06c	0.0037060035
211	0x3e637278	0.22211635
212	0xbc6416b4	-0.0139214285
213	0x3deb663c	0.11494109
214	0x3de971b3	0.113986395
215	0x3e12f511	0.14351298
216	0xbae54de2	-0.0017494524
217	0xbd59edbd	-0.05320524
218	0x3e47bd95	0.19505914
219	0x3bc1a1ea	0.0059091942
220	0x3df60743	0.12013104
221	0x3de39f3e	0.111143574
222	0x3e291ab1	0.16514088
223	0x3d956ddb	0.07296344
224	0xbdd38df9	-0.103298135
225	0x3ddf732f	0.109106414
226	0xbdb6814e	-0.08911382
227	0x3e24efb9	0.16107072
228	0x3d2992fb	0.041399937
229	0x3d06b29e	0.032885186
230	0x3bdc2b10	0.0067190006
231	0x3d5bbb2f	0.05364531
232	0x3d5928dd	0.053017486
233	0x3df0edd1	0.1176411
234	0xbc3f6a81	-0.011683107
235	0x3e4efbc4	0.20213228
236	0x3e03cd10	0.12871194
237	0xbd24b7a8	-0.04021421
238	0x3c6e0b66	0.014529085
239	0x3e3aa624	0.1822744
240	0x3dd58da6	0.10427408
241	0x3df23e67	0.118283086
242	0x3db70b30	0.08937681
243	0x3d159389	0.036517654
244	0x3dd0847a	0.10181518
245	0xbc774455	-0.015091975
246	0x3e3a678d	0.18203564
247	0x3d9e3da1	0.077265985
248	0xbd9e49e4	-0.07728937
249	0x3d4492f0	0.047991693
250	0x3e0a6e40	0.1351862
251	0xbcd33dc7	-0.025786294
252	0xbdeade4d	-0.11468182
253	0x3e12d247	0.14338027
254	0x3c6d878f	0.014497652
255	0xb8a6015e	-7.9157515e-05

lstm2.weight_ih_l0 f4 [256, 64]
0	0xbdd849d3	-0.10560956
1	0x3e43c2a8	0.19117224
2	0x3d66226c	0.05618517
3	0x3e49be70	0.19701552
4	0xbc041bd8	-0.008063279
5	0xbda195b8	-0.07889885
6	0x3c14a286	0.009071952
7	0xbd40bad7	-0.047053184
8	0xbd88e275	-0.06683818
9	0x3e1d0da3	0.15337233
10	0x3dd0208e	0.10162459
11	0x3cdd9dda	0.027052809
12	0xbdb54872	-0.088517085
13	0x3d86cb6d	0.06581769
14	0x3d8980ac	0.06713995
15	0xbd369279	-0.04457328
16	0xbe3a0cb0	-0.18168902
17	0xbc78723d	-0.015163955
18	0xbe28c144	-0.16479975
19	0x3e13bcbb	0.14427464
20	0xbd844f14	-0.064603955
21	0xbe3cce20	-0.18438005
22	0x3c051687	0.008123047
23	0xbe222db8	-0.15837753
24	0xbe0bb33b	-0.1364259
25	0x3db86498	0.09003562
26	0x3db96c9b	0.09053918
27	0x3e28ca59	0.1648344
28	0x3e323b59	0.17405452
29	0x3e112961	0.14175941
30	0x3d3a7376	0.04552027
31	0xbda394e0	-0.0798738
32	0x3d86cc45	0.0658193
33	0x3e0593dc	0.13044685
34	0x3e227388	0.15864384
35	0x3e2f5b50	0.17124677
36	0xbda9daeb	-0.082937084
37	0x3dffffe1	0.12499977
38	0x3c4428de	0.011972634
39	0x3de77ecb	0.11303481
40	0xbc7d6308	-0.015465505
41	0x3cbf5b7c	0.023359053
42	0x3d75493f	0.059884306
43	0x3d9dae97	0.07699316
44	0x3e528d4b	0.20561711
45	0xbd4ef6d1	-0.05052835
46	0x3db7a4b1	0.08966959
47	0xbccbe1b6	-0.0248879
48	0xbd51cbb9	-0.051219676
49	0x3c254a84	0.010088567
50	0x3d034c82	0.032055385
51	0x3d3170eb	0.043320578
52	0xbd9757f0	-0.073898196
53	0x3e1db837	0.15402304
54	0x3e280c32	0.16410902
55	0xbe73fdeb	-0.23827331
56	0x3de902e7	0.11377507
57	0x3d83e078	0.064392984
58	0x3c8b74da	0.017023493
59	0xbe8bc11f	-0.27295777
60	0xbe510fc9	-0.20416178
61	0x3d4a2dea	0.049360193
62	0xbd9b817d	-0.07593057
63	0x3e2ba72d	0.16762991
64	0xbbfd69d3	-0.0077335625
65	0x3e09c2d1	0.13453223
66	0xbc195b75	-0.009360184
67	0x3dd69f97	0.10479658
68	0xbc9329cf	-0.017964272
69	0xb99d9755	-0.00030058125
70	0xbe02d02b	-0.12774722
71	0xbe7164eb	-0.23573653
72	0xbe102f94	-0.1408065
73	0x3d27c02a	0.040954746
74	0xb953b006	-0.00020188102
75	0x3e6ccead	0.23125716
76	0xbdb3cc17	-0.087791614
77	0xbc0d8953	-0.008638698
78	0x3dd5b491	0.10434831
79	0xbcc91ee2	-0.024550859
80	0x3cb9c7dc	0.022678308
81	0xbddf8895	-0.10914723
82	0xbe21c85f	-0.15799092
83	0x3c82ef52	0.015983257
84	0x3d443566	0.047902487
85	0x3d3b4f4e	0.045729928
86	0xbd9fc334	-0.07800904
87	0x3cd51d4d	0.026014948
88	0x3d95d78e	0.073165044
89	0x3d870ae6	0.065938756
90	0x3e80e216	0.2517249
91	0x3cfa4ad2	0.030553255
92	0xbdb3ab9c	-0.08772966
93	0x3cbd3764	0.023097701
94	0xbd02c488	-0.031925708
95	0x3d0158f5	0.031578977
96	0x3e15e85f	0.14639424
97	0x3dfa6b81	0.12227536
98	0xbcb26a1d	-0.021779114
99	0x3d906613	0.07050719
100	0x3df01a6d	0.1172379
101	0x3e38d6e0	0.18050718
102	0x3dea14c9	0.11429746
103	0x3cb5a3fd	0.022172922
104	0x3e26a58b	0.16274087
105	0x3d1364f1	0.035984937
106	0xbe5691d7	-0.20954071
107	0x3d6d4748	0.057929307
108	0x3d713b92	0.0588947
109	0x3bc48f1b	0.005998505
110	0x3e1c8034	0.1528328
111	0x3d410d0c	0.047131583
112	0xbccc0d54	-0.0249087
113	0xbdb92ce4	-0.09041765
114	0x3cfb4b31	0.030675502
115	0xbe64efd1	-0.22357108
116	0xbe344669	-0.17604984
117	0x3d74941b	0.059711557
118	0x3dea8503	0.11451151
119	0x3d415945	0.047204275
120	0xbdf96567	-0.12177544
121	0x3e165739	0.1468171
122	0xbe28c368	-0.16480792
123	0xbc0646b5	-0.008195569
124	0x3d03f8e5	0.032219786
125	0x3ba490bd	0.005022137
126	0xbd5ca9b1	-0.053872768
127	0xbc2e8c2d	-0.010653538
128	0xbe4c2cb2	-0.19938925
129	0x3d9e6627	0.07734328
130	0x3e0ceb2a	0.13761583
131	0x3e2dde0e	0.16979238
132	0xbce8566d	-0.028361524
133	0xbe18f152	-0.14935806
134	0xbd9ad6e1	-0.07560516
135	0xbdd92765	-0.10603217
136	0xbc5ca2d4	-0.013466556
137	0x3d6c96e6	0.057761095
138	0x3d703999	0.05864868
139	0x3e6cb729	0.23116745
140	0xbcb26a22	-0.021779124
141	0xbdf940ec	-0.12170586
142	0xbd91734e	-0.07102071
143	0xbbce2a0e	-0.0062916344
144	0xbdb5235e	-0.088446364
145	0x3c757b8b	0.014983068
146	0xbcdd4b77	-0.027013524
147	0x3d03e581	0.032201294
148	0x3a580a54	0.0008241285
149	0xbe445a2a	-0.1917502
150	0x3e0a8b5d	0.13529725
151	0xbe119143	-0.14215569
152	0xbccab31b	-0.024743607
153	0x3b8c3826	0.0042791544
154	0xbdb74582	-0.089488044
155	0x3d8643eb	0.06555923
156	0x3dd39191	0.10330499
157	0x3e211adb	0.15732901
158	0xbcc217de	-0.023693021
159	0xbe182884	-0.14859205
160	0x3e060357	0.13087212
161	0x3da2bb8b	0.07945927
162	0x3d3e86b1	0.04651517
163	0x3e4b79c4	0.19870669
164	0x3dc3ba3b	0.09557005
165	0x3e5c0dc9	0.21489634
166	0x3d414fd1	0.04719526
167	0x3ddf264f	0.10895979
168	0xbd3d5eaa	-0.046232857
169	0x3d44de38	0.048063487
170	0x3cd2812d	0.025696361
171	0x3d08acc3	0.033367883
172	0x3d6311e1	0.055436973
173	0xbdc9854e	-0.09839879
174	0xbd12bcef	-0.035824712
175	0x3d745374	0.0596499
176	0xbe3ca010	-0.18420434
177	0x3cc27a0f	0.023739843
178	0x3d07fb82	0.03319884
179	0x3e176f1a	0.14788476
180	0x3d5b3d27	0.053525116
181	0xbd378f1d	-0.044814218
182	0xbcf0d787	-0.029399646
183	0xbe4af1b5	-0.19818766
184	0x3c4f9867	0.012670613
185	0x3d93393e	0.071886525
186	0x3d4f3685	0.050589103
187	0xbe7a3b29	-0.2443663
188	0x3e10dd4b	0.14146917
189	0xbd7a7be6	-0.061153315
190	0xbe7ef338	-0.24897468
191	0xbd4ac3ff	-0.049503323
192	0x3dae0b10	0.08498204
193	0x3de5d6c4	0.11222604
194	0xbc2b3b95	-0.010451217
195	0x3d05c4be	0.03265833
196	0x3d3775fa	0.044790246
197	0x3da4cdfb	0.080471
198	0xbe54fa0b	-0.20798509
199	0xbe6a7b15	-0.22898515
200	0xbe17291d	-0.14761777
201	0xbd904345	-0.07044081
202	0x3cc1ae77	0.023642762
203	0x3e292f96	0.16522059
204	0xbd1b7a43	-0.037958395
205	0x3d892435	0.06696359
206	0x3e57aff7	0.21063219
207	0xbc8988ad	-0.016788805
208	0x3e0c9da0	0.13732004
209	0x39bddef9	0.00036215017
210	0xbd03d2d5	-0.032183487
211	0xbdab7143	-0.08371212
212	0x3d0e9cff	0.034817692
213	0x3da1c905	0.078996696
214	0xbd91456e	-0.07093321
215	0x3dd4f401	0.103981026
216	0x3d0d14d6	0.0344437
217	0xbdbde11a	-0.0927145
218	0x3db703fa	0.08936305
219	0x3e0d2bc0	0.1378622
220	0xbcc0e432	-0.023546312
221	0x3b8159ba	0.003947464
222	0xbc970ca0	-0.018438637
223	0x3e5de58d	0.21669598
224	0x3dfbf521	0.12302614
225	0xbcf0dffa	-0.029403675
226	0xbdb6c9d5	-0.08925215
227	0xbb78b5b1	-0.0037950093
228	0x3e696850	0.22793698
229	0x3e24f7ee	0.16110203
230	0x3dee68d2	0.11641087
231	0x3d827e81	0.06371785
232	0xbd51563e	-0.051107638
233	0xbcef0a0a	-0.029179592
234	0xbe70d1a7	-0.23517476
235	0x3d93a00f	0.07208263
236	0xbdab5d53	-0.083674096
237	0x3e170324	0.14747292
238	0x3e244dfc	0.16045374
239	0xbd1c722f	-0.03819483
240	0x3cf77cf6	0.030210953
241	0xbc8577a8	-0.016292408
242	0x3dc2d08d	0.09512434
243	0xbe106c50	-0.14103818
244	0xbe289461	-0.16462852
245	0x3d9fe1f1	0.07806767
246	0x3d947d80	0.072505
247	0xbd5da699	-0.054113958
248	0x3d7dc932	0.061959453
249	0xbd234661	-0.03986204
250	0x3c80803a	0.015686143
251	0xbca97f54	-0.020690598
252	0xbd7fe67d	-0.06247567
253	0xbdfdc670	-0.123913646
254	0xbcad791b	-0.021175912
255	0xbcc22e15	-0.023703614

lstm2.weight_hh_l0 f4 [256, 64]
0	0x3b145c0d	0.0022637874
1	0xbe1df50c	-0.15425509
2	0x3e2e3c7d	0.17015262
3	0x3de84476	0.11341183
4	0xbc4d1489	-0.012517103
5	0xbe112cb3	-0.14177208
6	0xbc1ba559	-0.009499871
7	0xbd811949	-0.06303651
8	0x3dc2f5e6	0.09519558
9	0xbc8a59dc	-0.016888551
10	0xbca9b483	-0.020715958
11	0xbd9af172	-0.07565583
12	0xbdc18504	-0.09449199
13	0xbc498bac	-0.012301367
14	0xbc708654	-0.014680464
15	0x3d8d4b69	0.06899149
16	0x3d54dcf1	0.05196852
17	0xbdcd53f9	-0.10025782
18	0x3c1d2248	0.009590693
19	0xbc711766	-0.014715051
20	0x3cee5221	0.029091896
21	0xbd262fb5	-0.04057284
22	0x3d3a8bbf	0.04554343
23	0xbdc7a676	-0.09748547
24	0xbdaf8c43	-0.08571675
25	0x3e1e24d9	0.15443744
26	0xbde90d21	-0.11379457
27	0x3ca92df2	0.020651791
28	0x3d1affa9	0.037841473
29	0xbbf65c4d	-0.0075183273
30	0x3b08f450	0.0020897575
31	0x3e0af169	0.13568653
32	0x3e11477b	0.14187424
33	0x3d05bd5f	0.0326513
34	0xbca4a76a	-0.02009936
35	0x3db9c8e6	0.090715215
36	0x3d946959	0.07246656
37	0x3dc29cd2	0.09502567
38	0x3bb80261	0.005615518
39	0xbd31de22	-0.043424733
40	0x3c58ef7b	0.01324069
41	0xbd1aa4d2	-0.03775484
42	0x3d0acec7	0.033888604
43	0xbd946ef0	-0.07247722
44	0x3d848c3f	0.06472062
45	0x3e0fd98a	0.14047828
46	0x3cc4a20c	0.024003051
47	0xbe2f486f	-0.17117475
48	0xbd93b441	-0.07212115
49	0x3d448855	0.04798158
50	0xbd6d542b	-0.057941597
51	0x3e239032	0.15972975
52	0x3ced119b	0.028939059
53	0x3d980b18	0.07423991
54	0xbdcd109e	-0.10012935
55	0x3d230e21	0.039808396
56	0xbe4a195b	-0.19736235
57	0x3d7dc470	0.061954916
58	0x3bd11bc7	0.006381485
59	0xbd64c1d3	-0.055848908
60	0x3c729bef	0.014807685
61	0x3bd6a5dd	0.006550534
62	0x3e3fcc4d	0.18730278
63	0xbd8a3397	-0.06748121
64	0xbdff5988	-0.124682486
65	0x3de6a703	0.11262324
66	0xbd38a097	-0.045075025
67	0x3d210363	0.03930987
68	0xbd9849e3	-0.07435968
69	0x3d22a2c9	0.039706025
70	0x3d5ae098	0.053436846
71	0x3de86544	0.1134744
72	0x3d2ba794	0.04190786
73	0x3d5bbe5e	0.053648345
74	0x3c84b0c1	0.016197564
75	0xbd07f63b	-0.033193808
76	0x3da530c1	0.0806594
77	0xbd9a6784	-0.07539275
78	0xbd55113d	-0.052018393
79	0x3d8ff953	0.07029977
80	0x3d15265c	0.036413535
81	0x3ddf9131	0.10916365
82	0xbdab73c7	-0.08371692
83	0x3e08adb7	0.13347517
84	0xbdbf633d	-0.093451
85	0x3c664a4f	0.0140558025
86	0xbdb5cfda	-0.08877535
87	0xbce49962	-0.02790517
88	0xbd6ff3a7	-0.058581974
89	0x3ce78706	0.028262626
90	0xbd93e994	-0.07222286
91	0xbb1c4ef4	-0.002385077
92	0xbe115ce3	-0.1419559
93	0x3db47df2	0.08813085
94	0xbe3e7aec	-0.18601578
95	0x3d88442d	0.066536285
96	0x3e266d46	0.16252622
97	0xbd6241bc	-0.05523847
98	0xbdf5cb5c	-0.12001678
99	0xbdc499b3	-0.09599628
100	0x3da0d4fa	0.07853122
101	0xbdc71b26	-0.09721975
102	0xba1e3f06	-0.0006036613
103	0xbd4ecaa0	-0.050486207
104	0x3df3f577	0.11912053
105	0x3d1f0673	0.03882451
106	0xbe6e5ba3	-0.23277144
107	0xbdf0b90c	-0.11754045
108	0xbe2c08d4	-0.16800243
109	0xb9b1e06d	-0.0003392728
110	0xbdbd2846	-0.09236197
111	0x3da5c27f	0.08093738
112	0xbcbad31e	-0.022805747
113	0x3c071395	0.008244415
114	0xbc8c70df	-0.017143665
115	0x3cffb332	0.031213377
116	0x3d071bb5	0.032985408
117	0x3e3fcb63	0.1872993
118	0x3d9200cc	0.07129058
119	0x3cb10667	0.021609498
120	0x3da017c7	0.07817035
121	0xbbcba7cc	-0.0062150713
122	0x3da00765	0.078139104
123	0xbc76f2b9	-0.015072518
124	0x3da54b2f	0.08070981
125	0xbe063be1	-0.1310878
126	0x3dcc809c	0.09985468
127	0xbde82d20	-0.11336732
128	0xbcf4c627	-0.029879643
129	0x3c0e7def	0.008697017
130	0xba85ca6e	-0.0010207423
131	0xbb897dad	-0.00419589
132	0x3e25850e	0.16164038
133	0xbe2a9465	-0.1665817
134	0xbb1d5d29	-0.0024011827
135	0x3c6f619b	0.014610673
136	0xbda7d505	-0.08194927
137	0x3dea7e6f	0.114498965
138	0x3ca0bfb4	0.019622661
139	0x3c47f97c	0.012205478
140	0xbd312734	-0.043250278
141	0x3cae8b97	0.021306796
142	0xbdef27cb	-0.11677512
143	0x3d84e25e	0.064884886
144	0xbdef1be0	-0.116752386
145	0xbd273963	-0.040826213
146	0xbd5c6305	-0.05380537
147	0xbd145485	-0.036213417
148	0x3d767e43	0.060179006
149	0x3dccb75e	0.09995912
150	0x3e54fcc2	0.20799544
151	0xbdd4942f	-0.10379826
152	0x3cd52c2f	0.026022045
153	0x3df9c1be	0.121951565
154	0xbe5d3325	-0.21601541
155	0x3e049306	0.1294671
156	0x3d8c89ad	0.06862197
157	0xbd566a6d	-0.05234759
158	0x3db81e76	0.08990185
159	0x3c98bda5	0.018645117
160	0x3e045ef2	0.12926844
161	0x3d6e2d99	0.058148954
162	0xbce484cd	-0.027895356
163	0xbd95407b	-0.07287689
164	0xbd3e0c9c	-0.046398744
165	0x3db2335d	0.08701203
166	0xbdfc2222	-0.12311198
167	0xbd88346d	-0.066506244
168	0xbe1b4627	-0.1516348
169	0xbd0b0e47	-0.033949163
170	0x3e12170e	0.14266607
171	0x3d9d70ea	0.07687552
172	0x3cb96679	0.02263187
173	0x3dfd2623	0.123607896
174	0xbdacfca5	-0.084466256
175	0xbe2e4b1c	-0.1702084
176	0x3cd07290	0.025445253
177	0x3c0a769c	0.00845113
178	0xbd4e06f2	-0.050299592
179	0x3da4349a	0.080178455
180	0xbd46e9fa	-0.04856298
181	0x3d13f9e9	0.036127005
182	0xbcd6915c	-0.02619236
183	0x3d8bfae7	0.06834965
184	0x3cbd4130	0.023102373
185	0xbd44539f	-0.04793131
186	0x3d00add5	0.03141578
187	0x3cebdd52	0.028792057
188	0x3dcb119e	0.099154696
189	0xbd13fd25	-0.03613009
190	0x3d8e451e	0.06946777
191	0x3d80680f	0.062698476
192	0xbd30f948	-0.043206483
193	0xbd6367e3	-0.055518996
194	0xbda4ea59	-0.08052511
195	0xbd45ac3a	-0.04825995
196	0x3d419020	0.04725659
197	0xbdb26422	-0.08710505
198	0x3dce1e69	0.10064394
199	0x3d3feaa2	0.046854623
200	0x3c404156	0.011734327
201	0xbd5a74ed	-0.053334165
202	0x3db0665d	0.08613274
203	0x3dc5cc6c	0.09658131
204	0xbcbf6e2c	-0.023367964
205	0x3bddd11c	0.0067693125
206	0x3def3c32	0.11681403
207	0xbdf8d138	-0.1214928
208	0xbd345d4c	-0.044034287
209	0x3e1a3dce	0.15062639
210	0xbd8dfe22	-0.069332376
211	0xbd90d5b2	-0.07072009
212	0xbd0181ae	-0.031617813
213	0xbe507707	-0.20357905
214	0x3df03556	0.11728923
215	0x3d083f9f	0.0332638
216	0xbbc22f08	-0.0059260167
217	0xbe0d26f4	-0.1378439
218	0xbbecb888	-0.0072241463
219	0x3ce7029e	0.02819949
220	0x3d5971ae	0.05308693
221	0xbc9751f8	-0.018471703
222	0x3dc63bde	0.096793875
223	0xbb4e0fac	-0.0031442447
224	0xba908142	-0.001102485
225	0xbd8f0298	-0.069829166
226	0x3d957a79	0.072987504
227	0x3cdf847c	0.027284853
228	0x3df83590	0.12119591
229	0x3d206106	0.03915503
230	0x3e0077b5	0.12545665
231	0x3d955518	0.07291621
232	0xbdb15784	-0.086592704
233	0x3df56340	0.11981821
234	0x3d6adea7	0.057341244
235	0x3d71234a	0.058871545
236	0xbe03f26c	-0.12885445
237	0x3c804bac	0.015661083
238	0xbd0d97ef	-0.034568723
239	0x3d23688c	0.039894626
240	0x3e12edee	0.14348575
241	0xbdf9a502	-0.12189676
242	0xbc4e3566	-0.012585973
243	0x3ca80008	0.020507827
244	0x3dd08082	0.10180761
245	0xbd12bfda	-0.035827495
246	0x3d2ba1a1	0.04190219
247	0x3e0f901b	0.14019816
248	0xbc8dd083	-0.01731134
249	0xbd27f58b	-0.041005652
250	0x3cae05bd	0.02124297
251	0xbcada132	-0.021195028
252	0x3d86edd4	0.06588331
253	0xbdd58234	-0.10425225
254	0x3abbb282	0.0014320167
255	0xbcd50fea	-0.026008565

lstm2.bias_ih_l0 f4 [256]
0	0x3d17f920	0.03710282
1	0xbdf50e79	-0.11965651
2	0xbc1c7eb8	-0.0095516965
3	0xbcf5c1b3	-0.02999959
4	0x3c8dbba8	0.017301396
5	0x3e3d1ebf	0.1846876
6	0xbdaa2ff3	-0.08309927
7	0x3e29eb19	0.16593589
8	0xbd8ccbbc	-0.06874797
9	0xbc43daa1	-0.011953981
10	0xbdc6f414	-0.09714523
11	0x3e3c67d9	0.1839899
12	0xbca55085	-0.020179996
13	0x3e4ee97d	0.20206256
14	0x3dd6e19a	0.10492249
15	0xbc6d8d83	-0.014499071
16	0xbd96ae11	-0.07357419
17	0xbd66b352	-0.056323357
18	0xbcbe4a1b	-0.023228696
19	0xbc8c98d5	-0.01716272
20	0x3db19a60	0.08672023
21	0x3cf6627d	0.03007626
22	0x3e4e95ad	0.20174284
23	0x3d7b64a0	0.06137526
24	0xbcf71a63	-0.03016395
25	0x3e1e60f8	0.15466678
26	0x3d606739	0.05478594
27	0x3d7039c2	0.058648832
28	0x3bc50d8f	0.006013579
29	0x3e1d1c25	0.15342768
30	0xbcc3f088	-0.023918405
31	0xbda7447f	-0.081673615
32	0x3e03fdec	0.12889832
33	0x3d2bea2e	0.041971378
34	0xbd9c7c8f	-0.07640945
35	0x3df25180	0.11831951
36	0x3e41ddcb	0.18932264
37	0x3d352687	0.044226196
38	0x3caada14	0.02085594
39	0x3e34415e	0.1760306
40	0xbbddb029	-0.0067653847
41	0x3e1373c5	0.14399631
42	0xbdea50fb	-0.11441227
43	0x3dcd5f67	0.10027962
44	0xbe15285a	-0.14566174
45	0x3d3d9e5e	0.04629361
46	0xbcfe7870	-0.031063288
47	0xbc92dc53	-0.017927324
48	0x3e09e7d6	0.13467345
49	0xbd4ab4a7	-0.04948869
50	0x3bff9cff	0.007800698
51	0x3cf52b94	0.029928006
52	0xbdd2d48e	-0.10294448
53	0xbdec7559	-0.1154582
54	0xbd42cfa7	-0.047561314
55	0xbaca98cf	-0.0015456917
56	0xbbc7cc0b	-0.006097322
57	0xbe0d8981	-0.13821985
58	0x3b845652	0.0040386105
59	0x3e13091c	0.14358944
60	0xbd6c9a30	-0.057764232
61	0xbe0d98fb	-0.13827889
62	0xbc949140	-0.018135667
63	0xbab3e216	-0.0013723995
64	0xbdadae62	-0.084805265
65	0xbc3754e3	-0.011189672
66	0x3cda7daa	0.02667125
67	0x3d014171	0.03155655
68	0xbd12568d	-0.035727073
69	0xbd726736	-0.05918046
70	0xbd2c399d	-0.04204713
71	0x3dd6b62c	0.10483965
72	0x3db83324	0.08994129
73	0xbd3a0f1d	-0.04542457
74	0x3c00ba4c	0.007856917
75	0xbc17fd90	-0.009276763
76	0x3d66f533	0.056386184
77	0xbd51713b	-0.051133376
78	0x3ca829ae	0.020527687
79	0xbdb5a74e	-0.088698015
80	0xbc7f0992	-0.015566247
81	0x3de5ec51	0.112267144
82	0xbc5c4598	-0.013444327
83	0x3d16fa67	0.036859896
84	0x3ddde2ab	0.10834249
85	0x3ddcf57f	0.10789012
86	0x3e2d28ba	0.16910067
87	0xbe11f1f9	-0.14252461
88	0x3da83930	0.08214033
89	0x3dbb593a	0.09147878
90	0x3dd5b66f	0.10435187
91	0x3df9a683	0.12189963
92	0xbdb84a09	-0.08998496
93	0x3d90f40a	0.07077797
94	0x3b43be49	0.0029868057
95	0xbda97922	-0.082750574
96	0x3e46cce7	0.19414102
97	0xbdeae181	-0.11468793
98	0xbcad5af1	-0.021161528
99	0x3d9366cb	0.071973406
100	0xbb2284f5	-0.0024798487
101	0x3e5c927a	0.21540251
102	0x3e4af499	0.19819869
103	0xbd19dc60	-0.03756368
104	0x3cddcdd4	0.027075686
105	0xbd7a11cf	-0.06105214
106	0xbdf235f3	-0.11826696
107	0x3db0b8b7	0.086289816
108	0xbdf0601e	-0.11737083
109	0x3e065543	0.13118462
110	0x3cfb669e	0.03068858
111	0x3e17bec3	0.14818864
112	0x3dbbc4ad	0.09168372
113	0xbe0395cd	-0.12850113
114	0xbda65697	-0.081219845
115	0xbc687c3e	-0.014189778
116	0x3cc5105b	0.02405565
117	0xbd58505b	-0.052811008
118	0x3dfdb7e5	0.12388591
119	0x3ddc28f8	0.10750002
120	0xbb3afe3e	-0.0028532888
121	0x3c959efb	0.018264284
122	0xbdbc6aed	-0.09200082
123	0x3d673714	0.05644901
124	0xbd9e3973	-0.07725801
125	0x3e0a2b06	0.13492975
126	0xbcf8931e	-0.030343588
127	0xbda68108	-0.081300795
128	0x3d945227	0.07242232
129	0xbdf6dedd	-0.120542265
130	0x3abe20be	0.0014505608
131	0x3da54f2b	0.08071741
132	0x3caf4a3a	0.021397699
133	0xbd470fb4	-0.04859896
134	0x3dde23d4	0.108466774
135	0xbe234811	-0.1594546
136	0x3db63f2a	0.08898766
137	0x3d31f1b8	0.04344341
138	0xbdb37c96	-0.08763997
139	0xbe0939d3	-0.13400964
140	0xbdebb0d0	-0.11508334
141	0xbcff5c68	-0.031171992
142	0xbdb6b070	-0.089203715
143	0x3dc66041	0.09686328
144	0xbd00f254	-0.031481102
145	0x3d89b73b	0.067244016
146	0xbdb7a5be	-0.0896716
147	0xbceedb27	-0.029157234
148	0x3e06ded0	0.13170934
149	0x3c51da48	0.01280839
150	0xbd132061	-0.03591955
151	0xbd1a661a	-0.037695028
152	0x3e0054d2	0.12532356
153	0x3d787120	0.06065476
154	0x3dcf5860	0.10124278
155	0x3c903267	0.017602159
156	0xbdbeaa71	-0.09309853
157	0x3c39096d	0.011293751
158	0x3da8ae23	0.08236339
159	0x3d72ada3	0.059247624
160	0xbc879c81	-0.016554119
161	0xbd04bb03	-0.03240491
162	0xbcebd4f0	-0.02878806
163	0x3dc3ec92	0.095666066
164	0x3ce4419e	0.02786332
165	0x3ce60ce5	0.02808232
166	0x3dd57419	0.104225345
167	0xbc97f1e3	-0.018547958
168	0x3d905f8c	0.07049474
169	0xbdef9504	-0.11698344
170	0x3cb42d4b	0.021994254
171	0xbd1e9597	-0.03871688
172	0xbc3377f7	-0.010953895
173	0x3d9c8814	0.07643142
174	0xbdcfe644	-0.101513416
175	0xbda661f2	-0.0812415
176	0xbe0bd1ad	-0.13654204
177	0xbd5d26fe	-0.053992264
178	0x3dab4e01	0.083644874
179	0x3e00edb4	0.12590677
180	0x3d4ef522	0.050526746
181	0x3cfb20cc	0.030655287
182	0xbdaaaf44	-0.083342105
183	0xbd7f6282	-0.062349804
184	0x3df3a1f1	0.11896122
185	0xbd058dca	-0.032605924
186	0x3bc71d3b	0.0060764826
187	0xbdb164b2	-0.08661784
188	0x3d8b281b	0.06794759
189	0x3d819485	0.06327156
190	0x3da1f56a	0.07908137
191	0x3e27dbaa	0.16392389
192	0xbd0a9b91	-0.033839766
193	0xbd5b870b	-0.053595584
194	0x3debcd4d	0.115137674
195	0xbdf9d497	-0.121987514
196	0x3c457bfb	0.012053485
197	0x3cb89783	0.022533184
198	0xbd0c2b2d	-0.034220863
199	0x3e2c7729	0.16842331
200	0x3d8dba8e	0.06920348
201	0x3e252ab7	0.16129576
202	0x3e1d64dd	0.15370508
203	0x3e14d5c4	0.1453467
204	0x3d076ed5	0.033064682
205	0x3dbf3d78	0.09337896
206	0xbd7fa825	-0.062416214
207	0x3c45b4a1	0.012066991
208	0x3e3bcb48	0.18339264
209	0x3e1cd51b	0.15315668
210	0x3de92d4b	0.11385592
211	0x3e201ab1	0.15635182
212	0xbd5795f3	-0.052633237
213	0xbd87b3d6	-0.06626098
214	0x3e062c07	0.13102733
215	0x3e040ac4	0.12894732
216	0x3e4a7861	0.19772483
217	0xbd77498a	-0.060372867
218	0xbd0d3db9	-0.03448269
219	0x3d163d94	0.03667982
220	0x3cbdbaff	0.023160456
221	0x3c01e3a8	0.007927813
222	0xbcbd0733	-0.023074722
223	0xbd95da68	-0.07317048
224	0x3d99bfe8	0.07507306
225	0xbd85ce94	-0.06533542
226	0x3d2ec12d	0.042664696
227	0x3e34633b	0.17615978
228	0x3e0d4d94	0.13799125
229	0x3e144eb8	0.14483154
230	0x3dff02f2	0.12451734
231	0x3d4a374a	0.049369134
232	0xbd7b8318	-0.061404318
233	0x3de8a7fc	0.113601655
234	0xbcf0b19f	-0.029381571
235	0x3e271d31	0.1631973
236	0x3dc4cb64	0.09609106
237	0x3db08281	0.08618642
238	0x3d7cd28d	0.061724234
239	0x3cda5942	0.02665389
240	0x3cdc973f	0.026927589
241	0x3ca11c0a	0.01966669
242	0xbb99d8a6	-0.004695016
243	0x3d3cb4ef	0.04607099
244	0x3c7e0d76	0.015506139
245	0xba16a13b	-0.0005746071
246	0x3dcff786	0.10154633
247	0xbcdda6a7	-0.027057005
248	0xbdbf23d0	-0.093330026
249	0xbde570b4	-0.11203137
250	0x3e0da686	0.13833055
251	0x3da4debb	0.08050295
252	0x3e1701e1	0.1474681
253	0xbb88d7e7	-0.004176128
254	0xbd934416	-0.07190721
255	0xbd265367	-0.040606882
