saved_model/DAP_Model_Baseline.pt (torch, 230050 bytes, 12 tensors)

lstm1.weight_ih_l0 f4 [256, 2]
0.0635769 -0.10876338 0.17750467 -0.10030375 -0.09094952 0.058201976 0.10501929 -0.04865061
0.15923375 -0.023457788 0.0026170085 -0.07601105 0.12175824 0.082529455 -0.030703597 -0.21129885
0.07906023 -0.081867896 0.05346281 -0.13255395 0.20933607 -0.09247916 -0.10517829 -0.20920256
0.17424475 0.08606333 0.036181863 -0.2486619 -0.03324666 0.016417464 0.16808033 -0.040402472
0.054913975 -0.03720061 0.09651492 -0.07651454 0.07965558 0.0067137456 0.07903079 -0.0008857243
-0.08590433 -0.24929084 0.11955454 -0.0074475305 0.1875479 -0.09384214 0.15522726 -0.20412198
-0.21512543 -0.13220385 0.009192328 -0.08233038 0.048457116 -0.07672661 0.06564946 0.025169028
-0.029502675 -0.1148245 -0.0008863868 -0.2008284 0.09882944 0.14482969 0.041661598 0.06881584
0.05403834 0.09179168 0.022108223 -0.055593796 0.30038226 -0.014624433 -0.0018678256 -0.07594258
0.14621809 -0.078242265 -0.051709022 -0.0635078 0.03605687 0.023721067 0.112969205 0.032275513
-0.026241006 0.2691184 0.0037199655 -0.026576895 -0.050677467 -0.022735752 -0.036974724 -0.06848573
0.1700193 0.11791901 -0.09355185 0.105385944 -0.16005446 -0.013929361 0.091538146 0.092601664
0.030652663 0.088433236 0.17822833 -0.014701679 -0.018260794 0.031030608 -0.073629715 -0.027675759
0.15972407 3.375182e-05 -0.010440986 0.052821744 0.0036790585 -0.02132378 -0.010035331 -0.15663251
-0.017595245 0.11352851 -0.059982415 -0.15906578 0.11230654 -0.062133845 0.1789994 -0.04078251
0.19334818 0.059561554 -0.08788386 -0.019258553 0.095479675 0.062941566 -0.02940854 -0.060438346
0.08847308 -0.05994134 0.009316938 0.06967733 0.013511559 -0.103319086 -0.06223219 -0.04915912
0.067542724 0.008402142 0.04307494 0.09139628 0.18564726 0.019428741 -0.007913006 -0.19528028
0.14348358 0.074212834 -0.0688912 -0.08056539 0.07882197 0.22386067 -0.040526778 -0.05324172
-0.024094285 0.17592463 0.0077573727 -0.06086261 0.01750378 0.123356886 0.08278432 -0.0006266358
0.032177597 -0.15735881 -0.1621938 -0.18526064 -0.1388194 -0.22339933 0.052784767 -0.028865403
0.026037456 -0.2552878 -0.0017295553 0.07676526 0.08836705 0.08920834 -0.06376837 -0.10718943
-0.14041649 -0.18664517 -0.05332451 0.10103399 0.087176435 -0.0074629593 0.019110618 0.10329523
-0.06740584 -0.08487165 -0.050801367 -0.3351319 -0.08431147 -0.13685687 0.097913444 0.0031113825
-0.06665633 0.1521663 -0.10252455 0.09017562 0.17151862 0.056904614 0.08230536 -0.056437377
0.11102655 -0.021090511 0.1263544 0.054104324 0.033937998 0.11342902 -0.005308078 -0.053403493
0.05532533 -0.0029206837 0.085674495 -0.07044934 -0.096973516 0.004877016 -0.14356731 -0.045462314
0.22153337 0.099948436 0.10495393 -0.021031125 -0.06585921 0.0060071284 0.10902882 -0.12814216
0.02550991 -0.03450203 0.03833909 0.055196427 0.065485574 0.10762182 0.07839522 0.04580342
-0.062478315 -0.22079225 0.16767836 0.16709521 -0.16307767 -0.035024665 0.12812664 -0.093093134
0.112733826 -0.025055708 -0.05643965 -0.11604141 0.12045163 8.056889e-05 0.022347244 -0.003619617
0.12668367 0.11303012 0.01634733 -0.2191206 -0.014106157 0.071707204 0.1711932 0.04666474
00000000: 9b34 823d 56bf debd c9c3 353e 0d6c cdbd
00000010: be43 babd 3265 6e3d 5a14 d73d dd45 47bd
00000020: 2c0e 233e 8c2a c0bc 1e82 2b3b aeab 9bbd
00000030: 625c f93d 3405 a93d 1c86 fbbc ba5e 58be
00000040: 54ea a13d 5baa a7bd d2fb 5a3d 39bc 07be
00000050: 325c 563e b765 bdbd b767 d7bd 3239 56be
00000060: 376d 323e f941 b03d 6f33 143d 3aa1 7ebe
00000070: a62d 08bd eb7d 863c 401d 2c3e 107d 25bd
00000080: 7aed 603d ab5f 18bd 9da9 c53d a8b3 9cbd
00000090: 7722 a33d fbfe db3b e5da a13d f42f 68ba
000000a0: 9cee afbd 1946 7fbe 03d9 f43d 6a0a f4bb
000000b0: 8f0c 403e 4f30 c0bd e5f3 1e3e 5a05 51be
000000c0: d749 5cbe 7260 07be 6b9b 163c d59c a8bd
000000d0: f87a 463d d722 9dbd 3973 863d 472f ce3c
000000e0: 98af f1bc 1c29 ebbd 695c 68ba f6a5 4dbe
000000f0: 1767 ca3d 3c4e 143e 5aa5 2a3d 52ef 8c3d
00000100: 4e57 5d3d 47fd bb3d 4e1c b53c 52b6 63bd
00000110: b4cb 993e 519b 6fbc d4d1 f4ba c987 9bbd
00000120: 32ba 153e 7b3d a0bd d7cc 53bd 6110 82bd
00000130: 5eb0 133d af52 c23c 665c e73d 5433 043d
00000140: 61f7 d6bc e3c9 893e aaca 733b cab7 d9bc
00000150: 2d93 4fbd 5440 babc cf72 17bd 3f42 8cbd
00000160: 8a19 2e3e 867f f13d 1d98 bfbd 96d4 d73d
00000170: 51e5 23be f937 64bc 5a78 bb3d f1a5 bd3d
00000180: 4b1b fb3c 7c1c b53d 7d81 363e 50df 70bc
00000190: a997 95bc e733 fe3c 2dcb 96bd 46b8 e2bc
000001a0: b58e 233e be90 0d38 ab10 2bbc 9d5b 583d
000001b0: 5c1c 713b 35af aebc 3b6b 24bc 4664 20be
000001c0: e723 90bc a381 e83d 1fb0 75bd 24e2 22be
000001d0: f900 e63d 0f80 7ebd 9e4b 373e 900b 27bd
000001e0: 11fd 453e d1f6 733d 74fc b3bd 1dc4 9dbc
000001f0: d98a c33d 82e7 803d 2eea f0bc 338e 77bd
00000200: 6031 b53d 0d85 75bd 12a6 183c fdb2 8e3d
00000210: 965f 5d3c f598 d3bd 2ee7 7ebd 135b 49bd
00000220: d753 8a3d 23a9 093c 596f 303d f92d bb3d
00000230: 511a 3e3e 0629 9f3c 8da5 01bc 8ef7 47be
00000240: 5ced 123e e6fc 973d d416 8dbd 78ff a4bd
00000250: 6a6d a13d bb3b 653e 68ff 25bd fd13 5abd
00000260: 6161 c5bc 9625 343e 8f31 fe3b 124b 79bd
00000270: 1664 8f3c 89a2 fc3d d38a a93d d144 24ba
00000280: a8cc 033d ab22 21be 2216 26be f7b4 3dbe
00000290: ac26 0ebe cbc2 64be d734 583d 2377 ecbc
000002a0: 814c d53c 15b5 82be 3fb2 e2ba 1b37 9d3d
000002b0: c9f9 b43d ddb2 b63d fe98 82bd 2286 dbbd
000002c0: 57c9 0fbe e91f 3fbe cd6a 5abd e9ea ce3d
000002d0: 8f89 b23d d78b f4bb df8d 9c3c 738c d33d
000002e0: 130c 8abd 30d1 adbd 1815 50bd 6996 abbe
000002f0: 7eab acbd 3524 0cbe d886 c83d 56e8 4b3b
00000300: 1d83 88bd 7cd1 1b3e 64f8 d1bd ffad b83d
00000310: 94a2 2f3e d014 693d b68f a83d e12a 67bd
00000320: e361 e33d 02c6 acbc 0c63 013e 7f9c 5d3d
00000330: 9202 0b3d 794d e83d 63ef adbb 9fbd 5abd
00000340: d09c 623d f168 3fbb 1c76 af3d be47 90bd
00000350: 0d9a c6bd 60cf 9f3b 4f03 13be b136 3abd
00000360: a5d9 623e c4b1 cc3d 16f2 d63d 7749 acbc
00000370: 32e1 86bd 72d7 c43b 814a df3d b337 03be
00000380: 29fa d03c 0052 0dbd 7309 1d3d a615 623d
00000390: 4d1d 863d d468 dc3d ac8d a03d 5e9c 3b3d
000003a0: 43e9 7fbd 5d17 62be e0b3 2b3e 021b 2b3e
000003b0: d5fd 26be 0676 0fbd a133 033e 9da7 bebd
000003c0: fee0 e63d a141 cdbc 432d 67bd 1ea7 edbd
000003d0: 58af f63d 18f7 a838 9111 b73c 1937 6dbb
000003e0: 5db9 013e 567c e73d d6ea 853c 2761 60be
000003f0: 831d 67bc 3adb 923d 454d 2f3e 8723 3f3d

lstm1.weight_hh_l0 f4 [256, 64]
0.077546135 -0.014961055 -0.03959732 0.1616685 0.0841975 -0.16001375 -0.070211664 0.14245126
0.09554175 0.4571692 -0.029297678 -0.13498798 -0.006735225 0.30311868 -0.007608437 -0.11398033
0.050847184 0.19438997 0.04929366 -0.029325413 -0.17034143 -0.15921178 -0.05647769 0.088254414
-0.16158308 -0.036066264 -0.10603396 -0.051663283 0.026230311 -0.2912745 0.07823811 -0.1566348
-0.042016204 -0.24732693 0.05461941 -0.15404414 0.16042067 -0.091474906 -0.1400641 -0.090775214
-0.034967512 0.02212394 0.19229811 0.047461726 0.09001495 0.13993235 -0.24494976 -0.092221074
0.034600455 0.025975076 -0.06722003 -0.20939557 0.13822377 0.012605478 -0.14680229 0.32909468
0.013851812 0.20575021 0.0030407254 0.030912625 -0.048774347 -0.14507684 -0.0059081777 -0.003042877
0.02991557 0.17108338 -0.03637482 -0.026256777 0.03224829 0.008246833 -0.0078010135 -0.004762356
0.041589838 -0.07704372 0.08405439 -0.010984916 -0.09546037 -0.028301522 -0.009111926 -0.15015861
-0.055394284 0.039199945 -0.027117938 0.037556782 -0.29474095 0.0838396 0.1157976 0.09413279
-0.12824444 0.062629946 0.03919057 -0.068576135 -0.04778674 -0.1700637 0.05406522 0.057663653
-0.114953004 -0.025728567 0.08969303 -0.053873047 0.012260362 0.04441106 -0.09584144 -0.06981512
0.029527932 -0.14706796 -0.15907463 -0.026989665 -0.1434807 0.09709568 -0.13564892 0.04016041
-0.070926346 -0.11950289 0.09529688 -0.101579696 0.07971461 0.1004514 0.0394268 0.04081143
0.065996565 -0.08602019 0.124725014 0.058869608 0.08575624 0.064218394 0.16213405 0.096418954
0.06143845 -0.00086292677 0.11408777 0.08665518 0.09621196 0.043350928 0.067659594 0.1251699
0.027186526 -0.0495133 0.029154394 -0.026619507 -0.039340127 -0.09276133 -0.105752476 0.024531841
0.09266813 -0.16284916 0.030005774 -0.17284265 0.0071804803 0.0034795762 -0.00095005013 0.030290179
0.10468276 -0.076951355 -0.004245689 0.16305703 0.13727355 0.09977338 0.14269254 0.07256445
-0.030998297 -0.10892161 -0.23797822 -0.07897104 -0.15030505 -0.07606749 0.08738157 -0.03718555
-0.0013533989 0.026021648 0.13792957 -0.08026174 0.19079529 0.20330194 0.06305081 -0.105874434
0.12569395 -0.06765861 -0.051067602 -0.116975926 -0.08431571 -0.23057899 0.01016816 -0.16579887
-0.07677172 -0.02272169 -0.06157697 -0.14358157 -0.1022925 -0.032471992 0.10902141 0.10575972
0.13902862 -0.11272446 -0.022469185 -0.018461393 0.15389916 0.17987953 0.24690628 -0.032370146
0.039541606 0.044523172 0.15833044 -0.10755951 0.14863138 -0.08454555 0.19126682 0.09473002
-0.06120433 0.07656537 -0.06633992 0.044196147 -0.020948363 -0.15342772 -0.038691185 -0.08103738
0.03667635 0.038099803 -0.010674951 -0.07473437 0.021690948 0.016087681 0.08510043 -0.056103166
-0.12293591 0.089033484 0.045754105 0.20930617 -0.06722372 0.11991257 0.13266858 0.044142626
-0.060772564 0.036892697 -0.045816477 -0.10848789 -0.10559957 0.081201866 -0.06341555 -0.033629037
0.13554128 0.15389813 -0.09863634 0.09949566 0.07174769 -0.095214225 -0.05419108 -0.045546174
-0.09776917 0.020635767 -0.159472 -0.17008387 0.13362643 -0.024883557 0.009640674 -0.03241646
00000000: 82d0 9e3d 361f 75bc cd30 22bd 6d8c 253e
00000010: bd6f ac3d a5da 23be 22cb 8fbd bede 113e
00000020: 65ab c33d 1512 ea3e af01 f0bc 4a3a 0abe
00000030: 2ab3 dcbb 5f32 9b3e 3250 f9bb 856e e9bd
00000040: 2345 503d 2a0e 473e 26e8 493d d93b f0bc
00000050: fc6d 2ebe 6a08 23be 2655 67bd bbbe b43d
00000060: 0976 25be 38ba 13bd 5528 d9bd e19c 53bd
00000070: f3e0 d63c ee21 95be 4d3b a03d df64 20be
00000080: 2f19 2cbd 4543 7dbe 9ab8 5f3d bfbd 1dbe
00000090: 5145 243e 3257 bbbd f76c 0fbe 5be8 b9bd
000000a0: 183a 0fbd 443d b53c cce9 443e 3a67 423d
000000b0: c259 b83d 6d4a 0f3e 1cd4 7abe 67de bcbd
000000c0: 35b9 0d3d afc9 d43c a8aa 89bd cb6b 56be
000000d0: 888a 0d3e 3587 4e3c 5753 16be 197f a83e
000000e0: b6f2 623c 2fb0 523e e846 473b 793c fd3c
000000f0: 9cc7 47bd 068f 14be 6399 c1bb 016b 47bb
00000100: 7f11 f53c 7b30 2f3e c3fd 14bd 7418 d7bc
00000110: c816 043d ba1d 073c a59f ffbb 8a0d 9cbb
00000120: 1b5a 2a3d 19c9 9dbd b524 ac3d 14fa 33bc
00000130: ba80 c3bd 98d8 e7bc 304a 15bc 2ec3 19be
00000140: 1ee5 62bd 1f90 203d 7026 debc 24d5 193d
00000150: 49e8 96be 19b4 ab3d 4b27 ed3d b1c8 c03d
00000160: 8352 03be 2144 803d 4b86 203d a571 8cbd
00000170: 07bc 43bd 2e25 2ebe 7e73 5d3d b930 6c3d
00000180: 7b6c ebbd b7c4 d2bc fbb0 b73d fca9 5cbd
00000190: afdf 483c 5fe8 353d 8448 c4bd 3bfb 8ebd
000001a0: 90e4 f13c fc98 16be 76e4 22be 6e19 ddbc
000001b0: 9bec 12be 1ada c63d 8de7 0abe 3e7f 243d
000001c0: d541 91bd eebd f4bd 032b c33d 0409 d0bd
000001d0: 6a41 a33d 77b9 cd3d ff7d 213d e329 273d
000001e0: 3529 873d 5a2b b0bd d46f ff3d 4221 713d
000001f0: f8a0 af3d ef84 833d 7806 263e 4d77 c53d
00000200: e2a6 7b3d 0936 62ba d9a6 e93d 4578 b13d
00000210: c70a c53d be90 313d 1d91 8a3d 8a2c 003e
00000220: 47b6 de3c 75ce 4abd 32d5 ee3c 2711 dabc
00000230: 1d23 21bd a7f9 bdbd c194 d8bd 00f7 c83c
00000240: cac8 bd3d eec1 26be abce f53c aafd 30be
00000250: 3c4a eb3b 9a09 643b c90c 79ba 1c23 f83c
00000260: ea63 d63d ac98 9dbd 6c1f 8bbb 6cf8 263e
00000270: 7091 0c3e fc55 cc3d fe1d 123e ac9c 943d
00000280: 24f0 fdbc 4b12 dfbd 90b0 73be 92bb a1bd
00000290: 91e9 19be 46c9 9bbd 1cf5 b23d e04f 18bd
000002a0: 8864 b1ba 5a2b d53c 693d 0d3e 4460 a4bd
000002b0: d75f 433e 622e 503e c820 813d b2d4 d8bd
000002c0: eab5 003e 9990 8abd 432c 51bd 1391 efbd
000002d0: b7ad acbd e61c 6cbe 5b98 263c 2ec7 29be
000002e0: 7e3a 9dbd d622 babc 2238 7cbd 0c07 13be
000002f0: bb7e d1bd 5a01 05bd 9e46 df3d 8d98 d83d
00000300: 855d 0e3e 15dc e6bd 4c11 b8bc 593c 97bc
00000310: be97 1d3e 5732 383e 00d5 7c3e 8f96 04bd
00000320: 61f6 213d ee5d 363d 6021 223e 2948 dcbd
00000330: d332 183e 3826 adbd 73db 433e d001 c23d
00000340: 64b1 7abd 4ece 9c3d 39dd 87bd 0507 353d
00000350: e79b abbc 281c 1dbe a67a 1ebd edf6 a5bd
00000360: f139 163d 8a0e 1c3d fde5 2ebc 550e 99bd
00000370: 37b1 b13c 50ca 833c 2249 ae3d 6fcc 65bd
00000380: d3c5 fbbd 3057 b63d a868 3b3d 5b54 563e
00000390: 97ac 89bd b994 f53d 46da 073e e6ce 343d
000003a0: a7ec 78bd cc1c 173d 0faa 3bbd e62e debd
000003b0: 9644 d8bd 2a4d a63d 03e0 81bd 9abe 09bd
000003c0: 55cb 0a3e 7997 1d3e d901 cabd 61c4 cb3d
000003d0: 74f0 923d adff c2bd 77f7 5dbd a08e 3abd
000003e0: 343b c8bd 570c a93c a14c 23be 772a 2ebe
000003f0: 5ed5 083e 9ad8 cbbc ebf3 1d3c 1fc7 04bd

lstm1.bias_ih_l0 f4 [256]
-0.01400274 -0.011357346 0.036668073 0.054539885 -0.11402024 0.14031264 -0.21753784 -0.08869914
-0.03692639 -0.019769846 -0.101609394 -0.122628786 -0.16477749 -0.1296515 0.13760263 0.07046039
-0.03400543 0.31736618 0.071618915 -0.124628246 0.066253655 -0.08680382 -0.08291669 -0.04750417
-0.07840211 -0.0035378817 -0.030315988 -0.07666411 0.10481099 -0.09833126 0.06371239 0.03476301
-0.22520338 -0.052787457 -0.0975088 0.16788909 0.01017717 -0.041308228 -0.069432475 -0.15408944
-0.1416075 -0.29559568 0.1122865 -0.20821677 -0.038342025 -0.063376 0.017694063 0.036403693
0.0859105 0.023991954 -0.17443846 -0.18393272 0.009795517 0.073390745 -0.020879557 0.09235444
-0.13229537 0.16018997 -0.114801675 -0.10719112 -0.05480035 -0.0067885923 -0.06685046 0.011552767
-0.13668607 0.011606888 -0.0094800405 -0.1974246 -0.048174657 -0.007973789 -0.027466394 -2.5466008e-05
0.20354187 0.045315962 -0.05349258 -0.16402203 0.0074356445 -0.22750597 0.16248599 -0.007794796
0.048804592 -0.07956574 0.029843546 0.047776375 0.06385976 0.008619878 -0.12192283 -0.09670337
0.0066330465 0.061797313 0.0061875046 0.008924791 0.22116888 0.14359403 -0.0069542266 0.13069525
-0.0075832843 -0.0049551283 -0.1595383 -0.088901944 -0.093335725 -0.2232871 -0.10728793 -0.21837172
0.08037748 -0.07071428 0.010613349 -0.19383468 0.08950167 -0.10422329 -0.18739705 -0.049133632
0.1461126 0.13685809 0.023282433 -0.019717777 0.03285631 0.043663923 -0.07673333 0.1777355
-0.12777098 0.25774726 -0.19076857 0.1019556 0.020241011 0.14968432 -0.18603835 -0.032450363
-0.023142712 0.03601298 0.02194463 0.12075377 -0.06121159 -0.112052865 -0.15173621 -0.024207719
-0.07418844 -0.09820527 -0.12417722 -0.015100992 -0.06631631 -0.04844799 -0.244667 -0.12882723
-0.14341119 -0.07089192 0.22437176 0.19187066 0.00067309453 0.12906598 0.11035999 0.12029965
0.12387124 -0.037317973 0.047227427 0.022597047 -0.06965462 -0.15453775 -0.11506518 -0.032694004
0.16342835 -0.0069916113 -0.037031677 -0.19514869 0.05181243 -0.017708402 -0.03500517 0.03986403
-0.050990257 0.10370978 0.20751078 -0.016266305 -0.025830878 -0.055242397 0.049499184 0.046397176
-0.12860298 -0.21901393 0.14216185 0.049445882 0.009495937 0.23765785 0.030040115 0.060982864
0.12273821 0.011654831 0.11006659 0.10638711 -0.16345435 -0.07873984 -0.026629852 0.0061395434
0.17415388 0.023068514 -0.018191393 -0.12926343 0.048980094 -0.061622158 -0.122471645 0.0682393
-0.057236806 0.017710345 -0.03785503 -0.066521056 0.0023985968 -0.10848346 0.04126843 0.006844726
-0.03627609 0.2387778 0.0077942074 -0.020930365 0.07389038 -0.20856228 0.08975413 0.09312444
-0.031692866 -0.10777138 -0.07499864 -0.13227431 0.07063244 -0.1485833 0.06063946 0.022622306
-0.005042168 -0.14265521 -0.12936987 0.14618285 -0.18379991 0.05191054 -0.12124384 0.041692648
0.0077002333 -0.13428995 0.0747391 -0.21694057 0.121878244 -0.19771203 -0.21541849 0.09605983
-0.088688806 0.054701332 0.07948297 0.088579684 0.065333724 0.058534645 0.053315043 0.14338864
-0.08415846 0.090359494 -0.0798543 0.036749195 -0.11840897 0.17858842 -0.11498342 -0.1595547
00000000: c06b 65bc 2914 3abc 4331 163d 3765 5f3d
00000010: 7283 e9bd 1eae 0f3e 3dc2 5ebe e5a7 b5bd
00000020: 2040 17bd 5ff4 a1bc 9618 d0bd cd24 fbbd
00000030: 6ebb 28be 5dc3 04be b4e7 0c3e 894d 903d
00000040: 4749 0bbd d27d a23e f0ac 923d 183d ffbd
00000050: ffaf 873d 34c6 b1bd 3ad0 a9bd bc93 42bd
00000060: 4991 a0bd cedb 67bb 3c59 f8bc 1302 9dbd
00000070: 25a7 d63d e661 c9bd a47b 823d a863 0e3d
00000080: b79b 66be a937 58bd b2b2 c7bd 1eeb 2b3e
00000090: 25be 263c d132 29bd 9d32 8ebd 9fc9 1dbe
000000a0: 8e01 11be 5158 97be 77f6 e53d c736 55be
000000b0: 870c 1dbd 47cb 81bd 24f3 903c 0a1c 153d
000000c0: d8f1 af3d c68a c43c ff9f 32be dc58 3cbe
000000d0: 607d 203c e34d 963d 9b0b abbc 5324 bd3d
000000e0: 7078 07be d708 243e 241d ebbd 0587 dbbd
000000f0: 5576 60bd d772 debb e5e8 88bd d147 3d3c
00000100: 6ff7 0bbe d12a 3e3c 2c52 1bbc ad29 4abe
00000110: ca52 45bd 7fa4 02bc 3401 e1bc d69f d5b7
00000120: 486d 503e 3b9d 393d 091b 5bbd 64f5 27be
00000130: b5a6 f33b 53f7 68be ba62 263e 7d6b ffbb
00000140: 53e7 473d 5df3 a2bd 747a f43c 29b1 433d
00000150: e8c8 823d 643a 0d3c adb2 f9bd 6b0c c6bd
00000160: 075a d93b 2e1f 7d3d 8dc0 ca3b 4939 123c
00000170: 187a 623e 500a 133e 48e0 e3bb fad4 053e
00000180: 337d f8bb a15e a2bb 025e 23be 3912 b6bd
00000190: cd26 bfbd 60a5 64be c6b9 dbbd d69c 5fbe
000001a0: f39c a43d a6d2 90bd 9de3 2d3c 997c 46be
000001b0: a74c b73d 0573 d5bd 03e5 3fbe 5940 49bd
000001c0: 8b9e 153e 8724 0c3e cdba be3c 2d87 a1bc
000001d0: 5794 063d f1d8 323d 5d26 9dbd 4b00 363e
000001e0: 65d6 02be 73f7 833e d658 43be 19ce d03d
000001f0: 7ad0 a53c d946 193e d680 3ebe acea 04bd
00000200: c995 bdbc 5982 133d 3ac5 b33c c14d f73d
00000210: 01b9 7abd f97b e5bd bd60 1bbe 444f c6bc
00000220: 1cf0 97bd d81f c9bd a050 febd 276a 77bc
00000230: d8d0 87bd 6671 46bd fc89 7abe 49eb 03be
00000240: 62da 12be c82f 91bd b6c1 653e be79 443e
00000250: 9c72 303a df29 043e 6b04 e23d aa5f f63d
00000260: 34b0 fd3d bbda 18bd 8c71 413d 711d b93c
00000270: 15a7 8ebd 253f 1ebe 4ba7 ebbd 26ea 05bd
00000280: c359 273e e319 e5bb 87ae 17bd 0fd5 47be
00000290: 4539 543d 3611 91bc 9561 0fbd 7748 233d
000002a0: 29db 50bd cb65 d43d b57d 543e ea40 85bc
000002b0: 479b d3bc da45 62bd a8bf 4a3d f70a 3e3d
000002c0: 80b0 03be 3045 60be e092 113e c487 4a3d
000002d0: d994 1b3c 945c 733e b016 f63c 2bc9 793d
000002e0: 2c5e fb3d e7f3 3e3c 986a e13d 7ce1 d93d
000002f0: 9460 27be 5a42 a1bd d926 dabc 392e c93b
00000300: 6555 323e 2efa bc3c 1e06 95bc a25d 04be
00000310: 5a9f 483d 8467 7cbd 6ad2 fabd 0cc1 8b3d
00000320: 2471 6abd 4915 913c e00d 1bbd 313c 88bd
00000330: c731 1d3b 942c debd 1609 293d b949 e03b
00000340: 3d96 14bd 2b82 743e 8d66 ff3b 2876 abbc
00000350: d753 973d 5a91 55be 03d1 b73d 07b8 be3d
00000360: 61d0 01bd 3eb7 dcbd e398 99bd eb72 07be
00000370: bea7 903d 3826 18be 1561 783d 6a52 b93c
00000380: c538 a5bb 3514 12be 8979 04be f5b0 153e
00000390: 0b36 3cbe 25a0 543d b14e f8bd e9c5 2a3d
000003a0: 3d52 fc3b 4e83 09be d010 993d ab25 5ebe
000003b0: 4d9b f93d 0675 4abe aa96 5cbe 04bb c43d
000003c0: 7aa2 b5bd 810e 603d f8c7 a23d 4469 b53d
000003d0: b0cd 853d 06c2 6f3d e060 5a3d 79d4 123e
000003e0: 455b acbd 660e b93d a78a a3bd 5386 163d
000003f0: 6780 f2bd e2df 363e 6d7c ebbd 4f62 23be

lstm1.bias_hh_l0 f4 [256]
-0.13878603 -0.016073266 0.035788003 0.033450976 -0.105806135 0.0007775772 -0.015269557 -0.07169672
-0.0778923 -0.050585434 -0.034345362 -0.11931375 -0.22217287 -0.12596092 -0.014564352 0.136389
0.14514521 0.31619883 0.06878804 0.00018601738 -0.037508663 -0.24592215 -0.033148825 -0.086389944
-0.043561395 0.01275396 0.029140025 0.007929312 -0.002824297 -0.009732815 0.084262356 0.02734873
-0.17936546 -0.15984519 -0.19521748 -0.03806123 -0.17621243 0.080483645 0.0006602309 -0.035382066
-0.17540848 -0.07872465 -0.04660005 0.0036759397 -0.007862386 -0.059423927 -0.15777116 -0.12753011
0.033251066 -0.07540013 -0.019796157 -0.17345366 -0.06878182 0.0005917832 0.053640354 -0.094614506
0.037520774 -0.0015870767 0.020663556 0.018073976 -0.034420136 -0.044481646 -0.25758308 -0.136515
-0.07850233 -0.17180577 0.037920132 -0.11852072 -0.045155182 0.088741094 0.01829758 0.15098965
0.11437331 -0.0049359812 0.035574753 -0.09503063 0.042644057 -0.085519694 0.15703319 0.068465464
0.10110637 0.14640638 0.14252704 0.0631372 0.16676427 0.058857203 -0.13914044 -0.08186824
0.17364593 0.004515441 0.042710014 -0.120193064 0.21547711 0.008753125 0.034920983 0.007082422
0.045696996 0.012965407 -0.09345771 0.072613575 -0.15655635 -0.23408282 -0.068417996 -0.19051123
-0.076335154 -0.0760884 0.15591602 -0.18231398 0.054957155 0.06785336 -0.09945561 0.080813445
0.051029895 -0.023102213 0.14394031 -0.07158455 0.12957193 -0.023023076 -0.17577949 -0.03253367
-0.09135796 0.13854992 -0.046463497 0.12912373 0.14471786 0.140315 -0.23834178 -0.09264467
-0.084241934 -0.009959495 -0.18658051 0.2310074 -0.19716449 -0.2149929 -0.048533045 -0.13520053
0.08089611 -0.071961924 -0.030856388 0.06685782 -0.18328354 -0.0106228385 -0.12638754 -0.11736135
-0.13929138 -0.13815068 0.23592506 0.042742986 0.012687872 -0.043036334 0.15901434 -0.056952763
0.1969754 -0.17643502 0.2008262 0.061977416 -0.022311954 -0.17294972 -0.21464789 -0.13884021
0.01166808 -0.18323024 0.18525569 -0.15795618 0.016262738 -0.0981514 -0.085045084 -0.13926594
-0.03716531 -0.0047941296 0.12540174 0.0348956 -0.01991652 -0.14561972 0.044900246 0.22361372
-0.09008208 -0.14454156 0.013910955 -0.024588259 -0.002477803 0.051714838 0.059887875 -0.06396409
0.09405795 -0.117493965 0.017112935 0.085567094 -0.14881244 -0.05058997 0.031122211 -0.037524074
0.06863492 -0.09776368 0.05934709 0.10112782 -0.07826908 0.09632207 -0.07637039 0.13145657
-0.115702435 -0.043178804 -0.14182946 -0.093507804 0.02804883 -0.10143274 -0.010427606 0.14144526
0.07525158 0.25860897 0.14752609 -0.049378563 0.15988605 -0.105040714 0.039480947 0.04067312
0.098300576 0.11987974 -0.0050975024 -0.12173892 0.21982022 -0.024035966 -0.05887229 0.018829344
0.042841464 -0.15406646 -0.15497656 -0.059107613 -0.22098047 -0.099859826 -0.008273617 -0.14673387
0.039986163 -0.09857168 0.093434416 -0.22321343 0.049312025 -0.22095637 -0.009191632 0.026901063
0.002804039 -0.08414452 0.046630505 0.058601603 0.0059301867 0.15926792 -0.15575583 -0.011421214
-0.0060216677 0.14346433 -0.11696125 -0.121824205 -0.066108905 0.08586705 -0.16221312 0.042120837
00000000: ed1d 0ebe 15ac 83bc 7196 123d e403 093d
00000010: e3b0 d8bd 53d6 4b3a 2a2d 7abc bbd5 92bd
00000020: 0086 9fbd ac32 4fbd b9ad 0cbd c45a f4bd
00000030: 4981 63be e6fb 00be 529f 6ebc 8fa9 0b3e
00000040: f2a0 143e d0e4 a13e bee0 8c3d a90d 4339
00000050: afa2 19bd 04d3 7bbe 10c7 07bd 36ed b0bd
00000060: 6f6d 32bd fcf5 503c 10b7 ee3c f2e9 013c
00000070: d717 39bb 6376 1fbc be91 ac3d 720a e03c
00000080: 94ab 37be 75ae 23be 17e7 47be 18e6 1bbd
00000090: 0871 34be 9cd4 a43d 5813 2d3a c9ec 10bd
000000a0: 489e 33be 643a a1bd b2df 3ebd 09e8 703b
000000b0: 3dd1 00bc 8166 73bd c38e 21be 4197 02be
000000c0: 4532 083d 626b 9abd 8d2b a2bc d69d 31be
000000d0: 7cdd 8cbd e621 1b3a fdb5 5b3d 40c5 c1bd
000000e0: 62af 193d 7505 d0ba 9e46 a93c e00f 943c
000000f0: 21fc 0cbd 6332 36bd eee1 83be 97ca 0bbe
00000100: d4c5 a0bd daed 2fbe 2452 1b3d feba f2bd
00000110: a4f4 38bd e4bd b53d cee4 953c 089d 1a3e
00000120: 8e3c ea3d 03be a1bb d5b6 113d 6b9f c2bd
00000130: 89ab 2e3d f324 afbd 4fcd 203e 9f37 8c3d
00000140: db10 cf3d 8eeb 153e 9cf2 113e 144e 813d
00000150: 41c4 2a3e 4014 713d d57a 0ebe 89aa a7bd
00000160: 3dd0 313e 44f6 933b b2f0 2e3d c827 f6bd
00000170: 08a6 5c3e 4469 0f3c 4e09 0f3d a913 e83b
00000180: c62c 3b3d dc6c 543c c266 bfbd 6db6 943d
00000190: 4f50 20be 68b3 6fbe bc1e 8cbd 6015 43be
000001a0: 9b55 9cbd 3cd4 9bbd 73a8 1f3e 84b0 3abe
000001b0: c11a 613d b4f6 8a3d 62af cbbd 8581 a53d
000001c0: b904 513d da40 bdbc 1765 133e ec9a 92bd
000001d0: 81ae 043e e49a bcbc 8aff 33be 0742 05bd
000001e0: e219 bbbd 08e0 0d3e 8250 3ebd 0339 043e
000001f0: eb30 143e bcae 0f3e de0f 74be 7dbc bdbd
00000200: 0987 acbd 262d 23bc f60e 3fbe 348d 6c3e
00000210: 7de5 49be 1927 5cbe 96ca 46bd 0272 0abe
00000220: dcac a53d c660 93bd 89c6 fcbc c1ec 883d
00000230: aeae 3bbe 6a0b 2ebc bc6b 01be 265b f0bd
00000240: 66a2 0ebe 5f77 0dbe 5796 713e 4513 2f3d
00000250: cbe0 4f3c de46 30bd a8d4 223e 4d47 69bd
00000260: ebb3 493e 62ab 34be 62a5 4d3e 08dc 7d3d
00000270: 8fc7 b6bc bb19 31be a8cc 5bbe 212c 0ebe
00000280: 7a2b 3f3c b5a0 3bbe abb3 3d3e 44bf 21be
00000290: 6f39 853c 9a03 c9bd 1e2c aebd bb9b 0ebe
000002a0: a73a 18bd 1318 9dbb 5069 003e b0ee 0e3d
000002b0: f827 a3bc 561d 15be 52e9 373d fffa 643e
000002c0: f47c b8bd b402 14be c6ea 633c 516d c9bc
000002d0: a362 22bb f0d2 533d fd4c 753d 9bff 82bd
000002e0: 74a1 c03d ada0 f0bd 6d30 8c3c cd3d af3d
000002f0: 4a62 18be 6e37 4fbd 02f4 fe3c d8b2 19bd
00000300: 7790 8c3d 5338 c8bd ef15 733d 1a1c cf3d
00000310: 8a4b a0bd 8144 c53d 1468 9cbd 8d9c 063e
00000320: 66f5 ecbd 42dc 30bd be3b 11be 0581 bfbd
00000330: a9c6 e53c f8bb cfbd 8dd8 2abc 07d7 103e
00000340: 801d 9a3d 6568 843e 1411 173e 2d41 4abd
00000350: 2bb9 233e 961f d7bd c6b6 213d dc98 263d
00000360: d051 c93d 8283 f53d f308 a7bb 4152 f9bd
00000370: 8d18 613e 13e7 c4bc 1224 71bd ff3f 9a3c
00000380: 887a 2f3d 99c3 1dbe 2db2 1ebe d31a 72bd
00000390: b448 62be 4f83 ccbd 118e 07bc 6741 16be
000003a0: 88c8 233d f3df c9bd 8b5a bf3d 1092 64be
000003b0: 68fb 493d 6342 62be 8098 16bc 9e5f dc3c
000003c0: f8c3 373b f653 acbd a1ff 3e3d 3c08 703d
000003d0: 0352 c23b 2117 233e 757e 1fbe 0b20 3bbc
000003e0: 6951 c5bb 50e8 123e 6189 efbd f87e f9bd
000003f0: 1b64 87bd 10db af3d 321b 26be e686 2c3d

lstm2.weight_ih_l0 f4 [256, 64]
-0.1151293 0.13779815 0.030100686 0.09737755 0.0029593543 -0.033822555 0.11283495 -0.25761697
0.019757207 -0.18268824 0.041801468 -0.078577094 -0.075951144 0.070060335 -0.079757765 -0.027632024
-0.009403595 -0.10919449 0.089589015 -0.18960978 0.08797411 -0.04323662 0.07009997 0.16066456
-0.083732925 0.11813243 -0.009549231 -0.013414693 0.17205337 -0.15824845 -0.04554538 0.10808437
-0.02808149 -0.095488146 0.038086545 -0.07600067 0.121742815 -0.11423925 -0.11890896 -0.09621758
-0.19696254 -0.043365907 0.022281308 -0.083867885 -0.2123171 0.09415998 -0.0275281 0.07271889
0.07949061 0.0884375 -0.14163345 0.05511706 -0.06562076 0.08641778 0.08521024 -0.14646828
0.10995356 0.051814154 -0.06278609 -0.08541682 -0.011540958 -0.0965226 0.032361653 -0.059376914
0.07198845 -0.045695662 0.08343526 0.074083954 0.0958765 0.073255315 0.15570405 -0.055990648
-0.03358586 0.07020572 0.07251872 -0.0025402848 0.1689836 0.1656291 0.037326314 0.02799196
0.003805725 -0.066970915 0.021733647 -0.17940663 0.014431963 0.01286924 -0.024343884 -0.07576216
0.08492917 0.09360591 0.0031818324 -0.10201141 0.07587945 -0.15111749 0.010262833 0.053988256
0.0994999 0.031244772 -0.010612133 0.16481797 0.060391415 0.115581244 0.046020392 0.095485516
-0.053642295 0.009787085 0.14150178 -0.16839035 -0.05388344 0.01963537 -0.048451662 -0.07534626
0.042958975 -0.06186411 -0.13049112 0.043627232 0.14537193 0.018976731 -0.07547375 0.05860287
-0.080037974 0.15251629 0.069565676 0.01237867 0.110222876 -0.14061338 -0.03945079 -0.03662959
-0.08569426 0.037921906 0.060768507 0.10933335 -0.09009103 0.027194584 -0.15055925 0.0523512
-0.12870905 -0.14008354 -0.028008927 -0.23088293 -0.15005238 0.034601655 -0.14405145 -0.16624558
-0.06306332 -0.28121883 0.16111298 0.19122943 0.20863315 0.019222468 0.19640213 -0.06632539
0.30482927 -0.07025273 -0.045324665 -0.03612188 0.17687526 -0.20831464 -0.24456005 0.014475932
0.013072724 -0.04222352 0.2209186 0.030671787 -0.005408493 0.043915916 -0.0092894 -0.18379043
-0.044671226 0.119989276 0.14406392 0.14545912 -0.17821695 -0.06860215 0.0075746546 0.07525293
-0.06568487 -0.15314329 -0.07020678 0.26906824 0.06865855 0.056664526 0.11143198 -0.06178444
0.028031493 0.0060404455 0.24621043 -0.0017224393 0.061889693 0.004510821 0.091183074 -0.04120488
0.13531815 0.06795061 0.044091076 0.09524088 -0.09591951 -0.14268838 -0.039180126 -0.06337825
-0.010100502 -0.25862333 0.016216327 -0.09713248 -0.07172742 0.046617962 -0.029943245 -0.09275287
-0.19939266 -0.19806431 0.1388916 -0.015730467 0.14772664 0.042343076 -0.06786717 0.0018638674
0.1658896 0.050830547 -0.164813 0.02842955 0.19496614 -0.36264768 -0.09089899 0.12624218
0.015273453 -0.010400614 -0.044293575 0.0042575067 0.09405922 0.1353249 0.04831931 -0.076434724
-0.14129114 -0.032943446 0.18518911 -0.19660382 0.012958128 0.035495996 -0.18873802 0.07179116
0.017639047 -0.056000788 -0.0930076 -0.06216509 0.17568468 -0.085057534 0.16989303 0.066468224
0.13093393 0.21758232 -0.013270657 -0.17895992 0.18703526 -0.24710873 0.034463983 -0.18040854
00000000: e9c8 ebbd f51a 0d3e b795 f63c e26d c73d
00000010: baf1 413b 8589 0abd 0316 e73d 5fe6 83be
00000020: ded9 a13c a012 3bbe 0438 2b3d 07ed a0bd
00000030: 468c 9bbd cb7b 8f3d 0a58 a3bd 8e5c e2bc
00000040: 8911 1abc 5ca1 dfbd 727a b73d 1129 42be
00000050: c52b b43d e218 31bd 9390 8f3d 4085 243e
00000060: 2b7c abbd 6aef f13d 6174 1cbc 4dc9 5bbc
00000070: c22e 303e e20b 22be cb8d 3abd 575b dd3d
00000080: 270b e6bc 4a8f c3bd a300 1c3d 3da6 9bbd
00000090: 4c54 f93d 45f6 e9bd 8a86 f3bd b90d c5bd
000000a0: 8cb0 49be 73a0 31bd 4a87 b63c edc2 abbd
000000b0: a769 59be f3d6 c03d 9c82 e1bc a4ed 943d
000000c0: f9cb a23d b81e b53d 5c08 11be 6dc2 613d
000000d0: 2d64 86bd cefb b03d b582 ae3d c8fb 15be
000000e0: 552f e13d 143b 543d fe95 80bd 04ef aebd
000000f0: 4916 3dbc a4ad c5bd a78d 043d 3535 73bd
00000100: ae6e 933d 602b 3bbd 1be0 aa3d 54b9 973d
00000110: e65a c43d e206 963d e270 1f3e 7356 65bd
00000120: 5491 09bd 04c8 8f3d b284 943d e87a 26bb
00000130: 090a 2d3e ad9a 293e 7ae3 183d 654f e53c
00000140: 7869 793b 0c28 89bd c30a b23c 5fb6 37be
00000150: 0a74 6c3c 81d9 523c d36c c7bc 3129 9bbd
00000160: 58ef ad3d 75b4 bf3d 4a86 503b 5ceb d0bd
00000170: af66 9b3d 8bbe 1abe 7125 283c ca22 5d3d
00000180: 9bc6 cb3d 09f5 ff3c 83de 2dbc 0bc6 283e
00000190: fd5c 773d dcb5 ec3d e17f 3c3d e98d c33d
000001a0: 06b8 5bbd 025a 203c d8e5 103e 856e 2cbe
000001b0: e2b4 5cbd 5bda a03c 4075 46bd 244f 9abd
000001c0: c0f5 2f3d 3965 7dbd 779f 05be 78b2 323d
000001d0: 61dc 143e 1775 9b3c fb91 9abd 9009 703d
000001e0: f3ea a3bd 3b2d 1c3e 7378 8e3d e8cf 4a3c
000001f0: 88bc e13d f4fc 0fbe 2797 21bd e908 16bd
00000200: 7980 afbd 0054 1b3d 66e8 783d 2aea df3d
00000210: a581 b8bd 2dc7 de3c 342c 1abe 366e 563d
00000220: 4ecc 03be 0f72 0fbe fa72 e5bc 936c 6cbe
00000230: 55a7 19be 77ba 0d3d 3982 13be 483c 2abe
00000240: 5827 81bd eafb 8fbe cdfa 243e a6d1 433e
00000250: eea3 553e 7078 9d3c a41d 493e 9bd5 87bd
00000260: 9512 9c3e aae0 8fbd 5ba6 39bd 89f4 13bd
00000270: ca1e 353e 6f50 55be f36d 7abe 762c 6d3c
00000280: fb2e 563c 92f2 2cbd 7c38 623e 6643 fb3c
00000290: ba39 b1bb 2de1 333d 9132 18bc 8f33 3cbe
000002a0: 2df9 36bd f0bc f53d 7e85 133e 3cf3 143e
000002b0: 817e 36be 497f 8cbd cf34 f83b 351e 9a3d
000002c0: ca85 86bd 98d1 1cbe 93c8 8fbd 50c3 893e
000002d0: db9c 8c3d 1019 683d 7336 e43d ae11 7dbd
000002e0: 4da2 e53c eeee c53b 961e 7c3e 79c3 e1ba
000002f0: 0c80 7d3d 82cf 933b 31be ba3d 73c6 28bd
00000300: d790 0a3e b029 8b3d d898 343d a70d c33d
00000310: 7371 c4bd e71c 12be 577b 20bd 75cc 81bd
00000320: 937c 25bc 476a 84be 1ad8 843c 65ed c6bd
00000330: d3e5 92bd 7af2 3e3d 894b f5bc 37f5 bdbd
00000340: 972d 4cbe 5fd1 4abe 9939 0e3e 2edd 80bc
00000350: a745 173e ef6f 2d3d f1fd 8abd 034d f43a
00000360: f7de 293e b133 503d bdc4 28be 16e5 e83c
00000370: 34a5 473e f5ac b9be 4029 babd a145 013e
00000380: 813d 7a3c 5667 2abc 2e6d 35bd 8e82 8b3b
00000390: 1fa2 c03d 9c92 0a3e 78ea 453d cf89 9cbd
000003a0: a0ae 10be b5ef 06bd 37a2 3d3e 8352 49be
000003b0: 544e 543c 4064 113d 8a44 41be 3e07 933d
000003c0: c37f 903c 1561 65bd c57a bebd d2a0 7ebd
000003d0: afe6 333e a532 aebd 70f8 2d3e 7e20 883d
000003e0: 8b13 063e e6cd 5e3e 2b6d 59bc 4541 37be
000003f0: 2c86 3f3e 120a 7dbe 1b2a 0d3d 04bd 38be

lstm2.weight_hh_l0 f4 [256, 64]
0.22545113 0.051677845 -0.013735463 -0.11042742 -0.030745512 0.021465939 0.011137642 0.072242014
0.110323265 -0.0022263709 -0.108862504 0.14168373 0.06579318 0.1043081 -0.021396082 -0.07187203
-0.16604133 -0.071724236 -0.16313908 0.022278443 -0.14064674 0.107409924 -0.17722066 0.10115293
0.17688861 0.09159647 -0.16431698 0.028225664 0.065882295 0.11926529 0.18939264 -0.007908696
0.17272422 0.029117353 0.017426694 -0.13710417 -0.027387848 -0.028426087 -0.11580893 -0.01385746
0.0060501 -0.047758155 -0.024338558 -0.168847 0.1078478 -0.038261775 -0.027947215 -0.12836239
-0.14886926 -0.014061908 -0.08530326 -0.069817975 0.08717146 0.13289635 -0.1498269 0.0067818533
-0.082360975 0.17386335 -0.24889602 0.024685273 0.24707575 -0.14129378 0.08509411 -0.076958306
0.011846307 0.12239951 -0.113676295 -0.0811079 -0.071907066 -0.024043169 0.05399836 0.046914887
0.13300252 0.0276569 -0.010467413 0.21525939 0.07006715 0.013303482 -0.23971412 0.011082914
0.07905478 -0.13240215 0.12403747 0.11225422 -0.05432332 -0.06802669 0.038352918 -0.046611443
0.19553095 0.11631272 -0.10674994 -0.14352755 -0.041770827 0.014835931 0.006943428 -0.1722561
-0.008874178 -0.07135178 -0.10904349 0.018233785 -0.193765 -0.23062377 -0.06373052 0.11624327
-0.118944824 -0.15049633 0.0009796782 -0.029445745 0.045100782 -0.09919934 0.06933782 -0.16260794
0.020903822 -0.044147354 0.06993319 0.072739966 0.0557793 0.11650853 -0.03867499 0.020667676
-0.037210267 0.15701921 -0.09949813 0.047008235 0.07830583 -0.076804295 0.03323936 -0.0005115935
0.007821985 -0.21370527 0.1068979 0.21292794 0.006664903 0.14481902 0.0076524066 0.094432175
-0.024685238 0.012601818 -0.1262797 -0.039489616 0.022476256 -0.045408107 0.15067749 -0.087083876
-0.116491824 0.29539898 -0.04340895 -0.068878055 0.014177969 0.06651407 -0.22136565 -0.2296031
0.009200855 0.19726941 -0.15441787 0.06065045 -0.08930679 -0.2017455 0.009072336 -0.031120716
0.08159144 -0.006578096 -0.13796055 -0.07174931 -0.28540993 0.3376677 0.0048183934 0.13836132
-0.1115127 -0.013143598 -0.00567156 -0.1842303 -0.035027016 0.20224075 0.042621195 -0.07137087
0.10181403 -0.0020759183 -0.25096598 -0.12808913 -0.051090356 -0.05878869 0.09702892 0.21315627
0.096891426 0.046417534 -0.09500498 -0.022595081 -0.0016489202 -0.05225225 0.114894405 0.10748844
-0.011622446 -0.09212767 -0.1588745 -0.01860703 -0.011405806 -0.0030022254 0.0827166 0.139558
-0.12716435 0.030173523 0.06860543 -0.054706868 0.056945913 -0.24910939 -0.03167554 -0.14930171
-0.21975467 -0.3039539 -0.26107222 0.08106935 -0.14837621 -0.123894565 -0.16178885 0.1549467
0.06780307 0.008657672 0.12933446 -0.10300005 0.118727125 -0.0778791 -0.04134499 -0.30196428
0.088516526 0.0028785914 -0.000118357115 0.044791043 -0.030957837 -0.20189045 0.1019442 0.10373571
-0.058921933 0.02326703 0.07545671 -0.026352726 -0.15884076 -0.07913275 -0.07315488 0.0054396624
-0.10709267 0.01049453 0.058286276 -0.12531303 0.029020807 0.17517106 0.04301737 0.20887604
-0.13300207 0.186519 -0.04082016 -0.08983625 -0.27022523 0.10400895 0.0720025 -0.15996215
00000000: a9dc 663e 26ac 533d b50a 61bc c527 e2bd
00000010: 03de fbbc 56d9 af3c a87a 363c 9ff3 933d
00000020: 2af1 e13d 4ee8 11bb 4ef3 debd 8a15 113e
00000030: 93be 863d 7c9f d53d d646 afbc a531 93bd
00000040: bd06 2abe 28e4 92bd ee0d 27be 4881 b63c
00000050: b305 10be bcf9 db3d 5579 35be 4429 cf3d
00000060: 4a22 353e ee96 bb3d b642 28be 8239 e73c
00000070: 4ced 863d 5c41 f43d 25f0 413e 7a93 01bc
00000080: 9ede 303e 8487 ee3c 6dc2 8e3c 0965 0cbe
00000090: 7b5c e0bc d3dd e8bc 3b2d edbd 660a 63bc
000000a0: eb3f c63b 0e9e 43bd a861 c7bc 3ae6 2cbe
000000b0: 4fdf dc3d 61b8 1cbd 8ff1 e4bc 6e71 03be
000000c0: 2f71 18be eb63 66bc 7ab3 aebd bafc 8ebd
000000d0: f386 b23d fb15 083e 396c 19be 4f3a de3b
000000e0: dfac a8bd 3c09 323e 99de 7ebe c538 ca3c
000000f0: 6d01 7d3e 51af 10be d245 ae3d 519c 9dbd
00000100: 0317 423c 98ac fa3d 1ecf e8bd e61b a6bd
00000110: 0344 93bd 2ef6 c4bc 622d 5d3d d329 403d
00000120: d031 083e b990 e23c 837f 2bbc f56c 5c3e
00000130: 5e7f 8f3d d9f6 593c 9e77 75be 1c95 353c
00000140: 79e7 a13d 6e94 07be 5b07 fe3d 8ae5 e53d
00000150: 2182 5ebd 9451 8bbd f317 1d3d a4eb 3ebd
00000160: 4439 483e 5d35 ee3d b69f dabd e3f8 12be
00000170: e317 2bbd 6812 733c b285 e33b e763 30be
00000180: 0065 11bc e220 92bd 3152 dfbd 055f 953c
00000190: 556a 46be a328 6cbe 2685 82bd f410 ee3d
000001a0: 5899 f3bd b61b 1abe 8c68 803a 3438 f1bc
000001b0: 99bb 383d 0629 cbbd fd00 8e3d b282 26be
000001c0: 7e3e ab3c dbd3 34bd 2239 8f3d b1f8 943d
000001d0: d678 643d 069c ee3d ab69 1ebd 424f a93c
000001e0: cb69 18bd a5c9 203e adc5 cbbd b58b 403d
000001f0: cf5e a03d 924b 9dbd ff25 083d 751c 06ba
00000200: c827 003c 8ed5 5abe 49ed da3d c809 5a3e
00000210: 4265 da3b 704b 143e 0ac1 fa3b a865 c13d
00000220: b238 cabc db77 4e3c 774f 01be ddbf 21bd
00000230: 2020 b83c dafd 39bd 334b 1a3e 0859 b2bd
00000240: 4493 eebd 893e 973e 95cd 31bd f00f 8dbd
00000250: b64a 683c 8738 883d adad 62be 131d 6bbe
00000260: 2fbf 163c fe00 4a3e b81f 1ebe 9b6c 783d
00000270: 7ae6 b6bd 5f96 4ebe 23a4 143c dff0 febc
00000280: 6a19 a73d 128d d7bb 8845 0dbe 4df1 92bd
00000290: 4021 92be c8e2 ac3e 9de3 9d3b 97ae 0d3e
000002a0: c560 e4bd 3f58 57bc 7ed8 b9bb dea6 3cbe
000002b0: 7d78 0fbd 3318 4f3e 9093 2e3d e42a 92bd
000002c0: e083 d03d 210c 08bb 9d7e 80be cc29 03be
000002d0: 1f44 51bd 69cc 70bd 19b7 c63d a345 5a3e
000002e0: 036f c63d 5020 3e3d f991 c2bd 5219 b9bc
000002f0: 9520 d8ba 7506 56bd c24d eb3d e622 dc3d
00000300: 126c 3ebc 6fad bcbd ffaf 22be c56d 98bc
00000310: 6bdf 3abc fcc0 44bb 5267 a93d 4be8 0e3e
00000320: 5f37 02be 772e f73c 0181 8c3d 4f14 60bd
00000330: 1e40 693d 8816 7fbe 36be 01bd 8ce2 18be
00000340: 5e07 61be d89f 9bbe 42ab 85be b007 a63d
00000350: efef 17be 6fbc fdbd faab 25be 59aa 1e3e
00000360: 56dc 8a3d e9d8 0d3c 4170 043e b1f1 d2bd
00000370: 3527 f33d 147f 9fbd 5d59 29bd 109b 9abe
00000380: 2748 b53d c0a6 3c3b 7e36 f8b8 d076 373d
00000390: 4a9b fdbc 5fbc 4ebe 1fc8 d03d 6373 d43d
000003a0: 2058 71bd 809a be3c 0c89 9a3d ace1 d7bc
000003b0: 27a7 22be 5a10 a2bd 3ad2 95bd 323f b23b
000003c0: 6753 dbbd 40f1 2b3c 97bd 6e3d 0f52 00be
000003d0: 0bbd ed3c 0b60 333e fb32 303d 9ae3 553e
000003e0: b231 08be d6fe 3e3e 0a33 27bd 11fc b7bd
000003f0: f65a 8abe a502 d53d 0c76 933d 1ecd 23be

lstm2.bias_ih_l0 f4 [256]
-0.05707016 0.022493234 0.00431473 0.19692987 0.045757566 0.10502973 -0.24305704 -0.055895854
0.02137767 -0.03211686 -0.0022528653 0.08477561 -0.14987627 0.015444241 0.093747616 0.22380082
0.14152908 0.113023855 -0.0037977446 -0.14960176 0.10512236 -0.08783057 -0.19217888 0.101213835
0.0054381825 0.24919915 0.08439288 0.040638678 0.09094509 0.0651876 -0.066999495 0.0036392421
-0.06863664 -0.24563713 -0.12676948 0.33023447 0.24721394 -0.24774815 -0.034160573 -0.024762133
0.045373086 -0.020117108 -0.12249675 0.09309807 0.2698775 -0.07221088 0.15480246 -0.07382778
-0.13988976 0.035976246 0.13417497 -0.13686445 0.079016715 0.05679037 -0.19692406 0.019327208
-0.00033020214 -0.058775052 -0.01901844 0.09674908 0.23038064 0.14388575 0.046996158 -0.023457002
0.1412815 0.15721509 0.0060014324 0.24191754 -0.04343414 0.2133576 -0.05596733 -0.0141425645
0.060260247 -0.010850377 -0.1047718 0.012386582 -0.06812738 0.07616058 0.22932741 0.09930078
0.18654175 0.11672618 0.26064947 0.07096489 0.18527217 0.19480963 0.06167489 -0.054523744
0.15737483 0.13435645 0.24722221 0.07993068 -0.1309629 0.035429467 0.019384244 -0.15395944
0.2086861 -0.2320515 -0.045703255 -0.1453428 -0.027759347 0.0733306 0.011697738 -0.07809458
0.30555594 -0.059746794 0.12230285 0.041351017 -0.05636053 -0.09680482 -0.018873015 -0.110945575
-0.10810061 0.1462225 -0.14475934 -0.062782995 -0.10749937 0.0223393 -0.07787275 0.21221234
0.0888452 0.16243105 -0.010618793 -0.12323587 0.32557678 -0.076528765 0.14044656 0.262088
-0.022767419 -0.053919796 0.17725186 -0.09112659 0.052883442 0.0716361 0.06465936 -0.050605904
-0.01272409 -0.07069864 0.0093039265 -0.14684917 -0.07441585 0.03784431 0.094269395 -0.1374951
0.050349765 0.08371229 -0.16698898 -0.080521144 0.073311284 0.08360642 0.13227136 0.1060444
0.051316362 -0.05485948 -0.01381449 0.15875824 0.08382632 -0.17468621 -0.12687787 0.1195921
-0.1148383 0.009784829 -0.009450827 -0.08389304 -0.04352168 0.20067443 -0.13397336 0.0024785004
0.07081329 0.119580835 0.12274724 -0.16534209 -0.05718742 -0.015235263 0.08772452 -0.04503969
0.08632907 -0.12248334 0.04694888 0.08057475 -0.08069584 0.096068814 0.015435346 0.0731868
0.06962578 0.03644465 0.11619775 -0.0123929195 -0.20082755 0.17032965 -0.022661922 -0.08530262
0.10696172 -0.02350267 0.0073853154 0.030461814 0.096954964 0.01559717 -0.0925633 0.15201236
-0.03308364 0.09077161 -0.1504811 -0.00402108 0.018611625 0.108388945 -0.010536827 0.1587306
0.1732801 0.053462286 0.035746608 -0.097055614 0.034407873 -0.030588686 -0.19882965 0.11564213
0.089674905 0.07708529 0.22688751 0.009835849 -0.075292826 0.1153096 -0.13889939 0.0023157655
0.11913311 -0.012914752 -0.02481215 0.25695702 0.11658219 -0.15988594 0.00682617 -0.17789873
-0.063113146 -0.15001506 0.026297012 0.12055287 0.03666044 0.07278385 0.16746661 -0.05075173
0.0031542268 0.06437689 0.13377483 0.08147889 0.24566366 0.067272544 -0.06082791 0.013107182
0.085414454 0.027163265 -0.07907833 0.24255377 -0.030021707 0.0010541062 0.12986542 0.025204629
00000000: 66c2 69bd bb43 b83c 9462 8d3b fca7 493e
00000010: 496c 3b3d d419 d73d f2e3 78be 0df3 64bd
00000020: 3920 af3c f88c 03bd cfa4 13bb d69e ad3d
00000030: 2a79 19be d809 7d3c c0fe bf3d 0b2c 653e
00000040: 00ed 103e 0d79 e73d 95e3 78bb 3431 19be
00000050: 644a d73d 84e0 b3bd 8aca 44be 3349 cf3d
00000060: c832 b23b 102e 7f3e 2dd6 ac3d be74 263d
00000070: 6b41 ba3d 1481 853d 0837 89bd 5a80 6e3b
00000080: 5e91 8cbd 4d88 7bbe dccf 01be 7e14 a93e
00000090: a725 7d3e b1b1 7dbe f5eb 0bbd f5d9 cabc
000000a0: 21d9 393d a2cc a4bc 93df fabd 33aa be3d
000000b0: 622d 8a3e 4ce3 93bd 8984 1e3e 0533 97bd
000000c0: 433f 0fbe d45b 133d 2a65 093e 3226 0cbe
000000d0: 84d3 a13d 059d 683d 76a6 49be 1854 9e3c
000000e0: fb1e adb9 1cbe 70bd 8fcc 9bbc 6224 c63d
000000f0: e7e8 6b3e c956 133e 0b7f 403d e628 c0bc
00000100: 19ac 103e fefc 203e aaa7 c43b 3bb9 773e
00000110: ffe7 31bd 6a7a 5a3e 003e 65bd 37b6 67bc
00000120: 73d3 763d c8c5 31bc 9992 d6bd 17f1 4a3c
00000130: 5e86 8bbd 14fa 9b3d ced4 6a3e 355e cb3d
00000140: cd04 3f3e 230e ef3d d973 853e 0a56 913d
00000150: fdb7 3d3e 2d7c 473e cf9e 7c3d 4a54 5fbd
00000160: de26 213e bd94 093e d227 7d3e b2b2 a33d
00000170: 231b 06be 7d1e 113d b5cb 9e3c 8ba7 1dbe
00000180: cfb1 553e e99e 6dbe 5633 3bbd bed4 14be
00000190: 9267 e3bc 5b2e 963d dfa7 3f3c 0df0 9fbd
000001a0: d471 9c3e 0eb9 74bd eb79 fa3d af5f 293d
000001b0: 4dda 66bd 9b41 c6bd 959b 9abc 6f37 e3bd
000001c0: da63 ddbd 5abb 153e cb3b 14be 5f94 80bd
000001d0: a128 dcbd e800 b73c c07b 9fbd 314e 593e
000001e0: 79f4 b53d 5354 263e 72fa 2dbc 1663 fcbd
000001f0: 00b2 a63e 1dbb 9cbd 39d1 0f3e 6630 863e
00000200: bd82 babc 01db 5cbd 8381 353e 94a0 babd
00000210: 4f9c 583d f3b5 923d 206c 843d 2348 4fbd
00000220: b478 50bc 73ca 90bd 7f6f 183c a15f 16be
00000230: 5667 98bd a302 1b3d 5010 c13d 84cb 0cbe
00000240: 8e3b 4e3d 5971 ab3d 29ff 2abe 45e8 a4bd
00000250: 3a24 963d d839 ab3d 2572 073e ce2d d93d
00000260: 1b31 523d 56b4 60bd 2c56 62bc 8591 223e
00000270: 22ad ab3d f1e0 32be 46ec 01be b4ec f43d
00000280: 5830 ebbd 8c50 203c a4d7 1abc 1dd0 abbd
00000290: ca43 32bd 997d 4d3e 5030 09be 566e 223b
000002a0: 8f06 913d cce6 f43d e862 fb3d 704f 29be
000002b0: 5b3d 6abd 539d 79bc eaa8 b33d 8a7b 38bd
000002c0: 4ccd b03d 8cd8 fabd 784d 403d 6004 a53d
000002d0: dc43 a5bd babf c43d 89e4 7c3c f6e2 953d
000002e0: f697 8e3d fc46 153d 16f9 ed3d ac0b 4bbc
000002f0: bda5 4dbe e56a 2e3e 7fa5 b9bc 24b3 aebd
00000300: bf0e db3d ac88 c0bc 8400 f23b 0e8b f93c
00000310: 5390 c63d 468b 7f3c d491 bdbd 21a9 1b3e
00000320: b682 07bd 77e6 b93d b817 1abe 44c3 83bb
00000330: 6877 983c 06fb dd3d a8a2 2cbc 468a 223e
00000340: 5770 313e 45fb 5a3d 096b 123d 18c5 c6bd
00000350: 45ef 0c3d 2095 fabc 009a 4bbe c8d5 ec3d
00000360: 7aa7 b73d e4de 9d3d 3355 683e 8a26 213c
00000370: 2033 9abd 7127 ec3d a43b 0ebe 19c4 173b
00000380: 0ffc f33d 6598 53bc da42 cbbc df8f 833e
00000390: a5c2 ee3d 24b9 23be 10ae df3b 162b 36be
000003a0: 7741 81bd 8c9d 19be d56c d73c 6ce4 f63d
000003b0: 4229 163d b30f 953d 5e7c 2b3e 0ce1 4fbd
000003c0: 25b7 4e3b 08d8 833d 45fc 083e 67de a63d
000003d0: 418f 7b3e 30c6 893d b026 79bd 82bf 563c
000003e0: c6ed ae3d 7f85 de3c d2f3 a1bd 0460 783e
000003f0: 15f0 f5bc ef29 8a3a 71fb 043e f079 ce3c

lstm2.bias_hh_l0 f4 [256]
-0.10902466 -0.024860093 0.0012679765 0.04279058 0.07098204 0.16047718 -0.06912325 -0.08268192
-0.058381077 0.052321255 -0.16060509 0.07887759 -0.054240387 0.1506628 -0.042450827 0.04170618
0.085691296 0.15110359 0.09453598 0.025281627 -0.022987267 0.046695437 -0.067416325 0.10647726
0.0566642 0.064584516 0.16001037 0.04679153 -0.065218575 0.14588262 -0.10648476 0.008682252
-0.017705452 -0.21817575 -0.018017752 0.2447631 0.10209693 -0.14221446 -0.027327763 -0.041457802
0.024560375 -0.10012584 -0.065109864 -0.01898085 0.05570083 0.02410625 0.017040275 -0.017920155
-0.10290504 0.04305983 0.15561774 -0.06850132 0.21204725 -0.045894757 -0.20037764 -0.05337696
-0.080539025 -0.06622982 -0.035743754 0.27729765 0.21839339 -0.030714406 -0.12722042 0.11864353
-0.09821908 0.18178545 -0.08528234 0.19023658 0.07574439 0.11164551 -0.021436373 0.0344371
-0.099283904 -0.18874095 -0.02080524 0.112821355 0.15018095 0.11204914 0.2911598 -0.0021456706
0.22999623 -0.06512394 0.21267039 0.02760805 0.18176462 0.22636044 -0.010680154 -0.008608882
0.18606098 0.20520183 0.15735681 -0.09493749 -0.2133371 -0.0461464 -0.11157051 -0.03327254
0.144002 -0.09345261 0.0061066854 -0.35669792 0.025613282 0.034693375 0.23180348 0.011867744
0.2228468 -0.12583634 0.105136864 -0.04866643 0.004761517 0.1196694 -0.0073146163 -0.08702055
-0.078227825 -0.014165648 -0.12206755 -0.08235648 -0.15715852 -0.02341156 -0.13337104 0.10843099
0.024332203 0.075012736 0.19362214 -0.20363535 0.17859286 0.08267989 0.17615022 0.11274659
0.10071978 -0.1406947 0.020152962 0.091859214 -0.07617536 0.0068238406 -0.0050795143 -0.013353217
-0.052433696 -0.107065015 0.12077318 -0.07290546 0.045079444 0.08910784 0.13010326 0.026574923
0.029734882 0.01059691 -0.06827912 0.08726897 0.021916302 0.022038475 0.082852095 -0.029174719
-0.12959832 -0.04810365 -0.062270734 -0.0022515215 -0.01011815 -0.004131064 -0.0555827 0.029032096
-0.08709024 -0.00016733933 0.039697953 0.07058501 -0.088865936 0.034356497 0.08294734 -0.09551098
0.023949975 -0.12206912 0.012492819 -0.107596025 -0.08259199 0.05167072 0.12547842 -0.068027824
-0.012878272 -0.05515567 -0.08936327 -0.09781718 -0.04739253 -0.09045942 0.084569775 0.04793304
0.0020883537 0.059375376 0.08647439 -0.08191076 -0.19158722 -0.009599829 -0.05156315 -0.10271771
-0.102645956 0.06261748 0.025615806 0.06251457 0.07990179 -0.0832791 -0.22454049 0.07794579
0.01363005 0.21146479 -0.072688185 -0.13579625 -0.09260364 0.09765033 0.0064382767 0.16406162
0.02157715 0.016244914 0.21431857 -0.17807922 -0.044058766 0.10641409 -0.054391444 0.15836897
0.1047839 0.07040896 0.16023293 0.21641375 0.071581334 0.12293485 -0.061251078 0.043246288
0.1265369 -0.008782544 0.0152978515 0.32618746 0.19607738 -0.024663806 0.01989639 -0.007347617
-0.12515022 0.03946497 0.044272702 0.056750998 0.19473568 -0.099492155 0.25193924 0.0130901355
-0.09758253 0.14522389 0.28452775 0.0066021723 0.026027441 -0.05678124 -0.14694211 0.12472932
0.018722104 0.10735306 0.053802922 0.22946106 0.041212212 0.0065988875 0.11956185 0.007771484
00000000: 5248 dfbd 65a7 cbbc 3b32 a63a 2d45 2f3d
00000010: 085f 913d 2154 243e 7e90 8dbd 2355 a9bd
00000020: ff20 6fbd d04e 563d a975 24be 938a a13d
00000030: 2b2b 5ebd 5947 1a3e ebe0 2dbd 19d4 2a3d
00000040: eb7e af3d e6ba 1a3e 149c c13d 6a1b cf3c
00000050: cb4f bcbc b743 3f3d 9211 8abd c010 da3d
00000060: b818 683d e344 843d c2d9 233e 7aa8 3f3d
00000070: 5191 85bd 4162 153e af14 dabd 0140 0e3c
00000080: 060b 91bc 7769 5fbe f799 93bc 2ea3 7a3e
00000090: 3218 d13d aba0 11be 79de dfbc a8cf 29bd
000000a0: d732 c93c c70e cdbd 5258 85bd ba7d 9bbc
000000b0: 8e26 643d 787a c53c 0c98 8b3c 4acd 92bc
000000c0: e1bf d2bd 815f 303d 425a 1f3e 6c4a 8cbd
000000d0: ea22 593e 24fc 3bbd cc2f 4dbe cda1 5abd
000000e0: a5f1 a4bd 80a3 87bd 0b68 12bd f5f9 8d3e
000000f0: 84a2 5f3e c79c fbbc 1246 02be 61fb f23d
00000100: 1627 c9bd f725 3a3e 82a8 aebd 61cd 423e
00000110: e01f 9b3d 67a6 e43d 559b afbc eb0d 0d3d
00000120: 5c55 cbbd 4f45 41be c06f aabc e20e e73d
00000130: 09c9 193e 057a e53d e612 953e 619e 0cbb
00000140: 2284 6b3e b35f 85bd 44c6 593e 472a e23c
00000150: 8120 3a3e 08cb 673e d0fb 2ebc 450c 0dbc
00000160: c586 3e3e 6e20 523e 2522 213e 966e c2bd
00000170: 0a75 5abe 0204 3dbd 147f e4bd c948 08bd
00000180: 4375 133e 1564 bfbd 971a c83b 1ca1 b6be
00000190: f2d2 d13c a41a 0e3d e45d 6d3e ed70 423c
000001a0: f431 643e 3edb 00be ff51 d73d 7356 47bd
000001b0: 8006 9c3b 3b15 f53d 73af efbb d537 b2bd
000001c0: e935 a0bd 0917 68bc 8dfe f9bd 84aa a8bd
000001d0: 2aee 20be 9ac9 bfbc 6b92 08be 1111 de3d
000001e0: 5454 c73c 47a0 993d e244 463e c985 50be
000001f0: 0ce1 363e 1354 a93d b960 343e afe7 e63d
00000200: 2c46 ce3d 4512 10be d317 a53c af20 bc3d
00000210: d401 9cbd 869a df3b 0e72 a6bb 74c7 5abc
00000220: b7c4 56bd e744 dbbd ee57 f73d 754f 95bd
00000230: 39a5 383d 2c7e b63d ca39 053e a7b3 d93c
00000240: 9196 f33c a99e 2d3c ecd5 8bbd 13ba b23d
00000250: d189 b33c 088a b43c 5cae a93d d2ff eebc
00000260: 6cb5 04be 5508 45bd 990f 7fbd 438e 13bb
00000270: 99c6 25bc e05d 87bb afaa 63bd b8d4 ed3c
00000280: 5e5c b2bd cf77 2fb9 529a 223d e08e 903d
00000290: 58ff b5bd 66b9 0c3d 4ce0 a93d 439b c3bd
000002a0: bd32 c43c 60ff f9bd aeae 4c3c 4e5b dcbd
000002b0: fd25 a9bd ada4 533d 6a7d 003e 2c52 8bbd
000002c0: 63ff 52bc e9ea 61bd 1704 b7bd 6054 c8bd
000002d0: ab1e 42bd ca42 b9bd eb32 ad3d 6f55 443d
000002e0: c3dc 083b 9833 733d 7c19 b13d d4c0 a7bd
000002f0: 712f 44be 9a48 1dbc e233 53bd aa5d d2bd
00000300: 0b38 d2bd 983d 803d 3dd8 d13c a407 803d
00000310: 8da3 a33d 3c8e aabd f1ed 65be 0ba2 9f3d
00000320: 9350 5f3c 3a8a 583e 8bdd 94bd 2c0e 0bbe
00000330: faa6 bdbd e5fc c73d 2ef8 d23b c5ff 273e
00000340: 90c2 b03c 0e14 853c 5476 5b3e 665a 36be
00000350: f776 34bd a1ef d93d 90c9 5ebd 7a2b 223e
00000360: f198 d63d 9332 903d 1a14 243e 919b 5d3e
00000370: 3c99 923d 44c5 fb3d 69e2 7abd 0523 313d
00000380: e492 013e a9e4 0fbc d7a3 7a3c 0b02 a73e
00000390: 82c8 483e c00b cabc c1fd a23c 47c4 f0bb
000003a0: 6127 00be 05a6 213d 4b57 353d bc73 683d
000003b0: ca68 473e 8bc2 cbbd 2efe 803e 0278 563c
000003c0: 59d9 c7bd 92b5 143e 9fad 913e 0957 d83b
000003d0: 8037 d53c 7293 68bd fe77 16be 1672 ff3d
000003e0: 195f 993c ecdb db3d 7460 5c3d d7f7 6a3e
000003f0: 23ce 283d 7b3b d83b d8dc f43d efa7 fe3b
