saved_model/DAP_Model_Combo1.pt (torch, 232066 bytes, 12 tensors)

lstm1.weight_ih_l0 f4 [256, 4]
000000 25 6b 2f 3d 4c fd 5c 3d 59 4f 30 3d 9f 00 24 be
       0.04282679 0.0539525 0.04304442 -0.16015862
000010 c8 c4 5e 3d 83 37 e1 3c 10 02 ee bd ec 5c 40 be
       0.054386884 0.02749229 -0.11621487 -0.18785447
000020 14 4c 51 3e f1 a1 45 3d f1 0b d5 bc 42 68 ab 3e
       0.20439178 0.048250142 -0.02600667 0.3347798
000030 ca 8f df bd 70 05 1c 3e 4a dd 5c bd d6 8b 91 bc
       -0.109160975 0.15236449 -0.053921975 -0.017766874
000040 86 fa 1a be c4 7c c4 bd b8 80 6a be 8b c9 9b 3e
       -0.1513463 -0.0959411 -0.22900665 0.30427203
000050 0e 3a a4 3c 51 b8 89 3d d8 7b d9 3c 6b de 03 be
       0.020047214 0.06724609 0.026548311 -0.12877814
000060 8f 31 bc bd 2c 27 f9 3c e2 a6 85 be dd 58 21 3d
       -0.0918914 0.030414186 -0.26103884 0.039391387
000070 82 8e a3 bc 1a 0b eb 3c 49 54 67 bd 36 bc bb 3c
       -0.019965414 0.028691817 -0.056476865 0.022916894
000080 81 03 46 3d 59 ae 53 3e c5 3a 00 3d 10 c6 04 3d
       0.048343185 0.20671977 0.031306047 0.03241545
000090 1f 8d 47 be 25 7c 1a be d1 53 d7 bd fe ee 65 be
       -0.19487427 -0.1508642 -0.105140336 -0.2245445
0000a0 23 43 ad bd 19 dd a1 bd 78 4c c9 bd 49 e5 b9 3c
       -0.08460071 -0.07903499 -0.098290384 0.02269234
0000b0 62 ba 92 bd fe 03 fe bd 7b e2 a9 bd d0 17 60 bd
       -0.07164456 -0.12403105 -0.08295151 -0.05471021
0000c0 eb 2f 26 3d a7 aa 1a be c9 3d 3f 3d 42 4e 7d be
       0.040573042 -0.15104161 0.046689782 -0.24736884
0000d0 d6 d4 b4 bd 4f 26 95 3c 41 66 33 3e 75 4f e2 bb
       -0.08829658 0.018206744 0.17519476 -0.0069064447
0000e0 be b5 5c 3d 51 0d ca 3d d5 d5 04 3e e0 74 ce 3c
       0.05388426 0.09865821 0.12972195 0.025202215
0000f0 c4 95 50 3d 3b 49 c7 3c d3 22 5d bd 89 a1 d8 3d
       0.050924078 0.024326911 -0.05398829 0.105776854
000100 64 fe 01 bd b7 52 db bb 23 87 be bd d4 9e 04 be
       -0.031736746 -0.00669321 -0.09303119 -0.12951213
000110 09 21 ac 3d fa cd 4b 3c a7 3f 7f bb 1c 9b 7b 3e
       0.084047385 0.012439245 -0.0038947852 0.24570888
000120 e6 f0 2f 3e 5d b0 64 3d 4b 4b 83 bc fb d1 59 3d
       0.17181739 0.055832256 -0.016027113 0.05317877
000130 09 0e b1 bc 28 62 c6 3d 61 eb bc 3d 55 fe a6 be
       -0.021613138 0.096866906 0.092245825 -0.32615915
000140 1e 9d c1 3d 1f 77 2d 3d aa 32 1d bd f6 63 87 ba
       0.09453796 0.04234993 -0.038378395 -0.0010329473
000150 17 dd d9 bc 8a 15 77 3d 32 33 c7 3d cc 8a 7b 3d
       -0.026594682 0.060323276 0.097265616 0.061411664
000160 f5 0e 9a bd e2 bd 58 3c 1d 89 e3 bc e1 80 a9 3d
       -0.07522384 0.013228865 -0.027775342 0.08276535
000170 52 58 85 bc 09 4f 42 3d 69 ac 08 3d ec 72 66 be
       -0.016277466 0.047438655 0.03336755 -0.22504777
000180 cd c9 9f 3d e9 ee 28 3d 2a 47 df bd da e5 a4 3e
       0.07802162 0.041243467 -0.10902245 0.32206613
000190 cf 66 01 3d f2 26 eb bd da b4 91 3d 7c 4e 9d 3d
       0.031592187 -0.114820376 0.07114573 0.07680985
0001a0 a7 f2 85 bd d6 7e 44 be 6b 31 c1 3d 6b e0 b1 3d
       -0.06540423 -0.19189009 0.09433254 0.086853825
0001b0 67 74 88 bd 63 af 39 3d 95 69 8d 3b 68 b8 6e be
       -0.06662827 0.045333277 0.004315565 -0.23312533
0001c0 bb f4 3e 3e a0 ea f7 b9 d2 6b be bd 16 b1 89 3e
       0.18648045 -0.0004728632 -0.09297909 0.26892918
0001d0 f8 9d 28 3d 8e 3d 92 3d 99 6e 14 be 3a cb 59 3d
       0.041166276 0.07140647 -0.14495315 0.053172328
0001e0 80 2f 36 be 70 07 6a be c8 ef af 3d 52 df e7 bd
       -0.17791557 -0.228544 0.085906565 -0.11321892
0001f0 82 2c 91 bc 64 f1 88 be 73 dd 4f bd 97 73 19 bd
       -0.017721418 -0.26746666 -0.0507483 -0.03746375
000200 4c 05 45 3e d0 f0 78 3d d8 32 ba bd be 8b fe 3e
       0.19240302 0.06077653 -0.09091729 0.4971599
000210 be 82 e0 bd d6 fa e4 3d 50 cc 90 bd da 43 48 be
       -0.10962437 0.11180656 -0.070702195 -0.19557133
000220 5d 4d 00 3e a2 11 02 bd 83 e3 8b bc c4 fd e4 bd
       0.12529512 -0.031755097 -0.01707626 -0.111812145
000230 16 b5 96 bb 30 02 71 be ab 0c 64 3d b1 6c a8 3d
       -0.004599224 -0.2353599 0.055676144 0.08223856
000240 9e ee da 3c bc c9 5e 3d 48 0e 5b be d1 db 75 3e
       0.02672511 0.054391608 -0.21392167 0.24009635
000250 71 01 a8 3d 9f 0b e5 3d 08 73 5a 3d 03 b9 41 be
       0.082034 0.11183857 0.05333236 -0.18918233
000260 13 df ce 3d 4d 1a 54 3a 38 20 42 3c f4 82 86 bc
       0.10101142 0.00080910773 0.011848502 -0.016419865
000270 a4 37 ce bd 14 8c 85 be 65 1f b2 3d 51 d2 cf bd
       -0.10069206 -0.26083434 0.08697394 -0.101475365
000280 d4 2f 28 bd ed 92 ac bd 68 a3 02 3c 38 3e 28 be
       -0.041061237 -0.08426461 0.007973529 -0.16429985
000290 f9 4d 06 be fa 8e 18 bd 6f 61 71 3d 65 4b dc 3d
       -0.13115682 -0.037245728 0.05893081 0.10756568
0002a0 ed ca 62 bd a9 62 c0 3d ad ea df 3c 2c 27 b1 3e
       -0.055369306 0.09393818 0.027333582 0.34600198
0002b0 46 9b df bd 12 f3 ba bd ea 3a 0e 3e 5d b3 07 3d
       -0.10918288 -0.09128393 0.13889661 0.03313004
0002c0 86 08 a8 3a 04 98 6b 3d eb 79 11 3e 8d f2 42 be
       0.0012819923 0.05751802 0.14206664 -0.19037838
0002d0 e5 ad 34 3d 3f 47 87 bd 22 2d 95 3d e4 87 fb 3b
       0.04411115 -0.06605386 0.07283999 0.0076761115
0002e0 10 a2 a6 bb 5e f2 52 bd bc 72 e2 bb e7 de 7b be
       -0.0050852373 -0.05150067 -0.00691065 -0.24596749
0002f0 bf 47 87 bb 30 03 9c bd f8 d7 b9 bd 5b 37 1f 3c
       -0.004128426 -0.076177955 -0.09074396 0.009717788
000300 ee d0 24 3c dc c4 04 3c 1e 64 d4 3d f9 0f 51 be
       0.010059578 0.008103576 0.10370658 -0.2041625
000310 21 57 89 bd c3 96 69 3c 54 56 40 bd 12 29 dc 3b
       -0.06706072 0.014257136 -0.04695733 0.006718763
000320 ff 7a 0c 3e 8f 77 98 3c 4d fe ff bd 58 ab 58 3d
       0.13718794 0.018611697 -0.12499676 0.05289778
000330 88 6f 84 3d 63 59 2f bd 8d 50 3f 3d 45 0b 21 be
       0.064665854 -0.042809855 0.04670768 -0.15726955
000340 96 37 58 3d 76 86 b9 bc 8d e4 76 3d 09 02 80 bc
       0.052787386 -0.022647124 0.060276557 -0.01562597
000350 75 b6 83 3e 73 78 f2 bd 09 07 9c 3d 40 43 04 3e
       0.2572514 -0.1183938 0.07618529 0.12916279
000360 64 d8 5f 3d b2 55 29 3d a7 8c 9d bd 10 07 5b 3c
       0.054649726 0.04134149 -0.07692843 0.013368383
000370 cc 25 22 bc a8 03 74 3e bd 9b d8 bc f4 18 8c bd
       -0.009896707 0.2382952 -0.02644145 -0.06840697
000380 85 07 5e 3e 38 7a 84 3d 47 86 e2 3d f8 bc 66 3d
       0.21682556 0.06468624 0.110607676 0.05633256
000390 98 af 31 3e 69 85 8d bd 87 8a a5 3d 97 9a 84 3e
       0.1735214 -0.069102116 0.080830626 0.25899193
0003a0 2d af 08 3e e0 b7 f3 bd 67 a1 81 bd e4 c6 64 3c
       0.13348074 -0.11900306 -0.06329613 0.013963435
0003b0 db da 90 bc 23 61 d3 ba 7c d1 d7 bd 2e 4f 90 3d
       -0.017682483 -0.0016126971 -0.10538003 0.07046352
0003c0 b6 86 e0 bc 95 ed 83 bd ea 50 cd 3d b5 a9 e3 bd
       -0.027407985 -0.064417996 0.10025199 -0.111163534
0003d0 03 1f e6 3d 78 69 e0 ba d3 59 9f bd 24 03 b3 bd
       0.11236384 -0.0017121276 -0.077808045 -0.087408334
0003e0 d1 f2 e4 3d 65 a6 5a bd 19 56 22 3e 9c fb f4 3d
       0.11179126 -0.053381342 0.15853156 0.11962053
0003f0 cb 47 ae be 46 3c 2c be 5f 81 67 3d 89 4c 18 3d
       -0.3403915 -0.16819867 0.056519862 0.037182365

lstm1.weight_hh_l0 f4 [256, 64]
000000 97 ff 60 3d 76 11 c4 3d 38 81 13 be e5 fd 30 3d
       0.05493125 0.09573643 -0.14404762 0.043210883
000010 f3 00 96 3d da 6b 42 bd f1 82 1c 3e 32 b5 54 bc
       0.073244 -0.047466137 0.15284325 -0.012982653
000020 69 05 a4 3d e6 49 d9 3c 3b f4 36 bd 8d 3b 53 bd
       0.080088444 0.026524495 -0.04466651 -0.051570464
000030 4b 44 f6 bd ff 31 94 3d 96 83 99 3d 36 af c0 3c
       -0.120247446 0.072360985 0.07495801 0.023521047
000040 0f c0 34 bd 70 85 f7 3d 10 94 0f be 2f 9e 29 3e
       -0.044128474 0.12085998 -0.14021325 0.16564249
000050 75 be a3 3c 2f ef 4b bd d0 14 4d be 6a dc 2e 3c
       0.019988278 -0.04978865 -0.2002747 0.010672668
000060 2d 6b a5 3d 82 b2 54 3d 5c 27 e0 bd 89 f6 81 be
       0.08077083 0.05192805 -0.10945007 -0.25383404
000070 49 ec cb 3d 52 ee ee 3d 15 cb 01 bd 12 91 f8 3d
       0.09957177 0.1166655 -0.031687815 0.12137045
000080 cf ba 9c bd e9 02 b3 3c 7f 31 7f 3c 46 73 5b 3a
       -0.076528184 0.021851974 0.015575766 0.0008371364
000090 d0 6d 38 be fa b7 14 3e 7a be 21 3c 04 b0 46 3c
       -0.1801064 0.14523306 0.009872073 0.012126926
0000a0 b2 7f 00 3e 1a 58 c4 3d 1c c1 e3 bc 3c b3 ba 3d
       0.12548712 0.095871165 -0.027802043 0.091162175
0000b0 e0 62 03 3e ee be fa bd 34 90 c2 3c 9d e9 c0 bd
       0.12830687 -0.12243448 0.023750402 -0.09419558
0000c0 d9 6d 2e 3d 32 9c 1f 3e 8d 79 29 3e 4a 36 1d be
       0.042585228 0.15586928 0.16550274 -0.15352741
0000d0 fb bc f9 3d 1a 12 5a be 16 ee ae bc cf ff c6 bd
       0.12194248 -0.21295968 -0.021353763 -0.0971676
0000e0 e1 e6 31 be 93 75 92 bc 3d 16 a2 bd 3d a5 39 3e
       -0.1737323 -0.01787833 -0.07914398 0.1812944
0000f0 71 77 ed 3c 54 92 22 bd 60 3a 37 bd 91 f1 35 be
       0.028987618 -0.03969033 -0.044733405 -0.17767932
000100 18 bd 90 bd 33 99 17 3e 00 4c 7c be 5c 02 b2 3d
       -0.07067317 0.14804535 -0.24638367 0.08691856
000110 c3 5b f4 bd 09 f1 78 3e 9b 92 90 3d d6 0c 1e be
       -0.11931565 0.24310698 0.07059213 -0.15434584
000120 d9 f9 00 be 3d ff 03 be db 66 8b be ec cb 13 3d
       -0.1259531 -0.12890334 -0.2722691 0.036083147
000130 aa c6 45 be 4d 65 1e bd 14 d6 bb 3d aa e8 29 bc
       -0.19314066 -0.038670827 0.091716915 -0.010370413
000140 c0 a3 aa bb d3 6e 01 3e 16 da b3 3d 77 d5 c6 bd
       -0.005207509 0.12639932 0.08781831 -0.09708684
000150 12 5c 6d bc 19 a7 7c be 9f 8b 3c bd e1 8a 35 be
       -0.014487283 -0.24673118 -0.04603159 -0.1772876
000160 26 50 b5 3d 16 11 ec bd 6b c2 30 bd c8 d6 b3 bb
       0.08853178 -0.115266964 -0.04315416 -0.0054882504
000170 2b 00 ff bd f8 d4 5a 3d 8a 65 a3 3c 3c 75 ba bd
       -0.12451204 0.05342576 0.019945879 -0.09104392
000180 fb 8e 5d 3d 32 5d 82 bd a1 f0 26 bd f8 4c f2 38
       0.054091435 -0.06365432 -0.040756825 0.00011553796
000190 f9 82 94 3b 8c 26 18 3e ab 5d 00 3e d3 64 30 3d
       0.0045322147 0.14858454 0.12535731 0.043064903
0001a0 b6 0b f0 bc 56 f3 bb 3d fd 19 97 3d d8 c4 46 bd
       -0.02930246 0.09177272 0.07378004 -0.04852757
0001b0 fd 5f 0d 3e f8 48 59 be 94 86 71 bd 48 fd 23 be
       0.13806148 -0.21219242 -0.058966234 -0.16014588
0001c0 f8 2b ff bc e8 66 9f 3d 99 42 a4 3b 4f b4 2a be
       -0.031148896 0.077833 0.005012822 -0.16670345
0001d0 15 76 ad bd b8 db 0e bd a0 09 23 be ca dc eb 3b
       -0.08469788 -0.03487751 -0.1592164 0.007197951
0001e0 87 02 fc bd 67 29 94 3a f3 8e a5 3c 17 f6 c9 3d
       -0.123051696 0.0011303843 0.020209765 0.09861391
0001f0 46 7e d4 3d 9a 79 12 bd 39 48 bd 3d d0 94 00 3d
       0.10375647 -0.0357605 0.09242291 0.03139192
000200 b3 c9 c2 3d 8e d2 f4 bc 6f 8a 05 3d 65 34 c8 bd
       0.09511127 -0.029885557 0.032602724 -0.097756185
000210 71 85 24 be 46 6c 68 be f2 6b ab 3d 16 fc 99 bd
       -0.16066529 -0.22697553 0.08370198 -0.07518785
000220 6a 90 e0 3d 53 8d 81 3e af 20 b6 bd 29 0d fc 3d
       0.10965045 0.25303134 -0.08892953 0.123071976
000230 37 f9 c4 bd a1 92 db 3d 79 a0 68 bd 7e 7c bf bc
       -0.096178465 0.107213266 -0.056793664 -0.023374792
000240 c8 57 0b ba 20 4d 0d bd 3a 05 a9 bd 13 40 27 3e
       -0.00053155096 -0.03449738 -0.0825295 0.16333036
000250 d5 77 c1 bd e5 a2 e4 bd 14 57 8c bd 30 fd 2b 3e
       -0.09446684 -0.11163882 -0.06852546 0.16795802
000260 2b 65 37 3d 75 bc 0e 3e 0e 9e 94 bd e5 f0 97 bd
       0.044774216 0.13939078 -0.07256709 -0.07418994
000270 cd a7 ad bd bb aa 0c 3d 90 57 14 be 34 32 9c 3d
       -0.08479271 0.03434251 -0.14486527 0.07626763
000280 26 94 61 3d b9 7f e0 bd 06 52 ba 3c fa d8 6a be
       0.055072926 -0.10961861 0.02274419 -0.22934332
000290 fe d3 4b 3e 3f fe 62 bd 30 5c b7 3d 03 a5 85 3e
       0.19905087 -0.05541825 0.0895313 0.26102456
0002a0 bf 6b 48 bd 99 98 56 be 6e dd 09 3d e1 90 d0 3c
       -0.04893088 -0.20956649 0.033658437 0.025459709
0002b0 f0 62 fd 3d 06 4f 40 3d 76 98 26 3e bc f7 8c bc
       0.123723865 0.046950363 0.16269097 -0.017207973
0002c0 33 3f 0d 3d ff 3b 0c 3e 3d 96 92 bc ee 08 a1 bd
       0.0344841 0.13694762 -0.017893905 -0.07863031
0002d0 c2 e2 c7 3d 8b ce 82 bd 4a 93 eb 3c b5 b6 81 be
       0.097600475 -0.06387051 0.028756756 -0.25334707
0002e0 56 1c 77 3d 0e 3d 35 bc 45 58 a1 bd 76 71 e4 bd
       0.060329758 -0.01106192 -0.07878164 -0.111544535
0002f0 98 91 0a be db 41 7f 3d 57 39 9a 3d 67 6a 01 3e
       -0.13532102 0.062318664 0.07530468 0.12638246
000300 c5 1a 01 bd 08 43 be 3d 05 6c 0b be cc 28 cd 3d
       -0.03151967 0.09290129 -0.13615425 0.10017547
000310 63 85 a5 3e 65 fe b0 bd 76 32 83 be 06 7c 86 bc
       0.32328328 -0.08642272 -0.25624436 -0.01641656
000320 7b 39 90 bb b2 09 7a 3d 59 a9 09 bd 64 7d d2 bd
       -0.0044013835 0.061044402 -0.033608768 -0.102778226
000330 ef be 1f be 3f 32 16 bb 17 f4 15 be 29 ea aa 3e
       -0.15600179 -0.0022918133 -0.14643894 0.33381775
000340 97 e8 93 3c 7e b4 b4 bd 60 cf 1f 3e a4 08 be 3c
       0.018055243 -0.08823489 0.15606451 0.02319748
000350 9b b3 12 bc 8c c4 60 bd a0 e9 6f be 15 cd 45 3d
       -0.008953954 -0.05487494 -0.23428965 0.048291285
000360 50 5f 9d 3c 35 95 83 bb 57 bf 2c 3d 96 2b 44 3d
       0.019210488 -0.0040155896 0.042174663 0.04789313
000370 b3 7d 05 bd ee 86 9e 3d 1b 56 4d bd a5 76 87 bb
       -0.03259058 0.077405795 -0.050130945 -0.0041340166
000380 47 6a 9b 3d a5 84 58 3e f4 5c 27 bd 9c e7 5f 3d
       0.0758863 0.2114435 -0.04086013 0.05466424
000390 5a 60 44 3d 7e c6 53 bb a5 d1 ef 3c 71 13 19 bd
       0.04794345 -0.0032314355 0.029274771 -0.037372056
0003a0 cc e1 5c bd 59 01 8d 3e bb 9b 23 be c2 a4 99 3c
       -0.053926274 0.2754009 -0.15977375 0.01875532
0003b0 bf ed 64 3d 61 89 b5 bb 98 9f 97 3c 25 c4 e0 bd
       0.055890795 -0.0055400585 0.018508717 -0.109749116
0003c0 7c 0d 2a 3e 1a 8a 66 3e c3 ba 8d 3d 76 59 10 3e
       0.16606706 0.22513619 0.069203876 0.14096627
0003d0 0e 6f 0b 3e 0b e3 67 bd 19 7a 93 3d c3 9d 13 3d
       0.13616583 -0.05661301 0.07201023 0.036039125
0003e0 32 df 93 bc 5e a4 dd 3d 7e 2d d6 bd 57 de 9f 3d
       -0.018050764 0.10822366 -0.10457896 0.0780608
0003f0 8f 56 2c 3e 9b b3 ef bd 88 17 54 bd a6 54 70 be
       0.16829894 -0.11704179 -0.051780254 -0.23469791

lstm1.bias_ih_l0 f4 [256]
000000 10 03 5f bc bc ee 7f 3d aa ba 31 3d a8 9a 0e be
       -0.01361157 0.062483534 0.043390907 -0.13926184
000010 4a 39 86 3d 22 83 57 3d 9b cc a2 3d 80 d5 1e bd
       0.06553896 0.052615292 0.07949182 -0.03877783
000020 87 78 91 bd ea 9c 95 bd 47 60 64 3c c2 54 d7 bd
       -0.07103067 -0.073053196 0.01393897 -0.10514213
000030 68 5a 7c bd 79 e7 c8 3d df dd 04 3e ba 06 69 3b
       -0.061609656 0.09809775 0.12975262 0.0035556988
000040 e9 39 b9 3d 97 5b 2c bb 20 42 21 3e 09 0b b2 bb
       0.090442486 -0.002629971 0.15747881 -0.0054334444
000050 c6 f2 e9 3d e6 cd b0 bd 95 d4 b7 3d b4 19 ec 3c
       0.114232585 -0.08633022 0.08976094 0.02882085
000060 24 ac 5b bd fc 84 12 be 92 90 bb 3d f1 d8 33 bc
       -0.053630963 -0.14308542 0.09158434 -0.010977016
000070 b8 f8 f4 3d e1 d8 36 be 17 e6 c5 3c f2 cb ca 3c
       0.11961502 -0.1785617 0.024157567 0.024755452
000080 6b f6 1e be 02 7f 0e 3d e2 22 dd 3c 62 51 db bc
       -0.15523688 0.034789093 0.026994172 -0.026772205
000090 2c fc 80 bd 54 80 8f bd ac 06 82 3e f8 cf 91 3d
       -0.06298098 -0.070068985 0.25395715 0.07119745
0000a0 9a d4 ad 3d fb 6a 12 be 5f a3 40 3e 93 45 21 bd
       0.08487816 -0.14298622 0.18812321 -0.03937299
0000b0 91 2d b0 bc c7 45 18 3d 2b 8c 9c bc 11 ea e3 3d
       -0.021506103 0.03717592 -0.019109806 0.11128629
0000c0 73 b6 82 bd f0 a7 60 3d 04 1d c4 bc 99 ad dd bc
       -0.06382456 0.054847658 -0.023939617 -0.027060317
0000d0 e3 af ba 3c a6 59 e1 bd 39 66 6d bd 4b 32 39 be
       0.022788947 -0.11003427 -0.057958815 -0.18085591
0000e0 32 a2 e4 3c c8 b9 dd 3d aa fb f7 3d 6e 92 ef bb
       0.027909372 0.108264506 0.12108548 -0.007311157
0000f0 f1 85 56 bd b5 00 20 be 1c 79 1d 3e 61 0c 88 bd
       -0.05237383 -0.1562527 0.15378231 -0.06642986
000100 b3 f7 fd 3c a4 dc d4 3d 17 bf 5f 3e 06 17 9b bd
       0.031001901 0.10393646 0.21850239 -0.07572751
000110 79 4e 02 bd 16 d6 c8 bd 6e 16 ae bd 49 2f 97 3d
       -0.03181312 -0.09806459 -0.08500372 0.07382066
000120 ea 57 6a 39 aa 67 2b bd d3 87 76 bd 02 85 a7 3c
       0.0002234873 -0.04184691 -0.060188126 0.020449165
000130 41 c5 42 bd 03 42 ae bd 84 41 00 3b fb 75 80 3d
       -0.047551397 -0.085086845 0.00195703 0.06272503
000140 75 d7 1b 3e 3a 9b ef 3d 4a 14 65 be 2e 5f db 3d
       0.15218909 0.11699529 -0.22371021 0.107115135
000150 71 3a e8 bd 14 19 87 3c 4f e2 13 3e 5b 97 8d 3d
       -0.11339272 0.01649145 0.14441799 0.069136344
000160 b2 e2 50 3d 81 8b e2 bd ca 7f b2 3d be d0 38 bd
       0.050997443 -0.110617645 0.0871578 -0.045120947
000170 ec 45 e0 3b 1e df e9 bd 03 d8 b5 bb 08 82 02 3e
       0.006844273 -0.11419509 -0.0055494322 0.12744915
000180 94 5f 49 bd 53 76 b4 3d 0a 05 01 be 30 ea 31 bc
       -0.049163416 0.08811631 -0.12599578 -0.010859057
000190 5d 51 54 3e 57 32 3e 3d 16 14 c6 3d 2e 1f 8d 3d
       0.20734163 0.046434727 0.096718 0.06890713
0001a0 ac 4d 14 be 45 2a 03 3d 69 a0 6f 3d 86 3b 20 bd
       -0.14482754 0.032022733 0.05850259 -0.039119266
0001b0 8a e5 73 bd 54 8e bc bc 41 a0 52 3e d1 9e b5 bd
       -0.059545077 -0.023017086 0.20568945 -0.088681825
0001c0 09 39 ad bd 18 bc a6 3d 71 de 0c be 2e 0e c6 3d
       -0.08458144 0.08141345 -0.1375673 0.09670673
0001d0 f5 30 58 bd 93 8c 66 3d 1a e0 78 3d 76 f6 29 be
       -0.052781064 0.056286406 0.060760595 -0.16597924
0001e0 42 2b d4 3d bf 16 28 bb 19 e8 26 3c b1 02 51 3d
       0.10359813 -0.0025648323 0.010187172 0.051027957
0001f0 fa 4f 20 bd 90 ac 94 3c 74 13 23 bd ef d6 b1 bd
       -0.03913877 0.01814869 -0.039813474 -0.086835735
000200 0d d7 70 3d 7e 85 7e 3d 04 98 4a 3e 29 59 6c 3b
       0.05879884 0.062139027 0.19784552 0.0036063886
000210 6a fb 36 be f2 af 1e 3e b0 ef 20 3e d5 c0 38 3c
       -0.17869344 0.15496805 0.15716434 0.0112764435
000220 85 cb 53 3d e9 dd ce bd ef 52 16 3e f7 76 1f 3e
       0.051707763 -0.1010092 0.14680074 0.15572725
000230 5b ea 90 bd 9e 33 15 be 4e 42 bd bd 36 52 ce bd
       -0.0707595 -0.14570472 -0.09241162 -0.10074274
000240 be 8b 28 be ef e5 c9 bd b8 67 01 3e 48 0a 86 3d
       -0.16459557 -0.098583095 0.12637222 0.0654493
000250 f3 37 64 be 47 d0 56 3e b1 44 13 3e 02 e6 90 bd
       -0.22286968 0.20977889 0.14381672 -0.070751205
000260 6b c0 d9 3b b0 14 3d 3d d3 06 80 bb b6 ed 41 3e
       0.0066452525 0.046162307 -0.0039070635 0.18938336
000270 f1 20 12 be 42 54 44 3d 0f c8 55 3e 5f 47 fb bd
       -0.14270379 0.047931917 0.20877098 -0.12269472
000280 be 97 55 bd ab 48 54 3c 3f 95 25 3e f4 01 c5 3c
       -0.052146666 0.0129567785 0.16170214 0.024048783
000290 06 97 bb 3d e3 a5 5c bd ec eb 66 be 59 cb dc bc
       0.09159665 -0.05386914 -0.22550935 -0.026952432
0002a0 63 8a 70 be 18 52 bc bc f2 da 95 bd 50 52 59 3d
       -0.2349029 -0.022988364 -0.07317151 0.053057015
0002b0 f8 e6 04 be 1a 11 f7 3d 2d f3 cd bd 08 3b 5f 3e
       -0.12978733 0.12063809 -0.10056148 0.21799862
0002c0 94 06 9f 3b 74 bb cc bd 92 af b8 bd 69 40 58 3d
       0.004853079 -0.09996691 -0.090178624 0.0527958
0002d0 1f ce 2c be ff 9a 90 3d d6 3a cf bd 87 ba c0 3d
       -0.16875504 0.07060813 -0.10118644 0.09410577
0002e0 13 9d 52 3d 6f 04 22 bd 97 49 37 3e ad c4 48 be
       0.05141933 -0.03955501 0.17899166 -0.19606276
0002f0 0f 74 ed bd 2d b0 2f be f8 d0 20 3e 16 ad f5 3d
       -0.11594402 -0.1715705 0.15704715 0.11995904
000300 c0 5c 0d be 7d 88 92 3d f6 01 9d bc 7c 56 2b be
       -0.13804913 0.07154939 -0.019165974 -0.1673221
000310 eb 8d 43 bd 59 d1 33 3d 23 ab b4 3d 63 04 5a 3c
       -0.047742765 0.04390082 0.08821704 0.01330671
000320 c5 b8 79 bd 6d ef 23 3d 7b 4d 11 3d 26 f5 5c 3c
       -0.060967226 0.040023256 0.03547428 0.013486182
000330 c2 3c 0d be 94 7e aa 3d f7 a2 a6 3d 95 6e f8 bd
       -0.13792709 0.08324924 0.08136552 -0.12130467
000340 b3 05 53 3c 97 f2 31 ba f6 c2 43 3c 1f e9 0a bd
       0.012879777 -0.0006788163 0.011948338 -0.033913728
000350 a9 69 08 3e 74 8f a6 bb 7e 77 98 3d d3 59 40 3d
       0.13321556 -0.005083019 0.07444666 0.046960663
000360 2e 8f c2 3d c5 c1 cd bd 8f f0 86 bd f1 1d c0 bc
       0.094999656 -0.10046724 -0.06588852 -0.023451777
000370 48 60 e8 3d 8a d9 9d bd 0c 69 a0 bc 08 33 b6 3d
       0.11346489 -0.07707508 -0.01958134 0.08896452
000380 d9 e7 0c 3e 62 93 8b bd 40 c8 a3 bd d8 fa 21 bd
       0.13760318 -0.068152204 -0.07997179 -0.039545864
000390 b6 09 8f 3d 96 19 e2 3d 5a e4 65 3e 90 d6 dc 3a
       0.06984274 0.110400364 0.2245039 0.0016848613
0003a0 a7 54 83 3d 72 ac dd bc 2c e4 2f 3e 6c e1 b7 bc
       0.064126305 -0.027059767 0.17176884 -0.022446357
0003b0 72 d5 1c 3d 83 76 af bd e3 67 3a 3c 0a c1 ea 3d
       0.038289495 -0.08567526 0.011377308 0.114626005
0003c0 f3 74 ae 39 bf 36 23 3e 20 54 52 3c 37 fe 9b bd
       0.00033275 0.15938853 0.01283744 -0.07616847
0003d0 c4 4c 23 3d 95 a0 c1 bd 2d b9 38 3d 27 f4 a0 bd
       0.03986813 -0.09454457 0.045098472 -0.07859068
0003e0 98 8c f1 3d 2c 75 ac 3d 6b ff 3c bd c9 82 98 bd
       0.11794394 0.08420786 -0.046142023 -0.0744682
0003f0 5c d7 d8 3c bc 6c 19 be de b6 06 3d 39 cb ba bd
       0.026469879 -0.14982885 0.03288924 -0.09120793

lstm1.bias_hh_l0 f4 [256]
000000 2c a8 c0 bd 72 8e 2b 3d 99 5f f8 3d bb 9c 75 be
       -0.09407076 0.041883893 0.12127609 -0.23985569
000010 3d e4 36 3c d0 15 6f bd 15 a8 f5 bc 30 85 e1 bd
       0.011162815 -0.05837041 -0.029987374 -0.110117316
000020 18 1f d7 3d 7c 7e 20 3e 72 1a 2d bd 15 83 5a 3d
       0.105039775 0.1567325 -0.04226155 0.053347666
000030 57 4f 4a be 00 59 05 bd d1 d1 56 3e 33 51 d6 bd
       -0.19756828 -0.03255558 0.20978476 -0.10464706
000040 50 2d 05 3e 01 4e 3e bb c4 00 37 3e cc 29 33 3c
       0.13005567 -0.0029038193 0.17871386 0.010935258
000050 a7 8f de bc 0c f3 bc bd d3 99 77 3d c7 c3 c6 3d
       -0.027168108 -0.09226045 0.060449433 0.0970531
000060 2c 53 8a 3c 47 5e 49 bd 6e 7b c9 3c 74 69 ce 3d
       0.016885363 -0.049162176 0.024594989 0.10078707
000070 36 16 3d 3e 58 03 4b bd 8a 4f 92 3d 69 0b 80 3d
       0.18465504 -0.049563736 0.07144077 0.06252176
000080 66 91 a4 3c c0 b8 8c bd 76 29 d5 bd 67 8e 0b 3d
       0.020088863 -0.06871176 -0.10408299 0.034071352
000090 18 90 4e bc cb 59 e9 bd 12 71 13 3e 40 12 8f 3d
       -0.012607597 -0.1139408 0.14398602 0.06985903
0000a0 61 cd ec 3d 98 24 b7 bd b5 e9 e6 3c 85 90 8a 3c
       0.115626104 -0.089425266 0.028187612 0.016914615
0000b0 4b 05 08 be 2f 24 6b bd e3 2c 1f 3e c4 4a 1a 3e
       -0.13283269 -0.057407554 0.15544467 0.15067583
0000c0 bc b7 db bd c7 21 c6 bc 00 ac a3 bc 37 1b cd 3b
       -0.10728404 -0.024186028 -0.019979477 0.006259348
0000d0 07 49 81 3e 35 46 57 3d 36 d7 f3 bd 37 24 7b bc
       0.25251028 0.05255719 -0.119062826 -0.0153284585
0000e0 19 da e6 bd 43 b8 2f 3e 05 ec 28 3d 97 fa 3a 3d
       -0.112720676 0.17160134 0.04124071 0.045649137
0000f0 62 c9 8b 3c f8 3b 89 bd ac 5d b6 bc 30 54 48 bd
       0.0170638 -0.06700891 -0.022261463 -0.048908412
000100 b1 94 9b 3d 92 98 cf 3d c1 58 50 3e 05 6d 5f 3d
       0.0759672 0.10136522 0.20346357 0.05454733
000110 e0 c7 9b 3d 45 9a 72 bc 73 25 52 bd bb f9 ea bd
       0.076064825 -0.014807289 -0.051305246 -0.114734136
000120 fe f4 d6 3d 81 92 3c 3e 91 00 e9 bc 56 8e 1a 3e
       0.10495947 0.18415262 -0.028442653 0.1509336
000130 ba 69 74 bd cb c9 d6 3d 01 81 01 be 7e 3a aa 3d
       -0.05967114 0.10487708 -0.12646867 0.08311938
000140 a4 9b 3a 3e a2 a2 e2 bd b2 f1 0f be 01 25 25 3d
       0.18223435 -0.11066176 -0.14057043 0.040318493
000150 49 d0 9f 3d bc 50 cc 3b 11 41 9e 3b 13 01 af ba
       0.07803399 0.00623521 0.004829534 -0.001335176
000160 49 b1 18 3d 9a df 97 3d 52 22 ed 3c 38 00 e2 3d
       0.037278447 0.074156955 0.02894703 0.11035198
000170 49 ee d7 3d 1f 88 06 be 91 60 07 3e 28 0a df 3d
       0.10543496 -0.13137864 0.13220431 0.10890609
000180 b9 01 ec bd dd bd 70 bd 10 9b a8 3d 22 f1 f3 3c
       -0.11523766 -0.058774818 0.08232701 0.029778067
000190 5e 3b 24 3e 83 5c a1 bd 5c 73 77 3d 22 d6 77 3d
       0.16038272 -0.07878973 0.06041275 0.060506947
0001a0 ac 7e fb 3b 74 ed cc 3c 80 a0 7d 3b 8d 06 77 bd
       0.0076750126 0.02501557 0.0038700402 -0.06030898
0001b0 5c 50 ed 3d af d9 91 3d fb 4b 13 3e 52 df 07 bd
       0.11587593 0.07121598 0.14384453 -0.03317196
0001c0 95 0d 56 bd aa a5 52 3e 3c f2 0f be 9c b9 c4 bd
       -0.052259047 0.20571008 -0.14057249 -0.09605715
0001d0 06 b7 b7 3a ee ee 71 bd 4b cd 1a 3c e3 ee 1e 3d
       0.0014016337 -0.05906575 0.00944836 0.03880204
0001e0 7b 67 b0 3d ee 2b e5 ba 6e 4c c3 bd 7c 28 45 3b
       0.08613487 -0.0017484406 -0.09536062 0.0030083945
0001f0 ef bf 56 3d 81 d8 5d 3d b4 0e e5 3c 87 91 5c 3d
       0.052429136 0.054161552 0.027961113 0.053849723
000200 53 e3 e3 3d 28 47 67 bd 7d 57 d5 3d 84 47 0c 3d
       0.11127343 -0.056464344 0.10417078 0.03424789
000210 6e e9 69 be dc e6 ae 3d 1a 90 3a 3e 55 aa 44 3d
       -0.22842953 0.08540127 0.18219033 0.048014004
000220 69 09 f0 bc 00 eb 30 3c 1e c7 cf bc 34 e7 ea 3d
       -0.029301362 0.010798216 -0.025363501 0.1146988
000230 15 a8 11 bc 4e 3f 8e bc 86 f8 53 3c 4c 00 d1 bd
       -0.008890172 -0.01736417 0.012937671 -0.10205135
000240 9b d1 00 be e1 24 24 be ff 4b 0f 3e b4 18 a5 bd
       -0.12579958 -0.16029693 0.13993834 -0.08061352
000250 2e 4f 38 be 9c 53 9f 3c e5 a2 71 3e 64 d3 5c 3c
       -0.17998955 0.019449048 0.23597296 0.013478134
000260 9b 04 a3 bd b0 21 65 bd 85 2b 13 3d f8 23 21 3e
       -0.07959863 -0.05594033 0.035930175 0.15736377
000270 50 1d f4 bd ab e1 19 be 8b e1 44 3e 84 0c 36 bd
       -0.119196534 -0.15027492 0.19226663 -0.04444553
000280 37 44 4b 3d 2e d8 2a be 86 3a 3a 3d 66 c7 35 bc
       0.0496256 -0.16684029 0.04546597 -0.011094904
000290 f3 00 4a 3d 06 18 3e bd b6 5a 64 be f8 3f 9f 3c
       0.04931731 -0.04640963 -0.22300228 0.019439682
0002a0 04 bb 2c be b6 04 d8 bd 8c 3b 67 be b7 7f 71 3e
       -0.16868216 -0.105477735 -0.22581309 0.23583876
0002b0 35 fc f1 3c ba 5d 1c 3d 43 a6 2e be 40 74 39 bc
       0.029539207 0.038175322 -0.17055611 -0.01131922
0002c0 85 28 15 be af 4f e5 bd 4f a4 24 be 58 90 11 3e
       -0.14566238 -0.11196839 -0.16078304 0.14215219
0002d0 93 6d 4d be 2b b5 f6 3c 42 9c ba bd 59 ec f9 3c
       -0.2006133 0.030115684 -0.09111835 0.030508207
0002e0 7a dc ce 3d 8a 4c 37 be 2b 5a 99 3d e1 f4 bf bd
       0.10100646 -0.17900291 0.07487901 -0.09372879
0002f0 e7 1d 98 bc 66 91 a5 39 af 32 19 bc e4 08 3f bd
       -0.018568946 0.00031579583 -0.009350463 -0.046639338
000300 f8 49 39 be 70 4c 9f bc 12 97 14 3e da 4e a6 bd
       -0.18094623 -0.019445628 0.14510754 -0.081205085
000310 c6 4d 15 3d e4 ab 8a bd 1d f0 9c 3d 19 ef 33 bd
       0.036451124 -0.06771067 0.076629855 -0.043929193
000320 b9 10 36 3d 34 d6 72 3d b9 b5 a1 3c df f6 e3 bc
       0.04444954 0.05928631 0.019739972 -0.027827678
000330 b5 9c 34 bd c8 fe 64 bd 48 6c 06 3d 18 d0 6f 3b
       -0.04409476 -0.05590704 0.03281811 0.003659254
000340 07 25 8b bd 28 b8 cf bc 01 4a 3f 3d a0 e4 f9 3d
       -0.06794172 -0.025356367 0.046701435 0.1220181
000350 58 60 ef 3c 73 69 1c 3c 16 58 29 3d 8e 41 9e bc
       0.029220745 0.009546625 0.04134377 -0.019318368
000360 e8 2c d8 3d 17 1d 47 3d ce 05 a9 3d c5 09 d5 3d
       0.1055544 0.048611727 0.0825306 0.10402254
000370 0c 80 5c 3a b3 53 3a bd 9e 8f 5d bd 8c d0 f2 3c
       0.00084114145 -0.045489978 -0.054092042 0.029640459
000380 94 1d 4a bd c6 0e 8a bd 54 8e c1 bd 7a 8a bd 3d
       -0.049344614 -0.06741099 -0.09450975 0.09254928
000390 2c 17 81 3b fa 18 fa 3c f4 0d 88 3e 78 67 6f 3d
       0.00393953 0.030529488 0.26573145 0.058448285
0003a0 69 a7 91 3d 9b 1f bd 3d 53 ef 1f 3d 55 9f 5e bd
       0.07112009 0.09234544 0.039046597 -0.05435117
0003b0 3e bf 95 3d 15 af f3 bd c7 98 c6 3d c1 01 57 bd
       0.07311867 -0.118986286 0.09697109 -0.052491907
0003c0 47 37 1b 3c e2 79 a6 bd a6 40 8c 3d 97 3e 94 bd
       0.009473628 -0.08128716 0.06848268 -0.072385006
0003d0 07 1d 87 3c 5f f4 a5 3d e1 90 4d 3b f9 db 4e bc
       0.016493334 0.08103251 0.0031366872 -0.012625688
0003e0 d4 21 3a bd 46 d3 eb 3d 01 3a 7d 3d bc 15 3c 3d
       -0.045442417 0.115149066 0.061822895 0.045919165
0003f0 97 0b 9c 3d 67 c2 b1 3c a8 2f ea 3d 7a db 0e 3e
       0.07619398 0.021699144 0.11434871 0.13950911

lstm2.weight_ih_l0 f4 [256, 64]
000000 b3 e5 5a bc 5d de 0b bb 03 4d cc 3d 19 7d 0c be
       -0.013360429 -0.0021342256 0.09975626 -0.13719596
000010 29 99 62 bd 87 6e 3d 3e 05 2e 08 be 13 a9 b4 3d
       -0.055321846 0.18499194 -0.13298805 0.08821311
000020 a3 3a 04 bd 89 5e 85 be 3d b8 8d bd 27 e5 44 3e
       -0.032282483 -0.26048687 -0.06919906 0.1922804
000030 6f e7 52 be ef fe a7 bd 01 c2 da bd a7 ac f0 bd
       -0.20596097 -0.082029216 -0.106815346 -0.11751681
000040 de ae a9 bd 02 e7 1b bd 8a 1b a6 3d e5 64 6f bd
       -0.082853064 -0.038062103 0.081107214 -0.05844583
000050 73 e2 18 bd ca 97 a7 3d 60 e3 87 3d 00 90 7c 3d
       -0.037325334 0.08183248 0.06635165 0.061660767
000060 88 c8 0c be df 84 12 be 32 b1 7d 3b 4f 23 43 3e
       -0.13748372 -0.14308499 0.0038710353 0.19056438
000070 07 5f fd bc 8e aa 20 bd 5d e7 19 3e 4d ae 4e bc
       -0.030929102 -0.039225154 0.15029664 -0.012614799
000080 8e 74 99 3d 0f 55 96 bd 99 02 94 3d ab 37 02 3d
       0.07492934 -0.073404424 0.07227058 0.03179137
000090 7d a7 69 3c ba 76 93 bd d3 1d c8 bd 1b c2 94 3d
       0.014261124 -0.0720038 -0.097713135 0.07263585
0000a0 73 19 63 bd 06 e1 39 3e 85 35 ef bd 67 fd 18 3e
       -0.055444192 0.18152246 -0.1168013 0.14940415
0000b0 a0 33 73 3c 16 6c a4 3d 4f 03 17 bc 72 63 7e 3e
       0.014843851 0.08028428 -0.009217097 0.24842623
0000c0 04 7c 1a be be e2 07 be cc ea 0b bc 34 d3 ea bd
       -0.1508637 -0.13270089 -0.008539867 -0.11466065
0000d0 ee e7 30 be ec a8 29 3d 45 57 26 3c da e8 16 3e
       -0.17275974 0.041420862 0.010152643 0.14737263
0000e0 c1 34 79 3d 48 e7 41 be c7 3c af 3d 81 8a 48 be
       0.060841326 -0.18935883 0.08556514 -0.19584085
0000f0 86 56 c0 bc d1 6a ef bd 9a d6 89 3d 5e e7 49 3e
       -0.023478758 -0.116902955 0.06730385 0.19717166
000100 04 6c d8 bd 19 fe fc bd f4 55 0a bd 12 86 0f 3e
       -0.10567477 -0.12353153 -0.033773378 0.14015988
000110 97 21 93 bd e2 6d 13 3c 94 1a 2b 3e 82 73 0c be
       -0.07184141 0.008998366 0.16709358 -0.13715938
000120 58 33 b0 bd 55 07 97 be e7 af 7b be 57 dd d3 3d
       -0.08603543 -0.2949778 -0.2457882 0.103449516
000130 50 b6 fb bd 40 9a ee bd 90 82 ae 3d ff 89 3f bd
       -0.12290633 -0.116505146 0.085209966 -0.046762463
000140 48 1b 0d 3e 66 0e bc 3d 8d 4f db 3c 60 28 3c 3e
       0.13779938 0.09182434 0.026771331 0.18374777
000150 5b d3 f1 3c a3 83 b7 bd c1 4f 85 3e 07 5b 5e 3e
       0.029519727 -0.089606546 0.2603741 0.21714412
000160 de 83 ed 3d cb a5 c8 bd 48 d6 05 3e a0 b9 ab bb
       0.11597417 -0.097972475 0.13070023 -0.005240634
000170 67 f7 ff 3d 27 5f 12 bc ae 24 2d 3d da fd 01 be
       0.1249836 -0.008933819 0.04227131 -0.12694493
000180 fc 9d 5a bc 5c 9c d5 bd 1f f3 71 3b 32 52 f4 3d
       -0.0133433305 -0.10430214 0.0036918593 0.1192974
000190 fc f6 8b bc 65 2d c4 3d c4 ec 21 bd f9 4d e0 bd
       -0.017085545 0.09578971 -0.039532438 -0.10952372
0001a0 58 09 9f 3d 1d 41 a3 bd 64 80 46 3d a2 ff 18 3e
       0.07765454 -0.07971404 0.048462287 0.14941266
0001b0 d4 31 f6 3d b8 38 9c 3d 52 c8 e8 3c 54 67 1b 3e
       0.12021223 0.07628006 0.028415833 0.15176135
0001c0 2a 98 17 3e 48 51 89 3d 3f 68 27 3d 36 e3 45 bd
       0.1480414 0.06704956 0.0408709 -0.04831239
0001d0 0b 02 bc 3d d2 2b 3d be 89 c8 7d bd 46 ce a9 3d
       0.09180077 -0.18473747 -0.061958823 0.08291297
0001e0 0f 90 55 bc fb 8d 2b 3e 5a b4 97 3b cf 3b 8c bd
       -0.0130348345 0.1675338 0.004629654 -0.06847345
0001f0 76 9c fd bd 26 3d 37 3e f3 3e 72 3d d9 05 f4 3e
       -0.12383358 0.1789442 0.059142064 0.4766071
000200 f2 70 91 3c 59 72 03 3e ba e8 09 3b 9a d5 68 3e
       0.017754052 0.12836589 0.0021043257 0.22737733
000210 55 93 d2 3d d3 ac 61 3d 9c ed ef 3d aa e9 05 3d
       0.102820076 0.05509646 0.11715242 0.032693543
000220 ad 0b ab bd 1b 20 3e bd 65 36 f6 bd 4c db 87 3d
       -0.08351836 -0.046417337 -0.12022094 0.066336244
000230 01 51 b3 bc ae eb 36 bd 7c 99 af bc a5 54 74 bd
       -0.021889212 -0.044658355 -0.021435492 -0.059651036
000240 ea 42 ae bd ce 65 50 bd 8c 44 37 ba f2 14 e0 bd
       -0.085088566 -0.05087834 -0.000699111 -0.10941495
000250 06 99 af bc 37 37 05 3d 68 3d 2f bd be b1 2b bd
       -0.021435272 0.03252336 -0.04278317 -0.041917555
000260 7c 50 9d 3d 70 2d 13 bd 02 9b 06 3e 54 5b fd bd
       0.07681367 -0.035932004 0.13145068 -0.12370935
000270 89 91 88 bb 48 2c f9 3d c2 ce 92 bc f3 b8 5e 3c
       -0.00416774 0.12166649 -0.017920855 0.0135939
000280 c6 94 33 be 8f fd 4a be da 08 aa bd 5a d1 a8 bc
       -0.17537221 -0.19823287 -0.083024696 -0.02060764
000290 a8 7f a2 bd e0 c7 e9 3d 0c b1 33 3e 7f c6 c8 bd
       -0.07934505 0.11415076 0.17548007 -0.09803485
0002a0 f6 a9 85 3d 97 88 03 bc d0 95 29 3d 4e 88 05 3d
       0.06526558 -0.008028171 0.041402638 0.032600693
0002b0 e9 24 c2 3d c2 53 6d bc 2b fd 8d bc 81 7a a2 3d
       0.09479696 -0.014485301 -0.017332634 0.07933522
0002c0 62 e8 2c 3e e4 bd 0d be 08 65 95 bd 5f 7b db 3a
       0.16885522 -0.13841969 -0.07294661 0.0016745141
0002d0 bb 2a 42 3c 57 58 ca 3b fa 26 3f be a6 3d ad bd
       0.011851008 0.0061750817 -0.18667212 -0.08459024
0002e0 97 14 ab 3c 8a 66 4e bd 8a fd d5 bd 37 1a 35 3d
       0.020883841 -0.050390758 -0.10448749 0.044214454
0002f0 8e 06 65 3c ae f0 80 bd 29 d6 1d be a1 b2 0e 3d
       0.013978614 -0.06295906 -0.15413727 0.034838323
000300 e7 bd 81 3d 0e 5a 08 be 5b c5 e8 bd d3 38 bf 3d
       0.06335049 -0.13315603 -0.113657676 0.0933701
000310 e0 d2 ba bc 93 bd cc bc 35 d9 d3 3d a4 35 32 be
       -0.022805631 -0.02499274 0.10344163 -0.17403275
000320 b6 2e 5d bd 32 a7 19 be a9 01 b0 3d 59 b7 0b be
       -0.053999625 -0.15005186 0.08594067 -0.1364416
000330 4a df f9 3d 0e 2e 86 bb 12 06 22 3e eb 1a 5f bd
       0.12200792 -0.0040948456 0.15822628 -0.05446903
000340 6f f0 1f 3e fb 2c 66 3e c6 93 e2 bd d7 f8 0c 3e
       0.15619062 0.22478096 -0.11063342 0.137668
000350 04 69 19 3e 97 c5 d9 3a a1 fe 53 3e 22 24 2f 3e
       0.14981467 0.0016614672 0.20702602 0.17103627
000360 fb 64 5e 3c 7c c5 51 3d bc 58 3f 3d 5b ff be 3c
       0.01357388 0.051213726 0.046715483 0.023315122
000370 e1 ab 19 3d c8 27 3a 3e 31 55 88 3d be 40 7a 3d
       0.037517432 0.18179238 0.06656874 0.0610969
000380 76 03 8b bd 94 85 2f be 32 fb 57 be bb 2e ab bd
       -0.067877695 -0.171408 -0.21091917 -0.083585225
000390 74 0d aa 3c 85 3a 69 3d 32 66 87 3d 45 ab 0a 3e
       0.020758368 0.056940574 0.06611289 0.13541897
0003a0 d1 2b 50 bc d1 33 28 be 90 c4 de 3d b0 e5 07 be
       -0.012705759 -0.16426016 0.10877335 -0.13271213
0003b0 03 ac 3f 3e e8 02 e9 bd cd d3 a1 3d cc 0b a1 3d
       0.18717961 -0.113775074 0.07901726 0.07863578
0003c0 4c e8 62 3c 0e 7e 0c bd c1 57 bb 3d 2d f5 c8 3b
       0.013849329 -0.034299903 0.09147597 0.006132743
0003d0 1d 08 1a 3d 36 f8 60 bd b6 ea 56 be a6 c1 7e bd
       0.037605394 -0.054924212 -0.20987973 -0.062196396
0003e0 a6 94 1c bd 0d 2d 48 3e 63 57 cc bd f6 8a fd bd
       -0.0382277 0.19548436 -0.09977605 -0.1238002
0003f0 69 16 f9 bd ec 39 df 3c d0 85 fe bd 79 04 cf 3d
       -0.121624775 0.027249299 -0.124278665 0.10108275

lstm2.weight_hh_l0 f4 [256, 64]
000000 44 91 3a be 30 ea f3 bd c3 c5 79 bd 54 63 8e 3d
       -0.18219477 -0.11909902 -0.060979616 0.06952539
000010 a4 f4 11 bd 78 e8 8b bd 56 c5 ac bd 3a 40 10 3e
       -0.035633698 -0.06831449 -0.08436076 0.14087
000020 d4 38 27 bd 82 e1 eb bd 0f d5 16 bd 2e 4a 87 3d
       -0.04082568 -0.115176216 -0.036824282 0.066059455
000030 92 14 10 3d d8 df e8 3d 4d 64 27 3d c1 59 51 bd
       0.035175867 0.1137082 0.04086714 -0.051110987
000040 f1 39 12 be 23 a0 4c 3d f7 9f e0 3d c0 20 4d bd
       -0.14279915 0.049957406 0.10968011 -0.05008006
000050 93 38 16 3e 35 17 fc b9 93 62 43 bd 26 c7 ce 3d
       0.14670019 -0.00048082476 -0.04770143 0.10096578
000060 1c 60 c2 3c aa 83 0d bd cc bb 09 be 50 d9 47 bd
       0.02372747 -0.034549393 -0.13450545 -0.04879123
000070 71 d1 57 3d 29 04 db 3d c8 a4 2b 3e a7 93 23 3b
       0.052689973 0.10694153 0.16762078 0.0024959834
000080 12 4c 4b be f7 02 86 bc 32 4c a7 bd b8 ff 85 ba
       -0.19853237 -0.016358836 -0.0816883 -0.0010223305
000090 f6 a5 76 3d 9e 50 84 3c 5b e9 5e bd 49 e6 fb bd
       0.060216866 0.016151723 -0.054421764 -0.12299783
0000a0 d6 fb dd bb 14 07 9d bd fb c7 cb bd 94 a2 74 3d
       -0.006774406 -0.07667366 -0.099502526 0.05972536
0000b0 a1 44 c3 3d 3c 82 2d 3d 72 dd ce 3d 37 3e ca 3d
       0.09534574 0.04236053 0.10100831 0.09875148
0000c0 d0 51 bd bd 6c fc 55 3d 21 0e 2a 3d 74 7a 54 3e
       -0.0924412 0.05224268 0.04151738 0.20749837
0000d0 d9 0b 05 3e 64 e2 4c be 58 5a 48 3d bd 17 95 3d
       0.12992801 -0.20008236 0.048914284 0.07279918
0000e0 12 a5 47 3d 32 d9 17 3e ae 6e 1c be 43 13 d5 3d
       0.048741408 0.14828947 -0.15276596 0.104040645
0000f0 fe 45 ca bd 78 8d 54 bd 93 16 f9 bd 55 89 30 3d
       -0.09876631 -0.051892728 -0.12162509 0.04309972
000100 a8 e5 44 3e 6b 3d 07 3e 3e 96 52 bd f8 72 73 3d
       0.19228232 0.13207023 -0.051412813 0.059435815
000110 2d b3 ff 3d f9 2a 3e be 75 f9 cc 3d 36 c7 08 bd
       0.12485347 -0.1857108 0.10008518 -0.033393107
000120 3b bc c5 bd c7 8a 8e bc f4 8f 5b 3e 80 20 86 be
       -0.09655043 -0.017400159 0.21441633 -0.2619667
000130 29 bb d3 3d f8 6c 37 bc 62 79 a5 3b 67 bd da bc
       0.10338432 -0.011195414 0.0050498703 -0.026701642
000140 23 6f 54 3d 53 57 64 be 75 11 69 3d 62 4c 5f be
       0.0518638 -0.22298937 0.056901414 -0.21806481
000150 b2 97 3c 3e 5a ec 1d ba 79 1e 2e 3e f4 ca 20 bd
       0.18417242 -0.0006024294 0.17003812 -0.03925605
000160 f9 63 48 3c 0c 33 b8 bd 75 f2 b6 3d 58 13 76 3d
       0.012230867 -0.089941114 0.08932964 0.06007704
000170 2e 01 1e be fc aa d6 3d 6a 56 fc 3d 02 ce fa bd
       -0.15430138 0.104818314 0.1232117 -0.12246324
000180 a0 af f8 3b e2 b6 36 be bc 3f 2b 3c 3a 31 e6 3c
       0.0075892955 -0.17843202 0.010452207 0.028099645
000190 b2 6a 78 bc ef 44 75 bd 37 a6 38 be 58 6c b7 3c
       -0.015162157 -0.059880193 -0.18032156 0.02239053
0001a0 08 ba 57 bd 04 80 bc 3d b4 7c 4e be 30 24 a4 3d
       -0.052667648 0.092041045 -0.20164758 0.08014715
0001b0 d0 78 95 3d 1e 54 ef bc 7e 24 9f bd 30 13 70 3e
       0.07298434 -0.029214915 -0.07770632 0.2344482
0001c0 fd 5d 3d bc 25 5c 54 bd 40 ce c5 bd 63 ec bf bd
       -0.011558053 -0.05184569 -0.0965848 -0.09371259
0001d0 8c 80 25 3e 14 86 bb bd 84 95 ca 3d 08 a0 f4 bd
       0.16162318 -0.09156433 0.09891799 -0.11944586
0001e0 1c 52 d7 3b 8f 42 8e 3d f1 19 37 be f7 f6 1a bd
       0.0065710675 0.06946289 -0.1788099 -0.03783318
0001f0 29 18 c7 bd 45 00 40 3d 4f 65 be bd 77 04 98 3c
       -0.09721405 0.046875257 -0.09296667 0.018556817
000200 60 31 90 3d ea ad 8f 3d ce cb c5 3d f4 7e c0 bb
       0.070406675 0.07015593 0.09658013 -0.005874509
000210 74 c5 10 3e 26 b4 d9 bd a7 56 2e bb c4 26 87 3d
       0.14137822 -0.10630064 -0.0026601942 0.06599191
000220 47 22 be bc 54 b5 bc bc 6f 6f 9a bd 17 88 07 be
       -0.023209704 -0.023035683 -0.075407855 -0.13235508
000230 8e 37 85 3d e3 7f ed bd 33 56 b4 bc 6e 87 42 3d
       0.06504737 -0.11596658 -0.02201376 0.047492437
000240 56 46 f8 3c 1b ff 06 be 06 9e 5f bd 13 5d a5 3d
       0.030306976 -0.13183253 -0.054594062 0.08074393
000250 f6 da 28 bc ec 92 1f 3e f4 ef 78 bd 0f 10 63 bd
       -0.010306111 0.1558339 -0.060775712 -0.055435237
000260 9d 97 83 3d ed 69 af 3d 89 82 29 be 63 7f f2 3c
       0.06425402 0.085651256 -0.16553701 0.029601758
000270 56 ff 1b bc 33 ef 83 bb 81 4f 2b bd 9a 47 07 3d
       -0.009521326 -0.0040263175 -0.041823868 0.03302727
000280 43 3a 05 3e e4 21 56 3d 15 9b ec bd e1 a7 6c bd
       0.13010506 0.052278414 -0.11553017 -0.05777729
000290 67 b1 28 bd 39 60 f8 bd ec 41 2e 3d 5d 2c 9f bd
       -0.04118481 -0.12127728 0.042543337 -0.077721335
0002a0 99 81 ea bc 28 2d 3e 3c 69 83 5a be 6b ce a4 3d
       -0.02862625 0.011607446 -0.21339191 0.080471836
0002b0 d4 83 78 3d 3f a2 1b be 8b 28 62 3d 93 0a 00 3d
       0.060672596 -0.1519861 0.055214446 0.031260084
0002c0 3e ab 70 3c 47 1a da bd cc 6d 19 3e a5 b6 7d bd
       0.014689265 -0.10649543 0.1498329 -0.06194176
0002d0 96 29 9b bc ce a9 3e 3e 11 aa 05 3e 8d ca 2c 3e
       -0.018940728 0.18619463 0.13053156 0.16874142
0002e0 c7 b7 bd bd db 6a 08 3e 88 5d b2 3d 21 90 8f bd
       -0.09263568 0.13322012 0.08709246 -0.07009912
0002f0 2a 20 ae 3d 93 ed 80 3d e5 4f f9 3c e6 f2 54 3d
       0.085022286 0.06295314 0.030433604 0.05198946
000300 e4 25 1f 3e 07 85 4e 3e 61 42 2c bc ec 5f 4d 3e
       0.15541798 0.20167933 -0.010513873 0.20056123
000310 a5 39 ee 3d 60 8b 49 bb 93 cf c1 bc 9b d9 96 3d
       0.116320886 -0.003075324 -0.02365855 0.07365724
000320 86 1d 50 bd d4 a9 5b bc e3 81 7d bb 5b c6 c3 bc
       -0.050809406 -0.013407189 -0.0038682155 -0.023898294
000330 61 0b 56 3e 58 3f 74 3e a0 19 15 bc 56 9f c1 bd
       0.20902778 0.23852289 -0.009100348 -0.09454219
000340 7f df 04 3c 5d 1c bb 3d 06 bd 42 3e 49 d5 56 be
       0.008109926 0.09136269 0.19017419 -0.209798
000350 20 31 65 3e 03 4c 60 bd 3a 65 07 3e 1a 0b 76 3e
       0.22382021 -0.05475999 0.13222209 0.24027672
000360 03 94 0d be d0 c3 15 bd 0a 67 07 3e 67 57 62 bd
       -0.13825993 -0.036563694 0.132229 -0.055259135
000370 1e 52 cd bb ba 8b d9 bd a4 2e 0c bd 1f 77 8e 3d
       -0.0062658926 -0.10622354 -0.034224167 0.06956314
000380 d7 18 5e be 61 0e 8b 3d c2 93 3b 3d 00 92 2d be
       -0.21689163 0.06789852 0.04579521 -0.16950226
000390 30 f0 3c 3d 93 eb 20 bb e4 16 e6 bd c0 72 fd 3d
       0.0461275 -0.0024554476 -0.11234835 0.123754025
0003a0 16 2e 42 bd bf 3f c6 3d 96 60 54 be 8c 46 2d 3e
       -0.047407232 0.09680127 -0.2073997 0.16921443
0003b0 bb da 8b 3c 5c 06 a8 3d 5b ab 19 3c a2 11 79 3e
       0.017072072 0.08204338 0.009379233 0.24323133
0003c0 f6 1f 55 3d c8 be d4 3d 8b b9 19 be 5b 54 5b be
       0.052032433 0.10387951 -0.15012185 -0.21418898
0003d0 60 68 c1 bd ef ae c1 3c 97 8c 31 bc f7 de b3 bd
       -0.09443736 0.023642985 -0.010836742 -0.087827615
0003e0 ed f3 df 3c 65 59 1a 3e 38 a8 5f bb ef af 82 bd
       0.027337993 0.15073164 -0.0034127366 -0.06381213
0003f0 10 05 dd 3d 02 f9 1f 3e aa 8f 4d be 06 ec cb 3c
       0.10791981 0.15622333 -0.20074335 0.024892818

lstm2.bias_ih_l0 f4 [256]
000000 4e 19 54 bd 83 f9 ac 3d 22 0b 16 3e 4d 99 4c 3d
       -0.051781945 0.08446028 0.14652684 0.049950887
000010 a2 20 ac 3c 0a 60 09 bb 89 0d 37 bc e3 e6 9f bd
       0.021011654 -0.0020961785 -0.011172661 -0.0780771
000020 02 fd 98 3e fd 64 29 3e 77 3a e5 bd 96 bd 25 38
       0.2988053 0.1654243 -0.11192792 3.951563e-05
000030 26 af 51 3b ba 17 3c bd f7 7d 0a 3d 07 fb a2 3d
       0.0031995266 -0.045921065 0.033811536 0.07958036
000040 01 b1 1e 3e 4b 4c 02 be b6 30 c1 3d 5c ba 3d 3e
       0.15497209 -0.12724416 0.09433119 0.18528122
000050 70 a5 2c 3d 27 d1 e9 3d d8 18 69 3d 3d 1e 87 bd
       0.04214996 0.11416846 0.05690846 -0.06597564
000060 cc 84 1e 3e 49 dd 39 3e 3c f7 1e 3e ab 45 25 3e
       0.15480345 0.1815082 0.15524 0.16139857
000070 76 7c aa bc d8 4e 47 3e ac e4 2e be 1f b4 99 3a
       -0.0208113 0.1946367 -0.17079419 0.0011726654
000080 24 3a f6 3d 7d c4 7e 3b 57 e5 24 3b 6a 97 c6 3d
       0.12022808 0.003887444 0.0025161111 0.09696849
000090 42 33 89 3d ac 35 c9 3d d8 cf 2d 3e 41 8a 9d 3d
       0.0669923 0.0982469 0.16973817 0.076923855
0000a0 c0 b4 26 3c c5 83 ab bd b9 d1 12 bd 88 7e c5 bd
       0.01017493 -0.083747424 -0.03584454 -0.096432745
0000b0 88 3c 87 3d b3 21 b2 bd 40 e7 0f 3d 4b b7 96 bd
       0.06603342 -0.08697834 0.035132647 -0.07359179
0000c0 dc e6 c2 3d 5a 53 ac bd 8e 2c 98 bd 19 e1 cb 3d
       0.09516689 -0.084143355 -0.07430373 0.09955043
0000d0 86 74 59 3e 15 7e 04 3e 73 96 e3 3d 6e 35 ad 3d
       0.21235856 0.12938721 0.1111268 0.084574565
0000e0 78 98 46 3d ca 75 4b 3e 13 26 06 bd db e6 8e 3d
       0.04848525 0.19869152 -0.032751154 0.06977626
0000f0 91 18 42 3e 0a bc f3 3d b1 b0 96 bd cb 1f 90 3d
       0.18954684 0.119011 -0.0735792 0.07037314
000100 aa e0 9c 3e ea 2e 3c bd 40 1e 95 3e ff b0 a5 bd
       0.30640155 -0.04594318 0.2912464 -0.080904
000110 42 4b 66 bc 92 39 a1 bd e7 3b a6 3c 7b ae 9c 3d
       -0.014056029 -0.07872309 0.020292236 0.07650467
000120 7f c1 28 be 96 c9 bc 3c 1a 20 b0 3d 0c 65 20 3e
       -0.16480063 0.023045342 0.08599873 0.15663546
000130 c2 6f 0a 3e a2 7a 0e 3c ab 7b 4b bd 3f 37 94 3e
       0.13519195 0.00869623 -0.049678486 0.289484
000140 e7 3d d0 3d 03 1f 88 3d 70 bb 80 3e 40 f2 0a 3e
       0.10168057 0.0664654 0.25143003 0.13568974
000150 d9 53 4d 3e fd e2 92 3d 53 b3 00 bd 55 e9 84 38
       0.20051517 0.07172201 -0.031421017 6.337712e-05
000160 52 46 8a 3e ad f4 de 3d 4e 31 47 bd 1c 8d 9b 3d
       0.27006775 0.10886512 -0.048631005 0.07595274
000170 29 6b 74 3e e2 c9 8d 3e 56 eb 04 3e 7d 8e 95 3e
       0.23869003 0.27693087 0.12980399 0.29210272
000180 29 27 66 3e 9f 0a 22 bd b8 9b 05 3c b0 e1 9b 3d
       0.22475876 -0.03956091 0.008154802 0.07611406
000190 4e ea 5d bd 0d 15 44 3e 5a 53 f8 3c 24 bf 37 3d
       -0.05417853 0.19148655 0.030313183 0.04486002
0001a0 38 26 c4 ba ac 30 df 3d 6d dc 05 3e 9a 9a 25 3e
       -0.0014965003 0.10897955 0.13072367 0.16172257
0001b0 74 69 4d be 45 f6 da bd bf 79 ad bd 69 72 6a 3e
       -0.20059758 -0.106915034 -0.08470487 0.22895207
0001c0 e5 12 45 3e 3c 66 96 bd 1c 51 db bb 50 ec d9 3c
       0.19245489 -0.073437184 -0.0066930186 0.02660194
0001d0 9a 42 46 3e d5 00 1f 3e 4a 49 01 3e f3 bb 98 3d
       0.19361344 0.15527661 0.12625614 0.074577235
0001e0 3d 2a e9 3c b8 77 52 bd 48 c9 ea 3d 8b af a7 bd
       0.028462524 -0.051383704 0.114641726 -0.08187779
0001f0 5d 47 11 bd c2 cd 6d 3e a0 55 e5 bb 17 96 fa 3d
       -0.035468448 0.23223022 -0.0069987327 0.122356586
000200 38 9b 8b bd 33 c3 1b 3d 43 c1 ac 3c 59 c5 ea bd
       -0.06816715 0.038027953 0.021088248 -0.11463422
000210 a1 9b 79 3d 78 4e bb bd b4 04 61 3a d7 68 2f bd
       0.060939435 -0.09145826 0.00085837697 -0.042824592
000220 19 24 7d 3d 42 10 d0 bc 95 93 ef 3c 6e a2 cb bd
       0.061802004 -0.025398377 0.029245177 -0.099430904
000230 90 c4 50 3d 1f 47 b4 bd 4f a6 b0 3d 89 7b 8e ba
       0.050968707 -0.08802628 0.08625471 -0.0010870557
000240 75 ec 85 bd d5 26 cd bd ed 4d f3 bd ab e8 f5 bd
       -0.06539241 -0.10017172 -0.118800975 -0.120072685
000250 54 cb b1 3d bc 0a 65 bc 92 a2 b8 3d 71 5a db 3d
       0.0868136 -0.01397961 0.09015383 0.1071061
000260 c6 d9 ce 3d 91 b4 c2 3d 33 d4 4d bd 3c b3 a7 bb
       0.10100131 0.095070966 -0.050251197 -0.005117802
000270 75 a1 df bd 56 ef 7b bd 9e 1c 14 3d e0 64 e4 bd
       -0.10919467 -0.061507545 0.036160104 -0.11152053
000280 c2 de 23 be 69 1b 25 be 82 a2 0d bd af 00 f7 bc
       -0.16002944 -0.16123737 -0.034578808 -0.030151693
000290 50 e7 fc bd 89 19 8b bd 9a 7b c8 bd 2f 50 e5 3b
       -0.12348807 -0.0679198 -0.097892 0.006998084
0002a0 3e b5 8f ba 41 d1 9f bc 18 89 31 bd f9 e4 9a bd
       -0.0010964049 -0.01950896 -0.043343633 -0.07563204
0002b0 13 3e e7 3d 62 46 83 3d ac bf 4d 3d 46 93 e4 bd
       0.112911366 0.06409909 0.05023162 -0.11160903
0002c0 ef e1 14 3e ae fb 9c bd 9d 1b a0 bd b9 d2 45 3d
       0.14539312 -0.076651916 -0.07817767 0.048296664
0002d0 f1 a4 b9 bd 6e 5b 99 bd 26 9a 20 bd 5a f6 73 3c
       -0.09064663 -0.07488142 -0.039209507 0.014890278
0002e0 52 10 38 3d 1b 0f f2 38 b5 43 97 3d ff fd d8 bb
       0.04493744 0.00011542273 0.07385961 -0.0066220756
0002f0 f0 62 f0 bd 29 d9 b2 3d e9 4f e7 bb ec 1d 1d 3d
       -0.11737621 0.08732826 -0.0070590866 0.038358614
000300 f9 f5 5f 3d 91 b4 7c 3e b8 39 17 bd da eb 62 3d
       0.054677937 0.24678256 -0.03692028 0.055400707
000310 b4 1f be bd 92 1d 5a 3d c6 65 b2 3b 4a 5a 01 3e
       -0.09283391 0.053250857 0.0054442612 0.12632099
000320 fe fc 20 3e aa 0b 7f 3e ce 0f 94 bc 07 72 15 bd
       0.15721509 0.24906793 -0.018073943 -0.036485698
000330 d0 43 ae 3b f6 a9 d9 bd 4f b2 e2 3d c7 c1 f7 3c
       0.0053181425 -0.106281206 0.11069166 0.030243767
000340 61 85 4d 3d 7b f9 92 3d 43 0e 14 3d a9 b2 c1 3d
       0.05017603 0.07176491 0.036146414 0.09457905
000350 e2 c7 41 3d 07 02 a5 3d 9a f4 1a 3e 54 bd db 3c
       0.047309764 0.08057027 0.1513237 0.026823677
000360 f6 38 1a bd 12 7e 87 3d 8d 06 11 3e e8 78 7e 3e
       -0.03765198 0.06615843 0.14162655 0.2485081
000370 15 66 bb 3d b3 ba 1d 3e 65 3a 80 bd e1 2a ae 3d
       0.0915033 0.15403251 -0.06261138 0.08504272
000380 d2 57 a3 3e 9f a0 ab 3c d8 8d 89 3d e0 1b bd 3d
       0.3190294 0.020950614 0.06716508 0.09233832
000390 4e 28 22 3c db 98 aa 3d 76 9d fe 3d b9 d0 6c 3e
       0.009897305 0.08329936 0.12432377 0.23126496
0003a0 df 06 b2 3d 8e 67 36 bd 81 51 2f 3e 00 1f 34 bd
       0.08692717 -0.04453235 0.17120935 -0.043974876
0003b0 41 f7 19 3e 2e 7b df 3d 46 ff 42 3d 7f cc 95 3d
       0.15035726 0.109121665 0.04760673 0.07314395
0003c0 1b de 85 3d 8f ad ec 3b 0c 89 d7 3d fe e2 08 bc
       0.06536504 0.0072228382 0.105241865 -0.0083549
0003d0 dc ea ea 3d cb 3b fc 3d 8b 4b f7 3d 72 d5 0b bd
       0.11470577 0.12316092 0.120749556 -0.034139104
0003e0 07 27 94 3d 9f c6 39 3e 30 bf e5 3d 1f f2 23 3e
       0.072340064 0.18142174 0.11218107 0.1601033
0003f0 56 1f 79 3d f5 4e 84 3d 45 f0 9e 3d 46 64 15 bd
       0.0608209 0.06460372 0.077606715 -0.03647258
