saved_model/DAP_Model_Load.pt (torch, 231010 bytes, 12 tensors)

lstm1.weight_ih_l0 f4 [256, 3]
-0.13782863 -0.21251287 -0.0002235147 -0.09785517 0.006884075 -0.13930705 -0.2443373 0.04988538
-0.18638761 0.022247212 -0.1472072 0.16263303 0.085406296 0.027907632 -0.15562811 0.0030716988
0.057608843 0.092338994 -0.014914445 0.06862218 0.027262595 0.10807321 0.20025867 -0.10342399
0.067480646 -0.028040797 -0.055262998 0.0968066 -0.06400316 0.033030596 0.16836056 -0.03464597
-0.10915432 0.0477123 -0.058932304 0.14847234 -0.07301671 0.1934341 0.23457469 0.031011524
-0.00834152 0.016972201 0.029934818 -0.04976564 -0.018324882 0.021159496 -0.13537788 0.13479239
-0.017173287 0.1099456 0.026134234 -0.044362176 0.13400228 0.036879893 0.13149448 -0.056703005
-0.099456094 -0.08014391 -0.1715816 -0.13769136 -0.058342315 -0.1401217 -0.057814978 -0.017580071
0.031527296 0.06629546 0.14648005 0.01395462 -0.11378202 0.08254016 -0.010036918 -0.13294256
-0.026039375 -0.13396734 0.076351576 -0.057145335 -0.03494623 0.060784552 0.050668303 0.0068363426
0.18948033 0.06292404 -0.0066802455 0.10567935 0.1443526 0.012781911 -0.053255107 0.18303645
0.020489426 -0.18863735 -0.052652054 0.1238775 -0.11612676 -0.04556527 -0.06220509 0.068241894
-0.036456328 0.059506617 -0.012418505 -0.081836596 -0.10108403 -0.18160085 -0.124933645 -0.18205278
0.10985642 0.071784966 -0.26055205 0.045420602 -0.023389818 -0.024164708 0.029186742 -0.08253819
-0.027417107 0.14816628 0.05724239 0.032924168 0.039176673 0.106425785 0.042024653 0.06890893
0.087566726 -0.073549785 0.008742992 0.0050579566 -0.078546785 -0.24720891 0.16660957 -0.052167587
0.13793032 0.09888256 0.12654634 0.057826594 0.20727485 -0.08244928 0.13521092 0.13736397
-0.013776943 0.12354473 0.03133419 -0.11647387 -0.03097268 -0.06932624 -0.09273879 0.12623444
0.0059550186 -0.024609387 0.06274364 -0.03376094 -0.121052496 0.10672266 0.06495822 0.09262847
-0.049621236 0.14817977 0.11904934 0.023328366 0.12699136 -0.057024114 -0.07085994 -0.12658681
0.12743706 -0.08536834 0.07485011 0.02966992 -0.036909852 -0.4082768 -0.1324085 -0.030844036
-0.06428784 -0.30820757 -0.011280035 -0.047737293 -0.031254634 -0.008844788 -0.06519117 0.030605713
-0.18641421 0.10246102 0.10083563 -0.13253203 0.13059446 0.04642174 -0.12709816 -0.10127367
0.066184886 0.18336578 -0.033401027 -0.07622846 0.09730376 0.01949372 0.13947627 0.022708174
-0.07879909 -0.03971179 0.1574721 -0.0818212 0.005629234 -0.041636202 -0.21313408 0.08323393
-0.04203371 -0.0074425023 -0.06320619 0.22478142 0.13720204 -0.049876057 -0.0040194853 0.08703888
-0.002458117 0.08593646 -0.044870663 0.19550002 0.039882123 0.032571387 -0.035600036 -0.013548473
0.05616374 -0.16545075 0.088156834 0.09627266 -0.058463983 -0.038700808 0.005018877 -0.050547007
0.18596894 0.14801556 0.1346544 0.021413827 -0.014923434 -0.07882945 -0.041904014 0.02576541
0.11003838 0.12497276 0.035942156 -0.058019385 -0.028366592 9.16309e-05 -0.23481368 0.08738281
-0.004688926 -0.06417926 0.06434535 0.082861796 -0.050069 0.1813084 0.09877108 -0.020091487
-0.014780559 -0.13890801 -0.06557332 -0.07339302 0.04848887 0.052128244 0.1912193 -0.11738374
00000000: f322 0dbe f99c 59be 455f 6ab9 4b68 c8bd
00000010: ce93 e13b 82a6 0ebe 8f33 7abe 9d54 4c3d
00000020: 65dc 3ebe c93f b63c 7cbd 16be 4689 263e
00000030: 7fe9 ae3d 8c9e e43c fa5c 1fbe 8e4e 493b
00000040: 40f7 6b3d 3a1c bd3d b75b 74bc c989 8c3d
00000050: ce55 df3c 7d55 dd3d 9c10 4d3e f5cf d3bd
00000060: 4b33 8a3d d0b5 e5bc 745b 62bd 8a42 c63d
00000070: 1714 83bd 174b 073d b666 2c3e efe8 0dbd
00000080: 4d8c dfbd f96d 433d 0063 71bd 2209 183e
00000090: c989 95bd 9713 463e 5934 703e e10b fe3c
000000a0: dfaa 08bc 4909 8b3c dd39 f53c 0ed7 4bbd
000000b0: 101e 96bc ae56 ad3c 80a0 0abe 0407 0a3e
000000c0: feae 8cbc 292b e13d 7617 d63c 1db5 35bd
000000d0: e537 093e 5f0f 173d 7da6 063e 6941 68bd
000000e0: a3af cbbd 7e22 a4bd 16b3 2fbe f7fe 0cbe
000000f0: 5af8 6ebd 107c 0fbe 66cf 6cbd 1504 90bc
00000100: c422 013d eac5 873d defe 153e eba1 643c
00000110: 8c06 e9bd d10a a93d e371 24bc 1822 08be
00000120: 8750 d5bc bc2e 09be 375e 9c3d 3a11 6abd
00000130: c723 0fbd 39f9 783d 9189 4f3d 6603 e03b
00000140: 2207 423e 52de 803d f6e5 dabb 6a6e d83d
00000150: 2bd1 133e 386b 513c 0722 5abd e86d 3b3e
00000160: 71d9 a73c 262a 41be aea9 57bd 7db3 fd3d
00000170: ded3 edbd a6a2 3abd c4ca 7ebd 68c2 8b3d
00000180: 3b53 15bd 36bd 733d fc76 4bbc f299 a7bd
00000190: 2505 cfbd 93f5 39be 36dd ffbd 0b6c 3abe
000001a0: 67fc e03d ff03 933d 1467 85be f40a 3a3d
000001b0: 019c bfbc 11f5 c5bc 0919 ef3c c809 a9bd
000001c0: d799 e0bc e7b8 173e ff76 6a3d 7edb 063d
000001d0: b877 203d c3f5 d93d 0b22 2c3d 2020 8d3d
000001e0: 2f56 b33d 45a1 96bd c43e 0f3c 37bd a53b
000001f0: 23dd a0bd 5524 7dbe b39b 2a3e aead 55bd
00000200: 9b3d 0d3e f182 ca3d 5d95 013e 94db 6c3d
00000210: dc3f 543e 2bdb a8bd bb74 0a3e 24a9 0c3e
00000220: b0b8 61bc 0505 fd3d 4858 003d da89 eebd
00000230: 6bba fdbc eafa 8dbd d6ed bdbd 9a43 013e
00000240: 5122 c33b a099 c9bc bd7f 803d e948 0abd
00000250: 5fea f7bd 6991 da3d d108 853d ffb3 bd3d
00000260: a33f 4bbd 70bc 173e 24d0 f33d 211b bf3c
00000270: 060a 023e 1e92 69bd 041f 91bd f99f 01be
00000280: dc7e 023e 99d5 aebd 044b 993d 550e f33c
00000290: c92e 17bd a809 d1be 1896 07be a2ac fcbc
000002a0: 58a9 83bd 62cd 9dbe e5cf 38bc 2e88 43bd
000002b0: dc04 00bd bbe9 10bc f382 85bd d5b8 fa3c
000002c0: 5ee3 3ebe 15d7 d13d e982 ce3d 7ab6 07be
000002d0: 8eba 053e b924 3e3d 0526 02be 9268 cfbd
000002e0: f18b 873d 3dc4 3b3e 84cf 08bd ab1d 9cbd
000002f0: 3247 c73d 4bb1 9f3c ded2 0e3e 7e06 ba3c
00000300: 6b61 a1bd d4a8 22bd 5e40 213e e091 a7bd
00000310: 7075 b83b b98a 2abd d23f 5abe 8d76 aa3d
00000320: 8a2b 2cbd 3ce0 f3bb 3f72 81bd 1a2d 663e
00000330: b17e 0c3e d64a 4cbd e3b5 83bb 7141 b23d
00000340: 5c18 21bb 74ff af3d 4dca 37bd 2831 483e
00000350: 705b 233d 9369 053d 58d1 11bd 6afa 5dbc
00000360: f30b 663d ec6b 29be 928b b43d 9a2a c53d
00000370: ee77 6fbd bd84 1ebd 6475 a43b 610a 4fbd
00000380: a46e 3e3e 6491 173e d8e2 093e 0d6c af3c
00000390: 6b81 74bc 5671 a1bd 8ba3 2bbd fb11 d33c
000003a0: cd5b e13d b8f1 ff3d 1538 133d bca5 6dbd
000003b0: 0e61 e8bc f729 c038 ff72 70be c2f5 b23d
000003c0: 90a5 99bb 6a70 83bd 7fc7 833d 72b3 a93d
000003d0: 2715 4dbd e9a8 393e 7e48 ca3d e796 a4bc
000003e0: 282a 72bc e73d 0ebe 4e4b 86bd 144f 96bd
000003f0: 449c 463d 6d84 553d fece 433e e366 f0bd

lstm1.weight_hh_l0 f4 [256, 64]
-0.078889415 -0.057315394 0.055272188 0.19282071 -0.03752561 -0.07777481 -0.0093371915 0.1092901
-0.056095477 -0.025561852 -0.014317089 -0.038908143 0.0073245377 -0.14159678 0.0003864667 -0.01648927
0.021785237 -0.17422128 -0.02279939 0.1596381 0.14234808 0.05287708 -0.05071832 -0.044528633
0.07931268 -0.10273185 0.06387482 0.016412921 0.077664696 -0.06933226 -0.01731141 0.00898264
0.014231874 -0.011719516 0.021078777 -0.13960359 0.12779345 -0.093591005 0.0261852 -0.05947947
-0.029108634 0.11895926 -0.09502679 -0.11164419 0.08161479 0.10872709 0.0004693334 0.053108398
-0.053256486 0.036448624 0.1589296 -0.11450146 -0.13039118 -0.05330542 0.005466834 -0.13806632
-0.16497348 -0.086637855 0.033601508 -0.03120011 0.07270666 0.03316704 -0.14225918 -0.050818086
0.1537955 -0.025120515 -0.098082185 -0.027181398 0.06458875 -0.07867184 0.089848876 -0.01720848
0.0638196 -0.05035584 -0.11522337 0.08517294 -0.004518734 0.004441767 0.092085816 -0.15009117
-0.15340555 0.019752199 0.098698 0.22342326 0.10555251 -0.10490166 -0.07212526 -0.12926076
8.049236e-05 0.010721522 -0.077380046 0.10965574 -0.005750532 0.00096884795 -0.013257405 -0.039926924
-0.039014038 0.07718289 0.027583456 0.011727359 0.19357724 0.003968258 0.0424418 -0.04806219
-0.08466161 -0.07635229 0.03434404 -0.16516614 0.03749231 0.15193619 -0.02507144 0.0116058
-0.020616647 0.037125994 0.07638706 -0.11307694 -0.05174446 -0.039430454 -0.049337458 0.054783486
-0.09154743 -0.16370746 -0.057703767 -0.06084574 -0.09871516 0.11725297 -0.13971919 -0.019995464
0.13418998 -0.04172478 0.025129644 0.0551011 0.20904846 0.07279306 0.035090163 -0.20083274
0.028749116 -0.040562376 -0.16027069 -0.009876091 0.033477306 0.2709304 0.007798611 0.20618369
0.09919341 0.09657084 -0.1696083 -0.13731669 0.028672257 -0.06654905 0.1919846 0.025794163
-0.1146371 0.15186423 -0.052936967 -0.15960439 -0.17943276 0.07568692 0.052305307 0.016377047
-0.16526346 -0.1381132 -0.07919513 0.09643272 0.09080983 0.08111419 -0.2874445 0.04433371
-0.02157685 -0.13736546 0.12024266 -0.043267857 0.052535616 -0.05832535 0.13881667 0.025500208
0.12549937 0.26859093 -0.13165875 0.13312727 0.24279593 0.16546321 -0.053576894 -0.10465949
0.26891664 0.0046444093 -0.15103866 -0.19759068 -0.18595408 -0.2128675 -0.04838084 0.2115705
-0.18818688 -0.0008200749 0.0032938917 -0.10037377 -0.022091437 -0.15122077 0.1603768 -0.011355227
-0.11165125 0.07277139 -0.10929748 -0.037963882 -0.16118754 -0.13302536 0.08277741 -0.03367649
-0.017474126 -0.14891817 0.086737975 0.12391305 0.10175851 0.17680557 -0.15981099 0.043034595
0.015210962 0.035250813 0.07754158 -0.011492099 0.009209051 0.015479825 0.11751493 -0.053441614
0.08264466 0.028715735 -0.08280681 -0.045002364 -0.04842168 -0.08635055 0.13312201 -0.12064136
0.010173524 0.05214909 -0.026263785 -0.23155785 0.036076095 0.12488765 0.07939091 0.052823305
-0.00912451 0.018924821 0.050520156 0.06695534 -0.10232077 0.03707089 0.0544616 -0.19341207
-0.1462947 -0.10458856 0.06018118 -0.06524357 -0.09706071 0.06458473 0.031456664 -0.022052778
00000000: c690 a1bd 8cc3 6abd 1765 623d cb72 453e
00000010: 74b4 19bd 6648 9fbd 05fb 18bc 7dd3 df3d
00000020: 5fc4 65bd 1767 d1bc 3992 6abc 255e 1fbd
00000030: ad02 f03b bffe 10be af9e ca39 8114 87bc
00000040: f476 b23c 1067 32be c9c5 babc 2c78 233e
00000050: b2c3 113e a395 583d 03be 4fbd a863 36bd
00000060: b06e a23d 1465 d2bd cdd0 823d 6474 863c
00000070: ab0e 9f3d 12fe 8dbd a8d0 8dbc ec2b 133c
00000080: ce2c 693c 3603 40bc 66ad ac3c 3ef4 0ebe
00000090: 49dc 023e a4ac bfbd 5882 d63c bfa0 73bd
000000a0: 3b75 eebc eaa0 f33d 689d c2bd b6a5 e4bd
000000b0: a825 a73d 4fac de3d dd10 f639 3188 593d
000000c0: 7923 5abd 274b 153d 71be 223e be7f eabd
000000d0: 4485 05be c956 5abd 2123 b33b 4261 0dbe
000000e0: cfee 28be 306f b1bd bca1 093d 6097 ffbc
000000f0: 3be7 943d 2ada 073d 64ac 11be a026 50bd
00000100: 917c 1d3e 8ac9 cdbc 50df c8bd 86ab debc
00000110: 1b47 843d b41e a1bd b002 b83d ccf8 8cbc
00000120: dab3 823d ed41 4ebd 3bfa ebbd 266f ae3d
00000130: e311 94bb 3e8c 913b 7d97 bc3d 80b1 19be
00000140: 5816 1dbe 5dcf a13c 2d22 ca3d 11c9 643e
00000150: ea2b d83d aed6 d6bd 69b6 93bd ef5c 04be
00000160: 02ce a838 53a9 2f3c 6e79 9ebd 3093 e03d
00000170: f56e bcbb 49fa 7d3a 9635 59bc 6a8a 23bd
00000180: 2fcd 1fbd 1012 9e3d b3f6 e13c 1c24 403c
00000190: 1d39 463e 2908 823b 74d7 2d3d dcdc 44bd
000001a0: 1163 adbd 975e 9cbd 56ac 0c3d 5021 29be
000001b0: 8991 193d 2995 1b3e 9f62 cdbc 4126 3e3c
000001c0: 3ee4 a8bc 6d11 183d d270 9c3d e294 e7bd
000001d0: 00f2 53bd d481 21bd 1316 4abd a664 603d
000001e0: 387d bbbd eea2 27be c95a 6cbd 6239 79bd
000001f0: 2c2b cabd 5322 f03d 8c12 0fbe 87cd a3bc
00000200: 1969 093e 9ae7 2abd afdc cd3c b1b1 613d
00000210: cd10 563e 8714 953d b4ba 0f3d 19a7 4dbe
00000220: 4483 eb3c bc24 26bd 001e 24be 54cf 21bc
00000230: 801f 093d 64b7 8a3e 7e8b ff3b d121 533e
00000240: ea25 cb3d efc6 c53d ccad 2dbe bf9c 0cbe
00000250: 15e2 ea3c de4a 88bd 9c97 443e 484e d33c
00000260: dbc6 eabd 4c82 1b3e 6fd4 58bd 556f 23be
00000270: 39bd 37be be01 9b3d 173e 563d 2829 863c
00000280: d33a 29be 8c6d 0dbe 0e31 a2bd 857e c53d
00000290: 81fa b93d 321f a63d ed2b 93be 4497 353d
000002a0: efc1 b0bc 88a9 0cbe c941 f63d a339 31bd
000002b0: 962f 573d 90e6 6ebd f525 0e3e d0e5 d03c
000002c0: e882 003e c084 893e 8dd1 06be 8452 083e
000002d0: 7f9f 783e 306f 293e 7273 5bbd b757 d6bd
000002e0: 71af 893e 2130 983b e1a9 1abe 3655 4abe
000002f0: bf6a 3ebe f0f9 59be fd2a 46bd f0a5 583e
00000300: 10b4 40be 4cfa 56ba 55de 573b c390 cdbd
00000310: 1af9 b4bc 9ed9 1abe d139 243e 460b 3abc
00000320: 69a9 e4bd 2b09 953d 5bd7 dfbd 0480 1bbd
00000330: 590e 25be cd37 08be 3487 a93d 5cf0 09bd
00000340: e625 8fbc 017e 18be aea3 b13d 20c6 fd3d
00000350: c466 d03d 850c 353e 7ea5 23be 0b45 303d
00000360: 6637 793c 2863 103d 1fce 9e3d 5b49 3cbc
00000370: 8fe1 163c 189f 7d3c abab f03d 98e5 5abd
00000380: 9a41 a93d 433d eb3c 9e96 a9bd 6654 38bd
00000390: d055 46bd 8fd8 b0bd 2351 083e d112 f7bd
000003a0: daae 263c 499a 553d 2627 d7bc 801d 6dbe
000003b0: 87c4 133d 19c5 ff3d b497 a23d 405d 583d
000003c0: f87e 15bc 3a08 9b3c 39ee 4e3d e21f 893d
000003d0: 8d8d d1bd a5d7 173d 2013 5f3d d00d 46be
000003e0: 47ce 15be 8732 d6bd 8a80 763d 6c9e 85bd
000003f0: c4c7 c6bd 0045 843d b4d8 003d 07a8 b4bc

lstm1.bias_ih_l0 f4 [256]
-0.031643808 -0.115162335 -0.004290347 0.064795576 -0.052763414 -0.08534943 -0.032257427 -0.10741107
-0.011954143 -0.06685461 -0.007991008 0.07455922 0.08678759 0.033840016 0.09494677 -0.03237024
-0.012862734 -0.11938953 -0.1466972 0.07217694 0.050949275 -0.022704763 -0.005591581 -0.17866383
-0.15646614 -0.07770482 0.16401915 -0.06147658 0.09729296 0.009075028 0.05832853 -0.0305068
-0.17235084 0.014477095 -0.039683882 0.011888511 0.07354921 0.06716307 -0.11391973 -0.003313098
-0.19471374 0.04154286 0.023818258 -0.039006364 -0.065375 -0.096290104 0.018173242 0.0693099
0.10420522 0.07768629 -0.03804588 -0.08873427 -0.2008951 0.042383656 -0.010497232 -0.11369103
0.036307685 -0.03650394 0.01972945 -0.038654227 0.046604738 -0.07214502 0.20040433 0.10087102
0.15894753 -0.027357118 0.21521245 -0.108731665 -0.13626665 -0.05416082 -0.057918362 0.03719265
-0.1010423 -0.09264796 0.13980006 -0.09748482 -0.24560785 0.087170556 0.0854481 -0.04723546
0.06633835 -0.051979907 -0.102711655 0.21430433 0.06654511 0.079448886 -0.07069632 -0.061443184
0.0032056246 -0.048992578 -0.112016775 0.024212431 0.10362101 0.021557054 0.020610562 0.022022704
0.02842594 -0.0048701772 -0.069900915 0.02927082 0.107079685 0.13024941 -0.0021275592 0.08051605
-0.1410299 0.16187681 -0.04736124 0.078840576 0.09951761 -0.09506953 0.200961 0.08865042
-0.11648923 0.07170092 0.051379304 -0.028095083 0.011114876 0.17364669 -0.08930477 -0.049490165
0.25512093 0.116995096 -0.041514713 0.03103075 -0.09884533 -0.0351917 0.041752253 0.101662464
-0.17007957 -0.010988934 0.12815188 0.062924005 0.166476 0.19186033 0.11776747 -0.042969856
-0.0964206 0.025486697 -0.1510582 0.15034898 -0.15310733 0.12317847 0.08642939 -0.091065094
0.13393857 0.12058622 -0.18830323 -0.01043704 -0.08668863 0.11067072 0.16952504 -0.018032096
0.02153432 0.24489373 -0.18919656 -0.086679146 -0.12583138 0.12288844 -0.019711696 0.0918097
-0.0854766 0.1450205 -0.16116913 -0.09485112 0.10994611 0.11705719 -0.17962521 0.21020249
-0.05597814 -0.19088456 -0.20210284 -0.07246562 0.031274103 0.024081802 0.09605764 0.09211283
-0.10884975 -0.0025760436 -0.20651299 0.16963693 0.19062701 0.10618815 0.24326731 0.01164544
0.07863165 -0.16614427 -0.10202393 -0.15787387 0.0057010395 -0.19503318 -0.16553275 0.013966976
0.15193246 -0.012551542 0.09642632 0.16048573 -0.04367422 -0.071572706 0.04233482 -0.027444758
0.030975932 -0.014603992 0.06603663 -0.10445162 0.24223655 0.017250422 0.13789377 -0.079553746
-0.0058203726 0.08170543 0.07600526 0.070075884 0.0841128 -0.0065794294 -0.07608965 -0.1393569
0.008440695 0.020962685 0.100956865 0.03359594 0.12162839 -0.016381796 -0.10690821 0.030126926
-0.09556397 0.043735743 -0.11824126 0.2066495 0.08044892 -0.08911478 0.017387591 0.16609351
-0.102139324 -0.0047818506 0.11193958 0.014764768 -0.10285173 0.034479104 0.11267211 0.0786206
0.0014109517 0.055616427 -0.12744008 0.008890029 -0.042059954 -0.116887 0.08095638 -0.04961636
0.009901186 0.11159829 0.07484977 -0.08473659 0.18624662 0.12690471 0.08331169 0.15296929
00000000: f09c 01bd 3bda ebbd 0a96 8cbb 8bb3 843d
00000010: 731e 58bd afcb aebd 5d20 04bd 56fa dbbd
00000020: 4fdb 43bc 12eb 88bd b8ec 02bc 81b2 983d
00000030: b1bd b13d d49b 0a3d 7473 c23d a896 04bd
00000040: 37be 52bc 7f82 f4bd ca37 16be 81d1 933d
00000050: 30b0 503d 57ff b9bc 9539 b7bb a7f3 36be
00000060: a938 20be b423 9fbd a3f4 273e dece 7bbd
00000070: 8841 c73d 6daf 143c e6e9 6e3d 66e9 f9bc
00000080: bd7c 30be 5631 6d3c 918b 22bd 07c8 423c
00000090: f8a0 963d cb8c 893d bf4e e9bd 9020 59bb
000000a0: 0a63 47be d928 2a3d 821e c33c 23c5 1fbd
000000b0: 54e3 85bd bf33 c5bd 0de0 943c 59f2 8d3d
000000c0: 8c69 d53d fd19 9f3d ffd5 1bbd 50ba b5bd
000000d0: 72b7 4dbe 7c9a 2d3d 95fc 2bbc d8d6 e8bd
000000e0: 5eb7 143d 2885 15bd a89f a13c e553 1ebd
000000f0: 9ce4 3e3d c5c0 93bd cb36 4d3e 7795 ce3d
00000100: 24c3 223e 091c e0bc a760 5c3e b5ae debd
00000110: 7c89 0bbe bcd7 5dbd ce3b 6dbd 5257 183d
00000120: 44ef cebd 37be bdbd bf27 0f3e 1fa6 c7bd
00000130: a080 7bbe 7a86 b23d 6aff ae3d f879 41bd
00000140: 67dc 873d e2e8 54bd 7d5a d2bd 9872 5b3e
00000150: cd48 883d 19b6 a23d 3bc9 90bd d9ab 7bbd
00000160: 7515 523b 71ac 48bd 0d69 e5bd 2659 c63c
00000170: 4137 d43d 6b98 b03c 7bd7 a83c f568 b43c
00000180: 84dd e83c 0296 9fbb 3628 8fbd 5cc9 ef3c
00000190: 984c db3d 1a60 053e 856e 0bbb 99e5 a43d
000001a0: 246a 10be 09c3 253e dcfd 41bd 2b77 a13d
000001b0: e4cf cb3d d0b3 c2bd b8c8 4d3e 5a8e b53d
000001c0: e891 eebd efd7 923d 1b73 523d a927 e6bc
000001d0: 2b1b 363c 70d0 313e 6be5 b6bd 33b6 4abd
000001e0: 369f 823e 209b ef3d 550b 2abd 3334 fe3c
000001f0: 6c6f cabd 2c25 10bd 6904 2b3d 6934 d03d
00000200: 5729 2ebe ee0a 34bc 3f3a 033e 4dde 803d
00000210: af78 2a3e 0977 443e 1230 f13d 2901 30bd
00000220: 2a78 c5bd 7ac9 d03c 00af 1abe 15f5 193e
00000230: 2bc8 1cbe fe44 fc3d e401 b13d 5680 babd
00000240: 3127 093e e8f5 f63d 90d2 40be 1e00 2bbc
00000250: cf89 b1bd 55a7 e23d f997 2d3e 0cb8 93bc
00000260: be68 b03c 6cc5 7a3e bebc 41be d684 b1bd
00000270: f1d9 00be efac fb3d 6c7a a1bc b906 bc3d
00000280: 5b0e afbd 4180 143e 8509 25be 4e41 c2bd
00000290: 6d2b e13d aebb ef3d acef 37be 523f 573e
000002a0: 5649 65bd 3e77 43be 0cf4 4ebe db68 94bd
000002b0: 4619 003d 3347 c53c deb9 c43d a7a5 bc3d
000002c0: 9eec debd d7d2 28bb 2478 53be 4eb5 2d3e
000002d0: ba33 433e 2c79 d93d 111b 793e 84cc 3e3c
000002e0: a109 a13d b921 2abe ecf1 d0bd b0a9 21be
000002f0: c9cf ba3b c7b6 47be 6b81 29be bed5 643c
00000300: 2f94 1b3e fca4 4dbc 2a7b c53d 5f56 243e
00000310: bde3 32bd b694 92bd 4767 2d3d d4d3 e0bc
00000320: 3dc1 fd3c 9545 6fbc 363e 873d bbea d5bd
00000330: dc0c 783e c250 8d3c 0634 0d3e 13ed a2bd
00000340: d3b8 bebb 2d55 a73d a5a8 9b3d f283 8f3d
00000350: 5543 ac3d 4198 d7bb e4d4 9bbd 93b3 0ebe
00000360: d74a 0a3c f0b9 ab3c 79c2 ce3d e59b 093d
00000370: 4e18 f93d 1e33 86bc b1f2 dabd becc f63c
00000380: 0bb7 c3bd 4024 333d 7928 f2bd ed9b 533e
00000390: 67c2 a43d cf81 b6bd 6c70 8e3c 6b14 2a3e
000003a0: 6c2e d1bd 12b1 9cbb 9440 e53d ede7 713c
000003b0: eea3 d2bd f639 0d3d a3c0 e63d d603 a13d
000003c0: afef b83a 0dce 633d a77f 02be 7ca7 113c
000003d0: 0f47 2cbd 7462 efbd 75cc a53d 863a 4bbd
000003e0: 9638 223c a58d e43d d64a 993d 618a adbd
000003f0: 6fb7 3e3e 4ff3 013e 529f aa3d fba3 1c3e

lstm1.bias_hh_l0 f4 [256]
0.1691634 0.020343157 0.14137441 0.035734452 0.014685357 0.04785536 0.077357665 -0.11746263
-0.18387496 0.013824886 -0.07394353 -0.056570947 0.13288024 -0.0039048768 0.02625058 0.04699619
-0.0719655 -0.09578585 -0.116014265 0.09959262 0.020377893 0.05189288 -0.018658781 -0.17414294
-0.11348049 0.002249133 0.11641563 -0.10214766 0.1318195 0.035760593 0.01977663 -0.15878035
0.001395641 -0.17068371 0.053154968 -0.037069242 -0.094609 0.20249136 0.05431061 0.03040423
-0.09014928 -0.055739317 0.054592595 -0.13761052 -0.029505555 -0.050406512 -0.018367277 0.039190073
0.105951 -0.090757094 0.009930398 0.01121409 -0.11283606 0.040871542 -0.046799712 -0.1168966
-0.016507877 -0.067727275 -0.037494786 -0.038078237 -0.14475773 -0.04514547 0.20387544 0.0864696
0.029286982 -0.055266894 0.28504318 -0.0731658 -0.14770105 -0.10374845 -0.029148536 -0.036973678
-0.1575767 -0.096497215 0.254833 -0.008057046 -0.03137137 -0.039959244 -0.065037385 0.051859878
0.08534958 -0.010861455 0.012567617 0.23054716 0.24185008 -0.05016347 -0.03807506 0.06474655
-0.016131813 -0.11485927 0.101480015 0.041075893 0.10566956 0.16396248 -0.037896655 0.096881665
-0.08319684 -0.06002435 -0.09025468 0.1468959 -0.088994004 0.03985506 0.0971139 0.21173532
-0.15966968 -0.044136025 -0.041764677 0.18426387 0.15919824 -0.04157234 0.20989245 -0.13889182
0.013070192 0.13050513 0.033369068 0.21443033 -0.0919583 0.1637597 -0.1236593 0.067162484
0.06787043 -0.03846599 -0.029395467 0.04765453 -0.1162158 0.11401344 0.09881871 -0.012209171
-0.15284032 0.06386279 0.13837753 0.018529115 0.013215027 0.024383234 0.18727535 -0.076396205
-0.01653079 -0.0051246095 -0.032351322 0.06641658 -0.12035559 0.05070747 0.083719574 -0.06885442
0.11049477 0.02740427 0.03479643 -0.16251965 0.053740446 -0.06895173 0.21978144 -0.015934449
0.063168295 0.053236008 -0.058389623 -0.13463393 -0.15588443 0.1754986 0.20354906 0.17082149
-0.05272986 0.18213145 -0.055900168 -0.109011725 0.13406172 0.17710088 -0.08788325 0.19635698
-0.094770804 -0.08338594 -0.0050913384 0.034890845 0.19884649 0.09404537 0.03266833 0.23097694
-0.14958455 -0.10800633 -0.07663763 0.16380847 0.041603584 0.03785693 0.16895775 -0.031247161
0.14997983 -0.03911 -0.073001325 -0.057597995 -0.2195372 -0.070975795 -0.124738954 0.09009071
-0.05303629 -0.088431574 -0.11885273 0.1505855 -0.03555434 -0.107862405 -0.094527006 -0.061679736
-0.11294081 -0.03597102 0.053916544 -0.014524471 0.1407144 0.06000823 0.075345874 0.12373154
-0.06847803 -0.1017752 -0.051734794 0.102495186 0.09547769 -0.01299178 -0.025400948 0.0078674145
-0.08598486 -0.05517585 0.13047901 0.03743186 -0.0263728 0.105624445 -0.10218923 0.014854175
-0.020050617 -0.09480636 -0.021277582 -0.01771389 -0.04360315 -0.09443105 0.11153613 -0.036681212
-0.0049318695 -0.16014692 0.020411447 0.086581565 -0.042200074 0.082499 0.10850031 0.19277373
-0.11900474 0.05764185 0.0586777 0.017956644 -0.09622557 0.04016367 0.011195167 0.083781466
0.17637469 0.11509159 0.0585384 0.057661716 0.11122615 0.16385315 0.09172022 0.030004194
00000000: 2c39 2d3e b1a6 a63c 74c4 103e 4a5e 123d
00000010: da9a 703c fb03 443d b26d 9e3d 3f90 f0bd
00000020: b849 3cbe c681 623c b56f 97bd f0b6 67bd
00000030: c211 083e f6e8 7fbb 750b d73c 147f 403d
00000040: a662 93bd 5f2b c4bd e398 edbd 37f7 cb3d
00000050: 8aef a63c a18d 543d 4dda 98bc 8752 32be
00000060: 7668 e8bd 3166 133b 516b ee3d cb32 d1bd
00000070: b1fb 063e b379 123d 9902 a23c 5197 22be
00000080: f1ed b63a b6c7 2ebe 06b9 593d ebd5 17bd
00000090: 5dc2 c1bd e559 4f3e cd74 5e3d 4b12 f93c
000000a0: 30a0 b8bd e94e 64bd 7c9c 5f3d c6e9 0cbe
000000b0: a2b5 f1bc 0f77 4ebd f976 96bc c585 203d
000000c0: d6fc d83d dbde b9bd 1cb3 223c 4dbb 373c
000000d0: 9816 e7bd eb68 273d 0eb1 3fbd 7c67 efbd
000000e0: 873b 87bc 99b4 8abd 2294 19bd edf7 1bbd
000000f0: 5f3b 14be 75ea 38bd b9c4 503e f916 b13d
00000100: 41eb ef3c 8a5f 62bd 2ef1 913e f3d7 95bd
00000110: f23e 17be 117a d4bd e9c8 eebc b671 17bd
00000120: c95b 21be 55a0 c5bd 7979 823e b301 04bc
00000130: 447f 00bd 4eac 23bd 5232 85bd 066b 543d
00000140: c3cb ae3d 3ff4 31bc 68e8 4d3c 8e14 6c3e
00000150: 8ca7 773e 3678 4dbd 98f4 1bbd d799 843d
00000160: dd26 84bc 563b ebbd c1d4 cf3d 323f 283d
00000170: 4869 d83d c8e5 273e 8639 1bbd e569 c63d
00000180: 1b63 aabd 18dc 75bd 72d7 b8bd e16b 163e
00000190: 7d42 b6bd 0f3f 233d a7e3 c63d 25d1 583e
000001a0: 7380 23be fac7 34bd 7011 2bbd abaf 3c3e
000001b0: dd04 233e c247 2abd 0cee 563e a839 0ebe
000001c0: 5c24 563c 23a3 053e 01ae 083d a093 5b3e
000001d0: a254 bcbd 9fb0 273e 1641 fdbd 7c8c 893d
000001e0: a7ff 8a3d 848e 1dbd c3ce f0bc 6531 433d
000001f0: 8d02 eebd e17f e93d 7761 ca3d fa08 48bc
00000200: 2c82 1cbe 7fca 823d d7b2 0d3e 5fca 973c
00000210: d783 583c 59bf c73c 1cc5 3f3e 9d75 9cbd
00000220: 946b 87bc 57ec a7bb d282 04bd 6a05 883d
00000230: fe7c f6bd a3b2 4f3d 2b75 ab3d 8c03 8dbd
00000240: 154b e23d eb7e e03c b486 0e3d 8d6b 26be
00000250: f11e 5c3d 9136 8dbd 630e 613e f688 82bc
00000260: 615e 813d 000e 5a3d f529 6fbd 7add 09be
00000270: 2ba0 1fbe e8b5 333e 2a6f 503e d4eb 2e3e
00000280: 44fb 57bd ab80 3a3e 93f7 64bd 8a41 dfbd
00000290: 7a47 093e ef59 353e 22fc b3bd ce11 493e
000002a0: 3217 c2bd 3fc6 aabd 3ed5 a6bb b4e9 0e3d
000002b0: 6a9e 4b3e dc9a c03d 3acf 053d 3885 6c3e
000002c0: b12c 19be 6c32 ddbd 31f4 9cbd 68bd 273e
000002d0: 8568 2a3d de0f 1b3d 4303 2d3e 0cfa ffbc
000002e0: 5094 193e cf31 20bd b881 95bd e0eb 6bbd
000002f0: 5cce 60be c25b 91bd 2377 ffbd 7a81 b83d
00000300: 953c 59bd 9d1b b5bd 0f69 f3bd 1633 1a3e
00000310: 6da1 11bd f7e6 dcbd 6097 c1bd e4a3 7cbd
00000320: 834d e7bd 5956 13bd 98d7 5c3d 0cf8 6dbc
00000330: 7017 103e 31cb 753d f04e 9a3d f666 fd3d
00000340: 363e 8cbd 846f d0bd dde7 53bd ffe8 d13d
00000350: cf89 c33d 7adb 54bc a615 d0bc 54e6 003c
00000360: d518 b0bd 1200 62bd 4a9c 053e 2652 193d
00000370: c50b d8bc a151 d83d 9648 d1bd ed5e 733c
00000380: 3141 a4bc d629 c2bd 534e aebc b81c 91bc
00000390: 3799 32bd 1165 c1bd 0e6d e43d 0a3f 16bd
000003a0: 859b a1bb 8efd 23be e835 a73c ad51 b13d
000003b0: fcd9 2cbd 3cf5 a83d 6935 de3d 7a66 453e
000003c0: c2b8 f3bd dc19 6c3d 0758 703d d019 933c
000003d0: e911 c5bd a982 243d ef6b 373c 9e95 ab3d
000003e0: 919b 343e 24b5 eb3d f6c5 6f3d b12e 6c3d
000003f0: 89ca e33d 1fc9 273e d0d7 bb3d 5bcb f53c

lstm2.weight_ih_l0 f4 [256, 64]
0.077506505 0.076387726 0.04018913 -0.05101497 -0.1477777 -0.054937202 0.004739583 0.09253687
0.01985619 0.14815211 -0.081289046 0.11961576 0.054873593 -0.057067446 0.0047100503 -0.13758433
0.13368495 0.061634086 0.041862596 0.086397916 0.21461664 -0.059490096 -0.1149273 -0.13813949
0.10487306 0.08979258 0.035372674 -0.21387503 -0.039598465 -0.15394953 -0.11229168 -0.032013893
-0.091196276 0.1407711 -0.097082496 -0.076399244 0.022577463 -0.017021773 0.10419858 0.029427927
0.11121344 0.104536615 0.09732248 -0.121766694 -0.1638874 -0.072533056 0.12824233 0.12536511
-0.02258436 -0.03851324 0.13546026 -0.117787056 0.110183895 -0.11053619 0.07924088 -0.3517648
0.043090735 -0.100770555 0.103349924 0.0027082213 0.009727173 0.012154924 -0.048531815 0.078208454
-0.14106004 -0.087412976 -0.068070464 -0.051420834 -0.071988426 0.04938398 -0.042003617 0.05834533
-0.20753226 -0.12382368 0.20067361 -0.08928802 0.18919866 0.0059622256 0.15542977 -0.2267661
0.12971458 -0.14836274 0.010033713 0.07949033 0.03568014 -0.021225246 0.022465296 -0.0028120787
0.18758963 -0.0024450172 -0.11827867 -0.08456766 0.0742988 -0.091258414 0.06312365 -0.079204336
0.07164182 0.20497473 0.078250416 -0.15112096 0.040780485 -0.14314234 0.19490984 -0.088850066
0.06271077 0.18975493 -0.13844247 0.01097835 0.049066495 0.13694027 -0.027064428 -0.023610804
-0.18403178 -0.1026085 0.18080835 -0.12595983 -0.113674976 -0.008877838 0.1325231 -0.09057565
-0.25257143 -0.0043745646 -0.07590297 0.09450853 0.12301926 0.00787049 -0.00872909 -0.018458905
-0.1344316 -0.014228852 0.15459363 -0.14451678 0.046976045 -0.08920986 -0.018027127 0.057475384
0.046923976 0.030382564 0.06666737 -0.08081089 0.062278792 0.04279902 -0.005277587 -0.15884688
0.12805894 0.116875365 0.068556964 0.024118936 0.27713865 -0.012082425 -0.007327266 -0.026991662
0.204795 0.1884873 -0.06605843 0.010995591 0.12723319 -0.13598385 0.014979616 -0.09266509
-0.048746407 0.25964254 -0.019342748 -0.32879925 -0.043671444 0.047223523 0.0886622 -0.1512267
-0.0441989 -0.114008635 0.0042988467 -0.012585985 0.09439082 -0.043702234 0.012813738 0.100472294
-0.25220042 -0.022556223 -0.0040936437 0.056930754 -0.08457318 0.039155032 0.09214416 -0.37561783
0.060245965 -0.087443165 0.047566067 -0.0127564445 0.022042233 -0.007659374 -0.08752165 -0.046826947
0.016872892 0.15285647 -0.013387331 0.10412617 -0.21381892 0.07018815 -0.14717829 0.021457776
-0.013416073 0.029354287 0.13798383 -0.10201457 -0.11955636 -0.011634259 0.15920924 -0.25425622
-0.114433564 -0.047372878 0.07852993 0.11143012 0.092844434 -0.085231975 -0.00047870172 -0.13644414
0.19024873 -0.008746819 0.09937512 -0.05970002 -0.061386205 -0.0847053 0.011710345 -0.21872927
0.019271396 0.18675247 0.063085906 -0.16870892 0.0927799 -0.07465961 0.12450265 -0.1521371
-0.0036361793 0.07046086 -0.008379584 -0.04477547 -0.046716962 -0.019874565 0.087791786 -0.08061363
-0.06602514 -0.018152978 -0.022853045 -0.1439159 -0.022524523 -0.08793306 -0.057873674 -0.18895198
-0.16140474 -0.060330436 -0.021342069 0.10876978 0.018184502 -0.017407255 0.10863393 -0.10226494
00000000: bbbb 9e3d 2b71 9c3d 5b9d 243d 13f5 50bd
00000010: 0a53 17be d505 61bd 814e 9b3b f883 bd3d
00000020: 73a9 a23c 30b5 173e df7a a6bd 1cf9 f43d
00000030: 22c3 603d 8ebf 69bd c456 9a3b e8e2 0cbe
00000040: b5e4 083e 0674 7c3d 1d78 2b3d 64f1 b03d
00000050: 77c4 5b3e e3ab 73bd 015f ebbd 7074 0dbe
00000060: b0c7 d63d 2ce5 b73d f0e2 103d 0e02 5bbe
00000070: 0032 22bd f2a4 1dbe 2ef9 e5bd 0021 03bd
00000080: 1dc5 babd 4d26 103e 30d3 c6bd 3577 9cbd
00000090: 5ff4 b83c 3f71 8bbc 1166 d53d d612 f13c
000000a0: dfc3 e33d 4b17 d63d 0251 c73d d160 f9bd
000000b0: 19d2 27be 368c 94bd f551 033e b65f 003e
000000c0: d602 b9bc 0fc0 1dbd 18b6 0a3e 573a f1bd
000000d0: 18a8 e13d cc60 e2bd 0b49 a23d 841a b4be
000000e0: e97f 303d cb60 cebd 20a9 d33d 6a7c 313b
000000f0: b85e 1f3c 7225 473c 4cc9 46bd c12b a03d
00000100: 0b72 10be 9305 b3bd 8768 8bbd a79e 52bd
00000110: ab6e 93bd db46 4a3d fc0b 2cbd 83fb 6e3d
00000120: 5683 54be 4597 fdbd 627d 4d3e a3dc b6bd
00000130: 4bbd 413e c65e c33b fb28 1f3e 5f35 68be
00000140: e6d3 043e 67ec 17be 7164 243c d3cb a23d
00000150: 5725 123d 91e0 adbc 2409 b83c da4a 38bb
00000160: 7f17 403e 953c 20bb 163c f2bd cf31 adbd
00000170: f829 983d b1e5 babd f946 813d e235 a2bd
00000180: f2b8 923d e5e4 513e c141 a03d 74bf 1abe
00000190: 7009 273d e893 12be 7296 473e 06f7 b5bd
000001a0: 816e 803d 1e4f 423e ddc3 0dbe 8ade 333c
000001b0: f3f9 483d 123a 0c3e 38b6 ddbc 726b c1bc
000001c0: d472 3cbe 6824 d2bd d325 393e 9dfb 00be
000001d0: 6dce e8bd 5a74 11bc 23b4 073e ba7f b9bd
000001e0: 0b51 81be 8258 8fbb 0473 9bbd b08d c13d
000001f0: 86f1 fb3d 3af3 003c 7504 0fbc 2137 97bc
00000200: 70a8 09be 2120 69bc cb4d 1e3e 35fc 13be
00000210: f469 403d a9b3 b6bd a0ad 93bc 4f6b 6b3d
00000220: 5b33 403d dbe4 f83c e788 883d 2e80 a5bd
00000230: 0c18 7f3d 064e 2f3d 9cef acbb c2a8 22be
00000240: e221 033e 5a5c ef3d 9867 8c3d 1395 c53c
00000250: 1ee5 8d3e 5df5 45bc 9019 f0bb 9e1d ddbc
00000260: c8b5 513e d102 413e a449 87bd da26 343c
00000270: 6b49 023e 5a3f 0bbe 106d 753c 32c7 bdbd
00000280: 50aa 47bd deef 843e af74 9ebc 6058 a8be
00000290: d4e0 32bd 746d 413d 8794 b53d 2cdb 1abe
000002a0: e809 35bd 5c7d e9bd 57dd 8c3b 7235 4ebc
000002b0: f94f c13d 1d01 33bd b6f0 513c 6bc4 cd3d
000002c0: 6a20 81be d4c7 b8bc f923 86bb 3930 693d
000002d0: b434 adbd 0761 203d 14b6 bc3d fb50 c0be
000002e0: 79c4 763d 6715 b3bd a3d4 423d 6800 51bc
000002f0: ea91 b43c 7cfb fabb 8d3e b3bd 9dcd 3fbd
00000300: 0539 8a3c 6886 1c3e 8956 5bbc 1a40 d53d
00000310: 59f3 5abe cebe 8f3d e8b5 16be 38c8 af3c
00000320: 17cf 5bbc 6778 f03c a24b 0d3e 04ed d0bd
00000330: f7d9 f4bd 9e9d 3ebc bf07 233e df2d 82be
00000340: 255c eabd 100a 42bd 4dd4 a03d 7a35 e43d
00000350: 3925 be3d 1a8e aebd 42fa fab9 03b8 0bbe
00000360: 90d0 423e d14e 0fbc 2f85 cb3d 0288 74bd
00000370: 1a70 7bbd f979 adbd bfdc 3f3c 91fa 5fbe
00000380: 0cdf 9d3c 0a3c 3f3e 2f33 813d 08c2 2cbe
00000390: 6303 be3d 23e7 98bd 3ffb fe3d d4c9 1bbe
000003a0: f74c 6ebb c94d 903d 864a 09bc 7c66 37bd
000003b0: 495a 3fbd fccf a2bc 2ecc b33d c218 a5bd
000003c0: 3038 87bd 8eb5 94bc 4f36 bbbc b15e 13be
000003d0: 5985 b8bc 4016 b4bd f20c 6dbd a17c 41be
000003e0: 4947 25be 0c1d 77bd 90d5 aebc b1c2 de3d
000003f0: aaf7 943c a999 8ebc 777b de3d 4870 d1bd

lstm2.weight_hh_l0 f4 [256, 64]
0.03160368 -0.115334794 -0.13192464 0.07638472 -0.123408705 -0.005765677 -0.02012667 0.092165135
0.013942683 -0.034316607 0.0051225987 0.06197083 -0.022001998 -0.06517765 -0.08480264 0.08969431
0.044800892 -0.18006061 -0.18932103 0.0098523805 0.065327816 0.17127223 -0.09062773 -0.07972379
0.062022507 0.041533574 -0.047040056 -0.107589595 0.07427989 -0.12724575 -0.004479695 0.19453229
-0.07883344 -0.11985899 -0.06361111 0.13834326 -0.05717605 0.06989907 -0.060735554 -0.09019416
0.090586156 0.026354846 0.07090149 -0.020538427 0.19029188 -0.1693598 -0.041999195 -0.035490014
0.18192694 -0.029820058 -0.013893842 0.15186739 -0.049772464 0.035047457 -0.15380748 -0.095551945
0.13816664 0.21884792 0.09181421 -0.079098545 0.05120225 -0.040118337 0.014118614 0.03232062
-0.040038 -0.16689365 -0.002367298 -0.01403949 0.00078780635 -0.08665544 0.09096328 0.115573026
0.0076693143 0.0029823782 -0.09768921 -0.1207533 0.16883087 0.05484051 -0.029033465 0.10518889
0.05647726 0.0029011213 -0.011065706 0.02900816 -0.25847164 -0.0070006265 -0.048536878 0.044522114
0.0074668117 0.095949 -0.07301758 -0.011284068 0.05359017 0.0085418355 -0.066366166 -0.06977179
-0.11199718 -0.02051627 0.024299955 0.026118245 -0.18510771 0.078685835 -0.112197645 -0.06488082
0.019121038 -0.20294762 0.02570436 -0.1262412 -0.0823835 0.030460475 0.05872245 0.031604882
-0.05468535 -0.034779653 -0.061004482 0.13301182 -0.14559571 -0.19257498 -0.14118467 -0.01105373
0.075486846 -0.19262893 -0.08801037 0.09314176 -0.016105993 0.08959917 -0.12810451 -0.1729119
-0.033458754 -0.16339165 0.083693326 0.05843723 -0.01722555 0.06972081 0.10582573 0.066312514
-0.09833625 0.051639788 0.065197475 -0.15959084 -0.16510575 -0.0821303 -0.06738885 0.06982583
-0.048357476 -0.07906487 0.060625758 -0.09952121 -0.01899603 0.15651959 -0.17233029 -0.13320024
-0.17476156 -0.056345027 -0.06479727 0.080623835 -0.12830423 -0.14709502 -0.03577147 -0.113304414
-0.028202588 0.12769376 0.011711029 -0.06828499 -0.19117464 -0.06402282 0.045580275 0.12292746
-0.04242091 0.064526394 0.025535062 -0.09845313 0.040899258 -0.16696765 -0.04888121 -0.025558883
-0.18492246 0.0045600077 -0.07912651 -0.020670922 -0.047909513 -0.25584245 -0.097372174 0.030765925
0.00046069693 -0.2236896 0.071082585 -0.039674547 0.022255411 -0.041290384 0.03597817 -0.0419921
-0.0714342 -0.017398456 0.046070006 -0.045985572 -0.02629356 -0.090475895 -0.027394036 0.11394122
-0.1764701 0.1156358 0.009268713 -0.10977862 0.07482275 0.14206497 -0.03394947 0.16497041
0.0071361675 0.05496054 -0.11236005 -0.11447072 -0.1705367 0.011856068 -0.11788477 -0.08864657
-0.08863409 0.12233623 -0.13249813 0.08133309 -0.08408568 0.15773714 -0.021121586 0.079720885
-0.09239033 0.12814811 -0.0976208 -0.11697535 -0.14147748 0.10925374 -0.039455198 0.045144796
-0.018847454 0.016378546 0.015564903 -0.03907577 -0.0008063189 -0.085187085 0.0077755377 -0.08773135
-0.051260807 0.021621855 0.01723473 -0.042652335 -0.15512179 -0.03325492 -0.075681895 0.026066555
0.06380378 0.10168397 -0.09193729 0.068295576 -0.08953311 0.0025494606 -0.08256792 0.02239967
00000000: dc72 013d a634 ecbd 4117 07be 986f 9c3d
00000010: b4bd fcbd 01ee bcbb b0e0 a4bc 13c1 bc3d
00000020: da6f 643c 928f 0cbd 79db a73b 20d5 7d3d
00000030: 893d b4bc dc7b 85bd 02ad adbd a7b1 b73d
00000040: 2481 373d cf61 38be 5fdd 41be e16b 213c
00000050: 97ca 853d fd61 2f3e 089b b9bd 3a46 a3bd
00000060: 500b 7e3d 1c1f 2a3d 13ad 40bd ef57 dcbd
00000070: 0e20 983d b64c 02be 68ca 92bb 7933 473e
00000080: 6d73 a1bd a178 f5bd 8b46 82bd dba9 0d3e
00000090: 6f31 6abd 3e27 8f3d d8c5 78bd b7b7 b8bd
000000a0: 3c85 b93d 1ee6 d73c cd34 913d 3440 a8bc
000000b0: e0db 423e a86c 2dbe 5907 2cbd fa5d 11bd
000000c0: 0e4b 3a3e 3249 f4bc ffa2 63bc 2083 1b3e
000000d0: 36de 4bbd ec8d 0f3d b57f 1dbe bdb0 c3bd
000000e0: 8e7b 0d3e ab19 603e 1709 bc3d 6bfe a1bd
000000f0: 73b9 513d 2053 24bd c251 673c a062 043d
00000100: e3fe 23bd 2be6 2abe ab24 1bbb e405 66bc
00000110: ca84 4e3a 6878 b1bd f54a ba3d 8db1 ec3d
00000120: df4e fb3b 0174 433b 4811 c8bd 824d f7bd
00000130: 00e2 2c3e 71a0 603d 97d7 edbc 466d d73d
00000140: b354 673d bd20 3e3b ef4c 35bc 85a2 ed3c
00000150: 6556 84be 8365 e5bb 9bce 46bd d25c 363d
00000160: 28ac f43b e980 c43d 3e8a 95bd d0e0 38bc
00000170: 5e81 5b3d 0ef3 0b3c fcea 87bd 83e4 8ebd
00000180: c75e e5bd bd11 a8bc b310 c73c eef5 d53c
00000190: e08c 3dbe 0a26 a13d e1c7 e5bd 3ce0 84bd
000001a0: b9a3 9c3c 80d1 4fbe f391 d23c 6045 01be
000001b0: aeb8 a8bd 3f88 f93c f486 703d 1f74 013d
000001c0: bffd 5fbd 1c75 0ebd d6df 79bd 4034 083e
000001d0: 0b17 15be 6032 45be b792 10be b41a 35bc
000001e0: d998 9a3d 8540 45be c83e b4bd 1bc1 be3d
000001f0: b7f0 83bc c57f b73d d42d 03be d10f 31be
00000200: 0c0c 09bd 2450 27be 6867 ab3d e05b 6f3d
00000210: 991c 8dbc c9c9 8e3d 29bb d83d dbce 873d
00000220: 8464 c9bd 3e84 533d 4186 853d c86b 23be
00000230: 7b11 29be ee33 a8bd 2a03 8abd d800 8f3d
00000240: 7d12 46bd c3ec a1bd b752 783d c7d1 cbbd
00000250: 909d 9bbc ac46 203e 5a77 30be a565 08be
00000260: b2f4 32be 0bca 66bd 6eb4 84bd 1c1e a53d
00000270: 2f62 03be 14a0 16be 1b85 12bd 250c e8bd
00000280: 1d09 e7bc 27c2 023e 9edf 3f3c 00d9 8bbd
00000290: 49c3 43be 651e 83bd 62b2 3a3d 64c1 fb3d
000002a0: 8cc1 2dbd 6a26 843d e82e d13c cba1 c9bd
000002b0: fb85 273d 91f9 2abe aa37 48bd dd60 d1bc
000002c0: 505c 3dbe 1e6c 953b 140d a2bd 1156 a9bc
000002d0: c43c 44bd c8fd 82be 106b c7bd d208 fc3c
000002e0: b289 f139 e30e 65be bf93 913d c781 22bd
000002f0: fb50 b63c 1b20 29bd d85d 133d e9ff 2bbd
00000300: 184c 92bd 3587 8ebc e7b3 3c3d 5e5b 3cbd
00000310: 9865 d7bc 6d4b b9bd 7569 e0bc 045a e93d
00000320: 94b4 34be 76d2 ec3d cddb 173c 9dd3 e0bd
00000330: ac3c 993d 7b79 113e 990e 0bbd 01ee 283e
00000340: 83d6 e93b 4e1e 613d 071d e6bd a06f eabd
00000350: 2ca1 2ebe f43f 423c 926d f1bd 558c b5bd
00000360: ca85 b5bd 6b8b fa3d 97ad 07be f791 a63d
00000370: 1d35 acbd d885 213e 2d07 adbc b444 a33d
00000380: 2437 bdbd 4239 033e 6aed c7bd c690 efbd
00000390: 79df 10be 6dc0 df3d c69b 21bd c0e9 383d
000003a0: fa65 9abc 4d2c 863c ef03 7f3c ea0d 20bd
000003b0: 255f 53ba 9176 aebd f0c9 fe3b 7eac b3bd
000003c0: daf6 51bd 5120 b13c d92f 8d3c 37b4 2ebd
000003d0: 3fd8 1ebe 5036 08bd 1cff 9abd 8789 d53c
000003e0: 8eab 823d af3f d03d 9e49 bcbd 8dde 8b3d
000003f0: 235d b7bd da14 273b 5f19 a9bd 837f b73c

lstm2.bias_ih_l0 f4 [256]
-0.01342261 -0.042750046 0.21236265 -0.0888241 0.15841386 0.30175763 -0.0072911866 -0.013490085
0.016229132 0.15611546 0.020798855 0.085767604 0.10784385 -0.018016757 0.0017143448 0.21044682
0.0076356623 -0.10434783 -0.06359637 -0.0026918722 0.056199543 -0.048133194 -0.04959361 0.102981985
0.047040828 0.091887414 0.094623014 -0.05487709 -0.011140682 -0.06463337 0.015783302 -0.06826614
0.16050567 0.07916214 -0.042240024 -0.088832214 -0.0468688 -0.07945041 -0.15312447 -0.03713894
-0.01139086 0.022998031 0.05393197 0.021380935 0.085545965 -0.13908744 -0.099594295 -0.074613556
0.2513559 0.030534105 0.006408455 0.027063757 0.02339737 -0.018941494 0.02480562 0.07995772
0.066579625 0.00931249 0.21509828 0.0851512 0.27269515 -0.10312611 -0.09780902 0.09599565
0.028840095 -0.05756244 -0.020674894 0.14316346 0.17383039 -0.06804047 0.043868154 -0.046008095
-0.023680253 -0.063885085 0.03720083 0.03167281 -0.025035422 0.17094715 0.03241116 -0.048350118
0.16500542 0.12173803 0.05263163 0.27152398 0.12646094 -0.092423014 0.12647973 0.21717827
0.018257886 0.11337121 0.0731912 0.11422754 0.08425168 0.18921185 -0.040640038 0.1298233
0.06541787 0.009669465 -0.019559141 -0.053587306 0.12587048 0.12186787 -0.10492225 0.15965272
0.07971106 0.13104723 -0.063976415 0.06880013 0.1919032 0.027952736 0.13874395 0.30506855
0.13831502 0.09743563 -0.008641003 0.21873274 -0.0045201946 -0.023207853 0.026916515 -0.09198061
0.12240596 0.14922318 -0.024293855 -0.010639557 -0.010140972 0.0028868942 -0.10481601 0.1190181
-0.035951316 -0.13308485 -0.041835014 0.08949107 0.12437182 -0.04210592 -0.1332791 -0.030989794
-0.025695965 -0.069991626 0.13818371 0.04788723 0.035834555 0.045853566 0.053843513 0.0006781627
0.018331137 -0.04274494 0.10234287 0.18931572 -0.03624188 0.058822118 -0.13423565 0.018200811
0.13882902 0.048368506 -0.030802751 0.22195014 -0.054097626 0.06324425 -0.11619552 -0.04743004
0.13070653 0.0908779 -0.019365327 -0.034168478 0.038146578 -0.05740773 -0.038113005 0.17148213
0.08179266 -0.099665515 0.051676575 0.13895044 -0.061182704 0.099530235 0.053755064 0.040430486
0.018960368 0.103644125 0.12055188 -0.1289337 0.09669896 -0.10633538 0.0068397396 -0.030862167
-0.05103654 0.14494306 0.06441688 0.03700366 0.03876744 -0.117712796 -0.05394163 0.15510438
-0.047830835 0.12651986 0.25585315 0.22268952 0.13929753 0.34082556 -0.010610756 -0.038941726
0.18930401 0.0049839113 0.16474964 0.192758 0.14556333 0.1536946 0.0092732785 0.053623717
0.039659414 0.18870033 -0.015200672 0.09777506 0.075685225 -0.08530025 0.13790141 0.22928107
-0.0760007 0.07059611 0.0076140785 0.016002823 -0.024247514 0.09400292 0.0057321764 0.085238636
-0.028831726 0.044268575 0.023278324 0.11452508 -0.018868292 -0.11303519 -0.0707833 -0.032132026
-0.03261973 0.00021733105 0.10534354 0.06463383 0.076508194 -0.0948763 -0.07437227 0.02719884
-0.0033123496 0.06818111 0.07918207 0.13613605 0.14944808 0.08697345 0.14613168 -0.13407326
-0.031149602 -0.05447041 0.17149945 0.15263964 0.16622344 -0.05683211 -0.07338671 0.08826072
00000000: 82ea 5bbc ac1a 2fbd 9875 593e 69e9 b5bd
00000010: 3e37 223e fa7f 9a3e e8ea eebb 8405 5dbc
00000020: f5f2 843c bbdc 1f3e 5c62 aa3c eda6 af3d
00000030: 3ddd dc3d e197 93bc deb3 e03a 5f7f 573e
00000040: 9434 fa3b 51b4 d5bd d03e 82bd 1f6a 30bb
00000050: 7e31 663d 5027 45bd ab22 4bbd 38e8 d23d
00000060: e2ad 403d 782f bc3d b6c9 c13d cdc6 60bd
00000070: 6887 36bc 805e 84bd fc4b 813c 1ecf 8bbd
00000080: 995b 243e c31f a23d e003 2dbd aaed b5bd
00000090: 80f9 3fbd e6b6 a2bd a9cc 1cbe 001f 18bd
000000a0: bba0 3abc 5e66 bc3c c5e7 5c3d 1227 af3c
000000b0: b932 af3d f06c 0ebe 18f8 cbbd fece 98bd
000000c0: b8b1 803e a922 fa3c 04fe d13b d0b4 dd3c
000000d0: d7ab bf3c 312b 9bbc 2835 cb3c e0c0 a33d
000000e0: e65a 883d 6a93 183c b942 5c3e c163 ae3d
000000f0: b39e 8b3e c833 d3bd 1850 c8bd 5e99 c43d
00000100: 1042 ec3c 98c6 6bbd 655e a9bc 7199 123e
00000110: 9800 323e cd58 8bbd 18af 333d fc72 3cbd
00000120: 17fd c1bc 2fd6 82bd e65f 183d 59bb 013d
00000130: 1617 cdbc c50c 2f3e 91c1 043d c60a 46bd
00000140: 2ef7 283e ca51 f93d 4494 573d 3105 8b3e
00000150: fa7e 013e 4748 bdbd e783 013e fb63 5e3e
00000160: 9091 953c 2a2f e83d 45e5 953d 21f0 e93d
00000170: 258c ac3d c0c0 413e 2b76 26bd 66f0 043e
00000180: cef9 853d ad6c 1e3c 7e3a a0bc 5d7e 5bbd
00000190: 31e4 003e dd95 f93d 7ae1 d6bd 017c 233e
000001a0: 8d3f a33d 3f31 063e 1106 83bd 15e7 8c3d
000001b0: 4682 443e 23fd e43c e512 0e3e f231 9c3e
000001c0: 74a2 0d3e 558c c73d fe92 0dbc 7afb 5f3e
000001d0: 241e 94bb 651e bebc 0680 dc3c 5460 bcbd
000001e0: faaf fa3d f6cd 183e e803 c7bc 8951 2ebc
000001f0: 5226 26bc 0c32 3d3b c7a9 d6bd c3bf f33d
00000200: b041 13bd 6547 08be 315b 2bbd 1847 b73d
00000210: a7b6 fe3d 4277 2cbd 517a 08be 4fde fdbc
00000220: 5880 d2bc c557 8fbd 0880 0d3e 6625 443d
00000230: 41c7 123d f3d0 3b3d 048b 5c3d bac6 313a
00000240: 2e2b 963c 5115 2fbd 2399 d13d fbdb 413e
00000250: 5e72 14bd 76ef 703d 1275 09be de19 953c
00000260: 3229 0e3e 0e1e 463d 0d56 fcbc e646 633e
00000270: 7995 5dbd 3486 813d ebf7 edbd 0046 42bd
00000280: efd7 053e 311e ba3d 09a4 9ebc 3ff4 0bbd
00000290: 963f 1c3d 5e24 6bbd 621c 1cbd 0399 2f3e
000002a0: e982 a73d 6f1d ccbd d1aa 533d 0649 0e3e
000002b0: b79a 7abd 82d6 cb3d 452e 5c3d 709a 253d
000002c0: c652 9b3c 5f43 d43d e7e3 f63d 3207 04be
000002d0: 1b0a c63d 5dc6 d9bd e51f e03b a8d2 fcbc
000002e0: b10b 51bd f46b 143e ffec 833d 2691 173d
000002f0: 9bca 1e3d 6813 f1bd e6f1 5cbd afd3 1e3e
00000300: 44ea 43bd 6c8e 013e 2fff 823e b908 643e
00000310: 03a4 0e3e b080 ae3e bdd8 2dbc 5c81 1fbd
00000320: e9d8 413e 1450 a33b 21b4 283e 5a62 453e
00000330: 8e0e 153e 1e62 1d3e f3ee 173c 8ba4 5b3d
00000340: e971 223d a93a 413e 3d0c 79bc 4a3e c83d
00000350: db00 9b3d e6b1 aebd 0736 0d3e a8c8 6a3e
00000360: 41a6 9bbd b194 903d 857f f93b 5a18 833c
00000370: b9a2 c6bc 9a84 c03d fbd4 bb3b 9891 ae3d
00000380: 8330 ecbc f752 353d 2fb2 be3c 208c ea3d
00000390: ad91 9abc fe7e e7bd d6f6 90bd df9c 03bd
000003a0: 449c 05bd 5ce3 6339 5bbe d73d be5e 843d
000003b0: 54b0 9c3d 814e c2bd 7d50 98bd 1ad0 de3c
000003c0: 0114 59bb 8aa2 8b3d 362a a23d 4067 0b3e
000003d0: eb08 193e 231f b23d 8ba3 153e 804a 09be
000003e0: 732d ffbc 5d1c 5fbd 8d9d 2f3e 914d 1c3e
000003f0: 7a36 2a3e c9c8 68bd c54b 96bd 09c2 b43d

lstm2.bias_hh_l0 f4 [256]
-0.1073847 -0.060574386 0.077034965 -0.056657217 -0.0002549925 0.23813502 0.025824295 -0.011057965
0.13930225 0.19519159 0.20444246 0.16546476 -0.033738695 0.110782795 0.21000332 0.08014349
0.030327324 -0.088647194 -0.024136268 0.10028413 0.018869564 0.009190603 0.08824941 0.08029004
-0.11239002 -0.017584 0.000510785 -0.11423885 -0.15859465 0.027559366 0.11518793 -0.10525981
0.17835842 0.021682039 0.015990421 0.048992492 -0.0340614 -0.14761345 -0.10714887 0.008985216
0.04493014 0.00848534 0.1335361 -0.016149817 -0.010098107 0.04139161 0.10459285 0.05595873
0.1041842 0.11170565 -0.088468105 0.16654292 0.00050558476 0.17872234 -0.020741872 -0.034152135
0.025410673 -0.088193506 0.18830721 0.23516525 0.09660027 -0.0072589545 -0.025314076 0.08737981
0.051423967 -0.020133516 -0.0042405394 0.13554333 0.08825395 -0.035014264 0.11778897 0.10377313
0.103021584 0.018305913 0.2119865 -0.07829276 0.19826849 0.029857919 0.12534334 -0.08999835
-0.02018141 0.06001467 0.03286765 0.13807862 0.2603963 0.07056247 0.13720623 0.1272668
0.059306327 0.22749141 -0.059851643 0.05157384 -0.026741179 -0.021212751 -0.19294219 0.099994965
-0.1078655 0.14688751 0.06500077 -0.061858248 0.03742948 0.08603924 0.021810515 0.1477161
0.03756431 0.14735754 0.029775938 0.1779793 0.06660538 0.09602902 0.0849824 0.09819717
0.20370051 0.07556888 0.16500834 0.25001442 -0.10890937 0.10419651 -0.028006513 0.14313869
0.13525465 -0.072815225 0.1744939 -0.03880533 0.10545207 -0.0901644 -0.013331137 0.19568793
-0.0847031 -0.021226771 -0.07339032 0.09893376 0.089888744 -0.04788022 -0.10951457 -0.05845654
0.0011962359 0.12131587 0.0130633805 -0.084904164 0.037309535 -0.090923294 0.1321544 0.070157416
0.018704923 -0.043950465 -0.06054391 0.13392335 -0.017226553 0.03600728 -0.12456696 0.19898468
0.06356608 -0.032016724 -0.12024985 0.12622428 0.16791874 -0.059899297 0.08938914 0.066608764
0.12321567 0.114731796 0.029805854 0.059238505 0.035876308 -0.08108058 0.054336566 -0.052590374
0.043468546 0.042773247 0.09311706 -0.031774703 -0.062120695 -0.032929055 0.11114473 -0.08708798
-0.10651358 -0.0325752 -0.048517674 -0.17397593 -0.14160644 -0.008599145 0.15286572 -0.030133605
0.08843333 0.207917 0.07979463 0.17518471 0.058111902 -0.15674786 -0.04128169 0.18080074
-0.020656627 0.03080965 0.071268514 0.09467213 0.0022854381 0.22887391 -0.018315842 0.097568296
0.030787613 0.18115355 -0.014194641 0.21427786 -0.04818238 -0.003755439 0.18893965 -0.004547896
0.17973007 0.005707045 0.026477238 -0.01540667 0.008959388 0.017308006 0.19244713 0.10886279
0.05255069 0.023348456 0.02471301 0.045122888 -0.08328651 0.07209121 0.101003036 0.09166117
-0.0014568252 -0.017557599 0.0068760426 -0.111723356 0.00022073474 0.022947231 0.03494292 -0.031623293
0.09923945 0.15564464 0.1437445 -0.005178241 -0.0389855 0.04174447 -0.033090208 0.103522725
0.1271594 0.0719051 0.044694316 0.18258359 -0.039111838 -0.0037162828 0.101023056 -0.13926437
0.11328071 -0.068696916 0.20182589 0.15464033 0.29999134 0.018212358 -0.074791536 0.12602793
00000000: 82ec dbbd d91c 78bd 82c4 9d3d 6611 68bd
00000010: 84b0 85b9 abd9 733e 798d d33c 782c 35bc
00000020: 40a5 0e3e 4ee0 473e 5d59 513e 986f 293e
00000030: 9631 0abd 17e2 e23d 1c0b 573e 4522 a43d
00000040: 0271 f83c a98c b5bd 6cb9 c5bc c461 cd3d
00000050: 5894 9a3c 2f94 163c 1bbc b43d 1b6f a43d
00000060: bd2c e6bd 520c 90bc 33e6 053a 0ff6 e9bd
00000070: a366 22be 2ec4 e13c a6e7 eb3d 7592 d7bd
00000080: 97a3 363e 889e b13c 58fe 823c 5aac 483d
00000090: f783 0bbd fb27 17be de70 dbbd ba36 133c
000000a0: ab08 383d 1806 0b3c b0bd 083e 9f4c 84bc
000000b0: 8872 25bc 408a 293d c734 d63d fb34 653d
000000c0: 875e d53d efc5 e43d c42e b5bd 3a8a 2a3e
000000d0: 3889 043a fd02 373e dcea a9bc 1ce3 0bbd
000000e0: 0b2a d03c cc9e b4bd 9bd3 403e 29cf 703e
000000f0: 5dd6 c53d 86dc edbb 775f cfbc 30f4 b23d
00000100: f0a1 523d 0bef a4bc 39f4 8abb dfcb 0a3e
00000110: 7dbe b43d 1e6b 0fbd 583b f13d 0287 d43d
00000120: fbfc d23d 48f6 953c fd12 593e f457 a0bd
00000130: e506 4b3e 9898 f43c 015a 003e 0e51 b8bd
00000140: 7c53 a5bc f1d1 753d 3ba0 063d 7b64 0d3e
00000150: aa52 853e 0e83 903d ca7f 0c3e 3a52 023e
00000160: 31eb 723d 82f3 683e ff26 75bd 173f 533d
00000170: 5110 dbbc 5dc6 adbc a392 45be 29ca cc3d
00000180: 96e8 dcbd ae69 163e 201f 853d 135f 7dbd
00000190: a84f 193d 5735 b03d f7ab b23c e442 173e
000001a0: 09dd 193d e5e4 163e abec f33c 3540 363e
000001b0: 6768 883d ddaa c43d 410b ae3d 991b c93d
000001c0: de96 503e dbc3 9a3d f2f7 283e e401 803e
000001d0: e00b dfbd fb64 d53d ea6d e5bc f392 123e
000001e0: 3280 0a3e 2620 95bd 87ae 323e 56f2 1ebd
000001f0: 41f7 d73d 1da8 b8bd d76a 5abc 6b62 483e
00000200: d278 adbd c4e3 adbc aa4d 96bd c89d ca3d
00000210: 9717 b83d 0d1e 44bd 2d49 e0bd 2070 6fbd
00000220: 04cb 9c3a 7474 f83d ca07 563c 3ce2 adbd
00000230: e2d1 183d fe35 babd 7c53 073e b1ae 8f3d
00000240: 113b 993c 6705 34bd e4fc 77bd 3423 093e
00000250: b31e 8dbc 5f7c 133d f61c ffbd a4c2 4b3e
00000260: ef2e 823d f823 03bd 8e45 f6bd f040 013e
00000270: e4f2 2b3e f758 75bd a711 b73d 2d6a 883d
00000280: 7f58 fc3d 81f8 ea3d 682b f43c 13a4 723d
00000290: 09f3 123d 930d a6bd 0590 5e3d 0169 57bd
000002a0: 130c 323d 0033 2f3d 28b4 be3d 3126 02bd
000002b0: 4572 7ebd 9ee0 06bd d99f e33d 2f5b b2bd
000002c0: cb23 dabd 936d 05bd 78ba 46bd bf26 32be
000002d0: 4701 11be 6ee3 0cbc d588 1c3e c0da f6bc
000002e0: 891c b53d 32e8 543e 5e6b a33d 9f63 333e
000002f0: bf06 6e3d 8382 20be fd16 29bd d423 393e
00000300: 1638 a9bc 8564 fc3c 3af5 913d 76e3 c13d
00000310: 4ac7 153b ec5d 6a3e 1b0b 96bc e3d1 c73d
00000320: 4e36 fc3c 5180 393e a490 68bc a86b 5b3e
00000330: e35a 45bd d01d 76bb 6579 413e 8406 95bb
00000340: 290b 383e 2a02 bb3b cbe6 d83c 426c 7cbc
00000350: 66ca 123c 85c9 8d3c dc10 453e 74f3 de3d
00000360: 643f 573d 4345 bf3c f072 ca3c c7d2 383d
00000370: 1e92 aabd 8ea4 933d aeda ce3d dab8 bb3d
00000380: f1f2 beba f4d4 8fbc 6d50 e13b 37cf e4bd
00000390: 0875 6739 d5fb bb3c 4f20 0f3d 6d87 01bd
000003a0: 0e3e cb3d 4f61 1f3e c231 133e 3cae a9bb
000003b0: 42af 1fbd 40fc 2a3d 9989 07bd b903 d43d
000003c0: 1336 023e fb42 933d 6311 373d 31f7 3a3e
000003d0: bc33 20bd e18c 73bb 2de5 ce3d 529b 0ebe
000003e0: b8ff e73d f8b0 8cbd 72ab 4e3e 095a 1e3e
000003f0: 7798 993e 1532 953c 4e2c 99bd 770d 013e
