saved_model/DAP_Model_Load.pt (torch, 231010 bytes, 12 tensors)

lstm1.weight_ih_l0 f4 [256, 3]
00000000: 3190 4dbd 8fef 81be 2013 ddbd 11f2 9abd
00000010: 016d 45be e691 d53d 8b4c 3f3d 1a55 f73d
00000020: 3470 5bbd b01a 3bbc 3b1a 1a3e 8a9e b9bd
00000030: a49e 05be 787b 9cbe b025 4abe ebb5 a63d
00000040: 385b 523c ff6e 903c cdc1 203c dcca 043e
00000050: 8762 c5bd 9aa3 d93b 102d 1ebd 458d d6bd
00000060: 2e23 823a a1e9 6b3d c89e a9bc 09a7 103d
00000070: 200f f0bd 3c11 1ebb dd9e 2f3e 02b5 af3d
00000080: 8ec4 7e3c df31 943d 3dc7 f4bb aad6 16be
00000090: bc7a 2a3e 2548 87bd 98ce 84be f69e 23bd
000000a0: de60 423d 9e36 8a3e 2db1 e93b 3490 c23a
000000b0: 089a 17bd 6530 f1bb c232 0d3d ac85 5ebe
000000c0: 7fed 4bbc 0307 f13c 0256 84bd b115 8cba
000000d0: 5d5d 57bd bffc 3bbe be1d c33e 3fa4 453d
000000e0: 57bf 83bd f5ae f3bd ef7e 4bbe 1f9b 5abc
000000f0: 26a8 2a3e 8550 1bbd 5a05 ef3d 7943 183d
00000100: 654e 43bd a90d 603e 57b0 88bd fad2 5b3d
00000110: 4ce0 3abe b424 d3bd c3fe 9b3d a014 25be
00000120: bfde bebd b69c 753d fa8c 363d 66da 8cbd
00000130: e5b7 253e 303a f53d d75a ff3d d522 b03d
00000140: be37 14be bc4e ebbc eb3c 5bbe 5c58 8f3d
00000150: 7419 923d 8f36 b03d b9d8 e83d f77c 1fbd
00000160: 7e7f 433d e847 9d3d 546d d7bd c2cc b5bd
00000170: aef5 7ebc 0b50 4cbd d2a8 0dbe 94b8 163e
00000180: 4e73 ddbd 30e7 24be 4770 9dbd 47eb eb3d
00000190: bcc5 85ba b5b9 3a3b ba86 923d 1398 c93c
000001a0: af8d a6be 81d8 d9bd 17dc fcbd 180f 043e
000001b0: 737b 243d 8b6c 74bd 75e1 b4bd 863c 543d
000001c0: 1d03 6b3d 299a 82bc 9d25 173e 2505 16bd
000001d0: 827d 653d d9ea 353e b544 a43c 519d a23d
000001e0: 2cb2 2e3e dc30 ea3d e70f 173d 0714 c23d
000001f0: ea72 b6bc d9a9 05be 68f1 3abc 9f28 62be
00000200: 455f a5be cca0 ba3d 6a07 1b3c 4b6b 033e
00000210: 33bb 223e 9581 98bc f0f5 373e e15e 3b3d
00000220: 77da 7e3d bbc8 91bd afe8 f1bd 17d0 f6bd
00000230: 94b0 05be a76e 0a3e 2f84 8dbb 3b52 c6bb
00000240: b573 e33c 835c c33d ba53 323d 76a4 7ebc
00000250: 963c d6bc b2f9 e93c 4236 a0bc 136d b93c
00000260: 01c7 56be 9198 123d 9300 8f3c f218 07bd
00000270: 9c90 95bd 8601 293e 2d15 983d b96d 683c
00000280: 93dd a6bc 64c2 e53d f402 f2bc 1a4b 4b3e
00000290: e1aa f8bd 534c 9cbd 6ab8 cabe 27cb 593d
000002a0: 642d 0c3d ce9f a83d f8ce 1ebe 77bf 9c3d
000002b0: a349 cbbd ea68 8d3d 4892 c03d 39f3 18be
000002c0: d622 65bd 5307 2abe e274 02be 038e 54bb
000002d0: 510e 8a3d 2f9b 213d 4e4c 50bd b557 9f3d
000002e0: 8f11 ec3c 7057 cc3d 9e70 783e a7c0 22be
000002f0: 9b89 343e f7b1 013e b0d5 dd3b 061b d2bd
00000300: d0ab a33c d86c edbd 3d53 c4bd 41ed 563d
00000310: 5a51 d0bd e1fe 9c3e b112 46be 23fd 283e
00000320: bffc 03bd 3033 fb3d 2cf4 883e 2a97 483e
00000330: c170 c93d 9abd a5bd f7cb 3a3d a3b4 30bd
00000340: 65a4 28bd 2c0d d23d 1aaf 2cbc 8480 343e
00000350: d660 d33d 852a 2a3e d793 4abd abcf ea3d
00000360: 4810 1c3b 1835 93bd 3082 423d 48e3 43bd
00000370: 63d2 c4bd 5f62 cb3d 4df0 533e 6e77 bb3d
00000380: 31ab 323e df72 783d 5bfa b63c 1c36 e83d
00000390: 0ad8 8f3d d609 a83d 6374 3bbe d4d8 53bb
000003a0: 0423 abbd 7c13 973e 1df9 68bb f0d0 8a3e
000003b0: 23c9 d0bd 7fb7 ea3d 2994 bb3d dac5 08be
000003c0: e2c8 4ebd 58c3 9d3d f48a d5bd 6c92 b8bd
000003d0: 3169 02be 6730 28be 6a1c 4f3d b6d2 113e
000003e0: ca14 2f3d e64c 09bc 74f0 c13d 51a0 19be
000003f0: 0d11 353d f4a6 64bd 44ad 0bbd 5f2b 7b3d
-0.05018634 -0.2537808 -0.107946634 -0.07565702 -0.19279863 0.104282185 0.046703856 0.12076779
-0.053573802 -0.011419937 0.15049069 -0.09063442 -0.13048798 -0.3056295 -0.19740939 0.08140167
0.012839131 0.017631052 0.009811831 0.1296801 -0.09637933 0.0066418173 -0.038617194 -0.10476164
0.0009928697 0.057595853 -0.020705596 0.035315547 -0.11721635 -0.002411916 0.17150445 0.085794464
0.015549792 0.07236075 -0.00747004 -0.14730325 0.16648382 -0.06605557 -0.2593887 -0.03994652
0.04745566 0.26994795 0.0071317167 0.0014844001 -0.03701213 -0.0073605054 0.034472235 -0.2173068
-0.01244676 0.029422289 -0.06461717 -0.0010687617 -0.052579273 -0.18358134 0.3810863 0.04825234
-0.064329796 -0.11898605 -0.1987264 -0.013342648 0.16665706 -0.037918586 0.116709426 0.037173722
-0.047682185 0.21880211 -0.06674259 0.053668 -0.18249625 -0.10309735 0.07616951 -0.16121149
-0.09319829 0.059963904 0.04456804 -0.06877594 0.16183431 0.11973989 0.12468498 0.08600394
-0.14474389 -0.028724067 -0.21409957 0.06999275 0.07133761 0.08604156 0.113694616 -0.038937535
0.047729008 0.07679731 -0.105188996 -0.08876945 -0.015561504 -0.049881022 -0.13833931 0.14718848
-0.10813008 -0.16103816 -0.07687431 0.11519485 -0.0010206024 0.0028492038 0.07154603 0.024608647
-0.3252997 -0.10636998 -0.12346666 0.12896383 0.040156793 -0.059673827 -0.08832065 0.051815532
0.057376016 -0.01594265 0.14760442 -0.036626 0.056027897 0.17765369 0.020052293 0.07940162
0.17060155 0.114351004 0.0368804 0.09476476 -0.022271592 -0.13053073 -0.011410095 -0.22085808
-0.32299247 0.09112701 0.009462217 0.12833898 0.15891723 -0.018616477 0.17964911 0.04574478
0.062220063 -0.071183644 -0.11811959 -0.12051409 -0.1305564 0.13518773 -0.004318736 -0.006052283
0.027765134 0.095391296 0.04353688 -0.01554214 -0.026151937 0.028561447 -0.019557122 0.022635018
-0.20974351 0.03579003 0.017456328 -0.032982774 -0.07302973 0.16504487 0.07425914 0.014186316
-0.020369327 0.11218718 -0.029542424 0.19852868 -0.121419676 -0.07631745 -0.39593822 0.053172257
0.034222975 0.08233605 -0.1550864 0.076537065 -0.099261545 0.069047764 0.09402901 -0.14936532
-0.055941425 -0.16604356 -0.127399 -0.0032433278 0.06741012 0.039454635 -0.05085402 0.07780401
0.028816966 0.09977615 0.2426171 -0.15893804 0.17630617 0.12665544 0.0067698583 -0.102590606
0.019979388 -0.11593026 -0.09586189 0.052472357 -0.101717666 0.30663207 -0.19343068 0.16502814
-0.03222346 0.122656226 0.26748788 0.19588915 0.09835959 -0.08092804 0.045604672 -0.04314102
-0.041172404 0.102564186 -0.010539794 0.1762715 0.10321204 0.16617782 -0.049457397 0.11465391
0.0023813415 -0.07187861 0.047487438 -0.047824174 -0.096104406 0.09930872 0.20697136 0.09153639
0.17448117 0.060656425 0.022336176 0.113384455 0.07023628 0.08205001 -0.18306117 -0.0032325285
-0.08356288 0.29507053 -0.0035548874 0.27112532 -0.10194614 0.1146078 0.09159119 -0.13356724
-0.050484546 0.077032745 -0.10426894 -0.09012303 -0.1273544 -0.16424714 0.050564207 0.14240536
0.042744435 -0.00838015 0.09469691 -0.15002562 0.044205714 -0.05582328 -0.034100786 0.06132066

lstm1.weight_hh_l0 f4 [256, 64]
00000000: 859c 8d3d 6c81 2bbe 10dd 283e e73f 1f3d
00000010: 8c57 37be 6a0b 97bc 673e d83c 0ef9 843b
00000020: 4173 30bd 9ab2 df3d e649 7dbd aca9 ac3c
00000030: 9d60 f0bd 9240 dc3d f29b 8c3d 9374 c53d
00000040: b9bb 343e 23fe c8bd 42c8 6d3d c2fd acbd
00000050: b9f2 59bd d3b1 efbc c4f5 7ebd ba2b 30be
00000060: c979 d2bd 84ae 6fbd cd92 2e3e b162 d4bd
00000070: 8c80 263e 97af e73d b532 d1bd 4b3a 38bd
00000080: d68f 0d3c 9764 5c3d b720 37bd d2c1 62bd
00000090: af4c 7abd 4ced 183e 3c1e a1bd 505d 3e3d
000000a0: 5600 7fbd 1a8e 9d3d c6c2 c4bd 5b3b b7bc
000000b0: b106 b23d 3e99 1f3d 8119 1a3e 55d1 ed3d
000000c0: 1083 3d3c 0b1b 85bd a92b 38be 8acc fdbb
000000d0: 993b 973d 69bd 0bbe c57c 083e 20e2 a13d
000000e0: 1a26 2cbe ee7e a43d a967 453e fbfb 1ebe
000000f0: ef96 4c3e 490e 31be 1e79 cebd 2eb2 84bd
00000100: 9d87 413e e3e7 623c 8ba9 993d 96ba 45bd
00000110: af3c 58bd efd4 453d 0982 31bd 4663 673d
00000120: f381 1e3e 9c94 fabd 537d 513c 28fb 07be
00000130: 26ab 10bc 7494 b63e 4c8c 34bc e2c9 013e
00000140: dd18 393e fd99 10bd 5111 7c3c fbe2 923d
00000150: 1449 27bc 4a3d 6fbe 79f6 07be 5f75 8dbe
00000160: 0832 0abe ab0c e73d b22e 1b3e f510 b3bc
00000170: 23aa 1bbb 1cd7 8f3c 27ab 423d fe10 3fbd
00000180: 6223 e53d ec77 1bbe 2aef aebb 562b a2bd
00000190: 9646 0a3d fb8f 723e cc1d 6b3d d52c 0e3e
000001a0: eec2 c6bc a640 99bd 3f32 e43d 5d7a 663d
000001b0: d9b2 6e3c 7424 713c 543c b5bd d7fc fb3d
000001c0: 7d58 01be ae51 243d 3bcc 9bbe 4012 943e
000001d0: 948d 1bbd 97e5 803b 6e59 98bd 411b 5d3c
000001e0: d2e5 89be 00d9 35be 835b 683e c5e3 8f3c
000001f0: 2931 993e bf4e aabe 72be 5d3d 204f 3bbe
00000200: 85d7 4e3e 4ef5 ad3d b3ac b43d 2619 d7bd
00000210: da59 85bd fba0 a2bd d28f 4abe 43d1 82bd
00000220: 0a50 1abe 65e2 b5bd b25e 06be 488e b5bd
00000230: 590a 8c3d 3eff a03d c190 913d 7b0e 4abe
00000240: 62f2 5c3e 29d6 873d e420 463d 62c9 083d
00000250: 98f8 d63d 9754 98bd 54bc b63c c649 56be
00000260: 1e87 b1bd 7afc 76bd 25be 7e3c 7ce2 d83d
00000270: bf04 dbbd c651 593d 522f d4bd 9cf3 0f3d
00000280: 80dc 073e 0e26 6abd 0520 fd3d 9a48 1abb
00000290: 524a 99bd 0b02 383c 04c4 f33c e920 103e
000002a0: 4dd0 e43d ee16 51bd e3b5 a7bd d2fe b53d
000002b0: b8ad 18bd 8ecd 22bc 7df5 ebbd 1acc 1cbe
000002c0: 58ea 483c 1e81 c93d 1c73 d1bd 9525 f63d
000002d0: fe14 9bbc b522 22be 4ee3 a93b 48ad 8f3d
000002e0: 95d7 eb3d d2fa 0c3e af17 623e b12d 81be
000002f0: 95d6 473c 2eaf e03d f553 2d3b ce39 a4bd
00000300: 8709 9bbd 1b9a e0bd d3e2 f4bc 1b3d 2a3d
00000310: 8468 8b3d 5835 8bbc 3c45 2fbe f142 b63d
00000320: 1049 0d3e f4cb 84be 7fff 44bd 55bc 173c
00000330: 768a 1d3e f5fa 35bd d461 6ebd a056 10bd
00000340: 7217 503d c876 963c c244 a03d e1a1 e33b
00000350: c99b 05be 09cb ddbd baa8 7f3c 69c5 343d
00000360: 6301 aabd 8058 f83d 8547 9bbc 4a1c 943e
00000370: dd10 77be 06c7 2c3e 4ff6 13be 5f7b 26bd
00000380: af65 ea3d cf25 25be 56ea ac3d ec94 41bd
00000390: 8311 783d 105d 0b3d ac9a 023e 2fec 9c3d
000003a0: 7da7 4abd 9fda 7dbd 5127 143e 5923 b73c
000003b0: ad3c 4ebe 7b19 8c3d 5262 3e3e 18fa a33c
000003c0: f6f2 2e3e 8aec b5bc 6bc3 a5bd aec6 20bd
000003d0: b87d b1bd dc2c b8bd 1533 c23d b634 d8bd
000003e0: 7b56 e83d 14a8 293d 6026 743e 4409 823d
000003f0: ffed febc ed45 83bd 1fce db3c d6a1 a1bd
0.06914619 -0.1674859 0.16490579 0.0388793 -0.1790449 -0.01843806 0.026396943 0.00405801
-0.043078665 0.109227374 -0.061838053 0.021077 -0.117371775 0.10754503 0.06865682 0.096413754
0.17649736 -0.09814098 0.05805231 -0.08446838 -0.053209994 -0.029259598 -0.0622461 -0.1720418
-0.10277135 -0.05851604 0.17048188 -0.103703864 0.16259974 0.11312788 -0.1021475 -0.044977468
0.00864025 0.053806867 -0.044708934 -0.055360623 -0.061108287 0.14934272 -0.07867095 0.04647571
-0.06225618 0.07693119 -0.096074626 -0.02236717 0.086926825 0.038964503 0.15048791 0.116121925
0.011566892 -0.06499299 -0.17985405 -0.00774533 0.07384414 -0.13646473 0.13328846 0.07904458
-0.1681141 0.080320224 0.19277824 -0.1552581 0.19979452 -0.17290606 -0.10081695 -0.064792976
0.18899389 0.013849231 0.07503041 -0.048273645 -0.052792247 0.048298772 -0.0433369 0.05649116
0.15479259 -0.12235376 0.012786227 -0.13279402 -0.0088298675 0.35660136 -0.0110197775 0.12674668
0.18075891 -0.035303105 0.015384988 0.07172199 -0.010210294 -0.23363224 -0.13277616 -0.2762861
-0.13495648 0.11281713 0.15154532 -0.021858672 -0.0023752532 0.017558627 0.047526505 -0.046647064
0.11188389 -0.15182465 -0.005338569 -0.07918422 0.033758722 0.23687737 0.057401463 0.1388429
-0.024262872 -0.07483034 0.11142396 0.05626904 0.014569008 0.014718164 -0.08849397 0.12304085
-0.12631412 0.04011696 -0.30429253 0.28920174 -0.037976816 0.0039336192 -0.07438932 0.013495267
-0.2693315 -0.1775856 0.22691159 0.017564664 0.2992032 -0.33263204 0.0541367 -0.18291903
0.20199402 0.08494054 0.08822002 -0.105028436 -0.065112785 -0.07940861 -0.19781426 -0.0638757
-0.15069595 -0.08881072 -0.13122061 -0.088650286 0.06837911 0.078611836 0.07107688 -0.19732086
0.21576837 0.06632645 0.04837121 0.03339518 0.10496634 -0.07438009 0.022306599 -0.2092658
-0.0866835 -0.060299374 0.015548264 0.105900735 -0.106942646 0.0530565 -0.10360588 0.035144433
0.13267708 -0.057165198 0.12359623 -0.002354181 -0.074848786 0.011230956 0.029756553 0.14075054
0.11172543 -0.051047258 -0.08188989 0.08886494 -0.037275046 -0.009936703 -0.115214325 -0.15312234
0.012262903 0.0983908 -0.102270335 0.12018887 -0.018930908 -0.15833552 0.0051845675 0.07015473
0.115157284 0.13767555 0.22079347 -0.25230172 0.012197156 0.10970913 0.0026447747 -0.08018838
-0.075701766 -0.10966893 -0.029893314 0.04156218 0.06807044 -0.01699321 -0.17116255 0.08899487
0.13797402 -0.25936854 -0.048095223 0.00926121 0.1538485 -0.044428784 -0.058198765 -0.035238862
0.05080361 0.018367186 0.078256145 0.0069467877 -0.13047709 -0.108297415 0.015604192 0.044133577
-0.08301046 0.12126255 -0.018955002 0.28927833 -0.24127527 0.16872796 -0.14449428 -0.040645
0.11445176 -0.16127704 0.084431335 -0.047261164 0.060563575 0.0340243 0.12754315 0.07662236
-0.049476136 -0.06197607 0.14468123 0.022355722 -0.20140333 0.068407975 0.18592194 0.020016715
0.1708487 -0.022207517 -0.08093914 -0.039251976 -0.08666557 -0.08992931 0.094823994 -0.10556929
0.1134462 0.041420057 0.23842764 0.063494235 -0.031119345 -0.06409822 0.026831685 -0.07892196

lstm1.bias_ih_l0 f4 [256]
00000000: 17a8 263e 12ae 743d e336 1d3e 58e7 91bd
00000010: 6d26 52bb c048 bf3c 6f44 4c3d f5d5 efbd
00000020: b467 58be 024b edbd 69b6 423d be96 ee3c
00000030: 1c3f 60bd 03ce ce3d 1589 99bc 1fa0 eb3c
00000040: df4d d9bd c084 29bd 5eea 32be e8e0 47be
00000050: 6b1e 8b3d 277d 76bd 837b 8dbc e50f 3c3d
00000060: c21c 4bbd 2fea 4bbc 8974 97bc 2c9e d03c
00000070: 31b3 1a3e 6c9d 92bd ffee acbd c3c9 f2bd
00000080: 9c74 fcbd f6e6 30bd 8eac 433d d930 f2bd
00000090: 0035 60bd 1f67 c13d ce40 d5bc 69b7 ec3c
000000a0: 6345 e3bd fc6d 08bd b9ba 3dbe d2f8 b7bd
000000b0: a80e ee3d 1292 693c 5de2 36be 6047 5f3d
000000c0: 7eaa 6a3d 6a04 9ebd 3360 353e 746c 3bbd
000000d0: 13b0 13bd 84a7 7a3e afa1 dfbc b83f 0dbe
000000e0: a788 b2bc 065d 42bd aa25 2e3e a0cd af3d
000000f0: 7e7e 65bd 51be 853c c939 b73d 243b f03c
00000100: 60a3 ad3d 7bb8 02be 5a34 dc3c c93f ee3d
00000110: 1f76 f13d 3e82 9a3c 3616 2e3c 7117 16be
00000120: 1835 43b9 3e3d d4bd 41fc bc3d ed61 eaba
00000130: 87db ee3d 9e6d e3bd a4df 213e f38e 9abd
00000140: f5e7 813d a934 b4bd 7187 0cbe 27e1 053e
00000150: 385f 343e 4a57 36be ba8b c4bd 89cb 1fbd
00000160: 13b9 cb3d 5a39 603e 1fc2 bc3d 2617 bbba
00000170: e5e9 5a3d 42cc a53c 784f 2f3e 2786 423d
00000180: b5c9 4bbd 96ac 70bd 741b 763d d7a6 793b
00000190: a8bb 563d e7f1 b5bd 7791 66bd 357e 0ebb
000001a0: 1046 f03d f852 08be 3327 3bbe 52ce 14be
000001b0: c63a 073d c491 9d3d 2bb5 47bd bcfe ed3d
000001c0: fd5f 0c3e 2dc8 f03d ced6 983c 7527 0e3e
000001d0: 931a 373d ab66 a3bd 5caa 98ba a280 9f3d
000001e0: faac 98bd 3999 bdbd e5fc c93d ca66 6dbc
000001f0: 72a9 743c e5f0 7dbd 38b9 cb3c 8cd2 3e3c
00000200: 4f75 213e c1c9 4d3d 6d52 753e b032 09be
00000210: 1536 323d 2b4d 0abe 35c4 89be 5507 f3bd
00000220: 2d91 15bd 3a63 1b3e fbae 653d 877a 763e
00000230: 11cb 33bd 2a97 223e 25f3 08be 0018 b6bd
00000240: 7154 5c3e b036 1dbd 9551 873c 4ae2 163e
00000250: 7e5a 4ebe b0d0 a4bd e0d1 2cbd 7e19 13bd
00000260: 7871 8abd 27dc f3bd 860e 793e 498e ba3d
00000270: fe4f f43d c3ae c5bd 80a5 b3bc 5da3 e03c
00000280: 8b68 d03c de7c 6abd 0814 323e 84a5 e4bd
00000290: 1aba 093d 72af f8bc 3349 a83d eee1 8ebc
000002a0: aa6f 69bd 7900 f63d 04db 833c ea69 08bd
000002b0: 3e7e 1dbe bb75 0abe 1413 84bd 66b6 443e
000002c0: d204 9abd 5a0c 23be ab08 a23b b58a febc
000002d0: ec57 f43d 823b 65be 8e4a 1a3e 0ccc be3d
000002e0: b0fc 48be a99d 3a3c 7602 0e3e f388 0ebc
000002f0: b794 483e ac03 85be 61ec 9bbd 1b77 28be
00000300: 334d 253e f35c e7bb 04fc c23d 96f1 78bc
00000310: b5ea f2bd 5815 c73d 32c4 8ebd ab01 8cbd
00000320: 6b2b 2fbe 9910 f3bc 2a79 903d dc01 0b3d
00000330: 9a8d 333c 6210 883a da34 d3bd 4e0d ef3d
00000340: d207 d93d e0f5 a83d 110a d3bd 5108 1bbd
00000350: ec37 21bd 845f 523c 9b20 debd c3ea bc3d
00000360: 6ae3 bc3d 1a61 6d3c d6b9 b13d a179 dc3c
00000370: 3566 953d db32 fc3d 9918 6bbd 4274 9ebd
00000380: 793a 4c3d 7ac2 84bd 67a9 6ebc e697 2d3d
00000390: a43b 53bd 38a1 7c3c 99ae edbd 7c8d d2bd
000003a0: c6a6 9a3d e179 953d cae9 00be 7b53 7cbd
000003b0: 5327 b4bd e48b 9dbd 7783 75be 9cbe afbd
000003c0: b3e7 b3bd d026 153a 77c5 97bc 3f6a 2f3d
000003d0: 4ac0 c6bd b094 ae3c 07e5 853c afc3 21bd
000003e0: 7d3c 42be def2 a5bd 3e5a 9a3c bf42 e0bc
000003f0: 4816 493b 630b 233e b877 293e e5d9 a93d
0.16275059 0.05973632 0.15352969 -0.071242034 -0.003206636 0.02335012 0.04986995 -0.11710731
-0.2113331 -0.11586572 0.04753724 0.029124614 -0.054747686 0.10097887 -0.018742124 0.028762875
-0.10610556 -0.041386366 -0.17472216 -0.19519389 0.06792911 -0.06017795 -0.017270809 0.045913596
-0.049587972 -0.01244597 -0.018488185 0.025466047 0.15107419 -0.07158932 -0.084440224 -0.11854889
-0.12326929 -0.04318901 0.047771983 -0.11825723 -0.054738045 0.09443497 -0.026031878 0.02889605
-0.11097219 -0.033308014 -0.1852826 -0.089830056 0.11623889 0.014256017 -0.17859788 0.054511428
0.0572915 -0.07715686 0.17712478 -0.045757726 -0.03605659 0.24477965 -0.027298776 -0.13793838
-0.021793677 -0.047451995 0.17006555 0.08584142 -0.056028835 0.016326101 0.089465685 0.029325075
0.08478427 -0.12765686 0.026880432 0.1163326 0.11790108 0.018860932 0.010625413 -0.1465738
-0.00018616428 -0.103632435 0.09227801 -0.0017881967 0.11662965 -0.11104892 0.15807968 -0.07546797
0.063430704 -0.08799107 -0.13723542 0.1307417 0.17614448 -0.17806736 -0.09596963 -0.039012466
0.099474095 0.21896878 0.09216713 -0.0014273867 0.053445715 0.020239 0.17120159 0.04749122
-0.04975291 -0.05875834 0.060084775 0.003809383 0.052425057 -0.0888403 -0.05629107 -0.0021742706
0.11732113 -0.133129 -0.18276672 -0.1453183 0.033015035 0.07693818 -0.04875676 0.11620852
0.13708492 0.117569305 0.018657114 0.13882239 0.044703078 -0.07978567 -0.0011647451 0.07788207
-0.07454868 -0.092577405 0.09862689 -0.014489839 0.014932977 -0.061997313 0.024868593 0.011646878
0.15767406 0.050241236 0.23957224 -0.13398242 0.043508608 -0.13506 -0.26907507 -0.11866633
-0.036515404 0.1517457 0.056075078 0.24070178 -0.04389483 0.15877977 -0.13374002 -0.088912964
0.21516587 -0.038382232 0.016518394 0.1473476 -0.20151708 -0.080476165 -0.04219234 -0.035912983
-0.06759924 -0.11907225 0.24321947 0.0910917 0.1192932 -0.09652474 -0.021929502 0.027421648
0.025440475 -0.05724799 0.17390454 -0.11164382 0.033624746 -0.030357096 0.08217087 -0.017441716
-0.056991257 0.12011809 0.016095646 -0.033304133 -0.15380189 -0.13521473 -0.06448951 0.19210204
-0.07520451 -0.1592268 0.004944881 -0.031072 0.11930832 -0.22385982 0.15067503 0.093162626
-0.19627643 0.011390128 0.13868126 -0.008699643 0.1958798 -0.25979364 -0.07613445 -0.16451685
0.1614273 -0.007060641 0.095207244 -0.015194317 -0.11861173 0.09720868 -0.06971015 -0.06836256
-0.17106406 -0.029671 0.0705436 0.03393732 0.010959053 0.0010380859 -0.10312815 0.116724595
0.10597195 0.08250022 -0.103046544 -0.037849728 -0.039359972 0.0128401555 -0.10846063 0.09224465
0.09223063 0.014488483 0.086780235 0.026913466 0.07294885 0.123143874 -0.057396505 -0.07737018
0.04986045 -0.06482406 -0.014566756 0.04238119 -0.05157055 0.015419297 -0.116055675 -0.10280892
0.07551341 0.07298637 -0.12589183 -0.06160305 -0.08796563 -0.07692698 -0.23975931 -0.08581278
-0.087844275 0.00056896824 -0.018526776 0.042825934 -0.09704645 0.021311134 0.01634456 -0.03949326
-0.18968387 -0.08102964 0.018841859 -0.027375577 0.0030683447 0.15922312 0.16549575 0.08293513

lstm1.bias_hh_l0 f4 [256]
00000000: b3a9 22bd 99bc 78bd cec6 363e a780 e1bc
00000010: 6427 b3bd 41f6 1d3e acc0 9d3c 5ef9 4abe
00000020: 649e 14be b8c0 ad3c ce73 ec3c f96e 563b
00000030: 4c58 ba3d 29ea 60bc ddae e13d 7fcc a3bd
00000040: 504f b0bd 955d 44be b35a cebd 4c58 17be
00000050: 5681 4cbd dbb1 413d 6fad cdbd 1d6d f23c
00000060: 2ab6 dd3d fd73 55bd 84a4 01bd ed28 8bbd
00000070: 2d53 fe3c 9519 00be b2b7 3ebd 77ca efbd
00000080: 01ab 383b a0b6 c8bd 4d2b d3bd dbf4 3bbc
00000090: b02f 63bb 283a 6a3c 6ad6 43be 54ab 38bd
000000a0: e293 b2bd 749c 23be 8cee 50be 9e18 353c
000000b0: 67cf e0bd 1ebe 563d 7450 93bd 827e cb3d
000000c0: c047 023d 5b7d 3c3d 742b 023d 31c6 293c
000000d0: aa93 5f3c 50ed 543e bd4c ffbc 1377 23bd
000000e0: e39a 503d 5698 72be ef67 413e b0e1 203d
000000f0: d492 cbbd 61da 623d 5c04 463e 6e9e 6a3d
00000100: 8736 1e3e 3f38 a93d 4a7f 42ba d78e 3cbd
00000110: 711f 573d e944 ca3d 891d 053d 053f 833d
00000120: 4a77 bdbc 82da c63d 0b29 e93a f0a8 b93d
00000130: aeb7 a63d d7bf 0ebc 4a92 e43c a968 ce3c
00000140: 2af8 b6bd 05e1 edbd f08a b23d 66b7 063c
00000150: 4a0e 5f3d 0c6c 3bbe f30f 36be 44d0 92bb
00000160: 4afe cdbc 860b 4d3e 82d2 773d 40e2 873d
00000170: cbd5 1d3e f871 1e3e c233 8c3c 342b df3d
00000180: e790 05be e58c cebd bac8 0fbd 2050 e5bd
00000190: 30d2 00be 160f 8ebd 95bb 54bd 9301 f6bd
000001a0: 915e 6d3c dbe0 0abe ae85 1abe 4444 e53c
000001b0: 6d77 ed3d 73c2 d43c fdc3 84bd c84d e33d
000001c0: 4b73 a83d 9bea 733d d12d 75bd 8577 aa3e
000001d0: fa03 afbd 02d0 173e f306 063b 7a0e c63d
000001e0: d0b4 6b3c dde0 3b3d 6fa7 25bd 61ae db3d
000001f0: 4cd6 1cbe 36b1 eabd ac42 cf3d 9903 f13d
00000200: be9b 3a3e dc6b 133e b2d2 703e b500 0dbe
00000210: fda5 acbd 0b41 42be fedc 23bd 8652 e9bd
00000220: d8c8 82bc e4e9 253e bb50 083d 84a3 133c
00000230: 4b1f 45be 0e64 a13d c4be f7bd 529a 2bbd
00000240: d073 433d 021b 58bd 3622 08be 412e 203e
00000250: d57d 47be 88ca 98bd 7218 45be 8ce1 4dbe
00000260: 1e56 d7bd d397 dfbd 9492 253e b830 483d
00000270: 9a7d ea3d 7a78 bd3c 9b18 4ebd 479b 50bd
00000280: a9d5 2c3e a41b 44be 7d97 1c3e 8c30 8bbd
00000290: 8108 c43d 54d1 913d 3e76 f83d 7607 2f3e
000002a0: 289c 99bd 1bcf 823d 09a7 f63c 4326 a43d
000002b0: 7d2f 24be 7d63 08be 673d 473d 82bc c43d
000002c0: 8cdb 08be 7663 de3c 589c 31be 9860 67be
000002d0: 7802 be3c e8e5 28bd a1b7 8d3d 7c3f ecbb
000002e0: 4ebc 08be f370 09be bed7 663e 6714 59be
000002f0: e677 073d bb6f c5bd cf9d 44be f8af 28be
00000300: 347b e83d 0598 43bd fe4b a1bb 85f1 a8bd
00000310: 5dca 9c3d 3f39 ab3d 7ccc a3bd a41d 6ebb
00000320: 9f09 96bd f901 17be 294a 903d 6d62 0a3e
00000330: a928 c43c ab2a 1a3e fc24 ad3d ad8e 433d
00000340: 15a6 853d 0d9e 8139 398d f73c 5bda c13c
00000350: 67bc 9e3d dd03 dbbd 691b d83d 6403 83bb
00000360: c94f cd3c 071e 05be c9f0 96bc 0d45 bcba
00000370: a2a1 8f3d 5ee1 b6bc a48c 08be f981 c43c
00000380: f839 893d b47f 74bd f646 673d ef7d 9d3d
00000390: fe4d 1b3c 610b c9bd 73c5 07bd 4953 96bc
000003a0: 4677 7e3c d350 913d 4820 28be bbd8 873c
000003b0: d6de 9dbd 1e65 db3d fdaf 42bd 8eba 693d
000003c0: da63 15be 42f0 ee3b 2177 aa3d 542d 023e
000003d0: e01e d0bd 0121 3d3e bf6e c5bd df59 d93d
000003e0: bb20 763c 464c 17be 7b66 b83d 8973 0a3e
000003f0: 2081 a7bd 9a11 f43b 56fe c03d 08e8 363d
-0.03971262 -0.060726736 0.17849275 -0.027527167 -0.087477475 0.1542597 0.019256912 -0.19821689
-0.14513546 0.02121006 0.028863814 0.0032719953 0.090988725 -0.013727703 0.11019681 -0.07997989
-0.08608878 -0.19176324 -0.10075893 -0.14779776 -0.04992803 0.047288757 -0.100428455 0.029593045
0.10825761 -0.05211257 -0.031651035 -0.06794915 0.03104552 -0.12509759 -0.046561904 -0.11708539
0.0028178098 -0.09800458 -0.10310993 -0.011471952 -0.0034665875 0.014296092 -0.19124761 -0.045085266
-0.08719613 -0.15977651 -0.20403498 0.0110532325 -0.10977059 0.052427404 -0.071930796 0.09936239
0.031806707 0.046017986 0.03177972 0.010362194 0.013646046 0.20793653 -0.031164521 -0.03990848
0.05092896 -0.23690924 0.18887304 0.039277732 -0.099401146 0.055384044 0.193376 0.057279997
0.15450488 0.08262681 -0.000741948 -0.04603466 0.05252022 0.09876425 0.03249887 0.064085044
-0.02312817 0.09709646 0.0017788721 0.090654254 0.08140503 -0.00871273 0.027901787 0.02519639
-0.08934052 -0.11615185 0.087179065 0.0082224365 0.054456986 -0.18302935 -0.17779522 -0.0044803936
-0.025145669 0.20023927 0.06050349 0.06634951 0.15413587 0.15473163 0.017114524 0.10896912
-0.13043557 -0.10085467 -0.035103537 -0.11196923 -0.1258018 -0.06936471 -0.051936705 -0.12012019
0.014487878 -0.13562338 -0.15090057 0.027986653 0.11595044 0.025971627 -0.06482694 0.1109882
0.082251154 0.05954991 -0.059858147 0.3329431 -0.0854568 0.14825442 0.002045092 0.0967073
0.014386371 0.045868743 -0.04044288 0.107266195 -0.15316123 -0.114595816 0.101201385 0.11768264
0.18223473 0.14396614 0.23517874 -0.13769801 -0.08430097 -0.18970124 -0.040005676 -0.11392693
-0.01596491 0.16202503 0.033280116 0.009011153 -0.19250219 0.07880412 -0.120969325 -0.04189522
0.04771787 -0.05276013 -0.132943 0.15642644 -0.19481595 -0.07460505 -0.19247606 -0.2010557
-0.105144724 -0.1091763 0.16169196 0.048874587 0.11449738 0.023128737 -0.050316434 -0.050929334
0.1687838 -0.19151169 0.15292163 -0.06796369 0.095719345 0.07120004 0.12131928 0.1709269
-0.075004876 0.063871585 0.030108945 0.0801511 -0.1603374 -0.13319202 0.048642542 0.096062675
-0.13365 0.027147036 -0.17344797 -0.22595441 0.023194537 -0.04123488 0.0691979 -0.0072097164
-0.13353083 -0.13421993 0.22543237 -0.21199189 0.03307333 -0.096404515 -0.19200824 -0.16473377
0.11351624 -0.0477524 -0.004922389 -0.08249191 0.07655785 0.08360528 -0.07997987 -0.0036333585
-0.07326054 -0.14746846 0.07045395 0.13514109 0.02394517 0.15055339 0.0845432 0.047743488
0.06525818 0.00024722554 0.030218707 0.02366369 0.07750779 -0.10694096 0.10552103 -0.003998207
0.025062459 -0.12999736 -0.018425362 -0.001436384 0.07013251 -0.02232426 -0.133349 0.023987757
0.0670051 -0.0596921 0.056464158 0.076900356 0.009479044 -0.098166235 -0.033147287 -0.01835026
0.015531367 0.07095494 -0.16418564 0.016582837 -0.07708518 0.10712646 -0.047531117 0.057062678
-0.14588872 0.0072918246 0.08323503 0.12712604 -0.10162139 0.18469621 -0.09640264 0.10612845
0.015022452 -0.1477519 0.090039216 0.13520636 -0.081789255 0.0074483873 0.09423511 0.044654876

lstm2.weight_ih_l0 f4 [256, 64]
00000000: 185a 643e d6f4 59be 67ce 143e 4728 1dbd
00000010: a8b8 0fbe d0fc c13d 3687 b9bd 96e1 40bd
00000020: 78b1 6fbe cb6b c53d 92e6 3cbe bc7b 1fbd
00000030: 4bc3 98bd 4b79 473e db7b 0bbd ee1d d1bd
00000040: f73f a53c 3994 acbd 27c9 1d3e c88e 4a3d
00000050: 2a46 4c3d 7133 363d 0caa 8cbc 00e0 293d
00000060: 2489 97bd 1e7b 31bd af45 633d 6775 c9bc
00000070: fd17 163e d98f ff3d 7389 8e3d 252f a93e
00000080: 68ab 393d f384 4ebc 921d 9fbd 8a83 de3d
00000090: c4f2 20be 4a1a a6bc 8932 bebd de52 f8bd
000000a0: 84d5 a23d bdd9 04ba 6eae 1dbe 9862 9e3d
000000b0: b777 b6bd 86b8 273e 4ef6 71be 4d8c 7dba
000000c0: 775a bc3c 877a 853e 0b55 90bc 88c1 4ebd
000000d0: 74a5 e03d af82 9bbe 3e6d 44be 04be d2be
000000e0: 67c0 233e 6d3e 903b 77df 053d 58d0 9fbd
000000f0: 6ac9 9f3d a5b1 a23d 61f7 d83c b1ca b93c
00000100: 5435 14bd 3266 c4bd e652 2b3c 3439 b43c
00000110: 11c4 4ebe 6239 8f3e 9f7d 83bd edef 0a3e
00000120: 9c8d 0dbe 2150 aabe 33ca 4fbe c169 3bbd
00000130: 5fb5 633e f85d e53d 48ff dabd c620 c73d
00000140: b3bd 113e 2a4e c1bc e731 ff3a 7268 f8bd
00000150: 0df6 c03d 1581 88be 9ce1 d53c 372b 16be
00000160: e0c9 a9bd 6ec5 2b3e f501 4d3e 502d 5fbd
00000170: f685 a53d 01e6 0f3e ced7 57be fa78 e53d
00000180: fd04 623d 54d7 26bd 8f98 2bbe 2432 f9bd
00000190: 50f2 1bbe 2000 643c d9fa d93c b4d9 62bb
000001a0: 4ab5 9a3d effc 14bd 1ac3 8abe 7e92 4c3c
000001b0: a638 15bc 703b 85bd ea7b ae3d 2d08 b1bc
000001c0: a049 4f3e 1b53 8d3d e566 26be d08f 8f3d
000001d0: e1d2 a43c 08d4 1bbd 0ea9 2c3d 211c d43c
000001e0: 10f0 97bd a5d0 673d bc9c 093e 4466 1bbe
000001f0: b1e5 bebc 755a 16be c6e3 3cbe 3c60 2e3e
00000200: b4f9 763d 0f56 063d 064f 263d d259 1dbe
00000210: 8401 f63d 76c4 f5bd 1edd 743e a033 c13d
00000220: 9718 c13d d6d5 01be 061b 223e 3849 1abd
00000230: 7ee7 a93d 29d6 183e 3185 ce3d f719 a6bd
00000240: fa28 c13d 33db ce3d 3417 0cbe 2f92 ab3d
00000250: 9bb3 d4b8 ddb0 9f3c 9347 f0bc 8c23 bcbd
00000260: 0549 84be 038d 823c dcbd ac3d 4d94 ac3c
00000270: 7ad2 3cbd 11ad 123e 3a29 97be aba7 4b3e
00000280: 5945 90bd 1ac0 2dbe a7f3 45bd 5095 6cbe
00000290: 9c18 1b3d 6cb6 f33d 845b 273e 00d3 b83c
000002a0: 22ed 9ebb 62dc 53bd 13e7 b33e e6cf ddbd
000002b0: be53 fc3c e7e2 11bb c205 51bd bee8 eb3d
000002c0: fac0 79ba 991d 93bd 58f7 21be 2fd7 67be
000002d0: a0c9 f63d 4bab 313d c027 3b3d df94 52be
000002e0: a553 103d 78f6 4a3d 4a8a 383e 8795 d5bd
000002f0: 6730 cb3d ff9f 34be dd26 19bd f5c1 07be
00000300: b876 62be b974 783d c30f 8ebe 174d c63d
00000310: 129f 91bc 0006 653d 704f 6e3e cb85 82bd
00000320: 78dc be3c 1bec 21bc 2e5d fd3c 90d0 55bd
00000330: d6ed 9a3a 32b5 c9bd 5f3b 913e fad2 04be
00000340: b775 6bbe 6adb 0e3d aa2e e5bd 29df 61be
00000350: 1f36 fa3d bd39 df3c c90b 143c ba6e ccbc
00000360: 21ed f43d 9a46 cabd c51c b2bd 6056 31be
00000370: 1db3 43bd 2014 f33c c20b 30bc b9cf 45bd
00000380: df80 0dbd 66d3 293d 67aa 88bd f897 943d
00000390: 4ced 2abc 12b1 873c c677 64bc b44a 1e3e
000003a0: 4369 333e 0201 92bd 42d3 2fbe 4a63 c1bd
000003b0: ef4d 163e e96d 833d 63f4 66bb 0e8e c93d
000003c0: 8a58 443d 9eff c1bd bcb6 633b 908e b9bd
000003d0: 211b 793d 8f9e 4e3e 85ac 09bd 1b10 98b9
000003e0: fd41 63bd 5a4a a73d 6952 55be 500e 9d3d
000003f0: 628d 0bbe 7e25 6a3d 1127 10bd e6cc cc3d
0.22299993 -0.21284804 0.14531861 -0.03836849 -0.14035285 0.09472048 -0.090589926 -0.047090136
-0.23407543 0.096397005 -0.1844733 -0.03893636 -0.07459124 0.19479863 -0.034053665 -0.10210787
0.020172102 -0.08426709 0.15408765 0.049452573 0.0498716 0.044482652 -0.017170928 0.04147339
-0.073992044 -0.043330304 0.055486377 -0.024592115 0.14657588 0.12478609 0.0695981 0.3304378
0.04532948 -0.01260494 -0.07769312 0.10864933 -0.15717608 -0.020276207 -0.092869826 -0.12125181
0.07950881 -0.0005067846 -0.15398571 0.07733649 -0.089095525 0.16378984 -0.23629114 -0.00096720905
0.022992356 0.26070043 -0.017618677 -0.050477535 0.10969058 -0.3037314 -0.19182298 -0.41160595
0.15991364 0.004401973 0.032683816 -0.0780341 0.078020886 0.07944039 0.026485147 0.022679659
-0.03618367 -0.09589805 0.010456776 0.021999933 -0.20191981 0.27973467 -0.06420445 0.13568087
-0.13823551 -0.33264259 -0.20291977 -0.04575515 0.22237156 0.11199564 -0.10693222 0.09723048
0.14232521 -0.023596842 0.0019469828 -0.12129296 0.094219305 -0.26660982 0.026108555 -0.14664923
-0.08290458 0.16774532 0.20020278 -0.054486573 0.08082192 0.14052583 -0.21078417 0.11204715
0.05518054 -0.040732697 -0.16757415 -0.12167767 -0.15229154 0.013916045 0.026608871 -0.0034614624
0.075541094 -0.03637403 -0.27101976 0.012486098 -0.009107744 -0.065054774 0.085197285 -0.021610344
0.2024293 0.06900617 -0.16250189 0.07009852 0.020120086 -0.038044006 0.04215341 0.02589232
-0.07418835 0.056595463 0.13438696 -0.1517573 -0.023302885 -0.14682944 -0.18446264 0.17028898
0.06029673 0.032796916 0.040602706 -0.15366295 0.12012008 -0.120003626 0.23912475 0.09433675
0.09428518 -0.12679228 0.15830621 -0.037667483 0.08296107 0.14925446 0.10083998 -0.08110421
0.09431644 0.10100403 -0.13680726 0.08377492 -0.00010142402 0.019493515 -0.029331004 -0.091864675
-0.2583696 0.01593638 0.0843465 0.02106681 -0.046099164 0.14323832 -0.2952364 0.19888179
-0.07044477 -0.16967812 -0.048328068 -0.23103833 0.037865266 0.119000286 0.16343504 0.02256155
-0.004850046 -0.051723845 0.35137233 -0.10830669 0.03080165 -0.0022260488 -0.05103088 0.115190014
-0.0009527352 -0.0718338 -0.1581701 -0.2264068 0.12050176 0.04337625 0.045692205 -0.20564602
0.03523602 0.049551457 0.18021503 -0.10428911 0.099213414 -0.17639159 -0.03739058 -0.13257582
-0.221156 0.06065819 -0.277464 0.096826725 -0.017776046 0.055913925 0.2327249 -0.06373175
0.023298487 -0.009882952 0.03092822 -0.052200854 0.0011820148 -0.098490134 0.2836561 -0.12971106
-0.22994123 0.03487722 -0.11190541 -0.22057785 0.12217354 0.027249211 0.009036013 -0.024955142
0.11959291 -0.098767474 -0.086968936 -0.17318106 -0.047778238 0.029672682 -0.010744991 -0.048293803
-0.03454673 0.04146137 -0.06673127 0.07255548 -0.010432553 0.016563926 -0.013944572 0.15458184
0.17520623 -0.071290985 -0.17170432 -0.09442766 0.14678167 0.06417448 -0.003524088 0.09841548
0.047936 -0.09472583 0.003474637 -0.09060395 0.060816888 0.20177673 -0.033611793 -0.000290037
-0.055482853 0.08168478 -0.20832218 0.076687455 -0.13628152 0.05716466 -0.035193507 0.10000019

lstm2.weight_hh_l0 f4 [256, 64]
00000000: 93e9 7cbb bc21 303e 165b 5f3e f55e b9bd
00000010: 23f1 14bd cefc 12be 86d0 be3c b45e f43d
00000020: bd82 4dbe d8ed 0ebe 3aa9 80bd 05d6 0d3d
00000030: 0917 72bb 6444 62bd ad01 bc3d 7123 18be
00000040: 7934 043e d79b 2ebe bf93 c73d d11c 773d
00000050: 4fc7 9b3c 14c0 883e 01ab bc3b 0e52 73be
00000060: 1200 87be 5ab9 653e b7fd 3abe 4cf1 463d
00000070: f1be a13d cc51 0c3e d32e 453d 498c 8a3d
00000080: 995f 0b3e 0321 993c bc56 c8bc 5d9f f9bb
00000090: 8702 26bd fb29 bbbd ecfe 82bd 209c 513e
000000a0: f242 c33e 8b59 8ebe ba0e 99bd c8d3 adbd
000000b0: c99f 13bd d877 1abd 5bc3 35bc aa58 ed3c
000000c0: 8a6a fb3d 011f 7f3c 5d57 793d 4e93 26be
000000d0: 8ba8 9abd b728 6fbe 9adf 44bd da72 1ebd
000000e0: 8533 00be 6ca7 c6bd e36b dbba 4832 553d
000000f0: f423 97bd 8647 c43d ea5a ecba fd7f 47be
00000100: 3ed1 a7bd 8467 243e 9d10 39b9 42b1 1abd
00000110: 2460 babd 5c45 b5bd 89f4 14bc 8f4a 0c3a
00000120: 090f 81bc cfa5 0abd 6c6b 7f3d 78c2 083d
00000130: 7523 9bbd 1870 9bbd d727 bbbd ff55 5bbe
00000140: 88a2 753d d7b0 32be b733 f23c 756f 463e
00000150: cb3f 093e 184f 0dbe a55a 19bd 3b57 09be
00000160: d4ae 45be 88b0 d8bc 39c9 bb3d a909 3c3d
00000170: c7d9 583e d4ed d6bc 2eb4 e4bd 4ccd 39bd
00000180: db89 28bd e1d5 043e 3cc3 aabe eb5d d23d
00000190: a711 833d 6096 1b3e d7f9 053d fb13 0e3e
000001a0: bc22 da3c 1272 29bd 51c2 893d 3785 a33d
000001b0: d0e4 09be f580 813d 1ad4 353c d779 16be
000001c0: 85e9 473e 87c0 fdb9 2289 223e fd6e 9e3d
000001d0: 17a2 073e de06 00be 7d4c 6c3d 4ac5 913d
000001e0: 1f7d 87bd 8882 d2bd 7a50 38bd 1d06 313d
000001f0: 917e e03d 718e 89bd 8a8d 843d ccb9 a9bd
00000200: 1539 27be 8868 1f3e 7ed3 b2bd df5c a5bc
00000210: cc9c a43d 12e0 70be 2fc5 00be 5f7c 5e3d
00000220: 9a65 d1bd 5ed8 33be 43a4 213d e212 203e
00000230: 141c 9cbd f042 10be a1aa c2bd fe72 31be
00000240: da58 603d 7516 ef3c d2d1 70bd 6700 cbbd
00000250: d4c5 053d c5e4 b33e 2e23 eb3d 66e0 823d
00000260: 2d18 04be 0ea4 243e a91e 8ebd 994f 96bc
00000270: a028 d3bd 4394 9fbe ed93 333e 0806 293d
00000280: 62b8 e23c 06e2 05bd 5d75 fbbd 5f82 58bd
00000290: 291c a43b c088 533b 83f2 673d 34e1 ad3d
000002a0: 18af f33e 719a 2dbe 83ef 903e 2731 3bbe
000002b0: 90ac 843d 8d0b b73d cc75 acbd 3172 3bbc
000002c0: 5fdb 24bc a235 f63d 1338 173e d9b6 143b
000002d0: 6517 11bd bb92 34bd 8488 1d3c 6abe e63d
000002e0: 6112 013e c825 97bc d134 29be 177f 9d3e
000002f0: c461 bf3c 690c 1e39 d263 fb3b b167 29bd
00000300: 9fea 3fbe 2b28 99bd 28ac 1c3d ca1f 23be
00000310: 0a79 3b3e 434f f8bb c80f 38bd 9b56 083e
00000320: 05f4 053e 5bdf 25be 3b64 eeba 890f 0c3d
00000330: 44cf ecbd d9ee a0bd 10c4 dbbd 69a9 3f3e
00000340: eb78 c83d af91 b53d 771e 383d 2dc9 4ebe
00000350: 8ecd 9dbd 1817 f83c 64e6 0d3e 17df 32bd
00000360: 2f35 833d a249 533e 0219 60bd 0fe0 88bb
00000370: 83b0 40be c651 423d 4027 8b3c 4bdc 033e
00000380: 9949 5a3e a926 9fbc 213c 533c c3df 39be
00000390: c360 1ebd 4dcb 05be 82a4 0fbd 811c 01bd
000003a0: b87e c8bc 9c75 f13d 10cd a83d 9894 f1bd
000003b0: 60b5 b6ba 99a0 6bbe b41c b0bc 740b ff3d
000003c0: f092 d4bd 26eb 83bd a377 4f3e 93df 6d3d
000003d0: 1cb3 8cbc 9420 403e f446 2abe d665 ccbc
000003e0: 4911 5c3d e23f 643e a2c6 39be 476a 123d
000003f0: 87da b0bd abb5 b8bd 2515 ebbd 9d00 1bbc
-0.003859137 0.17200369 0.2181209 -0.09051315 -0.03636278 -0.1435425 0.023292791 0.11932126
-0.20069404 -0.13957918 -0.062822774 0.034627933 -0.003694 -0.055241004 0.09180007 -0.1485727
0.12910642 -0.17051636 0.09744977 0.060330216 0.019015936 0.26709044 0.00575769 -0.2376177
-0.2636724 0.22433987 -0.18260847 0.048569962 0.07897747 0.13703078 0.04814036 0.067650385
0.13610686 0.018692499 -0.02445542 -0.0076178745 -0.040529754 -0.091388665 -0.06396279 0.20469713
0.38137013 -0.2780269 -0.07473512 -0.0848766 -0.036041055 -0.03771195 -0.01109394 0.028972942
0.1227618 0.015571357 0.06087433 -0.1626713 -0.07551678 -0.23355375 -0.048064806 -0.03868375
-0.12519653 -0.09699902 -0.0016740527 0.052049905 -0.073799044 0.095839545 -0.0018032466 -0.19482417
-0.08194207 0.16055113 -0.00017649164 -0.037766702 -0.091003686 -0.0885112 -0.009091505 0.0005351686
-0.01575424 -0.033849534 0.062358305 0.033388585 -0.07575122 -0.075897396 -0.09138458 -0.21419524
0.059969455 -0.17450272 0.029565675 0.19378455 0.13403241 -0.13799703 -0.03743996 -0.13412182
-0.19304973 -0.026451364 0.091692396 0.04590765 0.21176825 -0.026236452 -0.11167179 -0.045361802
-0.041147094 0.12972213 -0.33352077 0.1027182 0.06399851 0.15194082 0.03270897 0.1387481
0.02662789 -0.04136855 0.06726516 0.07984393 -0.13466191 0.06323425 0.011097932 -0.14694916
0.19522674 -0.00048399364 0.15872625 0.07736013 0.13245426 -0.1250262 0.057690132 0.07117708
-0.06615662 -0.10278803 -0.044998623 0.04321872 0.109616406 -0.06716622 0.06472309 -0.08287391
-0.16330369 0.1556722 -0.08731745 -0.020185886 0.08037719 -0.23522976 -0.1257522 0.05431783
-0.10224457 -0.17563006 0.039463293 0.15632203 -0.07622543 -0.14088035 -0.09505201 -0.17329022
0.054772235 0.029185513 -0.05879385 -0.09912186 0.032659367 0.35135475 0.11481319 0.06390457
-0.12899847 0.16078207 -0.06939442 -0.018348502 -0.10310483 -0.31167802 0.17536898 0.041265517
0.027675811 -0.032686256 -0.12278245 -0.052858707 0.0050082398 0.0032277554 0.05662776 0.0849022
0.47594523 -0.16953446 0.28307733 -0.18280469 0.06478226 0.0893775 -0.084209055 -0.0114408
-0.010062068 0.120219484 0.14767484 0.0022691994 -0.0354227 -0.044085246 0.009615067 0.11266787
0.12604667 -0.018450633 -0.16524054 0.30761024 0.023362048 0.00015072677 0.0076718116 -0.041358653
-0.18741845 -0.074783646 0.03825012 -0.15930095 0.18307891 -0.007577808 -0.044936925 0.13314287
0.13081367 -0.16198485 -0.001818783 0.034194503 -0.1156297 -0.078580566 -0.10730755 0.18716969
0.09788688 0.088656776 0.04495093 -0.2019393 -0.07705222 0.03028445 0.13857418 -0.043669786
0.06406628 0.20633557 -0.05471135 -0.0041771005 -0.18817334 0.047441266 0.01698649 0.12877004
0.21317138 -0.019427614 0.012892754 -0.18151765 -0.038666498 -0.13065834 -0.035068996 -0.031521324
-0.024474487 0.1179001 0.082422376 -0.1179592 -0.0013939552 -0.23010482 -0.021498062 0.124533564
-0.103795886 -0.064413354 0.20260482 0.058074545 -0.01717525 0.18762428 -0.16628629 -0.024950903
0.053727422 0.22289994 -0.18142179 0.035745885 -0.08635431 -0.090190254 -0.114786424 -0.009460595

lstm2.bias_ih_l0 f4 [256]
00000000: be6f b73d 135d ebbd c86a 7a3d 921c c9bd
00000010: 9ae4 b8bd 45ee 05be b515 4f3c 8850 803e
00000020: 0e18 76bd c5eb 96bd e97d 0abe bca9 a83d
00000030: a925 4b3e afd8 043b ab15 7e3e e326 c9bc
00000040: 1f6f 283e 35ad 043e 1bd3 0a3d aa8d e0b9
00000050: dac6 c83d 1b4d ddbd 9f5f 933d 6e37 6dbd
00000060: 2897 4ebd 32c8 8e3d e5b8 6bbd 5f4f 503e
00000070: b2d4 983d 0980 093e a0af 8cb9 44be aa3d
00000080: 0a8d 4a3e eccd 393e 0add 68be 350e 1cbe
00000090: 5896 0ebe 3818 2e3e 0a9e de3a 175f 533d
000000a0: 4cde 62bd 4dcf e63e 9fb7 94bd 9e79 d93d
000000b0: e8f1 1b3d c8d5 9c3d da4d 393d 41ac 42be
000000c0: c2dc a73d fc65 063e 931e fd3d 6534 4f3d
000000d0: 2eac bc3d 18f6 18bd 1634 4bbd 7c6a 9b3d
000000e0: c73c b13d a7be 1f3d 4396 ff3c c92f 443e
000000f0: 0c73 acbd bbb4 0abd 58f0 473d aa38 903d
00000100: 4332 d6bc d05f 8b3e 3f15 e6bd cdcb ad3d
00000110: 39c9 2a3e 521b bf3d f980 d13c 6525 f5bd
00000120: bcf5 4cbd d654 e5bd be6b e4bc 4e83 813e
00000130: afff 373e 494d 033e 7b1d f33d 8ba4 183e
00000140: 9674 983d 95d2 2b3e 77eb 913c 3bef e7bc
00000150: 2e0d 17be bdd0 323e c0b3 8e3d ec37 003e
00000160: 8f44 a53b 01d0 1d3e f96d 603e 5b00 03bc
00000170: 3231 683e e01d b03e b29f 033e 180c aa3e
00000180: 2eb1 783e 6890 523e 3de4 c53d 0155 e93c
00000190: 67ec 123e 6a80 c83d 4c8a 17bc 4215 08bd
000001a0: d6c9 52bd ce0f 34bd 9cf6 0d3e 2caa da3c
000001b0: d1b1 d6bd 4c43 613d eabf ba3d 4e34 81bd
000001c0: 15bb 8bbb f2c9 db3d b28c cc3d 238d 2b3e
000001d0: 37e8 383e 029a 3b3e 72b9 0e3e 9a92 81bd
000001e0: fce3 87bc 584d 0f3e d790 453e 203b 363d
000001f0: 9c91 193e 13e2 3c3e 7a6d f73d 9e42 313e
00000200: c940 b8ba 7327 883c eca2 833d 6a21 01be
00000210: b7a4 1bbc aafb bdbd 07e0 a3bd a800 ff3d
00000220: 00be f43d 99ab aa3b 3123 553c 5f9a 7e3d
00000230: cdc3 18bb 9c4d dcbd 5dc2 f23b 7702 d73d
00000240: e510 06be 68ab 093d 183d bb3d 6e5b 1dbe
00000250: 6813 c3bc 1e86 54ba 7e64 2abc 356e 2d3e
00000260: 4543 8f3d 9533 2ebd b380 413d 1a93 26be
00000270: 0946 f7bd d201 053e bdbf 94bd b81c 5f3e
00000280: db5f 813d 2d7b cabd 8350 97bd 033f adbd
00000290: 4baf 0ebd ff01 0dbe 2f64 e13c e352 003e
000002a0: 5558 f83d a3cd 0cbd 43f7 093d e0ec a53d
000002b0: 7e72 fd3c 23c5 d3bd e4e3 94bd 7283 913b
000002c0: fbb7 7c3c 35b5 31bd e6bc 5b3d 1c67 13be
000002d0: c8e6 373d 4e82 63bd b387 87bd 7036 f83c
000002e0: 789e 97bd 618b d8bc d26d 253e 56c0 373d
000002f0: 69a1 0ebe d0e7 093e 860d 60bc 8686 04be
00000300: 7d26 093e 74d7 16bd 3cac fa3c 306c 093e
00000310: db69 9dbd 4f98 a8bc 6b59 f63c 343a 603e
00000320: 620b 5a3d 7722 303e e684 afbd 5a45 233e
00000330: ad3d ae3d 7d68 b4bc 3153 863e 2791 933d
00000340: 4a23 d23d d3c8 a5bc d1c1 2b3e d73b bebc
00000350: 6ca2 343d 8ce5 693c e1de c5bd 26d3 883e
00000360: 4a6b b73d 14fe 393e 6ce4 c83c 5f63 b1bd
00000370: db8e b3bc 3c61 68bd 6717 fe3d b6de 153e
00000380: d79b 6b3e c1a4 78bd c857 fe3a 377d 7fbc
00000390: a039 b8ba ee72 d139 66ef a53b e66d 4fbd
000003a0: 7534 9cbc 5d07 ae3e b116 b73d b6f6 813d
000003b0: 24d4 173e 1aca f6bd 48c5 153d 54e0 ed3b
000003c0: 7837 383e 2b1c 233e 1110 2f3e e35e be3c
000003d0: 9be7 483e 008c 5a3b 3eb7 71bd 6d78 e23d
000003e0: 0b8d 793d a8cd d93b a751 183e b0ee 713d
000003f0: 54a5 c23d 2af1 2d3e f3af 133c bfe6 373d
0.0895686 -0.11492362 0.06113699 -0.098199025 -0.09027977 -0.13079174 0.012639453 0.2506144
-0.060081534 -0.07369188 -0.13524593 0.08235499 0.19838585 0.0020270755 0.24812953 -0.024554675
0.1644864 0.12956698 0.033892732 -0.00042830157 0.09803553 -0.10805722 0.07195973 -0.05791419
-0.050437123 0.06971778 -0.057549376 0.20342778 0.074624434 0.13427748 -0.00026833732 0.083370715
0.19780365 0.18144959 -0.2274057 -0.15239795 -0.13924539 0.17001426 0.0016984355 0.051604357
-0.05538778 0.45080033 -0.072615854 0.106189 0.038072497 0.07657963 0.04524026 -0.19011022
0.08196403 0.13124841 0.12359347 0.050587077 0.09212528 -0.03734407 -0.04961022 0.0758867
0.086541705 0.03900018 0.03119958 0.19158854 -0.08420381 -0.033863764 0.048813194 0.07042058
-0.026147014 0.27221537 -0.11234521 0.084861375 0.16678323 0.09331383 0.025574194 -0.11970023
-0.050039038 -0.11197822 -0.027883407 0.2529549 0.1796863 0.1282245 0.11870857 0.14906518
0.07444112 0.1677955 0.017812474 -0.028312316 -0.14751121 0.1746244 0.06967878 0.12521333
0.005043573 0.15411378 0.21916951 -0.00799569 0.22675017 0.34397793 0.12853888 0.33212352
0.24286339 0.20562899 0.096626736 0.028482916 0.14347993 0.09790118 -0.009249281 -0.033223398
-0.051462017 -0.043960385 0.13863605 0.026692472 -0.104831345 0.05499582 0.09118636 -0.063088045
-0.0042642453 0.107318774 0.09987773 0.16753058 0.18057333 0.18320468 0.1393793 -0.0632679
-0.016588204 0.13994348 0.19293533 0.04448998 0.14996952 0.18445615 0.12081428 0.17310569
-0.0014057393 0.016620373 0.06427559 -0.12610403 -0.00949972 -0.09276517 -0.08001714 0.12451297
0.11950302 0.0052084443 0.013008879 0.06215894 -0.0023310066 -0.1075699 0.007408424 0.10498517
-0.13092382 0.03361073 0.09142512 -0.15366909 -0.023812965 -0.0008107143 -0.010399936 0.16936572
0.069952525 -0.04252966 0.047241878 -0.16267052 -0.12073905 0.12988976 -0.07263134 0.21788299
0.06317111 -0.09886775 -0.07388403 -0.08459284 -0.03483514 -0.13770293 0.027513592 0.12531619
0.12126223 -0.034375798 0.033683073 0.08101821 0.030938383 -0.10340335 -0.07270029 0.0044407183
0.015424724 -0.043385703 0.053646944 -0.14394802 0.044897825 -0.05554419 -0.066176794 0.030299395
-0.074032724 -0.026433649 0.16155174 0.04486116 -0.1392876 0.13467336 -0.013675099 -0.12941942
0.13393588 -0.036826566 0.030599706 0.13420177 -0.07686206 -0.020580439 0.030071935 0.21897203
0.05323351 0.17200647 -0.0857027 0.15944424 0.085078575 -0.02202248 0.26235345 0.0720542
0.10260637 -0.020237362 0.16773154 -0.023221893 0.04410021 0.01427592 -0.096616514 0.26723593
0.08956011 0.1816333 0.024522983 -0.08661532 -0.021918705 -0.056733355 0.124068074 0.14635739
0.23008667 -0.060703997 0.0019404823 -0.015593818 -0.001405526 0.00039949216 0.005063939 -0.050641917
-0.019067982 0.33989993 0.08939875 0.063458845 0.14827019 -0.120502666 0.036565095 0.007259408
0.1798991 0.15928714 0.17095973 0.023238605 0.196196 0.0033347607 -0.059012644 0.11058126
0.060925525 0.0066468306 0.14874898 0.05906552 0.0950419 0.16986528 0.0090141175 0.04489779

lstm2.bias_hh_l0 f4 [256]
00000000: 8899 0e3e c1e8 d23d ff10 a0bd 27af 2a3c
00000010: c994 ac3c e89e ebbc fe9d c6bd 59ba 303e
00000020: cf8b cbbd 6fea 8d3d 7a8c 78bd 665b 4a3e
00000030: da6f 783e 25eb bbbd 4806 883e 6133 a0bd
00000040: 1918 1b3d fba4 b43d ae07 1d3e 772e 20bd
00000050: 437f 38bd 2495 cf3d 5587 70bd fe73 823c
00000060: c5ff 883d 5d12 513e 9226 86bd 6e9f af3d
00000070: b7f3 ec3d 4a09 e73d 9136 843d 146f 023e
00000080: 5597 903c d772 bb3d ee82 8fbe f662 c93c
00000090: 0173 523d f3a5 753d 78d1 ebbd 88fd c23d
000000a0: 944d 103e 65ac d03e 6712 fd3d e13d 26bd
000000b0: f01c 77bd 87cd 59bd eda0 093e 1f1d 37be
000000c0: aadc f03d 55b7 86bd be3c a83c e8c4 b73d
000000d0: 15ef 4a3d 0cb9 babd 3e3a b63d 44d9 25bd
000000e0: 3292 eebc 31d4 0e3e ba83 863e 44b7 443d
000000f0: 1ddf 61bc 4610 b03d d2ad a23c 286a 98bc
00000100: 727e 09be 2a7c 233e add1 753b c5cb 6d3e
00000110: 8e8f 6fbc f2e5 6f3e c58c 883d dc7c 623d
00000120: 25c3 ba3d 3295 efbd d334 df3d 0346 4a3e
00000130: bc8f a63e 0b59 153d 695b fa3d 613a 0dbd
00000140: cfcc c4bd dd06 393d 6334 82bd 6908 983d
00000150: 59b0 723d 77bb 473e b9c8 483e c036 a13d
00000160: ddfe 2abd b637 383e c9c2 cd3d 7cf2 733e
00000170: 4c21 4e3e fa9b d23d 70ec 183e cad2 0a3e
00000180: 7617 433e ac91 7a3e ab14 713e aa14 bfbd
00000190: 694a f83d bd6c 673e 0b5e 91bb 98d5 013e
000001a0: 1a92 a4bd 7c44 6cbe 5092 5b3e 1a05 983d
000001b0: 03d4 aabd fd5f 85bd cffe 063d f61c f9bd
000001c0: 9e7b 5c3e 3131 1f3d 92ee 893e ac8c e83d
000001d0: e872 a73d fd51 7d3c fbde 9b3d be38 efbd
000001e0: 4373 ca3d e04b a83d 48ce 7c3e 42f6 ca3d
000001f0: 5ca5 c03d eac4 403e 5872 1f3d b6e0 743d
00000200: 76f3 2fbd 80f3 973d 0689 47bc 0077 a4ba
00000210: f084 133e e571 4bbd 4de6 62bc 3659 643b
00000220: 18b1 88bd 990d 1c3e ab77 2abe b7d2 5e3d
00000230: b8f4 3f3e 4c5d 32be 1bd3 8cbc 6579 99bd
00000240: 36b8 6ebc 1519 ff3d 85c0 193e c67e eb3c
00000250: c174 08bd 5c95 483d 1d6d 183e ec5a 183b
00000260: a3cd 8fbd 2f90 0dbe 8248 0cbe 6a64 22be
00000270: 3a4c 9b3d af34 bf3d 2ee1 2d3d bc80 2e3e
00000280: f5e2 a5bc 4737 113d 7489 c83c 938d de3d
00000290: 42c7 06be 2008 1bbe 40c6 11be e90c 633d
000002a0: 3d2b 8f3c 67ce 4c3d d4df 37bd 0a7c a33d
000002b0: d530 49bb 76e9 43bd 808a 92bd ed57 8cbd
000002c0: f99c b5bd 0d11 42bd 51a7 da3d 9f32 e4bd
000002d0: ed48 ce3d 84c9 49bd 952f 1bbe 28bc e1bd
000002e0: b4a4 c7bd ad54 c93c abbb 05bd 1c61 25be
000002f0: 3351 e3bd 78e1 fd3d 9704 18be 15c4 06be
00000300: b288 d73d b2bc c63c 34b1 d43d 9a8d 12bd
00000310: 9472 afbc 4398 c2bd 6000 6ebd 7071 1e3e
00000320: d062 a6bd a9ef 463e 13ed 39bc fdc3 633e
00000330: cf34 b53d 32bc e0bd 20e8 583e 68bc 2b3d
00000340: aae9 193e d1d9 b9bd 0c64 cf3d 21ce 41bc
00000350: 4d32 363e 2dd1 a93d 9301 2dbe c80f 853e
00000360: b2b2 8ebd b215 573e 21ea 0abd f2b6 e7bc
00000370: ff79 b9bc 5902 47bc 2178 f73d e2da 333d
00000380: beea 853e 6779 6d3d c81a 013e 1b96 a53d
00000390: 7c29 90bd dc5e 063e 49da cabc 37b2 063e
000003a0: 2904 033e dcd6 9b3e e13b 2c3e f592 9f3d
000003b0: fdbf 553d 1a72 8f3c 2366 193e 005e c73d
000003c0: 0d29 1fbd ffa5 253e a637 3d3e 6f16 183e
000003d0: 0314 933e 3f9f 593e 2490 ea3d 16df 1d3d
000003e0: 8a9e a63d 3464 353e 3337 223d 088c 453d
000003f0: 4515 d23d db75 7f3e 99e6 13be 15a7 903e
0.13925755 0.102983005 -0.07815742 0.010417736 0.02106704 -0.028762296 -0.09698103 0.17258586
-0.09938776 0.0692948 -0.060680844 0.19761428 0.24261418 -0.0917571 0.26567292 -0.078223
0.03786478 0.0882053 0.15334961 -0.039106812 -0.04504324 0.10135868 -0.058722813 0.01592445
0.06689409 0.20417161 -0.065503255 0.08575331 0.115699224 0.112810686 0.0645572 0.12737685
0.017650286 0.09152763 -0.2802958 0.024583321 0.051379208 0.059972715 -0.11514562 0.095210135
0.14092094 0.40756527 0.123570256 -0.040586356 -0.06033033 -0.05317452 0.13440295 -0.17882203
0.11760838 -0.065779366 0.020536777 0.08973104 0.049544413 -0.09117326 0.088978276 -0.040490404
-0.029122446 0.13948132 0.26272374 0.04802634 -0.0137861045 0.08596854 0.019858275 -0.018605307
-0.13427141 0.15965334 0.003750901 0.23222263 -0.014621628 0.23427561 0.06667475 0.055294856
0.09119252 -0.116983786 0.10898747 0.1975327 0.32531536 0.03646187 0.12224466 -0.034479503
-0.09609377 0.04517256 -0.06357648 0.07423479 0.05925021 0.19505106 0.1960782 0.07871771
-0.041746963 0.17990002 0.10046918 0.23822969 0.20129889 0.102836564 0.14933944 0.13556972
0.19051918 0.24469632 0.2354304 -0.09330113 0.121235676 0.22600074 -0.0044362596 0.12679136
-0.08035679 -0.23073 0.21442533 0.07422848 -0.08341219 -0.06512449 0.03295785 -0.12163727
0.21531531 0.038865272 0.26939827 0.11354956 0.081762135 0.015461442 0.076108895 -0.116807446
0.09885266 0.08217597 0.24688065 0.09910251 0.0940654 0.18825117 0.038927406 0.059784614
-0.04295679 0.07419491 -0.012178665 -0.0012547672 0.1440618 -0.049669165 -0.013848853 0.0034843213
-0.06674403 0.15239562 -0.16647212 0.054400172 0.18745697 -0.17418402 -0.017190507 -0.07493857
-0.0145702865 0.12455956 0.15014847 0.028746974 -0.03331447 0.048970565 0.14885373 0.0023247553
-0.07021644 -0.13824533 -0.13699535 -0.15858617 0.075828984 0.093362205 0.042451076 0.17041296
-0.020249823 0.035453107 0.024479605 0.10866847 -0.13161948 -0.15139818 -0.14235783 0.055432234
0.017476672 0.050001528 -0.044891194 0.07982643 -0.0030699272 -0.047830068 -0.07155323 -0.06852708
-0.08867831 -0.047379542 0.10676444 -0.11142468 0.10072503 -0.049264446 -0.1515487 -0.11022216
-0.097482115 0.02457651 -0.032649677 -0.16150326 -0.11099472 0.123965204 -0.14845501 -0.13160737
0.105241194 0.024259899 0.10385361 -0.035779573 -0.02141694 -0.09501698 -0.058105826 0.1547296
-0.08124316 0.1942736 -0.011348027 0.22242732 0.08847963 -0.109733954 0.21182299 0.041927725
0.15030542 -0.09074748 0.10126504 -0.01182893 0.17792626 0.0829185 -0.16895132 0.25988603
-0.06967677 0.2100437 -0.03391469 -0.028285477 -0.02264118 -0.012146556 0.1208346 0.043909915
0.26155657 0.057977106 0.12607872 0.08085271 -0.070391625 0.13122123 -0.02476229 0.13153921
0.12794556 0.30437362 0.16819717 0.07791702 0.052185047 0.017510463 0.14980368 0.09734726
-0.03885751 0.16176604 0.1847826 0.14852308 0.28726205 0.21252154 0.11453274 0.03854283
0.08135708 0.17714006 0.039603423 0.048229247 0.10257963 0.24947302 -0.14443435 0.28252473
