saved_model/DAP_Model_Huber.pt (torch, 236146 bytes, 12 tensors)

lstm1.weight_ih_l0 f4 [256, 8]
00000000: f2e3 43bc 2afb 2f3d 28e8 c33d 1aa0 86bd
00000010: 2956 c43b aa36 e2bc 2748 7cbd b508 1a3d
00000020: 5442 d13d 2214 92b8 132b fcbd e036 223d
00000030: 9943 603d 88f5 873d dbb1 c53d 85a6 86bc
00000040: de25 073e 0162 48bc 7f41 f73d 47d5 b6bd
00000050: 0b3e f63d 3501 9fbd a82f b53d 22d4 e63b
00000060: 0e95 9abd 0286 dcbd bff6 d1bd d4d2 f0bd
00000070: 4e56 be3d 6c45 9abd bcda 50be ae2a 21bc
00000080: 205a b4bd ee47 fcbc 84a1 b8bb 3282 cebd
00000090: faa2 283d 5122 77bc fb52 2bbd 2216 05be
000000a0: 0859 f3bd a68d 2c3d 25bd 84bb 6107 15bd
000000b0: 7268 743d f120 93bc f126 c43d 03de a33c
000000c0: c18e 46be 0f4e 49be 0ccd 4d3d b0b0 e1bd
000000d0: aca3 283d 6c8f 05be 9711 f1bd d5c3 f63c
000000e0: 2c38 36bd dbdb 9b3c 7749 b2bd 372d 1fbd
000000f0: 79d2 9c3c 2481 653c 1b37 96bc 35ba 10bc
00000100: fe0b de3d 09ef 413e 1b18 e23c fc47 893c
00000110: ec14 e23b 0292 3abe 17fa 573e 12fe cabd
00000120: 644d 18be d7e3 a73d 2a51 083c 7a35 68bd
00000130: 2612 163d 35dd 2c3e 04b5 dfbd 2e0e 173d
00000140: 2d29 9f3d 0d6c ce3c f351 c03d 0744 ac3d
00000150: ab33 413d 8a61 1bbe a89c ed3d cdc8 55bb
00000160: c2cb 77bd 9a66 14bd 0f52 35bd 0105 903d
00000170: f0ce 20bd 35a2 753c 866e 18bb 91d1 43bd
00000180: 195f 4c3e bec2 de3d b57c 703b 0503 6dbd
00000190: 95dc a5bc 87f0 453c e61e 033e 613c 6cbd
000001a0: bd1f 88bc 39ab 44bd 5816 313e 260b 893d
000001b0: 84ea 1fbd 4ddd 00be 2a4a 88bc 0c3a 01be
000001c0: daca 76bd 172b 3b3e 47dd 47bd ecbf f4bc
000001d0: af2d 6ebe c5bd 06be 0f3a f63d 925c 9fbd
000001e0: eeb9 02be ade2 033d faad 623d 7a4b eebd
000001f0: 45ce 88bd 02ab 4e3d e95c c43d 3877 c4bd
00000200: cf80 cebd 0be3 ff3d cf47 b63d e948 1d3c
00000210: 34be 22bd e7f7 2d3d 1f06 e4bd 332c 00bd
00000220: 798c 3c3d 2ece 1c3c c9bf a83d 98b3 25be
00000230: aa80 84bd 2509 493c 3731 af3d 5dae 8c3b
00000240: 6552 61bd 7ddf a4bc 4f5a b5bd bc2d a73d
00000250: ceec 1f3d 3a81 e23c 0ec1 b33c 9176 303e
00000260: a921 c8bd a9d3 953d b4b9 b7bc 2f45 8f3d
00000270: 6658 7dbd 0939 253d 6ce7 2c3e 329e 88bc
00000280: b010 ed3d e96e 06be 34a5 ff3d 7b6d b53d
00000290: 2081 32be 8558 76ba 3dd8 8f3d 2dfc 0e3e
000002a0: c635 b53d d2c6 dcbc 6458 88bd ab7b 5abd
000002b0: 3eb7 88bb 35f1 edbc deb6 f1bd c295 abbd
000002c0: 3313 043e 7330 7abd 5851 0d3e 4fe6 0cbd
000002d0: 721d f2bd 84e7 f3ba 6b7a a03c 500d 0ebd
000002e0: 359e 8cbd 8d51 1e3d 458b 7fbc d468 153e
000002f0: e8bf 513b 4b6c 1cbe 6494 9ebd 4b6d b5bd
00000300: 881d 113e a731 233e be11 833d 6030 a1bc
00000310: 2661 fdbd cca5 143c 6846 663d f7e5 0f3d
00000320: e96c e7bd 9934 e2bc 8ad6 8abd ce47 a4bd
00000330: 9a2c 5f3d f013 05be 0a2a a6bd e17c f23c
00000340: 7e2f 6c3d 368f 883d 53be 14bb cca5 cc3d
00000350: c66c 0e3e 8156 14bd 004d 75bd d4ea 3fbc
00000360: 6762 b73d 4c9a 883d 1a1c 0fbd a233 223c
00000370: 8801 6bbe 047f c73c 1593 22be fa4d debc
00000380: 1dac 073e 96ab 103e 9a72 cfbc 0984 0d3a
00000390: 359a 873d faac 31bd 5a48 2e3d 3f2f be3d
000003a0: 0f87 d63d be2a fabb e064 cabd c2d4 59bd
000003b0: 0937 633d 4eec 653c 67a9 7d3d 66be 87bb
000003c0: 6ac8 a0bc 07fe c3bd 34fd 69bd 8e1d 863d
000003d0: 79c2 b7bd 6f11 e6bc af61 153e 3a80 9f3c
000003e0: 0dae 033e b713 513d 1db3 fa3d 8988 bdbd
000003f0: 30c1 18be 458c 043e f667 d53d 5935 173d
-0.011956202 0.042964138 0.09565765 -0.06573506 0.0059917164 -0.027613956 -0.061592247 0.03760596
0.10217729 -6.9655725e-05 -0.12312903 0.039603114 0.054751966 0.06638628 0.09653064 -0.016436825
0.13198039 -0.012230397 0.12073039 -0.08927398 0.120235525 -0.07763902 0.0884698 0.007044331
-0.07547961 -0.107677475 -0.10252141 -0.11758962 0.09293805 -0.075327724 -0.2039594 -0.009836836
-0.088062525 -0.030796017 -0.0056344885 -0.100834265 0.04117105 -0.015083865 -0.041827183 -0.12996724
-0.11882216 0.042127274 -0.004050868 -0.03638399 0.05966992 -0.017960044 0.0957774 0.020003324
-0.19390394 -0.19658683 0.050244376 -0.110200286 0.041171715 -0.13042992 -0.11770933 0.030122677
-0.044487163 0.019025734 -0.087054186 -0.03886148 0.01914333 0.01400784 -0.018336823 -0.008833458
0.10842131 0.18938841 0.027599385 0.016757958 0.0068994667 -0.1821976 0.21091495 -0.09911741
-0.14873272 0.08197754 0.008320132 -0.056691624 0.0366384 0.16881259 -0.10923198 0.036878757
0.077715255 0.025198007 0.093906306 0.08411413 0.047168415 -0.15173927 0.116021454 -0.0032620907
-0.060497053 -0.03623066 -0.04426771 0.070322044 -0.03925985 0.014992286 -0.0023259236 -0.04780728
0.19958152 0.10876988 0.0036695425 -0.057864208 -0.020246783 0.012081272 0.12804756 -0.05767477
-0.016616696 -0.048014853 0.1729368 0.066915795 -0.03904201 -0.1258442 -0.016636927 -0.126198
-0.060252048 0.18278156 -0.04879501 -0.029876672 -0.23259614 -0.13158329 0.120227925 -0.07781328
-0.12766239 0.032198597 0.0553417 -0.1163549 -0.06679968 0.050456055 0.09588034 -0.09593052
-0.10083162 0.12494477 0.08900415 0.009599903 -0.039732173 0.042472746 -0.1113398 -0.03129215
0.046032403 0.009570641 0.08239705 -0.16181791 -0.06469853 0.012270247 0.08554309 0.0042932467
-0.05501022 -0.020126099 -0.088551156 0.0816302 0.039044194 0.02764951 0.021942642 0.1723273
-0.09772045 0.073157616 -0.022427417 0.069956176 -0.06185188 0.040337596 0.16885155 -0.016676996
0.115754485 -0.13128246 0.12482682 0.08858772 -0.1743207 -0.0009397346 0.07023666 0.13963385
0.08848147 -0.026950274 -0.06657484 -0.053340595 -0.004172235 -0.02904568 -0.11802457 -0.083781734
0.12897949 -0.06108136 0.13800561 -0.034399327 -0.118220225 -0.0018608426 0.019589623 -0.034680665
-0.06866113 0.03865199 -0.015597169 0.1459077 0.0032005254 -0.15275685 -0.07743147 -0.088587366
0.14171422 0.1593691 0.063998684 -0.019676387 -0.12372045 0.009072732 0.05621949 0.03513142
-0.1130007 -0.027612971 -0.06779201 -0.08021508 0.054485895 -0.12995887 -0.08113487 0.029600563
0.05766248 0.0666794 -0.002269645 0.09992561 0.13908681 -0.03621531 -0.059887886 -0.011713702
0.08954316 0.06670055 -0.03493891 0.0099000055 -0.22949803 0.024352558 -0.1587642 -0.027136791
0.1324925 0.14127955 -0.025323201 0.0005398398 0.066212095 -0.043377854 0.04254947 0.09286355
0.10474979 -0.00763449 -0.09882522 -0.053181417 0.055472407 0.01403339 0.061929133 -0.0041425703
-0.019626815 -0.09569936 -0.05712624 0.06548606 -0.089726396 -0.028084485 0.14588045 0.019470323
0.12859364 0.051044192 0.122411944 -0.09254558 -0.14917445 0.12944134 0.104202196 0.03691611

lstm1.weight_hh_l0 f4 [256, 64]
00000000: 1b59 013e 837d 07bd c3ec 30bd 0d5e 403d
00000010: 5f03 2dbc 8436 bfbd f052 bf3d 60f6 a0bd
00000020: de04 cb3c 23a7 22bd 802f ac3d 95d2 a33c
00000030: e07b 8f3d bd3e 8c3d ad38 72bd 8100 ad3d
00000040: 285a 1ebe 4553 cb3d 4767 193b 40e1 c13d
00000050: 32d1 3dbc 7312 873d 75d0 85bb 1a39 16ba
00000060: cbae 053d d6e3 cf3d 69b4 f5bc f8ed c8bc
00000070: 81ea c5bd 75a5 d9bd 06db 9bbc 5191 cabb
00000080: b94e f5bd 87ec 3c3e 7a7f 26bb 25ec 1b3e
00000090: e6e2 50be cb03 19be 5f9e 163d e331 283b
000000a0: 80b6 243d 109c 0ebe c7fe 5abe 3ba8 243e
000000b0: ea90 c63c 43f9 393c b576 dd3b d6a4 aebd
000000c0: c9cf e4bd e753 be3d 82a7 ee3d c419 863d
000000d0: 8419 f63d 67c9 323d 813d 0f3d 5f51 8a3d
000000e0: 9955 f3ba f342 14be 6280 d53d 7568 b5bd
000000f0: 55b0 30be 8061 c73b cdd5 a33d c202 31bc
00000100: 0f09 983d 7a09 1a3e 18e6 9ebc 44db 39bd
00000110: 8649 da3a f239 e73d fc3a 1ebd 3614 38bd
00000120: 4eef 8dbd 70a0 25bd f419 d5bd 6c5a 233d
00000130: 55a8 92bd 4b0e d63d 6960 d7bd df46 2dbd
00000140: 9010 343e 295a ba3b e415 54bd a8b3 da3d
00000150: a4b3 8c3c b9bf aa3d 47b1 6c3d ad1c fa3d
00000160: 2e44 c73d 662c c13d 1d2a 773d 906f f33c
00000170: ac80 81bd 165c a2bd 0d13 c1bd 2ce5 b83b
00000180: f2e4 fabb 6cd8 0abc 0fae e33d 2dd3 903c
00000190: a004 57bc 32e3 0e3c 6e45 823d 6909 2bbd
000001a0: dfc2 11be c480 9f3b 86a2 b1bd d826 10be
000001b0: b467 fcbd 349f 79bd 1419 dbbd 178a 0bbd
000001c0: 887f d73c fa76 bbbd 9be8 bcbd 59a0 0fbe
000001d0: 26c8 d0bd 55d7 ea3c 2bd0 903d b42b 623d
000001e0: e252 2ebd 5ae6 adbd c8bb 52bd f339 15be
000001f0: e3f4 1f3d 37dc 9d3c 8054 85bd 36f7 a83d
00000200: 48ad 97bd b94c 1dbe d559 babb 0f9b 3bbc
00000210: d810 313c 5d1e db3d 8c1c 043e 9769 33be
00000220: 935e 22bd 8cfe e83d d6fc 45bd 57f2 b2bd
00000230: 4dc5 b93c a6d0 373e a902 1fbe a22e dbbd
00000240: 7dfa 27be 63d4 4a3d f82e 533d 5544 fd3c
00000250: 552f 0a3e ef38 993c 7725 643d d64f 163e
00000260: c676 743d d640 ac3c d44c 9e3d 7d4a 6d3d
00000270: ea20 b9bd b1a0 48bd bab8 f73d 2606 963d
00000280: 4ec8 d1bd a197 adbd ddec 58bd 2f84 b63d
00000290: 875a 0b3d e25f 363c 25e9 153d f88d d63c
000002a0: aae6 5bbc f87c f0bd 3057 613d adab 98bc
000002b0: f065 963d 64cf 9ebd d9c1 333d 2919 903d
000002c0: c8df ac3d 2e7b 69bd e458 9eba 1c7c 31bb
000002d0: 8df8 043d 9057 f9bc d33d bfbc 508f 863d
000002e0: 9a9f 9dbd cd4b 2fbd 153d 743d 625d 8e3d
000002f0: 1501 0c3c 6db2 c83d e292 d9bc 4e13 1abc
00000300: aa56 3f3e 3162 a5bd 8ac5 45be e062 abbd
00000310: 4eb4 b639 6b49 c03d 42b2 56bd db1e a83d
00000320: 8f02 993d 9e75 773d 9b89 bbbc 9ed1 8b3c
00000330: 776c 26bd a186 123e e536 27bb a233 0d3d
00000340: ad54 493d 0caf 0f3e a156 dfbd 0cf4 c1bd
00000350: 4cf3 9fbc 382e 2b3d 5709 4dbd 1f9d 523b
00000360: c48e d6bd 3e44 aa3d 5d72 bf3d 46df bebc
00000370: 90a6 08be a580 e53c 00c1 8abd 31cc b5bd
00000380: 7c02 e43c 703e 573d e21a ad3d 14e2 9bbd
00000390: 3034 60bc 7762 3d3c e044 e33a 9c34 903d
000003a0: 243e e33d e436 023e a650 a5bc 53ec b0bd
000003b0: 04ec 06bd 8601 043e 845b 1abe 5f8d 3e3d
000003c0: 5c5e 973d fa4a 223e 8a6d 993d fe7d b3bd
000003d0: ceaf 873c ef45 913d 612c 363d 5569 1d3d
000003e0: 6893 e8bd 8700 e7bc c8c4 1abb bd5d 8dbd
000003f0: e877 cbbc 9e89 1cbd 1ff0 62bd 7c16 bfbc
0.12631647 -0.03307868 -0.043194544 0.046964694 -0.010559886 -0.0933657 0.09341991 -0.07859492
0.024782594 -0.039710175 0.084074974 0.019997874 0.07006049 0.06847904 -0.05913608 0.08447362
-0.1546408 0.09927992 0.0023407505 0.09466791 -0.011585521 0.06595316 -0.004083688 -0.00057305547
0.0326374 0.10150878 -0.029993253 -0.024527535 -0.09663869 -0.106272615 -0.019025337 -0.006181874
-0.11977906 0.18449603 -0.0025405572 0.152268 -0.20399055 -0.14942853 0.03677213 0.00256645
0.040213108 -0.1392672 -0.21386252 0.160798 0.024239022 0.0113509325 0.0067585357 -0.08527534
-0.111724444 0.09293347 0.11653043 0.06547883 0.120165855 0.043649103 0.034970764 0.067538016
-0.0018564939 -0.14478664 0.10424878 -0.08857814 -0.17254765 0.006084621 0.07999764 -0.01080388
0.07423603 0.15042678 -0.019396827 -0.045375124 0.0016653992 0.11290349 -0.03863047 -0.04494115
-0.06930409 -0.04043621 -0.10405341 0.039881155 -0.07161013 0.10451945 -0.10516436 -0.042303916
0.17584443 0.0056870175 -0.05177869 0.10678798 0.017175503 0.083373494 0.057786252 0.12212501
0.09729801 0.094322965 0.060342897 0.029716283 -0.0632337 -0.0792772 -0.09427462 0.005642554
-0.007656687 -0.008474451 0.111171834 0.017678821 -0.013123661 0.00872116 0.06360899 -0.04175702
-0.14234494 0.004867645 -0.08673577 -0.14077318 -0.12324467 -0.060942844 -0.10698143 -0.03406724
0.026305929 -0.09153552 -0.092240535 -0.14026012 -0.10194425 0.028667131 0.07070955 0.05521746
-0.042559512 -0.08491202 -0.051448613 -0.14572887 0.0390519 0.019270046 -0.06510258 0.08250277
-0.07406098 -0.15361299 -0.0056869783 -0.011450543 0.0108072385 0.10699151 0.12901515 -0.17520748
-0.039640974 0.11376676 -0.048336826 -0.08737629 0.022677088 0.17950687 -0.15528359 -0.10702254
-0.16404147 0.049518954 0.051558465 0.030916372 0.13494618 0.018703906 0.05569979 0.14678892
0.059683584 0.02102701 0.077294976 0.057932366 -0.09039481 -0.048981372 0.12095781 0.073253915
-0.10243283 -0.084761865 -0.052960265 0.08911931 0.03402188 0.011131259 0.036599297 0.026190743
-0.013421694 -0.11742586 0.05501479 -0.018636549 0.07343662 -0.077544 0.04388604 0.07036049
0.084411204 -0.05700224 -0.0012080935 -0.0027082032 0.0324636 -0.03043726 -0.02334491 0.065703034
-0.07696457 -0.0427969 0.059628565 0.06951405 0.00854518 0.09799657 -0.026559297 -0.009404017
0.18685403 -0.08075369 -0.19313636 -0.08368468 0.00034848083 0.09389003 -0.052416094 0.0820901
0.07471191 0.060414903 -0.022892764 0.017067727 -0.040630784 0.1430917 -0.0025514897 0.03447307
0.04915302 0.14031619 -0.10905195 -0.09470376 -0.019525193 0.041792125 -0.050057735 0.0032137109
-0.10476449 0.083137974 0.09347985 -0.023299824 -0.13344789 0.028015444 -0.06775093 -0.08876837
0.027833216 0.05254978 0.08452393 -0.0761148 -0.0136843175 0.01155912 0.0017339252 0.070412844
0.11095837 0.12716252 -0.020180058 -0.08638825 -0.032939926 0.12891206 -0.15073973 0.04652154
0.073910445 0.15848914 0.07491596 -0.087642655 0.016563322 0.07093417 0.044475917 0.03843053
-0.113562405 -0.028198494 -0.0023615826 -0.06902645 -0.02483745 -0.03821718 -0.05540478 -0.023326151

lstm1.bias_ih_l0 f4 [256]
00000000: fb15 b13c 6a3c 91bd 07de b6bc bf21 94bd
00000010: 3db8 e13d 86ab d03d 73ec d63d 540d 29be
00000020: b5de 7c3d 7be6 993d 1ff1 bbbd e05f e53c
00000030: f686 343d 65f2 9f3c b6c8 a53d e530 85bd
00000040: 26f2 4e3d ef29 adba cdff 2e3c 78d0 383d
00000050: 04bd 013d a897 13bd 867d 0e3c 6c20 69bb
00000060: 6205 7fbd cc97 3bbd 666f 87bb 3c50 08bd
00000070: 1873 b23d 1a90 8f3d 4811 6bbb b5ef dfbd
00000080: d03d 06be e7dc 1e3e 6dce 423d c6e9 42bd
00000090: 1388 de3c 1043 1cbd 5722 f2bd 1994 01be
000000a0: 36ba a8bd b037 a93d 4d03 d0bd 869f 083e
000000b0: fd70 883d f4f3 923d cca0 24be 91e2 a93d
000000c0: 5196 33bd a53b 0ebe 05fe 97bb 2e81 e43d
000000d0: b7fb bb3c a809 ecbd 0f20 8fbc a0b3 e0bc
000000e0: d378 a6bd 239e 9abd c6af 38bd 97bb 89bd
000000f0: dd92 c0bc 3ba1 dabd b62c 3abd 433a 00be
00000100: ab3a 5fbc a4fa aebc d1e8 a6bc c02c 2d3d
00000110: 0dcf 62bd 5786 99bd f885 75bd 9ace bd3c
00000120: 2382 153e ca12 ddbd 6ee7 163d 54de 9ebd
00000130: 1b17 d73d e27f 58bd 66fe b0bc ddef 6f3d
00000140: fe55 05bd fc08 ebbd d393 95bd bc5f a13c
00000150: 3d81 293d 0a69 bf3d 7093 d53d ec8c 843d
00000160: 1513 7cbd 341f 93bd a06b 123d fcf9 8fbc
00000170: 9497 abbd dc45 d4bb 2d01 cdbd e33d 12bd
00000180: b1ad 3a3d bcb7 493d 4e53 91bd e6c6 c8bd
00000190: 994d 5c3c 18b1 9d3d a0d2 f5bc 9345 4bbd
000001a0: 5bb1 2c3e a177 c0bd 78d2 063e 2516 fdbd
000001b0: 5404 b63d 7761 49bd 8bf3 07be d431 573b
000001c0: 41a4 38bd 1718 cfbd 0340 303b 42c7 523b
000001d0: ee9b 68bd 5377 0b3e 50de ddbd fc6b 55bd
000001e0: 4b29 5b3e 1a99 ccbd 58b4 a3bc 3af5 81bd
000001f0: b00d d6bd 510b 8dbd 21a7 c73d 3da6 1fbe
00000200: 5e17 fb3d 9ac0 6c3d 9c1c 003d 841f a13d
00000210: fb19 08ba 041b 793c 3fa2 e2bd 2b6e c03c
00000220: 12e3 4e3e 8ab6 063e 8a5a 2d3d 3c2e ecba
00000230: 40aa d33b 3e5a 713c 663e 91bb 2efa 94bd
00000240: 22d1 d6bd f0d9 fa3d 045c 0cbe 22e4 a2bc
00000250: b850 f1bd 3fad 0dbe a7b8 9abd af86 8cbd
00000260: 32d2 1fbe 5c93 47bd 3a60 013e 85ff f53d
00000270: ea03 e9bd ba35 b33c 7e5c 05be 48e4 7dbd
00000280: c53e 983d 3162 4d3d b9f5 a23d f1e9 22bd
00000290: b2d0 303d d579 103e 75dc f53c c957 09bc
000002a0: 99ee cb3b 39ae bebc ff1c 50bd 1bae c23d
000002b0: b393 c9bc cc7c f1bc b17b 2d3d f386 253e
000002c0: 5062 c8bd 8ace f23d 45b1 7dbc c1c4 063e
000002d0: 896a 22bd c588 a1bd 924f 123b 1f5a e2bd
000002e0: af9d 24be ee1f 5cba fe38 12be 9379 743c
000002f0: 80a5 d13c d1c7 353d a0ae e7bc c7fe 623d
00000300: 3bcd 80bd c247 55bd 8cd0 143d df7e 813d
00000310: 4591 4fbb 20bf c2bc a62c 3ebd 9133 04bd
00000320: 8f59 f9bb bbc9 333d 6729 083e 6ae7 5f3d
00000330: b65d 9bbd 727f 623d de63 f43d 8d29 773d
00000340: 70db f53b 129f dd3c ecbe a6bd 2a9a 4cbd
00000350: 0dc8 cd3c 97ce cabd 1716 65bd 8783 3abd
00000360: 8545 0e3d 9052 babd c694 0c3e e259 cb3d
00000370: ffd0 133e ed87 a3bd 17e6 a2bd 06e0 dc3d
00000380: 1c60 0bbd d9e9 71bd fe55 a8bd 202e 38bd
00000390: 4ff1 903d 43b2 d43d 86b1 e93c 4e94 803c
000003a0: 9d0b f6bc d10e 023e 7cc1 aebd b9a3 263d
000003b0: 98df b63d e341 00bd 27c9 0cbd 7cc1 3abc
000003c0: 8b1a 1e3e 2fbd 413d 408c d83d e302 05bd
000003d0: 2c96 9b3c e498 053e bb08 013d e14a e5bd
000003e0: 44bf 9dbb d540 973c f9c2 f33c e1c1 72bd
000003f0: 61d9 a73d 42c7 ee3c fdc2 acbd 8d73 d9bd
0.021616926 -0.07091601 -0.022322668 -0.07232999 0.11021469 0.101889655 0.10494318 -0.1650899
0.061735827 0.07514664 -0.091768496 0.027999818 0.04407402 0.019524762 0.08094923 -0.065034665
0.0505239 -0.001321135 0.010681105 0.045120686 0.0316744 -0.036033303 0.008696919 -0.0035572303
-0.062260993 -0.04579906 -0.004133153 -0.033279642 0.08713359 0.07009907 -0.0035868455 -0.10934392
-0.13109517 0.15513955 0.047560144 -0.047586225 0.027164495 -0.038149893 -0.11822956 -0.12654151
-0.08238642 0.08262575 -0.101568796 0.13342103 0.06662176 0.071754366 -0.16076964 0.08295167
-0.043844525 -0.1388994 -0.004638436 0.111574516 0.022947175 -0.11525279 -0.017471341 -0.027429402
-0.08128514 -0.075496934 -0.045089506 -0.06725233 -0.02350753 -0.106752835 -0.045452796 -0.12522225
-0.013624827 -0.02135975 -0.020374687 0.042279005 -0.05537324 -0.074963264 -0.059942216 0.023169804
0.14600424 -0.10794599 0.036841802 -0.077572495 0.10502454 -0.052856334 -0.021605682 0.05857836
-0.03255271 -0.11476323 -0.07303586 0.01969897 0.041383017 0.093462065 0.10428512 0.06472191
-0.061541636 -0.07183686 0.03574717 -0.017575257 -0.083785206 -0.0064780544 -0.1000999 -0.03570355
0.0455758 0.04924749 -0.07095967 -0.09803562 0.013446235 0.076997936 -0.03000766 -0.049626898
0.1686453 -0.093978174 0.13166225 -0.12357739 0.08887544 -0.049165215 -0.13276498 0.0032836096
-0.04507852 -0.10112017 0.0026893623 0.0032162224 -0.05678933 0.13619737 -0.10833418 -0.052104935
0.21402471 -0.09990139 -0.019983456 -0.063456014 -0.104518294 -0.06886924 0.09748674 -0.15590759
0.12260316 0.057800867 0.031277284 0.07867339 -0.00051918597 0.015204195 -0.11066102 0.023490032
0.20203808 0.1315557 0.042322673 -0.001801915 0.0064595044 0.014730988 -0.0044324873 -0.072742805
-0.10489108 0.122485995 -0.13706976 -0.019884173 -0.11782974 -0.1383562 -0.07554751 -0.06861626
-0.15607527 -0.048724517 0.12634364 0.12011627 -0.113777 0.021876205 -0.13023564 -0.061985284
0.07433847 0.05014247 0.07957024 -0.039773885 0.043167777 0.14108975 0.030012349 -0.008382746
0.0062235114 -0.023276435 -0.050808903 0.09505864 -0.024606561 -0.029478453 0.04235429 0.1616476
-0.097843766 0.118558004 -0.015484159 0.13160993 -0.03965238 -0.07887415 0.002232526 -0.110523455
-0.16075777 -0.0008397092 -0.14279553 0.014921564 0.025591612 0.044380013 -0.02828151 0.055418756
-0.062891446 -0.052070387 0.0363317 0.06323027 -0.003167228 -0.023772776 -0.0464293 -0.03227574
-0.007609553 0.043893557 0.13297044 0.054664053 -0.07586233 0.055297323 0.11933111 0.06034236
0.0075029656 0.02705339 -0.08141884 -0.04995171 0.025119806 -0.09902685 -0.05592927 -0.04553559
0.034734268 -0.09097779 0.13728628 0.09929253 0.14435194 -0.0798491 -0.079540424 0.107849166
-0.034027204 -0.059060905 -0.08219527 -0.044965863 0.07077276 0.10385563 0.028527033 0.015695717
-0.030034835 0.12700965 -0.08532998 0.04068348 0.08929366 -0.031312834 -0.03437152 -0.011398669
0.15439813 0.04729956 0.105736256 -0.032473456 0.018992506 0.13046604 0.031502467 -0.11195923
-0.0048140604 0.018463532 0.029756056 -0.05926693 0.081957586 0.029147748 -0.084356286 -0.10617743

lstm1.bias_hh_l0 f4 [256]
00000000: b401 ac3d 67d3 3ebe fe76 cf3c 6727 f13c
00000010: 6ebe 8b39 924a c3bc 5434 c13d c222 26be
00000020: e822 bf3c 1dae 85bb 74ed 41bd c69d 30bd
00000030: ca6f bfbd 842a 23bd 05d8 b3bc a2f3 19be
00000040: e942 c23d c0f7 013d b93d 4abe 0a80 e9bd
00000050: fe07 5e3d e02d 1abe 4093 0dbd bdb7 f43c
00000060: a53a 36be f86b 97bd d389 c1bd 54d0 95bd
00000070: eaa2 2bbd 1489 5fbd 87bc 03be 16cd 0ebe
00000080: 3e43 75bd 8621 babd 49cb e4bd 44e4 92bd
00000090: 05e1 0abe 3425 0ebd 5479 fd3a 0a2c fcbd
000000a0: 0178 84bd 293f d33b 3386 e8bd 5b61 323d
000000b0: ef03 b63d 1b90 3a3d bad3 3fbd a999 03be
000000c0: f120 8dbd 78c6 de3b 65cb 4d3d 8fa5 e13d
000000d0: 81d7 a23b a958 f43b f0de 04be fa79 8c3d
000000e0: 462b 0d3e 8d07 be3d 8b32 8f3d c34c 123c
000000f0: a044 23be de3b b6bc b614 82bd 06ce 1abe
00000100: 79c8 68bd 0554 f0bd ebaf c03d ada9 d7bd
00000110: 902b 25bd 2858 15be 4b3e 6bbd 8518 90bd
00000120: 0514 d73c 93f1 d2bd 5aa7 4fbd 4273 603d
00000130: 0126 d8bc bd6d 1c3d 5fa6 163e 1141 10be
00000140: 1aee dbbd c9a7 5bbd 5bf2 15be 634a 0b3c
00000150: a1dd b13d 6856 b73d 2d2d 8f3c f98a 023d
00000160: 8192 3bbd a2d9 28bd 25a3 b33d 45cc 173e
00000170: 5158 9b3c 1a43 27be 9b95 8d3d 8a0e 1bbd
00000180: 5ace dcbd fc3d eebb 1085 be3a 7f04 65bc
00000190: fe03 343d e5d7 1dbd 8bee 0a3d 9ced 953d
000001a0: 1051 0b3e 4221 c63d 4f69 e73d 3314 9c3d
000001b0: efe1 bfbd 9d39 123c 3050 b7bd 44bc 2abe
000001c0: 85fc d2bd d6db 2ebd 26c0 a53d 1b80 c9bd
000001d0: 8dcb cfbb 0cb3 453d 2a68 28be 0cda 3abd
000001e0: 19cb 3f3d 307c 22bd f188 1abe 00b5 633d
000001f0: c0d4 4d3d 79d4 373d 7873 7dbd 0521 04be
00000200: 0611 053e cf31 833d 1916 d1bd 9528 6e3d
00000210: 38b3 0cbe 5e21 09bd 19bc 00bd 1d15 8e3d
00000220: 3f97 1dbd d135 e73d cc15 04be 2092 8fbd
00000230: d1d0 5c3b f14b f0bd a34f be3c 663d 74bd
00000240: e9e7 c0bd f682 85bc cd5c 993d 8ef4 353c
00000250: 56c0 e7bd bbfd 1ebe c250 10be aeb6 e6bd
00000260: eef9 c7bd ddf7 7dbc 55f5 043e 0b1b ec3c
00000270: a911 98bd 3fa3 083d 0de9 96bd 8459 e4bd
00000280: eda0 8d3d 0eac 17be c52c 3d3d 1f2b c2bd
00000290: 3b18 7bbc 6f80 fd3d 754f 7fbd 1800 2cbd
000002a0: e418 c13d e3a7 713d 0435 de3d 78a9 e73d
000002b0: b051 373d 234c 103e 9693 e73d 5db8 a83d
000002c0: 9f73 133c 8f66 103e b7d8 94bd 9aa6 08bc
000002d0: 49ae 783c 33a5 ad3d 5d12 613c 9d4c 8dbd
000002e0: 1a97 cebc 2504 8f3d 6c04 c4bd 2dc8 26be
000002f0: e9a5 d43d f3d7 5e3d 6a71 133e ebbe c23d
00000300: b6f9 b4bc 7737 26be 5154 9f3c 2a7d 61bd
00000310: b8e7 a5bd 3aa3 053b 3c4d d7bd 96ea f8bd
00000320: 59e4 993d 758a f03c a9aa f83d 4f29 20bc
00000330: c0ba 4dbd 1cbb 92bc 736f 083e 72d0 a7bd
00000340: 1d38 363d 1c2a 843d 71f1 d6bd 113e 45bd
00000350: 115b 4c3d e7ac 92bc b570 f33d 0d52 c33a
00000360: c487 e4bd 0728 e9bd 5a5c 53bd 9908 1c3e
00000370: e9fb e33d a230 093d e3dd 833d 19ea ae3b
00000380: a0f3 d3bd 1767 a53d 4f01 d4bc 189b c43d
00000390: 7ce4 af3d 6287 0d3e c2e5 04be ae43 d63d
000003a0: 5e03 64bd 2565 d2bc 2008 233d 1d31 1d3e
000003b0: 42d5 273e e511 1e3e dc08 0fbc 943e bcbc
000003c0: c527 bc3d cdcc 013e f69a ff3c 4311 ecbb
000003d0: fbb5 8a3d 5f01 ed3d f9bc 043d 418a d23b
000003e0: 9a9e bc3d c0a8 06bd 8feb 9a3d 2cc6 c03d
000003f0: 0b5e 08be 2647 08bd e8a1 75bd 507d 34bc
0.08398762 -0.18635331 0.025325295 0.029437734 0.00026654027 -0.023839269 0.09433809 -0.16224197
0.023332074 -0.004079594 -0.047345594 -0.043119214 -0.09347494 -0.039835468 -0.021953592 -0.15034345
0.09485418 0.031730413 -0.19750108 -0.11401375 0.05420684 -0.15056562 -0.034564257 0.02987277
-0.17795809 -0.0739364 -0.09450116 -0.07315126 -0.041903414 -0.054574087 -0.12864886 -0.13945422
-0.05987858 -0.09088425 -0.11171586 -0.071724445 -0.135624 -0.03470345 0.0019338527 -0.12313087
-0.064682014 0.0064467383 -0.113537215 0.043549877 0.08887469 0.045547586 -0.046832778 -0.12851585
-0.06891049 0.0067985617 0.0502428 0.11017906 0.0049695377 0.007456858 -0.12975669 0.06859203
0.13786039 0.09278784 0.06992062 0.008929434 -0.15944147 -0.022245344 -0.063516065 -0.15117654
-0.05683181 -0.117347755 0.09408554 -0.1053041 -0.040324748 -0.1458441 -0.057432454 -0.07035927
0.026254663 -0.10299983 -0.05069671 0.05479742 -0.02638531 0.038190592 0.14711903 -0.14087321
-0.10738774 -0.05362681 -0.14643233 0.008501622 0.086848505 0.089520276 0.017477596 0.031870816
-0.045794014 -0.041223176 0.08771352 0.14824016 0.018963011 -0.16334191 0.069133006 -0.037855662
-0.10781546 -0.0072705727 0.0014535505 -0.013978123 0.04394912 -0.03853597 0.0339189 0.07320711
0.13605142 0.09674312 0.11299383 0.0762104 -0.09369265 0.008924869 -0.089508414 -0.1667338
-0.103020705 -0.04269012 0.0809329 -0.09838887 -0.006341404 0.048266456 -0.16445985 -0.045618102
0.04682455 -0.039669216 -0.15091302 0.055592537 0.050251722 0.044880364 -0.061877698 -0.12903221
0.12994775 0.064059846 -0.10209293 0.05814417 -0.13740242 -0.033479087 -0.031429384 0.06937621
-0.038474318 0.112895615 -0.1289894 -0.07010293 0.00336938 -0.11733235 0.023231333 -0.059628867
-0.09419233 -0.016297799 0.074884035 0.01110567 -0.11315982 -0.15526478 -0.14093307 -0.11265312
-0.09764467 -0.01550099 0.12984212 0.028821489 -0.074252434 0.03335881 -0.0736867 -0.11149886
0.0691546 -0.14811727 0.046185274 -0.09480881 -0.015325601 0.123780124 -0.062331636 -0.041992277
0.09428576 0.058998 0.10849956 0.113116205 0.044755638 0.14091544 0.11307447 0.082382895
0.008999734 0.14101623 -0.072678976 -0.008340502 0.015178272 0.08478775 0.013737288 -0.068993784
-0.025218535 0.069832124 -0.09571156 -0.16287299 0.10383207 0.054405164 0.14398733 0.09509071
-0.022091728 -0.16232096 0.019449385 -0.055051006 -0.081008375 0.002039148 -0.10512778 -0.12154119
0.07514257 0.029362896 0.12141926 -0.009775474 -0.050226927 -0.017911486 0.13323765 -0.08194055
0.044487108 0.06453344 -0.1049527 -0.048154894 0.049891535 -0.017904712 0.118867315 0.0014901772
-0.11158708 -0.11384588 -0.051601745 0.15237655 0.111320324 0.033493645 0.06438806 0.005337965
-0.10349202 0.080763035 -0.02587953 0.09599894 0.08588502 0.13821176 -0.1297827 0.104621276
-0.055667274 -0.025682995 0.03980267 0.15350766 0.16389945 0.15436514 -0.00873014 -0.022979058
0.09187273 0.12675782 0.03120182 -0.007204206 0.06772991 0.11572527 0.03240678 0.0064251726
0.09209938 -0.032875776 0.075644605 0.09412798 -0.13317125 -0.033270977 -0.05996886 -0.011016205

lstm2.weight_ih_l0 f4 [256, 64]
00000000: 9990 a3bd 40e1 af3c 4f05 163d ac05 28bd
00000010: 24a7 80bc a17a c43d 3ace 09bc e733 0a3d
00000020: ba68 cd3b e7c6 1f3c e3ee 7e3c 805a bc3c
00000030: d526 a2bd ba05 cebc aa85 a13d 7b16 9c3d
00000040: c262 a0bc 3b50 12bc 656a ca3d 2e42 bf3d
00000050: 131a ab3d 2af6 0b3b 7ffd c83d 4495 8ebc
00000060: feef 09be 4ca3 02be 36bb f1bd cfb2 a93d
00000070: f4c0 3ebd 98c2 7d3e 0ecb dbbd 3b73 473e
00000080: df8d 153e 6952 26be 7711 843d 7c81 89bb
00000090: f2fe a4bd 4b53 f1bc b804 0f3c 3809 78bd
000000a0: adce ab3c 2785 79bd 9058 efbc ca4b 933d
000000b0: 7021 94bd 08b6 cabd e19d 893d 16a4 c8bc
000000c0: 8f2a f13d b0d0 c0bd 9812 05be 51a5 b23d
000000d0: 432a 01be b9ef 0abe 7363 b9bd d17b 74bd
000000e0: 6554 743d 981a b53d d114 23bd a1a1 b53c
000000f0: 7f9c 8b3d df01 843d afc0 52be 4c2d 423d
00000100: 3e5c 44be 5f87 363d d9c5 1abd 1749 5d3d
00000110: 3ad1 df3c c521 603d 7adb b6bd 4554 7ebd
00000120: 3d72 9abd 41ba 3e3e 45ae c63d 51fe 91bd
00000130: a850 de3d 4a94 14be 94c8 803d c415 9c3d
00000140: a329 a9bd 65f2 28be 5ef5 28bc 0d83 dd3d
00000150: babd 833c e2d1 003e 3885 133c acfd 2a3e
00000160: 1a75 afbd 6be1 6cbe 5bb8 303c 1a75 47bd
00000170: 394f 58bd e063 e93d 299d d73c 2e2d e93a
00000180: b2d2 9b3c ad36 23be a063 273e 33fd 4cbd
00000190: 9677 14be 4107 1b3d 7f94 07be b01a 5cbd
000001a0: 0414 14be 5364 17bc b85a 9d3d 6e6a e63c
000001b0: 2cf5 71bd fb83 d5bc e703 c5bc 4369 023e
000001c0: de00 0cbd fbdb 883d 4004 08be 64f4 003e
000001d0: b012 bd3d 58e8 7abd 97cf 9f3c aef5 b83d
000001e0: eb56 1bbe fa76 393d 13dc e63c 9901 193e
000001f0: 7870 9a3d d0a2 68bc 3d82 a3bd 3cfc 3e3d
00000200: bb64 38be 2127 5dbd 06f3 043e f091 fd3d
00000210: 33f1 c0bd db51 dfbd 8291 0738 aab2 d13b
00000220: 7e53 89bd 2ea6 a33c ef80 cb3d f223 15ba
00000230: 3cac 1cbd 51a2 e3bc 7bd4 bfbd 2b17 fb3d
00000240: 4b3b ed3d 9c2e 29bd 8559 acbc 1abe fb3c
00000250: 0d18 643d fffb db3d 0a0b 0cbd d227 7e3d
00000260: 8aa7 82bd 12c7 0cbd 5d01 cabd c25d 843d
00000270: 7d9c b13d 7fcd 3c3b c6f3 7f3d fd7d f83d
00000280: 421a 873d 812b 3a3d cad9 cc3c c9a8 da3d
00000290: a5ac 1bbe 716e b9bd a9a9 143d 2461 893b
000002a0: 305e 33bd d7f4 77bd 2de9 bfbd ab16 d53c
000002b0: 142b 0c3b 5870 233d 05fa 373d d2c9 fa3c
000002c0: b114 d1bd 281b b1bd 68e9 5ebd ec6e 86bd
000002d0: b9d7 0a3e 240c cbbd 059c d6bd 530c 14bd
000002e0: ef84 143d 6e9a e03c f464 c5bc 4072 d83d
000002f0: 1344 9a3d a621 6ebd d0f3 28be fb04 08be
00000300: 10ca 0e3a d098 9abd e4a2 813c 005c 713c
00000310: 7c94 8a3d 808a ec3d 7181 b0bc 291a a63d
00000320: 6ad5 d7bd 5c0f 10bd d095 b53d f981 933b
00000330: e13e 213e f010 46bd f90f bdbd 58de 09bb
00000340: 4c28 073d af95 b43c f213 b13d 928c ebbd
00000350: ba67 cf3d bcfb 373e 3d0f 873c 2c8f c23d
00000360: 1814 8ebd 9ce3 ad3c 89e6 d4bd e799 89bd
00000370: 56b0 2f3e 180b 033e e1aa 47bd 1b58 d73d
00000380: f901 9b3c 672e 353e b4d7 013e a6b4 323e
00000390: 2371 0fbe 6e3b 263d 738a 34bd c330 9dbc
000003a0: 1047 5cbd f29e edbd 65eb 303d b30c d0bc
000003b0: 5f0c c7bd 2863 0e3e 17d1 adbc 5dba 3abd
000003c0: fd89 19be 1240 9fbd 2bc1 b0bd a0b7 bb3c
000003d0: 4e47 103e 3cb1 d3bc 05f6 893d 9ce9 32bd
000003e0: 4c8b 41bc 0ac6 b73d de3e d03d 4d1f dd3d
000003f0: e22d 0dbe d0e8 cb3c 2dda ffbd a7d4 9ebd
-0.07986564 0.021469712 0.036626156 -0.041021034 -0.015704699 0.09593702 -0.008410985 0.033740904
0.006268588 0.009752012 0.015559885 0.022992373 -0.07917563 -0.025149215 0.078868225 0.07621475
-0.019578341 -0.008930261 0.098835744 0.09338795 0.08354583 0.0021356442 0.098139755 -0.01740516
-0.13470456 -0.12757605 -0.11803286 0.08286058 -0.046570733 0.24781263 -0.10732089 0.1947755
0.14604901 -0.16242374 0.06448644 -0.004196344 -0.080564395 -0.029458662 0.008729152 -0.060555667
0.020972574 -0.060918 -0.029217035 0.0719219 -0.0723294 -0.09898001 0.06719566 -0.024492305
0.117756955 -0.09414804 -0.12995374 0.08722938 -0.12613778 -0.1356801 -0.090521716 -0.059688393
0.059650797 0.08842963 -0.039814774 0.022171797 0.06816959 0.064456694 -0.20581315 0.04740648
-0.19175813 0.044562694 -0.03778634 0.054024782 0.027321447 0.054719705 -0.089285806 -0.062092084
-0.075413205 0.18625738 0.09701208 -0.07128585 0.10855228 -0.14509693 0.06288257 0.07621339
-0.08259895 -0.16498716 -0.010312406 0.108160116 0.01608168 0.12580064 0.00900393 0.1669833
-0.08567257 -0.23132865 0.010786141 -0.04869566 -0.052809928 0.11396003 0.026320057 0.0017789954
0.019021366 -0.15938826 0.16346598 -0.050046157 -0.14498743 0.037848715 -0.1324024 -0.05373639
-0.1446076 -0.009240228 0.07683319 0.028126922 -0.059071705 -0.02606391 -0.024049712 0.12735467
-0.034180515 0.06682583 -0.13282871 0.12593228 0.0923208 -0.061256737 0.019508166 0.09031235
-0.15169875 0.04527948 0.028181111 0.14942016 0.07540983 -0.014198974 -0.07983825 0.04662727
-0.18007176 -0.053992394 0.12983331 0.12381351 -0.09421005 -0.109042846 3.2322023e-05 0.0063994722
-0.06705378 0.019976702 0.099367015 -0.0005689255 -0.038250193 -0.02778736 -0.09366699 0.12260278
0.11583575 -0.041304216 -0.02103878 0.030730296 0.055687 0.10741424 -0.034190215 0.062049694
-0.06379612 -0.034369536 -0.09863541 0.064631954 0.08672426 0.0028809009 0.06248834 0.12133405
0.06596805 0.045451645 0.025006194 0.106767245 -0.15202577 -0.09054268 0.036294613 0.0041924883
-0.043790996 -0.06053623 -0.093706466 0.026011785 0.0021387981 0.03990206 0.04491617 0.030613814
-0.10209025 -0.08647758 -0.054421812 -0.065641254 0.13558854 -0.09914425 -0.10478977 -0.036144566
0.036259588 0.027417388 -0.02409599 0.105686665 0.075325154 -0.05813756 -0.16499257 -0.1328315
0.000544698 -0.07548678 0.015824743 0.014731407 0.067666024 0.11549854 -0.021546097 0.081104584
-0.105387524 -0.035170898 0.08866465 0.004501578 0.15746643 -0.048355997 -0.09231562 -0.0021037068
0.032997414 0.022044031 0.086463824 -0.11501421 0.10127206 0.17967123 0.016486758 0.09499964
-0.06937426 0.021226697 -0.103955336 -0.06718808 0.1715711 0.127972 -0.048746947 0.10514852
0.01892184 0.17693482 0.1267994 0.17451724 -0.14008002 0.04058402 -0.044077348 -0.01918829
-0.053778708 -0.11602582 0.04319324 -0.02539668 -0.097191565 0.13905013 -0.021217866 -0.045587886
-0.14994045 -0.07775892 -0.08630594 0.022914708 0.140897 -0.025841348 0.067363776 -0.04367982
-0.011812996 0.0897332 0.10168241 0.10796986 -0.13787034 0.024891287 -0.124927856 -0.07755404

lstm2.weight_hh_l0 f4 [256, 64]
00000000: 7aa3 ad3d 1382 803d 4f65 813c 0502 6ebc
00000010: ccde a53d 1007 2ebd 1411 a73c d047 8b3d
00000020: db22 99bd 8fc2 863d db55 843c 5d4f 363e
00000030: 2c88 ea3d e1a1 39bd 0c30 743c cab3 2b3d
00000040: 3b42 07bc c3f2 86ba 6914 ab3d 0070 49bd
00000050: 2ad6 98ba 7902 233e d463 c03d d287 76bd
00000060: fe07 99bd 342e 6e3d 189d 1cbd 70aa aebd
00000070: 7d8c be3b d245 813d f19b de3d a6da c8bd
00000080: 1c94 10be 9c77 e4bc 3437 68bc 5959 c43d
00000090: 948d 0e3d ade3 8f3d 4584 19bc 8bdf 353b
000000a0: ffed 223d 7492 093e a69a 5ebd 9557 d63c
000000b0: 2b74 cebd a186 d7bd 6a86 95bd a47e 713d
000000c0: 0565 293d 76ef 15bc 6d1b 1d3d 2625 1dbd
000000d0: af9d 10bc 1d65 bbbd 0d93 ad3d 0a25 0a3e
000000e0: 97d0 343e 7b3f f0bc 5d7d 8bbd 98d8 3ebd
000000f0: 54a0 ccbc 1846 debd 866a 1c3e e0c5 78bd
00000100: b6f8 253d 5db3 66b8 fc12 debd 0d08 003e
00000110: c680 dcbd 0a79 b93a 5a99 953d 7515 eabc
00000120: d1c8 a43d 9ed0 4d3d 9a0a c53d 887a 8a3d
00000130: ea90 08be fc69 3b3e 9f03 bd3d 2fa3 c8bd
00000140: 7213 2ebd 3b2e ba3d 265b 23bc b74f 54bd
00000150: f60d e73c 4d50 a2bb 1cd7 29bd 7976 aebd
00000160: a19f 3a3d 52f7 503d 9b28 87bd aae9 e2bd
00000170: d7fb 0b3d c166 82bc f8b3 1d3e 90c0 3d3d
00000180: e62f 82bd 0ea1 0dbd 9858 bfbd e57e fdbb
00000190: 8d67 4a3d ab7e 223c 583c 8e3c 38c8 c8bb
000001a0: 6e98 063e 4dac cd3d 80a0 563d c3bc 14bd
000001b0: dd3d 9dbd 89a6 013e 6e8a a83c b18a db3d
000001c0: 8093 f93d 2067 04be 49e7 c0bd 610c 9fba
000001d0: 8b45 1b3e 00ee 5abd aea2 8e3d 178f 73bc
000001e0: 705f f83d 3ec7 8b3c b0b5 c43d 938f 62bc
000001f0: 6d99 623d d700 5dbc 4f77 833d c90e b2bd
00000200: 0d82 073d ae6d d53c 315d 023d a296 c4bd
00000210: 8ad1 98bd 3d52 cc3d 1942 4e3d 410b cebd
00000220: 8ba7 93bd 0470 de3b 6d37 eebd 0c4b 323c
00000230: c5ee 65bb a6bf 023d 9b31 9bbd bcda 9f3d
00000240: 4435 6fbd 3fda e63d e86c 81bc 083e c0bd
00000250: acba 24bd 0d81 1bbd 040a 893d 4991 a3bd
00000260: 97a1 5fbd 8f34 99bd aabf 6a3d ca8c f7bd
00000270: f406 f63d f4c3 493d 20e3 80bd 12ea a7bd
00000280: 0131 84bc 09b6 9a3d e8ed a4bd 26a9 07be
00000290: 1c62 7e3d 904b 9a3c 1aed 35bd b920 023d
000002a0: 6d30 0dbd 0cca 983d 0fec ed3c 9dd4 2d3e
000002b0: 6e48 7dbc de0f 2f3d 505a b73d 2f93 d33d
000002c0: d925 0abe 9435 4abc bd6c 3a3d 0ccc c13d
000002d0: 9cfb 7dbd 03c0 5c3e fca3 a33c d153 0f3d
000002e0: 8a0e 35bd 6a2d b73b 2980 433d 7a11 babd
000002f0: 090b fe3c 1952 12be feff 0d3e 421d cf3b
00000300: cd70 48bd dd7b b1bc acea bebd 7b1b eabd
00000310: 4246 383d 95b0 d6bd b7cf 983d 3b23 09be
00000320: 0092 cbbd 3d92 91bd 1d65 f73d 76c4 043d
00000330: 7076 db3d f3ba 903d 7f08 9abd 20ec 983d
00000340: d65b 9f3b 7946 89bc 9941 babd 4642 393d
00000350: 8d24 bc3c e308 f73d 9fae acbd 5d5b 283c
00000360: 7636 b4bd d3ea 353d c57b 95bd 9202 21be
00000370: d65e a83a e31f d2bd eb6e c4bc b57e 533d
00000380: d680 7f3c 96eb f7bc ce23 43ba dd8a 15be
00000390: babc e83c 06a3 92bd 68cd 4e3d bc0b 90bd
000003a0: ca70 773d e942 a4bc 6a87 5cbd 392e a93d
000003b0: c23b b83d a7e2 87bc 4cc7 8d3d 8e79 a43c
000003c0: b82a 0c3e 0430 b03c 7e4d d83d 1363 8b3d
000003d0: 45ec 7bbd cadd 5d3a 386d f8bd 8377 08be
000003e0: 0a5c 223d 888c 35bd d32f 9a3d 2590 b43c
000003f0: 1e4a 4e3d 5e45 b53b 2f8d b0bd f593 1abc
0.08478446 0.0627481 0.015795378 -0.014526849 0.08099136 -0.042487204 0.020393886 0.068008065
-0.07477351 0.06580078 0.01615422 0.17803712 0.11451754 -0.045320395 0.014904033 0.041919507
-0.008255537 -0.0010295737 0.08353502 -0.049179077 -0.0011660506 0.15918912 0.09394041 -0.060188122
-0.074722275 0.05814953 -0.038235754 -0.08528602 0.0058150874 0.06312145 0.10869587 -0.09807329
-0.14118999 -0.027889065 -0.014173318 0.09587354 0.03480299 0.070258476 -0.009369914 0.002775165
0.039777752 0.13434774 -0.054346703 0.02616481 -0.10080751 -0.10523725 -0.07301028 0.058958665
0.041356105 -0.00915133 0.038356233 -0.038365506 -0.008826657 -0.09150145 0.08475313 0.13490692
0.17657696 -0.029327145 -0.068110205 -0.04659328 -0.024978794 -0.10853213 0.1527501 -0.060735583
0.040520392 -5.500332e-05 -0.10843465 0.12503071 -0.10766749 0.0014150452 0.0730464 -0.028574685
0.08046115 0.05024778 0.09621163 0.06761652 -0.1333653 0.18302149 0.09229206 -0.0979675
-0.042499013 0.09090849 -0.009970462 -0.051833834 0.0282049 -0.0049534203 -0.04146491 -0.085186906
0.04556239 0.051017113 -0.06599542 -0.11079724 0.03417572 -0.015918138 0.15400684 0.04632622
-0.06356792 -0.03457742 -0.0934307 -0.0077360743 0.04941516 0.009917895 0.017362759 -0.0061273836
0.13144085 0.100426294 0.05239916 -0.03631283 -0.07677815 0.12661184 0.02057382 0.10719813
0.121863365 -0.12929964 -0.09419114 -0.0012134427 0.15163247 -0.05344963 0.069646224 -0.014865658
0.12127578 0.01706278 0.09604967 -0.013828176 0.0553221 -0.01348897 0.06419241 -0.08694226
0.03308301 0.026053276 0.031827156 -0.095990434 -0.074618414 0.09976623 0.050356004 -0.1006074
-0.07209691 0.0067882556 -0.116316654 0.01088215 -0.0035084945 0.03192105 -0.07577821 0.07805392
-0.058400407 0.11272096 -0.015799 -0.093868315 -0.040217087 -0.03796487 0.066913635 -0.07986695
-0.054597463 -0.07480728 0.05731169 -0.120874 0.12013045 0.04925914 -0.06293321 -0.08198942
-0.016136648 0.07554252 -0.080531895 -0.13248119 0.062105283 0.01883486 -0.04441557 0.031769488
-0.03447001 0.074604124 0.029043226 0.16975637 -0.015459163 0.04273974 0.089527726 0.103308074
-0.13491 -0.012341876 0.045513857 0.09462747 -0.06200753 0.21557622 0.019975655 0.034992043
-0.04420332 0.0055901306 0.047729645 -0.09085365 0.031011121 -0.1428913 0.13867185 0.0063206265
-0.0489357 -0.021665508 -0.09322104 -0.11431023 0.044988878 -0.10482899 0.074614935 -0.13392346
-0.09939957 -0.07107971 0.12079833 0.032413922 0.107159495 0.07066908 -0.07521152 0.07466912
0.0048632426 -0.016757237 -0.09094543 0.04522922 0.022966648 0.12062242 -0.08431744 0.010275689
-0.0879945 0.0444134 -0.07298998 -0.15723637 0.0012845646 -0.10259988 -0.023978671 0.05163451
0.015594682 -0.030263703 -0.0007443995 -0.14603753 0.028410304 -0.071600005 0.05048886 -0.07033488
0.0604103 -0.020051436 -0.05384008 0.082607694 0.08995773 -0.016587568 0.069227785 0.020077493
0.13688171 0.02150727 0.105616555 0.06806006 -0.06150462 0.000846353 -0.12130207 -0.1332684
0.039638557 -0.044323474 0.07528653 0.02204139 0.050363652 0.005531951 -0.08620679 -0.00943469

lstm2.bias_ih_l0 f4 [256]
00000000: 3816 87bd 0939 0fbd db74 ccbd e30d 573d
00000010: 7454 793d e55c 32bd 514a 90bd b512 d8bd
00000020: 84f2 c53c d93b ec3d ba35 64bd adf1 8d3d
00000030: 8392 01be 80c4 1c3d d3fb a23c 0fb2 ec3a
00000040: 300f a83d e83a d0bd 583d bcbd 99db 183e
00000050: 4334 623e 714c 1abc c3e6 ba3c 48b3 15be
00000060: ed0f 0fbe a606 5a3d 2e05 c7bd 5526 5a3d
00000070: 96bd 24be b375 53bd 0f01 d9bd 96fd 28bd
00000080: 6c6f b0bd a34f 58bd e832 ecbd ba5a 383c
00000090: 352e 9fbc 8b2d e3bd c030 b8bc df73 42bd
000000a0: e124 0e3e e0bd 893c ce5a ab3d 5763 9b3c
000000b0: 5c3c d2bd ae1e 943d 941f 753d ff89 033e
000000c0: 34ad ac3d 052e e9bd 2e38 fc3c 47b9 803d
000000d0: 5db8 d7bd e9f3 01bd 0b5f 8f3c 3f00 06be
000000e0: c3a5 7bbd dc53 18be bd8a e83c 3dd8 bb3d
000000f0: 2760 ab3c 2ef9 2d3d ae6f ee3d 8182 b23c
00000100: d822 97bc 0bcf b43d 3ce5 bdbc c5e2 903b
00000110: 9f66 0b3d c9ac 6f3a c34d 483d 095e bcbd
00000120: f8d1 3a3c 7122 bd3d 3a84 de3d e1ad bebd
00000130: ca73 47bc cbbb 83bc 0b65 2f3e d03a 38bd
00000140: 1af5 a43d 1d58 65bc 0f09 3f3d 7da0 853d
00000150: ccb5 923d ccce 133e 9de1 f43d c26a 96bc
00000160: 812f dc3d 9bdf 68bc 38e4 063e 80cf 5b3d
00000170: aa69 5f38 3552 aa3d de0a dc3d 5db5 163d
00000180: 0175 063c 37d8 07bd 6839 d73d 0db6 123d
00000190: b0bf e53d 7136 933c 462b 333e ec01 543d
000001a0: 9967 1a3e a617 50bd fb3e 4a3d 3d0c aa3c
000001b0: b100 3abd c8e6 b43c e133 a6bd db62 d63c
000001c0: f9e2 2dbd b9e6 48bc 6a9e 1a3d 4d18 483e
000001d0: cad2 e83b 9d60 b8bd a0e9 1d3d 1674 3d3c
000001e0: a195 823d 5e11 18bd 7a0f 98bc 7d43 9dbd
000001f0: 7f02 7a3d ca45 333d a40b 9f3c 7309 6ebd
00000200: d71d c33d 197a 81bd 27e5 91bd 1a79 91bd
00000210: 2f6c 05bd 5ee4 193d 9051 23bd 1966 bbbc
00000220: 3321 c13c 13e1 56bd 3d15 a73c 8803 74bd
00000230: 2872 a0bd a978 b9bc ca71 65bc 8209 20bd
00000240: eb72 da3d 00ba b83d ff92 af3d 03f5 a0bd
00000250: 7ffd bbba cb61 45bd c887 d73c b54a 1fbd
00000260: bf30 94bd f00f 98bd f14f 30bd e0ac 523b
00000270: 4479 adbd 3647 bc3d f134 1d3d f7e6 fabc
00000280: dc22 85bd ddc1 a3bd 360c 383c 5745 9abd
00000290: e737 ad3d 13c4 e8bd 74a9 d3bd c4c2 153d
000002a0: f0ee 89bd f6e5 8abd f8c6 963d bb9f 23bd
000002b0: 8560 a23d edd4 02be 12fc c4bd f9ce c7bd
000002c0: 877b 9e3d 94f4 ccbc ce6f a93c 4e6f 463c
000002d0: 603d 6b3d 1986 a4bd 8ddf fd3c 2bc9 0f3e
000002e0: cd2c 1bbc 5c49 453c 194d c1bc 5c25 833d
000002f0: 855d 4e3c 87c9 2f3b b783 0abd 35c4 f2bd
00000300: f37b aebc 6235 683c d74e a13d d144 c6bd
00000310: d054 9cbd b2d8 2e3e 92bd 843d 8231 cfbd
00000320: 1dc7 0c3d 1d8b e73d 453c 4ebd 4362 99bc
00000330: ca40 cd3d 87ec e5bc 8988 dcbc 8c05 0bbd
00000340: 3902 763d d523 933b 5d4b 223c ce5a 953d
00000350: 52e0 3d3b 811b ff3c e3f0 d83c 2500 ddbd
00000360: a8b4 10bd 0a17 d73d b434 b13d fe0e e0bc
00000370: fcb2 c83d 6c79 8bbd 5511 9ebc bbb0 133b
00000380: f785 b5bd 0936 9dbc 6b2a 7f3d 77f3 0c3e
00000390: 6ce7 a6bc 7c5d 84bd ecb1 023e e53c ddbc
000003a0: 4f4c b7bc a411 b8bd 3063 1c3c 51a8 59bd
000003b0: 6758 8cbc fa3e 8bbd 16dc aabd 100f ab3d
000003c0: 1110 cb3d 79b1 14bd 0285 27bd 9d52 1b3c
000003d0: dbc8 27bd 826a bf3d e488 30bd 6adc 18bd
000003e0: dd1b 25be ba4e e53d d89c ef3d 7a7e afbd
000003f0: 7013 fdbc 8932 e83d f3a5 423e 2758 803d
-0.06596035 -0.034966502 -0.09983226 0.052503478 0.060871556 -0.043545622 -0.07045425 -0.10550443
0.024163492 0.115348525 -0.0557153 0.069308616 -0.12653546 0.038273335 0.01989547 0.0018058437
0.08206022 -0.101674855 -0.09191388 0.1492752 0.22090249 -0.009417639 0.022815114 -0.14619172
-0.13970919 0.053228997 -0.09717785 0.053259213 -0.16087946 -0.05162592 -0.10595905 -0.041257463
-0.08615002 -0.052810322 -0.11533147 0.0112521 -0.019431213 -0.11092671 -0.022484183 -0.047473785
0.13881256 0.016814172 0.08366929 0.018968267 -0.10265419 0.07232414 0.05984457 0.1284561
0.084314734 -0.11385731 0.030788507 0.06285339 -0.105332114 -0.03172675 0.017501375 -0.13086031
-0.06143738 -0.1487574 0.028386468 0.091721036 0.020919872 0.042473964 0.11642395 0.021790745
-0.018449232 0.08828553 -0.023180597 0.0044215643 0.034033414 0.00091428735 0.048902284 -0.09197623
0.0114025995 0.09235085 0.10865064 -0.093105085 -0.012173602 -0.016080758 0.17128389 -0.044977963
0.08054562 -0.013998059 0.0466395 0.06524751 0.07163581 0.14434355 0.11957095 -0.018361453
0.10751248 -0.014213468 0.13172996 0.053664684 5.326575e-05 0.08316461 0.1074426 0.036794055
0.008206607 -0.033165183 0.10508996 0.03581815 0.11218202 0.017970296 0.17496976 0.051759645
0.15078582 -0.050803803 0.04937647 0.020757789 -0.045410816 0.022082701 -0.08115364 0.026170185
-0.042452786 -0.01226204 0.03774873 0.1954052 0.007105206 -0.090028025 0.03855288 0.011563322
0.06376196 -0.037125938 -0.018562067 -0.07678888 0.061037537 0.043767728 0.01941473 -0.05811448
0.09527176 -0.063221164 -0.071237855 -0.071031764 -0.032573875 0.037571304 -0.039872706 -0.022875832
0.023575401 -0.05246074 0.02039587 -0.05957368 -0.078342736 -0.022640543 -0.01400418 -0.039071567
0.1066645 0.09019852 0.08572959 -0.07859232 -0.0014342515 -0.048188966 0.026309863 -0.038889606
-0.0723586 -0.07424915 -0.043044988 0.0032146499 -0.08470395 0.0919327 0.038380567 -0.03062771
-0.065007895 -0.07995961 0.01123338 -0.07532757 0.08457928 -0.11365523 -0.10335055 0.036562696
-0.06735027 -0.06782143 0.07362169 -0.039947253 0.07928566 -0.12776537 -0.09618391 -0.09756274
0.07738405 -0.025018968 0.020683195 0.012111498 0.05743158 -0.080333896 0.030990386 0.14041583
-0.009471131 0.012041416 -0.023596333 0.0640361 0.012595539 0.0026823 -0.03381702 -0.1185383
-0.021299338 0.014172884 0.07876366 -0.096810944 -0.07633364 0.1707485 0.0648147 -0.10116865
0.034369577 0.11305831 -0.050350446 -0.018723613 0.10022123 -0.028066887 -0.026920574 -0.033940837
0.060060713 0.0044903555 0.009905663 0.0729271 0.0028972817 0.031141045 0.026482051 -0.10791043
-0.035328537 0.10502441 0.086526304 -0.027350899 0.097997636 -0.06810269 -0.019295374 0.002253576
-0.088634424 -0.019190805 0.062296312 0.1376475 -0.020374022 -0.06463143 0.12763184 -0.027006576
-0.022375254 -0.0898774 0.0095451325 -0.053139035 -0.017131997 -0.06799121 -0.08342759 0.08352482
0.09915174 -0.036302064 -0.04089833 0.009480146 -0.040963035 0.09346487 -0.0430993 -0.03731958
-0.1612391 0.111966565 0.116998374 -0.08569045 -0.030893058 0.11337764 0.19008617 0.06266814
