saved_model/DAP_Model_Combo1.pt (torch, 232066 bytes, 12 tensors)

lstm1.weight_ih_l0 f4 [256, 4]
0.115491696 -0.016769744 -0.21937887 0.032395933 -0.17091653 0.063254826 0.070076875 0.2095095
-0.063239045 -0.07409118 0.20232087 0.07981564 0.036799707 0.0050236494 0.010677875 0.2669862
0.164165 -0.030777263 0.021020314 -0.14230241 0.16242155 0.009550871 0.14620046 0.0012673252
-0.100510746 -0.10414336 -0.013922571 0.013209409 -0.12399333 -0.11940386 0.13162945 -0.05548532
0.12572922 -0.02215024 0.018483812 -0.03449541 0.08681585 -0.05962481 -0.0045327 -0.15394397
0.124737054 0.03227683 -0.21564455 0.1752788 -0.07169746 0.0118355425 -0.009616514 0.18146752
-0.106927164 0.101173826 0.056299046 -0.04871808 0.14492503 -0.14109963 0.1703012 0.19442579
-0.08023528 -0.059433468 -0.030778129 -0.105563134 0.02642078 -0.028197907 -0.056115013 -0.2704284
-0.1681139 -0.066809475 -0.086434454 -0.008027567 0.12292329 0.037765905 0.057813324 0.08062121
0.028193848 -0.06549697 0.07774218 0.18367714 0.1238601 0.04994886 -0.018010732 -0.2627188
0.069123335 -0.10019177 -0.020706883 0.050045412 -0.12881872 -0.27100298 -0.1486619 -0.023649089
0.0734948 0.03213673 0.08293925 -0.38702703 -0.019705752 0.09716757 -0.0012457473 0.18243495
0.16494751 -0.101491876 -0.10876701 0.014386592 0.11537834 -0.1259537 -0.0082453955 0.005500647
0.02848936 -0.034632657 0.039134655 0.14175773 0.00623646 -0.027844775 -0.061774723 0.035101943
-0.06556793 -0.054177288 -0.09272633 -0.062132694 -0.088347435 0.0016743082 0.11402691 -0.106587365
-0.073267244 -0.078651026 0.17623416 0.016821899 0.07575509 0.026878089 -0.120357476 -0.2698097
0.034421507 -0.058456395 0.08821535 -0.1147128 -0.008307647 0.029726474 -0.031341754 -0.20556916
-0.11632314 -0.16742496 -0.10444209 -0.011568515 0.08171501 -0.072894484 -0.005340161 0.1619127
0.070921235 0.16185045 0.021267802 0.0702505 0.077630416 -0.017951977 -0.0098073 0.3925667
0.05285864 0.07683808 -0.03676352 -0.006775565 0.02689846 -0.20130822 -0.19601701 0.29764116
0.10915781 0.06267411 -0.19197567 -0.1984307 0.16389833 0.0010986103 0.086002655 0.13545014
0.12512773 -0.09225941 -0.07903193 -0.16621186 -0.030928377 -0.13435161 0.051268943 0.019930385
-0.1381714 -0.15624599 -0.05015948 -0.082328886 0.08889312 -0.036904883 0.045256138 -0.05692814
0.103353426 -0.063065626 0.13342656 0.18638363 0.1352467 0.0059423833 -0.0022294703 0.17207474
0.043097652 -0.06444928 0.047589272 0.019973133 -0.0038594666 -0.05337029 -0.07281673 -0.13591503
-0.06736638 -0.05851872 0.12133701 -0.0840847 0.07811343 -0.05933082 -0.22584973 0.10542866
0.12814793 0.03179677 -0.035031326 -0.1387365 0.0544018 0.05623436 0.068609074 -0.32492036
0.18640779 0.17944227 0.085350856 0.120488375 -0.11011466 0.10089161 0.10457025 -0.13265009
0.088817745 0.16435693 0.011043045 -0.24721673 0.09349805 -0.06107515 0.077711396 0.14115006
0.15365078 -0.015854789 -0.11596303 0.036226522 0.057455927 -0.046222165 -0.02038823 -0.1294419
0.06549498 -0.0035724903 0.011384652 0.2990871 -0.12941498 -0.11470041 0.099328324 -0.2632767
0.10997674 -0.020779137 -0.07590196 -0.4254142 0.07890043 -0.09799218 -0.19430172 -0.17940299
00000000: e986 ec3d b460 89bc dba4 60be 99b1 043d
00000010: be04 2fbe bf8b 813d 7784 8f3d a989 563e
00000020: 7983 81bd 1ebd 97bd 342d 4f3e 6276 a33d
00000030: 4abb 163d 6d9d a43b 41f2 2e3c 6ab2 883e
00000040: df1a 283e 9920 fcbc cb32 ac3c b9b7 11be
00000050: d651 263e 427b 1c3c 93b5 153e 611c a63a
00000060: 94d8 cdbd 1d49 d5bd 7f1b 64bc 476c 583c
00000070: 37f0 fdbd 038a f4bd dfc9 063e 9344 63bd
00000080: 29bf 003e 6c74 b5bc 5d6b 973c 0f4b 0dbd
00000090: 82cc b13d 2539 74bd 0b87 94bb 7da3 1dbe
000000a0: 2476 ff3d b634 043d edd1 5cbe 497c 333e
000000b0: 1ed6 92bd dde9 413c 958e 1dbc 9fd2 393e
000000c0: a1fc dabd 3934 cf3d d499 663d 9c8c 47bd
000000d0: 3a67 143e 6c7c 10be 7063 2e3e 8e17 473e
000000e0: 6552 a4bd 8270 73bd 6a22 fcbc 7c31 d8bd
000000f0: 6470 d83c 4cff e6bc dbd8 65bd 9775 8abe
00000100: 0d26 2cbe 68d3 88bd 8c04 b1bd 0e86 03bc
00000110: 35bf fb3d 6cb0 1a3d aacd 6c3d bc1c a53d
00000120: c9f6 e63c 4723 86bd 4b37 9f3d dc15 3c3e
00000130: 5daa fd3d 2d97 4c3d 3e8b 93bc 1483 86be
00000140: 8990 8d3d 5831 cdbd 7ba1 a9bc 6bfc 4c3d
00000150: 0ee9 03be e7c0 8abe d33a 18be bcbb c1bc
00000160: 7184 963d cea1 033d 0edc a93d 6828 c6be
00000170: f56d a1bc caff c63d 5848 a3ba 3ad0 3a3e
00000180: 00e8 283e f9da cfbd 3dc1 debd beb5 6b3c
00000190: 7b4b ec3d 02fa 00be b217 07bc c53e b43b
000001a0: 8562 e93c f9da 0dbd a94b 203d f028 113e
000001b0: 385b cc3b ba1a e4bc 7e07 7dbd 0ec7 0f3d
000001c0: 7b48 86bd 01e9 5dbd 4de7 bdbd da7e 7ebd
000001d0: 80ef b4bd 7674 db3a f186 e93d 7a4a dabd
000001e0: 230d 96bd ca13 a1bd ba76 343e 14ce 893c
000001f0: 7c25 9b3d 702f dc3c fb7d f6bd 7f24 8abe
00000200: 91fd 0c3d f96f 6fbd 40aa b43d 8bee eabd
00000210: cc1c 08bc ef84 f33c 3660 00bd b980 52be
00000220: d43a eebd 7371 2bbe bce5 d5bd de89 3dbc
00000230: 335a a73d b449 95bd 84fc aebb 71cc 253e
00000240: 273f 913d 20bc 253e d039 ae3c 7fdf 8f3d
00000250: b2fc 9e3d 0610 93bc ccae 20bc 81fe c83e
00000260: 4d82 583d 495d 9d3d 5895 16bd 8f05 debb
00000270: 295a dc3c be23 4ebe afb8 48be 6c64 983e
00000280: 218e df3d 495b 803d 4595 44be 6b31 4bbe
00000290: f7d4 273e 3fff 8f3a 2922 b03d 71b3 0a3e
000002a0: 7c21 003e 80f2 bcbd 7edb a1bd 7133 2abe
000002b0: 825d fdbc 7893 09be 62ff 513d 0c45 a33c
000002c0: ce7c 0dbe f3fe 1fbe 0774 4dbd 0c9c a8bd
000002d0: 990d b63d 9329 17bd 805e 393d 7b2d 69bd
000002e0: f6aa d33d 8d28 81bd f9a0 083e 5adb 3e3e
000002f0: 1c7e 0a3e 53b8 c23b 4e1c 12bb 5c34 303e
00000300: 2a87 303d fcfd 83bd f8ec 423d b29e a33c
00000310: 1bef 7cbb ce9a 5abd f020 95bd 4f2d 0bbe
00000320: 62f7 89bd 53b1 6fbd 8a7f f83d 9934 acbd
00000330: eff9 9f3d e004 73bd 2745 67be fbea d73d
00000340: 3639 033e 543d 023d 027d 0fbd f110 0ebe
00000350: 6cd4 5e3d 0056 663d ea82 8c3d f65b a6be
00000360: afe1 3e3e b7bf 373e 6ecc ae3d 9cc2 f63d
00000370: cb83 e1bd 43a0 ce3d ed28 d63d 6dd5 07be
00000380: 14e6 b53d 2f4d 283e e3ed 343c 6226 7dbe
00000390: e87b bf3d f029 7abd 2727 9f3d a489 103e
000003a0: a156 1d3e e7e1 81bc 067e edbd 4362 143d
000003b0: e856 6b3d 7453 3dbd 3805 a7bc 6b8c 04be
000003c0: 3b22 863d 7120 6abb b186 3a3c f221 993e
000003d0: 5c85 04be 0ce8 eabd a66c cb3d 34cc 86be
000003e0: 7c3b e13d 0239 aabc 7d72 9bbd e4cf d9be
000003f0: 8c96 a13d 20b0 c8bd 08f7 46be 6bb5 37be

lstm1.weight_hh_l0 f4 [256, 64]
0.02097306 0.003860119 0.22037737 -0.030401736 0.05443026 -0.04746707 0.046722792 -0.18018262
0.076538965 -0.00054953486 -0.022518368 0.027610132 -0.13031355 -0.16481909 -0.035010092 -0.15586925
0.00066499 0.08930742 0.09283365 -0.011173755 0.04661935 -0.15810364 -0.106574364 0.09612773
0.0054093054 -0.23096146 -0.029861717 0.16644327 0.0067366925 -0.010595123 0.11478119 0.003879013
-0.18920681 -0.11341512 0.0007060749 0.09502987 -0.06325283 -0.1304041 0.0046233414 0.07044157
-0.13287894 -0.04585558 0.09223618 0.028994989 0.081446454 0.16999283 -0.0014512521 -0.031711612
-0.075701036 0.03566793 -0.14893384 0.036566723 0.031579267 -0.118810415 0.051842906 -0.042394128
0.0018015456 -0.17021023 0.032608464 -0.011728513 -0.04610253 -0.12608822 0.1131552 0.02807332
-0.015822144 -0.039534424 0.084689885 -0.1053978 -0.04868427 -0.15586257 0.1703729 -0.011844684
0.10526448 -0.056750514 -0.02648049 -0.13496497 0.11764991 -0.078544855 -0.012162125 0.08221183
-0.05667424 -0.19440308 0.017162645 0.18157962 -0.19972396 0.13768515 -0.09678133 0.24987386
0.08054597 0.00070252304 0.07804227 0.04288905 0.101989046 -0.2565655 0.20107295 0.05022665
0.2175401 -0.004023506 -0.02598252 -0.015320349 0.010539791 0.1520601 0.06132425 0.20772244
-0.07132166 -0.12169187 -0.19736218 -0.014644939 0.007789053 0.024781808 -0.28967914 0.20526144
0.02165277 0.06930783 -0.086262316 0.072858594 -0.0091606835 -0.078945905 0.19591248 0.01651469
0.11369026 0.09466132 -0.038550843 -0.08900695 0.03285461 0.24919908 0.05203136 0.11139759
0.08835893 -0.07176521 0.0045434353 0.050750397 -0.017249214 0.08571542 -0.016849559 0.20932156
0.03327665 0.020281237 0.08055923 -0.09580992 0.1664118 0.094077386 -0.0029709502 0.11145788
0.056789275 -0.07478776 -0.10832413 0.04332411 -0.01475165 0.14215696 -0.13137987 -0.09615351
0.008883194 0.06918651 0.1252023 0.05157054 0.12421094 -0.121633425 -0.009722896 0.030721901
0.02261514 0.079791225 -0.022372944 -0.14248748 -0.12791423 0.013056916 -0.019428551 -0.039110906
-0.018068846 -0.18180148 0.096425004 0.07034937 -0.20209552 0.09405823 -0.014599462 -0.039440632
0.093966335 0.0056653423 -0.11250692 0.06489803 0.07431975 -0.008445451 -0.089061424 -0.0059271143
-0.05494612 -0.1387474 -0.07216908 -0.18675698 -0.18681787 0.02549315 0.09708489 -0.10274372
0.034213487 0.1848241 0.21881902 -0.08339787 -0.07482111 -0.06489287 0.1173192 -0.24913144
0.06112923 -0.014147972 0.10144653 -0.083838455 -0.39886847 -0.07431857 0.102268316 -0.33649322
0.026082277 0.07880619 0.052880716 0.012047353 -0.120209165 0.050330903 -0.117335 -0.015675517
0.056807585 -0.11978267 0.06890491 -0.060853556 0.037820537 -0.060307525 -0.11931792 0.010312156
-0.21434347 -0.14268294 -0.24423184 0.26987496 -0.23750919 0.05888803 -0.13555904 0.1963257
-0.054189336 0.0021624023 0.0017621968 -0.26756665 0.1168015 -0.014070674 -0.07160453 0.15949231
0.060954668 0.13377346 0.0667344 0.06997639 0.014694569 -0.07039525 0.1673071 0.24383621
0.14624637 -0.04512547 -0.025967645 -0.043236937 0.048255112 0.032647513 -0.1401192 0.19255243
00000000: b2cf ab3c 0dfa 7c3b 9baa 613e 100d f9bc
00000010: 44f2 5e3d d56c 42bd 6660 3f3d cb81 38be
00000020: 76c0 9c3d a90e 10ba 7178 b8bc a52e e23c
00000030: ea70 05be 56c6 28be be66 0fbd 309c 1fbe
00000040: b952 2e3a cfe6 b63d 921f be3d 2012 37bc
00000050: eef3 3e3d ece5 21be a943 dabd 9ede c43d
00000060: 8b40 b13b 2981 6cbe 8fa0 f4bc 1b70 2a3e
00000070: 79bf dc3b 2b97 2dbc 6712 eb3d 0a37 7e3b
00000080: 6ebf 41be 3046 e8bd e217 393a 059f c23d
00000090: b38a 81bd a788 05be 667f 973b ab43 903d
000000a0: 6b11 08be 10d3 3bbd 53e6 bc3d e686 ed3c
000000b0: 66cd a63d 9a12 2e3e f137 beba 09e4 01bd
000000c0: 2509 9bbd 8918 123d 1d82 18be fdc6 153d
000000d0: 4359 013d e052 f3bd 3a59 543d 77a5 2dbd
000000e0: d721 ec3a 974b 2ebe 7490 053d f328 40bc
000000f0: 02d6 3cbd 451d 01be eabd e73d 05fa e53c
00000100: 719d 81bc d9ee 21bd e471 ad3d cdda d7bd
00000110: 2869 47bd 709a 1fbe 3c76 2e3e 3510 42bc
00000120: e794 d73d 3a73 68bd 9ded d8bc 4234 0abe
00000130: 70f2 f03d 20dc a0bd a643 47bc ad5e a83d
00000140: 3f23 68bd 9a11 47be ad98 8c3c 02f0 393e
00000150: 7084 4cbe 56fd 0c3e 4a35 c6bd efde 7f3e
00000160: 49f5 a43d 8629 383a a0d4 9f3d 6eac 2f3d
00000170: a2df d03d 8e5c 83be 11e6 4d3e 76ba 4d3d
00000180: d5c2 5e3e 9dd7 83bb 4bd9 d4bc 3302 7bbc
00000190: 16af 2c3c a5b5 1b3e 232f 7b3d 31b5 543e
000001a0: 1711 92bd 9639 f9bd 5019 4abe 54f1 6fbc
000001b0: 503b ff3b 3803 cb3c d350 94be 0e30 523e
000001c0: 2661 b13c 43f1 8d3d 4caa b0bd e336 953d
000001d0: b116 16bc 64ae a1bd 489d 483e d149 873c
000001e0: 70d6 e83d cbdd c13d 7de7 1dbd 4749 b6bd
000001f0: 8e92 063d 0b2e 7f3e d61e 553d 6b24 e43d
00000200: 87f5 b43d a3f9 92bd 19e1 943b a6df 4f3d
00000210: 394e 8dbc 918b af3d 1608 8abc 6458 563e
00000220: 194d 083d d624 a63c 3dfc a43d fe37 c4bd
00000230: db67 2a3e a5ab c03d 46b4 42bb 0744 e43d
00000240: df9b 683d 532a 99bd 0bd9 ddbd 9f74 313d
00000250: e8b0 71bc 9891 113e 7288 06be 22ec c4bd
00000260: d18a 113c a8b1 8d3d 0835 003e a13b 533d
00000270: 4e62 fe3d f21a f9bd c84c 1fbc 7fac fb3c
00000280: 6343 b93c 9569 a33d 7747 b7bc 3de8 11be
00000290: f3fb 02be adec 553c a028 9fbc c232 20bd
000002a0: 1e05 94bc 2b2a 3abe 797a c53d 5513 903d
000002b0: 21f2 4ebe 9aa1 c03d 9532 6fbc 808c 21bd
000002c0: 6c71 c03d 56a4 b93b 076a e6bd 42e9 843d
000002d0: f434 983d ca5e 0abc d665 b6bd 3d38 c2bb
000002e0: 2f0f 61bd cc13 0ebe 62cd 93bd 393d 3fbe
000002f0: 2f4d 3fbe 03d7 d03c 71d4 c63d 4d6b d2bd
00000300: 7123 0c3d 8742 3d3e 1812 603e 81cc aabd
00000310: cf3b 99bd 8ee6 84bd 0c45 f03d 501c 7fbe
00000320: a562 7a3d e5cc 67bc 33c3 cf3d 7fb3 abbd
00000330: 7d38 ccbe 5634 98bd 0d72 d13d d748 acbe
00000340: 80aa d53c 2465 a13d 7399 583d 4362 453c
00000350: 3930 f6bd c727 4e3d 554d f0bd f169 80bc
00000360: 12af 683d 9e50 f5bd 041e 8d3d 9441 79bd
00000370: b5e9 1a3d 0605 77bd f45c f4bd 51f4 283c
00000380: db7c 5bbe 7a1b 12be e917 7abe 0d2d 8a3e
00000390: 9c35 73be 9334 713d fdcf 0abe 9b09 493e
000003a0: a3f5 5dbd 17b7 0d3b 83f9 e63a 7ffe 88be
000003b0: a035 ef3d af88 66bc 65a5 92bd f451 233e
000003c0: 9aab 793d e9fb 083e 0cac 883d c84f 8f3d
000003d0: 7dc1 703c 632b 90bd 8d52 2b3e 33b0 793e
000003e0: 9cc1 153e 7cd5 38bd 19ba d4bc 3719 31bd
000003f0: 27a7 453d 66b9 053d 687b 0fbe 772c 453e

lstm1.bias_ih_l0 f4 [256]
0.087064095 -0.07877138 0.11983866 -0.22510162 -0.043225363 0.032352485 -0.061638664 0.0077880854
-0.15238886 0.08631259 -0.15986322 0.0067446483 0.06353945 0.0700088 -0.10479617 -0.07927119
0.060953435 0.027275588 -0.08356404 -0.13754648 0.08564562 -0.11116935 -0.07172286 0.07315731
-0.22011794 -0.13108234 -0.09767824 -0.045668855 -0.053769886 0.008850161 0.16270074 -0.028290238
-0.13809307 -0.08257731 -0.03560475 -0.19140211 0.10899469 0.13898438 -0.0063484483 -0.04759451
-0.08965529 0.07961129 -0.20305143 0.07106118 0.028522756 -0.00951022 0.15638903 -0.002309053
0.064698875 -0.12609562 -0.07080112 0.04345342 -0.1203782 0.10616866 0.2055235 0.0001581772
-0.10426154 0.12233038 -0.12764332 0.0039051562 -0.11067351 0.0848993 0.0227429 0.05911385
0.08411813 0.07894148 0.046563208 0.07871606 -0.06605511 -0.16825636 0.112986766 0.0039213495
-0.12394153 0.15968981 -0.00040989404 0.011532929 0.058117505 -0.08290176 -0.011751604 0.016770238
-0.02881475 0.081999 -0.011900259 -0.03244334 -0.0065307366 -0.13050158 -0.07251835 0.1464731
0.10143291 -0.116911694 0.03605959 8.5349246e-05 0.01885178 0.10731464 0.05114151 -0.1811429
-0.2267512 -0.082011156 0.045146428 -0.15068649 0.092724144 0.01362426 -0.035307463 0.03546262
-0.022708876 0.020844873 0.12972401 0.029672096 0.015133605 0.06719932 0.035077598 -0.09922123
0.0331994 -0.10888274 0.052186992 0.053216826 0.06204169 0.21740507 0.050176322 0.13467321
0.0067157703 0.012783092 -0.013265858 0.0797515 0.026472664 -0.026589954 0.084182166 -0.11979749
-0.14069587 -0.14604457 -0.09495518 -0.034646966 0.005673193 -0.23230341 -0.060630154 0.19729722
-0.07962713 -0.016075758 0.025500147 -0.19276245 0.11250714 -0.06363852 -0.02285871 0.16684683
-0.024749592 -0.07115478 0.06210433 -0.021391349 0.049006112 0.14485723 -0.03912247 0.083129145
-0.18225342 0.13981676 -0.12210122 -0.13074489 0.0002636576 0.07815207 -0.010885665 -0.22408459
0.2248094 0.15557507 -0.002400973 -0.028087396 0.032723974 0.12638919 0.10497919 0.12581694
-0.09661037 0.14921153 0.10375928 -0.08594436 -0.14845836 -0.22965783 -0.19412318 0.020957341
0.0057793953 -0.01365406 -0.081485264 0.122303456 -0.20810606 0.08295289 -0.14482726 -0.17766003
-0.15032262 0.20838185 0.030260911 0.06513553 -0.08556043 0.13796571 0.11584771 -0.12711485
-0.005675081 0.19824077 0.16772413 0.029630693 -0.03227914 -0.10053019 -0.0012391524 0.07323377
-0.01086855 0.17231274 0.13483962 -0.041327253 0.09679947 0.031191211 -0.095424004 0.023114476
0.07306445 0.07595496 0.024158753 0.04804031 0.07765756 -0.019413954 -0.09447022 0.09582828
-0.07477981 0.07697932 0.07948013 0.08073422 -0.051463243 -0.0065536164 0.06064396 0.0037739198
0.0010899637 0.02275583 -0.027318578 -0.11330344 -0.09374681 0.09091252 0.02673409 0.032255713
-0.07151565 0.08739396 -0.008074811 0.062359944 0.17423718 -0.15098132 -0.027205998 0.029246511
0.086199425 0.02175222 0.050714996 -0.10481661 -0.123737805 -0.03257736 -0.022457115 0.17420511
0.07684134 -0.044566058 -0.096757784 0.033175256 0.059542272 0.0122966245 -0.0570689 -0.054073136
00000000: a94e b23d e452 a1bd f96d f53d 0a81 66be
00000010: 140d 31bd 0a84 043d d378 7cbd 3233 ff3b
00000020: d30b 1cbe a8c4 b03d 2fb3 23be 3602 dd3b
00000030: f920 823d c660 8f3d 609f d6bd ef58 a2bd
00000040: 4faa 793d 0e71 df3c a023 abbd fcd8 0cbe
00000050: f966 af3d c2ac e3bd 6fe3 92bd 80d3 953d
00000060: 9966 61be 733a 06be 870b c8bd 440f 3bbd
00000070: d03d 5cbd 4400 113c 069b 263e eec0 e7bc
00000080: 4568 0dbe 4b1e a9bd 49d6 11bd eafe 43be
00000090: 9c38 df3d ec51 0e3e a506 d0bb 76f2 42bd
000000a0: 319d b7bd 3e0b a33d b7ec 4fbe 8688 913d
000000b0: 8ea8 e93c c1d0 1bbc 7224 203e 7b53 17bb
000000c0: d880 843d 361f 01be 2d00 91bd 37fc 313d
000000d0: d988 f6bd f46e d93d c174 523e 5edc 2539
000000e0: 1387 d5bd 5a88 fa3d eeb4 02be a6ed 7f3b
000000f0: cba8 e2bd afdf ad3d 514f ba3c 5d21 723d
00000100: 2046 ac3d 12ac a13d 10b9 3e3d e335 a13d
00000110: e747 87bd 654b 2cbe 9b65 e73d aa7e 803b
00000120: 0fd5 fdbd ba85 233e 0ce7 d6b9 9cf4 3c3c
00000130: 9f0c 6e3d 66c8 a9bd cd89 40bc bd61 893c
00000140: e90c ecbc 17ef a73d 4ef9 42bc 4fe3 04bd
00000150: caff d5bb 35a2 05be 8084 94bd 0bfd 153e
00000160: 0fbc cf3d 666f efbd 38b3 133d 87fd b238
00000170: 0c6f 9a3c c7c7 db3d c379 513d 867d 39be
00000180: 7731 68be 77f5 a7bd 76eb 383d 8f4d 1abe
00000190: 28e6 bd3d 4a38 5f3c 8f9e 10bd 4141 113d
000001a0: f707 babc dec2 aa3c 5fd6 043e e512 f33c
000001b0: f1f2 773c cc9f 893d 87ad 0f3d 8034 cbbd
000001c0: 18fc 073d eafd debd 07c2 553d e3f9 593d
000001d0: 6d1f 7e3d 6f9f 5e3e b085 4d3d c6e7 093e
000001e0: f70f dc3b 2d70 513c 0b59 59bc c154 a33d
000001f0: 33dd d83c 2dd3 d9bc b367 ac3d 6358 f5bd
00000200: 9412 10be b58c 15be dd77 c2bd fae9 0dbd
00000210: 31e6 b93b f2e0 6dbe 5357 78bd 4808 4a3e
00000220: 8c13 a3bd 4fb1 83bc afe5 d03c 8563 45be
00000230: 256a e63d ea54 82bd 3042 bbbc e5d9 2a3e
00000240: a8bf cabc 99b9 91bd 1c61 7e3d e93c afbc
00000250: a2ba 483d 7455 143e e23e 20bd 9d3f aa3d
00000260: a4a0 3abe 202c 0f3e 3410 fabd fde1 05be
00000270: 863b 8a39 310e a03d ca59 32bc 6e76 65be
00000280: 6f34 663e 124f 1f3e a559 1dbb 8a17 e6bc
00000290: 9309 063d 2b6c 013e 54ff d63d 28d6 003e
000002a0: a8db c5bd e8ca 183e bf7f d43d 9903 b0bd
000002b0: 7805 18be 6c2b 6bbe 3ac8 46be bbae ab3c
000002c0: 1561 bd3b 47b5 5fbc bfe1 a6bd 3c7a fa3d
000002d0: c119 55be 34e3 a93d 994d 14be 83ec 35be
000002e0: 2cee 19be 0d62 553e bbe5 f73c c765 853d
000002f0: 4f3a afbd e246 0d3e 9041 ed3d 652a 02be
00000300: 08f6 b9bb a1ff 4a3e e0bf 2b3e 11bc f23c
00000310: 2237 04bd c6e2 cdbd 0e6b a2ba 96fb 953d
00000320: 0112 32bc c072 303e 6613 0a3e c446 29bd
00000330: cd3e c63d b684 ff3c a96d c3bd 925a bd3c
00000340: d0a2 953d 468e 9b3d 94e8 c53c ebc5 443d
00000350: ed0a 9f3d 030a 9fbc 9a79 c1bd 9e41 c43d
00000360: 2826 99bd 55a7 9d3d 7ac6 a23d fc57 a53d
00000370: 1fcb 52bd b8bf d6bb cd65 783d de53 773b
00000380: 1ddd 8e3a 6f6a ba3c 36cb dfbc a20b e8bd
00000390: 54fe bfbd 5830 ba3d 7301 db3c 911e 043d
000003a0: cc76 92bd 9bfb b23d 364c 04bc 246d 7f3d
000003b0: 3b6b 323e d99a 1abe 1ddf debc 6196 ef3c
000003c0: 5389 b03d b631 b23c 87ba 4f3d 17aa d6bd
000003d0: 3f6a fdbd d66f 05bd fcf7 b7bc d362 323e
000003e0: fe5e 9d3d e68a 36bd f228 c6bd c7e2 073d
000003f0: 99e2 733d c877 493c 14c1 69bd cb7b 5dbd

lstm1.bias_hh_l0 f4 [256]
0.05182341 -0.036107495 0.07850356 -0.23742889 0.05146606 -0.092820905 -0.116494596 -0.032037076
-0.06862971 0.0044477284 -0.21653225 0.05508422 0.089619845 -0.078303404 -0.062736064 -0.044745866
-0.065767094 -0.06371388 -0.03984041 -0.21613431 0.07389293 0.07161812 -0.11490036 0.1549001
-0.02675697 -0.016421204 -0.11375141 0.07160458 -0.050214123 0.14021964 0.13524528 -0.13421533
-0.127906 -0.022840966 -0.07601746 -0.2448083 -0.12579682 0.032474972 -0.08373694 -0.03542158
-0.058859516 -0.08675171 -0.0316758 -0.123230115 -0.024660422 -0.05312434 0.13977751 -0.07140262
-0.0899794 -0.08421829 0.11313045 0.01243534 -0.10373127 -0.044654742 0.05400042 0.15332144
0.00071531255 0.088880315 -0.12497616 -0.02039275 -0.13417432 -0.11336097 -0.07357886 0.0057333633
0.073708385 -0.013290945 0.07233041 -0.11810478 -0.09150103 -0.18573838 0.01476029 0.17274615
0.06396049 0.16773555 0.077170834 0.075440206 0.13826714 -0.14785491 -0.022604074 0.05282223
-0.03061589 0.018133959 -0.04043542 -0.045024272 0.062079106 0.04191595 -0.17582719 0.21622927
-0.08349406 -0.08629353 0.094446786 0.15564032 -0.06516338 0.14958084 0.08875198 -0.07405989
-0.09554808 -0.06641675 0.1644986 0.027553253 0.09904539 -0.09370006 -0.0513592 -0.014272991
0.022675838 0.19594039 0.021470347 0.0763628 0.050959345 -0.02884818 -0.017314132 -0.052661296
0.1433454 -0.13961594 -0.11047657 0.12820436 -0.14788249 0.234648 0.06680463 0.13382469
0.092120394 -0.05789829 -0.013202047 0.14778261 -0.10111293 -0.022061743 -0.059809722 0.10313942
-0.10789282 -0.15564366 -0.14363281 0.15150566 0.03792519 0.003661031 0.1441094 0.072391815
-0.15656468 -0.24369349 0.13590331 -0.08736602 0.07000012 -0.023863534 -0.07969243 0.06468033
-0.0058728755 -0.22449401 0.015235279 -0.004837319 0.098543644 0.07474377 -0.014409305 0.23424773
-0.009182716 0.064649425 -0.12504543 -0.19230947 -0.22020644 -0.13291174 -0.112771146 -0.061064616
0.1131154 0.11513683 0.08013787 -0.002818926 0.2106266 0.074374296 0.0059497096 0.050425835
0.0051226187 -0.027200218 0.026627632 0.006680966 -0.112543024 -0.00059714296 -0.02902684 -0.025242755
-0.016710093 -0.09608994 -0.1792674 0.20513333 -0.08709839 0.06753333 -0.055424627 -0.2298375
-0.09534056 0.09155692 0.07310778 0.018436747 0.09924699 -0.020286946 0.09792818 -0.09093612
0.11492609 0.18322222 0.18335749 -0.05648009 0.081697434 0.04436565 -0.078882515 0.12009712
-0.08251465 0.13032836 -0.0106476275 -0.007405621 0.08039717 0.101613894 -0.06521908 0.11247294
-0.03003658 0.06008453 0.053425595 -0.00507318 -0.03888534 0.020287743 0.058932543 0.057928283
0.014315105 0.027207822 0.11010347 0.075309314 -0.040300645 0.073368646 0.20566574 -0.14539795
0.10018063 0.077747695 0.034834214 0.029152071 -0.105845004 0.01802653 0.022604598 -0.1616336
0.061593473 -0.07214399 -0.002962058 0.08343522 0.15663584 -0.01868247 0.034033645 -0.16609512
0.15318906 0.08716555 0.046916336 0.0061524133 -0.013661148 0.151068 0.1421693 -0.03545016
-0.10161053 0.09527503 0.07202349 -0.09597769 -0.08298042 0.01231125 -0.010411249 0.030854823
00000000: c944 543d 74e5 13bd 79c6 a03d 8f20 73be
00000010: 13ce 523d e318 bebd b894 eebd 4f39 03bd
00000020: bc8d 8cbd 40be 913b a1ba 5dbe fe9f 613d
00000030: 9c8a b73d 895d a0bd c47b 80bd 7147 37bd
00000040: e6b0 86bd 6c7c 82bd b32f 23bd 5052 5dbe
00000050: 2d55 973d 85ac 923d e150 ebbd 229e 1e3e
00000060: 6f31 dbbc c385 86bc 80f6 e8bd 6ca5 923d
00000070: 53ad 4dbd bd95 0f3e bd7d 0a3e be6f 09be
00000080: caf9 02be fa1c bbbc 0baf 9bbd 07af 7abe
00000090: e2d0 00be 7a04 053d 467e abbd 3816 11bd
000000a0: ad16 71bd e1aa b1bd 7cbe 01bd 1260 fcbd
000000b0: a704 cabc e898 59bd d621 0f3e 893b 92bd
000000c0: 1f47 b8bd a47a acbd f0b0 e73d 99bd 4b3c
000000d0: 0f71 d4bd e4e7 36bd 8b2f 5d3d 4c00 1d3e
000000e0: d083 3b3a e206 b63d 80f3 ffbd b20e a7bc
000000f0: fe64 09be cc29 e8bd 83b0 96bd f0de bb3b
00000100: 6cf4 963d 44c2 59bc f721 943d ebe0 f1bd
00000110: e464 bbbd 3432 3ebe 25d5 713c 5ee4 303e
00000120: b8fd 823d dec2 2b3e be0b 9e3d 6580 9a3d
00000130: e795 0d3e 4767 17be 2e2c b9bc 1f5c 583d
00000140: 2dce fabc ab8d 943c 9c9f 25bd 5f6b 38bd
00000150: a946 7e3d 0fb0 2b3d 0b0c 34be 356b 5d3e
00000160: effe aabd aaba b0bd 516d c13d 2d60 1f3e
00000170: 6174 85bd b82b 193e 99c3 b53d b6ac 97bd
00000180: b6ae c3bd 8105 88bd 5272 283e 5cb7 e13c
00000190: 4fd8 ca3d d1e5 bfbd 065e 52bd 43d9 69bc
000001a0: aec2 b93c 99a4 483e 95e2 af3c 1a64 9c3d
000001b0: bfba 503d 0553 ecbc 5ed6 8dbc 5fb3 57bd
000001c0: 23c9 123e 7bf7 0ebe 8a41 e2bd 0148 033e
000001d0: 826e 17be 9147 703e ded0 883d 5709 093e
000001e0: 9ea9 bc3d c226 6dbd 664d 58bc 5354 173e
000001f0: 4c14 cfbd d4ba b4bc 0afb 74bd c33a d33d
00000200: e9f6 dcbd 0d61 1fbe 7b14 13be 4d24 1b3e
00000210: 7257 1b3d e8ed 6f3b 6a91 133e 2942 943d
00000220: 7e52 20be c98a 79be 3d2a 0b3e f5ec b2bd
00000230: 395c 8f3d 757d c3bc c935 a3bd 1f77 843d
00000240: 4071 c0bb c2e1 65be 649d 793c 5f82 9ebb
00000250: 40d1 c93d 4313 993d 0115 6cbc a3de 6f3e
00000260: 1a73 16bc eb66 843d e90b 00be c6ec 44be
00000270: cc7d 61be 041a 08be 8ff4 e6bd e41e 7abd
00000280: 0ca9 e73d dccc eb3d 531f a43d bbbd 38bb
00000290: 80ae 573e 8d51 983d c8f5 c23b 528b 4e3d
000002a0: a4db a73b fed2 debc 3122 da3c 01ec da3b
000002b0: f57c e6bd 9689 1cba b2c9 edbc e5c9 cebc
000002c0: 9be3 88bc cdca c4bd e091 37be 790e 523e
000002d0: a460 b2bd ea4e 8a3d ef04 63bd 865a 6bbe
000002e0: e941 c3bd 3282 bb3d 88b9 953d a908 973c
000002f0: 0242 cb3d cf30 a6bc 928e c83d b73c babd
00000300: 5f5e eb3d 9b9e 3b3e 11c2 3b3e ab57 67bd
00000310: fc50 a73d c1b8 353d 288d a1bd 7bf5 f53d
00000320: 71fd a8bd cc74 053e 6373 2ebc daaa f2bb
00000330: 45a7 a43d f21a d03d 9591 85bd 3658 e63d
00000340: 460f f6bc 321b 763d ccd4 5a3d eb3c a6bb
00000350: 3c46 1fbd 7b32 a63c 4063 713d 3546 6d3d
00000360: e789 6a3c f0e2 de3c ee7d e13d c53b 9a3d
00000370: 4a12 25bd 4d42 963d 0a9a 523e 33e3 14be
00000380: 812b cd3d 2f3a 9f3d 52ae 0e3d 53d0 ee3c
00000390: 44c5 d8bd 60ac 933c 472d b93c 4783 25be
000003a0: 7049 7c3d 3ac0 93bd 161f 42bb 16e0 aa3d
000003b0: 2565 203e fb0b 99bc dd66 0b3d d714 2abe
000003c0: 98dd 1c3e da83 b23d 582b 403d 2f9a c93b
000003d0: 02d3 5fbc 92b1 1a3e d494 113e 3034 11bd
000003e0: 2e19 d0bd 8e1f c33d 0d81 933d f38f c4bd
000003f0: a3f1 a9bd 20b5 493c f193 2abc 41c3 fc3c

lstm2.weight_ih_l0 f4 [256, 64]
-0.07897935 0.004726982 -0.31485862 -0.0281225 0.14593555 0.05430938 0.14945585 0.13495214
0.12229552 -0.019264555 -0.089778826 0.14672361 0.25943622 0.08718092 0.14229807 0.17188033
-0.059638653 0.03835457 -0.029377 0.07412415 -0.007293187 -0.08780098 0.061277676 0.04204672
0.15063742 -0.0522284 0.25450656 0.15399714 0.020955415 -0.010818293 0.21983638 0.048320815
0.00325434 -0.11937498 -0.10787421 -0.045734603 -0.047545277 -0.0841822 0.049974624 0.048470043
-0.009388241 -0.10449681 -0.21003053 -0.02378985 -0.19138025 0.16507302 0.028937306 -0.012487726
0.09308689 0.14836489 -0.017744936 -0.16897154 0.15555003 -0.1292754 -0.010896692 -0.031063907
0.079164006 -0.015146769 0.13614096 -0.115803905 -0.053961217 0.106313 -0.105572045 0.081731774
0.071165316 0.054045293 -0.18305688 0.07744874 0.02868372 0.09351193 0.2818913 0.06001774
-0.06923372 0.07537397 -0.13332365 -0.013056247 0.042332284 0.17766184 0.18712531 -0.016150666
-0.25807065 -0.0051635834 -0.18757291 -0.057466988 0.015555372 -0.029553413 -0.17004843 -0.14079928
0.11206824 -0.06857493 0.05713539 0.16623956 0.04350409 0.257268 -0.08099744 0.12646522
0.09541458 -0.07031456 -0.16063988 0.088551044 0.036184646 0.00023524757 -0.019474233 0.12899081
-0.22035296 -0.07588873 -0.03175495 -0.2569318 -0.055832908 0.05459458 0.10683395 0.04876174
-0.084544405 0.09868323 0.17274854 -0.12626463 0.026419798 0.0053487695 -0.07333002 0.11384331
-0.06693419 0.15660712 0.007906138 0.004543665 -0.035331883 0.07798473 -0.25514755 0.079883754
0.01963261 -0.04316129 -0.1270421 -0.05320869 0.106132396 -0.023416806 -0.041867137 0.097196564
0.02357852 0.15493338 -0.1648094 0.17120615 -0.03127693 -0.043363374 -0.081839286 -0.038946044
-0.032136492 0.20499323 0.03151405 0.05013786 -0.020196708 -0.14561981 -0.1817538 -0.30248302
0.14271364 -0.07463796 0.14119928 0.018269084 0.1201227 0.118838094 0.13532014 0.13644159
-0.057359792 -0.20580767 -0.08410166 0.07749865 -0.125813 -0.19876547 -0.012412707 0.13791774
-0.041058037 0.0062864474 -0.1641532 0.1427129 -0.13193828 0.16376057 0.10638549 -0.13847035
-0.013863754 0.12755413 0.12637557 -0.0036230232 0.07722358 -0.042591278 -0.10775088 0.09118862
0.13243933 -0.11096193 0.03537159 0.025038773 0.041964285 -0.051882077 -0.08924634 0.0035842808
-0.0633806 -0.11181853 -0.10785536 -0.08389321 -0.045964614 0.14231162 0.0031975794 0.077228814
0.036500927 -0.11078577 -0.011551737 0.03880186 0.17140634 0.11821846 0.1589784 0.10917628
0.008485589 0.02726674 -0.1027979 0.1354689 0.11218629 -0.27221462 0.017713984 -0.06876954
0.024699891 -0.12983207 0.18010463 0.07527188 -0.01551491 -0.031776454 0.20562117 0.020057762
0.01655476 -0.024216194 0.08971991 0.123108536 0.117130786 -0.100254685 0.068225615 -0.18564436
-0.002903341 -0.103746556 0.05751367 0.17692965 -0.055415187 0.12203039 0.06740619 -0.15186864
0.01993455 0.01360546 -0.06094462 -0.0010866378 -0.024638122 0.05164482 0.16621399 -0.009931335
0.070361435 -0.07037802 0.099795 -0.083719075 -0.0061639645 0.08081306 0.02859517 -0.08927676
00000000: edbf a1bd cde4 9a3b 2635 a1be 2861 e6bc
00000010: 2170 153e 8373 5e3d f40a 193e e530 0a3e
00000020: 1376 fa3d b3d0 9dbc f6dd b7bd b73e 163e
00000030: d3d4 843e e98b b23d 96b6 113e 6601 303e
00000040: a947 74bd ae19 1d3d 09a8 f0bc 67ce 973d
00000050: b0fb eebb 00d1 b3bd 4dfe 7a3d 2e39 2c3d
00000060: b240 1a3e 72ed 55bd af4e 823e 6db1 1d3e
00000070: b1aa ab3c 363f 31bc ca1c 613e 0cec 453d
00000080: c446 553b df7a f4bd 27ed dcbd 3554 3bbd
00000090: d6be 42bd b867 acbd 31b2 4c3d 8688 463d
000000a0: 23d1 19bc 6c02 d6bd 3e12 57be eee2 c2bc
000000b0: 2ff9 43be e708 293e ee0d ed3c 5299 4cbc
000000c0: 57a4 be3d f7ec 173e d45d 91bc e006 2dbe
000000d0: 8248 1f3e c560 04be 0a88 32bc bc79 febc
000000e0: bd20 a23d 272a 78bc 8968 0b3e 992a edbd
000000f0: 7006 5dbd a1ba d93d 2836 d8bd fd62 a73d
00000100: 1fbf 913d 995e 5d3d 4373 3bbe 729d 9e3d
00000110: 1ffa ea3c 2f83 bf3d 0e54 903e 29d5 753d
00000120: 69ca 8dbd ab5d 9a3d ff85 08be dee9 55bc
00000130: 9e64 2d3d fcec 353e c79d 3f3e 674e 84bc
00000140: d621 84be 4733 a9bb 1d13 40be 8162 6bbd
00000150: f6db 7e3c 001a f2bc 2d21 2ebe b02d 10be
00000160: 0984 e53d 0371 8cbd cc06 6a3d b43a 2a3e
00000170: 5831 323d a2b8 833e fce1 a5bd 1980 013e
00000180: b868 c33d 1401 90bd c87e 24be 405a b53d
00000190: 5a36 143d caac 7639 6d88 9fbc 2b16 043e
000001a0: 35a4 61be 8d6b 9bbd 7a11 02bd 918c 83be
000001b0: 0cb1 64bd 919e 5f3d c2cb da3d 64ba 473d
000001c0: 9e25 adbd 6f1a ca3d fee4 303e 844b 01be
000001d0: 556e d83c bb44 af3b 0d2e 96bd ae26 e93d
000001e0: cb14 89bd 9e5d 203e bf88 013c 06e3 943b
000001f0: 2ab8 10bd 75b6 9f3d b3a2 82be 189a a33d
00000200: 91d4 a03c e5c9 30bd 5317 02be 5bf1 59bd
00000210: f15b d93d 9ad4 bfbc e07c 2bbd fe0e c73d
00000220: be27 c13c dba6 1e3e ccc3 28be aa50 2f3e
00000230: 3d1c 00bd cb9d 31bd 5b9b a7bd e385 1fbd
00000240: 8ea1 03bd bfe9 513e e014 013d 5b5d 4d3d
00000250: 9173 a5bc 5c1d 15be ab1d 3abe 0edf 9abe
00000260: 8623 123e c9db 98bd 8b96 103e 0ca9 953c
00000270: e402 f63d 6361 f33d 5d91 0a3e 58b7 0b3e
00000280: 1af2 6abd 3fbf 52be 7e3d acbd 9db7 9e3d
00000290: 20d5 00be 2d89 4bbe ab5e 4bbc 4f3a 0d3e
000002a0: 792c 28bd 8bfe cd3b c717 28be 5523 123e
000002b0: d41a 07be dab0 273e a3e0 d93d 2ccb 0dbe
000002c0: cd24 63bc 8d9d 023e 9968 013e 3e70 6dbb
000002d0: 6527 9e3d 3174 2ebd 7eac dcbd 19c1 ba3d
000002e0: 2d9e 073e 0240 e3bd cde1 103d 1d1e cd3c
000002f0: bee2 2b3d 4d82 54bd c9c6 b6bd 41e6 6a3b
00000300: b0cd 81bd 1d01 e5bd 45e3 dcbd 34d0 abbd
00000310: 6445 3cbd 23ba 113e 7b8e 513b 242a 9e3d
00000320: ff81 153d a6e3 e2bd 7f43 3dbc b3ee 1e3d
00000330: 2585 2f3e 851c f23d 3ccb 223e d097 df3d
00000340: 2407 0b3c 805e df3c b587 d2bd 5cb8 0a3e
00000350: edc1 e53d b75f 8bbe eb1c 913c 0bd7 8cbd
00000360: 6d57 ca3c b3f2 04be 596d 383e 2528 9a3d
00000370: 4032 7ebc 0728 02bd 5b8e 523e 2d50 a43c
00000380: d99d 873c 0a61 c6bc 12bf b73d 5420 fc3d
00000390: 44e2 ef3d 5452 cdbd dfb9 8b3d 8e19 3ebe
000003a0: fb45 3ebb 1379 d4bd 7493 6b3d 0c2d 353e
000003b0: 09fb 62bd 12eb f93d 420c 8a3d 7483 1bbe
000003c0: c84d a33c 6fe9 5e3c 11a1 79bd 846d 8eba
000003d0: e3d5 c9bc 8589 533d 0034 2a3e 0ab7 22bc
000003e0: a819 903d 5a22 90bd 5261 cc3d e874 abbd
000003f0: 15fb c9bb 5181 a53d 6b40 ea3c bcd6 b6bd

lstm2.weight_hh_l0 f4 [256, 64]
-0.097854614 -0.12896353 -0.17834614 0.11007695 0.004849583 -0.13530152 0.08584795 -0.027897157
-0.08183661 0.023247374 0.16540085 0.0644371 -0.002137021 0.078820445 -0.2781615 0.0018683131
0.12847285 -0.06725672 0.10228533 -0.003221113 0.03682216 0.06702831 -0.045345373 0.111169666
-0.026427204 -0.182759 -0.08440069 -0.08740625 -0.03529256 0.017171443 0.19630513 -0.13471353
0.017449426 0.0995675 -0.052099794 0.0016614759 0.22864221 -0.24438198 -0.07863195 -0.018645927
-0.069587015 -0.031394403 0.15655169 0.17553586 0.012759925 0.053457215 -0.09103801 -0.068982355
-0.089731745 0.08925311 -0.049132228 0.071791165 0.04376942 0.13921809 0.17288706 -0.11478345
0.09017036 0.010343752 -0.19908656 -0.07960201 -0.123441815 -0.15398596 -0.10282893 -0.07233145
0.063285254 -0.08309759 -0.22980246 -0.1920169 -0.027364027 -0.021935824 0.18247345 -0.05757074
0.014117692 0.1536845 0.1098224 0.032619134 0.32129988 0.024472766 -0.039157055 0.041595068
-0.10647984 -0.04430586 0.09255549 -0.012832326 0.45167992 0.1440932 -0.06835485 -0.06769287
-0.012948998 -0.34122917 -0.004206839 -0.058954205 0.045161866 -0.02283533 0.235104 0.09468463
0.1138498 0.043124296 -0.07959281 0.11908571 0.073042884 -0.10206589 0.101627365 -0.13511871
-0.07952061 0.3694905 -0.122923344 0.35871205 0.1238853 -0.01447664 0.04249436 0.03580495
0.04370655 0.022282222 -0.0042751664 -0.1258206 0.10883646 -0.14333367 -0.026751406 -0.23819113
-0.31695136 -0.035672426 -0.12989913 0.16061111 -0.0699407 -0.15774716 -0.124192975 -0.17772637
0.04504467 -0.009732922 -0.13502926 -0.13156068 -0.10104941 -0.098267294 0.11747058 0.10382894
-0.08752963 0.13827261 0.09687633 0.0051575215 -0.06060644 0.072508745 0.09943832 -0.03606186
-0.087873474 0.140016 0.050485596 -0.11280266 0.10892536 -0.19214204 0.088585295 0.039076287
0.1262612 -0.14566053 0.21772934 0.04013487 -0.10457562 0.096235014 0.10381006 0.12053691
-0.035521753 0.0757336 -0.019741919 0.0042051845 -0.12287235 -0.108263485 0.05013994 0.017851587
0.1270888 0.108406775 -0.097424224 0.0785436 -0.07175124 -0.022693159 -0.017914763 -0.021410197
0.0643024 0.019415375 -0.0009731433 -0.04244384 0.12641805 0.19998814 0.056517612 0.06497268
-0.07905794 0.0022440676 -0.007380214 -0.16124728 -0.18356138 0.113095954 0.00044421921 0.09494412
-0.13740596 0.04497201 0.048967265 0.077086836 -0.033287115 -0.011778233 -0.03453517 -0.23634723
-0.08696639 0.04674886 0.040689573 0.021580704 -0.08986512 0.0136644 0.074664555 0.077445365
0.11156883 0.051223706 -0.041753106 0.06419446 0.07268981 -0.032222766 -0.11473333 0.2351837
-0.16267784 0.0051096454 0.18644077 -0.23710023 0.051190782 0.012402024 0.030078799 0.07221587
0.0458111 0.0653227 0.10549392 0.06932372 0.11640484 0.0649725 -0.19920242 0.02552572
-0.06430912 -0.049980644 0.035554294 0.014196151 0.10302326 -0.010947597 -0.029935868 -0.029590737
0.18553871 0.046099342 0.0012408927 -0.069055006 -0.20291062 -0.0968798 0.09554247 -0.15944958
-0.0015730982 0.19044548 0.05057713 0.1399625 0.086386375 0.05690806 0.101506524 -0.094351426
00000000: 0068 c8bd 040f 04be 5fa0 36be 0670 e13d
00000010: 40e9 9e3b 7b8c 0abe 0dd1 af3d 9488 e4bc
00000020: f499 a7bd 4771 be3c d75e 293e 99f7 833d
00000030: 430d 0cbb 9d6c a13d 2f6b 8ebe 2fe2 f43a
00000040: 638e 033e e4bd 89bd f97a d13d 4f19 53bb
00000050: d5d2 163d 2346 893d 12bc 39bd ecac e33d
00000060: dd7d d8bc 2d25 3bbe 45da acbd 0c02 b3bd
00000070: ee8e 10bd 20ab 8c3c 3604 493e 58f2 09be
00000080: 19f2 8e3c 0cea cb3d 9866 55bd e1c5 d93a
00000090: 2f21 6a3e 453f 7abe ca09 a1bd 58bf 98bc
000000a0: a383 8ebd 6b97 00bd 164f 203e acbf 333e
000000b0: 010f 513c f4f5 5a3d 2372 babd 9f46 8dbd
000000c0: 47c5 b7bd 56ca b63d e03e 49bd 3f07 933d
000000d0: 9047 333d 308f 0e3e 4e09 313e 9613 ebbd
000000e0: 3dab b83d d778 293c 59dd 4bbe 6106 a3bd
000000f0: 10cf fcbd 7fae 1dbe f997 d2bd 8322 94bd
00000100: b39b 813d 122f aabd 5651 6bbe 14a0 44be
00000110: 862a e0bc c2b2 b3bc 52da 3a3e 4ccf 6bbd
00000120: e44d 673c 785f 1d3e 91ea e03d a49b 053d
00000130: 6b81 a43e 1c7b c83c 2663 20bd 975f 2a3d
00000140: 1a12 dabd 107a 35bd bc8d bd3d ad3e 52bc
00000150: 9742 e73e 2b8d 133e a1fd 8bbd 8fa2 8abd
00000160: 0928 54bc 97b5 aebe 86d9 89bb f779 71bd
00000170: a6fb 383d 2811 bbbc 1abf 703e 04ea c13d
00000180: 152a e93d 1aa3 303d 8e01 a3bd 35e3 f33d
00000190: 8297 953d ec07 d1bd 0222 d03d 8f5c 0abe
000001a0: b4db a2bd dc2d bd3e 3cbf fbbd 1ba9 b73e
000001b0: 93b7 fd3d 6e2f 6dbc 910e 2e3d 36a8 123d
000001c0: a405 333d 3589 b63c b216 8cbb 1ed7 00be
000001d0: a6e5 de3d 10c6 12be c425 dbbc 60e8 73be
000001e0: 7347 a2be 401d 12bd 4704 05be 3d77 243e
000001f0: 123d 8fbd 7988 21be e358 febd e7fd 35be
00000200: c380 383d d576 1fbc 1c45 0abe d8b7 06be
00000210: fef2 cebd 5d40 c9bd 6a94 f03d 44a4 d43d
00000220: bc42 b3bd 5697 0d3e 1967 c63d 6d00 a93b
00000230: 753e 78bd 777f 943d 51a6 cb3d 9ab5 13bd
00000240: 02f7 b3bd 5b60 0f3e fcc9 4e3d 1505 e7bd
00000250: 4214 df3d e2c0 44be 356c b53d 750e 203d
00000260: 9e4a 013e 0928 15be 71f4 5e3e 7664 243d
00000270: be2b d6bd dd16 c53d 5e9a d43d 0edc f63d
00000280: 427f 11bd 381a 9b3d ceb9 a1bc a5cb 893b
00000290: 80a4 fbbd 3fb9 ddbd 8a5f 4d3d 7e3d 923c
000002a0: 9123 023e 5f04 de3d 5a86 c7bd 78db a03d
000002b0: 50f2 92bd 01e7 b9bc fbc1 92bc 7064 afbc
000002c0: fab0 833d fe0c 9f3c 8b1a 7fba 98d9 2dbd
000002d0: bc73 013e b1c9 4c3e 037f 673d 6510 853d
000002e0: 21e9 a1bd 3511 133b b9d5 f1bb 021e 25be
000002f0: 84f7 3bbe da9e e73d 18e6 e839 1072 c23d
00000300: 26b4 0cbe 9234 383d e691 483d b4df 9d3d
00000310: 1258 08bd 7df9 40bc c074 0dbd 0205 72be
00000320: 6f1b b2bd bc7b 3f3d 1caa 263d 04ca b03c
00000330: 340b b8bd a6e0 5f3c bbe9 983d ad9b 9e3d
00000340: 337e e43d f3cf 513d 4e05 2bbd 6378 833d
00000350: 65de 943d 05fc 03bd 4ff9 eabd ffd3 703e
00000360: 0595 26be d06e a73b 54ea 3e3e 67ca 72be
00000370: 6dad 513d dc31 4b3c d067 f63c eae5 933d
00000380: 6ca4 3b3d e8c7 853d 320d d83d 98f9 8d3d
00000390: a965 ee3d 4d10 853d b8fb 4bbe 511b d13c
000003a0: 80b4 83bd 81b8 4cbd 61a1 113d f996 683c
000003b0: dcfd d23d 8d5d 33bc 113c f5bc 4668 f2bc
000003c0: dcfd 3d3e aad2 3c3d 73a5 a23a b66c 8dbd
000003d0: cdc7 4fbe eb68 c6bd c5ab c33d c046 23be
000003e0: 6b30 ceba 2404 433e f729 4f3d 5452 0f3e
000003f0: 57eb b03d 6d18 693d a7e2 cf3d 523b c1bd

lstm2.bias_ih_l0 f4 [256]
0.09507407 -0.007847865 0.11449991 0.03386891 -0.0856077 0.0028155164 0.10298661 -0.09952419
0.049267817 -0.018521944 0.19125786 -0.114720315 0.14866209 0.16156048 0.09011433 -0.06837264
-0.013882499 -0.09898607 0.14861795 0.23383775 0.251652 0.13369718 -0.014796659 -0.029523782
-0.09825414 0.18946742 -0.1545508 -0.00853854 -0.021231173 -0.10578942 0.23870192 0.10108025
-0.016964603 -0.036734905 -0.17653957 -0.16729951 -0.11880914 0.015771642 0.14549236 0.047983255
0.06811907 0.08001393 -0.114081144 0.1099707 -0.05385685 -0.02547219 -0.081349134 -0.0042893835
-0.13036416 0.061967768 -0.023611784 0.09586767 0.07186504 0.117436394 0.09591445 0.0138441045
-0.06136372 0.011627351 -0.05587194 -0.076768644 0.102937475 0.007019453 -0.03648744 -0.15920168
0.070317976 -0.04317837 -0.1405157 0.09225064 0.1976493 0.13143578 0.05262973 -0.015445004
-0.014038511 0.06982755 0.118058 -0.029265245 -0.008723295 0.009253031 0.04526245 0.14831421
-0.027650293 0.03500476 0.014141612 0.011326151 0.20106412 0.03756034 -0.103172146 0.059415653
0.014286799 -0.1019566 0.077993795 0.2188189 0.11801916 -0.06019294 0.022816963 -0.04664035
0.09883224 0.22705722 0.0022158464 0.20559445 -0.023791295 0.14947833 -0.1764022 0.3567715
-0.027203605 0.1990346 -0.022133693 0.009596028 -0.023977032 0.018833524 0.0022354282 0.015203235
0.023356246 0.05021931 0.15663184 -0.06471162 0.12814759 -0.09678244 0.16174218 0.005231672
0.15545844 -0.09278459 0.23110001 0.023153532 0.03809774 0.043481477 -0.012488175 0.076264136
0.06672281 0.0369385 -0.07273117 0.003725145 0.009479615 -0.084997006 0.09832864 -0.16480193
0.08464655 -0.003348517 0.034331087 0.11550735 -0.028408531 -0.119862005 -0.15782703 -0.02406278
-0.04589754 -0.044353597 0.10056228 -0.061581004 0.028971376 0.09910305 -0.08316328 -0.06077858
0.011299862 0.06117095 -0.044540994 -0.0055570784 -0.084430255 0.05828485 0.2418574 0.030000739
-0.0003111124 0.026764976 -0.012576057 0.06460617 -0.025696402 -0.013486831 -0.11304798 -0.06551711
-0.1014774 0.10195571 0.026321445 0.027669901 -0.08530002 -0.039565887 -0.030721517 0.14167236
-0.06690425 0.07505338 0.041240174 0.013430943 0.0076014344 0.06832092 -0.080548145 -0.12755951
0.0013101678 0.08805019 0.05505922 0.13286732 0.11380686 0.007998921 -0.024237482 -0.14788142
-0.021241765 0.19870116 0.039777998 -0.016845273 0.02933266 0.048773825 -0.03654181 0.14501801
-0.046344474 0.045270383 0.046968117 0.013602694 0.021574717 0.16916248 0.22780229 -0.12320842
-0.0032913834 0.02783403 0.28008097 0.05559302 0.3502266 0.055207968 -0.038305882 0.071403176
-0.19130766 0.18780203 -0.1450047 0.15788963 0.030611238 -0.08379777 0.15068567 0.01830533
0.118087776 0.12703365 -0.10886234 0.08354455 0.13242395 0.112452194 0.2144019 0.2473691
-0.019790936 -0.029644918 0.019211084 0.23287039 -0.06960557 0.13875695 -0.023064854 0.06300736
-0.15490666 -0.10645689 0.021141645 0.08183906 0.08827144 0.06904248 0.044521276 0.12351868
0.10211065 0.013999331 -0.0030774772 -6.666688e-05 0.07581993 0.031591997 0.14184147 0.037740715
00000000: 32b6 c23d 5594 00bc ee7e ea3d 20ba 0a3d
00000010: 1753 afbd 8784 383b a5ea d23d 57d3 cbbd
00000020: 0dcd 493d 55bb 97bc 1ad9 433e 7cf2 eabd
00000030: e03a 183e 1c70 253e dd8d b83d f406 8cbd
00000040: 6c73 63bc 35b9 cabd 4e2f 183e 2a73 6f3e
00000050: 88d8 803e eae7 083e b06d 72bc dcdb f1bc
00000060: 7739 c9bd bf03 423e 9142 1ebe 3ce5 0bbc
00000070: ffec adbc 20a8 d8bd 476e 743e 2a03 cf3d
00000080: 5af9 8abc 5777 16bd cac6 34be 9050 2bbe
00000090: 3552 f3bd 8833 813c f3fb 143e 178a 443d
000000a0: 0382 8b3d 58de a33d 60a3 e9bd 5238 e13d
000000b0: 0099 5cbd 0eab d0bc 609a a6bd f58d 8cbb
000000c0: 2f7e 05be ead1 7d3d 806d c1bc 4556 c43d
000000d0: fa2d 933d 7e82 f03d cc6e c43d 62d2 623c
000000e0: 8658 7bbd a580 3e3c fad9 64bd e138 9dbd
000000f0: e2d0 d23d 7103 e63b db73 15bd c405 23be
00000100: df02 903d cddb 30bd 59e3 0fbe e7ed bc3d
00000110: 9464 4a3e 1a97 063e 4692 573d 0b0d 7dbc
00000120: c801 66bc bf01 8f3d 65c8 f13d abbd efbc
00000130: 27ec 0ebc 069a 173c 1e65 393d aedf 173e
00000140: de82 e2bc 2761 0f3d 38b2 673c 5291 393c
00000150: c1e3 4d3e dfd8 193d eb4b d3bd d45d 733d
00000160: 2e13 6a3c 9fce d0bd 36bb 9f3d 1012 603e
00000170: 08b4 f13d df8c 76bd a4ea ba3c f409 3fbd
00000180: 8f68 ca3d b081 683e bc37 113b 5a87 523e
00000190: f6e5 c2bc d910 193e c7a2 34be c1aa b63e
000001a0: 18da debc bacf 4b3e b851 b5bc a938 1d3c
000001b0: 7b6b c4bc c348 9a3c 4380 123b fd16 793c
000001c0: 9955 bf3c c3b2 4d3d 1964 203e 8787 84bd
000001d0: 1f39 033e df35 c6bd be9f 253e 726e ab3b
000001e0: 7f30 1f3e d905 bebd 7ba5 6c3e 7aac bd3c
000001f0: 600c 1c3d a219 323d 349b 4cbc 5f30 9c3d
00000200: f8a5 883d d34c 173d 14f4 94bd 9021 743b
00000210: 6350 1b3c e912 aebd 8760 c93d d6c1 28be
00000220: 2c5b ad3d cb72 5bbb c19e 0c3d 1e8f ec3d
00000230: 02b9 e8bc 367a f5bd 699d 21be 4f1f c5bc
00000240: 0fff 3bbd 1eac 35bd 99f3 cd3d 5d3c 7cbd
00000250: 6155 ed3c 8af6 ca3d 8251 aabd f6f2 78bd
00000260: 0e23 393c 648e 7a3d 9e70 36bd 2718 b6bb
00000270: c5e9 acbd 18bc 6e3d 77a9 773e 1cc4 f53c
00000280: cd1c a3b9 3942 db3c ce0b 4ebc 3d50 843d
00000290: 4381 d2bc dff7 5cbc b385 e7bd d62d 86bd
000002a0: 62d3 cfbd 28ce d03d 12a0 d73c fdab e23c
000002b0: c7b1 aebd d70f 22bd b1ab fbbc 8f12 113e
000002c0: 1805 89bd 96b5 993d 75eb 283d 750d 5c3c
000002d0: 7415 f93b d7eb 8b3d 6df6 a4bd f69e 02be
000002e0: f0b9 ab3a a853 b43d c785 613d 5f0e 083e
000002f0: 9213 e93d e80d 033c af8d c6bc 3a6e 17be
00000300: 3603 aebc 5178 4b3e 41ee 223d 19ff 89bc
00000310: 0c4b f03c 10c7 473d ddac 15bd 9a7f 143e
00000320: b4d3 3dbd 706d 393d a461 403d d5dd 5e3c
00000330: 76bd b03c ee38 2d3e 0145 693e b254 fcbd
00000340: 40b4 57bb 3104 e43c c666 8f3e 82b5 633d
00000350: e750 b33e c021 623d a1e6 1cbd d43b 923d
00000360: 28e6 43be 2d4f 403e 1d7c 14be d2ad 213e
00000370: 6bc4 fa3c 2a9e abbd 584d 1a3e 0ff5 953c
00000380: 01d8 f13d 1c15 023e 38f3 debd 6819 ab3d
00000390: 259a 073e 564d e63d 2c8c 5b3e 534e 7d3e
000003a0: 9a20 a2bc e6d9 f2bc 9060 9d3c 9375 6e3e
000003b0: 5d8d 8ebd 4d16 0e3e 81f2 bcbc 010a 813d
000003c0: da9f 1ebe 1206 dabd 3e31 ad3c 3d9b a73d
000003d0: a8c7 b43d 2566 8d3d f15b 363d 5df7 fc3d
000003e0: 631f d13d 735d 653c 80af 49bb 82cf 8bb8
000003f0: 7b47 9b3d 9c66 013d e43e 113e 0296 1a3d

lstm2.bias_hh_l0 f4 [256]
0.044083204 0.07777219 0.110408485 0.12146085 -0.06573503 0.084315956 0.0036323762 0.044522252
-0.0057866625 -0.07252715 0.15776533 -0.22344512 0.055837113 0.1277308 -0.048310213 -0.18513869
-0.1049625 0.11446875 0.13612527 0.16118424 0.098853 -0.033197567 -0.22209375 0.03258768
0.02977524 0.18193519 -0.13394229 -0.1454166 0.021576203 -0.17525725 0.060750227 0.12772503
-0.015944872 0.16407816 -0.008032251 -0.0998842 -0.056046966 -0.062050242 0.08852405 0.10257488
-0.027289765 0.046162788 -0.005159032 0.19807357 -0.078865245 -0.07991753 0.094642594 -0.09522265
-0.18837205 -0.11142157 0.025220666 -0.09003781 0.0971185 0.049771592 0.00500229 -0.09942664
0.041794505 -0.10207017 -0.081931874 -0.10960277 0.2743595 -0.012137606 -0.160692 0.047826815
-0.040565398 0.03866044 -0.06985083 0.15364605 -0.0007521992 0.09211911 -0.02824459 0.11640475
0.16471006 0.026646795 0.068376355 0.009405547 0.08965251 -0.10222151 0.16563399 0.15669957
0.0146890525 0.08167738 -0.07716263 0.0547251 0.05865948 0.068446815 -0.13671127 -0.00055113266
0.10768363 -0.07019 -0.0027391186 0.1781968 0.095801406 -0.08855948 0.21062982 0.16295938
0.036690187 0.014942366 0.098081954 0.18638404 0.06584558 0.0377467 0.02030788 0.3212752
-0.03450892 0.14185831 0.014177325 0.11227107 -0.04233891 0.17760846 -0.09290515 0.122198366
-0.053382177 -0.08520003 0.06892234 0.05358379 0.06143509 -0.158796 -0.025083913 0.23317751
0.05991434 -0.037555672 0.18562119 -0.12909043 0.02383684 0.10260438 -0.062028497 0.16273448
-0.059151966 -0.06882467 0.016188957 0.028825238 -0.027350567 -0.012350831 0.08784451 -0.1254374
0.15681282 -0.0009692931 0.17919585 0.06356194 0.07545716 -0.09350512 -0.03482849 -0.12592745
0.08967121 -0.15204039 -0.043311685 -0.15124008 -0.0022661777 0.0508722 0.13380896 -0.1455891
0.01466937 -0.07272104 -0.03663214 -0.025045728 0.08904954 -0.13729738 0.14881939 -0.02804205
-0.035524465 0.15247087 0.010396514 -0.09484843 0.037403762 -0.07708512 -0.18647584 -0.07316178
-0.10013383 0.0679645 -0.09191799 0.14767429 0.0022272 -0.023149572 0.184622 -0.08275842
-0.0057824953 0.15614066 0.002364295 -0.04404018 -0.09706932 0.003635615 -0.04893986 -0.1343701
0.06703711 -0.016709553 -0.10955109 0.1299573 0.007958368 -0.026995063 0.115597695 0.09162077
0.022759868 0.06522706 0.16128041 0.06851583 0.057515867 0.010977931 0.16151808 0.13666223
-0.056921426 -0.09552869 0.09710881 0.029533083 0.12560846 0.2405388 0.058268532 0.019025136
0.014816169 -0.015403658 0.28799117 -0.05366654 0.21726216 -0.059115868 -0.11783122 -0.123810016
-0.069100045 0.1983291 -0.048401542 0.16376278 0.06705618 -0.07014327 0.21122923 0.05957864
0.15056199 0.09200674 -0.07422168 0.022908736 -0.023118796 -0.062368996 0.10588556 0.1766813
0.070412934 0.20149766 -0.1594943 0.102149114 0.087070644 0.102413304 0.0050243293 -0.080401056
0.05003435 0.084309675 -0.11350003 -0.070308276 0.044493943 0.05286507 0.077806704 -0.006273046
-0.006304032 -0.04106074 0.064431265 0.05946823 0.25793162 0.12256702 -0.007958247 -0.11358208
00000000: 9790 343d 0747 9f3d d81d e23d 77c0 f83d
00000010: 16a0 86bd d8ad ac3d 290d 6e3b f75c 363d
00000020: 0b9e bdbb 1d89 94bd 3c8d 213e ccce 64be
00000030: 75b5 643d ddcb 023e eee0 45bd ff94 3dbe
00000040: 94f6 d6bd 986e ea3d 6c64 0b3e 7b0d 253e
00000050: 7173 ca3d 2cfa 07bd 8b6c 63be a97a 053d
00000060: 34eb f33c 384d 3a3e 2b28 09be 17e8 14be
00000070: 94c0 b03c a376 33be 3bd5 783d 5aca 023e
00000080: d29e 82bc 1b04 283e b499 03bc 1690 ccbd
00000090: 8191 65bd 6528 7ebd 194c b53d c712 d23d
000000a0: c98e dfbc 3115 3d3d 190d a9bb ccd3 4a3e
000000b0: 1a84 a1bd cdab a3bd fad3 c13d 1804 c3bd
000000c0: 9ae4 40be fe30 e4bd 929b ce3c be65 b8bd
000000d0: 10e6 c63d 4cdd 4b3d 40ea a33b 32a0 cbbd
000000e0: b730 2b3d 2a0a d1bd e6cb a7bd 6b77 e0bd
000000f0: d978 8c3e cfdc 46bc 728c 24be 0de6 433d
00000100: e727 26bd 695a 1e3d f40d 8fbd 6455 1d3e
00000110: 3c2f 45ba f2a8 bc3d 3361 e7bc 9d65 ee3d
00000120: c1a9 283e 614a da3c e708 8c3d b919 1a3c
00000130: bc9b b73d 8359 d1bd f59b 293e da75 203e
00000140: 5aaa 703c 7846 a73d 7107 9ebd 6d27 603d
00000150: ec44 703d d82d 8c3d 0afe 0bbe e379 10ba
00000160: 3c89 dc3d c6bf 8fbd c982 33bb 3979 363e
00000170: 8733 c43d ac5e b5bd 58af 573e d3de 263e
00000180: 7348 163d d3d0 743c 31df c83d 75db 3e3e
00000190: 0cda 863d 499c 1a3d b65c a63c 2f7e a43e
000001a0: 3a59 0dbd 4e43 113e 0348 683c 60ee e53d
000001b0: 916b 2dbd fede 353e 0e45 bebd 2343 fa3d
000001c0: 45a7 5abd 5a7d aebd 2827 8d3d ad7a 5b3d
000001d0: 5ca3 7b3d 6b9b 22be c77c cdbc 16c6 6e3e
000001e0: bd68 753d fad3 19bd 7b13 3e3e 4830 04be
000001f0: 7a45 c33c 3f22 d23d 9811 7ebd dea3 263e
00000200: 5549 72bd f3f3 8cbd b49e 843c e822 ec3c
00000210: 4c0e e0bc 245b 4abc d3e7 b33d a972 00be
00000220: 8a93 203e 2918 7eba 1e7f 373e c32c 823d
00000230: 4989 9a3d 9d7f bfbd 52a8 0ebd 20f3 00be
00000240: 8aa5 b73d 7ab0 1bbe 9867 31bd aede 1abe
00000250: 2784 14bb 5e5f 503d 3705 093e 4f15 15be
00000260: cc57 703c c5ee 94bd 950b 16bd b32c cdbc
00000270: 9b5f b63d af97 0cbe 1c64 183e 71b8 e5bc
00000280: 1a82 11bd 5321 1c3e 2456 2a3c e53f c2bd
00000290: b034 193d cede 9dbd 86f3 3ebe d8d5 95bd
000002a0: f712 cdbd f930 8b3d 803f bcbd ee37 173e
000002b0: 37f6 113b 2ca4 bdbc 8d0d 3d3e 3f7d a9bd
000002c0: 167b bdbb 56e3 1f3e 4af2 1a3b 7a63 34bd
000002d0: 48cc c6bd 8043 6e3b 2a75 48bd 5198 09be
000002e0: c14a 893d 79e2 88bc 525c e0bd 8713 053e
000002f0: d163 023c c024 ddbc 7cbe ec3d aca3 bb3d
00000300: e772 ba3c c495 853d b126 253e 0752 8c3d
00000310: c295 6b3d c8dc 333c ff64 253e 2ff1 0b3e
00000320: 7126 69bd 8ca4 c3bd fce0 c63d 5def f13c
00000330: 819f 003e ce4f 763e fcaa 6e3d 9ada 9b3c
00000340: 84bf 723c a05f 7cbc 9473 933e 72d1 5bbd
00000350: f979 5e3e 7b23 72bd 7f51 f1bd 1b90 fdbd
00000360: 5384 8dbd c916 4b3e b240 46bd 6eb1 273e
00000370: c054 893d 46a7 8fbd 7a4c 583e bb08 743d
00000380: ec2c 1a3e 086e bc3d 8901 98bd 1aab bb3c
00000390: a163 bdbc a276 7fbd 87da d83d f1eb 343e
000003a0: a834 903d 6755 4e3e 7952 23be 8e33 d13d
000003b0: 1852 b23d 11be d13d 21a3 a43b 4fa9 a4bd
000003c0: d2f0 4c3d 8daa ac3d b472 e8bd c9fd 8fbd
000003d0: 483f 363d 0b89 583d 1f59 9f3d 208e cdbb
000003e0: 0e92 cebb 4e2f 28bd 8af4 833d f594 733d
000003f0: 9d0f 843e 6b04 fb3d 4f63 02bc b99d e8bd
