saved_model/DAP_Model_Huber.pt (torch, 236146 bytes, 12 tensors)

lstm1.weight_ih_l0 f4 [256, 8]
00000000: 2f0d e73d 630a cdbd e018 64bd 115b 9c3d
00000010: 0e4d 56be d0af f83d 9e16 87bd ad6c 053e
00000020: 565a f13d a68b d03d 9978 7dbd 49a3 223d
00000030: 62a3 383e 789b d93c 2df3 143e 6d2e 093e
00000040: 9925 08bd 578a 5c3d 3a46 14be da23 81bd
00000050: 7983 b63d 0cac 7abd 3f4b 53bc f525 f8bc
00000060: 3996 ec3d 8a13 a33d 65cc d93d 6d72 a5bc
00000070: 866e 0f3e 812e e13d c6e1 523c db13 b9bd
00000080: cf6b 823d e71a ed3d 2820 cb3d 9e9c bdbd
00000090: 4aa0 dcbd 80bc 1dbe f5b2 443e ec51 10be
000000a0: c41b 113d 4c96 93bc 420e b3b9 a51c dbbb
000000b0: 15e0 d43c 03d0 8c3b 454c 27be f913 a6bd
000000c0: 7964 f03d 8181 53bd a797 5b3d d420 313d
000000d0: f388 d33d 35c3 01bd c8bf 0abe b2d8 7c3d
000000e0: 4439 c4be 267c 12be d67f 85bd 7e2b 243e
000000f0: 1bb9 8bbc 2d73 1b3e 4a4b 4d3e aaa2 5abb
00000100: e520 093e 1980 663c cd02 463e c084 273d
00000110: a896 ddbc 6161 133e 4cd4 293e 18e7 e3bd
00000120: 7a85 a03d 34cf 193e c237 9e3d ee61 883d
00000130: 0820 f53e 04df 32be 4d7f 57be 4eb9 b43d
00000140: 63d8 29bc 1fe0 273d 2c22 113d 3e14 7d3d
00000150: 2b36 023e 649a d73c 66fd 47be 0ad7 c23d
00000160: 3423 8abc c09c 59bc 45f4 693b faba d73d
00000170: d479 57be 7b4c adbd 1997 903e e202 dabc
00000180: 33a6 4c3d 26a8 223e e220 8f3d 452a cbbd
00000190: 3cba ff3d 3b48 17bc 6825 d3bd 40c9 803e
000001a0: 025c 983d 7dbf 60bb 8722 bf3d 08a3 1bbd
000001b0: 0553 873d 96bb e7bd 8839 683e 920e c2bd
000001c0: a441 2ebd 0659 25bd fe0c 31ba 5ec1 18be
000001d0: 31a1 933e d220 9e3d fe64 ed3d 1510 cebd
000001e0: b35a 8d3d 6a87 e93d 4b9b c7bc f974 f03d
000001f0: 7559 b4bd df63 b43d 7b99 373e dfa9 6a3c
00000200: 6b68 19be a784 8d3c 4dcd c83d 7290 52bd
00000210: 7ef3 b43e 96d1 7bbe d524 bcbd 9c5d edbc
00000220: 0bf1 193c 80d5 92bd 434a fe3d d6e3 ab3d
00000230: 5008 d73d 5792 143d 8639 e93d 1b61 c6bd
00000240: 60ee 0abe 0330 3abd 14d5 67bc 0422 353d
00000250: 804b 923e d4cf fbbd a303 96be 87e0 103c
00000260: 41df 863d fec3 6a3d 5268 123d 1c9d d73d
00000270: 9098 38be 548d 063e a62f a83e 8a57 813d
00000280: d5ed a93d ba5d da3d b47c a43d 5cfa 5ebd
00000290: 581e 86be 74b4 18bd f075 45bd ca1f 333d
000002a0: cadd bcbd 1544 e93c 8fc6 8bbc fe42 1c3e
000002b0: ce84 913e 1716 25be 8df1 15be 1b47 9dbc
000002c0: 8fc6 fcbd 900b 3dbe 2d56 f8bd 70ce 233d
000002d0: 7fea 62be fe2c 3b3e 6a92 ff3d ba20 07be
000002e0: 35a4 f0bc d44f d7bd 8cae e63d 416f 40be
000002f0: 9330 0e3e 0b41 ceba 6937 2ebe 5a49 9dbc
00000300: 6e4d 773d c468 383e 1fb9 923d 86ce b73d
00000310: 8228 5cbc 903b 23be b106 c03b 97d7 393e
00000320: 4997 1abd 5f53 2d3d c5a6 b3bc e9fa 2ebe
00000330: 5690 0abe 386c 0fbe 3bb0 723d cfee 783d
00000340: b518 2abc 413e f6bc 69e1 c43d 7cc3 123c
00000350: 74ce 23be 4945 a73d f949 3dbc fd38 f8ba
00000360: cc20 ccbd dce0 6dbd 5fd9 9b3d 087e f9bd
00000370: 491f e4bd 62e6 bebd 177c a2bc 04fc 73bd
00000380: b173 003e 7870 aebd 427a 9ebc 0e13 353e
00000390: 7b02 afbd f8b8 ba3d 5c60 c6bc c562 15bc
000003a0: 2ac4 34bd 066e a23d 444c 04be bfa0 843d
000003b0: ccb9 67be 22e9 12be 5ff4 113e 5b08 05bd
000003c0: aee0 4c3c 1dab 863d 3f66 bdbd fada 79bd
000003d0: 8478 a5bd 3cc4 e6bc c26b 00bd cac0 ca3d
000003e0: 2044 783d 860b 15bd 1536 4d3e d773 213e
000003f0: 0bab f5bc 4304 ef3d 757f 3bbe 0658 753e
0.112818114 -0.10011747 -0.055687785 0.07634557 -0.20927832 0.121429086 -0.06596111 0.13029738
0.11784808 0.10182886 -0.06188259 0.039706502 0.18031076 0.026563391 0.14545889 0.13396616
-0.03323898 0.05384287 -0.14479914 -0.06305666 0.08911795 -0.061199233 -0.012896358 -0.030291537
0.1155209 0.07962711 0.10634688 -0.020196164 0.14007005 0.10995198 0.012871211 -0.0903699
0.06368219 0.11577397 0.09918243 -0.09258388 -0.1077276 -0.15403938 0.19208892 -0.1409375
0.03542687 -0.018016003 -0.00034152163 -0.0066867643 0.025985757 0.004297258 -0.16337688 -0.08109278
0.11737914 -0.051637176 0.053611424 0.043244198 0.10328855 -0.031680305 -0.13549721 0.061730094
-0.3832494 -0.14305171 -0.065185234 0.16032216 -0.017056039 0.15180655 0.20048252 -0.0033361115
0.13391455 0.014068627 0.19337006 0.040898085 -0.027049378 0.14392616 0.16584891 -0.11128062
0.07837959 0.15020448 0.07725479 0.066593036 0.47876 -0.17467886 -0.21044655 0.088244066
-0.010366532 0.040985223 0.03543298 0.061786883 0.12715976 0.026318736 -0.19530258 0.09513672
-0.01686249 -0.013282001 0.0035698575 0.1053371 -0.21042567 -0.08461853 0.28240278 -0.026612703
0.049963187 0.15884456 0.06988694 -0.09920172 0.12486693 -0.00923353 -0.10309869 0.25153542
0.07439424 -0.0034293823 0.093327574 -0.037997276 0.066076316 -0.11315076 0.22678196 -0.09475435
-0.04254307 -0.040368102 -0.000675395 -0.14917514 0.28833917 0.07721104 0.11591528 -0.10061661
0.06902065 0.11402781 -0.024366042 0.11741061 -0.08806125 0.088081114 0.17929642 0.014322727
-0.14981239 0.017275168 0.09804783 -0.051407285 0.3534202 -0.2459167 -0.09186713 -0.0289753
0.009395848 -0.07169628 0.12416508 0.08393066 0.10499632 0.036272373 0.11387925 -0.0968649
-0.13567495 -0.045455944 -0.014149923 0.044221893 0.28573227 -0.122954994 -0.2929965 0.008842594
0.06585551 0.05731582 0.03574402 0.10528013 -0.18026948 0.1313985 0.32848853 0.06315525
0.08297316 0.10662408 0.08031598 -0.05443798 -0.26195025 -0.03728147 -0.048208177 0.04373149
-0.092219904 0.028474847 -0.017062454 0.1525993 0.28421634 -0.16121708 -0.14642926 -0.019198945
-0.123425595 -0.18461442 -0.12125812 0.039991796 -0.22159766 0.18278882 0.12479098 -0.13196078
-0.029375175 -0.10513273 0.11263761 -0.1879244 0.13885717 -0.0015735937 -0.17013325 -0.019200016
0.060376577 0.18008715 0.07164215 0.08974938 -0.013437392 -0.1594069 0.0058601727 0.18148647
-0.037741933 0.042315837 -0.021930108 -0.17087902 -0.13531622 -0.14006126 0.059250098 0.06077462
-0.010381867 -0.030058982 0.09613306 0.00895774 -0.15996724 0.08167512 -0.011553281 -0.0018937882
-0.09967193 -0.05807577 0.076098196 -0.12182242 -0.1113878 -0.09321286 -0.019834561 -0.059566513
0.12544133 -0.085175455 -0.019345406 0.1768305 -0.08545395 0.09117311 -0.02421587 -0.009117787
-0.04413239 0.079311416 -0.12919718 0.064759724 -0.2262947 -0.14346746 0.14253376 -0.03247867
0.01250474 0.06575606 -0.092480175 -0.060999848 -0.08079627 -0.028169744 -0.031352766 0.09900053
0.060611844 -0.036387943 0.20040162 0.15766846 -0.029988786 0.11670735 -0.1831034 0.2395936

lstm1.weight_hh_l0 f4 [256, 64]
00000000: 8d40 25be cf6a 243d 3fa1 a43d d101 12be
00000010: 9a06 94bb 7d19 a2bd 357b 8cbd 24d5 f93d
00000020: e625 2abe ad01 a13d d97e 3a3e d247 d23d
00000030: 8c63 163e 5636 e63d d81d 0a3c 45a5 9f3d
00000040: c03e 5a3e 3956 5cbd cbb0 a43d 4d58 373d
00000050: 83a1 043d 105a 56bd 237d 07ba c363 d23d
00000060: 933b 4a3b 3dfe 91bd 4dcb 133e 3881 6dbd
00000070: 1210 313c e925 273d d6a0 0f3e 65c9 93bd
00000080: 69c3 833c f2ac 51be e01f c8bd efa3 f3bd
00000090: d4d4 5c3d 5181 a93d 13a7 14bd ad94 313e
000000a0: 3426 0cbe 1052 8bbc 2aad 2a3e 9c2b 9abd
000000b0: 1e96 333e fcd4 dcbb 4b42 023e 5ab4 9ebd
000000c0: ae0e 1ebe 551a 35be c5b3 afbd db43 6ebd
000000d0: 49fa 8ebd 3254 0dbd cd34 6ebd 8311 1e3c
000000e0: 7a62 6d3e 23fb 933d 64cc 093d ce56 b8bb
000000f0: 5db4 3c3e 4479 bc3d a769 cdbc 122d 57be
00000100: f2a2 a9bd 493f 143e c77d 0dbe 3a0a e9bc
00000110: 85c7 273e 1e61 b53c cde7 8f3d 4dbd 5b3d
00000120: 81a7 af3b 4bac afbb 5388 2c3e 5d55 ce3d
00000130: 0f71 ebbd 0a43 3ebe 7d92 f43c 4dfc 32be
00000140: ae74 96bd 37d7 8f3c cb8e a53d 7af8 80bd
00000150: fc6b 113e 3fdf c33d eda1 623c 27ec 7b3d
00000160: a9c8 45be f297 583e d394 60bc b271 97bd
00000170: b79f 1bbe be5a 04be f67d 8b3d 8d27 373d
00000180: fefe 29bc d1ab cabd 6a2c adbe 02d4 d4bd
00000190: 5785 24bc 8d2e f23b f95d 10bc f864 20be
000001a0: c6d9 20bd 283d 09be 340e 70bd 51de eabd
000001b0: 1bb7 503e b266 383c 57b1 bd3c 34e7 553b
000001c0: d6f8 a2bd c7ef 69bd 88ee 91bd b7d2 e0bd
000001d0: 1b32 2ebe 7e08 a1bb 06a5 e6bd bd32 80bd
000001e0: a839 d93d 3f08 19be ba0a b63d f4b7 6c3d
000001f0: ff1f 593d b5b6 d8bc c71c ab3d b2d9 debd
00000200: 326e a4bd 65e3 a03d a056 963d 2282 dbbb
00000210: 98f4 86bd d5bb 433d 8eb9 bcbd 6101 54bd
00000220: c55c d23c 539c f03b a00f 553d 3cae b4bd
00000230: 8316 47be 7545 c3bd 4eb8 833d ae88 e3bc
00000240: 836c fe3c 20f9 5fbc 4518 383d 0db3 0fbe
00000250: 2c06 51bd 3d71 cfbd 49d9 84be 99aa 29be
00000260: 8918 3fbd 65ae c83d fbbf 7a3c 74ac 973b
00000270: 83d6 243e c75a 443d 5b5c 8dbc 9c4f 3f3d
00000280: d8eb 0fbc bfe9 41bd cc6c d0bd a0ad e93d
00000290: ac6f 313d f93e 893c 6394 1f3d 9cfe d63d
000002a0: 223c 9fbc 03c4 513d 8b2f 3fbb 5076 9a3c
000002b0: 632c fdbb 2595 f93d b696 e93c 7cf2 34bd
000002c0: 8e2a 81bd 0276 7b3d aa3f 043e 8948 983d
000002d0: 1246 c1bd 8ae2 aabe 7974 923d 530d b73d
000002e0: 1223 8cbc b3e2 733d 0494 53be 4f96 393e
000002f0: c047 18be 3771 ccbd 1a61 28bd bc23 3abe
00000300: 5347 c83c 8237 073d 576c 70bb 7180 a33b
00000310: 9e97 d53c e6a1 a5bd 3f35 1abe b31a 58bd
00000320: 7a2f 923d 2f26 d43d baef cd3d 9865 efbc
00000330: 5d12 3f3d ed3b a1bd 723b fe3d 9ea6 84bd
00000340: 871b 40be 22fc 0f3e 1e20 423e 9e19 043e
00000350: a299 3cbd 152e f4bd 7b35 9b3d d434 0c3e
00000360: 4dfb 303d a758 c2bd 280a ae3c 7cb3 673e
00000370: 9233 353e 4709 663c 5158 4dbd a074 6e3d
00000380: 98dd f63d d609 a83d 8be7 ebbc 26bf 1a3e
00000390: 7906 0b3e 170d b83c 1865 363d d3b9 413e
000003a0: e8c7 2e3e 6287 c5bc c9bc 3cbd 0d41 12be
000003b0: f4a8 143e 01d4 d1bd c2ae 2ebd de21 1abd
000003c0: 8fce fe3b 7e02 3c3e 06df 733e aa82 d2bc
000003d0: 72cf 023e 0536 623d 8ffc edbb 213b 8c3c
000003e0: e2ad b9bc 7d8a 033d 19ba 48be 1dfb 493e
000003f0: 38be 99bd 54a9 d53d dd45 e33d ec50 c9bd
-0.16137905 0.040140923 0.08038568 -0.14258505 -0.0045173885 -0.07915018 -0.068594374 0.121988565
-0.1661602 0.07861648 0.18212451 0.10267605 0.14686412 0.112408325 0.008429967 0.077951945
0.21313 -0.053793166 0.08041533 0.044761945 0.032380592 -0.052331984 -0.0005168488 0.10272934
0.0030858263 -0.0712857 0.14433022 -0.05798456 0.010807054 0.04080764 0.14026198 -0.07216147
0.01608439 -0.2047613 -0.09771705 -0.11896502 0.053913906 0.08276618 -0.036292147 0.17341872
-0.13686448 -0.017006904 0.1666762 -0.07527849 0.17537734 -0.006739257 0.12720601 -0.07749243
-0.15435287 -0.17685826 -0.0857921 -0.05817018 -0.06981332 -0.034504123 -0.058155823 0.00964773
0.23182097 0.07225635 0.033642188 -0.0056255823 0.18428178 0.09202817 -0.025074793 -0.21013287
-0.082830325 0.14477266 -0.13817511 -0.02844726 0.16384704 0.022141036 0.07026634 0.05364733
0.005360544 -0.005361115 0.16848879 0.100748755 -0.114961736 -0.18580261 0.029855007 -0.17479058
-0.07346474 0.017558677 0.08083876 -0.06297393 0.14201349 0.09564065 0.013832551 0.06150451
-0.19314827 0.21151713 -0.013707357 -0.073947325 -0.15197645 -0.1292524 0.068111345 0.044715453
-0.010375736 -0.09896053 -0.33822948 -0.10392 -0.010041556 0.007390803 -0.008811467 -0.15663517
-0.039270185 -0.13402236 -0.058607295 -0.11468185 0.20382349 0.011254953 0.023155851 0.0032639029
-0.07957618 -0.057113435 -0.07125574 -0.10977691 -0.17011301 -0.0049143424 -0.112619445 -0.062596776
0.106067 -0.14944552 0.08888765 0.05779262 0.05300903 -0.026454309 0.08355098 -0.10881366
-0.080288306 0.07855872 0.07340741 -0.0066988626 -0.06589621 0.047786552 -0.09215079 -0.051759128
0.025679002 0.007342854 0.052016854 -0.08822295 -0.19442181 -0.09534732 0.06431638 -0.027775135
0.031057602 -0.013670236 0.04494502 -0.14033146 -0.051031277 -0.1012902 -0.25947025 -0.16568984
-0.046654258 0.09798888 0.015304561 0.0046287123 0.16097455 0.047938135 -0.017255953 0.04670678
-0.008784257 -0.04734206 -0.10177001 0.114100695 0.04331939 0.01675366 0.038959872 0.10497782
-0.019437853 0.051212322 -0.0029172625 0.018855244 -0.0077262386 0.1218665 0.028514247 -0.044176564
-0.06306945 0.061391838 0.12914911 0.0743571 -0.09437193 -0.3337596 0.07151122 0.08938088
-0.017106567 0.05954237 -0.20661932 0.18123744 -0.1487112 -0.099825315 -0.04110823 -0.18177694
0.024448073 0.03301192 -0.003668567 0.0049896766 0.026073273 -0.0808752 -0.15059374 -0.052759837
0.07137962 0.103588454 0.1005549 -0.029223248 0.046648372 -0.07872758 0.12413682 -0.06477092
-0.18760501 0.14061025 0.18957564 0.12900397 -0.046044953 -0.11922852 0.0757856 0.13692027
0.04320841 -0.09489565 0.021245077 0.22627062 0.17695454 0.014040298 -0.050133053 0.05821669
0.120539844 0.08205001 -0.028796932 0.1511198 0.13576688 0.02246718 0.044530004 0.18918543
0.17068446 -0.024112407 -0.046078477 -0.14282627 0.14517576 -0.10245515 -0.04264713 -0.037629955
0.0077760885 0.18360326 0.23815545 -0.025697071 0.12774447 0.0552273 -0.0072627733 0.017118039
-0.022665922 0.032114495 -0.1960224 0.19724698 -0.075069845 0.104326874 0.1109731 -0.09829888

lstm1.bias_ih_l0 f4 [256]
00000000: 6358 19be aa1d 523d 91c0 a33c 3b3c e93d
00000010: c16e bf3d 6525 c93b 584b 22be 6e49 c33d
00000020: 618d ec3d 2ed1 36be 742b 37be b38b 3a3e
00000030: 42a4 ee3b e210 233d 28a1 253d 8e69 ff3d
00000040: 007a 263d 2fd3 b33e f77e f7bd 5c61 dfbc
00000050: 6aad ecbd 5aea 90bc 1269 2f3d bdf2 12be
00000060: 3f7f 3d3d 8293 b3bc a197 b63d 794c 4a3d
00000070: b07d d4bd 359b d7bc 3672 febd 8115 b0bd
00000080: 2a53 6dbd 9d35 3d3c b05c 8d3d 1757 ce3c
00000090: 0e86 3d3d dece bf3d e057 99bd 1f78 dbbd
000000a0: ee49 f8bb 7824 f3bc 918e 25bd 741a 6cbd
000000b0: 314d ae3c f30e 9b3d 0d5e 8a3d ccc7 5c3d
000000c0: f0af 37bd 76ee cbbd c4a1 37be 5c43 403d
000000d0: 1a3d cb3c c5ce fa3c f892 f0bd 2ec8 fcbc
000000e0: e39e d83d 5ec6 2d3c 0beb 85bd 2741 34be
000000f0: 3a48 a23d 1c9a e8bd babf 21be ed9b d63d
00000100: 83de 1abe b603 debd 1830 84bd 535b 83bc
00000110: 679a 2bbe dd5b 2f3c de06 40bd 15a5 9dbd
00000120: b9be 4ebe b9de 39be 09f4 46bd f742 d0bd
00000130: 9e8a d93c 489c 663d 0dc1 2fbe 77be 993d
00000140: 75c9 14bd f648 f0bd 303e 423c d7d0 01be
00000150: 3276 b63d 1f47 ccbd 5bc6 113e cb42 99bd
00000160: dc3a 8d3d eb84 0d3d a50c b6bd f1d4 19be
00000170: dd97 8e3d 52fa 12be 5a7c 4ebd 6afa 563d
00000180: 8a63 2abe cca1 40bd 26c5 efbd b3f6 26bc
00000190: b1f3 ef3d 9ce1 11bd 51f1 1439 ad02 a6bd
000001a0: 2208 bf3d dbb7 04bd 9075 f7ba aa01 aa3c
000001b0: f07d ec3c 6bea 46bd f7e2 963c d93e b6bd
000001c0: 3a7a 0dbe 8635 ddbd 7dce 18be 61e0 933e
000001d0: e21f 843d 5592 0c3e 5540 6fbd 9140 0cbe
000001e0: 116b 3b3e ffe6 52bb 7de5 003d 247b 1ebd
000001f0: 0141 4a3e 93cb 193d 77e9 02bd 6859 8c3d
00000200: 3172 b5bd 9e39 263e f7f1 34be cac1 883d
00000210: 67ad fabd 6dc5 bb3d 7179 293d d302 1d3e
00000220: e072 343e dc0f b83d a8ae 02be c024 ec3d
00000230: ec8c 943c e35e 10be 0abe 043c 3c76 7a3d
00000240: ddb0 23be c48f a53c d449 3abe a07f adbd
00000250: a56b 593e 887d 593e 128e d33c 4998 d03c
00000260: 7b9d 173e 5605 37be 5450 0f3d e500 bc3c
00000270: ff6c 83bd ec20 28bb 8ec7 203e aedd 2abe
00000280: 06a2 55be 21bf e3bc 599c bbbc cf5e a33d
00000290: 4c8a 82bc 1014 9c3c 135d 67be d65d 5ebe
000002a0: a73e 923c e42e 5abe f812 20be 709f 40be
000002b0: 1038 653d ec8c cc3d fccf 5b3e a5d2 3ebe
000002c0: c07f a9bd 1af3 95bd 0407 06bd 54d2 82bd
000002d0: 9024 89bd 5305 23bd 665f 10be 6fb6 fa3d
000002e0: bb92 2fbe 0590 1abd da17 f7bc 7f94 e9bd
000002f0: 344b fdbd 031b d43d f6d7 18be 9850 b23d
00000300: ef00 643d 960a 823d 1ac8 84bd d400 893c
00000310: f011 a23d 837a b63d aa5b 9fbc 5843 043c
00000320: 74c3 593c 7610 bebc 9468 58bd c9ed 083e
00000330: 3745 b8bd 6957 65bd 2f57 08be 0380 0fbd
00000340: 7e62 2c3d 10a5 c53e 5384 4a3d a699 e83d
00000350: 6e82 153d 7366 c53c 046b 083d 28ee 4e3d
00000360: 99f7 3bbd 8bdb e8bd 7871 b0bc be4c 613d
00000370: b370 66be 5e4c 94bd 22d6 48be ecb4 c2bc
00000380: 0f84 e2bd ba71 f93d 9e25 1ebd 880c e8bd
00000390: 52fd 38bd c69f 5c3c 6764 173e 0618 b03c
000003a0: c69d 4a3e 1410 b23d af6b b9bd 87b1 98bd
000003b0: 4f1d 293d fdd6 07bd 54ef 97bc dcb5 043e
000003c0: da67 c3bd c9cc b53c 9868 59bd 9b5e 293e
000003d0: 49fd 5abc 24bf 9b3d 4f26 21bd e96b 5cbc
000003e0: 28b9 f43d ae7b 3e3e 40ea 4d3e 0125 86bd
000003f0: b253 533d f063 babd e129 a3bd c2a3 0a3e
-0.14975123 0.05129782 0.019989284 0.11388441 0.093472965 0.006138491 -0.15849054 0.0953549
0.115504034 -0.17853233 -0.1788767 0.18217354 0.0072827647 0.039811023 0.040436894 0.12471305
0.040643692 0.35122058 -0.120847635 -0.027268104 -0.115565136 -0.017689873 0.042824812 -0.1435041
0.04626393 -0.021920923 0.0891564 0.049389336 -0.103755355 -0.026319126 -0.12424128 -0.085978515
-0.05794064 0.011548427 0.06902444 0.025188012 0.046270423 0.09365629 -0.07487464 -0.10716271
-0.0075771725 -0.029680476 -0.040419165 -0.057642415 0.021277042 0.07571211 0.0675622 0.05390148
-0.04484552 -0.09957592 -0.17932802 0.04693924 0.024809409 0.030616174 -0.11746782 -0.030857172
0.1057718 0.010606376 -0.065389715 -0.17602979 0.079239324 -0.11357519 -0.15795794 0.10478959
-0.15123944 -0.108405516 -0.06454486 -0.016034758 -0.16758119 0.010703054 -0.04688155 -0.076975025
-0.20189942 -0.18151368 -0.048572574 -0.101690225 0.026555356 0.056301385 -0.17163487 0.075070314
-0.036324937 -0.11732666 0.011855647 -0.12677322 0.08909263 -0.09974503 0.14235823 -0.07483443
0.06895992 0.03455059 -0.088891305 -0.15022637 0.06962559 -0.14353302 -0.05041156 0.052484907
-0.16639534 -0.0470293 -0.11707525 -0.010190654 0.11716402 -0.03561555 0.00014204277 -0.08105979
0.09327723 -0.0324019 -0.0018879641 0.020752747 0.028868645 -0.048563402 0.018418772 -0.08898706
-0.13816157 -0.108012244 -0.14922519 0.28882125 0.06451394 0.13727696 -0.05841096 -0.13696505
0.18302561 -0.0032181141 0.031468857 -0.038691655 0.1975136 0.03754766 -0.03196093 0.068529904
-0.08859671 0.16232917 -0.17670427 0.06677587 -0.12240105 0.09168515 0.04137558 0.15333109
0.17621946 0.089874 -0.12761939 0.11530447 0.018133603 -0.14098696 0.0081019495 0.061147913
-0.15985437 0.020210154 -0.18192226 -0.08471608 0.2123247 0.21239293 0.02582458 0.02546324
0.14806168 -0.17873129 0.034988716 0.022949645 -0.06417274 -0.0025654389 0.15701124 -0.16686127
-0.20862588 -0.027801098 -0.0229017 0.07977068 -0.015935086 0.019052535 -0.22594099 -0.21715483
0.01785214 -0.2130695 -0.15632236 -0.1881082 0.05596167 0.09987816 0.21466058 -0.18635042
-0.082763195 -0.073217586 -0.032721534 -0.06387773 -0.06696427 -0.0398 -0.14098892 0.12241828
-0.17145817 -0.037735004 -0.03016274 -0.114052765 -0.123678595 0.103567146 -0.14926133 0.08706778
0.055664953 0.06349675 -0.06483479 0.016724028 0.079135776 0.08910086 -0.019452889 0.008072697
0.013291229 -0.023201209 -0.05283411 0.13371958 -0.08997577 -0.055991564 -0.13314508 -0.03503419
0.042086117 0.38602495 0.0494426 0.11357431 0.03650134 0.024096703 0.033305183 0.050520092
-0.045890424 -0.113699995 -0.021538481 0.055004828 -0.22503929 -0.072411284 -0.19612935 -0.02376791
-0.110603444 0.12179895 -0.038610093 -0.11330515 -0.04516346 0.013465827 0.14784394 0.02149583
0.19786748 0.08694473 -0.09053742 -0.07455736 0.041287716 -0.033164013 -0.018546738 0.12959999
-0.095412925 0.022192376 -0.053078264 0.16539995 -0.013366052 0.076048166 -0.039343175 -0.013453462
0.11949378 0.18601868 0.2010889 -0.06550027 0.05159349 -0.09101093 -0.07966972 0.13539031

lstm1.bias_hh_l0 f4 [256]
00000000: 1d10 d9bc f2f6 00be f7fa 84bd 9226 efbb
00000010: f0dc cd3d 6da1 a03d e653 2dbe 12c6 a83d
00000020: 8180 6a3d dc03 82be a970 0abe ddbe 413e
00000030: 53e8 36be a927 183e 88cd 963c 38de 0f3e
00000040: 86c8 46bc 93fc d23e cc17 36be 1a50 afbd
00000050: 7b68 0abe 8879 febc db3c 343e b74a c8bd
00000060: 9604 3a3d e9db afbd de79 453d 92bb 703d
00000070: a42e e6bd acbb 25be 5223 e1bd f7e1 01be
00000080: 5c88 abbd 48a4 f23c e0d3 073d f5e3 3ebe
00000090: 109d a13d 614b d0bd 32ef 9fbd bf49 dabd
000000a0: dfaf 363c 7df2 5cbd e648 56be 16e6 e63c
000000b0: d370 fcbc 1dba b43d d6b0 033d ec22 fcbc
000000c0: d0f1 a8bd 902e 89bd 7260 1dbe aa7b e83d
000000d0: cfe2 e3bd 393b 33be 1aac 85be e4e5 b23c
000000e0: fddd 99bd 556a a7bd 76de 8abd 67c6 42be
000000f0: 0969 aebd 20e7 b43c 3f51 afbd b5f0 893d
00000100: 64c0 e1bd dd61 b1bc 2258 47be e817 013e
00000110: f69b 2fbe 2e1c a93d 6170 203d 0fc1 b7bd
00000120: 86d6 5fbe 8146 d2bd d114 083c 91a5 1c3d
00000130: 6426 063e be8a 1bbd cc5c 29be f539 8d3c
00000140: 4c69 0d3e 2988 6bbe ab60 51bd 0331 ebbd
00000150: be27 b93d b883 76bd 7d92 f33c bd0e 98bd
00000160: d8b3 be3d a0bf d23b 8e90 37be 01d8 1fbc
00000170: 9495 53bd 094e 25bd 498a 003d 3cf1 1d3e
00000180: 6342 05be 2cac b63d d0c9 58bb 2635 193c
00000190: a43b 1c3e a03f c53d 19f5 ccbd 98da 7fba
000001a0: 4add a43d 30b5 cd3d 5dd0 d6bd c79c 47be
000001b0: 4167 c73c d655 40bd bc51 993d 6135 f33c
000001c0: 1bf9 bcbd e986 42be a929 18be d2cd 913e
000001d0: bf9d 7f3c b904 063e 5836 eabd 7a71 d2bd
000001e0: d58b 073d b587 c8bc 1837 103e e25a 5bbe
000001f0: 5fca 0e3e 4a93 3a3d ff4b 50be 91f7 363d
00000200: 5d88 f8bc 8604 bc3b ce4e bdbd fc8a e73d
00000210: 8260 23be 5883 d73d d7aa 113e 9c18 37bd
00000220: bd00 123e b166 efbb ed90 27be e9ab 4e3e
00000230: b784 bbbc 678e e4bd 0ff2 553c 19f9 a3bd
00000240: 8238 16be d7f2 663e f103 1e3d 0f68 97bd
00000250: 2448 003e d8c1 e43b 3283 373e 3db8 0dbe
00000260: 1d66 583e fced b93a 16f0 97bd 3f8d c83c
00000270: e054 3cbe 0b08 6fbe 4716 8c3d 7302 ffbd
00000280: db8a 38be 293e 5f3d e5af 7c3d 5e3d 8d3d
00000290: 090e 5ebd 4aab b9bd 53a3 15be bee1 3ebc
000002a0: ef95 d2bd 90db 2dbe b0a0 0bbd 62ea 02be
000002b0: 8332 933c b9c5 383e eb55 463e a8ef 58be
000002c0: bf55 ccbd 0921 cbbd d99f bcbb 2f06 9dbd
000002d0: 48d6 0ebd 17e4 22bd 72b3 34bd 69fd bb3d
000002e0: 496e 3cbe 19a7 9c3d ed7d 59bd ae96 0d3d
000002f0: b4bf d2bd e459 1a3e 043f 4cbe fde8 db3d
00000300: beb2 e5bd c517 4d3d c8c6 123c 4e27 953d
00000310: 15aa a23d 06d6 c9bd 86b9 eb3c cbd8 113c
00000320: b310 843d 0d52 bdbd b598 a5bc 1214 353e
00000330: 9e1f dfbd 0ee6 b73d 4559 f8bd e0f8 073e
00000340: be2b 07bd b15a 7f3e 3ed2 cdbd 0717 98bd
00000350: 1326 59bd 929b 93bd 75dd ba3d 46e2 ddbc
00000360: bed6 89bd 4010 bd38 48db a8bd 5663 d3bd
00000370: a73b b7bc 6e7a 43be 17a8 02be 60e1 af3c
00000380: c4fc e3bc 5bea 153d 28d8 653d 2419 24be
00000390: f48c 6d3d 8d85 ba3d 3fc8 923d 5d7d ef3c
000003a0: 1335 953e d502 04bd 9409 6bbc ccf9 773d
000003b0: e691 0c3e fbec 16bd 0f37 f5bd 25cb 003e
000003c0: 1bf4 b3bd 1534 03be 6f61 34be 727d 933c
000003d0: 5737 0cbd 3c83 6d3d c99d aabd 7057 d8b9
000003e0: 17a0 27bd 1720 133e 6a0e ef3d a985 8fbe
000003f0: d182 f73d 8bcf 7cbd c1c9 c5bd 841d e73c
-0.026496941 -0.12594202 -0.0649318 -0.007298299 0.10051906 0.078432895 -0.16926536 0.08240904
0.057251457 -0.2539357 -0.13519539 0.18920465 -0.17862062 0.14858879 0.018408552 0.14049613
-0.012132769 0.41208324 -0.17782515 -0.085602 -0.13516419 -0.03106381 0.1760134 -0.09779876
0.04541453 -0.085868664 0.048211925 0.05877263 -0.11239365 -0.16184872 -0.10993065 -0.12683855
-0.08375618 0.029619351 0.033161044 -0.18641646 0.078912854 -0.101706274 -0.07809295 -0.10658597
0.011150329 -0.053942192 -0.20926246 0.028185885 -0.030815518 0.08824561 0.032151066 -0.03077837
-0.08249247 -0.06698334 -0.15368822 0.11351712 -0.11127245 -0.1750306 -0.26107866 0.021838136
-0.07513044 -0.08174578 -0.06780712 -0.19020997 -0.085161276 0.022082865 -0.08560418 0.06735364
-0.11023024 -0.02165311 -0.19467214 0.12606776 -0.17149338 0.08257328 0.039169673 -0.0897237
-0.21859178 -0.10267354 0.008305744 0.038243834 0.13100582 -0.03797411 -0.16539305 0.01723955
0.13809699 -0.2300116 -0.05111758 -0.114839576 0.09040783 -0.06018421 0.029732937 -0.07424686
0.09311646 0.006431535 -0.17926237 -0.009756089 -0.05165632 -0.040357623 0.03138188 0.15424055
-0.13013606 0.08919558 -0.0033079274 0.0093510505 0.15257126 0.09631276 -0.10007686 -0.0009760051
0.0805002 0.100443244 -0.10488961 -0.194934 0.024341227 -0.04695686 0.07486293 0.029688539
-0.092272006 -0.18996777 -0.14859642 0.2847734 0.015601574 0.13087739 -0.114361465 -0.1027555
0.03309234 -0.024478773 0.14083517 -0.21421388 0.13944386 0.045550622 -0.2034149 0.04466969
-0.03033846 0.005737844 -0.092435464 0.11305806 -0.15954784 0.10523099 0.14225326 -0.044701204
0.14258094 -0.007305943 -0.16363879 0.20182766 -0.022890432 -0.111599736 0.0130582 -0.08006496
-0.14669994 0.22553574 0.038577978 -0.073928945 0.1252752 0.006981116 0.17921141 -0.13839813
0.21132703 0.0014185305 -0.0741884 0.024481414 -0.18391752 -0.23342912 0.068401866 -0.12451639
-0.18021719 0.05450264 0.061691184 0.068964705 -0.054212604 -0.09065874 -0.14613084 -0.011650501
-0.10282504 -0.16978288 -0.03408879 -0.12784722 0.017968422 0.18044175 0.19368713 -0.21185172
-0.09977292 -0.0991841 -0.00575636 -0.07667195 -0.034872323 -0.039768305 -0.044116445 0.091791935
-0.18401445 0.07649059 -0.053098608 0.034567527 -0.10290471 0.15073353 -0.19945914 0.10737798
-0.11215733 0.050071497 0.008958526 0.072828874 0.07942597 -0.09855275 0.028774988 0.008901785
0.064484976 -0.092441656 -0.020214418 0.17683437 -0.108947024 0.08979426 -0.12126402 0.13278532
-0.0330007 0.2493694 -0.10049866 -0.07426267 -0.053014826 -0.07207407 0.09124271 -0.027085435
-0.06730412 9.015249e-05 -0.082449496 -0.10321681 -0.022367312 -0.19089672 -0.12759434 0.021469772
-0.027830489 0.036600452 0.056114346 -0.16025215 0.05799575 0.09107504 0.071671 0.029234583
0.29142055 -0.032229263 -0.014345545 0.06054096 0.13727531 -0.036847096 -0.11973392 0.12577493
-0.08786794 -0.12812836 -0.17615293 0.018004153 -0.034232464 0.057986483 -0.083308764 -0.00041263876
-0.040924158 0.1436771 0.11672671 -0.28031662 0.12085498 -0.061721366 -0.09657622 0.028212316

lstm2.weight_ih_l0 f4 [256, 64]
00000000: 5f23 f03c f830 dcbd 4518 983d d540 61bd
00000010: 03b8 48bd cbf0 11be 24ff 67bd 3597 8fbc
00000020: 996b 15be 3075 f1bd 810c e93d add2 81bd
00000030: 1291 17bd 2edd afbd 3c1a 1bbd e7da 2dbe
00000040: 6dd4 edbd 12da 313c 05c8 27bc 6699 483e
00000050: d615 14be 1737 f4bc fcb8 e4bd 9897 303e
00000060: ef16 2fbe 1db3 96bd cda4 08be 4097 a63d
00000070: 08bd fe3d 741a 283e 43fe f7bc 5515 193e
00000080: 6947 163e d48c 3b3c f7f1 0ebd 6e5d b23d
00000090: c2f0 6e3d b166 c8bd 69df 193e 34b3 fb3d
000000a0: af76 9cbe f989 b3bc 1ccc ca3c 095f 093d
000000b0: 94d4 9f3d 85ec 293d e408 5e3d 4eca 0a3e
000000c0: 57c4 763d 4b6c f2bd 8b5c 2b3e b525 e7bd
000000d0: 6a38 d63d da69 443c 6c8b 383e 4217 7c3d
000000e0: e780 283e e63f 62bc 7f43 4cbd 31be 873d
000000f0: b3fb c83d 911e 63bc a6ae abbd 414d e43d
00000100: 2561 493d 7877 a33d 9374 013e d318 2bbd
00000110: c922 83bc 5f37 d53c 26c9 8d3d 4c7b 7c3e
00000120: 5bf6 873d fd65 9b3d a63c 013d e1a0 48bc
00000130: 4a14 0dbe c907 07be f8a1 dabb ce0c fdbc
00000140: f47f 80be 69bf 613d 109d 9fbd 86e7 d2bc
00000150: 248c 413d d16a fc3d 7f6c 12be e5c7 513e
00000160: 9eef 0dbe d2ab 213e ad2f 05be 2c75 ef3d
00000170: c712 163e 4d83 89bb 1f03 debd 7c57 0f3e
00000180: b4d4 ddbd d429 d43c 1d58 1b3e 7812 93bd
00000190: 4476 6ebd 855b cabc 50ce eb3d 0ba1 633d
000001a0: d18f 41be 5b1f f43c 0546 b0bc b177 b73b
000001b0: 87c6 793e ed94 2b3e e2e5 de3d d2f6 453e
000001c0: 062d 71bd 136c 6cbe 6fde 213e fecc b2be
000001d0: 8d71 043e 22a9 963d 6347 71ba da2c 4fbd
000001e0: 1bf0 ee3d 247c 7dbd 7546 793d c35c 04be
000001f0: 7e85 cd3d c947 b8bd bad4 223d c488 32be
00000200: fb8f 82bd a856 d4bc c57d 2c3d 621a 2cbe
00000210: bf50 533d 8b1c 9abd 79c7 cf3c c1d5 83be
00000220: e6d9 c8bd 3992 393d c13f d33d 8801 98bd
00000230: ff21 823d ee97 62bc c5e5 e13b f667 17bd
00000240: 3898 7fbd 780a 62be 6461 bf3d 7cd6 3d3e
00000250: 70fc 873d b5dd c13c 45a8 fcbd 2891 97bd
00000260: 3f0c 75bd c582 15be f9ec 7b3e 3e94 aebd
00000270: 9f2e f5bd 05f4 f0bd 0d7d 0b3d ec6b afbd
00000280: f0d4 573e 3072 443b 1b25 b5bd 0391 553d
00000290: e6a2 2abd ef16 93bd 82f5 e3bc f424 68bd
000002a0: 0cad 713e ecde acbd 348f 133e 3ea3 b63d
000002b0: f174 e73d 140e 823d dacb 12bd 005a db3d
000002c0: 7b21 fa3c d0f5 013d ca8f cc3d 6aad 1cbd
000002d0: eae3 303b 062a 593d ad8f fd3c 0bb3 163d
000002e0: 0bcb e4bd ff82 e1bd 6153 8e3e 74df 2b3b
000002f0: 7097 4b3e 5a51 173e 3ac5 fabb a333 513d
00000300: 9684 afbd 2ca2 46bd a0d0 e9ba e7c8 17bd
00000310: cb76 253e be40 b23d cecc f0bd 243b 7a3d
00000320: 873e 21be a8f9 34bd 2a19 173e 1388 7abd
00000330: 863f 5e3d c028 053e 396f c9bc 6201 7cbd
00000340: 01b0 903b b3ef 7c3d a0d2 abbd 4fa8 a13d
00000350: 4dac 173c a564 d6bd 24c2 0fbe ae18 a33d
00000360: 95e2 00be 84bd d73d 95ca 2ebc 4702 afbc
00000370: e7e2 bbbb 522c f63c a2fa 07bd 228b fa3c
00000380: 9bd5 9fbb a698 a13d 903f d8bd 7cac 60bc
00000390: 48d1 8abd 6703 023d 554d 133e f73c 3fbc
000003a0: bf80 78be 7934 823d 75d0 853d 136a d13d
000003b0: dbf5 433d 701c 3d3c 6ec9 5a3d c1fa 2d3e
000003c0: 52c4 79bd 55ca 693c 559e 863b b63c 03bd
000003d0: 25a5 163d 42ec 593e a635 7d3e 0283 833d
000003e0: 5303 b93d 9193 edbd 9485 d03c 47f1 b23d
000003f0: cccf 193e df76 ebbd c4c0 ca3d b9cb adbd
0.029313741 -0.107515275 0.07426504 -0.05499347 -0.049003612 -0.14252011 -0.056639805 -0.017528156
-0.14591826 -0.1178993 0.11379338 -0.06339011 -0.037003584 -0.085871086 -0.037866816 -0.16978036
-0.116127826 0.010855215 -0.0102405595 0.19589767 -0.14461455 -0.029811425 -0.111680955 0.17245328
-0.17098592 -0.07358382 -0.13344117 0.081343174 0.124383986 0.16416341 -0.030272609 0.14949544
0.14675678 0.01144715 -0.034898724 0.087092265 0.058335073 -0.09785212 0.1502663 0.1229004
-0.30559298 -0.021916376 0.02475553 0.0335379 0.07804218 0.04148533 0.054207698 0.13553736
0.060245838 -0.118370615 0.16734521 -0.11286489 0.10459979 0.011988128 0.18021935 0.061545618
0.16455422 -0.01380918 -0.049869057 0.06628073 0.09813633 -0.013862268 -0.08382921 0.111475475
0.04916491 0.07981771 0.12642126 -0.04177172 -0.016007798 0.02602738 0.06923132 0.24656409
0.066387855 0.07587812 0.03155198 -0.012245388 -0.13777271 -0.13186564 -0.00667214 -0.030889895
-0.2509762 0.055114184 -0.07793629 -0.025745165 0.04725279 0.12325061 -0.142992 0.2048641
-0.13860938 0.157882 -0.13006468 0.11692271 0.146556 -0.0041965605 -0.10840439 0.13998216
-0.108315855 0.025898851 0.15170331 -0.07181257 -0.058218256 -0.024701843 0.1151396 0.055573504
-0.18902518 0.029800108 -0.021517763 0.005598985 0.24392138 0.1675603 0.108836904 0.19332436
-0.05888083 -0.23088102 0.15807508 -0.34922022 0.12933941 0.07356478 -0.0009204058 -0.050579883
0.1166689 -0.061885968 0.06085821 -0.12926011 0.10035227 -0.08998067 0.039753653 -0.17434984
-0.06375118 -0.025920227 0.04211213 -0.16806939 0.051590677 -0.075249754 0.02536367 -0.2574902
-0.09807186 0.045305464 0.103148945 -0.07422167 0.063541405 -0.013830168 0.0068938457 -0.03696438
-0.062401026 -0.22074306 0.09344748 0.1853885 0.066399455 0.023665288 -0.12336782 -0.07400733
-0.059826132 -0.14600666 0.24602117 -0.08524369 -0.11971783 -0.11765293 0.034054805 -0.08565506
0.21077323 0.0029975288 -0.08844968 0.052140247 -0.04165926 -0.071821086 -0.027827028 -0.056675866
0.23601168 -0.084409565 0.14410096 0.08917855 0.11301602 0.063503414 -0.03583894 0.107105255
0.030533543 0.031728566 0.09988363 -0.038251318 0.0026991316 0.053018592 0.030952299 0.036791842
-0.1117154 -0.11011314 0.27797988 0.0026225718 0.19881988 0.14777127 -0.007652906 0.051074635
-0.08570211 -0.048494503 -0.0017838664 -0.03705683 0.16158597 0.08703755 -0.117578134 0.061091557
-0.15746509 -0.044183403 0.14755693 -0.061164927 0.0542598 0.13003826 -0.024589168 -0.061524756
0.0044155126 0.061752032 -0.08389783 0.078934304 0.009257388 -0.10468415 -0.14038903 0.07963692
-0.12586434 0.10534194 -0.0106684165 -0.02136339 -0.005733836 0.03005043 -0.033198006 0.030583922
-0.0048777587 0.078904435 -0.105589986 -0.0137129985 -0.067781985 0.031741526 0.14384969 -0.01167225
-0.24267863 0.063576646 0.06533901 0.1022531 0.047841888 0.011542425 0.053414755 0.16990186
-0.06097824 0.014269431 0.00410823 -0.03204032 0.036778588 0.21281531 0.24727497 0.06421472
0.09033837 -0.11600412 0.02545432 0.08737426 0.15020674 -0.11497282 0.099000484 -0.08486123

lstm2.weight_hh_l0 f4 [256, 64]
00000000: e5e9 19be c2a2 643d be64 913d ad59 343d
00000010: 1556 aebd 46b4 7c3d 6c3b 10be 0674 03be
00000020: 6390 243d 66c1 933d 6466 a6bd f653 ecbd
00000030: 8afb 843b 5fa6 24bd d0b3 07be 3cc2 f53d
00000040: f799 013d a12f 073d 2e7b c8bd c690 c63b
00000050: 1c76 f9bd 7061 c8bd 1a1e 48be 9228 473e
00000060: c8c9 973c fb0e e53d f71a e03d 157b 0cbe
00000070: 7379 06bd 4c0a 143d b719 003e b454 fc3d
00000080: a6dd b13d 1275 a3bd 532b 38bd fdc7 97bb
00000090: 2adb 163d 9cc3 0b3a 2448 bd3c 2257 5c3d
000000a0: 57bb 12be 3e7a 4abe d90b 27bd cc99 bb3d
000000b0: 798e 413e 6c8a 60bd 7b35 3c3d 42c1 173e
000000c0: eb7f 60bb 031f aa3d f368 1cbd 4e63 e2bd
000000d0: f1eb a4bc c217 b4bd 1445 3cbd bded 6fbd
000000e0: 1209 593d 0121 243d 0893 2c3d 8ccd 0ebe
000000f0: d2b4 6d3d 0109 213e ba3d e8bd 9f08 123d
00000100: bd7f 973d c7ea 54bd 82a1 aa3c fa67 1e3e
00000110: b2ee 39be 3ce8 d1bd ec11 833c ef3d b03d
00000120: 5a7b 0d3d 7be7 f5bd 0fdb 05be b58a 57bd
00000130: df97 783d 7d46 173e 03b5 c73d 2731 3dbe
00000140: 8952 5abd 89fa ae3d e921 3a3d e7e8 323e
00000150: 5ff6 de3b 8cc8 18bd 628f 053e fb35 643c
00000160: 9c7b 8c3d adf9 a33d 694b b8bc 3212 193e
00000170: 4250 8b3d 127e 0bbe e505 17bd 976b dabc
00000180: 125d 73be 7b3d 153e e374 0a3d 8ecc 803d
00000190: 9068 3b3d df80 8c3c fbdf 8dbd dbd8 413d
000001a0: 1709 adbc b656 9abd 60aa b0bc 4b05 ddbd
000001b0: 6d88 c33c 2a0d 873d 1493 133e 34d6 f3bc
000001c0: d92d 13be 90d4 363c ba40 1cbe fee3 9a3c
000001d0: 28a5 acbc 4367 3b3d 1419 9c3d 076c 03bd
000001e0: 52b5 72be 65a3 9dbd b84a 913c fd26 f6bd
000001f0: 1d5c ed3d 3bcc 96bd 922b 1ebd dc05 f8bd
00000200: deed 8d3d 5246 413b 114f f93d 91cf 933c
00000210: 1ecd 1fbe 4b47 46bc 2d2c 9d3d 68eb 94bb
00000220: 6435 803d 6322 46bd 23cf 7cbd dcf0 0f3e
00000230: aef8 083e 502c 9cba 70a1 83bd bca0 0abe
00000240: be10 683c 01bd bb3d dcfb 1abd 4877 aa3b
00000250: 5804 e5bd 5b9f e9bd cbfc 423d a991 9c3d
00000260: 706e 83bd 55b5 313e 2a4e 62bc 626b aabd
00000270: 5901 04be 2791 1b3b 2ffa 143c 6865 80bc
00000280: 49ca 7ebc 07d5 0bbd c487 a2bc 586a 03bb
00000290: e853 913d e3b3 e8bd 4f3a 293d aeff 043d
000002a0: 870a d2bd afda 97bc 9ea3 973c c552 5ebd
000002b0: c348 1c3e a633 8fbd 1e5e ba3d 846c ca39
000002c0: 5fcc c4bd 2aa8 18bc 2af8 bdbd 01da c83d
000002d0: 874f 04bd c02f b73c 5d9c 2ebd b952 633d
000002e0: 7c32 f43d 0542 edbc c2a5 acbd db3c 39be
000002f0: 980b 2dbd 7448 b03d 7c22 4b3d 5cf1 3ebd
00000300: 8f7b 213d 618a ed3b 7a92 0dbd 6251 5cbd
00000310: afaf dbba c77f 8b3d 79cc 773d 6522 d23c
00000320: dd5d a3bd 39f8 9ebd b566 35be aeb4 17bd
00000330: be66 0c3e 735a 493e 031c d93d 46af c0bd
00000340: 64cc c0bd e01f d3bd 048e 92bc 4f4d e6bd
00000350: defe b73d 5af7 793c 60ca 0abc 1c34 823c
00000360: 45cd ec3d ca2e 163e 60f8 4f3d 480f bfbd
00000370: 2693 42bd b11f 00be 1ba3 063e f04d 1a3e
00000380: e8e6 f43b 71fd edbc 4027 cbbb 6057 7d3d
00000390: 32c2 bc3d 590b 08bd cbd8 67bc 9a12 ce3d
000003a0: e75c 293e d8ed ebbd 8161 68bc b211 2db9
000003b0: 9cf7 2f3c 4cec 0bbe c086 e6bc 16ad 0b3e
000003c0: 9abc f0bd 7469 9e3d 5dd8 12be 3024 ddbc
000003d0: abc2 ed3d 8298 bd3d adde 05bd 473d 843d
000003e0: 32a5 70bc b746 4bbd 0475 42bd 0b59 e8bd
000003f0: 3e41 8fbd 38b8 8a3d 5740 bdbd 9d2f 983d
-0.1503063 0.05581928 0.07099293 0.044030834 -0.085125126 0.06169536 -0.14085168 -0.12837228
0.04017676 0.07214622 -0.08124998 -0.11539452 0.004058306 -0.040197726 -0.13252187 0.11999938
0.031640973 0.033004407 -0.0978912 0.006059739 -0.12180731 -0.0978421 -0.19542733 0.1944907
0.018528834 0.11184498 0.10942643 -0.13718827 -0.032830667 0.036142632 0.1250981 0.12320843
0.08684854 -0.07981314 -0.044963192 -0.0046319948 0.036830105 0.0005331577 0.023105688 0.053794034
-0.14329277 -0.19773194 -0.040782783 0.09160194 0.18902005 -0.05481951 0.04594944 0.14819816
-0.0034255933 0.08306696 -0.038186025 -0.11054097 -0.020132037 -0.08793594 -0.045964316 -0.058576334
0.052987166 0.040070537 0.042132407 -0.13945597 0.05803377 0.15726091 -0.113398984 0.035652753
0.07397411 -0.051981714 0.020828966 0.15469351 -0.18157461 -0.10249373 0.015999757 0.08605563
0.034541465 -0.12007042 -0.13071845 -0.052622516 0.06069171 0.14772983 0.09751322 -0.18475781
-0.053301368 0.085438795 0.045442495 0.17471658 0.006804272 -0.03730063 0.13042977 0.013928886
0.06859514 0.08006606 -0.022496896 0.14948347 0.06802417 -0.13622311 -0.036870856 -0.026662631
-0.23765972 0.14574234 0.033802878 0.06289016 0.045754015 0.017151294 -0.069274865 0.04732595
-0.021122498 -0.0753607 -0.021565616 -0.10792025 0.023868764 0.06594308 0.14411575 -0.029765226
-0.14372958 0.011159077 -0.15259066 0.018907543 -0.021074846 0.045752775 0.07621971 -0.032085445
-0.2370198 -0.07697181 0.017735824 -0.12019155 0.11589835 -0.073631726 -0.03861577 -0.121104926
0.06930135 0.0029491377 0.12173284 0.018043311 -0.1560559 -0.0121019585 0.076744415 -0.004544664
0.062601835 -0.048372637 -0.06172098 0.14056724 0.13376114 -0.0011915062 -0.06427276 -0.13537878
0.014164148 0.09166909 -0.037837848 0.0052022077 -0.11182469 -0.11407348 0.047604363 0.0764497
-0.06417549 0.17354329 -0.013812581 -0.08321263 -0.12891139 0.002373764 0.009092852 -0.015673354
-0.015551158 -0.034138706 -0.019840129 -0.00200524 0.07096082 -0.11362436 0.041315373 0.032470398
-0.10255914 -0.018536894 0.018510636 -0.054278154 0.15262131 -0.06992273 0.09099983 0.00038609293
-0.09609293 -0.009317437 -0.09275849 0.09807206 -0.032302406 0.022361636 -0.04262959 0.055498812
0.11923692 -0.028962145 -0.08430053 -0.18089621 -0.042247385 0.08607569 0.049593434 -0.046616897
0.039424475 0.007249162 -0.03456352 -0.05378855 -0.0016760732 0.06811481 0.060497735 0.025651166
-0.079768874 -0.077621885 -0.17714961 -0.037037544 0.13711068 0.1966341 0.10601046 -0.09408431
-0.094139844 -0.10308814 -0.017889984 -0.11245214 0.08984159 0.015256727 -0.0084711015 0.015893988
0.115625896 0.14666286 0.05077398 -0.093290865 -0.047503613 -0.1251209 0.13148157 0.15068793
0.007473815 -0.029051514 -0.0061997473 0.061850905 0.09216727 -0.033213947 -0.014150809 0.10062142
0.16539346 -0.115199745 -0.014183403 -0.00016505158 0.010740187 -0.13664359 -0.028140426 0.13640246
-0.11754723 0.07734957 -0.14340349 -0.026994795 0.116093956 0.09257604 -0.032683063 0.06457
-0.014687823 -0.049627986 -0.047474876 -0.113451086 -0.06994866 0.06773418 -0.092407875 0.074309565

lstm2.bias_ih_l0 f4 [256]
00000000: f0e0 dabd 986a 53be dbbf b2bd 853a bbbd
00000010: 82b5 8dbd 29c1 09be 8281 143d 098d 8c3d
00000020: ca48 bf3d 54d4 dd3d f71f e3bd 076a bf3e
00000030: 6362 b53b 4d3a 70be 06ea d53c 8323 dbbd
00000040: 8ada a5bd b4e6 8fbd 60fd 84bd 1d99 3fbd
00000050: abd7 f3bd 7054 293c 9c38 a83d 4613 fdbc
00000060: 734a 553d a10f a6bd efb8 6dbd 97e7 25bd
00000070: ebff 33be 0e11 0ebd 1f93 39be 8714 37bd
00000080: a3e8 a33d fb19 08be e9f0 0e3e 117e 53be
00000090: 43c0 80bc 09f7 073e 036e 1b3d a9dd 793e
000000a0: eee9 203c abed bc3c 2954 813d 357b 72be
000000b0: c829 bc3d 6785 b13d 78ae f4bd 46e4 6cbe
000000c0: 2e47 f6bd 981c 7e3c 94ae 813d f82b 75bd
000000d0: e37b a4bd 9016 8fbd f526 b2bd b715 c2bd
000000e0: b4ce fa3d d74a 84bd cbe6 773d 2cc5 323d
000000f0: 3d48 64bb 2516 0abb 6475 fcbd c7f0 1ebe
00000100: b14e d63d c44f a3bc 4632 fb3d 3110 95bd
00000110: b16a 593e f973 213e 25b2 723d 258e 1c3d
00000120: 034f 89be f7ed 213e 8cfb 383d 3d65 50be
00000130: 0acc 3cbd 72a1 5e3d 4c17 1cbe 6cc2 aebd
00000140: 0773 223e 8182 4d3d 3204 20bd e235 433d
00000150: 0a6f 853d 326f 043e b08e 5c3e 15fb 49bc
00000160: a54a aabd d04d ad3a 063d a43b 5fc9 3d3e
00000170: 786e 83bd 9e10 9c3c 55a1 cd3c d338 073e
00000180: d331 9f3d 31d3 e73c a858 efbb 80c1 9bbd
00000190: 8d42 e73d c6c6 1e3e 289f d2bc e4e9 3cbe
000001a0: f9b2 60bd 9e7e 97bd fa0e 983d a0fc eb3c
000001b0: c9b7 2c3c 7d78 093c 6ce8 963c 8cb2 fcbd
000001c0: 82ed 23be 3e14 acbd 92ce 56bc 189c bd3d
000001d0: faca b43c b26c 01bc f14a 00be c23c 1d3e
000001e0: d5ca adbc 4f51 97b9 5568 763e 9eae 2c3d
000001f0: b62d 483e 3287 833d 7ea5 5abe c1ea 353d
00000200: 52ab 3d3d 89eb 0ebc 3112 d63c f6cc 143d
00000210: fef1 333c d60e 433d 9c0f 3cbd 4fa5 e73d
00000220: ae08 773d 717f e1bd 2a69 563d 191b e3bd
00000230: 0eed 4e3d c9fc 7c3c e8a2 02be f5bc 84bd
00000240: 4447 1e3d 5592 aebc d1ca 8abd bddd 8c3c
00000250: 6c49 e8bd 5235 423d d5d3 203c e293 0a3d
00000260: 1d8e 45bb 0200 b3bd 615a 9f3d 83e0 a93d
00000270: b6a5 d63c e961 e73d 83ac 3f3d 7cd2 b9bd
00000280: 9344 3fbc b9e2 9c3b cb8d 2ebd 1009 e33c
00000290: 272d 5f3c b9d0 a23c e547 5c3d f897 b8bd
000002a0: 92e3 413d 4d97 85bb 05b5 dabc e42c 4fbd
000002b0: af8e d9bd 8a31 473d 5c57 55bd 18c3 47bd
000002c0: 8035 af3d acc8 a4bd aaf0 ea3c ae09 a3bd
000002d0: 8b24 b43d 9828 95bd 19c2 ecbb 55bc 2c3d
000002e0: 7879 17bd b914 f5bc 0be6 f4bd cf86 eebd
000002f0: b707 263d 6549 aa3c 2d51 4cbc eea5 393d
00000300: 5227 0bbe dc5d 47be 4b39 873d 47dd ba3c
00000310: b518 89bd 49a7 023d 0df2 cebd e001 ea3d
00000320: 1a41 a63e 85bb 1c3e 3132 b8bb 27a1 743e
00000330: 9c3e d43d 3603 51be 26ec 013e 3ada f5bd
00000340: 5aac 00bd e248 243e d549 7d3d 7c7e 89bb
00000350: 5603 6dbd e00e 40bd eb68 e1bc a561 b139
00000360: 4e96 ea3d 6fd6 bebd fdfa 873d 979d 763d
00000370: a48b 403d 35ea 32bc d91d bb3d 0f87 16be
00000380: 90ba 1ebd e568 6ebc e84b 0b3e 1dab 2ebe
00000390: 3933 1cbd fd80 833d fa38 73bd fb8b bf3e
000003a0: de3d c63c bf75 8abd 9335 7b3c 438d 433d
000003b0: 6f39 2e3e 8330 183e 61b3 19bd 9829 933d
000003c0: 61ef 28bd fea6 c9bd 47f0 043e 4240 433d
000003d0: e13a 8d3d bc93 173e 5187 a3bb 5090 493d
000003e0: 7a2f 723d b189 193e 79c7 a9bb bf8a 3b3d
000003f0: 4acc 3abb c85c 5d3e 45ed aa3d d7a2 28bd
-0.10687435 -0.20646131 -0.08728 -0.09142021 -0.069193855 -0.13452591 0.03625632 0.06862838
0.09340055 0.10831514 -0.11090081 0.3738558 0.0055354103 -0.2345974 0.026112568 -0.10700133
-0.08098324 -0.07026425 -0.0649364 -0.04677688 -0.1190637 0.010335073 0.082139224 -0.03089298
0.052072953 -0.0810845 -0.058037695 -0.040504064 -0.17578094 -0.034684233 -0.18122528 -0.04469731
0.08003356 -0.13291161 0.13959087 -0.2065356 -0.015716678 0.1327783 0.037946712 0.24400963
0.009821398 0.023062548 0.063148804 -0.23679812 0.09187657 0.086680226 -0.1194734 -0.23133954
-0.12025295 0.015509747 0.06332126 -0.059856385 -0.08031442 -0.06986725 -0.08698837 -0.09476798
0.12246457 -0.06459587 0.060522836 0.04364507 -0.0034833096 -0.0021070328 -0.12327078 -0.15521537
0.10464228 -0.019935496 0.12265448 -0.07278479 0.21232106 0.15766896 0.059251923 0.038221497
-0.26818094 0.15813433 0.04516177 -0.2035112 -0.046093024 0.054353185 -0.15243262 -0.08533177
0.15864192 0.050173286 -0.0390665 0.04765881 0.0651532 0.12933043 0.21538806 -0.012327929
-0.083150186 0.0013222042 0.0050121574 0.18533848 -0.064175546 0.019050892 0.025101343 0.1320527
0.07773175 0.028298946 -0.00730427 -0.076052666 0.112919904 0.15505514 -0.025710657 -0.18448597
-0.05485818 -0.07397197 0.074247316 0.028806984 0.010541865 0.008390543 0.018421374 -0.123387426
-0.16008571 -0.084022984 -0.013110774 0.09258288 0.022069443 -0.00789945 -0.12528588 0.15355209
-0.021214882 -0.00028861544 0.24063237 0.042158715 0.19548687 0.06422271 -0.21352193 0.044413332
0.046305962 -0.008723148 0.026131721 0.03632828 0.010982988 0.04762157 -0.045913324 0.11310827
0.060311012 -0.11010636 0.052346386 -0.11089153 0.05051904 0.015441128 -0.12757456 -0.06481353
0.038642183 -0.02131001 -0.067769654 0.017195577 -0.11342129 0.04741413 0.00981613 0.03383244
-0.003014452 -0.08740236 0.0778091 0.08294775 0.026202064 0.11297972 0.04679538 -0.0907335
-0.011674064 0.0047877696 -0.042615693 0.027714282 0.013621605 0.019874917 0.0537795 -0.09013361
0.04733617 -0.0040768743 -0.026697645 -0.05057992 -0.10622918 0.04863123 -0.052085266 -0.04877004
0.08555126 -0.080460876 0.02867921 -0.07960831 0.087960325 -0.07283133 -0.0072252867 0.042171795
-0.036981076 -0.029917108 -0.1195794 -0.116468064 0.0405347 0.02078695 -0.012470526 0.04532426
-0.13589218 -0.19469398 0.06602725 0.022810591 -0.066941656 0.031897817 -0.10104761 0.11426139
0.32471544 0.15305908 -0.0056212177 0.238896 0.10363504 -0.20411381 0.1268774 -0.12004514
-0.031414367 0.16043428 0.06183799 -0.0041959863 -0.05786451 -0.046889186 -0.02751585 0.00033832822
0.114544496 -0.09318244 0.06639669 0.060208883 0.04700817 -0.010920097 0.09136552 -0.14699958
-0.03875214 -0.014551376 0.13603175 -0.17057462 -0.038134787 0.06421087 -0.05938051 0.37411484
0.024199422 -0.067607395 0.015332597 0.04774214 0.17014097 0.14862256 -0.037524585 0.07185668
-0.041243915 -0.09846304 0.12982284 0.047668703 0.06895996 0.1480245 -0.004990496 0.049209893
0.05912731 0.14993931 -0.0051812497 0.045786615 -0.0028503113 0.21617424 0.08346037 -0.04117092

lstm2.bias_hh_l0 f4 [256]
00000000: a671 30bd 3945 a7bd db76 80bb 425a a1bc
00000010: cb7d 9bbd 911a bbbd 4955 0abe a282 12bd
00000020: 3107 e33d 014f 073e 90a3 d63c 9210 293e
00000030: 8616 debd d6e7 85bd f921 0c3e 6d14 05be
00000040: 820d 84bd b5b9 ba3d aeb0 c4bc f000 093d
00000050: 931f 50be 0d3f 22bd c66b cc3d 33af 5dbb
00000060: c23e 09be 8dd8 25bd a54b 213d 382e bebd
00000070: 8dec 5d3d 0e55 b9bc 6f80 86bd e18a 23bc
00000080: b2d7 1bbd 7ff0 763d b6b3 913d f0c8 2ebe
00000090: 2130 cfbd 6c1d 003e 035a ffbd 69b4 433e
000000a0: fc73 28be bf4b 86bd 228c 55bc 8388 cabc
000000b0: fa86 50bb 1dd0 e8bc a864 093c 2ccc 46bd
000000c0: a6dd 26be dfd5 4bbe 7d80 0cbe b577 edbd
000000d0: 0c0c bdbd 97ab d03d 80c3 77bd cd7f af3c
000000e0: cd8a 933c 096d c0bc 929a 923b 5849 0ebc
000000f0: fc56 e4bd 0d3d a3bc 1ea5 14be e1d7 adbc
00000100: 0d4f f93d 23eb f3bd 896f 7b3e 6dc5 d13d
00000110: 1a78 623e 9437 89bd 7be4 fb3c 7ae7 7abd
00000120: 0c63 34be cc46 a93d 4606 683d 34d9 febd
00000130: 6dca bdbd b052 f33d 471f 9d3c 75b9 df3d
00000140: 5c08 66bd 1fa3 2f3d 0122 9bbd 4d1a 273d
00000150: 8052 ae3d fe54 4a3e e4f1 323e d68a afbc
00000160: a5fb 0ebe d3fd ee3d 15c3 ff3d 6e6f 543e
00000170: 9cb8 313d f0a0 b73b 1b0b b13d 6f58 9dbd
00000180: 6bfa 61bd afd2 8c3d 4c8f 8fbd d856 bc3d
00000190: 716a 333e 555a 7f3d a948 563d 8cb1 60be
000001a0: 81e8 16be b49e 9f3b 7331 31bd 941c a1bc
000001b0: 276b 983d d804 d5bd 47f7 b6bc 6489 353d
000001c0: 088e 46be 8eae 50be 1278 afbd c9dd bcbb
000001d0: e213 3a3e 3b38 db3d c7e3 7bbe 2b8d b5bd
000001e0: c54b db3d fdfc 98bd 737a 153e 8827 60bd
000001f0: b78f 183e 6c49 d93d f1f6 b1bc c3ac bbbc
00000200: 6d0b 09be 9ffb 13be 38bb 1fbd 7bbf 71bc
00000210: c97a 3abc 9408 dfbd 46ad 64bd 6948 af3c
00000220: eac8 793d d568 26bd f92e eabc 6318 943d
00000230: bd7d 603c 1bd0 6a3b 60e7 babd e511 ea3d
00000240: ea8b 613d 3d3b 81bd dec1 51bd 9868 30bd
00000250: e6fb 033e 8cee f4bc 55c9 9ebd 4614 edbd
00000260: d88d 75bd dd9a 6dbd a6c6 453d ee0a 8b3d
00000270: 2276 a23b 349b e83c 870d 9cbd 5d51 ae3c
00000280: 2d73 e43d a3ba 7fbd a258 e03d 7d11 183d
00000290: 36c4 503b 5a73 43bd 85e0 2b3d bc4b 81bd
000002a0: 40c4 a4bd a2df 113e 59d9 8abd 28d0 5dbd
000002b0: 7b0a 95ba a386 adbc ad18 9e3d 3abb 193c
000002c0: 2460 8abc a860 2cbd 1333 a63c 1468 3ebd
000002d0: 9838 f9bc a888 613d fb25 683c cbda 9fbd
000002e0: 8711 a93d 1250 b2bc 42cf 01be 572a 513d
000002f0: 5fbd 4cbd 4247 cabc 27c1 07bd 406c fbbd
00000300: c0bf 0abe 0bcc 0cbe 85a9 2c3d cb5d 913d
00000310: d11a 08be 1f41 473d 2766 003e 404a 083e
00000320: 5b7b 083e 3b4a 563e 653b 2dbe 41c1 933e
00000330: ab70 bf3d b6cc 56be b7bc 853c 19cc d63d
00000340: 6fb5 38bd f9e4 213d d113 6ebd ca08 dbbd
00000350: 8511 123e 900e fabd f9f4 b6bd 01f1 eebc
00000360: 746b b8bd 1e8f 26be e670 04be 4fa4 b4bd
00000370: a8c3 ccbd 0e80 21bd c838 823d 373e 8c39
00000380: 1260 fbbd 8981 293d cad7 063e a6be a83c
00000390: 8f8c 343d 731f 86bd a01b 573c 0081 843e
000003a0: 2209 abbd 05a4 47bd 5117 32bd c2ad adbd
000003b0: 80c5 ff3d f14f 393e 5307 083e 4c01 7fbd
000003c0: 4a40 17be 2dda 74bd 6a81 003e 85ab d3bd
000003d0: 3fc6 013c 99e4 023c 2f3d 64be 4202 b6bd
000003e0: 368f 3f3d c231 233e 3571 223b 6e94 bc3d
000003f0: 3f50 f9bd bbd0 c63d f8e1 0a3e 4701 9e3b
-0.043077134 -0.081675 -0.0039204187 -0.019696359 -0.075923525 -0.091359265 -0.13509096 -0.035769112
0.11085356 0.13213731 0.02620104 0.16510227 -0.1084414 -0.0653836 0.13684835 -0.12996073
-0.06447889 0.09117452 -0.024010029 0.03344816 -0.20324545 -0.03961091 0.09981494 -0.003382635
-0.13402846 -0.040489722 0.03937878 -0.09286159 0.05418067 -0.022623565 -0.065674655 -0.009981842
-0.0380475 0.06028795 0.07114355 -0.17068839 -0.10116602 0.12511224 -0.1246834 0.1911179
-0.16450495 -0.06557416 -0.013033899 -0.024723297 -0.0031818734 -0.028419549 0.008385815 -0.048534557
-0.1629549 -0.19905804 -0.1372089 -0.11595098 -0.092308134 0.10188978 -0.060489178 0.021423245
0.018010521 -0.023489492 0.0044739926 -0.008684479 -0.111494035 -0.019926572 -0.14516112 -0.021221103
0.12173281 -0.11910083 0.24554266 0.10242734 0.22116128 -0.06700054 0.030748596 -0.06125591
-0.17615908 0.082654566 0.056646608 -0.12443772 -0.09267125 0.11881006 0.019179953 0.10924045
-0.056160316 0.042880174 -0.07574845 0.040796567 0.085118294 0.19758984 0.17475086 -0.021428507
-0.13963182 0.11669507 0.12488381 0.20745632 0.043388948 0.005603902 0.08644696 -0.07682883
-0.055170458 0.06876122 -0.070097536 0.09196252 0.17521073 0.062342007 0.052315388 -0.21942729
-0.1473713 0.004871214 -0.04326005 -0.019666947 0.07442313 -0.104013145 -0.022334708 0.04432048
-0.19390118 -0.20379087 -0.085678235 -0.0057637435 0.18171647 0.107040845 -0.24598609 -0.08864816
0.10707811 -0.07470129 0.14597492 -0.0547252 0.14898573 0.10609707 -0.021724196 -0.022909528
-0.13383265 -0.14451455 -0.038996905 -0.014755125 -0.011381813 -0.10890308 -0.05582931 0.021396833
0.060982622 -0.04062732 -0.028586851 0.07231214 0.013701853 0.0035829607 -0.091261625 0.11429194
0.055065073 -0.06310127 -0.051210277 -0.0430685 0.1288906 -0.029898904 -0.07753245 -0.115761325
-0.059949726 -0.058009017 0.04828515 0.06789194 0.00495793 0.02839432 -0.07619768 0.021279031
0.111547805 -0.06243385 0.10954405 0.037126053 0.0031855232 -0.04771743 0.041962165 -0.06313273
-0.08045244 0.14245465 -0.06779737 -0.05415359 -0.0011370921 -0.021182364 0.0771955 0.009383017
-0.016891547 -0.042084366 0.020288026 -0.046485975 -0.030422494 0.055061966 0.0141692115 -0.07805403
0.08255296 -0.021766696 -0.12676719 0.05106577 -0.049985286 -0.024692181 -0.03314319 -0.122765064
-0.1354971 -0.13749711 0.042153854 0.07097968 -0.1329148 0.04864609 0.12538968 0.13309574
0.13328306 0.20926754 -0.16917188 0.2885838 0.093476616 -0.20976529 0.016325338 0.10488147
-0.045094904 0.039525006 -0.058124367 -0.10695036 0.14264496 -0.12209809 -0.089334436 -0.029167654
-0.0900487 -0.16265532 -0.12933692 -0.08820402 -0.09998256 -0.039428763 0.063584864 0.00026749235
-0.12274183 0.0413833 0.13168254 0.02059872 0.04407936 -0.06548967 0.013129145 0.2587967
-0.08351351 -0.048740406 -0.043479268 -0.08480407 0.12488842 0.18096901 0.13284044 -0.062257096
-0.14770618 -0.05977838 0.12549368 -0.10335449 0.007920801 0.007989072 -0.22288965 -0.088871494
0.046767436 0.1593695 0.0024786715 0.09207998 -0.12173509 0.09707781 0.13562763 0.0048219296
