saved_model/DAP_Model_Load.pt (torch, 231010 bytes, 12 tensors)

lstm1.weight_ih_l0 f4 [256, 3]
0	0xbd180214	-0.037111357
1	0xbce17b8d	-0.027524734
2	0x3db5e451	0.088814385
3	0xbe3e6e11	-0.18596675
4	0xbba5d903	-0.00506127
5	0xbd4047ec	-0.04694359
6	0xbca5cbba	-0.020238746
7	0x3d6f4f21	0.058425073
8	0x3d8f1434	0.06986275
9	0x3da653b5	0.081214346
10	0x3da92d4a	0.08260591
11	0x3d3c43ec	0.045963213
12	0x3c6324ba	0.013863737
13	0x3d837c03	0.06420138
14	0xbd1bfc30	-0.0380823
15	0x3c5e1669	0.013555148
16	0x3d689ff3	0.056793164
17	0x3e0ba659	0.13637675
18	0x3cc4c37c	0.024018995
19	0x3d78574d	0.06063013
20	0xbe8c8cb2	-0.27451092
21	0x3e076f05	0.13225944
22	0x3d198d4f	0.037488278
23	0xbd5e4aa1	-0.05427039
24	0x3e2f9141	0.17145254
25	0x3d70d72b	0.05879895
26	0x3d8cb38c	0.06870183
27	0xbdb4b018	-0.0882265
28	0x3cb64719	0.022250699
29	0x3ca01501	0.019541265
30	0xbd7c7951	-0.061639134
31	0x3d1b2bd1	0.037883583
32	0x3db74f3d	0.089506604
33	0x3daf4c88	0.08559519
34	0xbb65d942	-0.0035072123
35	0x3d3fae6c	0.0467972
36	0x3d1fb660	0.038992286
37	0xbd9ca603	-0.07648852
38	0xbcd5948d	-0.026071811
39	0xbd1f39c9	-0.038873468
40	0x3d92a1b8	0.07159752
41	0x3dcf9748	0.101362765
42	0x3e14a869	0.14517368
43	0xbc6d2088	-0.014473088
44	0x3dbad12a	0.09121926
45	0x3d96b9fe	0.07359694
46	0x3db3301c	0.087494105
47	0x3e078cb5	0.13237269
48	0xbd26b561	-0.04070032
49	0x3c2c2054	0.0105057545
50	0xbdf84740	-0.12122965
51	0x3d828449	0.06372888
52	0xbdf75eb3	-0.12078609
53	0x3c45ee88	0.012080796
54	0x3e116232	0.14197615
55	0xbd7b48b9	-0.06134865
56	0x3d7872bf	0.060656305
57	0xbe28f3ea	-0.16499296
58	0xbd2c6b22	-0.042094357
59	0xbe205e50	-0.15660977
60	0xbd454da2	-0.04816974
61	0x3deb0794	0.11476055
62	0xbe27b55a	-0.16377774
63	0xbd30c278	-0.04315421
64	0xbd331b7b	-0.04372738
65	0xbd02aed8	-0.031905025
66	0x3d95b39d	0.07309649
67	0xbdc9732a	-0.09836419
68	0x3d9a1bcf	0.07524835
69	0x3e3f9c3c	0.18711942
70	0xbd3e0dc0	-0.04639983
71	0x3dfd0fab	0.12356504
72	0xbb5a2e29	-0.0033291674
73	0x3dc3b6bc	0.09556338
74	0xbdab84c9	-0.08374936
75	0xbc1c615b	-0.009544696
76	0x3d388271	0.045046274
77	0x3d2535ae	0.040334396
78	0x3d14bad9	0.036311004
79	0xbdd11c05	-0.102104224
80	0x3ce367e1	0.027759494
81	0xbd061b85	-0.03274109
82	0x3e2dc455	0.16969426
83	0xbd74d517	-0.05977353
84	0xbdaeb033	-0.08529701
85	0xbe43582d	-0.19076605
86	0x3e15c02b	0.14624088
87	0x3d0a8cdb	0.033825736
88	0x3d310339	0.043215964
89	0x3db9e827	0.09077483
90	0x3e085bf7	0.13316332
91	0x3c1090bd	0.008823571
92	0xbba475e8	-0.0050189383
93	0x3c6366fe	0.013879536
94	0x3cc41977	0.023937924
95	0x3da2fb7a	0.079581216
96	0x3bdcf207	0.006742719
97	0x3d4614ea	0.04835979
98	0x3caf6294	0.02140931
99	0x3d598543	0.053105604
100	0xbe3e4758	-0.18581903
101	0x3a56a9cc	0.0008188754
102	0xbcb8b429	-0.022546845
103	0x3d9d6061	0.076843984
104	0x3dffebb2	0.12496127
105	0xbdc082a0	-0.09399915
106	0x3cbe587a	0.023235548
107	0xbd7967aa	-0.060889877
108	0x3c864425	0.016389916
109	0xbdbe5af6	-0.09294693
110	0x3ce713c7	0.028207673
111	0x3dcc1226	0.09964399
112	0xbd16aa13	-0.03678329
113	0xbc46eeff	-0.012141942
114	0x3e0c5053	0.13702516
115	0xbe27d152	-0.16388443
116	0xbd414600	-0.047185898
117	0x3d8ad7f0	0.06779468
118	0x3d57d702	0.05269528
119	0xbe3f5f33	-0.1868866
120	0x3e426b79	0.1898631
121	0xbdbcf2b1	-0.09225977
122	0x3db32054	0.087464005
123	0xbd8e0c6a	-0.069359615
124	0x3dc7fbd6	0.09764831
125	0xbc96ffc9	-0.018432515
126	0x3df1ab89	0.11800296
127	0xbc22e49e	-0.009942202
128	0xbdb163bc	-0.08661601
129	0xbdcdbcb6	-0.100457594
130	0xbd15d608	-0.03658107
131	0xbcc880ab	-0.024475416
132	0xbd4d5ded	-0.050138403
133	0xbd749c85	-0.05971958
134	0xbb18e38c	-0.0023328988
135	0xbc1e5aa0	-0.009665161
136	0xbd3b221a	-0.04568682
137	0x3c28099a	0.010256195
138	0xbd1a0cde	-0.037609927
139	0xbdafcbc4	-0.08583787
140	0x3d2832f8	0.041064233
141	0x3d833f56	0.06408565
142	0x3dc269a9	0.09492809
143	0xbdba16fa	-0.09086414
144	0x3d448e1e	0.047987096
145	0x3dc974f7	0.098367624
146	0x3e2fb095	0.17157204
147	0x3cd363db	0.02580445
148	0xbde89214	-0.11355987
149	0x3e39f587	0.18160067
150	0xbd80a76c	-0.06281933
151	0xbdddc05b	-0.108277045
152	0xbd519f30	-0.051177204
153	0x3b9cff30	0.004791163
154	0xbe13a9f0	-0.14420295
155	0xbd0397e2	-0.03212727
156	0xbe3a7667	-0.1820923
157	0xbd935fbf	-0.071959965
158	0xbd093477	-0.0334973
159	0xbd0104bf	-0.031498667
160	0x3dd37562	0.10325123
161	0xbcd3e9fc	-0.025868408
162	0x3ce46b27	0.027883125
163	0x3c634f36	0.013873866
164	0xbe0b262b	-0.13588779
165	0x3d4b07b1	0.049567882
166	0x3deb6d32	0.11495437
167	0x3e2aa4cf	0.16664432
168	0x3e1da55c	0.15395111
169	0xba72a804	-0.00092566037
170	0x3e2eef38	0.17083442
171	0x3d81a6f5	0.06330673
172	0x3e173024	0.14764458
173	0x3cfd9c3b	0.030958286
174	0x3d70bb98	0.058772653
175	0xbe067102	-0.13129047
176	0x3dd88c9f	0.10573696
177	0x3cf97e3a	0.030455697
178	0xbe095899	-0.13412704
179	0x3e0137f6	0.12619004
180	0xbdd4d6ec	-0.103925556
181	0xbea0c656	-0.31401318
182	0xbe65fbac	-0.22459286
183	0x3d53ec85	0.051739234
184	0x3d870d06	0.06594281
185	0x3d830b59	0.06398649
186	0x3db4c475	0.08826534
187	0xbdafc31e	-0.085821375
188	0x3c0ffe23	0.008788618
189	0x3dbe0fb1	0.09280337
190	0xbc895166	-0.016762447
191	0x3d863868	0.065537274
192	0x3d38f3ae	0.045154266
193	0xbe81f7b7	-0.25384304
194	0x3e1ec304	0.1550408
195	0xbde1b758	-0.11021298
196	0xbea49eca	-0.32152396
197	0xbd51a27c	-0.051180348
198	0x3e394d57	0.18095909
199	0xbdd1e0b4	-0.10247937
200	0x3db66ab7	0.08907073
201	0xbdc66442	-0.096870914
202	0xbd559dc3	-0.052152406
203	0xbe39cb46	-0.18143949
204	0xbbf95f23	-0.007610218
205	0xbcc667c1	-0.024219396
206	0xbd8c524d	-0.06851635
207	0xbd848141	-0.06469966
208	0xbc978c35	-0.018499473
209	0x3d81bf96	0.0633537
210	0xbbffaf83	-0.007802905
211	0xbc0c41a0	-0.008560568
212	0xbe801a82	-0.25020224
213	0x3de87342	0.11350109
214	0x3d93715e	0.071993575
215	0x3d8e39be	0.06944607
216	0x3e3a4f7a	0.1819438
217	0x3dcbe34b	0.09955462
218	0xbd365c00	-0.04452133
219	0xbeadec13	-0.33969173
220	0x3c456e20	0.012050182
221	0xbd9b0371	-0.07569016
222	0x3d3ab264	0.045580283
223	0x3e0d7bdf	0.13816784
224	0xbb6ad3c5	-0.003583179
225	0x3defe1ac	0.11712965
226	0x3daecc72	0.085350886
227	0x3c8c9a04	0.017163284
228	0x3e554733	0.20827942
229	0x3dc7b3f5	0.09751121
230	0xbd41d91d	-0.047326196
231	0xbe91519b	-0.28382573
232	0xbd51b345	-0.051196355
233	0xb968ed70	-0.00022213697
234	0x3de14841	0.110001095
235	0xbd6f095f	-0.058358546
236	0x3e33cff0	0.1755979
237	0xbdc18008	-0.09448248
238	0xbdc06f3a	-0.09396215
239	0x3dd0c213	0.10193267
240	0x3da1c8fd	0.078996636
241	0x3e08ce64	0.13359982
242	0x3ddd1922	0.10795809
243	0xbd33590a	-0.043786086
244	0xbce1f91f	-0.02758461
245	0xbd59a9e8	-0.05314055
246	0x3e03df7f	0.12878226
247	0xbd583302	-0.05278302
248	0x3e76f804	0.24118048
249	0x3d9c660a	0.0763665
250	0xbc018e60	-0.00790748
251	0x3cdcd0fd	0.026955122
252	0x3d85169e	0.064984545
253	0x3e2121a7	0.15735494
254	0xbe0d28a5	-0.13785036
255	0x3df730d7	0.12069862

lstm1.weight_hh_l0 f4 [256, 64]
0	0x3deeea42	0.11665775
1	0xbd283264	-0.04106368
2	0x3e3d728e	0.1850073
3	0x3e8378b8	0.2567804
4	0xbcecf000	-0.028923035
5	0x3de7f06e	0.11325155
6	0xbe4df851	-0.20114256
7	0xbe154402	-0.14576724
8	0xbd2bfcbc	-0.041989073
9	0x3d872a3c	0.065998524
10	0x3d0e61ad	0.03476112
11	0x3c6643a2	0.014054211
12	0xbe14219f	-0.1446595
13	0x3e5e8568	0.21730578
14	0x3c725071	0.014789687
15	0xbe0f6e9d	-0.1400704
16	0x3d454e43	0.04817034
17	0x3e7f1237	0.24909292
18	0x3e336ab6	0.17521176
19	0x3df31e20	0.1187098
20	0xbd04a047	-0.032379415
21	0x3e059d61	0.13048317
22	0x3d4cb790	0.049979746
23	0x3df32ab2	0.11873378
24	0x3e389d83	0.18028836
25	0x3de1d666	0.110272214
26	0xbe5c6820	-0.21524096
27	0x3e314ee3	0.17315249
28	0xbd8712f1	-0.0659541
29	0x3dea34a3	0.11435821
30	0xbdb1ea6d	-0.08687291
31	0x3d624500	0.055241585
32	0xbd8bfba3	-0.06835105
33	0x3d908773	0.07057085
34	0x3de1cc96	0.1102535
35	0xbdabf4c2	-0.08396293
36	0x3d2a7277	0.04161307
37	0xbe663765	-0.22482069
38	0xbc404370	-0.011734828
39	0x3ddf5584	0.10904983
40	0xbcc59d3d	-0.024122829
41	0xbe7a0be1	-0.24418594
42	0x3c7904ef	0.01519893
43	0x3e2ffac5	0.17185505
44	0x3c2dc781	0.0106066475
45	0x3c2c1e5a	0.010505283
46	0x3dcef0d8	0.10104531
47	0xbcef25bc	-0.029192798
48	0xbd698f52	-0.057021447
49	0xbda18bf9	-0.07888026
50	0xbdeab1b6	-0.11459677
51	0x3c44187f	0.011968731
52	0x3e1a392b	0.1506087
53	0x3e41f97d	0.18942828
54	0x3cfb1c84	0.030653246
55	0xbd86edb9	-0.06588311
56	0x3dba9ecf	0.091123216
57	0x3e0f35e2	0.13985398
58	0x3cf9b929	0.030483799
59	0x3daa8dd5	0.083278336
60	0x3dbd85ef	0.092540614
61	0x3e265160	0.1624198
62	0xbb204d8a	-0.002446028
63	0xbe0ce09b	-0.13757555
64	0x3dd89143	0.105745815
65	0x3e34a28b	0.1764013
66	0x3e0c4c9c	0.13701099
67	0xbdc8064c	-0.09766826
68	0xbe57bc7c	-0.21067995
69	0x3cb05076	0.021522742
70	0x3e2ffbf6	0.17185959
71	0xbd60ff4c	-0.05493097
72	0x3cd390b7	0.025825841
73	0x3c3f5276	0.011677375
74	0xbd43c4b5	-0.047795016
75	0x3c8429d5	0.016133228
76	0xbc036bcb	-0.008021305
77	0xbde3b8d6	-0.11119239
78	0xbad57c89	-0.0016287725
79	0xbd82ec10	-0.063926816
80	0xbd47ab04	-0.048747078
81	0xbd3b9b70	-0.045802534
82	0x3e1184aa	0.14210764
83	0x3e1b612b	0.15173785
84	0xbdb85fd0	-0.0900265
85	0x3e027429	0.12739624
86	0xbdcbe41b	-0.09955617
87	0x3d053e94	0.032530382
88	0x3e1b9aa8	0.15195715
89	0xbd8597c9	-0.06523091
90	0x3e139c14	0.14415008
91	0xbcd6e263	-0.026230996
92	0xbd87f292	-0.066380635
93	0xbdd45ce7	-0.10369282
94	0xbdeef1bd	-0.11667202
95	0x3db632f2	0.08896436
96	0x3d4d74c6	0.050160192
97	0xbe051919	-0.12997855
98	0x3e20e086	0.15710649
99	0xbe074505	-0.13209923
100	0xbdba8c41	-0.091087826
101	0x3d9c6124	0.076357156
102	0xbd8e63ac	-0.06952605
103	0xbdc82dff	-0.09774398
104	0xbde3f0b0	-0.11129892
105	0x3dcfd1cb	0.10147437
106	0xbd5b0aeb	-0.05347721
107	0xbe0fdad3	-0.14048319
108	0x3d40b00d	0.047042895
109	0xbd88c90b	-0.06678971
110	0x3e369978	0.17831981
111	0xbce38854	-0.027774967
112	0xbd55a784	-0.05216171
113	0xbe7ac9ec	-0.2449109
114	0xbd5c5096	-0.05378779
115	0xbd030aea	-0.03199283
116	0xbc2b6026	-0.010459935
117	0x3d71b9ee	0.059015207
118	0x3d86ce13	0.06582274
119	0xbd747f74	-0.05969186
120	0x3e472568	0.19447863
121	0xbcdd7eac	-0.02703794
122	0x3dcf7536	0.10129778
123	0x3e48f291	0.19623782
124	0xbe232bca	-0.15934673
125	0x3e13de75	0.1444033
126	0x3e5697ec	0.20956391
127	0x3de1685a	0.110062316
128	0x3dcc40b2	0.09973277
129	0x3e44a031	0.19201733
130	0xbd26d485	-0.04073002
131	0x3c3241ad	0.010879916
132	0xbd7cedec	-0.061750337
133	0x3e2c24b3	0.16810875
134	0x3e07560a	0.13216415
135	0xbdd86627	-0.10566359
136	0x3dd38084	0.10327247
137	0xbe4bea2e	-0.19913551
138	0xbd751e7d	-0.05984353
139	0x3dcd19f2	0.10014714
140	0x3dccf44b	0.10007533
141	0xbd215b48	-0.039393693
142	0x3b7773d1	0.003775824
143	0xbdc19696	-0.0945255
144	0xbbb70f95	-0.0055865743
145	0xbda5de8a	-0.080990866
146	0xba3db444	-0.00072366395
147	0x3e3a6852	0.18203858
148	0x3b714cce	0.003681946
149	0xbca16cd0	-0.019705206
150	0x3dd0d545	0.10196928
151	0x3d6eba82	0.058283336
152	0xbd3fdc9a	-0.04684124
153	0xbd6a29d6	-0.057168804
154	0x3ccd100e	0.02503207
155	0x3e08b04b	0.133485
156	0x3e438bc4	0.19096285
157	0x3d4d414e	0.050111108
158	0xbdeae685	-0.11469749
159	0xbdb28647	-0.087170176
160	0x3d4c9320	0.049944997
161	0xbdba4d86	-0.09096818
162	0x3d9e9eca	0.0774513
163	0x3d0c2a9f	0.034220334
164	0x3de9d1ac	0.11416945
165	0xbdd57b95	-0.10423962
166	0xbdd16149	-0.10223634
167	0x3d9f34ef	0.07773768
168	0xbda4e01e	-0.080505595
169	0xbd8501a7	-0.06494456
170	0x3c181cbd	0.0092841955
171	0x3cd58054	0.026062168
172	0xbd8e5c63	-0.06951215
173	0x3d36c71b	0.044623476
174	0x3dc7b99b	0.09752198
175	0x3dc19829	0.0945285
176	0xbd1d7064	-0.038437262
177	0xbd860e2d	-0.065456726
178	0x3d89c189	0.06726367
179	0xbc01f21a	-0.007931257
180	0xbe234af4	-0.15946561
181	0x3dff84fc	0.12476537
182	0xbd1583fd	-0.036502827
183	0xbdb433ea	-0.08798964
184	0xbc2581f9	-0.010101789
185	0x3d8a0b1e	0.06740402
186	0x3e1abb3a	0.15110484
187	0x3cf16bef	0.029470412
188	0x3c836bd6	0.016042631
189	0x3e077ba8	0.13230765
190	0x3e2e7fdf	0.17040966
191	0xbd08cad2	-0.03339655
192	0x3d789257	0.060686436
193	0xbc33ca43	-0.010973516
194	0x3d916118	0.07098597
195	0x3d9b8fbe	0.07595776
196	0xbe0c27b0	-0.13687015
197	0x3d93a9c6	0.07210116
198	0xbc723491	-0.014783041
199	0xbd8088b3	-0.06276073
200	0xbd2b9e56	-0.041899048
201	0x3d14b5f9	0.036306355
202	0xbdd9ce0e	-0.10635005
203	0x3d65d656	0.05611261
204	0x3d0a568c	0.033773944
205	0x3bb8437a	0.005623278
206	0xbe01974d	-0.12655373
207	0x3c22be52	0.009933071
208	0x3da10dbb	0.07863947
209	0xbd20679d	-0.039161313
210	0xbd0dc694	-0.034613207
211	0x3da33e42	0.07970859
212	0xbdfc41f6	-0.123172686
213	0x3d4cef72	0.05003304
214	0xbe00f1d6	-0.12592253
215	0xbca61295	-0.020272532
216	0xbdef6f6a	-0.116911724
217	0xbd8ec66d	-0.069714405
218	0x3c747ab9	0.0149218375
219	0x3e0f4649	0.13991655
220	0x3da40e2e	0.08010517
221	0x3dbf74f4	0.09348479
222	0x3e044a1c	0.12918895
223	0x3ddc8c18	0.10768908
224	0x3d7eecef	0.062237676
225	0xbe49b330	-0.19697261
226	0xbd3cd918	-0.046105474
227	0xbe0ef7bb	-0.13961689
228	0xbe303850	-0.17208982
229	0x3db01ad5	0.08598868
230	0x3dd828eb	0.105546795
231	0x3e1dc9d0	0.15409017
232	0x3e184d6b	0.14873283
233	0xbcecb365	-0.028894136
234	0x3e00f0ea	0.12591901
235	0x3dde1aa8	0.10844928
236	0xbdb0e7d5	-0.086379685
237	0x3d5f39df	0.05449855
238	0x3d15a273	0.036531877
239	0x3d284bf7	0.04108807
240	0xbdb4440c	-0.088020414
241	0xbc826369	-0.015916543
242	0xbcfcc9e0	-0.03085798
243	0xbc224abc	-0.009905513
244	0xbdf12776	-0.11775105
245	0xbc7420c7	-0.014900393
246	0x3d1baf25	0.038008828
247	0xbdd2762f	-0.10276448
248	0xbcbfb46b	-0.02340146
249	0x3d18fc90	0.037350237
250	0x3cf70676	0.030154448
251	0x3c4248fd	0.011858222
252	0x3b32acfd	0.0027263754
253	0x3e0aa020	0.13537645
254	0x3dcdcafa	0.1004848
255	0xbcbaae2e	-0.022788133

lstm1.bias_ih_l0 f4 [256]
0	0xbcfdb6fd	-0.030971045
1	0x3debb3cc	0.11508903
2	0xbdb28eaf	-0.08718621
3	0x3e6540b6	0.22387967
4	0x3dacd26f	0.084385745
5	0x3d623738	0.055228442
6	0xbdae1fa9	-0.085021324
7	0xbd7a4e62	-0.061109908
8	0xbe13028a	-0.14356437
9	0xbe0eb981	-0.13937952
10	0xbe080e59	-0.13286723
11	0x3e029317	0.12751423
12	0x3d69c36e	0.057071142
13	0x3d453f53	0.048156094
14	0xbe38b7db	-0.18038885
15	0x3d9326de	0.07185148
16	0xbdddd2be	-0.108312115
17	0xbdaaf591	-0.08347619
18	0x3d5d20ae	0.053986244
19	0xbd9576ce	-0.07298051
20	0x3d65db36	0.05611726
21	0xbd8f391e	-0.06993316
22	0xbe2da801	-0.1695862
23	0xbddefd39	-0.10888142
24	0x3e03a2ff	0.12855147
25	0x3dc6f09d	0.09713862
26	0xbd224f63	-0.03962649
27	0x3e01104e	0.12603876
28	0xbe04cd6a	-0.12968984
29	0x3e18a4bf	0.14906596
30	0x3e5ef4d2	0.21773079
31	0xbd371756	-0.04469999
32	0x3e42b135	0.19012912
33	0x3dfbb00f	0.1228944
34	0x3d868871	0.06568993
35	0xbc5f3c44	-0.013625208
36	0x3cdb0b50	0.026738793
37	0xbe25a06e	-0.1617448
38	0xbe273fce	-0.16332933
39	0x3d88db1b	0.06682416
40	0x3d3b1c74	0.045681432
41	0xbe01af3d	-0.12664504
42	0xbbc36a83	-0.005963625
43	0xbdb211d4	-0.08694807
44	0x3d985b20	0.07439256
45	0x3cd6e0f4	0.026230313
46	0xbe282db9	-0.16423692
47	0x3e0896c5	0.13338764
48	0xbc95d1df	-0.01828855
49	0x3e33321a	0.17499581
50	0xbde6db94	-0.1127235
51	0xbd15caba	-0.03657029
52	0xbe1067bf	-0.14102076
53	0xbba270b4	-0.004957283
54	0xbd721e7d	-0.059111107
55	0xbe210ac2	-0.1572676
56	0xbda40e57	-0.080105476
57	0xbcaeac1b	-0.0213223
58	0xbd58accf	-0.052899178
59	0xbdc09caf	-0.09404885
60	0x3d077ed8	0.033079952
61	0xbbab964a	-0.0052364217
62	0x3dc4248d	0.09577284
63	0xbd6c18d8	-0.05764088
64	0xbe13c9f6	-0.1443251
65	0x3cae7e2e	0.021300402
66	0xbe0332da	-0.12812367
67	0x3e39e2ab	0.18152873
68	0xbd231b6f	-0.039821085
69	0x3e1b1e93	0.15148382
70	0x3d0f5973	0.034997415
71	0xbdc25d49	-0.09490449
72	0x3e0b3033	0.13592605
73	0x3e48db12	0.19614819
74	0xbc867691	-0.016413959
75	0xbdddfe83	-0.1083956
76	0xbd75a892	-0.059975214
77	0x3d888326	0.066656396
78	0xbd857c5f	-0.065178625
79	0x3d1300ef	0.035889562
80	0xbbeb26e3	-0.0071762665
81	0xbdc717ef	-0.09721362
82	0x3a5c4271	0.00084022345
83	0xbe18c8e0	-0.14920378
84	0xbd1078b5	-0.035271365
85	0x3ca52973	0.020161366
86	0xbd283e48	-0.04107502
87	0xbd8ccda0	-0.06875157
88	0x3e0d3a3e	0.13791749
89	0xbc76e42e	-0.015069051
90	0x3cd4179a	0.02589016
91	0x3e25ab27	0.1617857
92	0x3e02a171	0.12756898
93	0xbd20e297	-0.039278593
94	0x3dc3aa0c	0.09553918
95	0x3d984ffc	0.07437131
96	0xbd98d008	-0.07461554
97	0xbd6eda69	-0.05831376
98	0x3e35976a	0.17733541
99	0xbca68d2e	-0.020330992
100	0x3bd158cb	0.006388759
101	0xbcfdd908	-0.030987278
102	0xbdbc21ec	-0.091861576
103	0xbce04c01	-0.027379991
104	0xbdc19ff0	-0.09454334
105	0x3d7dbf6c	0.061950132
106	0xbe15e5b1	-0.14638402
107	0x3da42fcc	0.08016929
108	0xbdbf3d9f	-0.09337925
109	0x3e3c59ee	0.1839368
110	0x3af6926d	0.0018811949
111	0x3d03c8ba	0.03217385
112	0xbe153d17	-0.14574085
113	0x3da8d993	0.08244624
114	0xbd48a226	-0.04898276
115	0x3e290a2a	0.16507784
116	0x3dcb48f6	0.099260256
117	0xbdf552c1	-0.11978675
118	0xbe0bf0c3	-0.13666062
119	0xbd7a85ca	-0.061162747
120	0xbba9f845	-0.0051870667
121	0x3dd2da41	0.10295535
122	0x3c9eed59	0.019400286
123	0x3d8c6c36	0.06856577
124	0xbdae5b01	-0.08513451
125	0x3d095257	0.03352579
126	0x3d26c3d5	0.040714104
127	0xbdff1c4a	-0.124565676
128	0xbd95cdaf	-0.07314622
129	0x3e1e1059	0.15435924
130	0xbc9d8414	-0.019228019
131	0xbe2b6565	-0.16737898
132	0xbdff9b2d	-0.12480769
133	0xbe3cf929	-0.18454422
134	0x3db2a2f9	0.08722491
135	0xbd41897d	-0.04725026
136	0xbe679f22	-0.22619298
137	0xbded0b56	-0.11574428
138	0xbde0ada0	-0.10970616
139	0xbd483c25	-0.048885483
140	0x3e2de811	0.16983058
141	0xbdbc2bae	-0.09188019
142	0x3d55be1b	0.05218325
143	0xbde83220	-0.113376856
144	0x3e3f338e	0.1867201
145	0xbe099505	-0.13435753
146	0xbd80a546	-0.062815234
147	0xbb8e6329	-0.004345317
148	0x3c29c29e	0.010361342
149	0xbe0b1de8	-0.13585627
150	0x3df91b99	0.12163467
151	0xbd985437	-0.07437938
152	0xbe4e4712	-0.20144299
153	0xbd95e14e	-0.07318364
154	0x3d193f49	0.03741387
155	0xbdce351c	-0.100687236
156	0x3d9e4791	0.07728494
157	0xbcaed627	-0.02134235
158	0x3e43dd48	0.19127381
159	0xbdc17f71	-0.09448136
160	0x3de6cd61	0.11269642
161	0xbe55174a	-0.20809665
162	0xbe108e9e	-0.14116904
163	0x3d1ef81e	0.03881084
164	0xbb8c306e	-0.004278234
165	0x3e39700c	0.18109149
166	0xbd53e1b6	-0.051728927
167	0xbddb575b	-0.10710021
168	0xbd9be64c	-0.07612285
169	0x3e12ed58	0.14348352
170	0x3d89a6fa	0.067213014
171	0xbd65f69d	-0.056143392
172	0x3e71d582	0.23616603
173	0x3dee2aa1	0.116292246
174	0xbe419a3d	-0.18906493
175	0xbe09649b	-0.13417284
176	0x3d9910a5	0.07473878
177	0xbde8419b	-0.11340638
178	0xbcae00af	-0.02124056
179	0x3e233f6a	0.1594216
180	0x3db182d4	0.086675316
181	0xbd4a3436	-0.0493662
182	0x3d0b708b	0.034042876
183	0x3dacbd1e	0.08434509
184	0x3e4e572c	0.20150441
185	0xbe372377	-0.17884623
186	0xbda92189	-0.082583494
187	0x3dc7c196	0.097537205
188	0xbe0987ac	-0.13430661
189	0x3d7c6c9e	0.061627023
190	0x3e2807fc	0.16409296
191	0x3deaf4e6	0.11472492
192	0xbd2cdeba	-0.042204596
193	0x3dbe7cf7	0.09301179
194	0xbda9847c	-0.082772225
195	0x3d8cabcc	0.06868705
196	0xbc4c4cf1	-0.012469516
197	0x3c9532d0	0.018212706
198	0x3d7373c8	0.05943659
199	0x3dd63ed9	0.10461206
200	0xbe2fd5bf	-0.17171381
201	0x3d720501	0.059086803
202	0xbc687ddc	-0.014190163
203	0x3e5e941f	0.21736191
204	0xbdeb59bb	-0.11491724
205	0x3d1ab674	0.037771657
206	0xbd654f45	-0.0559838
207	0x3c433cff	0.011916398
208	0xbdf6ff28	-0.12060386
209	0xbdb463bb	-0.088080846
210	0xbd25a263	-0.040438067
211	0x3de9a0fb	0.11407658
212	0xbe22dd65	-0.15904768
213	0x3e1545e5	0.14577444
214	0xbc8aa148	-0.016922608
215	0xbd458615	-0.048223574
216	0x3d7f19b7	0.062280383
217	0xbba4b8c8	-0.0050269105
218	0xbdd6b1bf	-0.10483121
219	0x3db80309	0.08984954
220	0xbe00898e	-0.12552473
221	0x3dd4efe7	0.1039732
222	0x3e14845b	0.14503615
223	0xbda3ffbd	-0.080077626
224	0x3e81968c	0.2531017
225	0xbd394057	-0.045227375
226	0x3a864e12	0.0010246655
227	0x3e479c3b	0.19493191
228	0x3cb3f115	0.021965543
229	0xbe0e86af	-0.13918565
230	0xbe012c0e	-0.12614462
231	0xbd5b7667	-0.053579714
232	0xbe031c2e	-0.12803718
233	0xbd4c172d	-0.04982679
234	0xbdea415b	-0.11438247
235	0xbdee8f75	-0.11648456
236	0x3da5395f	0.08067583
237	0x3d370193	0.044679236
238	0xbc13e673	-0.009027111
239	0x3db85bdf	0.09001898
240	0x3d7050ea	0.058670916
241	0x3e104c1e	0.14091536
242	0x3d89b18f	0.0672332
243	0x3d565de4	0.052335635
244	0x3d66c76a	0.05634252
245	0xbde389f0	-0.11110294
246	0x3db5bf7d	0.08874414
247	0xbd59488b	-0.053047698
248	0xbd6d985c	-0.05800663
249	0xbdad6665	-0.08466796
250	0xbd1d0861	-0.03833807
251	0x3d7ddf25	0.061980385
252	0xbd76f428	-0.06029144
253	0x3cec65ad	0.028857077
254	0x3dc35213	0.09537139
255	0xbd9cba08	-0.0765267

lstm1.bias_hh_l0 f4 [256]
0	0xbd20a334	-0.039218143
1	0xbd997e76	-0.07494824
2	0xbdb35bfa	-0.087577775
3	0x3e56507b	0.20929138
4	0x3e33da32	0.17563704
5	0x3e1b5fd9	0.15173282
6	0xbde95653	-0.11393418
7	0xbd5fd37e	-0.054645054
8	0xbe19ff60	-0.15038824
9	0xbde30d56	-0.11086528
10	0x3d617aa9	0.05504862
11	0x3c88672c	0.016650759
12	0xbdb30656	-0.08741443
13	0xbcb7a67c	-0.022418253
14	0xbe05dd16	-0.13072619
15	0x3da2ca79	0.07948775
16	0x3c8e3815	0.017360726
17	0xbdff93e2	-0.12479378
18	0xbd854eef	-0.06509196
19	0x3da2063d	0.07911346
20	0xbe320b3a	-0.17387095
21	0xbdca03b0	-0.098639846
22	0xbb57a736	-0.0032906062
23	0x3b145b66	0.0022637486
24	0x3ced2069	0.028946118
25	0x3d90d447	0.07071739
26	0xbc58e6c1	-0.01323861
27	0xbd214864	-0.039375678
28	0xbaf9f4c8	-0.0019070143
29	0x3cc9f36e	0.02465221
30	0x3b14593f	0.0022636203
31	0x3ccca976	0.024983149
32	0x3ddcd9c6	0.107837245
33	0x3c2db5bb	0.01060241
34	0xbd665df0	-0.05624193
35	0xbc47c33b	-0.012192543
36	0x3e0119e3	0.12607531
37	0x3d72def0	0.05929464
38	0xbcbf1a56	-0.023327988
39	0xbd020f67	-0.03175297
40	0xbdd024a8	-0.101632416
41	0xbcefeece	-0.029288676
42	0xbde769ab	-0.112994514
43	0x3a0ddb30	0.00054113846
44	0xbbafd467	-0.0053658965
45	0x3d974ae6	0.073873326
46	0xbd8cebec	-0.06880936
47	0xbdb65fa7	-0.08904963
48	0x3cba7ea4	0.022765465
49	0x3e57560d	0.2102892
50	0x3dbadb80	0.091238976
51	0xbcdce1cf	-0.026963143
52	0x3d93bf9f	0.07214283
53	0xbd5580c3	-0.05212475
54	0xbd50ff7d	-0.051024903
55	0xbd158c29	-0.03651062
56	0x3cac4929	0.02103098
57	0x3c8fb561	0.017542543
58	0xbe38b6c3	-0.18038468
59	0xbd70983b	-0.05873893
60	0x3c0c4620	0.008561641
61	0x3c38f083	0.011287811
62	0xbdd49758	-0.10380429
63	0xbda70010	-0.08154309
64	0xbc2bf2df	-0.010494917
65	0xbd6a2ae2	-0.057169802
66	0x3d16027b	0.03662346
67	0x3dd167b1	0.10224856
68	0xbd5e065d	-0.054205287
69	0xbc2aeda5	-0.010432635
70	0x3d4b67b5	0.04965945
71	0xbe04e4c3	-0.1297789
72	0xbc2cf38e	-0.010556115
73	0x3d1e60ad	0.038666416
74	0xbd9e4756	-0.0772845
75	0x3d822612	0.063549176
76	0xbdbf1e97	-0.093320064
77	0x3c0e3387	0.008679277
78	0x3d429f7f	0.04751539
79	0x3d966aca	0.07344587
80	0xbd0acd14	-0.033886984
81	0xbc7a4d67	-0.015277243
82	0x3d421cfd	0.047390927
83	0xbdcbcd62	-0.09951283
84	0xbe31e0a7	-0.17370854
85	0xbb03b572	-0.0020097164
86	0xbdd7f919	-0.105455585
87	0xbd992a62	-0.07478787
88	0x3e2a62d5	0.16639264
89	0x3d93993a	0.0720696
90	0xbdd37b55	-0.10326258
91	0x3e0b1f5a	0.13586178
92	0xbcd96794	-0.026538648
93	0xbe11d9ae	-0.14243194
94	0x3e0384f5	0.12843688
95	0xbc5269ab	-0.012842576
96	0x3c4a41df	0.012344806
97	0xbc5c06e3	-0.013429376
98	0x3e0eae84	0.1393376
99	0xbe37b638	-0.17940605
100	0x3d5a2df0	0.053266466
101	0xbdf6fcaa	-0.120599106
102	0xbe075945	-0.13217647
103	0x3d9d786e	0.07688986
104	0x3d6d0f33	0.057875823
105	0xbdbfbd85	-0.0936232
106	0xbd14e268	-0.03634873
107	0xbd4da69b	-0.050207715
108	0xbda1acc0	-0.078942776
109	0x3dbb605a	0.09149237
110	0x3ddea1f0	0.10870731
111	0x3d764de3	0.060132872
112	0x3d359fab	0.044341724
113	0xbd650f36	-0.05592271
114	0xbc254627	-0.010087526
115	0xbc6d8cea	-0.014498929
116	0x3ddcc429	0.10779602
117	0xbdf284ba	-0.11841722
118	0xbdf1af0b	-0.11800965
119	0xbd8d0623	-0.06885936
120	0x3e05b4b6	0.13057217
121	0xbd3ad2a2	-0.04561103
122	0xbd80e7ad	-0.06294189
123	0x3d6b3942	0.057427652
124	0xbd67e4b4	-0.056614593
125	0xbd6511f6	-0.055925332
126	0x3d951e5c	0.07281181
127	0xbe1bd1d8	-0.15216768
128	0x3d8d6d9e	0.069056734
129	0x3e0a89af	0.13529085
130	0xbcb2adec	-0.021811448
131	0xbe2b5677	-0.16732202
132	0xbe0954a4	-0.13411194
133	0xbd7f99a0	-0.062402368
134	0x3e118c0e	0.14213583
135	0xbdb78f07	-0.08962827
136	0xbcf1cad4	-0.029515661
137	0xbdbe6fdd	-0.0929868
138	0xbe3680eb	-0.17822616
139	0xbe76332a	-0.24042955
140	0x3b6c4927	0.0036054344
141	0xbe3871e0	-0.1801219
142	0x3e0070e4	0.12543064
143	0xbda10bf2	-0.078636065
144	0x3ccc8389	0.024965065
145	0xbda2870c	-0.079359144
146	0xbd8f9c48	-0.0701223
147	0x3ce85237	0.028359516
148	0xbe488f90	-0.19586015
149	0x3c972824	0.018451758
150	0x3d07fc18	0.0331994
151	0x3cf6868f	0.03009346
152	0xbe45f9da	-0.19333592
153	0xbe610085	-0.21972854
154	0x3e2e169d	0.17000814
155	0xbe09a47c	-0.13441652
156	0x3d1d95c8	0.03847292
157	0xbd46b202	-0.048509605
158	0x3e42f34b	0.19038121
159	0xbdb29860	-0.087204695
160	0x3e5e9059	0.21734752
161	0xbe69c0af	-0.22827409
162	0xbdf1aae2	-0.118001714
163	0xbd17d892	-0.037071772
164	0xbd9a8fc2	-0.07546951
165	0x3c195220	0.009357959
166	0xbdf87f7d	-0.121336915
167	0xbdf1e438	-0.118111074
168	0xbd9f4d2f	-0.077783935
169	0x3e234e79	0.15947904
170	0xbdd2fb4b	-0.103018366
171	0xbdb33f56	-0.08752315
172	0x3df727b0	0.12068117
173	0x3e198d24	0.14995247
174	0xbd7ae12d	-0.0612499
175	0xbe2dec3b	-0.16984646
176	0x3e53337f	0.20625113
177	0xbe250bf7	-0.16117845
178	0x3e34f59f	0.17671822
179	0x3e27603c	0.16345304
180	0xbdad6dea	-0.0846823
181	0xbe6585f6	-0.22414383
182	0xbd383364	-0.044970885
183	0x3df8a227	0.12140303
184	0x3ca721cd	0.02040186
185	0xbd88f086	-0.06686501
186	0xbe43f08d	-0.19134732
187	0x3d3669ad	0.044534374
188	0xbc0490b0	-0.008091137
189	0x3d2e9d63	0.042630564
190	0x3e1e5c57	0.15464912
191	0x3e2d9179	0.16950025
192	0x3d905508	0.070474684
193	0x3dfe4de5	0.12417201
194	0xbd9412cb	-0.07230147
195	0x3e25d982	0.16196254
196	0x3c952651	0.018206747
197	0xbdf5e7cd	-0.12007103
198	0x3d4bf37a	0.049792744
199	0x3d095bf6	0.033534966
200	0xbdae1c1d	-0.08501456
201	0xbcf818bb	-0.03028523
202	0x3da2dd48	0.07952362
203	0x3b313e94	0.0027045356
204	0xbdf14304	-0.1178036
205	0x3d6c26c6	0.057654165
206	0xbd59778c	-0.053092524
207	0x3e0a1ddb	0.13487951
208	0xbe009bc4	-0.1255942
209	0xbdb3c9e6	-0.087787434
210	0x3d429c2e	0.047512226
211	0x3b5182c1	0.0031968805
212	0xbd9bd65e	-0.07609247
213	0x3e17b8e4	0.14816624
214	0x3c44eda1	0.012019546
215	0x3d075936	0.033044063
216	0x3df3d453	0.11905732
217	0xbdece484	-0.115670234
218	0xbb7c06c8	-0.003845619
219	0x3db248d5	0.08705298
220	0xbdb09614	-0.08622375
221	0x3d1b48c5	0.037911195
222	0x3d837dd3	0.064204834
223	0xbd481427	-0.048847344
224	0x3d976d1d	0.073938586
225	0x3d867136	0.06564562
226	0xbe0db2a9	-0.13837685
227	0xbd318966	-0.043343924
228	0x3d3037f0	0.043022096
229	0xbcce68a2	-0.025196377
230	0xbde2c051	-0.11071838
231	0x3c9cf717	0.01916079
232	0xbdb54beb	-0.08852371
233	0xbdea4f0c	-0.11440858
234	0xbe0d35c5	-0.13790043
235	0xbd19c768	-0.037543684
236	0x3cb96653	0.0226318
237	0x3d63cebd	0.055617083
238	0xbdd238d1	-0.10264743
239	0x3d0932a8	0.033495575
240	0x3c487257	0.012234292
241	0x3e7515e6	0.23934135
242	0x3c9cf976	0.019161921
243	0x3e149087	0.14508258
244	0x3e356e5a	0.17717877
245	0x3d9fe79c	0.07807848
246	0x3d9996dd	0.07499478
247	0x3c190fab	0.009342114
248	0x3d924ef2	0.07143964
249	0x3d924548	0.071421206
250	0x3bf0f9cf	0.0073539983
251	0xbd82a46b	-0.063790165
252	0xbd148676	-0.036261044
253	0x3c2b7348	0.010464497
254	0x3e00e3d4	0.1258691
255	0xbcebd693	-0.02878884

lstm2.weight_ih_l0 f4 [256, 64]
0	0xbdd12ea4	-0.10213974
1	0x3d8a2813	0.06745925
2	0xbc7afb05	-0.015318637
3	0xbe48f405	-0.19624336
4	0xbd849c71	-0.06475151
5	0x3cc32db8	0.023825511
6	0xbd38b97c	-0.045098767
7	0xbdc4fc9a	-0.096184924
8	0xbd7f0576	-0.062261067
9	0xbd86f094	-0.065888554
10	0xbd931ae8	-0.07182866
11	0x3d6053ec	0.054767534
12	0xbd614054	-0.05499299
13	0xbd6d5ed3	-0.05795176
14	0xbde0d991	-0.109789975
15	0x3c3dc4af	0.011582538
16	0xbe0786fc	-0.13235086
17	0xbcfdb622	-0.030970637
18	0x3cb639a9	0.022244291
19	0xbe171307	-0.14753352
20	0xbd9203c2	-0.07129623
21	0xbd10fdab	-0.035398167
22	0xbc7ff107	-0.01562143
23	0x3dc1abc5	0.094565906
24	0xbd8c2461	-0.06842876
25	0x3da71009	0.08157355
26	0xbdd7a05a	-0.105286315
27	0xbd44c111	-0.048035685
28	0x3e6d59bb	0.2317876
29	0x3da6330b	0.081152044
30	0xbdf763cd	-0.12079582
31	0x3e0ac457	0.1355146
32	0x3df4796f	0.11937224
33	0xbb998bd6	-0.004685859
34	0xbd06b429	-0.032886658
35	0x3bac6f44	0.0052622873
36	0x3d503406	0.050830863
37	0x3caaeb12	0.020864043
38	0xb93a805b	-0.00017786158
39	0xbe1b2867	-0.15152131
40	0x3da15de9	0.0787924
41	0xbd31a471	-0.043369714
42	0xbdfb4915	-0.12269799
43	0x3d5f9d44	0.05459334
44	0x3de121c3	0.10992768
45	0xbdf429bb	-0.11922022
46	0xbc01ec96	-0.007929942
47	0x3dfb68a6	0.122758195
48	0x3ca74b3c	0.020421617
49	0x3d3aed0b	0.045636218
50	0xbcc7c10e	-0.024384048
51	0x3c744e89	0.014911302
52	0xbe20867c	-0.15676302
53	0xbd8e7528	-0.069559395
54	0xbbf34706	-0.007424238
55	0x3d00d89e	0.031456582
56	0x3dd8848c	0.10572156
57	0x3da38e85	0.07986168
58	0xbd0672e7	-0.032824423
59	0x3dc5c7fb	0.09657284
60	0xbdcbc19b	-0.09949037
61	0x3ca8ef4a	0.020621914
62	0x3de9dc78	0.11419004
63	0xbdf8d36d	-0.12149701
64	0xbdd4f14a	-0.10397585
65	0x3d1475e4	0.03624524
66	0x3e5de518	0.21669424
67	0x3d9adabd	0.07561252
68	0x3dc36e43	0.09542515
69	0xbd9fe28c	-0.07806882
70	0x3db7ef82	0.08981229
71	0xbe5fe5d3	-0.21865015
72	0xbb84f7c9	-0.0040578586
73	0xbe45a3a2	-0.19300702
74	0x3de03b5f	0.10948824
75	0xbbf538d1	-0.0074835797
76	0x3cf4a04e	0.029861595
77	0xbaadeae2	-0.0013268853
78	0xbdd929f7	-0.10603707
79	0x3db4394f	0.08799993
80	0x3e0acf15	0.13555558
81	0xbe000691	-0.12502505
82	0x3df1bf6b	0.11804088
83	0xbd7ab864	-0.061211005
84	0x3c28f7e6	0.01031301
85	0x3de82251	0.1133467
86	0xb9c85841	-0.00038212727
87	0xbdc221d3	-0.09479108
88	0xbe1b09b2	-0.15140417
89	0xbda0d7c6	-0.078536555
90	0xbe37f4e5	-0.17964514
91	0x3cc7f856	0.024410408
92	0x3d8080df	0.0627458
93	0x3e3df20e	0.18549368
94	0x3e00336f	0.1251962
95	0xbcc96176	-0.024582606
96	0xbe2a2b3f	-0.1661806
97	0x3e121ee0	0.1426959
98	0x3db10662	0.086437955
99	0x3db8d128	0.090242684
100	0x3e4749c3	0.19461732
101	0xbe04d85f	-0.12973164
102	0x3e35b9b5	0.17746623
103	0x3e13a066	0.14416656
104	0xbd90569c	-0.070477694
105	0xbdb0bb58	-0.08629483
106	0xbdf15216	-0.11783235
107	0x3cad1e45	0.021132598
108	0xbc96379a	-0.01833706
109	0xbde486c9	-0.11158521
110	0xbdd47e8a	-0.10375698
111	0xbc016d30	-0.0078995675
112	0x3c86d6e6	0.016459893
113	0x3eb55063	0.35412893
114	0x3bc9f352	0.0061630392
115	0x3de8fa81	0.11375905
116	0x3d949c69	0.07256395
117	0x3ca12a3b	0.019673457
118	0x3e5c455a	0.2151083
119	0xbd6f5ba5	-0.05843701
120	0xbdbe58ba	-0.09294267
121	0x3e34c393	0.1765273
122	0x3d30495c	0.04303871
123	0x3d090378	0.033450574
124	0x3df77e7b	0.12084671
125	0xbd2fc233	-0.042909812
126	0xbe1db798	-0.15402067
127	0xbd8cacd3	-0.06868901
128	0xbcc2733a	-0.023736585
129	0xbd4e2da3	-0.05033649
130	0x3de22376	0.1104192
131	0x3d47ffb8	0.048827857
132	0x3ce61a75	0.028088788
133	0x3e00e491	0.12587191
134	0xbd4e5345	-0.05037238
135	0xbd8f6854	-0.07002321
136	0x3ddf5e3a	0.10906644
137	0x3c9933cf	0.018701462
138	0x3c52780a	0.012846002
139	0x3c9aaeed	0.01888224
140	0x3d5946d9	0.05304608
141	0x3c161884	0.009161118
142	0xbdf32ebb	-0.118741475
143	0x3d838539	0.064218946
144	0xbdc8f5bb	-0.09812494
145	0x3e001571	0.12508179
146	0xbd4ef013	-0.05052192
147	0xbdfa5429	-0.122230835
148	0xbc0ba567	-0.008523322
149	0x3e048737	0.12942205
150	0xbde47fb0	-0.11157167
151	0x3dfefe9d	0.124509074
152	0x3c9db37d	0.019250626
153	0x3d49167b	0.049093705
154	0xbd630695	-0.0554262
155	0xbcf57cff	-0.02996683
156	0xbd561044	-0.052261606
157	0x3e1524a4	0.14564759
158	0x3c2d8472	0.010590659
159	0x3e20db46	0.15708646
160	0xbe6ad14b	-0.22931401
161	0xbc82079b	-0.015872767
162	0xbd54826f	-0.051882204
163	0x3db63740	0.08897257
164	0xbda26583	-0.07929518
165	0x3a6bc877	0.000899441
166	0x3c4b4f11	0.012408988
167	0xbc2c2404	-0.010506634
168	0x3d42ccc3	0.047558557
169	0xbde72d9d	-0.11287997
170	0x3e133c77	0.14378534
171	0x3d25daf7	0.040492024
172	0xbe36470a	-0.17800537
173	0x3d167eab	0.036741894
174	0x3e019786	0.12655458
175	0x3e36ca80	0.17850685
176	0xbdc6746f	-0.09690177
177	0x3e3d9c19	0.18516578
178	0xbc99178c	-0.018687986
179	0xbd8d920a	-0.0691262
180	0xbdb10d6a	-0.08645137
181	0x3e0cc906	0.1374856
182	0x3ddc85c2	0.107677
183	0xbdf6d802	-0.12052919
184	0x3c65d2f3	0.014027345
185	0x3e0a128d	0.13483639
186	0x3b9858f7	0.0046492773
187	0x3c39f301	0.011349441
188	0x3e6657d8	0.22494447
189	0x3de0e2ea	0.109807804
190	0xbdf8412b	-0.12121805
191	0xbddc046c	-0.10743031
192	0x3d23dd4c	0.040005967
193	0xbe190eaa	-0.14947
194	0x3e321639	0.1739129
195	0x3e77afe1	0.24188186
196	0xbd4b4365	-0.04962482
197	0x3de9f3df	0.11423468
198	0x3a592186	0.00082828884
199	0xbd83dbe3	-0.064384244
200	0x3dfafeaa	0.122556046
201	0xbcd86356	-0.026414555
202	0x3d07dd37	0.03316995
203	0x3e243e7e	0.16039464
204	0xbe033cfb	-0.12816231
205	0x3d8bb2a5	0.06821183
206	0xbe233bc7	-0.15940772
207	0x3d8ecd23	0.069727205
208	0x3d733862	0.059379943
209	0x3e18aae5	0.14908941
210	0x3abc9251	0.0014386867
211	0xbc02d142	-0.007984461
212	0x3e1ab3f7	0.15107714
213	0x3e26d43a	0.16291896
214	0x3ce9869f	0.028506575
215	0x3dbbee5c	0.09176323
216	0x3d26e2c4	0.040743604
217	0xbc3ca909	-0.0115149105
218	0xbd859dbc	-0.06524226
219	0x3d33d6f1	0.043906156
220	0xbe29e00a	-0.1658937
221	0x3e64b6cf	0.22335361
222	0xbd5c2b75	-0.05375238
223	0x3db8f3c8	0.090308726
224	0xbe22caac	-0.15897626
225	0x3e18df8e	0.1492903
226	0x3b61db81	0.003446311
227	0xbbd7b80a	-0.0065832185
228	0x3df70ea5	0.1206334
229	0xbe1eee81	-0.1552067
230	0xbcc52e06	-0.024069797
231	0x3daf5741	0.08561564
232	0x3e5436d1	0.20724036
233	0xbe694f65	-0.22784193
234	0x3e00c43d	0.12574859
235	0x3e1a528a	0.15070549
236	0xbe4430fb	-0.1915931
237	0xbe13a8b4	-0.14419824
238	0x3e48bc41	0.19603063
239	0xbcdd7868	-0.027034953
240	0x3c864ad7	0.016393108
241	0x3e4e3d90	0.20140672
242	0xbdcf3d1c	-0.101190776
243	0xbd9dcf9b	-0.07705613
244	0xbd978f9d	-0.07400439
245	0xbaff81ad	-0.0019493602
246	0x3e4eb987	0.2018796
247	0xbd0d93e2	-0.03456486
248	0xbde24a02	-0.11049272
249	0x3b97af35	0.0046290406
250	0x3e527686	0.20553026
251	0x3cba50ef	0.02274367
252	0x3df8f7ca	0.12156637
253	0xbdcf92c9	-0.10135419
254	0xbe19466e	-0.14968273
255	0xbb237581	-0.0024941864

lstm2.weight_hh_l0 f4 [256, 64]
0	0xbbef3114	-0.0072995517
1	0xbdb2978a	-0.0872031
2	0x3e0b20e4	0.13586766
3	0xbd82152c	-0.063516945
4	0x3da9fa3e	0.08299683
5	0x3d4f697b	0.050637703
6	0xbe1819f9	-0.14853658
7	0x3d4f5e81	0.050627235
8	0x3b9059b1	0.0044052233
9	0xbb889618	-0.004168283
10	0xbca8995c	-0.02058094
11	0x3d94a28f	0.07257568
12	0xbdecd627	-0.11564284
13	0xbdf0cfc9	-0.11758382
14	0xbd640e9b	-0.05567799
15	0x3e00f453	0.12593202
16	0xbe1afc50	-0.15135312
17	0x3e16eee2	0.14739564
18	0x3db66a70	0.0890702
19	0xbd7cd85e	-0.06172978
20	0x3e377ec0	0.17919445
21	0x3ca7ea70	0.02049753
22	0x3e1c5399	0.15266265
23	0x3deecb2b	0.11659845
24	0xbd481398	-0.04884681
25	0xbd7b26bc	-0.061316237
26	0x3d93ea0a	0.07222374
27	0xbdca4463	-0.09876325
28	0x3d187daa	0.037229218
29	0xbd94f055	-0.07272402
30	0xbca3257b	-0.019915333
31	0xbd06cd5e	-0.032910697
32	0xbdea2bc7	-0.11434131
33	0x3d9b631e	0.075872645
34	0xbda54002	-0.08068849
35	0xbcf4de91	-0.029891284
36	0x3dbef1a7	0.09323435
37	0xbdcaa920	-0.09895539
38	0xbdc4d689	-0.09611232
39	0x3d5fea62	0.054666884
40	0x3e03c53c	0.12868208
41	0xbe187760	-0.14889288
42	0x3dbd225b	0.092350684
43	0x3d2cdf47	0.04220512
44	0xbdd0b038	-0.10189861
45	0xbd5908e9	-0.052987013
46	0x3e260a98	0.16214979
47	0xbdbe9600	-0.09305954
48	0xbd92f83f	-0.071762554
49	0x3e72d9a3	0.23715834
50	0x3c6e149e	0.014531283
51	0x3d62cffe	0.055374138
52	0x3dd81aec	0.1055201
53	0x3d016dd0	0.031598866
54	0x3d3d21c3	0.046174776
55	0xbdfd2f1c	-0.12362501
56	0x3ce68cbb	0.028143277
57	0x3e3169d1	0.17325522
58	0xbe06ac2b	-0.13151614
59	0xbdb3e445	-0.08783773
60	0x3d17166d	0.03688662
61	0x3db4fe1d	0.08837531
62	0xbd28de0a	-0.041227378
63	0xbe5ef04f	-0.21771358
64	0x3dae89d1	0.0852238
65	0x3e104888	0.14090168
66	0x3d1ac260	0.037783027
67	0xbcdfffac	-0.027343594
68	0xbc7031a4	-0.014660273
69	0x3da23dd4	0.07921949
70	0x3e23045a	0.15919629
71	0xbca426c9	-0.020038025
72	0xbda57c64	-0.08080366
73	0xbde14ec2	-0.1100135
74	0x3d561ee8	0.05227557
75	0x3da53ef2	0.080686465
76	0x3dd4baea	0.103872135
77	0xbcafc542	-0.021456365
78	0xbe2a5a3b	-0.16635983
79	0xbca0bba5	-0.019620726
80	0xbe294d94	-0.165335
81	0x3c8eada7	0.017416788
82	0x3d3f0cff	0.046643253
83	0x3d107034	0.035263255
84	0x3ec0c9db	0.37654004
85	0xbd66f2c4	-0.056383863
86	0xbb4f89c8	-0.0031667817
87	0x3d568825	0.05237593
88	0xbd4aff5e	-0.049559943
89	0xbe057d6b	-0.13036124
90	0x3dcd686e	0.10029684
91	0xbe5410fd	-0.20709606
92	0xbdf0df0f	-0.11761295
93	0xbe35e2ff	-0.17762373
94	0xbe25499b	-0.1614136
95	0xbdd070d3	-0.101777695
96	0x3e5dceb7	0.21660887
97	0xbe694892	-0.2278159
98	0xbe1b8fd8	-0.15191591
99	0xbd8daf92	-0.06918253
100	0xbd6ac6bd	-0.057318438
101	0xbdfdac89	-0.12386424
102	0xbd6d67be	-0.057960264
103	0x3e498f54	0.19683582
104	0x3e110d71	0.14165284
105	0x3e0285f9	0.12746419
106	0xbd0f6052	-0.035003968
107	0xbda11325	-0.0786498
108	0xbd47acae	-0.048748665
109	0x3d907b32	0.07054748
110	0x3d055f7e	0.03256177
111	0xbd7a27d4	-0.06107314
112	0xbde6b298	-0.11264533
113	0x3e4c8a98	0.19974744
114	0xbe064df8	-0.1311568
115	0xbcfb94d5	-0.030710617
116	0xbd8b65ff	-0.068065636
117	0x3e5b58d2	0.21420601
118	0x3e07b026	0.13250789
119	0x3e19ff15	0.15038712
120	0x3e365386	0.17805299
121	0xbc2c8052	-0.010528641
122	0xbc867392	-0.01641253
123	0xbde43073	-0.111420535
124	0xbb97565b	-0.0046184487
125	0xbd60a209	-0.05484203
126	0x3cf9c2f4	0.030488469
127	0xbd444305	-0.047915477
128	0xbddb1368	-0.10697061
129	0xbdcb4025	-0.09924344
130	0xbe02e432	-0.12782362
131	0x3c86d5a3	0.016459292
132	0xbd2fc1f2	-0.04290957
133	0x3e3d542c	0.1848914
134	0x3cd30332	0.02575836
135	0x3dceec4e	0.10103665
136	0x3d8bfe04	0.06835559
137	0x3c1740d4	0.009231765
138	0xbe0faaa1	-0.14029934
139	0xbd201a8b	-0.039087813
140	0x3d8a2477	0.06745236
141	0x3ca7888d	0.020450855
142	0xbe0938be	-0.13400552
143	0xbdc5b74a	-0.096541
144	0x3c6f9939	0.0146239335
145	0xbe226e01	-0.15862276
146	0x3da9701d	0.08273337
147	0xbe209b97	-0.15684353
148	0x3df9fe16	0.12206666
149	0xbb99a9eb	-0.0046894453
150	0x3de00e4c	0.10940227
151	0xbc7f0d30	-0.015567109
152	0x3dd33e43	0.1031461
153	0x3d5ede57	0.05441126
154	0xbe26d4b6	-0.1629208
155	0xbd06d2f1	-0.032916013
156	0x3d442dc8	0.047895223
157	0x3c46afa6	0.012126839
158	0xbd9c4ac6	-0.076314494
159	0x3cfbebda	0.030752111
160	0xbdab1b0d	-0.08354769
161	0xbdf4fd0b	-0.119623266
162	0x399bfc70	0.00029751984
163	0xbd5646c8	-0.052313596
164	0x3d32f1b6	0.043687545
165	0x3d1e86a4	0.038702622
166	0x3e2ba87a	0.16763487
167	0x3bdf0f79	0.0068072644
168	0xbd160962	-0.036630042
169	0xbccf388d	-0.02529552
170	0x3e00bca8	0.12571967
171	0xbd460051	-0.048340145
172	0xbd7ca057	-0.06167635
173	0x3c5921e0	0.013252705
174	0x3d8bc3eb	0.06824478
175	0x3dbc87b3	0.0920557
176	0x3a9f936b	0.0012174671
177	0xbe148dde	-0.14507243
178	0xbe36ed21	-0.17863895
179	0x3d96b4d3	0.07358708
180	0xbac17710	-0.0014760215
181	0x3c54f15d	0.012996999
182	0x3cb24040	0.021759152
183	0x3d5e63cb	0.05429439
184	0x3d6ee7ad	0.058326412
185	0xbda734dd	-0.0816438
186	0xbda744ca	-0.08167417
187	0xbdbf7e8f	-0.09350311
188	0xbd313504	-0.04326345
189	0xbd821cbb	-0.06353136
190	0xbac4358f	-0.0014969575
191	0x3db97dad	0.09057174
192	0xbdf203dd	-0.11817143
193	0xbcefc7c9	-0.02927007
194	0xbd9187cd	-0.0710598
195	0xbd73217f	-0.059358116
196	0xbdcc89a6	-0.09987192
197	0x3e63e995	0.22257073
198	0x3e4f0ab5	0.20218928
199	0x3c76afec	0.0150565915
200	0x3d69bb2e	0.057063274
201	0x3dc4f826	0.09617643
202	0xbd32b92b	-0.04363362
203	0x3d7a0e86	0.061049007
204	0x3df90613	0.12159362
205	0xbcaf11e9	-0.021370845
206	0xbbbc63d5	-0.0057492056
207	0xbdafb70c	-0.08579835
208	0xbe10e590	-0.14150071
209	0x3d28bdf2	0.04119677
210	0x3dbe7b18	0.09300822
211	0xbd897f59	-0.06713743
212	0x3de02767	0.109450154
213	0x3ce46bc0	0.02788341
214	0xbd88a8a4	-0.06672791
215	0x3da76cd1	0.08175052
216	0xbcf74d80	-0.030188322
217	0xbc68b201	-0.014202596
218	0xbddb46a8	-0.10706836
219	0x3e6a2aff	0.22867964
220	0xbd518e99	-0.051161382
221	0x3d3cf040	0.046127558
222	0xbe07d335	-0.13264163
223	0x3e0eb773	0.13937168
224	0xbe03a927	-0.12857495
225	0xbe0015c1	-0.12508298
226	0xbd58f9e6	-0.052972697
227	0xbdc451a5	-0.09585885
228	0xbd63b456	-0.055591904
229	0x3e137797	0.14401089
230	0xbc7ce9b2	-0.015436577
231	0x3dafc62f	0.085827224
232	0x3df8cce5	0.121484555
233	0x3dcdce4c	0.10049114
234	0xbd373c37	-0.04473516
235	0x3cf434ed	0.029810393
236	0xbdae8332	-0.08521117
237	0x3dbe027b	0.09277817
238	0x3dab1f32	0.083555594
239	0xbd95ce36	-0.07314722
240	0x3a40a070	0.0007348126
241	0x3dcaa42f	0.09894597
242	0xbe0ba82f	-0.13638376
243	0x3e10acd8	0.14128435
244	0xbc9f71f2	-0.019463513
245	0x3de5c048	0.11218315
246	0x3d8a8151	0.067629464
247	0xbce7a4b4	-0.028276779
248	0x3e6120d8	0.21985185
249	0x3dc17541	0.094461925
250	0xbe282c36	-0.16423115
251	0x3d6cf2ff	0.057848927
252	0x3ce9b7a3	0.028529948
253	0x3dfc4e33	0.12319603
254	0xbd881aee	-0.066457614
255	0x3d5d9fc9	0.05410746

lstm2.bias_ih_l0 f4 [256]
0	0xbba6cfcd	-0.0050906898
1	0x3cea5d99	0.028609084
2	0xbdc31247	-0.095249705
3	0xbc86c4fc	-0.016451351
4	0x3e0c3df0	0.13695502
5	0x3c81cc52	0.015844498
6	0x3ba89065	0.0051441663
7	0x3c843218	0.016137168
8	0xbd9eaa40	-0.07747316
9	0x3dadbc70	0.08483207
10	0x3d2a3251	0.04155189
11	0xbdbf8c17	-0.09352892
12	0x3dab3276	0.08359234
13	0x3deb9cf0	0.11504543
14	0x3dd32409	0.103096075
15	0xbe0f3a12	-0.13986996
16	0x3df71ecb	0.1206642
17	0x3cb452b8	0.0220121
18	0xbdaf44d2	-0.08558048
19	0x3d93714e	0.071993455
20	0x3dfe107f	0.1240549
21	0xbddcab70	-0.107748866
22	0x3c954551	0.01822153
23	0x3da533f4	0.0806655
24	0x3d563cdd	0.052304137
25	0x3dbd0a18	0.09230441
26	0x3d6bdd50	0.057584107
27	0x3e85cec1	0.26134303
28	0x3b2d8e35	0.0026482467
29	0x3d49de15	0.04928406
30	0x3e7f81b5	0.24951823
31	0xbbaf65ea	-0.0053527253
32	0xbd4018f4	-0.046898797
33	0x3d21ff09	0.03954986
34	0x3dfca043	0.12335255
35	0xbdda8484	-0.106698066
36	0x3d084c52	0.03327591
37	0x3dc30f5b	0.09524413
38	0xbe28145c	-0.16414016
39	0x3dbce6f9	0.09223742
40	0x3d556d9f	0.052106496
41	0xbd49ac43	-0.049236547
42	0x3dbac5fa	0.09119792
43	0x3de2bf85	0.11071686
44	0xbe10236b	-0.14076011
45	0x3d4bf336	0.04979249
46	0x3d841bae	0.06450592
47	0x3c7829fc	0.015146729
48	0x3df9ce29	0.12197525
49	0xbc25e23c	-0.010124739
50	0x3e16d2a8	0.14728796
51	0xbd805b01	-0.062673576
52	0x3e489486	0.19587907
53	0x3cfab178	0.030602202
54	0x3d6234b9	0.05522606
55	0x3dfa8589	0.12232501
56	0x3b831ba7	0.004001099
57	0x3c425384	0.011860732
58	0xbd31f430	-0.043445766
59	0xbce88c39	-0.028387176
60	0xbdc34675	-0.09534923
61	0xbb2dd5b4	-0.0026525082
62	0xbdb4ab9c	-0.088217944
63	0x3c1b1147	0.009464568
64	0x3e6cd194	0.23126823
65	0x3e6ffd43	0.23436455
66	0x3c16daff	0.009207486
67	0x3e083669	0.13302006
68	0xbe17189f	-0.14755486
69	0xbd9662b3	-0.07343044
70	0xbe064cb9	-0.13115205
71	0x3d176751	0.036963765
72	0x3e4730ed	0.19452257
73	0xbc128138	-0.008941941
74	0x3d324cd5	0.043530304
75	0x3ced06b0	0.028933853
76	0x3d9703cc	0.07373771
77	0xbd034335	-0.032046515
78	0xbd0d90a5	-0.034561772
79	0xbbfa27f2	-0.0076341564
80	0x3ead9f7b	0.33910736
81	0x3d85d4e3	0.065347455
82	0x3dbb8056	0.091553375
83	0xbd8fffa1	-0.07031179
84	0x3d9b1467	0.07572251
85	0x3e14413a	0.14478007
86	0x3e6804ce	0.22658083
87	0x3e2fca7c	0.17167085
88	0xbc25b2f6	-0.010113468
89	0xbc176050	-0.009239271
90	0xbc77b819	-0.015119576
91	0xbdbd8a59	-0.09254903
92	0x3e1a0092	0.1503928
93	0x3e096522	0.13417485
94	0x3e308112	0.17236736
95	0x3d8600fe	0.06543158
96	0x3e5fdbaf	0.21861146
97	0x3d1f6ea2	0.038923867
98	0x3e04ec07	0.12980662
99	0xbbae5eb8	-0.00532135
100	0x3df205d9	0.118175216
101	0xbdc36a28	-0.09541732
102	0xbd9d447a	-0.076790765
103	0x3df0a541	0.1175027
104	0xbda2c39e	-0.07947467
105	0x3d21e8e8	0.039528757
106	0x3e008a86	0.12552842
107	0xbbdb72c1	-0.0066970293
108	0xbd988b72	-0.07448472
109	0x3de61d1c	0.11236021
110	0xbd10f355	-0.03538831
111	0x3d6dca1f	0.058054086
112	0x3d510545	0.051030416
113	0x3e3654f4	0.17805845
114	0xbdd29b60	-0.10283542
115	0x3d9be308	0.07611662
116	0x3e2c6304	0.16834646
117	0x3d1f6ccc	0.038922116
118	0xbe181281	-0.14850809
119	0x3cc43b44	0.023954041
120	0xbd6e68ca	-0.058205403
121	0xbdc68dd0	-0.09695017
122	0xbc7f4fbc	-0.015582975
123	0xbc802805	-0.015644083
124	0x3e46691b	0.19376032
125	0x3e00fd26	0.12596568
126	0xbd950bb3	-0.07277622
127	0x3e42d19c	0.19025272
128	0x3d3cd1fc	0.046098694
129	0xbd2ac922	-0.04169572
130	0x3d15d29f	0.036577817
131	0xbd806aeb	-0.06270393
132	0x3b3b5086	0.0028581931
133	0x3aa3f319	0.0012508362
134	0xbd7f9795	-0.06240042
135	0xbcb1ffef	-0.021728484
136	0x3cc8cd0d	0.024511838
137	0xbe1cd5a9	-0.1531588
138	0x3cb2e7ce	0.021839049
139	0x3ceb5a22	0.028729502
140	0xbdc8c9dc	-0.098041266
141	0x3d9cbba4	0.07652977
142	0xbda02b8c	-0.07820806
143	0x3d06c16c	0.032899305
144	0xbe229919	-0.15878715
145	0x3d8df239	0.06930966
146	0xbce0c20e	-0.027436282
147	0xbe22003a	-0.15820399
148	0x3e2e1d92	0.17003468
149	0x3d5ece27	0.05439582
150	0x3e0bc31a	0.13648644
151	0x3e15c399	0.14625396
152	0xbd93f710	-0.07224858
153	0x3d784eed	0.060622144
154	0xbdc7b908	-0.09752089
155	0x3df687f9	0.120376535
156	0xbd86a325	-0.06574086
157	0x3d401421	0.046894196
158	0xbe533e84	-0.20629317
159	0xbdcb384b	-0.099228464
160	0xbda9c5f0	-0.08289707
161	0xbe03a7c6	-0.12856969
162	0xbdede52d	-0.116159774
163	0xbdcab407	-0.09897619
164	0xbd174d26	-0.03693881
165	0xbd104b5d	-0.035228122
166	0xbb8a58ab	-0.004221996
167	0x3c38fa48	0.01129014
168	0x3cc006c6	0.02344073
169	0x3dce1435	0.10062448
170	0x3c8b72d6	0.017022531
171	0x3db125a7	0.0864976
172	0x3da79dc9	0.08184392
173	0xbd910841	-0.070816524
174	0xbd7f8ed6	-0.06239208
175	0x3da4df8b	0.0805045
176	0x3829366d	4.0343428e-05
177	0x3e4205f1	0.18947579
178	0x3de7dda1	0.11321569
179	0xbe1b9cb7	-0.151965
180	0x3dbaccc1	0.09121085
181	0xbe1dcaed	-0.15409441
182	0x3df41458	0.11917943
183	0xbd8717ea	-0.06596358
184	0xbd61eecc	-0.055159375
185	0x3db92ea5	0.090421
186	0x3d012fdc	0.031539783
187	0x3da1ed56	0.07906596
188	0x3d782fe9	0.060592566
189	0xbca0509a	-0.019569684
190	0xbd58003c	-0.0527346
191	0xbdc8086a	-0.0976723
192	0x3dfacf0d	0.12246523
193	0xbe29c3f0	-0.1657865
194	0xbdc202fe	-0.09473227
195	0xbdf66aef	-0.12032115
196	0xbc88bd89	-0.01669194
197	0x3e434388	0.1906873
198	0xbc4c8308	-0.012482412
199	0xbddce5d7	-0.10786026
200	0xbdab2c52	-0.08358063
201	0x3e1eeb74	0.15519506
202	0x3e2ea3c0	0.17054653
203	0xbd99cabc	-0.07509372
204	0x3dad7780	0.084700584
205	0x3cc12906	0.023579132
206	0x3c8b2f06	0.016990196
207	0xbd6b3177	-0.05742022
208	0x3dfac371	0.12244309
209	0x3e0bd973	0.13657169
210	0xbd9b7d29	-0.07592232
211	0xbe2a751b	-0.16646235
212	0x3d6078fb	0.054802876
213	0x3d91840d	0.07105265
214	0x3c96717d	0.018364662
215	0x3d717722	0.058951505
216	0xbd44eb5f	-0.04807603
217	0x3c6cad1e	0.014445571
218	0x3e6cb62c	0.23116368
219	0x3debd5ed	0.115154125
220	0xbd80650a	-0.06269272
221	0x3d5c6b1c	0.053813085
222	0x3dec6374	0.11542407
223	0x3d09ec04	0.033672348
224	0x3d9cc370	0.07654464
225	0x3e2d62a6	0.16932163
226	0x3e8052ac	0.25063074
227	0x3df074dd	0.1174104
228	0x3e192c7e	0.14958379
229	0x3e3890ca	0.18023983
230	0xbe1f37ab	-0.1554858
231	0x3de6eaa4	0.11275223
232	0xbd5a1b7a	-0.05324886
233	0x3b805a6e	0.00391703
234	0x3e5964c9	0.21229853
235	0x3e52bbf9	0.20579518
236	0xbdadb688	-0.08482081
237	0x3d538dfd	0.051649082
238	0xbc6b57be	-0.014364181
239	0x3d939772	0.0720662
240	0x3de56c71	0.11202324
241	0x3e046f4e	0.12933084
242	0x3e2030fa	0.15643683
243	0x3aa3d90e	0.00125006
244	0x3e28dd81	0.16490747
245	0xbbbdbdfa	-0.0057904692
246	0x3e57b0ca	0.21063533
247	0x3dfcd721	0.1234572
248	0x3e819f4f	0.25316855
249	0xbc6228e1	-0.013803692
250	0x3cc413c0	0.023935199
251	0xbbe9eb55	-0.0071386495
252	0x3e11a7ad	0.1422412
253	0x3dc6ba4f	0.09703504
254	0xbb460590	-0.0030215718
255	0x3e164e0c	0.1467821
