saved_model/DAP_Model_TLF.pt (torch, 230994 bytes, 12 tensors)

lstm1.weight_ih_l0 f4 [256, 3]
00000000: 8373 50be ff83 67be 0d60 d8bd 6b51 1a3e
00000010: 354e 76bd 1a98 e23c 37e1 2b3d 922d 863d
00000020: 6152 8fbe d6c9 1bbe 2c65 5ebd ad9b 8ebd
00000030: ff4c 783b db83 cdbd 5f2e 483d e6b0 033e
00000040: 6fd0 f33d 375d 79be 455d 093e ec67 06bd
00000050: 5899 433d 2521 2b3e ae09 33bc 2e23 3ebd
00000060: 28a2 0b3d cd70 db3d 4c3e a03d 8e83 37be
00000070: 948b 65be 5d74 4e3e cb27 b7bd fa61 94bd
00000080: 7270 913d 1eaa 423d 8164 fcbd 19b4 0ebd
00000090: 3845 f53d ccc3 8d3c 6a86 3d3e 2fc8 bc3d
000000a0: ebb6 9dbd 451b 753d 99fc a43c 04bb b4bd
000000b0: 72e3 85bd cf3e cb3c 1557 84bc 7807 4bbe
000000c0: ac37 3a3e 5134 903d af1d 683e ef24 973d
000000d0: 3832 22bd ce02 3abe 0c71 bd3d 3868 e6bc
000000e0: ad70 20be 1ad9 25bc 1293 b83a 52a5 0a3e
000000f0: 25e1 5cbe 976b 30bc 57e4 98bd d5c5 053d
00000100: 56a1 033e 9701 d93c 0038 1ebc d621 5d3c
00000110: 0627 103d 28fe a9bb 325d 59bd 8c08 ad3d
00000120: 3219 193e d4f4 d6bc 58a0 333e 527d 913d
00000130: a6cd a5bd 713a a4be cba9 85bd 6b59 73bd
00000140: ea9b 8abe 634f 0ebd ab77 b83d 7086 093c
00000150: dec3 213e 0bbd f6bc a61e 453d 0766 20be
00000160: 8c86 28bd b9cc 513d d8ff 8ebc 5c00 bd3d
00000170: 5cd5 d7bc 9097 0f3e 52c0 af3d dee5 523e
00000180: e04c 26be dc4c 463d a5c3 afbd 80f4 08be
00000190: a7df 403d afb9 a73d 1f32 9bbd 4afe b23c
000001a0: 11a0 a6bc c3a0 353e 6e20 7bbd 82b9 2b3d
000001b0: 1a3b 8bbd 6773 2cbe a659 0c3e 1651 943d
000001c0: e9b8 45bb c323 c1bd 2638 073e 95d7 8d3d
000001d0: 2cef f0bd ac16 df3d 4990 53bd 43e0 5abe
000001e0: b2ca 273e 39aa 15bc 9ce8 4d3e bb13 153d
000001f0: eb26 1a3e 0742 17be 0abe e53d 31f7 2dbd
00000200: 211d fc3a 06f9 fabb 20ab 4ebd 5c07 d43d
00000210: b059 1fbe 451b 1fbe 77a1 12be 67c9 5cbc
00000220: 1d7b e83d 7f1b d8bd ee4a 5cbe 2123 2bbd
00000230: b8eb 793c e2bb 48bc 16f4 41bc 2231 143e
00000240: 2d60 50bb e6b8 e63d affa cdbd e206 873d
00000250: 582e 8f3c b09a 4e3e 87e2 a93d 071f fc3d
00000260: 1c4d 3d3d 0f93 663d 7911 123e 2677 783e
00000270: e48a 88bc d8b6 8b3d 3bfe 933b 3054 af3c
00000280: 6043 a23d d743 68bd 7a8d 1c3c 7514 b3bd
00000290: 8621 423d 0bc7 bfba e612 5fbd ff59 92be
000002a0: 04cd d6bc 1825 08be 57a7 6fbc 4b0a bb3d
000002b0: b99d 7e3c d506 9bbc 8446 c43c d278 9c3c
000002c0: c648 23bc 3933 f13c 02d3 acbc 26f6 343c
000002d0: c30b 75bd 5584 67be 5d55 483d f191 1a3e
000002e0: 5b67 9e3d f00b 78be 46c4 c9bd 076f 99bd
000002f0: c168 e63d 9042 283e 8cb5 71bd 49ab 88bd
00000300: 17ee acbd c9ad 7bbe 1354 ffbd c046 393e
00000310: 5896 ea3b 920f 773b 91bd 5cbc 9162 693d
00000320: 3865 63be defb 48bd 1c91 b6ba 0d3f a13d
00000330: 3a87 3abd 67b6 423d 446e 213d d2c3 1c3e
00000340: ff99 c03d 5f59 16be 644b 9d3d 5ebf 013e
00000350: 6afc 88bd 62af 463d 8340 04bd 622a 87bd
00000360: 4b96 8b3d d4b8 173e c3ff 263e 08dd ebbc
00000370: aabc e8bd 4ebe b5bc fe0b d1bd f004 aebc
00000380: ffae f23c ddf8 91bb 7efe 04be 696b 96bd
00000390: 6456 8abd 7f3c 2cbe 3a48 1c3c ed80 9fbd
000003a0: 0b1d 48be e2c4 c73d 4ca3 cabd 40ef 03bd
000003b0: 5573 8abd 5d97 283d b702 04bc bca1 35be
000003c0: 2819 ddbc 4ad7 333e 0799 233d 2c0b 9ebd
000003d0: 7c22 60bd bac5 babd 5ef5 c5bb 7e22 6ebd
000003e0: 57e9 3fbe 1b48 0b3e 984a fdbd 8303 813e
000003f0: 17de 35be 69d5 b53b 6e0f f1bd e880 553d
-0.20356564 -0.22608946 -0.10565195 0.15070121 -0.060133178 0.027660418 0.04196283 0.065516606
-0.27992538 -0.15213713 -0.054295704 -0.069632865 0.003788769 -0.10034915 0.048872348 0.1286045
0.1190499 -0.24351965 0.13414486 -0.03281395 0.047753662 0.16711862 -0.010927601 -0.04642027
0.03409019 0.107148744 0.07824382 -0.17921278 -0.22416526 0.20161577 -0.08943137 -0.0724525
0.07101525 0.047525518 -0.12323857 -0.034839723 0.11976093 0.017305277 0.18508306 0.092178695
-0.077009045 0.05984046 0.02013998 -0.08824733 -0.065375224 0.024810223 -0.016154805 -0.19827068
0.181853 0.070412286 0.22667573 0.073800914 -0.039598674 -0.18165132 0.092500776 -0.028125867
-0.15667982 -0.010122562 0.0014081916 0.13539627 -0.21570261 -0.010767839 -0.07465427 0.03265937
0.12854514 0.026490016 -0.009656906 0.013496837 0.035193466 -0.0051877685 -0.053067394 0.08448896
0.14951017 -0.02623979 0.17541635 0.07103981 -0.08095865 -0.32075837 -0.06526526 -0.059411447
-0.27072078 -0.034743678 0.090072 0.008393869 0.15797374 -0.03011944 0.04812493 -0.1566392
-0.04114394 0.05122063 -0.01745598 0.09228584 -0.026346855 0.1402266 0.08581604 0.205955
-0.16240263 0.048413143 -0.08582238 -0.1337452 0.04708829 0.08189713 -0.07577919 0.02184977
-0.020339997 0.17737107 -0.061310224 0.04192496 -0.06798382 -0.16840898 0.13706073 0.072420284
-0.003017003 -0.09430649 0.13205013 0.06925885 -0.117643684 0.10892996 -0.051651273 -0.21374612
0.16385916 -0.0091348225 0.20108265 0.03639577 0.15053909 -0.14771281 0.11217888 -0.04247207
0.0019234755 -0.0076590804 -0.050456166 0.10352966 -0.15561557 -0.15537746 -0.14319406 -0.013475752
0.11351607 -0.105521195 -0.21512958 -0.04178155 0.015253954 -0.012251826 -0.01183798 0.14471868
-0.0031795606 0.11265735 -0.1005758 0.0659311 0.017478153 0.20176196 0.0829516 0.123106055
0.046216115 0.05629259 0.14264478 0.24264202 -0.01666779 0.06821984 0.0045163906 0.021402448
0.07923007 -0.056705322 0.009555215 -0.08744136 0.04739525 -0.0014631463 -0.054461382 -0.28584287
-0.026220806 -0.132954 -0.014627299 0.091328226 0.015540534 -0.018924156 0.023959406 0.01910058
-0.009966081 0.02944337 -0.02109671 0.0110450145 -0.05982567 -0.22609074 0.048909534 0.15094735
0.07734557 -0.24223304 -0.09851889 -0.0749188 0.11250449 0.16431642 -0.059011027 -0.06673295
-0.084438495 -0.24578013 -0.12467208 0.18093395 0.0071590357 0.003769849 -0.0134729305 0.056978766
-0.2220658 -0.049068324 -0.0013928744 0.07873354 -0.04553912 0.047537234 0.039411798 0.15309075
0.094043724 -0.1468253 0.07680395 0.12670657 -0.06688769 0.0485071 -0.032288086 -0.06599881
0.068157755 0.148166 0.16308503 -0.02879192 -0.1136411 -0.02218547 -0.102073655 -0.021242589
0.02962446 -0.0044547156 -0.12987706 -0.073447056 -0.06754759 -0.16819952 0.0095387045 -0.077882625
-0.19542329 0.09754349 -0.09894428 -0.03221059 -0.06760279 0.041159976 -0.008057288 -0.17737478
-0.026989534 0.17562595 0.03994086 -0.077169746 -0.054720387 -0.091197446 -0.006041213 -0.058138363
-0.18741356 0.13601725 -0.12367743 0.25197992 -0.17760502 0.005549122 -0.11770521 0.052124888

lstm1.weight_hh_l0 f4 [256, 64]
00000000: b2ac 0b3d 64f8 6ebe 0b6a a53d 662a 3c3e
00000010: f7b0 37be 809e bb3c 6afc e7bc a51c 4dbd
00000020: 0bf6 543c 1ad5 2f3e 813d 4bbc 3276 553d
00000030: 2fe7 16be e768 98bd c0c5 a83c c6e4 e13c
00000040: a079 f8bd dd83 16be f963 143d 8aeb 853e
00000050: 11ed bfbd ca88 c4bb 8d20 a1bd 409f 67be
00000060: df04 87ba 1eb7 213e e7e1 e4bd 532f b13d
00000070: b6c0 263e a32a 173e caa3 873b 98df a13d
00000080: b47f 50be d949 40bd 8f97 6e3c c686 5f3c
00000090: 2dd8 333e a5c1 883d 4bd0 7c3e ca76 073e
000000a0: ff2d b83d 3a02 d6bd 3fd3 0abd 3aaa 52bd
000000b0: cd1e d9bb 91d0 733e e5f4 83bd eec1 8fbc
000000c0: 9bfc 65bd 1f86 6dbe 5cc6 d13c 5060 2b3e
000000d0: 729b bd3d e090 db3c 12d0 123d a711 02bd
000000e0: a020 54be 784b e83c e1f5 2c3d f216 b53c
000000f0: d9d0 c83c 9ea6 55bd f6c3 073e 5b07 ab3d
00000100: 8153 0fbe cd71 52bd 4a45 0dbd 5ac6 743d
00000110: c4c0 f03d d77d dbbc ee31 433e d833 88bb
00000120: 6c12 bb3c 455e 0a3e 6d08 64bc ad88 6d3e
00000130: 235a 5cbd 3243 c83d 7641 b53b 263d 213c
00000140: ac7c 2d3e 48cf 943d 46b9 303c 8896 f13d
00000150: 7b4a 483d 30ff 073e 56ba 3f3e 7fc2 14be
00000160: aa80 8abd a5e2 423d 154a aabc bf80 093e
00000170: 4f30 a23c f0db 883e 62d2 573d 29a6 61bc
00000180: f6d5 95bd 4236 30bd d62a 6dbe 6892 24be
00000190: 57e9 93bd 8fbb 88bd a885 3dbd e19b ae3d
000001a0: 7a77 913d 9f56 4dbd 029e 4a3e 80ce 1fbe
000001b0: a9b1 0cbe 4bbb c43c 7cb5 b93d 218d 87bd
000001c0: f278 e4bd 3c42 4cbd 7f03 ae3d 3ac5 a93d
000001d0: 2e13 38be 6280 cb3d 6bb4 1f3e ab7a 673a
000001e0: c673 4ebe 766e 083d 54d7 01bd 30cb 82be
000001f0: 1f78 cbbd e74d ac3d 7625 423e d4c8 583e
00000200: 7dd0 d8bd 5006 3fbd 5d11 d43c 2fb3 e1bc
00000210: db4e 5bbd e8c1 56bc dd61 853d 01be 543e
00000220: dc18 2f3e 2b72 5bbc b828 5dbc e760 b6bc
00000230: f813 8fbd 1c15 223e ad7b 9b3d f220 f1bd
00000240: ef80 333d 4e19 773d 629f 083e bd7f 053e
00000250: be41 70bd ab86 963d 983a 093e 6ace 3ebd
00000260: 8ebb b1bb 7c2b 653d 01e9 553d 8e1c e93d
00000270: eb16 593e 56bb 873d f0c3 10bd 8de1 08be
00000280: 6c8c b4bd 7b47 1abc b905 13be d1c1 0dbe
00000290: 584b 5ebd c045 3fbd 5240 5e3c c336 e2bd
000002a0: 9866 06be 1ecb c8bd aa5b 863c 3ec7 92bd
000002b0: 0b17 bdbd 5cfb 1c3e 1444 bc3d 5e9f 4bbe
000002c0: 21dd f03d 3892 953d 5230 f13d 4837 873e
000002d0: 88c0 56be 5a4f f4bc c81c 8f3d 0d33 c5bc
000002e0: 021e 9e3c 6432 9ebd 74f5 d13d fd0c 0cbe
000002f0: ad83 8dbd 9745 43bd 8b31 a5bb c51c 313d
00000300: 1430 b63d c309 8ebd c9f0 103d 6003 68bd
00000310: f92f 29bc ba14 5cbd e05f 993d e195 a13c
00000320: b649 43bc acb7 16bd 9af8 783d 4606 64be
00000330: c0e8 24bc 47e9 c53b 1ab9 f73d 1c98 443d
00000340: 6f84 e8b9 670a 01be f653 5f3d 1e22 a33d
00000350: 5292 10be 5962 adbd 9556 13bc ce53 aa3d
00000360: 42a3 60bd 08d7 9a3d 7bb5 153e e00d ca3d
00000370: 4f1b 7fbd c308 f3bd 3385 1ebe 80b9 c43d
00000380: 3cdb 4fbc 39d3 f8bc ff09 d9bc 8be0 bcbd
00000390: 3734 08be b301 bc3d 1515 653c 0c91 b5bd
000003a0: ef15 0c3e 8582 e3bd 7c9f b83c 51cb 70bc
000003b0: 3264 603e 59a3 f73d 949f b43b 6401 063e
000003c0: 41db 50bd 731f de3c 047a c6bd e852 503d
000003d0: e815 68bd eefe 1cbd 341c b83d 16d0 153d
000003e0: dc61 9a3b 5699 fe3d c519 9bbd 4b7e 9abd
000003f0: c5af 053e ec0d 1f3c 5d1b f8bd 3a35 74b9
0.034100242 -0.23336941 0.08076867 0.18375549 -0.179386 0.022902727 -0.028318603 -0.050076146
0.012998114 0.17171136 -0.0124048 0.052114673 -0.14736627 -0.074418835 0.020602107 0.027574908
-0.12132573 -0.1469874 0.036228154 0.26156265 -0.09371389 -0.005997752 -0.07867537 -0.22619343
-0.0010301134 0.1579251 -0.111759 0.086516045 0.16284451 0.14762358 0.004139398 0.07903975
-0.20361215 -0.046945427 0.014562502 0.013642972 0.17562933 0.0667756 0.24688832 0.13228908
0.08993148 -0.104496434 -0.033892866 -0.051431872 -0.006625986 0.2381003 -0.06443194 -0.017548528
-0.056149106 -0.23195694 0.02560728 0.16735959 0.092581645 0.02680248 0.035842963 -0.031755116
-0.2071557 0.028356299 0.042226676 0.022105668 0.024513649 -0.05216085 0.13258347 0.08351012
-0.13996698 -0.05137806 -0.034489907 0.059759475 0.11755517 -0.026793404 0.19062015 -0.004156571
0.022835933 0.13512523 -0.0139180245 0.23196669 -0.0537969 0.097784415 0.005531485 0.009841239
0.1694209 0.07266098 0.01078636 0.1179629 0.048899155 0.1328094 0.18723425 -0.1452732
-0.06762822 0.047579426 -0.020787278 0.13428019 0.019798426 0.267303 0.05269087 -0.013772526
-0.073162004 -0.043020494 -0.23160872 -0.16071475 -0.072222404 -0.06676399 -0.046270043 0.08525825
0.071028665 -0.050131436 0.19786838 -0.15606117 -0.13739647 0.02401509 0.090678185 -0.06618715
-0.11155881 -0.049867854 0.084967606 0.08289571 -0.17976066 0.099365965 0.15596168 0.00088302296
-0.20161352 0.03330847 -0.031699494 -0.25545645 -0.09935021 0.08413296 0.18959603 0.2117036
-0.10586641 -0.04663688 0.025887186 -0.027551262 -0.053542 -0.013107754 0.065128066 0.20775606
0.17099327 -0.013393919 -0.013498478 -0.022263004 -0.069862306 0.15828365 0.07591949 -0.11773862
0.043824133 0.060326867 0.1334205 0.1303701 -0.058656447 0.073499046 0.13401258 -0.04658357
-0.0054239696 0.055949673 0.052224163 0.113823995 0.21200149 0.06627528 -0.03534311 -0.13367291
-0.08815846 -0.009416456 -0.14357652 -0.13843466 -0.054271072 -0.04669738 0.01356514 -0.11045601
-0.13125074 -0.098043665 0.01640113 -0.07166909 -0.09232911 0.15330261 0.09192672 -0.19885013
0.11760927 0.0730328 0.117767945 0.26409364 -0.20971882 -0.029822994 0.069879115 -0.024072194
0.019301418 -0.07724455 0.102518946 -0.1367683 -0.06909881 -0.047673788 -0.0050413064 0.043240327
0.08895889 -0.06935456 0.03538588 -0.056643844 -0.010326379 -0.053730704 0.0748899 0.019724788
-0.0119194295 -0.036796257 0.06078396 -0.22268018 -0.010065258 0.0060397717 0.12095852 0.047996625
-0.0004434916 -0.12601624 0.05452343 0.07965492 -0.14118317 -0.08466024 -0.008992811 0.08316766
-0.054843195 0.07560545 0.1462001 0.09865928 -0.062281903 -0.118669055 -0.15480499 0.09605694
-0.012686547 -0.030374156 -0.026494024 -0.09222516 -0.13301168 0.091800116 0.013982077 -0.08865556
0.13680242 -0.11108879 0.022536986 -0.014696912 0.21913221 0.12091703 0.0055121873 0.13086468
-0.050990347 0.027114606 -0.096912414 0.050860316 -0.056661516 -0.038329057 0.08989754 0.0365754
0.004711373 0.1243159 -0.075732745 -0.0754362 0.13055332 0.009707909 -0.12114594 -0.00023289482

lstm1.bias_ih_l0 f4 [256]
00000000: 369a 1cbd d882 df3d a178 413d e81d ce3b
00000010: 0393 b2bd bedc b63d b12c 623c 5cec 663d
00000020: 4e37 49bd fe8c 45bc da92 52bc 7c77 01be
00000030: 2a15 0a3e cb78 acbd 1ab0 b838 4b37 933d
00000040: d468 653c 76d8 d23d 6792 05bd 0ec8 083d
00000050: 5218 1abe e838 f93d aea9 4abe 5633 71bd
00000060: cd92 7d3c f9dd 7a3d d91d 623d e2e3 ad3d
00000070: 2d8f 59bd 1c85 b7bd b776 673d 4a1f 203e
00000080: 6d20 31be 53a7 48bc a169 9e3d c022 cbbd
00000090: 2248 d8bd 404a 8abd 8bff 42bd 6858 a83d
000000a0: bf09 9f3d c302 073e de99 c03d 4a40 cf3d
000000b0: ef1e b03c c1ad 053e 175a a9bd 955e 9fbd
000000c0: bbb5 f0bd e79e 193e 928d ddbd 6e64 9e3d
000000d0: 94e2 7cbd b924 2a3e 5d1b d83d cd50 d23d
000000e0: 7aaf 84bc 69f4 4dbd 8a18 d93d 8bc2 f4bc
000000f0: 44a2 cdbc 21d9 38be c0cf f83c ec37 f1bd
00000100: 762f 113d 2803 31bd 45aa e63c a671 a5bd
00000110: 9f77 8bbd 123b 0f3c 596f 10bd f9fb 113e
00000120: b31e b2bc 8315 093e 17a9 723d 8f25 f6bc
00000130: f3b1 a93d 3818 6abd 4b42 453e a80c f8bc
00000140: 9ee3 f83c 519b 52bd b08c 5dbc 536b 3c3e
00000150: 31c8 9dbd 5968 723e 7589 b13a 4d08 b93d
00000160: c420 2ebc 31c9 ad3d 516d ba3d 6e95 083e
00000170: 5939 c3bc 52f4 623c 8ef2 9abd cf2c 3d3d
00000180: 3f06 ccbc 3936 0e3e ff04 0e3c 674d 823e
00000190: c615 123e 4628 d5bd 858d ccbd f242 d73c
000001a0: 828f 01bc f5c6 073c 50a5 f13d 5b0b 9a3d
000001b0: d637 473e bb8b 92bd 7ccf d3bc 8125 eb3d
000001c0: 3eae 1d3e e96c a83c 1747 d93c 5cc7 8b3d
000001d0: 6329 c73d 6f35 b13d f783 b73a 14b1 b33d
000001e0: 5653 aa3c 1bc5 ca3c 472a a3bc bc86 883d
000001f0: 4b8a 2f3d 223b 55bd 22c3 abbd 4551 7c3d
00000200: 7338 4cbd edf0 28be b442 3cbd a762 00be
00000210: c972 063c 28ab 5c3c d222 e4bd dbba 2cbb
00000220: 18e8 00be ea5d 323e 2584 1a3e 3981 f23d
00000230: 7e75 21be ffd2 0f3e 766e 473c 67f2 a8bc
00000240: 7b8e 96bd 780f 89bd 7b01 56bc bf21 ebbd
00000250: 7939 cdbd 9cb3 58be e800 3bbd 6983 4fbd
00000260: becc c5bd 649b cd3d 18ba ae3a 5e41 48bd
00000270: 7853 d6bd a59a fc3d 938c 823d d78a b13d
00000280: 9a3f 0d3e c277 6cbd 4751 fc3d 7650 4ebd
00000290: dd23 42bd 3c54 dc3d baa7 1e3e 709a a33d
000002a0: 91bb 413d b8fe fd3d 5d6a 9abc 4550 e9bc
000002b0: e526 10bd 220b 3e3e 50a8 d13d 239b 92bd
000002c0: 3a75 f4bd df43 62bd 6800 ffbd 2dea f5bd
000002d0: bb75 f63d 61fb 3c3e 7773 01be e217 fdbd
000002e0: b498 31bc 82dd a03b 73ef 11be 9366 8dbc
000002f0: df3c 12be 67eb 64bd 446c 033e 68c4 54bd
00000300: 8da9 31be e8d2 fdbc 918e b8bd 71da f1bd
00000310: b330 563b 6630 aa3d a080 f03d 1073 58bd
00000320: f296 8b3d bd7c 2c3e d773 99bd 66de 1abe
00000330: ca69 ab3d 8253 4b3d 534d 2ebd e94b 87bd
00000340: bd93 02be 4c1a b83d 46c7 823d d8e9 eb3d
00000350: e21e 93bc 61bf f13d 65b6 3bbc 5877 a13d
00000360: eafd ef3d 657d 0c3c 8d66 f3ba e18d 863d
00000370: 3251 833d d0cd 313d 2fa0 043e 2c18 c23d
00000380: 58ed 303d ffad b33d f613 b5bd fb15 b5bc
00000390: 6f18 dbbd d08a f3bd cbcf 2abd c09f 1ebd
000003a0: 6144 b13d 40e8 2dbd dac9 a93d ff72 a6bd
000003b0: ffc7 453d dacf 0f3e ea44 54be c3a1 473d
000003c0: 0c61 b63d efcc 463e 4cf8 dd3d 9746 e03d
000003d0: 8d52 d93c 8b6f 73bc ab80 b3bd 604a b8bd
000003e0: a7e0 403d eea5 fd3d 1611 dfbb 8a94 eabc
000003f0: d39c bc3d 8326 04be 8e13 84bc 52d4 a63d
-0.038233005 0.10913628 0.04723418 0.006290186 -0.087194465 0.08928822 0.013804601 0.056377754
-0.04912501 -0.012057541 -0.012852395 -0.12643236 0.13484636 -0.08421477 8.806605e-05 0.07188281
0.014002044 0.10295193 -0.032610323 0.033393912 -0.1504834 0.12169057 -0.1979129 -0.05888685
0.015476895 0.061246846 0.055204246 0.08490731 -0.05311506 -0.089609355 0.0565097 0.15636936
-0.17297526 -0.012246924 0.07734991 -0.099187374 -0.10560633 -0.06752443 -0.047606986 0.08219987
0.07765531 0.13184647 0.09404348 0.10119684 0.021499125 0.13054563 -0.082691364 -0.07781712
-0.11753412 0.15002023 -0.10818018 0.07733999 -0.06173952 0.16615571 0.10552094 0.10269318
-0.016196955 -0.050281916 0.106003836 -0.029877922 -0.025101788 -0.18051578 0.0303725 -0.117782444
0.035445653 -0.0432159 0.028157363 -0.08078317 -0.06809925 0.008742111 -0.03526244 0.14256276
-0.021743154 0.13387112 0.059243288 -0.030047206 0.08285894 -0.057152003 0.1926357 -0.030279472
0.030381974 -0.051417653 -0.013522312 0.18400316 -0.07704199 0.23672618 0.0013544994 0.090347864
-0.010627929 0.0848564 0.09102882 0.13338253 -0.023831056 0.013852196 -0.07565795 0.04618531
-0.024905322 0.13887872 0.008668183 0.25449678 0.14266118 -0.10408072 -0.0998793 0.02627704
-0.00790775 0.008287181 0.11799109 0.07521697 0.19454893 -0.07155558 -0.025855772 0.11481763
0.153985 0.020559745 0.026523156 0.06825134 0.09724691 0.0865277 0.001400112 0.08774009
0.02079169 0.02475219 -0.01991762 0.066663235 0.042856496 -0.052058347 -0.08386828 0.061600942
-0.04985852 -0.16498156 -0.04596205 -0.12537633 0.008206078 0.013468541 -0.11139454 -0.0026356492
-0.12588537 0.17418638 0.15089472 0.118410535 -0.15767476 0.14045332 0.012172332 -0.020623399
-0.07351395 -0.066924036 -0.013061876 -0.11481046 -0.10020728 -0.21162266 -0.04565516 -0.050662432
-0.09658192 0.10039404 0.0013330607 -0.048890464 -0.10465139 0.123341836 0.06374469 0.0866906
0.13793793 -0.057731397 0.1232019 -0.050369702 -0.047397483 0.10758254 0.1549367 0.07988441
0.047298018 0.12402099 -0.018849546 -0.028480658 -0.035193343 0.18558934 0.10237181 -0.07158496
-0.11936422 -0.05524051 -0.12451249 -0.12007556 0.12034174 0.18455268 -0.12641703 -0.12358071
-0.01083963 0.0049092183 -0.14251499 -0.017260825 -0.14281033 -0.05588856 0.12834269 -0.05194512
-0.17349835 -0.030984357 -0.090115674 -0.118092425 0.0032682836 0.083100125 0.11743283 -0.052844107
0.068159 0.16844459 -0.07492798 -0.15123901 0.08369787 0.049640186 -0.04255421 -0.066062756
-0.1275167 0.08989391 0.06385665 0.115192115 -0.017959062 0.11804081 -0.01145706 0.07884091
0.11718352 0.008574818 -0.0018569991 0.0657003 0.06411971 0.04340917 0.1295173 0.09477267
0.0431951 0.087734215 -0.08841698 -0.022105208 -0.1069802 -0.11891711 -0.041702073 -0.03872657
0.0865562 -0.04245782 0.08290453 -0.081274025 0.048286434 0.14044133 -0.20729414 0.048738252
0.08905229 0.19414113 0.108383745 0.10950964 0.026528621 -0.014858137 -0.08764776 -0.08998561
0.047089245 0.12385164 -0.0068074567 -0.028635282 0.09209599 -0.12905316 -0.016122606 0.08145966

lstm1.bias_hh_l0 f4 [256]
00000000: 9ce2 1fbd ac14 c5bd 75ec 0cbe 334f 303d
00000010: 2adb 95bd 5390 80bd 3a6e 6abd 68b6 8f3d
00000020: ea97 48bd 28a9 03bd 7fbb a6bd ff95 b6bb
00000030: a7c6 31bc 35bf d93d 1995 d43d 5c8e 07be
00000040: f4a8 e7bd 8ed7 873d 20ae af3d b474 003d
00000050: eff2 fcbc 7ab4 913d bea3 97bd 78f3 183e
00000060: 109c d1bd 6cd4 bbbc d848 b3bd bb46 f23d
00000070: 6163 953c 99db d9bd 8c36 c43d ee2a 063e
00000080: 32d6 2ebe 1f25 a6bd aca7 81bd 7e32 dc3d
00000090: 72d1 d1bd cf35 983d 29aa 19be 6d81 9c3d
000000a0: 7345 52bd 210a dbbc 1a7c 41ba 5883 9a3c
000000b0: 6d6c 533d 6778 69bd fed1 d4bc 9c4a bdbc
000000c0: 973f 72bd 67b4 733d ef84 84bd 4a7c 52bd
000000d0: 13ff c23c a181 203e 392d 503d 5fab 003e
000000e0: 4f83 cabd e587 ecbd 913a ce3d bff4 a43c
000000f0: 9d17 00bd e776 fdbd a4b1 9dbd d9d2 663d
00000100: 86a9 453c 9ae6 d3bd 2191 113e 7d81 f3bd
00000110: f85a c5bb 33a3 2b3c 6a3f f4bd ee2f e93d
00000120: 4e1e ae3d b544 4c3d bb83 ae3d 2395 7bbd
00000130: c79b abbd dcad bb3d 96a0 89bc 5d1c c03d
00000140: 776a 103e 16da 9fbb 33bc 643d bc95 e73d
00000150: bee6 9abd ab59 753e 29e5 1bbe cb5f 2c3d
00000160: 930a 51bd f95f 9bbd ee20 06be 246d 56bd
00000170: c89e 1a3d 50c2 fdbd 63fb b7bc 4edc c13d
00000180: a36b 0c3d 691c 67bb 8752 0e3e 6a71 b83d
00000190: c722 a9bb 709b 503c 0171 273c 3a53 ec3d
000001a0: 64e6 e63d 7bc3 b13d 3f00 aebc 46a2 29bd
000001b0: 4340 3c3e 8417 b1bd 2d94 37be fb4e e23d
000001c0: 5659 a2bc 7a87 b73c 9dd9 99bd c74a 133e
000001d0: be0e e53b 1dc4 11bd e896 e03c 9f6e afbd
000001e0: eff4 18be fee3 073e 8a6e 07be b329 00bd
000001f0: 9fad 9d3d eef4 933d e46a 9c3d 8011 003e
00000200: 96e7 91bd 7246 823d 7aac 99bc 56a6 b7bd
00000210: e646 e53d 9f32 04be bcb5 c83b 341b 333d
00000220: fc0f 2ebd b06d fc3d 00b6 1e3e 372f 1f3e
00000230: e072 7c3d 529e b03d a866 c23b 9289 dd3d
00000240: 2617 033d cc94 41bc 902b 24be 6ed9 58bd
00000250: edc8 8e3d 4314 f8bd 127f a53c 9112 a7bd
00000260: dcb8 8bbc baeb 113e cc0c 40be 02c3 513c
00000270: b629 7abd 2349 873a 3e55 ae3d 35c4 c4bc
00000280: e5c9 933d 2d8f 2dbd 079b 653c adb6 d93d
00000290: d3db bebc b961 d6bd 9b92 963c 1618 6dbc
000002a0: 20b8 3b3e ffeb ff3d 4e74 8ebd 7837 28bd
000002b0: 13d3 0b3d b415 0f3d 5f6a f33d 9267 fdbc
000002c0: 2472 983c 749a b5bd a07a 573c e154 f7bd
000002d0: 8721 18bc 4f25 c3bc 5583 053c 61c2 cabd
000002e0: f617 86bd 0447 213e 4f4f a9bd 392f abbc
000002f0: 6f82 04be 7b1c 59bc 262f 813d 378f 993c
00000300: 2e64 1dbd 0a77 c4bc 5ad7 8cbd b251 493d
00000310: 597d dcbd 9d57 6d3d fa7a e93d f1c0 043e
00000320: 5de0 9cbd d290 623d cc63 973d 0c01 1bbe
00000330: 493b e5bd f9f9 f7bd 1688 aa3d cd32 163e
00000340: d6a7 173d eced 7c3d 6064 3fbd 9c29 6dbb
00000350: f191 853d e980 72bc b365 25be 92ed ab3d
00000360: e618 5ebd e28b 3c3e 5158 893d 3f0a ea3d
00000370: 880d 223e caa8 f03d 6977 8c3d 0659 b83b
00000380: 7ca4 3cbe d617 d13c 92c8 a2bc 9c0d 35bd
00000390: 7548 af3d a81b 32bd 809b 11be 41a6 913d
000003a0: bde5 e63d cf4e ea3b 881a 773d 0f56 2b3d
000003b0: 3956 bc3c 6727 8e3b 773a d9bd fe11 0bbd
000003c0: 866f 193e 9018 eb3d 97c7 49bc 358a b9bc
000003d0: 2f15 cdbd edc4 babd 772c b2bd 4af6 10bd
000003e0: d550 9c3c 7ca4 0e3e 3e62 8dbd 301c 033e
000003f0: 31c0 83bc ec9d 9abd f965 d33d 9df5 fb3c
-0.03903447 -0.096230835 -0.13762076 0.04304428 -0.07317193 -0.06277528 -0.057234026 0.07017213
-0.048973 -0.03214374 -0.08141231 -0.00557208 -0.010850585 0.10632173 0.103800006 -0.132379
-0.11311522 0.06632911 0.085781336 0.031361297 -0.030877559 0.07114501 -0.07404278 0.14936626
-0.10234845 -0.02292844 -0.08754128 0.11829897 0.018235864 -0.10637588 0.095807165 0.13102314
-0.17073897 -0.08112549 -0.06330809 0.10751818 -0.10245027 0.07432138 -0.15006317 0.076418735
-0.051335763 -0.026738228 -0.00073808583 0.018861458 0.051617075 -0.05699959 -0.025979038 -0.023106866
-0.059142675 0.059498217 -0.064706676 -0.051388063 0.02380327 0.1567445 0.050824378 0.12565373
-0.098883264 -0.11549357 0.100697644 0.020136235 -0.03127252 -0.123761944 -0.07699898 0.056353424
0.012064343 -0.10346718 0.14215519 -0.11889932 -0.006022807 0.010475921 -0.11926158 0.11386095
0.08501874 0.04987021 0.08521219 -0.061421525 -0.083793215 0.091640204 -0.016800206 0.0938041
0.14103113 -0.004878293 0.055843543 0.113078564 -0.07563542 0.23959987 -0.15224136 0.042083543
-0.051035475 -0.07586665 -0.13098499 -0.05235018 0.03774908 -0.12390578 -0.022458738 0.09465848
0.034282338 -0.0035264737 0.13898669 0.09006007 -0.0051616165 0.012732372 0.010219813 0.11539312
0.11274412 0.08679863 -0.021240352 -0.04141452 0.18383889 -0.086470634 -0.17927618 0.110502206
-0.01981799 0.022403467 -0.075122096 0.14383994 0.006990283 -0.03558742 0.027415708 -0.08566021
-0.14937185 0.13270566 -0.13225761 -0.031289767 0.07699131 0.07224451 0.07637575 0.12506676
-0.0712425 0.063610926 -0.018759001 -0.08967273 0.111951634 -0.12909935 0.00612518 0.043727115
-0.042495713 0.12325609 0.15499115 0.15545355 0.06163299 0.08623947 0.0059326477 0.10817255
0.032004498 -0.011815261 -0.16032243 -0.052941732 0.06971917 -0.121132396 0.020202193 -0.08157838
-0.017055921 0.14250079 -0.18754882 0.012802841 -0.061074935 0.0010321479 0.085123524 -0.02401934
0.07216243 -0.04237287 0.014014012 0.10630546 -0.02329818 -0.10467858 0.018380454 -0.014471075
0.18331957 0.124961846 -0.06955777 -0.041068524 0.034136843 0.034932807 0.11885523 -0.030933175
0.018609114 -0.0886735 0.013151795 -0.12076736 -0.009285337 -0.023821501 0.008148988 -0.09900356
-0.06547539 0.15749747 -0.0826708 -0.020896541 -0.12940381 -0.013251419 0.06307821 0.018745048
-0.038425617 -0.023982543 -0.068770126 0.049150176 -0.10766096 0.057944883 0.11400409 0.12964226
-0.076599814 0.055313893 0.073920816 -0.15137118 -0.11192948 -0.121082254 0.083267376 0.14667816
0.037025295 0.061750337 -0.046726584 -0.0036188131 0.06521977 -0.014801242 -0.16152076 0.08394922
-0.054222964 0.18412736 0.06706298 0.114277355 0.15825474 0.11750944 0.06858713 0.005625847
-0.18422121 0.025524061 -0.01987103 -0.044202432 0.08558742 -0.043483406 -0.14219475 0.071117885
0.11274288 0.007150508 0.060328037 0.04183012 0.022990333 0.004338193 -0.106068544 -0.033952706
0.14983949 0.11479294 -0.012315652 -0.02264891 -0.10013806 -0.09119592 -0.08699887 -0.03539113
0.019081512 0.13929933 -0.06903504 0.12803721 -0.016082855 -0.075496525 0.10322184 0.030756766

lstm2.weight_ih_l0 f4 [256, 64]
00000000: 821a f43d b62d ac3d d4dd 173e 0991 c53c
00000010: ba2d 093e c9c8 be3d 87a5 0abc e099 a9bc
00000020: 7cca 4f3e c156 4d3e 0b11 62bc 4587 97bd
00000030: 98c5 0b3e 1940 83bd e979 56bc 3fb1 a13d
00000040: a69e 0a3e f88e c13d a3b1 8abb 141f 6dbe
00000050: 059e 093e f241 90bc 0779 21bc a40d fb3c
00000060: 3e39 213e c099 393b fd59 8e3d 5c8c 1e3e
00000070: 723d cd3d a4a3 8f3d f689 cd3c f1d0 debd
00000080: c955 203e 7cf2 20bd 6f79 bdbc e82d 46be
00000090: 8944 dfbc 9ce1 41bb 1531 43be 2fbd 143c
000000a0: ee0d 12be 705c c33d 5311 f23b 9e26 8ebc
000000b0: 13cd be3d 1ba2 4dbd 2543 203e bf51 633d
000000c0: f1df 283e db5e 76bc cf5d 81bc a4e6 cf3d
000000d0: 5a37 f3bd a59c 14bd eec9 5ebd 35a0 243d
000000e0: b346 863c a1ef 06bd 5d1e 943c a47e 20bd
000000f0: a6d0 183e be30 133e dd80 aa3c 13c9 083e
00000100: cbba bc3d 55bf b03c e022 4a3c 39ec fa3d
00000110: 2892 173d 5c3f 39bd 45e1 113e e5a2 053e
00000120: fb00 783c 42d2 f13d 9ac7 75bd 11df f4bb
00000130: abba 15be a60e d6bb 4e9b 5fbd 4f8b 1c3d
00000140: 2ef6 2abd daaa aabb a01b 83bb d69e c43d
00000150: 2a5e 25bd d71a 5d3d 1abe e7bc a296 803d
00000160: 1ca5 9cbc 3264 603c 3373 4bbd 1687 bcbb
00000170: 6c55 253e 0771 c73d 2db2 ba3c c758 0abc
00000180: cd60 983d 595b 393c 84c7 a43d aaea 89bd
00000190: e251 f9bd b989 003e 2596 aa3d f3dc f2bd
000001a0: 08c9 063d d61e 0f3d cd71 c93d a388 37bc
000001b0: a133 8dbd 9c41 283d d9a4 f93a 585f 493c
000001c0: 7047 4bbd 594b 9f3d eea0 ff3d f8c6 343e
000001d0: 85f8 92bc 024c a2bd 7956 103c 6d67 983d
000001e0: d0eb 553d 60e1 10be 887e 033e 5ca5 10bd
000001f0: 3cdb 833d c290 8b3b df8b f6bd 251c 4cbd
00000200: 658f 0c3e df86 bc3d e4ba 11bd 2782 7e3d
00000210: 1181 ae3d 668d 643d aecc 54bc f5f3 2d3d
00000220: 42ac 9fbc 05cf 01bc 4bfb 103d ab8e 51be
00000230: 33bd 0b3e 84c0 fbbd 4020 c9b8 4850 423b
00000240: 810c b6bc 1e6e c2bc 9480 09be 9f70 babd
00000250: d854 3c3e 6257 0a3e 516f ff3d 9dc6 bf3d
00000260: 16cd 553d da38 d83c 654d 303d 0bbb 833c
00000270: a27e e63d 9199 35bd 20df d93d e32b 283d
00000280: 7daf b8bd ddfd 083e 82d5 aabd f03b e83d
00000290: ae58 13be b995 af3d e4d2 1cbe d40e d5bd
000002a0: 3783 06be 8325 523b 86d3 813d f738 943d
000002b0: df95 2f3d 1cf3 98bb 9e8a fa3d 79d3 033e
000002c0: 03bf 80bd f560 073e c05f acbd 7107 1639
000002d0: 2a77 343d 043f 3d3c 88c5 20bd 0b37 27bd
000002e0: 5899 2c3e aad4 3fbd a09c b83b 2917 053e
000002f0: 5c84 3f3e 7819 1c3e bbde 8cbd 446a 5d3d
00000300: 5eda 023d cffd ab3d 47e7 bd3d 3b40 c83c
00000310: f8dd b13d 6c6a fcbb 9210 f7bd d9af a43d
00000320: be4f d9bb 0a19 0abd c6b3 ee3d 57a2 57bd
00000330: 4ac2 f23d c01c 79bd c813 6a3e 38b1 9ebc
00000340: cafb 9e3d a1bc a5bc f830 11bd 74c7 7e3d
00000350: 9bc0 9a3d 9602 7abd 4bef 0abd 6f2a 893d
00000360: 6d7f 103e afbf 80bd ec46 593d ce3d 033d
00000370: b3be 8dbd 5a7e ed3d 2837 e33d 3251 2cbd
00000380: 3ac2 c23d cf8e 2abe 9db6 ca3d 5dcf 74bd
00000390: 7c77 b1bd 76f0 0cbe 1bd2 a1bc d7d5 a9bd
000003a0: cc4c 8d3a fb0f 8c3b debc 833c a1ef 29be
000003b0: e7fc 0abe 42ac 983d b3fd 383e 0242 4cbd
000003c0: 7f76 9ebd 4405 62bd 090b 003c a696 b93d
000003d0: 7f0f db3c 922b d23d 4ad1 323d 1bbc 27be
000003e0: 74c7 2f3e 722b 003d c83e fcbd 917b 08be
000003f0: e644 2cbd dee5 403e 987c 20be 7f77 713e
0.119191185 0.08407156 0.14830714 0.02411701 0.1339635 0.093156405 -0.008462316 -0.020703256
0.20292085 0.20052625 -0.013798009 -0.073988475 0.13649595 -0.0640871 -0.013090589 0.07895135
0.13537082 0.09451097 -0.0042326017 -0.23156387 0.13439186 -0.01760957 -0.009855515 0.030646153
0.15744492 0.0028320402 0.06950758 0.1548323 0.100214854 0.07013634 0.025090199 -0.10879696
0.15657724 -0.03929375 -0.023129193 -0.1935345 -0.02725436 -0.0029583937 -0.19061692 0.009078308
-0.14263126 0.095391154 0.007387319 -0.017352398 0.093164586 -0.050203424 0.15650614 0.05549788
0.16491677 -0.015037264 -0.015791802 0.10151413 -0.11875792 -0.0362822 -0.054391794 0.040191848
0.016391134 -0.03294337 0.018080885 -0.039183274 0.14923343 0.14374062 0.0208134 0.13357954
0.092153154 0.02157561 0.012337416 0.12252087 0.03700462 -0.04522644 0.1424609 0.1305042
0.0151369525 0.118076816 -0.060004808 -0.0074728807 -0.1462199 -0.006532508 -0.05459147 0.038218793
-0.04173868 -0.0052083554 -0.004001096 0.09600608 -0.040373005 0.053980675 -0.02828889 0.06278731
-0.019121699 0.013695763 -0.04967041 -0.005753408 0.16145867 0.09738355 0.022790039 -0.008444018
0.07440338 0.011313283 0.08045867 -0.06734212 -0.12173821 0.12552537 0.08329419 -0.11858549
0.032906562 0.034941517 0.09836159 -0.01120201 -0.06894613 0.041078195 0.0019046321 0.012290798
-0.049628675 0.07778043 0.12481867 0.17654026 -0.017940769 -0.079246536 0.008809679 0.07441602
0.05222684 -0.14148474 0.12841237 -0.03531395 0.064383 0.0042592 -0.12038397 -0.04983153
0.13726576 0.09205412 -0.035578623 0.06213584 0.08520711 0.05579891 -0.012988253 0.042468984
-0.019491319 -0.007922892 0.0353959 -0.2046458 0.13646393 -0.12292579 -9.590434e-05 0.0029649902
-0.02222276 -0.023734149 -0.13427955 -0.09103512 0.1839174 0.13509896 0.12472404 0.09364054
0.05219754 0.026394296 0.04304256 0.0160804 0.11254622 -0.044335905 0.10638261 0.04105748
-0.09017847 0.13378091 -0.08341505 0.11339557 -0.14389297 0.08573479 -0.15314823 -0.10403219
-0.13135992 0.0032065816 0.06339173 0.07237428 0.042867538 -0.004667653 0.122334704 0.12873639
-0.062864326 0.1322058 -0.084167 0.00014307887 0.044058956 0.011550669 -0.03925088 -0.040823977
0.16855371 -0.04683367 0.0056339055 0.12997116 0.18702835 0.1524409 -0.0687842 0.05405642
0.031946532 0.083980195 0.09272628 0.02444469 0.08684915 -0.007703116 -0.120637074 0.08041353
-0.0066318205 -0.033715285 0.11655383 -0.052645054 0.11853464 -0.060818434 0.22859108 -0.019371614
0.07762869 -0.020231547 -0.03544709 0.062201932 0.07556268 -0.061037622 -0.033919614 0.06697547
0.14111109 -0.06286561 0.053046152 0.032041363 -0.069211386 0.11596365 0.110945046 -0.04206962
0.09509702 -0.1665604 0.09898112 -0.05976807 -0.08665368 -0.13763604 -0.019753506 -0.0829274
0.0010780334 0.004274366 0.01608127 -0.16595317 -0.13573037 0.074547306 0.18065529 -0.049867637
-0.07737445 -0.055180803 0.007815131 0.09061937 0.026740788 0.10262217 0.043656625 -0.1638035
0.17165929 0.031291433 -0.12316662 -0.13328387 -0.042057894 0.18837687 -0.15672529 0.2358074

lstm2.weight_hh_l0 f4 [256, 64]
00000000: 3bbd 183d d6b7 9d3d 0805 7ebd 2d1b 9e3d
00000010: 7096 b23b 03f8 8ebd 9a62 ec3d 7497 6ebd
00000020: f93e 8c3c 9c83 a73d 4539 5c3e 4c34 f53d
00000030: 8fd9 a43c 4419 5a3e 5fff f93d d20a 103e
00000040: c54d 5ebd b249 013e 9be1 183e eead 833d
00000050: d81e e4bc 9cf5 7bbc 05af 893d 4975 423e
00000060: e3ca 533e e461 a3bc 78d6 d5bd 2f27 ccbc
00000070: ce10 14bc 4785 f6bd cc30 953d defe 94bd
00000080: 3921 55bd e50c 993c 775a 2d3e 31e8 2fbe
00000090: 5ec0 c43d ff67 fabb 574e 96bd 138e 433e
000000a0: ca56 1dbe 2408 303d 6292 1f3e 8448 3bbb
000000b0: edb6 ccbd 82b2 993d 1e87 1ebe bd3a 48bb
000000c0: 9bdb 683e dd06 d63d 253a 993c 4add 983d
000000d0: d5c7 06be 6df3 f13d 61c8 3abe 6166 003d
000000e0: eaf4 763d 8599 ba3d e352 dabc 1ab3 cbbc
000000f0: bdcf 93bc 480d c83d ee1a c8bd 11a2 a63c
00000100: 4160 0bbe f18b 4c3d 6f1d 013e f47d 143e
00000110: 9a63 c5bd 817b 8b3c 533f 133e 0144 43bd
00000120: 1284 d0bd 3e4d 553d 5e7e 563d 211d b73d
00000130: bd58 f3bd ab32 3c3b b0da 573c b538 2ebd
00000140: f727 62bd 1a54 acbd a4ea 9b3c bfc8 1f3e
00000150: e88c bcbd eb8f 06be 6d63 a63d faa7 123e
00000160: e759 163a 8237 963c c1bb 113e 2c0d de3d
00000170: 5e09 1ebd 776f dc3c 9524 543d b39d cdbd
00000180: 02a7 143e 50b9 64bd c7a9 c5bd 1e16 513d
00000190: 4841 bd3d 7b7d 4bbe 0d5c da3d 52f8 f5bc
000001a0: d306 3cbe eacc 803c be98 d3bd 0548 7c3b
000001b0: b3cc ea3d eda9 983d a96e bfbc 5ed9 3b3e
000001c0: 0dd0 c53d d553 383d b7d8 dcbd a440 04be
000001d0: e902 f5bd 3aaa 27bd 192d 05be 8c1c 22be
000001e0: 043b ae3d b0f2 123d b178 693c eaab e0bd
000001f0: fa86 523d fa99 9a3d 181f 2ebe 25c9 c93b
00000200: 535e d73d f7a5 0d3d 0754 943d d85c 773e
00000210: 769e bb3d c426 253d 980c a53d 5b4d 413c
00000220: c649 963c e2d3 85bd bd77 36bd 469f 80bd
00000230: 2c93 253d 8b64 d93c cbb2 9cbd 8502 1dbb
00000240: 67c6 e93d aa2e bc3c ffa4 973c 7638 f9bd
00000250: e7cc 82bd ff8e 2b3d acf1 383d 7166 c23c
00000260: dfb4 e43d 88df 0d3e ea85 74bd 4281 213d
00000270: 5231 b53d 8511 143e 4e4d eebc 44b4 23be
00000280: 2489 c33c 6b6e 4bbd 944f 083e 930c 17bc
00000290: 567a 053e b443 c43b 7e77 5a3e fb4e 2d3e
000002a0: 970d 0e3d 4650 2fbc 8c11 613b 44fb 5dbd
000002b0: 945d 82bd d303 683d 37ca 733c 09d8 ab3d
000002c0: 0e91 d7bb aa8b 9abd e112 cfbd b0cf 1f3e
000002d0: 8ec9 96bd b2da aa3d 3827 8b3c dec4 54be
000002e0: 4bab 043e 381e 6f3b f0e4 213e 14eb 01be
000002f0: 1b93 1e3d cc98 babd e43d d8bd cb64 2a3c
00000300: abfc 08be 30f2 5e3d 4a24 a9bd b8d6 08be
00000310: bd27 aa3d 4626 8e3d b3ca c7bd 190e 07bb
00000320: 59b0 613e acd2 82bd 1dff bb3d 2486 263e
00000330: 4f5c bdbd 5a26 9b3d 8b43 21bd 550c 533e
00000340: 7dc2 703e 64fa 4abd 2fb8 da3d 1f31 e8bc
00000350: 3609 cebd 5cbd 4ebc cb94 a53d b81a f4bb
00000360: b6b1 33be f88f f03c a331 89bd a0ed 63bc
00000370: 0979 e73d 8630 a9bd 6051 153e a1ed 2f3d
00000380: de30 313e c843 2dbe 7af6 363e 44da d0bd
00000390: beef f33c 0029 57bd 850b 04be 5657 d7bc
000003a0: 5835 b6bd 7bed f33d 4f62 573c bf93 0f3d
000003b0: 3c46 b23d 5af2 51bc 6f16 d1bd 06d8 02be
000003c0: 25a3 36bc a70f 7ebc 477d 45bd badf 2aba
000003d0: e1d4 07bd 770a a43d cf5f 28be dec4 fe3c
000003e0: ad4a c13c 9039 003d 288e 9a3c 03b3 56bd
000003f0: e0b6 b8bd 69a2 e63b 3660 a0bd c9c1 f0bc
0.03728984 0.077010795 -0.062016517 0.07720027 0.0054500625 -0.06980898 0.11542244 -0.058249906
0.017119871 0.08179399 0.21506222 0.119728655 0.020123271 0.212987 0.12206911 0.14066628
-0.054273386 0.12625769 0.14929812 0.06429659 -0.027846739 -0.015378382 0.067228355 0.18990053
0.20682864 -0.019944139 -0.10441297 -0.024921028 -0.00903721 -0.120371394 0.07284698 -0.072751746
-0.052033637 0.018682906 0.16929041 -0.17178418 0.09607004 -0.007641792 -0.07339161 0.19097166
-0.15365139 0.042976514 0.15583184 -0.0028577158 -0.09995828 0.07504751 -0.1548123 -0.003055259
0.22740023 0.10450528 0.018704483 0.074640825 -0.13162167 0.11814008 -0.18240501 0.031347636
0.060292162 0.09111313 -0.026650852 -0.024865676 -0.018043393 0.09768158 -0.097707614 0.020340951
-0.13610937 0.049938146 0.12608884 0.14501172 -0.09638138 0.017026665 0.14379625 -0.047672275
-0.101814404 0.052075617 0.052366607 0.08941103 -0.1188216 0.0028716724 0.013174698 -0.04253455
-0.055213895 -0.084144786 0.019032784 0.15603922 -0.09206563 -0.13140838 0.08124433 0.1432189
0.00057354424 0.018337015 0.14231779 0.10842356 -0.038583152 0.02690862 0.0517927 -0.10039844
0.14516833 -0.05584079 -0.09651523 0.051046483 0.09240967 -0.19872086 0.106620885 -0.030025635
-0.18361978 0.01572271 -0.10331868 0.0038495075 0.114648245 0.07454286 -0.023368197 0.18344638
0.09658823 0.045001823 -0.107835226 -0.12915283 -0.11963446 -0.040933825 -0.13005485 -0.15831202
0.0850735 0.035875976 0.0142499665 -0.1097029 0.051398255 0.075489 -0.17004049 0.0061580115
0.10516038 0.034582105 0.072425894 0.24156511 0.091610834 0.040320173 0.08059043 0.011798228
0.018345725 -0.06534554 -0.044547785 -0.06280379 0.040423557 0.0265372 -0.076512896 -0.00239578
0.11414795 0.02297147 0.018511293 -0.12168972 -0.06386738 0.04188442 0.04515235 0.023730488
0.11167311 0.13854802 -0.059698023 0.03942991 0.08847298 0.14459808 -0.029089596 -0.15986735
0.023869105 -0.04966585 0.13311607 -0.0092193065 0.13034949 0.005989516 0.21334645 0.1692466
0.03468093 -0.010700291 0.0034342734 -0.054194704 -0.06365505 0.056644272 0.014879755 0.08390815
-0.006578571 -0.0754617 -0.10111023 0.1560657 -0.07362662 0.08342494 0.016986474 -0.20778224
0.12955968 0.0036486518 0.15809989 -0.12687331 0.03871451 -0.09111175 -0.1055868 0.0104000075
-0.13377635 0.054430187 -0.08258875 -0.13363159 0.08308361 0.06940894 -0.09755459 -0.0020607768
0.22039928 -0.06387839 0.09179518 0.16262108 -0.09246122 0.07575674 -0.039371055 0.20610173
0.23511691 -0.049555197 0.106796615 -0.028343735 -0.100603506 -0.012618389 0.08085021 -0.007449474
-0.1754826 0.029365525 -0.066989206 -0.013911635 0.113023825 -0.08261208 0.14581823 0.04295123
0.17303798 -0.16920388 0.17867461 -0.10197881 0.029777404 -0.052529335 -0.1289502 -0.026286762
-0.08896893 0.1191053 0.013145997 0.03505301 0.087048024 -0.012814129 -0.10209357 -0.12777719
-0.011147295 -0.0155066615 -0.048215177 -0.0006518323 -0.033162 0.080098085 -0.16442798 0.031099733
0.023595178 0.031304896 0.018866614 -0.052416813 -0.09019256 0.007038404 -0.07830851 -0.029389279

lstm2.bias_ih_l0 f4 [256]
00000000: 8892 303c 1b0d 05be 732f 8ebd 9e5f 463e
00000010: 73b3 803b e744 1f3d 21f7 ba3d 6745 c03d
00000020: d5cf 46bd d573 3b3d f797 67bd 6361 b53c
00000030: 73a2 60bd b417 6abd a6ed 513d 6811 8e3d
00000040: 2688 093e 4a78 e93d a97d 153e e399 e63d
00000050: 84f8 e43d c349 7c3c 9202 5b3d 9454 8f3d
00000060: 88e7 143e 3a0e 47bd cbd8 4c3d fb1a 853d
00000070: 8507 f1bb 426f 2a3c 7452 653e 872d 00bc
00000080: cca4 1e3e 6814 f93d 7d40 7d3d 48f9 893d
00000090: f149 d73b 59c6 34bd a24d 0d3d 3ec8 a2bd
000000a0: 9827 443e 262a c63b 7ce4 9dbd febd 983d
000000b0: 7ce2 db3d f4f2 7d3d fcac 07be 1167 393d
000000c0: d461 243e ef1c d7bc 773f cd3d a261 0ebd
000000d0: 40ba b73b c031 26bc fc2b fc3d 4993 6d3d
000000e0: 3638 aa3c dfbe 17be deaa a63d ef1f 91bd
000000f0: 3301 3ebd 3ded 313d d0a3 9cbc 4aa1 6e3d
00000100: e32a 70bc c6e6 d2bc dab0 abbc f13c 643e
00000110: 783a 10bd b7c5 ebbd fdaf 053e 6035 30bb
00000120: 8533 243e 02b1 4f3e 5856 1f3b 2beb 523d
00000130: db2e ad3d da7d 573e 81f6 02bd 9532 623d
00000140: d9da 2d3e 2446 f73c 8e86 953c 7184 213d
00000150: 1cfb 3b3e 63a4 143e f8ae 3cbd bd3b c23d
00000160: 2937 c73d 3fbe 1fbc 1624 2f3e 6ff7 b33c
00000170: 2e28 093e 92a6 093e a987 663d 3c1e ff3c
00000180: d8e4 c1bd 24a4 bd3c efa3 723e dbcd 0c3c
00000190: 53bc 64bd f565 7a3e e3e5 433e 9566 603d
000001a0: 7c79 dc3c 378f 003e 537a 363d e3ed d83d
000001b0: ae2d dc3d d953 283e f89c 10bd 67d7 723d
000001c0: 6e32 a2bc 7dce 00bd 5332 083c 8cc6 973d
000001d0: 8870 96ba 8031 803d d484 4c3d 17ef 393e
000001e0: fb72 1ebd 1a38 1ebe 8bee 883d 742c b03d
000001f0: 8e0a babd 8d55 0fbe 60db 00bd 9240 c53d
00000200: 07be abba a01a 993d fbdb 96bc eb54 5b3c
00000210: 679f f3bd c667 d6bd 2193 1e3e 96b1 a03d
00000220: 8f7d 1d3e ebd7 2e3d 0673 1a3d e9ac ef3d
00000230: 6e8a 8b3d 61ab 6b3d a5fe 9ebd 75a2 c63d
00000240: 386d 503c 3eff f63d ea32 e53c 6b66 0c3e
00000250: 889f 02be 1c33 893c 4858 a93c 3683 e23d
00000260: 994f 3d3e 1089 a4bd 9681 013e 0e73 54bd
00000270: 21dc 7cbd 4556 5fbd a9f8 033e 1f3d 2c3d
00000280: 3fe9 473d 2883 703d f0d1 113e be04 8f3d
00000290: 1079 9ebd 61d0 363a 39a4 4a3c 40b2 b7bd
000002a0: eddf d8bd 1256 1dbd 95be 713d 8ac1 293e
000002b0: c534 b0bb d1a3 5bbd 3129 02bc 083d a3bc
000002c0: 2774 263b 1b81 ea3c b419 f53d bb47 8cbd
000002d0: 447f 8f3b d40a 943c dba3 0bbd 06a9 9e3c
000002e0: 420d da3d 9156 f1bc ec26 05bc 0d73 f63b
000002f0: 1ca2 de3d ddea b0bd 8b53 a5bd 00e8 ffbd
00000300: d071 3d3e 872c 43bd 14a4 113e 0005 b33d
00000310: f9e8 173e 34f2 293e 8437 5abc 11a5 06bc
00000320: 3ae7 a63d 1354 87bd 7040 9abd 0e2c ba3d
00000330: 82c5 003e 02b6 713d cf1f d93d 1084 6e3d
00000340: a9cc 503d 7057 473d 52e9 ad3d c923 373d
00000350: 55ff 883c 8a4c 713b fc59 073a e800 94bd
00000360: fb03 603e 9d42 4d3e 15f7 7bbc 40a9 09bd
00000370: eb74 923d 9ca3 a83d ea04 fa3c cb99 203c
00000380: 2148 0c3e d013 f83d 470d 3b3e c7e0 6f3e
00000390: e8c2 87bd a784 9d3d d420 acbd 9c39 0f3d
000003a0: 87bc 373e fe50 9bbd 2cb1 85bd b007 073e
000003b0: 48dd 9f3d 4f44 a83d 3e44 0bbe bbc7 0a3e
000003c0: 0b07 103e 4635 6dbc 1bb7 2dbd 6ec5 8a3d
000003d0: ded5 38bd 45b7 f13d 8de6 2c3e edeb 243d
000003e0: b07c 6a3d 029e 943d 0ef8 fabc fda1 b53d
000003f0: fee7 7f3d f7e3 163d 5d76 9e3d 6535 d63d
0.010777123 -0.1299328 -0.06942644 0.19372413 0.003927642 0.03888407 0.09129167 0.093882374
-0.048538048 0.045764763 -0.05654141 0.022141164 -0.054842424 -0.05715151 0.05125203 0.06936914
0.13430843 0.113998964 0.14598717 0.1125982 0.11180213 0.015398446 0.053469248 0.06998554
0.14541447 -0.048597552 0.050011437 0.06499287 -0.0073556327 0.0104025025 0.22394735 -0.007823355
0.15492553 0.12162095 0.06182908 0.06737 0.006570094 -0.04413447 0.034497865 -0.079483494
0.19155729 0.006047505 -0.077095956 0.07458113 0.10736558 0.061999276 -0.13249582 0.045264307
0.16052943 -0.026258914 0.100218706 -0.03476108 0.0056069195 -0.010143697 0.12313077 0.05800179
0.020778757 -0.14818905 0.08138059 -0.07086169 -0.046387862 0.04343914 -0.01912108 0.058259286
-0.0146586625 -0.025744807 -0.020958353 0.22288872 -0.03521201 -0.115123205 0.13055415 -0.0026887283
0.16035278 0.20282367 0.002431294 0.051493805 0.084562026 0.21044102 -0.031973366 0.05522402
0.16978015 0.030184813 0.018252637 0.039432947 0.1835751 0.14515834 -0.0460653 0.094840504
0.09727318 -0.009749948 0.1710361 0.021968571 0.13394234 0.13442448 0.05628172 0.031142347
-0.094674766 0.023149557 0.23695348 0.008594002 -0.055843662 0.24452956 0.19130664 0.05478533
0.026913397 0.12554632 0.04455025 0.10592248 0.107509 0.16438235 -0.035305947 0.059287455
-0.019799437 -0.031446923 0.0083127795 0.07410917 -0.0011477629 0.062594414 0.049931362 0.18157612
-0.038683873 -0.15451089 0.066861235 0.08602229 -0.090840444 -0.13997479 -0.031459212 0.096314564
-0.0013102897 0.074757814 -0.018415442 0.013386945 -0.11895638 -0.10469012 0.15485813 0.07846372
0.15379928 0.042686384 0.03770735 0.11702902 0.06813513 0.057536487 -0.07763413 0.09698955
0.012721352 0.12060402 0.02797838 0.13710944 -0.12756169 0.016748004 0.020671979 0.11060183
0.18487395 -0.08033955 0.1264709 -0.051867537 -0.06173337 -0.054525632 0.12887825 0.042050477
0.048806425 0.05871883 0.14240241 0.069833264 -0.077379346 0.00069738 0.012368255 -0.08969545
-0.105895855 -0.03841216 0.059019644 0.16577736 -0.0053773844 -0.053623024 -0.007944391 -0.019926563
0.0025398822 0.028626015 0.11967793 -0.06849619 0.004379185 0.01807157 -0.03409181 0.019367706
0.1064706 -0.029460223 -0.0081269555 0.0075210393 0.10870764 -0.086385466 -0.08072575 -0.12495422
0.18500447 -0.047649886 0.14222747 0.08741188 0.14834966 0.165963 -0.0133189 -0.008218066
0.08149572 -0.06607833 -0.07531822 0.09090434 0.12575343 0.059011467 0.1060177 0.058231413
0.05097643 0.04866737 0.08491768 0.04471186 0.016723314 0.0036819302 0.000516325 -0.07226735
0.21876518 0.20044942 -0.015378733 -0.033608675 0.071512066 0.08234331 0.030519921 0.009802292
0.1369939 0.12113154 0.18266784 0.2342559 -0.06628972 0.07691317 -0.08404699 0.03496705
0.17943011 -0.075838074 -0.065279335 0.13186526 0.07805878 0.08216154 -0.13600251 0.13552754
0.14065187 -0.014478033 -0.04241095 0.06775938 -0.045125835 0.11802534 0.16884823 0.04026406
0.057247818 0.072567 -0.03063586 0.088687874 0.062477104 0.036838498 0.0773742 0.10459403

lstm2.bias_hh_l0 f4 [256]
00000000: 109e 5f3e 2147 b23d fa98 5e3c ca11 eb3b
00000010: e7f7 b93d 9212 c03d 4ea2 5cbc 7a12 1f3e
00000020: b5e0 443d 09c2 bc3c 1670 99bd 485b 873d
00000030: 8cd5 b13c e9bf 533d b834 c9bd de1c 90bd
00000040: eb45 bdbd e0dd b33d feed 3abc c3a9 423d
00000050: 6f23 2c3e ae2e 34bc 45c5 0bbe bfa3 ad3d
00000060: a0bb 093c 2258 3ebd 2a93 183c 1bb4 b03d
00000070: 37ef 0e3e 3dd6 133e 1cb2 2c3e 6b21 9d3d
00000080: 7163 683d 3e74 f33d 44ad 183e 4f80 0c3e
00000090: 4e79 3e3c 1487 6dbd 3e7d 413d 298c a23d
000000a0: fba8 0d3d 3da0 a5bd 7b95 9ebd 4e67 af3d
000000b0: 73a5 97bd 9c59 09bd 9f56 febd a1ee 413d
000000c0: 59c7 af3d 529b df3c 1a38 843d b817 d7bc
000000d0: c798 5e3c 66cc 953d acc5 9f3d 1eb8 c3bc
000000e0: bf81 d3bc a782 ec3c 37c9 dbbd 9589 4bbc
000000f0: 8917 a4bc aaea 543c 3e38 303d 2b57 a9bc
00000100: 281e 4cbe 02a3 b6bd 0e90 0dbd a5df 4d3e
00000110: b121 213c 7a38 05be fc00 cb3d 4ec0 b93d
00000120: b8ba 473d b068 343d 9066 febd c86d e83b
00000130: 77ec aabc 60e2 09bd 2b92 1a3e 11f9 5ab9
00000140: bd9f 393e 3db5 e43d 68cb 913d a7ce 263e
00000150: cd7f 083e fb47 b53d e637 3c3c 0483 353e
00000160: 43c2 173e 40da 133e e854 7ebd 98c9 653d
00000170: 0534 dbbd f260 ef3d c01b 8bbb f1a6 c13d
00000180: 54fb 1bbd 4381 823d 85e0 0a3e e51d 7f3d
00000190: 7878 ce3d a23f 183e 6acb 083e 3774 a6bd
000001a0: 1002 2f3d 089b a93d 87d2 833d 5d5d 233d
000001b0: 7b30 bd3d 2f99 88bd d1e9 98bc 10db f6bc
000001c0: 9a0c b7bc 7b4e 06be 6293 a23a 11da 093e
000001d0: c2a9 313d 8b0b aebd 712b fe3c 2283 ae3b
000001e0: f2f9 9cbd 2505 a4bd 662e c4bc 9821 ee3d
000001f0: ea3c efbd 2fd2 80bd 5f4d c23c 24b6 973c
00000200: a767 bdbc 5ebe bd3d 8adf 9d3d b69c b93c
00000210: f57c 1d3a d28e 91bd fdff c33d 9bb8 7b3d
00000220: e228 823d ac21 c03d b7e5 abbd a34d c23c
00000230: b602 c7bd 47fd 3c3d b434 72b9 6b34 c43c
00000240: 8b60 c83d 7f7c 013e be9f ba3d 8e17 133e
00000250: 57f3 0abd 7609 013d 9741 31bd d971 6fbd
00000260: 89ca 3a3e 448c e33d 33c3 b7bc 1b38 893c
00000270: 109f 873d a37c a7bd 5ecd 413c ab33 983d
00000280: b332 b63c a538 dcbd 8d13 193e 0ba2 cc3c
00000290: e835 4c3d b67f f1bd d369 83bd 4683 a3bd
000002a0: 1b64 36be a29e a53d 36a3 24bd ecfd 943c
000002b0: 3788 00be 6166 44bd fa30 f63c 0d73 ba3c
000002c0: 3261 a33d a1d0 af3a f859 363d 3a88 b2bd
000002d0: 64f0 1b3d f435 9e3d 0d8d 56bc 12dd 81bd
000002e0: d417 0a3e 9f4c c4bd 8b63 043e c76b 19be
000002f0: 2ee0 f13d f917 01be 19ca f3bd e795 edbc
00000300: 7969 583e 7ed0 7fbc 858d 953d f668 743e
00000310: 11c9 0d3e 8838 163e b082 5a3d 5671 313e
00000320: 12d1 b33d e089 3e3c 681e abbd 53a2 16bd
00000330: 8e70 8a3c 4198 8a3d c259 66bd 21ef 6e3d
00000340: 8a50 bd3d bf8b 89bd ec37 bdbd 992c af3d
00000350: 8100 e03d 15f1 383e 9ff0 babd bccb 78bd
00000360: 3de8 6e3e 4bc1 52bc 2c78 783d 708a d1bd
00000370: 301d 693d 84ba bb3d 3130 4d3e 8052 b63d
00000380: 3fb2 5b3e 907e fe3d cb01 2e3e a7f1 1b3d
00000390: 084b 8e3d 18d0 2fbb 4cfa cfbb 9fb7 4bbc
000003a0: 2930 a3bc c24a a53d 6668 8dbd 54bb 633e
000003b0: 3de1 143e 1ff0 97bc 36dc 413d 210a 9ebd
000003c0: 9312 603e c498 02be 619d cfbd 47c0 b93c
000003d0: 8c1b a8bd edc0 fa3d 4453 2a3e 0e76 3b3e
000003e0: 9f1e 423e 201a 0bbe 869f dfbc b294 9d3d
000003f0: 763d e83d 6dee c53d b745 6e3d 9ada 6fbd
0.2183764 0.08704973 0.013586277 0.0071737515 0.09080487 0.09378542 -0.013466431 0.15534392
0.04806586 0.023041742 -0.07492082 0.066092074 0.021708272 0.05169669 -0.098245084 -0.07036756
-0.092418514 0.08782554 -0.011409281 0.04752518 0.16810392 -0.010997457 -0.13649471 0.08478498
0.00840655 -0.04647077 0.00931243 0.086281024 0.1395844 0.14437194 0.16864818 0.076723896
0.05673546 0.11887406 0.14909846 0.13720821 0.011625601 -0.05799015 0.04723858 0.0793689
0.03458498 -0.08087204 -0.07743355 0.08564626 -0.07404604 -0.033532724 -0.124188654 0.047346715
0.085829444 0.027295742 0.06456013 -0.026256427 0.01358623 0.073143765 0.07801375 -0.023891505
-0.025818704 0.028870894 -0.10731738 -0.012422939 -0.020030754 0.012995401 0.043022387 -0.020671448
-0.19933379 -0.0891781 -0.03456121 0.20104845 0.009834693 -0.13009825 0.09912297 0.09069882
0.048762053 0.04404515 -0.12421906 0.007093165 -0.020864708 -0.033663154 0.15094821 -0.00020882885
0.18127342 0.11167381 0.07118875 0.16289769 0.13330002 0.0885162 0.011487937 0.1772576
0.14820199 0.14438725 -0.06209269 0.056100458 -0.10703281 0.11688413 -0.0042452514 0.0945567
-0.038081482 0.06372311 0.1356221 0.06228437 0.10081571 0.14868024 0.13358846 -0.08127635
0.042726576 0.08281523 0.06436639 0.03988396 0.092377625 -0.066698425 -0.01866618 -0.030133754
-0.022344876 -0.13115875 0.0012403543 0.13462092 0.043374784 -0.084982954 0.031026574 0.005325691
-0.07664861 -0.08008794 -0.023947906 0.11627501 -0.1168154 -0.06290089 0.023718534 0.018519469
-0.023120714 0.09264825 0.07708652 0.022657733 0.0006007695 -0.07107319 0.0957031 0.06145535
0.06355454 0.093814224 -0.08393424 0.02371866 -0.09717314 0.04613998 -0.00023098552 0.023950776
0.09784039 0.12645148 0.091125 0.14364454 -0.033923473 0.031503163 -0.043275442 -0.058458183
0.18241324 0.11110738 -0.022431945 0.016750386 0.06622136 -0.081780694 0.0118287485 0.0743173
0.022240972 -0.107529916 0.14948864 0.024979612 0.049856097 -0.11791937 -0.06416669 -0.07984023
-0.17811625 0.080868974 -0.040194713 0.018187486 -0.12551962 -0.0479492 0.03005265 0.022759939
0.07977523 0.0013413617 0.044519395 -0.087173894 0.03807105 0.077251345 -0.013095153 -0.06340994
0.13485652 -0.09584927 0.12928598 -0.1498252 0.11810337 -0.12606801 -0.119037814 -0.029002143
0.21133985 -0.015613673 0.07302383 0.23868164 0.13846232 0.14670002 0.05334729 0.1732839
0.08780111 0.011629552 -0.08355409 -0.0367759 0.016899373 0.067673214 -0.056237943 0.05833352
0.09243877 -0.067161076 -0.09239182 0.08553428 0.10937596 0.18060715 -0.09127926 -0.06074117
0.2333078 -0.012863467 0.06066148 -0.10231483 0.0569126 0.091664344 0.20037915 0.089024544
0.21454714 0.12426484 0.16992871 0.038072255 0.06947905 -0.0026826914 -0.0063469764 -0.012433915
-0.019920425 0.080708995 -0.06904678 0.22239429 0.14539047 -0.018547116 0.04732915 -0.07716776
0.21882086 -0.12753588 -0.101374395 0.022674693 -0.08208379 0.12243829 0.16633326 0.18306753
0.18956994 -0.13584185 -0.027297746 0.07694377 0.11339848 0.09664617 0.058171954 -0.058558084
