saved_model/DAP_Model_Huber.pt (torch, 235122 bytes, 12 tensors)

lstm1.weight_ih_l0 f4 [256, 7]
00000000: b00b 5ebe dcdc 7b3d 88f9 ffbd 478f 35bd
00000010: e767 dd3d fffa 68bd 5b8f 2dbd 23b9 313e
00000020: cc1b fabd d47f 063d c23b 22be 2761 08bd
00000030: 8f06 e33d 419a 7e3e c54c cb3c 87c9 bd3d
00000040: 4f03 28bd a326 91bc e4a6 debc 9f61 ca3d
00000050: 22d5 53bd 7bc1 3ebd c101 10be 0d1e af3d
00000060: 665c c33d 7de9 01bd df4a ca3d c3c0 e13c
00000070: 945b 5cbd 3570 193d 4620 323e 0d96 79bd
00000080: d4f7 13bd c64b 0b3e a134 913e 30a5 d8bd
00000090: 29f5 a7bd 8e5b dc3d 4339 01be c693 043d
000000a0: ff39 28bd 775c c23c 15a8 e8bd bebe 8ebd
000000b0: 6d79 313e 14a5 21be 56ee 423e 738e 54be
000000c0: eb2f bc3d 6630 c33d 7859 103e 42c1 0c3e
000000d0: c9de ac3c bc54 5abd 0947 82bd 2b3e 3ebe
000000e0: f47c 6cbe 5d52 903d 5d19 b33d 7e52 dc3d
000000f0: cba3 20be 0fb5 5f3d 32a4 a93e 3a10 13be
00000100: e110 d23c a593 98bd 51ba 133e 2e13 e63d
00000110: 5a75 1bbd 2d43 af3d ce39 02bd 2b57 ed3d
00000120: 01ac c93c 9324 bf3d b088 3e3c d3c7 67bc
00000130: c4cb 2b3d 6160 213d e04b 473c ed8a 043e
00000140: 92ce 293e 9117 35bd 41d5 c2ba a10d 2dbe
00000150: 3173 4c3d 5ce3 10bd 6d4f 613d 335d 7bbd
00000160: c3b3 5f3e 04a0 14be 5c3e 7e3e c672 113d
00000170: a1ae bdbd 9396 10be 3802 e93d 0d56 6ebb
00000180: 9a14 d5bc 49a7 953e c044 f4bd a9fa 043e
00000190: 3950 223d c419 d5bd ce7d 9abd 0243 16bd
000001a0: d20d d7bc ee90 413d bc52 913d d0e0 653e
000001b0: 5697 76bd 3d41 2f3e ea4b 1ebd 2d9c be3d
000001c0: 7272 d93b 8320 f4bc 58bc 563e 47bf a3ba
000001d0: 0ce3 b4bd 7def ccbc b77a 3c3d 4c28 a43d
000001e0: f888 963b 152f 1b3e 7063 4c3d 4ddb 343d
000001f0: 869b 103e 4bbb af3e 127b 113e 644e acbd
00000200: f87b 46bd 8bbb f3bc 05c3 283e 17c0 943d
00000210: 4d7c ae3d e31a f73d 58b0 06bc 75e3 58bd
00000220: b6a0 0dbd 515e c93d a617 033e a7e4 9abe
00000230: 109d 5dbc 9f75 883b bf4e 993d bbd6 473d
00000240: 75c5 29be fe56 74bd 7623 b6bd 276f 8a3d
00000250: 7047 e03d ba5e 4fbd 4f02 b73c fc49 ce3c
00000260: 0209 5d3d 809e 803d 29ab b4bd 5670 dc3d
00000270: 990f 3e3e 83df c93c 12f1 8539 0063 31be
00000280: c839 b13d f0a3 0c3e 9b29 253d 953f dbbd
00000290: 9f7d 51bd 4bc9 8cbc a667 3d3d cf34 6dbe
000002a0: a9d9 b0bd abfd c1bc 245c fbbb 1163 b1bd
000002b0: 5fbe da3d d337 033e 99d6 ca3d 7662 a43e
000002c0: 8f39 0d3e 1eb5 91b9 3283 4fbd 889e fa3d
000002d0: a5f6 3dbd 4423 06be e2bc bebd 8d46 94bd
000002e0: 5d46 883e 4443 d63d 273d 083d 2c9a 6cbe
000002f0: 99d4 183e 809e a0bd c0c2 ba3d e415 91bd
00000300: 8f84 aebd 4e4d 94bc 11a4 073d cabc f7bd
00000310: 5457 2b3d 84b9 963d c2fe 673e 0b77 773d
00000320: 8d7a 8d3c ead5 dc3c ae51 b0bd c8ef 673c
00000330: cfb4 2e3e 6c23 503e b76c d23d 8797 8f3d
00000340: bdc0 1f3d 2a89 6bbd 78b9 373c 2ab4 d2bc
00000350: 7a3b 2d3e c081 513d 03de 4f3d 539f 8bbd
00000360: 21b1 78be a764 2dbc 2016 3a3d efa3 95be
00000370: 2a5a 403d 93bf cb3d d690 1cbe c685 b7be
00000380: c04b 683e d08d 53bd bd45 c2bd 1201 18be
00000390: 5ee4 1a3e ed78 47bd f44f 06be f30c 28bd
000003a0: 893d 32bc 8be3 283e 047e 533c 50a9 dbbd
000003b0: 1910 36bc 5884 6c3d 33c3 23bd d2a7 343d
000003c0: e4d7 42be d16b 91bd 5339 a13d 1500 493e
000003d0: 19c0 8dbe 494c 5d3e f0a9 73bd a3cf a6bd
000003e0: 31b4 75bd cad7 05be 7c0d 91bd c720 603e
000003f0: 59bb e33d e665 da3c ecdf 72bd 0d63 72be
-0.21684146 0.061489925 -0.12498766 -0.044326093 0.108108334 -0.056879994 -0.042373043 0.1735578
-0.12212333 0.03283675 -0.15843108 -0.033295777 0.11085235 0.2486353 0.02481688 0.09266954
-0.04101878 -0.017718619 -0.027179189 0.09881901 -0.05171693 -0.046571236 -0.14063169 0.085506536
0.09539108 -0.031716812 0.09877562 0.027557736 -0.053798273 0.037460525 0.17395124 -0.060934115
-0.03612502 0.13603124 0.28360465 -0.10578382 -0.082010575 0.1075965 -0.126195 0.03236749
-0.041070934 0.023725731 -0.11360184 -0.06969975 0.17331477 -0.15785629 0.1903623 -0.20757465
0.09188827 0.09530716 0.1409663 0.13745597 0.021102326 -0.053303465 -0.06361205 -0.18578403
-0.23094541 0.070469595 0.08745072 0.10757922 -0.15687482 0.05461603 0.33133084 -0.14361659
0.025642814 -0.07450036 0.14426543 0.11234127 -0.037953712 0.08557735 -0.031793408 0.115888916
0.02461815 0.09333148 0.0116292685 -0.014146763 0.041942373 0.039398555 0.012164086 0.12943621
0.16582707 -0.044211928 -0.001486458 -0.1689973 0.049914543 -0.035373077 0.055007387 -0.06136818
0.21845917 -0.14514166 0.24828476 0.035509847 -0.092618234 -0.1411994 0.11377376 -0.0036367208
-0.0260108 0.2922919 -0.119271755 0.12986244 0.039627288 -0.10405305 -0.075435266 -0.036684997
-0.026251707 0.047257356 0.070958585 0.2244904 -0.06020292 0.1711473 -0.038646616 0.09307132
0.0066359574 -0.029800659 0.20970285 -0.0012492918 -0.08832368 -0.02501654 0.046015467 0.080154985
0.0045939647 0.15154679 0.04989952 0.044154454 0.14121827 0.3432258 0.14207104 -0.08413389
-0.04845807 -0.029752513 0.16480644 0.07263201 0.08519802 0.12065675 -0.008220755 -0.052951295
-0.034577094 0.098324426 0.1280199 -0.30252573 -0.013526216 0.004164412 0.07485723 0.048788767
-0.1657923 -0.059653275 -0.088934824 0.06759482 0.109511256 -0.050627448 0.022339968 0.025181763
0.05396367 0.062802315 -0.08821709 0.10763614 0.18560638 0.024642712 0.00025547348 -0.17322922
0.08653599 0.13734412 0.04032288 -0.10705487 -0.051145192 -0.017185828 0.046241425 -0.23164676
-0.086352654 -0.023680529 -0.007670896 -0.086614735 0.10680842 0.12814264 0.099042125 0.3210637
0.13791488 -0.00027791498 -0.050662227 0.12237269 -0.046377797 -0.1309939 -0.0931337 -0.07240019
0.26616183 0.10462049 0.033261444 -0.23105687 0.1492485 -0.078427315 0.09119177 -0.070842534
-0.08521377 -0.018103268 0.03311545 -0.120965555 0.04183133 0.07359603 0.22655776 0.060416263
0.01727035 0.02695747 -0.08609329 0.014156289 0.1706116 0.20326012 0.10274642 0.070113234
0.03900217 -0.057503857 0.011213653 -0.025720675 0.1691722 0.05114913 0.050748836 -0.06817498
-0.2428632 -0.010583079 0.045431256 -0.29226634 0.046960987 0.09948649 -0.15289626 -0.3584425
0.22685146 -0.051648915 -0.09485958 -0.14844158 0.15126178 -0.04869931 -0.13116437 -0.041027974
-0.010878929 0.16493051 0.012908462 -0.10725653 -0.011112236 0.0577434 -0.03998108 0.04410536
-0.19027668 -0.071006425 0.07872262 0.19628938 -0.2768562 0.21611132 -0.059488237 -0.08145072
-0.059986297 -0.13070598 -0.0708265 0.21887504 0.11119718 0.026659917 -0.05929558 -0.23670597

lstm1.weight_hh_l0 f4 [256, 64]
00000000: 2966 113e 58a8 00bc 67ad 5a3d 6551 073d
00000010: 224e a33b e4cd cb3d 350e 9fbd 5145 863d
00000020: 83ca b03d 3936 a93d 3a2a 8d3c 1651 403d
00000030: c9b8 f0bd f3cb 0e3e 3260 743e 91d4 c2bd
00000040: 2b1e 073d 17ee 05be a346 14bd b51d c2bb
00000050: 152a d0bd 1e2b 76bd 307a 233e 4cab 253e
00000060: 5d1c 1ebe ff49 213e f239 bcbc 696c b53d
00000070: f7ee db3c 7639 72be a6cc fe3c 0401 bfbc
00000080: c340 f5bd 2cea 153e 5d86 123e 85f9 18be
00000090: 36e7 503c 1f7e 0fbc a30a 77be 8f5d ce3d
000000a0: 8065 f13d f9eb 493e dd34 793d 3456 313e
000000b0: 27fa fbbd 8c3b a93e 4a67 d3bd 1791 17bd
000000c0: 258f fb3d 2f31 22be a12b 06be 37af 113e
000000d0: 9d2a 9d3c 4d08 5f3d 5041 3ebd 0a01 ba3c
000000e0: 0ea1 fe3d 0bc5 cc3d 8a11 84bd 17b8 16be
000000f0: 89cd 9bbd 7c7c 9b3d de27 2d3d 14f7 303e
00000100: a636 acbc b4da 743d 2a89 43bd ac80 f33c
00000110: 5aaf 3dbe 2b8e 7c3d 9525 453d 14d3 0abe
00000120: d277 223c af1f b83d 1060 36bc 5f7d 9d3b
00000130: 36c4 b63d 6c9c 8a3c 9cfe 9b3d 3c59 e5bc
00000140: 26fa 20be 8cbe 02be 7e4c 37be 926e b53d
00000150: eca3 c6bd bf48 d83b afb4 f43d 436b 453c
00000160: ef03 31bc 7804 bcbd 874a 1abe 5461 8b3c
00000170: b948 883d f636 183e 1df5 8fbd 352d 1c3d
00000180: aed2 e43c 5d40 05bd 4b5f 263d 9120 883d
00000190: 2b70 413d 682b 2bbe 2f80 9d3d b56a 7b3d
000001a0: 2bc3 b8bd 7110 293d e665 e9bd 9826 00be
000001b0: cbd5 5cbd 587c a83b f7a1 afbd f5d1 143c
000001c0: 31a5 07be 7243 18be 83a8 073e edf7 a33d
000001d0: 0c61 08be a819 7fbd d675 56be d035 8bbd
000001e0: 50f2 ef3d 29f5 7d3d a438 3a3d d8cd 5f3d
000001f0: 48f8 e53d 0df7 4abd 381a 003e fcea c4bd
00000200: 9651 0ebe 7c56 c6bd cf3c 94bd 265a 383e
00000210: e63c 1fbe 5485 ca3d be9c 583e 24cc b4bd
00000220: ef67 79be 4b97 9fbd cdf5 f0bb 77c7 41bd
00000230: 3cbd 373d 4b21 5c3c a3fe 28bd 6661 1f3e
00000240: cc86 0c3e 30a6 a8bd 6c16 dcbd 3d9c adbc
00000250: bc25 dd3c 3263 243d 47ca aabd 6e86 c2b9
00000260: 3639 1e3d e6d4 433d 7d59 5c3e cb22 673d
00000270: 6716 983d fb72 8fbd 8be7 143d 305e 013c
00000280: 55f9 433b 54ca fa3d de02 eabd 7b2c 9cba
00000290: b099 c0bd 23d6 183d 2cd5 23bd 47ed 933c
000002a0: 3271 003c 1fc3 96bd 531e a63d af67 8bbc
000002b0: a991 bbbd dd3e 8e3d 581a e6bd e347 15bb
000002c0: 0c90 e9bd 8dd9 16be 6601 3ebe 458f 04be
000002d0: b64d 153e be38 1b3e 8be7 623d ec49 95bc
000002e0: 06b1 4dbd 7c0b 4abe 6b58 0d3d 3fd2 62bd
000002f0: 0206 b5bb 93f4 2b3d 51a1 c0bc 56f5 23bd
00000300: e538 a7bd a1e3 f4bd 0b8f c53d bd7b a23d
00000310: ce79 1abe 2f47 213d f958 19bd 1766 4cbe
00000320: bf37 b2bd ec29 a9bd 382b b0bd 50af aabd
00000330: 504f 4e3e fdbc c4bd e833 babd 4af4 62bd
00000340: c6ec 473d e26e 903c 6af8 803d d08d 523e
00000350: 7b30 ba3c 4f28 c1bd e499 2a3e 67bc ab3d
00000360: 1b99 cabc 4445 543e cabb 943d f198 68bd
00000370: c681 963d c0f4 72bd 02de 853e 2b38 9cbd
00000380: 997c 21be c89b 99b9 c062 863d 2357 8b3d
00000390: 10cb f43d b03a b63c 0b11 61bd 7055 34be
000003a0: ee63 483e 488b 783d eda0 6ebd 1cbc f03b
000003b0: b4fd fd3d 3e57 12be cc41 973d 6a40 333d
000003c0: aec1 c03d 12f7 d13d 7aff 953d ecc1 2d3d
000003d0: cd6d a43c 555b 86bd c0f9 c2bd fc3c 553e
000003e0: c7f2 28bb c4f2 383c 231b 023c 25ed e1bc
000003f0: 6051 c53d 618d d4bc 0527 fc3d e991 dcbd
0.14199127 -0.007852636 0.053388026 0.03303661 0.0049836794 0.0995138 -0.07766382 0.0655619
0.08632376 0.08262295 0.01723205 0.04695233 -0.11753995 0.13944988 0.2386482 -0.095132
0.032987755 -0.13079105 -0.036200177 -0.0059239515 -0.101642765 -0.060099714 0.1596458 0.16178626
-0.15440507 0.15750884 -0.02297685 0.08858568 0.026847346 -0.23654732 0.031103443 -0.023315914
-0.11975243 0.1464011 0.14309068 -0.14938934 0.0127504375 -0.008758097 -0.24125151 0.10076439
0.11786938 0.19718923 0.06084143 0.1731804 -0.12303572 0.33053243 -0.10322435 -0.037003603
0.12283162 -0.15839075 -0.1310258 0.14226995 0.019185359 0.054451276 -0.046449006 0.022705574
0.124330625 0.099985205 -0.06448658 -0.14718662 -0.07607562 0.07592103 0.04227435 0.17281753
-0.021022152 0.059778884 -0.04773823 0.029724441 -0.18523923 0.06165902 0.048131544 -0.13557082
0.009916263 0.08990418 -0.0111313015 0.004806205 0.08924143 0.01692029 0.07616922 -0.027996652
-0.15720424 -0.12768 -0.17900273 0.0885898 -0.09699234 0.006600469 0.11948525 0.012049499
-0.0108041605 -0.0918054 -0.15067492 0.017014183 0.06654496 0.14864716 -0.070291735 0.03812905
0.027932491 -0.032532085 0.040618222 0.066468365 0.047226112 -0.16715777 0.07690465 0.06138106
-0.090216 0.041275445 -0.11396389 -0.12514722 -0.053914826 0.005141776 -0.08575814 0.009083261
-0.1324661 -0.14869478 0.13247876 0.080062725 -0.1331827 -0.062280327 -0.20943388 -0.06797373
0.11716139 0.06200138 0.045464173 0.054639667 0.112289965 -0.049552012 0.12510002 -0.09615132
-0.1389831 -0.09684464 -0.07238161 0.18003139 -0.15550575 0.098887116 0.21153542 -0.08827999
-0.24356054 -0.07792529 -0.0073535205 -0.047309365 0.044858202 0.013435672 -0.041258465 0.15564498
0.13723296 -0.08234823 -0.10746464 -0.021192664 0.026995532 0.040133663 -0.083393626 -0.0003710272
0.03862878 0.047810458 0.21518512 0.056429666 0.07426148 -0.07004353 0.03635363 0.007895991
0.0029903252 0.12245622 -0.11426328 -0.0011915112 -0.094043136 0.03731359 -0.03999822 0.018057479
0.007839488 -0.07361435 0.08111253 -0.017017214 -0.09158642 0.06945584 -0.112354934 -0.0022778444
-0.11404428 -0.14731427 -0.18555221 -0.12945278 0.14580426 0.15158364 0.055396598 -0.018223725
-0.05021765 -0.19730943 0.03450815 -0.055376288 -0.005524398 0.04198129 -0.023514422 -0.040028892
-0.08165149 -0.11957479 0.09646424 0.079337575 -0.15085527 0.039374527 -0.037438367 -0.19960819
-0.08702039 -0.08259949 -0.08601993 -0.083342195 0.20147443 -0.09606359 -0.090919316 -0.055408753
0.04880979 0.017630998 0.06297381 0.2056191 0.022728195 -0.094315164 0.16660267 0.08385544
-0.02473121 0.20729548 0.072623804 -0.05678648 0.07348971 -0.059315443 0.2614594 -0.07627901
-0.15770186 -0.000292985 0.06561804 0.068037294 0.119527936 0.022244781 -0.054947894 -0.17610717
0.1956937 0.060679704 -0.05825894 0.007346643 0.12401906 -0.14291093 0.07385597 0.043762602
0.094119415 0.10252203 0.07324119 0.042421266 0.020071888 -0.06560389 -0.09520292 0.20824045
-0.0025779472 0.011288349 0.00794104 -0.0275789 0.09634662 -0.025946321 0.1231213 -0.10770018

lstm1.bias_ih_l0 f4 [256]
00000000: 8ff2 81bd 5f49 7f3d 1c2d f9bd 6349 81bd
00000010: 7dd6 a73d 4c16 2bbe 0598 963d a23d a3bd
00000020: 4990 33be 1ec9 77bd 5737 bdbd f958 54bc
00000030: b0b7 00bd 0baa fa3d 1426 993d 4adf 693d
00000040: bf02 f03d 937a 01bc d95d 753d d8ee 36be
00000050: af18 53be 5a53 9b3d 8d29 3a3e 23c8 813c
00000060: 634b e5bd 96c8 9bba 03a9 16be 3971 b2bc
00000070: b6e8 fb3d 9c69 e6bc 24dc a1bc e4f9 80bd
00000080: e080 f8bd 7f13 86bd c944 713d 1d90 eabd
00000090: 286f 3dbe 5c43 46be 95bf 3abe 91f1 a03d
000000a0: 2181 cfbd 8ec8 003d 9d70 12bd 3522 80bd
000000b0: fe45 d8bd 98e2 f3bd 40fc b8bd c5be e4bd
000000c0: e404 813c bf41 063c e579 223e a618 fc3d
000000d0: 216f eebc 06d0 37be 3b75 123d 5c57 6c3e
000000e0: b95d 3c3d dea0 053d b253 eabd ed07 843c
000000f0: 8bff edbd b97c c6bc cad0 a33b 08aa aebd
00000100: c60d a73d fcc8 aebc 2524 5ebe 588e 513e
00000110: 6a23 603d c603 64bd 89a8 003e 8343 bbbd
00000120: 0b7c 893e 99df 953c 8035 3e3e ceba c6bc
00000130: 7fc2 093e 57a3 713d 59a9 dcbc b7ca b7bd
00000140: 92e9 84bd 1345 94bd 7ba6 8fbd cb15 053e
00000150: 27f7 0dbe 0f64 043e e7ed 44bd a7e6 953d
00000160: 712f d1bd 7c49 643e 2bc3 25be bda2 dc3d
00000170: 94a2 51bc f90a 68bd 7212 e93c 99b6 a8bd
00000180: a10c 0fbe 6d76 f4bc b68b 013d e4ab 3bbd
00000190: e3f8 723d 9a28 1a3d a1ec b13d 802a 633d
000001a0: 2dd4 d4bd 1a21 d53d 3da4 b1bd 2639 4e3e
000001b0: 70c3 40be 8112 543d e6a6 c7bc c8b4 fe3d
000001c0: ede1 153d 2a3a 05be 0fa7 02bd d0ae 1f3d
000001d0: db1b 8e3d 9e8c 23bd 5d0a 18bd 1b27 a43b
000001e0: cbcd c33c 19ac 0a3e 30dd 6ebd 1887 da3c
000001f0: 5688 063c 682e 1c3b 2813 8fbd d227 31bd
00000200: b14c 3f3e ce0c 693c 116d 8a3d ca53 dcbd
00000210: 7aee 013d 22f6 9e3d 362b a13c ea1e 3cbe
00000220: e59a a6bb e1bb 613e e3e6 7cbd 71b4 04be
00000230: 8347 063e d4b2 5a3e 1dab b83d b201 bfbc
00000240: 7ec8 423e 9782 b6bd 015f 503e ace6 2c3e
00000250: 9363 073d 732a b93d e109 373e ea81 6b3d
00000260: f564 dcbc 52bb 823d 5026 02bd 2143 21bd
00000270: 8232 193d c6ae 0dbd 845d 29be c839 99bd
00000280: 0438 ecbd 6083 053d ee42 173e 4d8c 02bc
00000290: 95a5 503e 1d06 c7ba 406f 21be 8636 a73d
000002a0: 1e4f 783c 67aa c63b b0f0 9abd 190f 2a3e
000002b0: 7256 b9bd a3a7 06bd a2cf c03d 06d8 f63c
000002c0: bac2 553e 4b11 d53c 07cb 6ebd f54a 093e
000002d0: 5f3f c73d 266f 743d d6b4 dcbd 14d2 073e
000002e0: 0cab 0cbe 3581 24bc 21bd 0b3e ff5a 7dbd
000002f0: d813 963d a81e 743d f5b6 1c3d 2ef1 803d
00000300: d36f 1d3e 37dc 9e3d e1a6 16bd 3fd6 fbbd
00000310: 7840 d9ba d58d ebbd c3c4 943d 9430 a03d
00000320: b697 31bd d403 adbd fad7 6cbd cc10 b5bd
00000330: bad3 bd3c 97b4 ad3d 8261 67bd d981 63bd
00000340: 11dc 803d f913 3bbc 196a 223e 2473 0f3e
00000350: f1f7 c0bd 2ef8 2c3d 3cfa 26bd 8f64 b7bc
00000360: eee5 98bd 7311 50bd 0b34 02bc e2d1 b6bd
00000370: 59af 97bd 2c72 c63d bc46 36be ce1c 6ebd
00000380: 976b 983c 6bc6 973d c384 ecbd 4f6c 3bbe
00000390: 5662 a93d ad96 fdbc 6ede 323c e633 d23d
000003a0: 56b1 e63c 65fe de3c 4f01 303c 5261 903d
000003b0: 3205 e2bd 67ff 7b3c c652 c63c 80eb b53d
000003c0: e0ec 2ebe f438 b73c cb17 66bb ace2 a4bc
000003d0: d1c2 8cbc c81c fcbd 0eb3 ec3c b463 d4bc
000003e0: 4700 bbbd 2d2e c33d 7639 df3b 3b72 3bbe
000003f0: be3d 6abd a4ac 983d 6019 27be a43a e4bd
-0.063450925 0.06232583 -0.12166807 -0.063128255 0.08195207 -0.16707724 0.07353214 -0.0797074
-0.17535509 -0.060494535 -0.09239071 -0.012960666 -0.031425178 0.12239464 0.07477966 0.05709771
0.11719274 -0.007902759 0.059903953 -0.17864549 -0.20614885 0.075842574 0.18179913 0.015842503
-0.111960195 -0.0011885341 -0.1471291 -0.021782504 0.123002455 -0.02812653 -0.019758292 -0.06297663
-0.12133956 -0.06546687 0.05890349 -0.11453269 -0.18499434 -0.19361633 -0.18237145 0.07858575
-0.10132051 0.031441264 -0.035751928 -0.062565245 -0.10560225 -0.11908454 -0.09032488 -0.11169199
0.015749402 0.008194386 0.15866812 0.12309389 -0.029105725 -0.17950448 0.03575633 0.230802
0.04598782 0.032624118 -0.11441745 0.01611706 -0.116210066 -0.024229394 0.004999255 -0.08528525
0.08156924 -0.021336071 -0.21693476 0.20464456 0.054721273 -0.05566766 0.12564291 -0.09143736
0.2685245 0.018295096 0.18575096 -0.024258997 0.134531 0.058993664 -0.02693622 -0.08974212
-0.064898625 -0.07239737 -0.070141755 0.12996595 -0.13863812 0.12928794 -0.048078444 0.07319384
-0.10214127 0.22293657 -0.16187732 0.10773227 -0.012795109 -0.05665109 0.028451178 -0.08237953
-0.13969661 -0.029841626 0.03162738 -0.045818225 0.059319388 0.037636377 0.086877115 0.055460453
-0.10392032 0.10406704 -0.08673904 0.20138988 -0.18824553 0.05177546 -0.024371576 0.12436825
0.036592413 -0.13010469 -0.0318976 0.038985074 0.06938907 -0.039929025 -0.03711926 0.0050095445
0.02390184 0.13542213 -0.05831641 0.026675746 0.008211216 0.0023831371 -0.06986076 -0.043250866
0.18681599 0.014224244 0.06759084 -0.10758169 0.03172157 0.0776179 0.019673925 -0.18371168
-0.005084383 0.22044326 -0.06174363 -0.12959458 0.13113217 0.2135728 0.09017012 -0.023316238
0.19021794 -0.08911627 0.20348741 0.1688487 0.033053946 0.090413 0.17874862 0.057496943
-0.026903609 0.06383385 -0.03177482 -0.03937066 0.037401684 -0.034590505 -0.1653958 -0.07481724
-0.11534122 0.032595992 0.14771625 -0.007968021 0.20375665 -0.0015184317 -0.15765095 0.081646964
0.015155582 0.006062794 -0.07565439 0.16607322 -0.09049691 -0.032874715 0.09414603 0.030132305
0.20875064 0.026009222 -0.05829909 0.134075 0.09728884 0.059676312 -0.10776679 0.13263732
-0.13737124 -0.010040571 0.13646366 -0.06185436 0.07328004 0.05959955 0.03826042 0.062960014
0.15374689 0.077568464 -0.036780242 -0.122967236 -0.0016574999 -0.11501662 0.07264092 0.078217655
-0.043357573 -0.08447996 -0.05782316 -0.088410944 0.023172248 0.084817104 -0.056489475 -0.055543754
0.06291974 -0.011418336 0.15860786 0.14008766 -0.09422291 0.04222887 -0.040765986 -0.022386817
-0.074657306 -0.05079789 -0.007946978 -0.08926751 -0.07406492 0.09689745 -0.1780042 -0.05813294
0.01860599 0.07410892 -0.1154876 -0.18303035 0.08270709 -0.030955637 0.010917289 0.10263805
0.028160732 0.027220914 0.0107424995 0.070498124 -0.11036147 0.015380717 0.024209391 0.08882809
-0.17082548 0.022366025 -0.0035109397 -0.020127617 -0.01718274 -0.12310177 0.028893974 -0.025926448
-0.09130912 0.09530292 0.00681227 -0.18305294 -0.05718779 0.074548036 -0.16318274 -0.11143997

lstm1.bias_hh_l0 f4 [256]
00000000: ee80 a53c ce56 16bd 6bcd a1bc aa1e 37bd
00000010: 4880 a9bd 195f 07be a3f6 0a3e 8ae0 d53d
00000020: f48e 82be 72b4 d0bd dc89 b1ba b64d c83d
00000030: 7d0e 903c 192c 123d 288b 903b 918a d0bc
00000040: 33e2 cd3c c877 febd ffaf 2b3e 9881 323d
00000050: bba4 84bd 9f18 163e b5ba a73d 54a5 05bd
00000060: 7be2 08bd 8eda b03d 1a3c c23d f894 d83c
00000070: 59cb be3d 5b2e ebbc f7ad acbc 3a25 5dbd
00000080: 0c2c f2bd f9f7 1cbe 44c8 03be 33de 11be
00000090: 3fea 01be 1c20 27be 884f 2ebe 51b2 b2bd
000000a0: a565 a43c 5b77 b4bd 8920 2abe 9674 193e
000000b0: 7365 51be 80d9 233d fca4 d4bc 34aa d83c
000000c0: 9fde d6bd fd5a d53d 3e90 d33d 91d6 1d3e
000000d0: 6618 05bd 3a6a 863c 1404 0bbe 171b 6b3e
000000e0: 7f58 01be 109c 13bd 8526 aebd 3b56 38be
000000f0: de7d f9bd 6c63 6abd 9b6a 233d c980 8ebd
00000100: 3263 203e 2eff 543b 5b94 a53c a0d4 473e
00000110: f53a 4cbc 2ceb 843d b1b7 a53d 47f9 a2bd
00000120: 1811 513e edeb 203d a8ec f53d 23b2 c3bc
00000130: 1fd2 8c3d c3ff e43b 427d 39bd a4e7 0dbd
00000140: eb52 1ebe 5d61 aa3b c46f ffbd 096a e83d
00000150: 0650 68bd 9e00 e3bc 4089 d2bb 2304 04bd
00000160: fe0c 6f3d 0ac0 9d3d 0fbe aa3d be67 92bd
00000170: 8324 1bbd b657 993d 1854 db3c bcb3 6c3d
00000180: 466a d9bd 8dff e7bc 1c71 9cbd bfd6 ef3d
00000190: 0a9b df3d 1651 16bd 1da5 f3bd 4f2a 86bd
000001a0: fa0f 0ebe 7ca6 e4bd 5209 03be 5eb2 3b3e
000001b0: 6276 23bd ff71 603d e3d1 49be a095 1f3e
000001c0: 14ad cdbd 4273 22be 2645 6f3d 712b 763d
000001d0: 631e dfbb 8d6e 913d 3008 a9bd dfc1 923d
000001e0: 7e06 8d3c 1d70 5a3d 8498 37bc f48d 61bd
000001f0: 3650 953a 2125 65bd 4e93 ef3b ffab 07be
00000200: ec3e 483e 4715 8dbd c438 793e 1f97 503c
00000210: ab15 d23d 1e69 acbd 4550 96bd 1f3f 1bbe
00000220: bcbf d9bc 2bbe b73d 33cf d33c fe9e 23be
00000230: 4807 a43d 7a69 cf3c 20f4 d53d 4409 e93d
00000240: e457 803c 0450 0cbd eb8a 383d b780 e63d
00000250: f2a2 d43d f2ed 473e 7e5f 1a3e 7dcb 543e
00000260: 03cc 043e 62bd 2c3e dccd 2cbc d097 d83d
00000270: 65ab 2b3e 656b 6ebd 6a7b f8bc 2d50 d7bd
00000280: 8855 f7bd 0ddd 0d3d b5e4 b63d 9932 60bc
00000290: 1fbd 1d3e 7a3f d63c 8d56 32be d7ef 24bd
000002a0: 8397 ac3d 35d6 653e e9b2 febd a3c0 463e
000002b0: 7af7 30bd 38b3 4dbd 4b75 ad3d 5c63 3b3e
000002c0: 0cde e23d b1c5 263e 59ed 283d 5e39 c83d
000002d0: 168c 1cbd 67b2 4bbd a2de 59bd 2495 ec3c
000002e0: a6ef 29bd 9900 b5bb 981d 2e3e 47c8 fdbd
000002f0: 0efa c83d 1cba 243e 389b 2a3e 22d2 dbbd
00000300: 898e 3cbc 4de5 f83c 5a0b 3b3b d477 d7bc
00000310: a61d fc3d 6214 53bd fca4 323d 1262 86bd
00000320: 6079 be3d 9aae b5bd d3f8 49bc 2f19 d43c
00000330: ca31 41bd 3adc d23c 866e efbd cbbf 943d
00000340: 0b4e 69bc 0928 febd 535d 163e c421 f13d
00000350: f7fa 52be 7d31 15be 4fe2 d5bc f7be e33d
00000360: aa5a ba3c 9661 bf3d 9211 913c 4f65 b4bd
00000370: c74e 243d 071a 063e 0661 54be 115d c93d
00000380: 48d2 f1bd 2a6f 0e3e f3ae 623c 602c 13be
00000390: d672 cabd ca75 03bc 7027 23be dcde f7bd
000003a0: 71d0 5a3d 53b3 9bbc 8098 c3bd 0b64 9b3d
000003b0: 3c88 c0bc 18b2 f6bd b869 ca3d 6962 df3c
000003c0: 74a0 13be 8719 393d b7a1 12bd e5cf 0b3e
000003d0: 8421 90bd 6082 8e3d c48c 623c c244 65bc
000003e0: 0b5d 8c3b 77be 98bd 9f8b 8f3d ce5b 38be
000003f0: 43a2 97bd d62a 283d 003f 3bbc ce09 85bd
0.02020308 -0.036703877 -0.019751271 -0.044706978 -0.08276421 -0.1321987 0.13570647 0.10443218
-0.2549969 -0.10190667 -0.0013545114 0.09780447 0.017585034 0.035686586 0.00441112 -0.025456699
0.025132274 -0.1242519 0.16766356 0.04358062 -0.06476732 0.1465783 0.081899084 -0.032628372
-0.033419114 0.08635436 0.0948412 0.026438221 0.09316129 -0.028708627 -0.021079047 -0.05399058
-0.118248075 -0.15328969 -0.12869364 -0.14244919 -0.12687014 -0.16320843 -0.17022526 -0.087254174
0.020068 -0.08811828 -0.16613974 0.1498588 -0.20448856 0.040002346 -0.025957577 0.026448347
-0.1049168 0.10417745 0.103302464 0.15413882 -0.03249397 0.016408075 -0.13575774 0.22959553
-0.12631415 -0.036037505 -0.08503441 -0.18001644 -0.121822104 -0.057223722 0.03989659 -0.069581576
0.1566284 0.0032500732 0.020212343 0.19514704 -0.012465228 0.06490168 0.08091677 -0.07957702
0.20416677 0.039287496 0.12008029 -0.023888653 0.06876015 0.006988497 -0.04528547 -0.034644738
-0.15461318 0.005199595 -0.124724895 0.113483496 -0.05671694 -0.027710255 -0.006425053 -0.032230508
0.058362 0.07702644 0.08337032 -0.071486935 -0.037876617 0.07487433 0.026773497 0.057788596
-0.10615973 -0.028320098 -0.076387614 0.117108814 0.10918243 -0.036698423 -0.11896727 -0.065510385
-0.13873282 -0.11164567 -0.12796524 0.1832976 -0.03990782 0.054796215 -0.19708972 0.15584421
-0.10042778 -0.1586428 0.058415554 0.060100023 -0.0068090423 0.07101164 -0.08253515 0.07165884
0.01721501 0.053329576 -0.011205796 -0.055067018 0.0011391703 -0.055943612 0.0073112613 -0.13249205
0.19555253 -0.06888824 0.2433806 0.012731343 0.10258039 -0.08418487 -0.07339529 -0.15160798
-0.026580684 0.089718185 0.025855636 -0.1597862 0.08009201 0.02531885 0.10446954 0.113787204
0.01566691 -0.034255996 0.045054357 0.11255019 0.10382642 0.19524363 0.1507549 0.2078075
0.1296845 0.16869119 -0.010547128 0.10575831 0.167646 -0.05820789 -0.030332286 -0.10513339
-0.12076861 0.03463464 0.08930341 -0.013683938 0.15404175 0.026153315 -0.17415829 -0.04026779
0.08427336 0.22444995 -0.12436468 0.19409423 -0.043204762 -0.050219744 0.084696375 0.18299621
0.11077508 0.16286351 0.041241977 0.09776567 -0.038219534 -0.049730685 -0.053190835 0.02887971
-0.041488312 -0.005523753 0.17003477 -0.123917155 0.09813319 0.1608662 0.16660774 -0.10733439
-0.011508592 0.030382777 0.0028540702 -0.026302256 0.123103425 -0.05153311 0.043614373 -0.06561674
0.09300494 -0.08871193 -0.012327391 0.025890915 -0.047166623 0.025739778 -0.116910025 0.07263144
-0.014239798 -0.1240998 0.14684038 0.117740184 -0.20603548 -0.1456966 -0.026108889 0.11120408
0.02274831 0.09344785 0.017708573 -0.088083856 0.04011419 0.13095866 -0.20740137 0.09832204
-0.11807686 0.13909593 0.013835656 -0.14372396 -0.098851845 -0.008023689 -0.15933013 -0.12103054
0.05342144 -0.019006407 -0.095505714 0.07587441 -0.023502462 -0.120456874 0.098834455 0.027268605
-0.14416677 0.04519036 -0.035798755 0.13653524 -0.070376426 0.06958461 0.013827506 -0.013993444
0.0042835525 -0.07458203 0.070090525 -0.1800377 -0.07403996 0.041056477 -0.011428595 -0.06496011

lstm2.weight_ih_l0 f4 [256, 64]
00000000: 0d2f 8bbd bf29 cc3b 7eec c5bd 458a a23d
00000010: adb1 54bc dca4 89bd dfa9 063e 4ae6 da3b
00000020: c24d 38be f8e3 2bbd 804f 0abd e1ad 19bc
00000030: 790c db3c 0c35 3ebe 6c34 febd 58ed 0bbe
00000040: 6e0f 313d 8b28 8d3d 121d 783c 25ec 00be
00000050: b588 debd 5fd7 91bd a0a8 1d3e 13cd 2c3c
00000060: d71b 1bbe 3ad2 23be 0980 e33d c87f e43b
00000070: ffed 9b3c 7b10 a9bd e07c 093e 8805 533e
00000080: cd56 b3bd 08a0 66bd 41a7 1dbd 03a3 25bc
00000090: 55f9 3dbe de90 9dbd 9e6d 093d 66de e6bd
000000a0: 255c 913d 30f7 50bd 0b3f ffbc 074a dfbc
000000b0: aa04 dbbb 1b40 2f3e 0f4e d33d 5abf 95bb
000000c0: a126 acbd 16a8 bbbc 2363 1bbe 80c7 0bbc
000000d0: 0fbe 49bd 2cf3 313d b1d5 37be e27c 343e
000000e0: 0ad1 053e 0882 82bd 4662 2ebe 109e f9bd
000000f0: c92a 5cbe f8bf de3c 763c 4e3d 79a9 823d
00000100: 29e6 5dbb bda6 36be 08d5 7fbd 751a a3bc
00000110: 0578 1cbd 10d5 e63c 0ab9 4c3d 2fd6 61bd
00000120: 7dd1 07bd adb6 2fbe 6fb5 84be 0ebb 523e
00000130: 7ea1 78be d530 81bd d1a0 b33d 3431 243e
00000140: 782f aabd 8038 3b3e 2761 91bd 6235 babd
00000150: 0050 14bd b0fe 5ebe 252e 1abb 6a39 f83c
00000160: 17e7 2bbc 15a3 b8bd 5f42 dd3c a351 ac3b
00000170: 3bd1 debd 53a2 d0bd b504 8fbc b367 aa3d
00000180: 5dd3 0f3e 5902 893d b747 9d3b 32fb e33d
00000190: ac6f cbbb eb92 1f3d eebd 883c 0950 d9bc
000001a0: 3d8c b03d da1d 2abe cacf f03d b638 2dbe
000001b0: 3313 983d 10fa 083d 8a2f 50bd 74eb 82bd
000001c0: 67d3 913d 65fa 24bd 065e bbbd b314 133c
000001d0: 29ab 82be 970c 08be 3060 ab3d cc0f f03d
000001e0: b2d8 6c3d aa04 b23c 7322 82bd 2b83 683c
000001f0: ba15 adbd 22fb debc 65ff 583d 6efb 39be
00000200: 59e5 da3d dd61 c73d 0bb2 78bc a1a1 e13d
00000210: b4f2 363b 8fcd 3b3e ba76 fdbb be36 7ebd
00000220: bf4b ac3d 258e ba3d 326e 6f3d e854 edbc
00000230: 2501 4abd 53cc cd3d 637b 2a3e f99c 8a3d
00000240: 77a4 08be 9072 5dbd a3d8 82bd e860 e3bd
00000250: 81b8 923c d3b2 e1bc 9cce 5fbd 2b2d a0bd
00000260: 5a74 0abd 9e61 99bc eb8c 76be 6883 e1bd
00000270: d208 eb3d c8c5 503b 2801 86bd 02ed 973a
00000280: 59c7 803d 82a4 583d 4de9 733a 22f5 ea3d
00000290: 9199 3e3d 84b2 67bd 5777 f1bd aadf 8fbc
000002a0: 29a8 793c 4b02 14be d087 0bbd c676 0c3e
000002b0: 6a2c 3abe ae18 ae3d bfce 8abe 4d86 4cbb
000002c0: d122 8b3c 9e29 b8bc 0977 353e 50b6 a7bc
000002d0: 0ae6 263d 817f 963d a616 773e 7f92 a2ba
000002e0: dafa 08bd 320b 30bd ebd9 1dbd d3be de3d
000002f0: 7946 553e 9925 dabd 17cd b53c 4ccb 823d
00000300: a6bf 023e defa acbd 559a cbbd 2fa9 47be
00000310: 8bc1 87be 8b09 0dbd 201b 853d 8400 ffbd
00000320: 2df7 12be 5f73 783d a105 a8bc f5b3 8dbd
00000330: 0392 583d 04ee c6bd 5323 2abd 0031 873e
00000340: d75b 8c3c 4c37 4c3d 157d 98bc fd6f 6a3c
00000350: 9620 61bd c7d1 3fbe 94f0 8e3d 8e23 a53d
00000360: 2e75 bc3d 3fc9 a3be 8f9e b13e 46b4 903a
00000370: e068 043d 7d4c 8a3c 9c4c a5bd f286 333e
00000380: fa5e 5b3d 1944 07be d83f c93d b97a 663d
00000390: f6d5 4fbd 9499 0abe 9287 ba3d 1aa6 c3bd
000003a0: 1390 1f3d 8d24 b7bd 8129 ec3d fd82 8ebe
000003b0: 8548 f6bc e145 07be f58d e4bd e405 1ebe
000003c0: b2e1 4d3d f584 abbd ea46 17bd 5d85 563e
000003d0: e463 443d 5a3c aabd 2a0e 1ebe 46aa d43c
000003e0: d814 c73d 0aba 25be 5954 343d f99e f83c
000003f0: fecb 0dbe 4428 c2bd 47c9 d93d 9d1f a9bc
-0.067960836 0.0062305625 -0.09664248 0.07936529 -0.012981814 -0.067208976 0.13150738 0.0066802846
-0.17998412 -0.041965455 -0.033767223 -0.009379835 0.026739346 -0.18574923 -0.124123424 -0.13664758
0.043227606 0.068924986 0.01514365 -0.12590082 -0.108659185 -0.07121157 0.15396357 0.01054694
-0.15147339 -0.15998164 0.11108405 0.0069732405 0.019034384 -0.082550965 0.13426542 0.20607579
-0.0875679 -0.05630496 -0.038489584 -0.010109666 -0.18552144 -0.07693647 0.033551805 -0.11272888
0.07097653 -0.051016986 -0.03115799 -0.027256979 -0.0066839056 0.17114298 0.10317623 -0.00456993
-0.084058054 -0.022907298 -0.15174536 -0.008531451 -0.04925352 0.043444797 -0.1795261 0.17625764
0.13068023 -0.06372458 -0.17029676 -0.12188351 -0.21500696 0.027191147 0.05035063 0.063799806
-0.003385911 -0.17837043 -0.06245902 -0.019910077 -0.038200397 0.028177768 0.049981155 -0.055135902
-0.033158768 -0.17159529 -0.25919673 0.20579168 -0.24280354 -0.06308142 0.08770908 0.16034395
-0.08309835 0.18283272 -0.070986085 -0.09092213 -0.036209106 -0.21776843 -0.002352604 0.030300815
-0.010492108 -0.090154804 0.027009187 0.0052587553 -0.10879751 -0.10187211 -0.0174583 0.0832056
0.14045472 0.06689901 0.004799809 0.11131896 -0.0062083807 0.03895847 0.016692128 -0.026527422
0.08620498 -0.1661295 0.117583826 -0.16916165 0.07425537 0.033441603 -0.050826587 -0.06392565
0.071204 -0.040277857 -0.09148793 0.008977103 -0.2552121 -0.13286053 0.08367956 0.11721763
0.057823844 0.02173074 -0.06354227 0.014191429 -0.0845141 -0.027219359 0.05297794 -0.18162319
0.10688276 0.09735463 -0.0151791675 0.110171564 0.0027915658 0.18340133 -0.0077351006 -0.062063925
0.08412885 0.09109143 0.0584547 -0.02897115 -0.049317498 0.100487374 0.16648631 0.067682214
-0.13343988 -0.054064333 -0.063889764 -0.11102468 0.017910244 -0.02755109 -0.054640397 -0.07821115
-0.033802368 -0.018723305 -0.24077193 -0.11011392 0.11476292 0.0031856168 -0.06543189 0.001159102
0.062880225 0.052891262 0.0009304479 0.114725366 0.04653317 -0.05656673 -0.117903404 -0.017562706
0.015237846 -0.14454 -0.034065068 0.13717183 -0.18181005 0.08500801 -0.2711086 -0.003120798
0.016984375 -0.022480782 0.1772119 -0.020472676 0.040746726 0.07348538 0.24129733 -0.0012403278
-0.033442356 -0.042979427 -0.0385379 0.108762406 0.20827664 -0.106517024 0.022192521 0.06386432
0.1276842 -0.084462866 -0.09941546 -0.19498132 -0.2651485 -0.03443293 0.06499314 -0.1245127
-0.14352103 0.0606569 -0.020510497 -0.0691909 0.052873623 -0.09713367 -0.041537594 0.26404572
0.017133636 0.049857423 -0.018614331 0.014308927 -0.054962717 -0.18732367 0.069794804 0.08063422
0.09202038 -0.31989476 0.34691283 0.0011040054 0.03232658 0.016882176 -0.08071253 0.17531946
0.053557374 -0.13209571 0.0982663 0.05626938 -0.05074116 -0.13535148 0.09107889 -0.09553166
0.03895576 -0.089425184 0.11531354 -0.2783431 -0.030063877 -0.1321025 -0.11159889 -0.15431935
0.050264068 -0.08374969 -0.036932863 0.20949312 0.047946826 -0.083122924 -0.1543509 0.025960099
0.097207725 -0.1618425 0.044025753 0.030349242 -0.13847348 -0.09480336 0.10634094 -0.020644957

lstm2.weight_hh_l0 f4 [256, 64]
00000000: e91b 053e ac06 3fbe c73e c2bd 6342 97bd
00000010: 21ab 643e 7a2f 0d3e d6d4 8bbd 9441 abbd
00000020: e35f 3e3e ebe5 cd3d cc7a 303d 2733 e73c
00000030: 4c8a 0fbe c73d 1a3e 92f9 c83d b3ab 38be
00000040: 98d7 8bbd 234b 4c3d bf55 963d 8bfd 1e3e
00000050: d534 91bc e884 553e 87eb 2a3d 2865 ecbd
00000060: f340 5d3d e031 47be 202a d03d 08e5 b53d
00000070: d6f3 fcbd 1909 48be c52b 3b3e 1816 b93d
00000080: cb80 e2bd ce8a 853d 0dd3 1fbe 81b1 8ebd
00000090: 3bde 463e af8c 8cbd 394e 5d3c 5993 a7bd
000000a0: 395c 44bd dd6b fbbd 9f10 36be c54e 05be
000000b0: 4569 9cbd 5bf7 91bd 84a8 1dbd 5210 0bbd
000000c0: 5e6a 1abe 9e57 f2bd c030 45bd 36d3 abbd
000000d0: 7158 55bd 48a6 09be dbb7 9abd 4da9 fc3d
000000e0: aeac 353e 7ead 4f3e 5fb3 7c3d 29df 3b3d
000000f0: 160d 3e3d a4bf 81bd 53e8 4d3e 1282 8fbc
00000100: 2a3d 82bd 159b cabc 4cc3 5e3c 8c02 f73d
00000110: bf0b b03c 80a2 033d 6b95 00be fc7e 873c
00000120: 0f95 253e db46 be3d 38da 463e 2bcf 40bd
00000130: 5874 513d 6270 85bd 075f 7d3d 3ee0 48be
00000140: 1003 ba3c 8ee5 14be 18d7 613e 464a d83d
00000150: cb1d 89bd 9a76 843d 4438 3f3d e5e0 ec3d
00000160: a705 11be f83c bebd 4c60 2a3d 0753 8d3d
00000170: cd88 083d d90b 2cbd c2a4 b4bc 2139 5dbd
00000180: 1d70 fb3c 2e23 75bc cdab 52be de35 80bd
00000190: 8b8d 14bd b6c9 f7bd baaf 9abd 1ba6 e03d
000001a0: effe ac3d 84b2 973d 73b1 bfbd 69c8 27be
000001b0: f7e4 fe3b 8176 00be 53ff c8bc 9d83 0bbc
000001c0: 87ca 26be 1c0e b63d 95ac a53d 3d63 a8bd
000001d0: a796 cd3c 9f31 cc3d 0603 89bd 77b9 abbc
000001e0: 5cdd 88bc a891 91bd 52e9 70bc 300d 963c
000001f0: e096 fcbc dab7 c6bd 5c6a 4fbd b629 51bd
00000200: 6fee 89bd 7786 bf3c fbdb 353b 5646 48bd
00000210: f6f7 11bd 265e 463d 0997 2c3e adb7 19bd
00000220: a3f6 4abe c389 3d3e c59c 7dbd 881d a83c
00000230: a84a d8bd 8a70 19bd 919b a43d ffcb 23b9
00000240: 688c e1bd 148c d53c 38e1 e1bd f58e 5dbd
00000250: 20c2 053e e899 65be c9c3 203e 5eed 41be
00000260: 06ab 383e 9ba1 cf3c b651 1cbe 4c2c 1f3b
00000270: 1b8b 043e 0734 5f3d 37a3 cc3c e1b1 89bd
00000280: 6786 ce3d 93cb 54be 98f7 193e ed9d 8bbc
00000290: f60b 4ebe 6e5f 373e 906c 6e3d 67b9 9d3d
000002a0: 6553 553d c687 023d 000b 04be 3272 b33d
000002b0: f291 183e bf31 7e3d 6817 04be b5ae 863d
000002c0: 9e3a c13d 2271 853d ad7b 38bd fa8b 833e
000002d0: 97a3 c8bd 8cd7 2d3e 90ae c7bc c801 15be
000002e0: 0227 30be 7d83 25be 0ea5 0c3c 6369 773d
000002f0: 68e8 903e 3281 4c3d 1a9e 8bbd 4743 1abe
00000300: 0070 8f3d e896 bdbd dfdc 983d 8f7b 4c3c
00000310: 6d2e aabd 954a f5bd ca0d 903d 8e47 7c3c
00000320: 108c 063d 85d6 73bc a78e f53d bea6 f53c
00000330: f36d cabd 87da 123e 01a4 87bd 073e e43d
00000340: 0689 88bd 0c98 62bd 595e 3a3d 72b5 b73a
00000350: d2e4 b23d 4828 333c 0f0c d5bd 4382 d53c
00000360: 643d 68bd 9663 95bd 5d7d ce3d d81d d8bd
00000370: f7f2 a93c e12c cabc 532d 8fbc 3def cbbc
00000380: 1b23 8dbc 9899 e43c b67c 3dbe bc6d b43d
00000390: 19ab 9bbd 73e6 f13c 7d37 c23d c82c 63bd
000003a0: 85ba a23d 917a 543e 7298 d4bd b6f6 a23c
000003b0: 7e08 3a3d b537 be3d c532 de3c a105 2cbe
000003c0: fb8b c5bd 1754 313e 1c13 0b3e 0ee3 973c
000003d0: c63a afbc d3c5 a8bd 7418 343e ca20 ad3c
000003e0: 67df 4b3e b1b6 2c3d c655 c6bd 1483 21bb
000003f0: 384c 333b ed9f 42bc 1ce8 4d3c 49db a8bd
0.12998928 -0.18654889 -0.0948463 -0.07385709 0.22330905 0.13787642 -0.068277046 -0.083621174
0.18591265 0.10053619 0.04308586 0.028222634 -0.140176 0.15062629 0.09813227 -0.18034248
-0.068282306 0.049876343 0.073405735 0.15526406 -0.017725388 0.20851481 0.041728523 -0.115427315
0.05401702 -0.1945262 0.10164285 0.08881575 -0.123511955 -0.1953472 0.18278416 0.09037417
-0.110597216 0.065206155 -0.15607853 -0.0696745 0.19420712 -0.06862771 0.013507419 -0.08182401
-0.047939513 -0.12276433 -0.17779778 -0.1301833 -0.07637266 -0.071272574 -0.038490787 -0.03395111
-0.15079638 -0.11833118 -0.048142195 -0.08389895 -0.052086297 -0.13442338 -0.07554599 0.12336979
0.17741653 0.20281026 0.0616945 0.04586712 0.0463992 -0.06335381 0.20108156 -0.017518077
-0.06359322 -0.024732152 0.013596367 0.12061033 0.021489976 0.032137394 -0.12556998 0.016540043
0.16170143 0.09290858 0.19419181 -0.04707257 0.051136345 -0.06515576 0.061858203 -0.19616792
0.022706538 -0.14540693 0.22054708 0.105610415 -0.06695136 0.06467934 0.04668452 0.11566333
-0.14162312 -0.092889726 0.041595742 0.06900602 0.03333359 -0.042003486 -0.022051219 -0.05400956
0.030693108 -0.014962001 -0.2057335 -0.06260274 -0.0362678 -0.1209902 -0.075530484 0.10969182
0.08447062 0.07407096 -0.09360018 -0.16385044 0.0077787596 -0.12545206 -0.02453581 -0.008515266
-0.16288196 0.0888941 0.08089558 -0.08222053 0.02509625 0.09970402 -0.0669003 -0.02096246
-0.016707115 -0.0710786 -0.014704065 0.018316835 -0.030833662 -0.09703036 -0.05063854 -0.05106517
-0.06734931 0.023379548 0.0027749527 -0.048895203 -0.035636865 0.04842963 0.1685449 -0.037528683
-0.19820647 0.18509583 -0.061917085 0.020521894 -0.105611145 -0.03746084 0.080374844 -0.00015620886
-0.110131085 0.026067771 -0.11029285 -0.054091413 0.13062334 -0.22421992 0.15699686 -0.18938205
0.1803399 0.025345614 -0.15265545 0.0024287878 0.1294369 0.054492977 0.02498017 -0.06723381
0.10084229 -0.20780782 0.15035856 -0.017043078 -0.2012175 0.17907497 0.058209002 0.07701378
0.052081484 0.031867765 -0.12894821 0.087620154 0.14899424 0.06205916 -0.12899554 0.065762915
0.094350085 0.06515719 -0.04503982 0.2569273 -0.09796827 0.16976756 -0.02437523 -0.1455146
-0.1720238 -0.1616344 0.008584274 0.06040324 0.28302312 0.049927898 -0.06817265 -0.15064727
0.07003784 -0.09257299 0.07464003 0.012480631 -0.08309636 -0.11977116 0.0703388 0.015397919
0.032848418 -0.014882688 0.119900994 0.029986735 -0.098842524 0.14341174 -0.06623078 0.11144643
-0.0666676 -0.055320784 0.045500133 0.0014015867 0.0873505 0.010934897 -0.104026906 0.02606309
-0.05669917 -0.07294385 0.10082505 -0.10552567 0.020745737 -0.024679603 -0.017477667 -0.024894351
-0.017228654 0.02790527 -0.18504605 0.08809993 -0.07600994 0.029528832 0.0948324 -0.05546263
0.07945732 0.2074988 -0.10380639 0.019893032 0.045418255 0.09287969 0.027123818 -0.16799022
-0.0964584 0.17317234 0.13581508 0.018540885 -0.02139033 -0.08240857 0.17587453 0.0211338
0.1990944 0.042166416 -0.09684329 -0.002464478 0.0027358662 -0.01187895 0.012567546 -0.0824495

lstm2.bias_ih_l0 f4 [256]
00000000: b389 89bd aa90 bfbd 9e43 15be c672 d0bd
00000010: 44eb b3bc e9c7 113e 0208 61bc 5f4c 29bd
00000020: b8f0 e8bd b588 ad3d 2471 cebd 34a0 14be
00000030: e0ab d23d 784e 2ebe 0124 c33d 25c9 0a3e
00000040: c938 57be da99 55be af38 953c c050 ebbd
00000050: 7f37 1fbe 27b9 6fbd 3fa3 66bd ec72 d33c
00000060: d5ea 29be de3b 213d a36e 5b3d 4402 83bd
00000070: 447a 5ebd 7f41 3f3d e949 15be 16e9 37bc
00000080: 462c 21bd 052f 0a3d 2443 64be c94d b13d
00000090: 99ae 6abd f29b bf3d a561 ad3d 0854 5abd
000000a0: 436a 60bd 6001 17be 568f 06be 98c4 d3bb
000000b0: cc57 3bbe 0d91 06be d573 813d 4457 ecba
000000c0: 29bd 40be 5c82 933d cf3b b7bd d48d 273e
000000d0: a05f 9c3d 9da1 19be ce74 05bd e302 833c
000000e0: d2fa 3cbe 6ccb c9bd 1794 2fbe 71a4 bcbd
000000f0: 4dff 99bd d188 363d adc6 37be d91c 04bd
00000100: 278c 343d 9c9f 0b3d cc97 bb3d be43 843c
00000110: 3814 6a3e 8f5f b13d e9fc 62bd 037a 403d
00000120: 83c6 883d f4eb 563d dadf ab3c 08d8 5dbd
00000130: 103a 333c 06e0 e43b 5998 883d 5eab 803d
00000140: 9fc3 fc3d 5b7f 49be 52dd 463e f1a4 cd3d
00000150: d046 713d 8f03 0ebd 4dc2 0d3e 6ab6 08be
00000160: 1db5 8fbd 1ea2 303e a8c5 17bd b7f1 753e
00000170: 7fee d4bd 2408 2cbc 31ef 773d 6c93 bcbd
00000180: 8d67 2fbd 67d4 8a3e ea98 bf3d 9ca5 ac3d
00000190: b0ac d7bd 0144 ff3b cb7a 3ebe ae16 68bb
000001a0: d867 cd3d a059 8f3c a797 fd3c c231 213d
000001b0: 3877 4f3e dd35 39be 1173 8dbc a0d5 523e
000001c0: 535c 1a3e 28cf d53d 9f89 de3d 1fdd 27be
000001d0: 1896 58bd 7d70 02be 9d13 48be 516a 393c
000001e0: 8519 fa3d 01bf ea3b 18c7 cc3d fe3b b13d
000001f0: 202a 243e 4d5a 5e3e 7627 c83d cfdc a73d
00000200: 5121 223d 83db bf3d 69b3 28bd 28d0 b23c
00000210: 4ec0 a73d dcfb 783d 34b7 b7bc 25c6 833d
00000220: 34d2 a3bd 2326 0a3d 2e90 7cbd 5a0a 18bb
00000230: b106 373c ae84 c9bc 7d01 d23d 160a 163e
00000240: 1d3d b03d 016b f73a 68d8 94bd 49d2 1dbd
00000250: 99c1 bf3c e822 edbd fa7d 2f3d ca3e 253d
00000260: bc73 0f3d 69fd 2ebe b119 6b3c 8c97 18bd
00000270: 100e 7c3c 2ee4 acbd eed6 e6bd dc56 983d
00000280: 3efd 67bd aa42 593d 70b7 7737 d024 bcbd
00000290: 602f 3ebc 6866 8c3d f31b f23c e1a2 f0bb
000002a0: 3e7d 1ebd b773 4dbd 0edd 503c 6e7c 32bd
000002b0: 0663 aa3c 8ed7 9b3d b1c2 543c 04de a93d
000002c0: fe68 bf3d fbdd 00be 38c1 06bd 1f27 11be
000002d0: 5fb5 0f3d b5c1 2fbd 833e 8abc 8e90 e9bd
000002e0: 694f 12be 3994 d9bd 22eb 07be ec5b aa3c
000002f0: 9286 c0bd 11ab 9bbc 06e4 973d 2316 2cbc
00000300: 3678 97bc f093 c1bd b6bf e9bd 3dba 85bd
00000310: a22b 7f3d 4751 ac3d af27 853c 1be5 e03d
00000320: c2cf 6ebd 3f01 bf3d 1155 9bbc de6c cdbd
00000330: 3c7c 003e f4c1 d93d d910 173d 598f c63c
00000340: 9e69 b43d c4ce 8b3d 2003 383c f6cc f9bd
00000350: eace f7bc 05d3 48be 30b8 403b f3e5 32bd
00000360: 5080 023d cde6 563d 85ef c63d dbf6 16bd
00000370: 0891 16bd d767 e4bc 3e0a d63c 1122 d2bd
00000380: a0bc 3b3c d469 523e 51ce 7fbd bce7 fc3b
00000390: 1b16 adbd ea70 9f3d 5d10 703e f68d f4bd
000003a0: 0838 75bd bd7b db3c 3646 313d a4ea 1d3d
000003b0: 1c78 cf3d 750a c13c 8ada 723d a77c 56bd
000003c0: 5de4 1bbe 5ff2 353d 93aa 07bd 1daf 743e
000003d0: d42f b83d 183b 50bc 13e3 913d 008e e93d
000003e0: 15c0 f5bc c246 973d 02b1 a63d 4ba2 cf3c
000003f0: e93e ae3d d66f bbbc 149c 8cbd 2058 96bd
-0.06715717 -0.09353764 -0.14576575 -0.10178141 -0.02196277 0.14236416 -0.013734819 -0.0413326
-0.113740385 0.084733404 -0.100801736 -0.14514238 0.10286689 -0.17022121 0.095283516 0.13553293
-0.21017756 -0.20859471 0.018215505 -0.11490011 -0.15548514 -0.058526184 -0.056308027 0.025811635
-0.16593488 0.039363734 0.05357231 -0.063969165 -0.05431582 0.04669332 -0.14578976 -0.011225006
-0.039348863 0.033736248 -0.22291237 0.086574145 -0.057295416 0.09355916 0.0846589 -0.053302795
-0.05478884 -0.14746618 -0.13140616 -0.006462645 -0.1829521 -0.1314127 0.06320921 -0.0018031378
-0.18822159 0.072025985 -0.089469545 0.16362697 0.076354265 -0.15003057 -0.032582097 0.015992587
-0.18455055 -0.09853253 -0.17146336 -0.09211052 -0.07519398 0.044564072 -0.17946883 -0.032254074
0.044078972 0.034087762 0.09159812 0.016145583 0.22859275 0.086608045 -0.055416975 0.04699136
0.06678488 0.052471116 0.020980764 -0.0541611 0.010939136 0.0069847135 0.06669683 0.06282686
0.12341999 -0.19677489 0.19420364 0.10041226 0.058905423 -0.034671362 0.13843651 -0.13350835
-0.070169665 0.17249343 -0.037053734 0.24017988 -0.10397052 -0.010499988 0.060530845 -0.09207806
-0.042823363 0.27115175 0.09355338 0.08430025 -0.105309844 0.007790089 -0.1860153 -0.0035413909
0.10029572 0.017498791 0.030956103 0.039354093 0.20260322 -0.18086953 -0.017266782 0.20589304
0.15074281 0.104399025 0.10866093 -0.16392945 -0.052877516 -0.12738223 -0.19538732 0.011316852
0.12211899 0.0071638827 0.099989116 0.08654021 0.16031694 0.21714135 0.097731516 0.08196413
0.039582554 0.093680404 -0.041186724 0.021827772 0.08190976 0.060787067 -0.022426225 0.064342774
-0.079990774 0.033727776 -0.061660938 -0.002319953 0.011171029 -0.0245994 0.1025419 0.14652285
0.086054064 0.0018876494 -0.07267839 -0.03853062 0.023407744 -0.115789235 0.04284475 0.040343083
0.035022482 -0.17088856 0.014349387 -0.0372539 0.015384212 -0.08441959 -0.11271463 0.07438442
-0.056637995 0.05304209 1.4765057e-05 -0.09186709 -0.011607975 0.0685547 0.029554343 -0.0073436354
-0.03869366 -0.050159182 0.012748016 -0.043575697 0.020799171 0.07609473 0.012985871 0.08294299
0.093461975 -0.12584679 -0.03289911 -0.1417508 0.03508508 -0.042909343 -0.016875511 -0.11404525
-0.14288105 -0.10623974 -0.1327329 0.020795785 -0.09400667 -0.01900247 0.07416539 -0.010503325
-0.018489938 -0.09452045 -0.11413519 -0.06529663 0.06229747 0.0841394 0.016254274 0.109811984
-0.058303602 0.093264095 -0.018961461 -0.100305304 0.12547392 0.10632697 0.0368813 0.024238275
0.088092074 0.06826547 0.011231214 -0.12197296 -0.030250032 -0.19611748 0.002940666 -0.043676328
0.03186065 0.052466203 0.097136535 -0.036856513 -0.036759406 -0.027881546 0.02612793 -0.10260404
0.011458546 0.20548183 -0.062452618 0.0077180546 -0.08451482 0.077852085 0.23443742 -0.119411394
-0.05986789 0.026792401 0.04327985 0.03855385 0.10130331 0.023564557 0.059290446 -0.05236497
-0.15223832 0.044420596 -0.033121657 0.23894925 0.089934975 -0.012709402 0.07123389 0.114040375
-0.029998818 0.07386543 0.0813923 0.025345942 0.08508093 -0.022880476 -0.06865707 -0.07341027

lstm2.bias_hh_l0 f4 [256]
00000000: fb0d 11be 714d f1bd 1df6 d4bd 4a21 64be
00000010: 05db df3c e5a5 143d d485 a83d 144e b7bd
00000020: a135 1cbe c61c 343d 6924 e1bd 282a 373d
00000030: cb8f b0bc 27e0 c4bc 22dc e93c c8f0 553d
00000040: 03c0 b3bc 7c4b 8ebc 0d70 c73d 35f8 0bbe
00000050: 333a 993c 56f3 64b8 99fe 49bd c85c 1abd
00000060: 61ce debd 91cb 403e abdc 8c3d 4415 c93d
00000070: d050 0f3d 1d54 a5bd e878 863d d42e 833b
00000080: 9f86 5cbb 75fd 87bd a0fd 43be bc61 07be
00000090: d8dc 92bd 9a72 77bd 49b0 553d 6f79 96bd
000000a0: d881 1dbe 0e1f e2bc 127c b53c 1669 c53b
000000b0: 8975 1dbe 340a c23b b797 c6bd 4967 183d
000000c0: 725b babb e8f4 b5ba 53b0 11bd c266 3d3e
000000d0: 1c62 e1bd bac5 33be d804 893c 4e8f 00be
000000e0: 02be ddbd 2efa 39bd 4ceb f2bb 9781 39be
000000f0: 83e6 be3d 0337 2cbe 4239 07bd 170b 1abe
00000100: 428a eebd 5ebe db3d 8bff 083d 582e 18be
00000110: 272e 143d 75a9 833d e465 ad3d 826a b53c
00000120: a9e6 0a3e e6a5 8dbd 5a1a 5bbd a609 36ba
00000130: 87b2 a8bd bfc4 94bd 8295 853d 46da 063d
00000140: 00fe d0bc dd40 3bbe 8aea 713d 1d71 14bd
00000150: 385e eabd 64ea c03b 0631 b9bc 5eef 01be
00000160: 277d fabd 5c99 693e 1df3 3b3d 351f 923d
00000170: 9b6a dfbd 992a 143e bf48 01bb bca7 953c
00000180: 02d5 78bd e95e a33e d7ad 4b3e 447c 86bd
00000190: dd18 01be 3256 11bc 8d80 08be 18ec ec3d
000001a0: 8595 58bd c32d 233e 438e e03d f212 44bd
000001b0: 01ec 243e be4f 8bbd ec4d 23bb 7bce 5b3e
000001c0: 3223 ba3d d882 3cbd d690 3e3e 70f8 97be
000001d0: 95a3 39bb 856c 943d 46f7 7ebd 7589 ce3d
000001e0: f4dd 8fbd 04dd d83d a2da 573d e439 853d
000001f0: ae3b c23d 2373 3c3d 72f4 01be 6155 d13d
00000200: 5b07 4b3c 953a 86bd 903e cf3d c385 e7bd
00000210: d27f 9b3c 8434 443d 0fb2 08bd 049b 5dbc
00000220: 137b b4bc 053c 81bd 3f61 5f3d 4cc0 d83c
00000230: 248e 493c f3a1 103e 93f4 db3c dbcf 52bd
00000240: 7021 4bbd 5fcf a23c dbdc 88bc ae6a e6bd
00000250: 88ad 7bbd d31b 4b3d 10fc a03d 0d79 c7bd
00000260: 96db b03b 2e1a aabd 27e1 533d 2daf 7a3d
00000270: 34f5 27bd eac0 f03c f8ac 123d 308a b3bd
00000280: ab0d d7ba 6d37 ec3d 80bd 0c3e 4628 093e
00000290: 2087 9a3d 0889 483d 4871 083c 2512 ed3d
000002a0: df48 833d c154 a13d 5d7e 3dbd 8653 34be
000002b0: 79c3 44bd 7090 92bc 4bac 1a3d 07c7 983d
000002c0: dea4 99bd 459d 2e3b 7195 a73d 3801 6a3d
000002d0: d097 173d 12d9 0bbe b252 d4ba 683b 8fbd
000002e0: 4f0a e8bd 3d63 86bd 910f 34bc 725e efbd
000002f0: 4ff0 5bbd 529d 393d 8370 e2bd a509 c2bd
00000300: bdb2 81bc 01d2 5abe 0310 4c3c 7deb 21be
00000310: ea9a 9f3d b48e 45bd 4d3f 1e3d 76f9 443e
00000320: c65e 153d afc3 983d 4133 a53d a976 5ebd
00000330: f306 743d 5fd6 803c 32af 96bd aba9 c1bc
00000340: 299c e6bc 1aca b1bb 4469 15bd 2777 c6bd
00000350: f410 1b3e 596e 2cbe 03e5 273e 5501 75bc
00000360: 2f87 9e3d 91f6 873e 85f5 e73c 97fa 123e
00000370: 89fc d13c 9be3 673d 2586 013c 0242 abbd
00000380: eee1 bcbd 2a84 cf3d 89c2 afbd 90da 7e3d
00000390: d277 08be ddf7 0d3e 0e4b 653e 3bbb c63c
000003a0: 9300 1fbd 296f a6ba d401 023d fe23 183d
000003b0: c8ba 09bd 51e4 ebbd 1805 403d 3ade d8bd
000003c0: 9a99 c2bd 4b6f a5bd d099 943d 45dc 893e
000003d0: c4b1 713d 1912 c93d 8daf 1b3e 1cb6 e33d
000003e0: fa0c 01be 515e a7bd caf9 98bd 5c88 4f3c
000003f0: cc08 2f3b 32ef f63d 3983 843d 9245 1f3c
-0.1416549 -0.11782349 -0.10398505 -0.22278324 0.027326116 0.03629102 0.08228651 -0.08950439
-0.15254833 0.043972753 -0.10993273 0.044717938 -0.02155294 -0.024032665 0.02854735 0.05223158
-0.021942144 -0.017369978 0.09738169 -0.13668902 0.01870451 -5.458606e-05 -0.04931507 -0.03768614
-0.108792074 0.18827654 0.068780266 0.09818509 0.03498918 -0.08072684 0.0656603 0.004003385
-0.0033649576 -0.0664014 -0.19139719 -0.13220876 -0.07171029 -0.060412027 0.05217007 -0.0734738
-0.15381563 -0.027602699 0.022153888 0.00602449 -0.15376867 0.0059216265 -0.09696906 0.037207875
-0.0056871707 -0.0013882192 -0.035568547 0.1849623 -0.11005041 -0.17555895 0.016725942 -0.12554666
-0.10827257 -0.045404606 -0.0074133035 -0.18115841 0.0932131 -0.1681786 -0.03301359 -0.15043293
-0.11647464 0.10729669 0.03344683 -0.14861429 0.036176827 0.06428806 0.084667 0.022145513
0.13564552 -0.06916408 -0.053491928 -0.0006944187 -0.082371764 -0.07264089 0.06522657 0.032923006
-0.025511742 -0.18286462 0.059061565 -0.036240686 -0.11443752 0.0058873165 -0.022606384 -0.12688968
-0.12230902 0.22812408 0.045886148 0.071348585 -0.10909005 0.14469375 -0.0019727198 0.018268459
-0.060750015 0.31908348 0.19890533 -0.065666705 -0.12607141 -0.008870648 -0.13330288 0.11568469
-0.052876968 0.15935425 0.10964634 -0.04786963 0.16105653 -0.06802319 -0.0024918271 0.21465485
0.09088744 -0.04602322 0.18609938 -0.2968173 -0.0028326262 0.07247261 -0.062247537 0.100848116
-0.07024756 0.105890304 0.05269874 0.065051824 0.09484039 0.04600824 -0.12690905 0.10221363
0.01239189 -0.065541424 0.10119355 -0.1130481 0.018981848 0.047901645 -0.033372935 -0.013525728
-0.022031343 -0.06310276 0.0545361 0.026458882 0.012301955 0.14124279 0.02685002 -0.051467758
-0.049592435 0.019874273 -0.016706875 -0.11250816 -0.06144479 0.049587082 0.07860577 -0.097398855
0.0053972704 -0.08305775 0.051728394 0.061202217 -0.04100533 0.029388864 0.035809487 -0.087665915
-0.0016407272 0.11534009 0.13744164 0.1339427 0.07545304 0.04895881 0.00832779 0.115757264
0.064103834 0.07877494 -0.046263088 -0.17609987 -0.04803798 -0.017891139 0.037761968 0.074598365
-0.07502149 0.0026644033 0.081828006 0.05713007 0.037010014 -0.13657025 -0.0016198962 -0.06993753
-0.11330091 -0.06561897 -0.010990039 -0.11687936 -0.053695973 0.045316048 -0.11056616 -0.09474496
-0.0158323 -0.21369173 0.012454989 -0.15812488 0.077932194 -0.048231795 0.038634587 0.19235787
0.036467336 0.07459199 0.080664165 -0.054312382 0.05957694 0.01572722 -0.073576346 -0.023640474
-0.028150635 -0.0054257037 -0.036477342 -0.09690695 0.15143186 -0.1683897 0.16395955 -0.014953931
0.07740628 0.26555303 0.028315315 0.14353405 0.025633113 0.056613546 0.007905518 -0.08362199
-0.0922278 0.1013263 -0.085820265 0.062220156 -0.13326958 0.13864084 0.22391912 0.0242592
-0.038818907 -0.0012697923 0.031740025 0.0371437 -0.033625394 -0.11518157 0.046879858 -0.10589261
-0.095019534 -0.08077868 0.072559 0.26925865 0.05900742 0.09817905 0.15203686 0.11118719
-0.12602606 -0.08172286 -0.074695185 0.012666788 0.0026708124 0.12057342 0.06470341 0.009721177
