saved_model/DAP_Model_NonRenew.pt (torch, 231074 bytes, 12 tensors)

lstm1.weight_ih_l0 f4 [256, 3]
0	0xbe3ad861	-0.18246605
1	0xbd51a1a7	-0.051179554
2	0xbe5174f1	-0.20454766
3	0xbd0ea947	-0.034829404
4	0xbda1f9ab	-0.079089485
5	0x3d7117c9	0.058860574
6	0x3dc80906	0.09767346
7	0x3cf97915	0.030453244
8	0x3d7a9338	0.061175555
9	0x3c3c62ad	0.0114981355
10	0xbd9f7339	-0.07785649
11	0x3cb1b88a	0.02169444
12	0x3d036014	0.03207405
13	0x3e111a40	0.1417017
14	0xbd8c0a14	-0.0683786
15	0x3d0774f8	0.033070534
16	0x3c82bd78	0.015959486
17	0x3dee20dd	0.11627362
18	0x3d8d5caf	0.069024436
19	0x3de87ecd	0.1135231
20	0x3e0e35fe	0.13887784
21	0x3de4ccf1	0.11171902
22	0x3dbd364b	0.09238871
23	0xbe5cc6cd	-0.21560211
24	0x3cc5bea4	0.024138756
25	0xbd2badb1	-0.041913692
26	0x3e1e1835	0.15438922
27	0xbc97d3bf	-0.018533586
28	0xbe6d1875	-0.23153861
29	0x3db3edf3	0.087856196
30	0x3d5c594c	0.053796098
31	0x3dfa34d3	0.12217107
32	0x3d27f2a8	0.0410029
33	0x3bdddb86	0.006770554
34	0xbdb6e1c8	-0.08929783
35	0xbe3033b0	-0.17207217
36	0x3bd82348	0.0065960027
37	0x3d44f361	0.048083667
38	0xbd726108	-0.059174567
39	0xbdbfd4b4	-0.09366742
40	0xbe02a72b	-0.12759082
41	0xbe252162	-0.16126016
42	0x3bc46cd8	0.0059944205
43	0x3c2abafc	0.010420557
44	0x3e3f51fb	0.18683617
45	0xbb1ed6d8	-0.0024236944
46	0x3d1ddc67	0.03854027
47	0x3e78384a	0.24240223
48	0xbdb8a0dd	-0.09015057
49	0xbea15577	-0.31510517
50	0x3d2fc3cb	0.042911332
51	0x3d03bf22	0.0321647
52	0x3cf62661	0.030047597
53	0xbdb29537	-0.08719867
54	0x3e2a758c	0.16646403
55	0xbddf4a6d	-0.109028675
56	0x3e38f97e	0.18063924
57	0xbcbca0b9	-0.023025857
58	0x3e2a1190	0.16608262
59	0xbc965ebd	-0.018355722
60	0x3d868747	0.06568771
61	0x3d9e3c98	0.07726401
62	0xbd1fb95e	-0.03899514
63	0x3e9f1740	0.31072426
64	0x3d2f796c	0.042840406
65	0x3e30ef88	0.17278874
66	0x3dfb0152	0.12256111
67	0xbd5daaf5	-0.054118115
68	0x3c0774f4	0.00826763
69	0xbe1e35b9	-0.15450181
70	0x3d20644b	0.039158147
71	0xbca4a5fd	-0.02009868
72	0x3df4aa42	0.119465366
73	0x3d526594	0.051366404
74	0xbd2778d7	-0.040886726
75	0x3d6b2286	0.05740597
76	0x3d1c9e6c	0.03823702
77	0xbd436d28	-0.04771152
78	0xbdb2f446	-0.08737998
79	0xbd7b6a20	-0.061380506
80	0xbdd0fc99	-0.10204429
81	0x3db609de	0.08888601
82	0x3d9c9b1f	0.076467745
83	0xbdbadda3	-0.09124305
84	0x3ddd6aad	0.108113624
85	0x3c58264f	0.013192727
86	0x3db9a93a	0.090654805
87	0xbe0abb43	-0.13547997
88	0xbcf028fa	-0.029316414
89	0x3dfa9405	0.12235264
90	0xbdaf5815	-0.08561722
91	0xbe4f7647	-0.20259963
92	0x3c788a0e	0.015169634
93	0x3d7ae936	0.061257564
94	0x3b7586a9	0.0037464297
95	0x3e9b3a65	0.3031799
96	0xbc72bbff	-0.01481533
97	0x3cdaa585	0.026690254
98	0x3da6726c	0.08127293
99	0xbe11aa7a	-0.14225188
100	0xbe0d21cd	-0.13782425
101	0x3cfde460	0.030992687
102	0x3d319f48	0.043364793
103	0x3dffd1a4	0.12491158
104	0xbea53023	-0.32263288
105	0xbe0b119d	-0.13580938
106	0x3d622fe4	0.055221453
107	0xbe36699c	-0.17813724
108	0xbe106bdd	-0.14103647
109	0xbd49ee49	-0.049299512
110	0x3ca5ffef	0.02026364
111	0xbe0c46b3	-0.13698845
112	0x3e2b6c00	0.16740417
113	0xbe219452	-0.15779236
114	0xbb1c0e31	-0.002381217
115	0xbe59ee74	-0.21282369
116	0x3ccd6583	0.025072819
117	0x3e8ecafb	0.27889237
118	0x3dc666cd	0.096875764
119	0x3e04a8a5	0.12954958
120	0xbbed0580	-0.0072333217
121	0x3dd52527	0.10407477
122	0xbdc86b4a	-0.09786089
123	0x3d56d708	0.052451164
124	0x3ce27fcc	0.027648829
125	0xbd907b20	-0.07054734
126	0xbdce6cb9	-0.10079331
127	0xbd7daa15	-0.06192978
128	0x3d5a86c1	0.053351168
129	0xbd0a7d66	-0.033810996
130	0x3db309c4	0.08742097
131	0x3db1bb9d	0.086783625
132	0x3e2a3984	0.16623503
133	0xbdc91309	-0.09818084
134	0xbbf5585a	-0.007487339
135	0x3dc9ad57	0.09847515
136	0x3de8ba22	0.11363627
137	0xbd04a209	-0.03238109
138	0xbc3a6499	-0.011376523
139	0xbcd17f3b	-0.025573364
140	0x3db91bb5	0.09038488
141	0xbd21f7a2	-0.0395428
142	0x3d484560	0.048894286
143	0xbe47a185	-0.19495209
144	0x3ddb0587	0.10694414
145	0xbc946e64	-0.018119045
146	0x3b9f11e9	0.00485443
147	0xbd2a3404	-0.041553512
148	0x3bbe60f1	0.005809896
149	0x3e21f861	0.15817405
150	0x3d922fa8	0.07137996
151	0x3c82557a	0.015909899
152	0xbdf11163	-0.117708944
153	0xbdd84fed	-0.1056212
154	0x3cbb9dfa	0.022902478
155	0x3e635fd1	0.2220452
156	0x3dd00bc5	0.10158495
157	0x3dcf5970	0.10124481
158	0xbcd68607	-0.026186956
159	0xbce84ec1	-0.028357865
160	0x3df1bdd1	0.11803783
161	0x3cad26ff	0.021136759
162	0xbd090744	-0.033454195
163	0x3c87d905	0.016582975
164	0x3d9367b9	0.07197518
165	0x3d059857	0.032615986
166	0x3ddfc1ab	0.10925611
167	0xbabf3761	-0.0014588648
168	0x3dae2b78	0.08504385
169	0xbdae1314	-0.084997326
170	0x3e1fe3dd	0.15614267
171	0xbe13e527	-0.14442883
172	0xbd180562	-0.03711451
173	0xbe1903b0	-0.14942813
174	0x3dc1db80	0.094656944
175	0xbc52913b	-0.012852008
176	0x3d599053	0.053116154
177	0x3e252a3e	0.16129395
178	0x3c023884	0.007948045
179	0xbd942e7b	-0.07235428
180	0xbd29be02	-0.04144097
181	0xbe4b0542	-0.19826224
182	0xbdf885eb	-0.12134918
183	0x3d8de791	0.069289334
184	0x3d2123f2	0.03934092
185	0x3dc834b6	0.09775679
186	0x3d7a7dbd	0.06115507
187	0x3e441778	0.19149578
188	0x3d018afa	0.03162668
189	0x3c530264	0.012878988
190	0x3e03abc7	0.12858497
191	0xbe48c481	-0.1960621
192	0xbe6f0682	-0.23342326
193	0x3d82f424	0.063942224
194	0xbe1d1e8a	-0.15343681
195	0x3db9b473	0.09067621
196	0x3dbc64fb	0.09198948
197	0x3d785e94	0.06063707
198	0x3e3cafe9	0.1842648
199	0x3d641f1d	0.055693734
200	0x3ca0b744	0.019618638
201	0xbddb46c9	-0.107068606
202	0x3d61bf2e	0.055113964
203	0x3ca3374a	0.019923825
204	0x3e20c074	0.15698415
205	0x3e26213a	0.16223612
206	0x3e0bbdac	0.13646573
207	0xbd64c4d0	-0.055851758
208	0x3e1cbe22	0.15306905
209	0x3d61cdb9	0.055127833
210	0x3da42dc7	0.08016544
211	0x3c871d0f	0.016493348
212	0xbb0ece5c	-0.002179048
213	0xbc8fae3d	-0.017539138
214	0xbd2bbf47	-0.041930463
215	0x3bb0cc0c	0.005395418
216	0xbcad6aaf	-0.021169035
217	0x3e12440e	0.14283773
218	0x3d910020	0.07080102
219	0xbd40362d	-0.046926666
220	0xbe7b97c4	-0.24569613
221	0x3dd485f7	0.10377114
222	0xbd6fa5a4	-0.058507577
223	0x3e11b527	0.1422926
224	0x3b5298bd	0.0032134496
225	0x3e394dbd	0.18096061
226	0xbe856add	-0.26058093
227	0xbda6d886	-0.08146767
228	0xbdbde356	-0.092718765
229	0x3cfbddf4	0.030745484
230	0xbe5701a5	-0.20996721
231	0xbc7f6502	-0.015588047
232	0xbd342061	-0.04397619
233	0xbd47135a	-0.04860244
234	0x3e18807c	0.14892763
235	0x3d1a09ed	0.037607122
236	0x3d9f8e6f	0.07790839
237	0xbd33f211	-0.043932024
238	0xbe0535dc	-0.13008827
239	0xbdf0fab8	-0.11766571
240	0xbd5a0bdb	-0.053233963
241	0xbe9bce85	-0.30431
242	0x3e269c05	0.16270454
243	0x3e0d83fc	0.1381988
244	0xbd46c17e	-0.048524372
245	0xbde811f8	-0.11331552
246	0xbc87cfdd	-0.01657861
247	0xbc34dfdd	-0.011039701
248	0x3b91cc4e	0.004449404
249	0xbd925fe3	-0.07147195
250	0x3dbe2306	0.09284024
251	0xbd47d3ff	-0.04878616
252	0x3defc16c	0.11706814
253	0x3dd6b895	0.10484425
254	0xbc7fc66a	-0.01561127
255	0x3e05b4f4	0.1305731

lstm1.weight_hh_l0 f4 [256, 64]
0	0x3dc90b07	0.098165564
1	0xbcd3c03e	-0.025848504
2	0xbb75524b	-0.0037433084
3	0xbdf82b83	-0.12117674
4	0x3e1c4a8c	0.15262812
5	0x3ba16a82	0.004926027
6	0xbd898f7e	-0.06716822
7	0xbabffb28	-0.0014646994
8	0xbd3ce35f	-0.046115275
9	0x3c3e40db	0.011612142
10	0x3cd167cc	0.02556219
11	0x3d410859	0.0471271
12	0xbe07e251	-0.13269927
13	0xbd67f130	-0.0566265
14	0xbe1f23d8	-0.15541017
15	0x3dd42da9	0.103602715
16	0x3e8507d2	0.2598253
17	0xbe12d375	-0.14338477
18	0xbc032340	-0.00800401
19	0x3dc27f55	0.09496943
20	0x3dde248d	0.10846815
21	0x3e66809a	0.22509995
22	0xbe1826e0	-0.1485858
23	0xbd39756f	-0.04527801
24	0xbd309fba	-0.043121077
25	0xbdb70443	-0.0893636
26	0x3e12a812	0.14321926
27	0xbde39e6d	-0.11114202
28	0xbdae79e5	-0.08519343
29	0x3d2b4483	0.041813385
30	0x3de3c364	0.11121252
31	0x3e435d0a	0.1907846
32	0xbd8f8f5c	-0.070097655
33	0xbe287921	-0.16452457
34	0x3d975823	0.073898576
35	0x3dde2e1f	0.10848641
36	0xbd73bc08	-0.059505492
37	0x3dcf682e	0.101272926
38	0xbd8a8018	-0.06762713
39	0xbe799e6a	-0.24376836
40	0xbd2e2131	-0.042512123
41	0x3dc43425	0.09580258
42	0xbd7e632e	-0.062106304
43	0xbdfb624f	-0.1227461
44	0x3d171945	0.036889333
45	0xbcb87f3f	-0.022521613
46	0x3dafc4dd	0.085824706
47	0x3bafe22a	0.005367537
48	0xbdfcddd8	-0.12347001
49	0x3de12385	0.10993103
50	0xbd2ebc68	-0.042660147
51	0xbde5ca96	-0.11220281
52	0x3df4e1b6	0.119571134
53	0x3d9cd877	0.07658475
54	0x3c1b6263	0.009483906
55	0xbba0f8f6	-0.004912491
56	0x3e181b85	0.14854248
57	0xbcd3afda	-0.025840688
58	0xbd28f54e	-0.041249566
59	0xbde8bdc9	-0.11364324
60	0xbcc5d7bf	-0.024150727
61	0x3e22bce2	0.15892366
62	0x3de3be2a	0.11120255
63	0x3d840c39	0.06447644
64	0xbd910db4	-0.07082692
65	0xbe36b9a0	-0.17844248
66	0x3d7e4401	0.062076572
67	0xbe3bc166	-0.18335494
68	0x3e101216	0.14069399
69	0x3bf702a2	0.0075381557
70	0xbd4db33c	-0.05021976
71	0xbddba5a8	-0.10724956
72	0xbe1c5008	-0.15264904
73	0x3e1a1532	0.15047148
74	0xbcb3f5ca	-0.021967787
75	0xbce355f4	-0.027750947
76	0x3ddb4ef1	0.10708416
77	0x3c7740be	0.015091119
78	0x3d174db8	0.036939353
79	0x3decedd5	0.115688
80	0x3ca963a7	0.0206774
81	0xbe168820	-0.14700365
82	0x3dd9d97d	0.10637186
83	0x3e2cbc36	0.16868672
84	0x3e4b01b3	0.19824867
85	0xbb14b7ff	-0.0022692678
86	0xbd1b23bc	-0.037875876
87	0x3d0e3230	0.03471583
88	0xbc9af4d5	-0.018915573
89	0xbb953b65	-0.0045541995
90	0xbdf6aae8	-0.120443165
91	0x3d883cee	0.066522464
92	0xbd3654cc	-0.044514462
93	0x3e0a4d52	0.13506058
94	0xbde8b5c2	-0.113627926
95	0x3e61d9ff	0.22055815
96	0xbe500194	-0.20313102
97	0x3d7a9c91	0.06118447
98	0xbcbea985	-0.023274193
99	0x3df2510e	0.11831866
100	0xbe22c2f4	-0.15894681
101	0xbde7e49a	-0.11322899
102	0xbe4efbc0	-0.20213223
103	0xbe32b12d	-0.174504
104	0x3d529fcd	0.05142193
105	0xbdc01de7	-0.093807034
106	0xbd51fb82	-0.051265247
107	0x3caffb7e	0.021482226
108	0x3d71440d	0.05890279
109	0xbd2d5469	-0.042316828
110	0x3d12209e	0.035675637
111	0xbc854b7a	-0.016271342
112	0x3d987923	0.0744498
113	0x3d3e5c00	0.046474457
114	0x3d3b1413	0.04567344
115	0x3e1ed5a4	0.15511185
116	0xbdd5a79a	-0.10432358
117	0xbddc0031	-0.10742224
118	0xbc7da1a1	-0.01548043
119	0x3e04d033	0.12970047
120	0x3db13924	0.08653477
121	0xbdc05c1a	-0.09392567
122	0x3e015fce	0.12634203
123	0xbdb61590	-0.088908315
124	0xbe2dadcc	-0.1696083
125	0x3c9b095a	0.018925358
126	0x3e7738b2	0.24142721
127	0x3dae358c	0.08506307
128	0xbe054222	-0.13013509
129	0xbe0da833	-0.13833694
130	0xbd08110a	-0.033219375
131	0x3d9165c9	0.07099492
132	0x3cf717a7	0.030162646
133	0xbd39f2fa	-0.045397736
134	0x3db1107c	0.08645722
135	0x3c87c64e	0.016574051
136	0x3df96b99	0.12178726
137	0x3da63d24	0.081171304
138	0xbdc34b27	-0.095358185
139	0xbd2501f9	-0.040285084
140	0x3e4ddcfc	0.2010383
141	0x3d1958a8	0.037438065
142	0xbdb331be	-0.08749722
143	0xbcc4719a	-0.02397995
144	0x3dde0922	0.10841586
145	0x3caab77a	0.020839442
146	0xbd74c71a	-0.05976019
147	0x3d30f180	0.043199062
148	0x3db606a8	0.08887988
149	0x3e125e1f	0.14293717
150	0xbdbcdc0d	-0.09221659
151	0xbe37bf46	-0.17944059
152	0x3d01b962	0.031670935
153	0x3e657333	0.22407226
154	0x3e001009	0.12506117
155	0xbde0edf9	-0.1098289
156	0xbcd605ae	-0.026125755
157	0x3d82ee36	0.063930914
158	0xbd11df50	-0.035613358
159	0x3e14d230	0.14533305
160	0xbea23d36	-0.31687325
161	0xbbde8986	-0.0067912964
162	0xbcd26364	-0.025682159
163	0xbd18f3a6	-0.037341736
164	0xbe94e143	-0.2907811
165	0xbe0b72b9	-0.13617982
166	0x3c5966ab	0.013269107
167	0xbd8e64c6	-0.06952815
168	0x3da2e70a	0.079542235
169	0x3cfd27a8	0.030902699
170	0x3e34877e	0.17629811
171	0xbcb946da	-0.022616792
172	0xbdc35640	-0.09537935
173	0xbe65893f	-0.22415636
174	0x3a63b342	0.0008686074
175	0x3d5e7534	0.054310992
176	0xbe026adf	-0.1273608
177	0x3e267f6e	0.16259548
178	0xbc1fb153	-0.009746867
179	0x3daa61d1	0.08319438
180	0x3dbc685b	0.09199592
181	0x3c1a082e	0.009401364
182	0xbe3bdae7	-0.18345223
183	0x3e5c1f35	0.2149628
184	0xbd4a7746	-0.049430154
185	0xbdcba9b0	-0.09944475
186	0x3d23ac0a	0.03995899
187	0xbc1d8bcf	-0.0096158525
188	0x3dd88e2d	0.10573993
189	0x3d6f0dd1	0.058362786
190	0x3e5855e0	0.21126509
191	0xbd81bc75	-0.063347735
192	0x3db8dc6c	0.09026417
193	0xbdb698d7	-0.08915871
194	0x3c687216	0.014187356
195	0x3c0377ef	0.0080242
196	0xbd139da0	-0.036038995
197	0x3d64c871	0.05585522
198	0xbc464c58	-0.012103163
199	0x3e211d00	0.15733719
200	0x3db49f54	0.08819452
201	0xbde8bee4	-0.113645345
202	0x3b0b88f5	0.002129135
203	0x3d9ce7c1	0.07661391
204	0xbdedbb69	-0.11608011
205	0x3e10bde5	0.14134939
206	0xbe1f5941	-0.15561391
207	0xbc80a2cb	-0.015702626
208	0xbcdc416c	-0.026886664
209	0x3e27f0ef	0.16400503
210	0x3d81a9d6	0.06331222
211	0xbe399418	-0.181229
212	0xbdb1452d	-0.08655772
213	0xbc299b83	-0.010352018
214	0x3daef037	0.08541911
215	0xbd1b8356	-0.03796705
216	0x3c8f333d	0.017480487
217	0x3c99cd12	0.018774543
218	0xbdb19a8d	-0.08672056
219	0xbe85c586	-0.2612726
220	0xbd2456f7	-0.040122
221	0x3cfc3642	0.03078759
222	0x3d562c28	0.052288204
223	0xbd890a49	-0.06691415
224	0x3c37889c	0.011202004
225	0xbdb91d0b	-0.09038743
226	0xbda42d56	-0.0801646
227	0xbe53b4aa	-0.20674387
228	0xbdf1d621	-0.1180842
229	0x3e0e8a0d	0.1391985
230	0x3e0ba786	0.13638124
231	0xbcea982e	-0.028637018
232	0xbd15fb8b	-0.036616843
233	0xbe2ff35f	-0.17182682
234	0x3d36fb5e	0.044673316
235	0xbcd83807	-0.026393903
236	0xbd64aa11	-0.05582625
237	0xbdbfde4d	-0.093685724
238	0x3d272693	0.04080827
239	0x3d316ee5	0.043318648
240	0xbd20442c	-0.039127514
241	0xbd554472	-0.052067228
242	0xbb31d2c0	-0.0027133673
243	0xbc83c7ca	-0.016086478
244	0xbd823a43	-0.06358769
245	0x3c913890	0.017727166
246	0x3e60b36d	0.21943446
247	0xbe0c8ade	-0.13724849
248	0x3db0d707	0.08634763
249	0x3dbf6ee1	0.0934732
250	0x3d876bfc	0.06612393
251	0x3e0ab4f4	0.1354559
252	0xbc5b1ea2	-0.013374003
253	0xbd41ac2f	-0.047283348
254	0x3b519ec0	0.0031985492
255	0xbd58c0db	-0.052918296

lstm1.bias_ih_l0 f4 [256]
0	0xbe72d037	-0.2371224
1	0xbe0e85af	-0.13918184
2	0xbe242c2b	-0.16032474
3	0xbdd55252	-0.10416092
4	0xbcd3b6f9	-0.025844084
5	0xbdc767e9	-0.09736616
6	0xbdcce7e7	-0.10005169
7	0x39913dbf	0.0002770256
8	0x3de81528	0.1133216
9	0x3d0ec87f	0.034859177
10	0x3dd12dce	0.10213815
11	0xbd21af00	-0.039473534
12	0xbcffda0b	-0.0312319
13	0xbca337f6	-0.019924145
14	0x3e0ef03e	0.13958833
15	0xbc7b2752	-0.015329199
16	0xbc78a3be	-0.015175758
17	0xbd5b3ff2	-0.05352778
18	0x3cac8c74	0.021063067
19	0xbe05cb53	-0.13065843
20	0xbde31e55	-0.1108977
21	0x3db5389b	0.08848687
22	0x3d72b5ed	0.05925553
23	0xbde9d766	-0.11418037
24	0x3d638b8b	0.055553
25	0x3d801521	0.0625403
26	0x3d60d322	0.054888852
27	0x3deaad03	0.114587806
28	0x3da50cf6	0.08059113
29	0xbe239656	-0.15975317
30	0x3dfb64df	0.12275099
31	0xbd1f5d71	-0.038907472
32	0x3dfee021	0.12445093
33	0xbdae563e	-0.08512543
34	0xbc940800	-0.018070221
35	0x3e25ce01	0.16191866
36	0x3d92045e	0.07129739
37	0xbe04f286	-0.1298314
38	0x3d0b75dc	0.034047946
39	0x3d9455ea	0.07242949
40	0xbd7bb790	-0.061454356
41	0xbd0a16cf	-0.03371316
42	0xbd664932	-0.05622215
43	0xba83bda6	-0.0010051026
44	0xbdc7db35	-0.09758607
45	0xbd322955	-0.04349645
46	0xbde04053	-0.10949769
47	0xbe4b1aa1	-0.19834377
48	0xbd614b44	-0.05500342
49	0xbd935633	-0.071941756
50	0xbdfccb65	-0.12343482
51	0x3d95903e	0.07302903
52	0x3dacf517	0.08445185
53	0x3d559293	0.052141737
54	0x3e5d0250	0.21582913
55	0xbda3f0d6	-0.0800492
56	0x3e7e4367	0.248304
57	0xbccee167	-0.025253965
58	0xbc7c986c	-0.0154172
59	0x3e04201f	0.12902878
60	0x3dc3e0b1	0.09564341
61	0xbd7c3bb4	-0.061580375
62	0x3d1dfb1b	0.03856955
63	0xbdd1af83	-0.10238554
64	0x3d010db7	0.03150722
65	0x3c3699e4	0.011145089
66	0xbdb58093	-0.08862414
67	0x3d1ff688	0.03905347
68	0xbd07a46f	-0.0331158
69	0xbdbb59a6	-0.091479585
70	0xbdd45052	-0.103668824
71	0x3e0a2e5e	0.1349425
72	0x3d9a44ec	0.07532677
73	0xbe440dcd	-0.1914589
74	0xbdde6d03	-0.10860636
75	0x3d29bfd4	0.041442707
76	0xbda07acd	-0.078359224
77	0xbc627279	-0.013821238
78	0x3db31f92	0.08746256
79	0xbd61562a	-0.055013813
80	0xbc0e1102	-0.008671047
81	0xbd01b4fb	-0.031666737
82	0x3e03fca4	0.12889344
83	0x3dcb092d	0.099138595
84	0x3d7da35e	0.061923377
85	0x3e481013	0.19537382
86	0x3cf540ce	0.029938128
87	0x3d908b74	0.070578486
88	0xbd9cd744	-0.07658246
89	0x3d51bcb9	0.05120537
90	0xbd1221ad	-0.035676647
91	0x3e16b67f	0.14718054
92	0x3e14ee12	0.14543942
93	0x3db9bb0c	0.090688795
94	0x3e4d17cd	0.2002861
95	0xbcbac7e2	-0.02280039
96	0x3e387c63	0.180162
97	0xbc892322	-0.016740385
98	0xbc698286	-0.014252311
99	0x3d5aa113	0.05337627
100	0xbd67128e	-0.05641418
101	0x3da6dbc7	0.08147388
102	0x3d710a49	0.0588477
103	0xbd17ea6b	-0.037088793
104	0xbd418b64	-0.047252074
105	0xbdfd4541	-0.12366725
106	0xbdee4bb5	-0.11635534
107	0xbda808e4	-0.08204821
108	0x3d0630d1	0.0327614
109	0xbc9120f9	-0.017715918
110	0x3d250580	0.04028845
111	0xbd92b4c5	-0.07163385
112	0x3dbff386	0.0937262
113	0x3e5058d0	0.2034638
114	0xbdd7eaec	-0.10542855
115	0x3e1f9c96	0.15587077
116	0x3db0dd97	0.08636015
117	0x3cf39ec7	0.029738797
118	0x3e414f2f	0.18877862
119	0xbd285c81	-0.041103844
120	0x3dafe905	0.08589367
121	0x3da80e95	0.08205906
122	0x3e073c2f	0.13206552
123	0xbd51a7aa	-0.051185288
124	0x3dd28b90	0.10280526
125	0xbd969987	-0.07353502
126	0x3dc49f28	0.09600669
127	0xbc18b415	-0.009320279
128	0x3d3192a8	0.043352753
129	0x3dc6e610	0.0971185
130	0x3c10b798	0.008832835
131	0x3cd21fcf	0.025649933
132	0xbd631f5b	-0.055449825
133	0xbd823a35	-0.06358758
134	0xbe279693	-0.16366033
135	0x3d93f3c4	0.07224229
136	0x3e718491	0.23585726
137	0x3db698e5	0.08915881
138	0xbe25cdbb	-0.16191761
139	0xbd264f3f	-0.04060292
140	0xbcc929f7	-0.024556143
141	0xbd265fc5	-0.040618677
142	0xbdb08f35	-0.086210646
143	0x3dcdddc8	0.10052067
144	0x3d91b7da	0.07115145
145	0x3dd14eec	0.10220131
146	0xbb647b99	-0.003486371
147	0xbe2969aa	-0.16544214
148	0xbe787d6e	-0.24266598
149	0xbd87e2fa	-0.06635089
150	0x3dadf226	0.08493452
151	0x3d9c67ac	0.07636961
152	0xbdbe80ad	-0.09301887
153	0xbe2ad398	-0.16682279
154	0x3e429ef8	0.19005954
155	0xbe3827a1	-0.17983867
156	0xbe0cf569	-0.13765492
157	0xbd16a3ee	-0.03677743
158	0xbd4b38d0	-0.049614727
159	0x3e3a1b68	0.18174517
160	0x3e0ad732	0.13558653
161	0xbccca5b2	-0.024981353
162	0xbd5bfcda	-0.053707935
163	0xbe6fce59	-0.23418559
164	0x3e5aec5b	0.21379225
165	0x3da8a271	0.08234108
166	0xbd0eb466	-0.03484001
167	0x3db0fb9e	0.08641742
168	0xbe4bacec	-0.19890183
169	0x3cc018f4	0.023449399
170	0xbd6a6b28	-0.0572311
171	0xbd355cdb	-0.044278007
172	0xbd4fb5b4	-0.050710395
173	0xbe6bd556	-0.230306
174	0x3cb14819	0.021640824
175	0xbdc7298c	-0.09724721
176	0xbdc2902f	-0.09500157
177	0xbceb34ec	-0.028711759
178	0xbde93649	-0.11387307
179	0xbe58569b	-0.21126787
180	0x3c131118	0.008976243
181	0x3e3af871	0.18258835
182	0x3e755a6c	0.23960274
183	0xbd52fa2e	-0.05150812
184	0x3e4e8216	0.20166811
185	0xbc96932b	-0.018380722
186	0xbe37e4b6	-0.1795834
187	0x3e19e9e2	0.15030625
188	0xbba74c94	-0.0051055644
189	0xbd933f5e	-0.07189821
190	0xbdb9c370	-0.0907048
191	0xbe3e0344	-0.18555933
192	0xbe58094b	-0.21097295
193	0xbc4218c8	-0.011846729
194	0xbcceeb93	-0.025258815
195	0xbd349d07	-0.044095065
196	0xbd99ccaa	-0.0750974
197	0xbe1d30e1	-0.15350677
198	0xbdaa833f	-0.083258145
199	0x3d16b0ca	0.036789693
200	0x3db30ca3	0.08742645
201	0xbc48789a	-0.012235785
202	0xbc33e6ed	-0.01098035
203	0xbce00a1e	-0.027348574
204	0xbe024867	-0.12722932
205	0x3c27cb2b	0.01024131
206	0x3e17aa34	0.14811021
207	0x3d949e15	0.07256714
208	0x3e050531	0.12990262
209	0xbd08cb02	-0.03339673
210	0xbdb49c0f	-0.08818828
211	0x3dcf7eed	0.10131631
212	0xbda30d63	-0.07961538
213	0x3e47f84e	0.19528314
214	0xbdc02556	-0.09382121
215	0x3d9e9df5	0.07744972
216	0xbd2df9cb	-0.04247455
217	0x3dd65d1e	0.104669794
218	0x3d501cc6	0.05080869
219	0x3ddb93ae	0.10721527
220	0x3de03dc5	0.109492816
221	0x3d385e35	0.045011718
222	0x3da9a0ed	0.08282647
223	0x3bcbe50f	0.0062223743
224	0xbddd5671	-0.10807503
225	0x3d9c48ef	0.076310985
226	0x3d075872	0.033043332
227	0x3d1ddc31	0.03854007
228	0x3e04393a	0.12912455
229	0xbd7c8336	-0.06164857
230	0x3dc1bfb3	0.09460392
231	0x3da25b27	0.07927542
232	0x3db5688f	0.088578336
233	0xbde0f87f	-0.10984897
234	0x3d6414d5	0.05568393
235	0x3e0961d2	0.13416222
236	0xbe14b6e2	-0.1452289
237	0x3da89102	0.08230783
238	0xbd5f6c3d	-0.054546583
239	0xbdb85094	-0.08999744
240	0xbd73bb4d	-0.059504796
241	0xbe7f7306	-0.24946222
242	0x3d116f7c	0.03550671
243	0xbcbddd7c	-0.023176901
244	0x3d4be058	0.049774498
245	0xbe06de09	-0.13170637
246	0x3e194520	0.14967775
247	0x3cec0b9b	0.028814128
248	0x3e3a9e70	0.18224502
249	0xbe12edf0	-0.14348578
250	0x3d573c04	0.05254747
251	0xbdd66a5f	-0.104695074
252	0x3e05b782	0.13058284
253	0x3dcc613e	0.09979485
254	0xbe070a87	-0.1318761
255	0x3e08c3ca	0.13355938

lstm1.bias_hh_l0 f4 [256]
0	0xbe4406e2	-0.1914325
1	0xbda949a6	-0.082660004
2	0xbcfa7d80	-0.030577421
3	0xbd802e3d	-0.06258819
4	0xbdd8ddfb	-0.105892144
5	0x3cdf5ea9	0.027266817
6	0xbd88f69f	-0.06687664
7	0xbe31517a	-0.17316237
8	0x3d5095ae	0.050923996
9	0x3dbd73ac	0.09250578
10	0xbe010965	-0.1260124
11	0x3dd2b756	0.10288875
12	0x3aa84b79	0.0012839875
13	0x3d5a5bcd	0.053310204
14	0x3e1f9eff	0.15587996
15	0x3e2e1f7c	0.17004198
16	0xbdc0e236	-0.09418146
17	0xbe2f82c4	-0.17139727
18	0xbd1b941b	-0.03798304
19	0x3d057b14	0.03258808
20	0xbdfce92f	-0.12349164
21	0x3d8b06a4	0.06788376
22	0x3c2f06a6	0.010682737
23	0xbde988d8	-0.11403054
24	0xbcb5edc7	-0.022208108
25	0x3dcacc84	0.099022895
26	0x3df0b25b	0.117527686
27	0x3cac5703	0.021037584
28	0x3bef30d9	0.0072995243
29	0xbd9f51e9	-0.07779295
30	0x3d8797ef	0.06620776
31	0x3e1ddf57	0.15417229
32	0x3d548163	0.051881205
33	0x3d7f57ff	0.06233978
34	0xbca30bfc	-0.019903176
35	0xbcc0da71	-0.023541661
36	0x3d86cc5c	0.06581947
37	0x3d131524	0.035908833
38	0x3dcf25f9	0.101146646
39	0xbdb58ea3	-0.088650964
40	0xbdee9364	-0.11649206
41	0xbe62bc65	-0.2214218
42	0xbd81ea61	-0.06343532
43	0x3dfbad27	0.122888856
44	0xbe1c1618	-0.15242803
45	0x3ddbcaf8	0.107320726
46	0x3d03d11b	0.03218184
47	0xbd77ead5	-0.060526688
48	0x3d2aa554	0.041661575
49	0x3db0f4ab	0.08640417
50	0xbd326c48	-0.043560296
51	0x3d56d1e1	0.05244625
52	0x3c5009dc	0.012697663
53	0x3c7cea38	0.0154367015
54	0x3e806f9e	0.25085157
55	0xbde1c9fe	-0.11024855
56	0x3d204466	0.03912773
57	0xbd66a148	-0.056306154
58	0x3ce8dadd	0.028424675
59	0x3d90251d	0.07038329
60	0xbce02115	-0.027359525
61	0xbdba02d8	-0.09082574
62	0x3cfe5190	0.031044751
63	0xbd956045	-0.072937526
64	0x3d8e04d5	0.069345154
65	0xbbdda684	-0.006764235
66	0xbe052cd0	-0.13005376
67	0xbe236a59	-0.15958537
68	0xbd9b9977	-0.075976305
69	0x3dd1dc37	0.10247081
70	0x3ca57e67	0.020201875
71	0x3d42c7ab	0.0475537
72	0x3dc46e3e	0.095913395
73	0xbd06438d	-0.032779265
74	0xbd8325bb	-0.06403681
75	0x3c2d80f5	0.010589828
76	0xbc112f2b	-0.008861343
77	0x3a17c46f	0.0005789464
78	0x3ce656d0	0.028117567
79	0xbe23c0b9	-0.15991487
80	0x3e139086	0.144106
81	0x3c199bf9	0.009375566
82	0xbcf6b0c1	-0.03011358
83	0xbca47509	-0.020075338
84	0x3d64be94	0.055845812
85	0x3ddf2a60	0.10896754
86	0x3d0ca6ca	0.03433875
87	0x3c4d6958	0.012537323
88	0xbd5e6a41	-0.05430055
89	0x3dcc1200	0.09964371
90	0x3e1ab5a9	0.1510836
91	0x3d996b52	0.07491173
92	0x3e1f9ce3	0.15587191
93	0xbda40109	-0.0800801
94	0x3de52605	0.11188892
95	0x3ce615e4	0.02808661
96	0x3e27da2c	0.1639182
97	0x3db84c2f	0.08998906
98	0xbd90e7cf	-0.07075464
99	0x3e1b3815	0.15158112
100	0xbdbd8720	-0.09254289
101	0x3d821b00	0.06352806
102	0xbde3ca1b	-0.11122533
103	0xbcc1b106	-0.023643982
104	0xbca0965b	-0.019602945
105	0xbdc321bd	-0.095279194
106	0xbdd47df3	-0.103755854
107	0xbd192c4c	-0.03739576
108	0xbac53301	-0.0015045108
109	0x3d53e500	0.051732063
110	0x3de509b4	0.11183491
111	0xbe4d6eae	-0.20061752
112	0x3d487b62	0.048945792
113	0x3e69ed96	0.22844538
114	0xbd660b04	-0.05616285
115	0xbc254969	-0.010088303
116	0x3d0d5ba4	0.034511223
117	0xbe3c5d9b	-0.18395083
118	0x3c76b35c	0.015057411
119	0x3e08c38c	0.13355845
120	0x3df728cf	0.120683305
121	0x3cf18985	0.02948452
122	0x3dd2f77b	0.103011094
123	0x3c0df2e4	0.008663867
124	0x3d5a6ae7	0.053324606
125	0xbe1a41ec	-0.1506421
126	0x3e0e9f85	0.1392804
127	0xbcffaf50	-0.031211525
128	0x3dd5a4c2	0.10431816
129	0xbc947cf2	-0.018125985
130	0xbbf2bd0a	-0.007407789
131	0xbe1119ae	-0.14169952
132	0xbd9c8bbe	-0.07643841
133	0xbda7fcd2	-0.082025185
134	0xbe31dbb7	-0.17368971
135	0x3e43b3b0	0.19111514
136	0x3dd32dc9	0.10311467
137	0x3dd64e4c	0.10464153
138	0xbda86707	-0.08222776
139	0xbdfe1d51	-0.124079354
140	0xbd02cbee	-0.031932764
141	0xbe1b2c55	-0.1515363
142	0xbe32d2cc	-0.17463225
143	0x3de98372	0.11402024
144	0xbd361498	-0.044453233
145	0x3e01b9d0	0.12668538
146	0xbe3ba164	-0.18323284
147	0xbe084f43	-0.13311486
148	0xbd8467bb	-0.064650975
149	0xbe29cbc0	-0.1658163
150	0x3e153bd5	0.14573605
151	0x3d962b9a	0.07332535
152	0xbe56721a	-0.20941964
153	0xbe2229e3	-0.15836291
154	0x3e13067d	0.14357944
155	0xbe144c0d	-0.14482136
156	0xbe6997b0	-0.2281177
157	0xbd80de88	-0.062924445
158	0xbe1804f0	-0.14845634
159	0x3de66fca	0.11251791
160	0x3e041d92	0.12901905
161	0xbd8cf8e5	-0.0688341
162	0xbe42a97c	-0.19009966
163	0xbe589681	-0.21151163
164	0x3e46f193	0.19428091
165	0x3dfcee13	0.123500966
166	0xbdf16294	-0.117863804
167	0xbd75d666	-0.06001892
168	0xbd2aa77e	-0.04166364
169	0xbe1484a2	-0.1450372
170	0x3a61a525	0.00086076773
171	0xbe493f1d	-0.19652982
172	0xbe0ab42f	-0.13545297
173	0xbd84aa52	-0.064777985
174	0x3d81f7c8	0.06346089
175	0xbdb2a320	-0.0872252
176	0xbe46430d	-0.19361515
177	0x3bec53d2	0.0072121406
178	0xbe190f35	-0.14947207
179	0xbe2e2dc4	-0.17009646
180	0xbc8618f1	-0.016369315
181	0x3d1d844c	0.038456246
182	0x3e585e6a	0.21129766
183	0xbe5f0dee	-0.21782658
184	0x3d899a3a	0.067188695
185	0x3d983760	0.07432437
186	0xbc74d226	-0.014942681
187	0x3e809968	0.2511704
188	0x3d95dfbe	0.07318066
189	0xbe507f72	-0.20361117
190	0xbdb9bcdb	-0.090692244
191	0xbe061fbb	-0.13098042
192	0x3b0472cd	0.0020210028
193	0xbb676512	-0.0035308045
194	0xbd3a309c	-0.045456514
195	0x3c8c39ef	0.017117469
196	0xbcb5f428	-0.02221115
197	0x3d66e20b	0.056367915
198	0x3da0bc51	0.078484185
199	0xbcec79d1	-0.02886668
200	0x3e5081a7	0.20361958
201	0xbd8b9470	-0.068154216
202	0xbca2ca9e	-0.019872006
203	0x3b871bda	0.004123193
204	0x3d164e24	0.036695614
205	0x3c8981d8	0.016785547
206	0xbd5221cc	-0.051301762
207	0x3c57a6cd	0.013162327
208	0x3dd8fee2	0.1059549
209	0x3d710b34	0.058848575
210	0xbc3d111b	-0.011539723
211	0x3da21236	0.0791363
212	0xbd436562	-0.047704108
213	0xbd0a90dc	-0.033829555
214	0x3def2d52	0.11678566
215	0x3ddda651	0.10822738
216	0xbbd313a1	-0.006441549
217	0x3e3ad3b1	0.18244816
218	0xbd4648f8	-0.048409432
219	0xbdf92ae6	-0.12166385
220	0x3e66d420	0.22541857
221	0xbe1b77f2	-0.15182474
222	0x3d6e2e49	0.05814961
223	0xbbd69234	-0.0065481905
224	0x3d733add	0.05938231
225	0x3da6dee2	0.0814798
226	0xbe0f8889	-0.14016928
227	0xbd2f6d25	-0.042828698
228	0x3df14e37	0.117824964
229	0xbd71be1a	-0.059019186
230	0xbd092bf6	-0.03348919
231	0xbcdcd942	-0.026959065
232	0x3dd7816f	0.105227344
233	0x3da18d9a	0.078883365
234	0xba9cce1c	-0.0011963281
235	0xbcc300ca	-0.023804087
236	0xbd4a2e74	-0.049360707
237	0xbd4acd3c	-0.049512133
238	0xbd95343c	-0.072853535
239	0x3d56b820	0.05242169
240	0x3e10823d	0.14112182
241	0xbdec88ee	-0.11549555
242	0xbdb7b7be	-0.08970593
243	0x3e381518	0.17976797
244	0x3de45c51	0.111504205
245	0xbe10b26d	-0.14130564
246	0x3d8bd6db	0.0682809
247	0xbc517004	-0.012783054
248	0x3d5345e1	0.051580314
249	0xbced58a7	-0.028972937
250	0xbcc9a7bd	-0.024616117
251	0x3d2e492d	0.042550255
252	0x3d0a8837	0.03382131
253	0xbdd8209e	-0.10553096
254	0xbd53c85a	-0.051704742
255	0x3e2df3f5	0.16987593

lstm2.weight_ih_l0 f4 [256, 64]
0	0xbdda2b2a	-0.10652764
1	0x3dfe9da0	0.12432408
2	0x3e1237c8	0.14279091
3	0xbdc0eb7d	-0.09419916
4	0xbe14d341	-0.14533712
5	0xbcb23bec	-0.021757089
6	0xbd374d27	-0.044751313
7	0x3e1e4637	0.15456472
8	0x3e2540e0	0.16138029
9	0x3d150423	0.0363809
10	0xbe3a4a16	-0.18192324
11	0xbdaeb14d	-0.08529911
12	0x3c3180ee	0.010833962
13	0xbe11202f	-0.14172433
14	0xbe0698f4	-0.13144284
15	0x3d5ea49c	0.054356202
16	0x3da71dd5	0.08159987
17	0x3df7e68b	0.121045195
18	0xbcde1c82	-0.027113203
19	0x3d45d527	0.04829898
20	0xbb11a717	-0.0022224837
21	0xbdaf583c	-0.08561751
22	0xbd18b3cc	-0.037280843
23	0xbe2e3384	-0.17011839
24	0xbd00a663	-0.03140868
25	0x3d0befc9	0.034164224
26	0x3dab7c59	0.08373327
27	0xbcb91e56	-0.022597473
28	0xbe0e7723	-0.13912635
29	0x3e820dab	0.25401053
30	0x3dc86b9f	0.09786152
31	0xbdc232a2	-0.09482314
32	0x3de774d1	0.11301578
33	0xbe1e5551	-0.15462233
34	0x3aea4845	0.0017874321
35	0x3cc6b017	0.024253888
36	0xbe0e4cdc	-0.13896507
37	0x3e0df0a3	0.13861327
38	0xbd45dca1	-0.04830611
39	0xbe3b1613	-0.1827014
40	0xbe3ec5b5	-0.18630107
41	0x3d988e91	0.074490674
42	0x3ccf8d48	0.025335923
43	0x3e130aab	0.14359538
44	0xbd266a33	-0.040628623
45	0xbd643ec8	-0.055723935
46	0x3dd3b4e2	0.10337235
47	0xbe2317e6	-0.15927085
48	0xbe3cdf65	-0.18444593
49	0x3d45a945	0.04825713
50	0xbe448673	-0.19191913
51	0xbda06e68	-0.07833558
52	0xbe3f016b	-0.18652885
53	0x3e5687af	0.20950197
54	0xbd12a672	-0.035803266
55	0xbdc293be	-0.09500836
56	0x3c5eace0	0.013591021
57	0xbe648e45	-0.22319897
58	0x3cf4803f	0.029846309
59	0xbd160aee	-0.036631517
60	0xbd248775	-0.040168244
61	0xbdf9da99	-0.12199897
62	0xbd3dea76	-0.046366177
63	0xbd85aa2b	-0.065265976
64	0xbd419173	-0.04725785
65	0xbdd85a66	-0.10564117
66	0xbe050d11	-0.12993266
67	0x3e8dc589	0.2768977
68	0x3e087161	0.133245
69	0x3cb46206	0.022019397
70	0xbddc1f12	-0.10748114
71	0xbe1ee7b9	-0.15518083
72	0xbd87311a	-0.06601162
73	0xbd056fbe	-0.03257727
74	0x3e266773	0.162504
75	0x3dc82123	0.09771945
76	0xbdac3271	-0.084080584
77	0xbdbc59ac	-0.09196791
78	0x3d8acc5a	0.06777258
79	0xbdbbcbf3	-0.091697596
80	0x3da7a736	0.0818619
81	0xbe43ef7a	-0.19134322
82	0x3b688d7c	0.0035484722
83	0xbc56f98b	-0.013121019
84	0x3e309c0b	0.17247026
85	0xbd4b908f	-0.04969841
86	0xbe1b7d45	-0.15184505
87	0x3e7e95ba	0.24861804
88	0x3d1e38a3	0.03862823
89	0x3d62c9d6	0.055368267
90	0xbdb8b207	-0.09018331
91	0xbdde27dc	-0.10847446
92	0xbd4890d6	-0.04896625
93	0x3e80134c	0.25014722
94	0xbd8f340d	-0.0699235
95	0x3bef8854	0.0073099528
96	0xbd57a2c7	-0.05264547
97	0xbdb74709	-0.08949096
98	0x3e1de4ee	0.15419361
99	0x3d70370f	0.058646258
100	0xbe0d3804	-0.137909
101	0xbc9ad9ad	-0.018902624
102	0x3ddefd7b	0.10888191
103	0x3d3aa46a	0.045566954
104	0x3e1a461f	0.15065812
105	0x3e1aa564	0.15102154
106	0xbb63dbdc	-0.0034768498
107	0xbd9e7e1d	-0.07738898
108	0xbb999519	-0.0046869633
109	0xbd3af44e	-0.045643143
110	0x3dd3ba3a	0.10338254
111	0xbd8dafb5	-0.06918279
112	0xbbaa5074	-0.005197579
113	0xbd101ee9	-0.03518573
114	0x3dcdefab	0.10055479
115	0xbd47a1cf	-0.048738297
116	0x3dcc5889	0.09977824
117	0xbb03b6dc	-0.0020098006
118	0x3de8fdd5	0.113765396
119	0x3bd8dc50	0.00661806
120	0xbd531c93	-0.051540922
121	0xbc9a27e7	-0.018817855
122	0x3cff5be9	0.031171756
123	0x3d5fa048	0.054596215
124	0xbd0e4a6a	-0.034738936
125	0x3de875d5	0.113506
126	0xbd4baa69	-0.049723063
127	0x3b9df7bc	0.004820792
128	0x3c589efe	0.0132215
129	0xbe45a3ca	-0.19300762
130	0xbe48d3ef	-0.19612096
131	0x3d1f81df	0.038942214
132	0xbd12317e	-0.03569173
133	0x3e8fa1a8	0.2805302
134	0x3cec59da	0.028851438
135	0x3ca553b8	0.020181522
136	0xbe20267f	-0.15639685
137	0xbe59eea3	-0.21282439
138	0x3e1f5410	0.15559411
139	0x3da2305d	0.07919381
140	0xbdf2ffbe	-0.11865185
141	0xbd0789f7	-0.033090558
142	0x3e5a0f7b	0.21294968
143	0xbed55341	-0.4166508
144	0xbdb7ed5a	-0.08980818
145	0x3ad081be	0.0015907807
146	0xbda7a908	-0.08186537
147	0x3e1baf19	0.15203513
148	0x3d370990	0.044686854
149	0xbd5983f0	-0.05310434
150	0xbe6a70b3	-0.22894554
151	0x3ddaeae0	0.1068933
152	0x3e21f02a	0.15814272
153	0x3d65ad7c	0.05607365
154	0xbdf31e83	-0.11871054
155	0x3e198e54	0.149957
156	0x3da40e6a	0.08010562
157	0x3e0914c3	0.13386826
158	0xbdb5f4d5	-0.08884589
159	0xbed15424	-0.40884507
160	0xbe1cda29	-0.15317596
161	0x3e49a5e3	0.19692187
162	0xbd0b7d41	-0.034055
163	0x3d213305	0.039355297
164	0xbd4537ee	-0.04814904
165	0xbc93c67b	-0.018038979
166	0x3e026e2e	0.12737343
167	0x3e1c27b9	0.15249528
168	0x3d900c09	0.070335455
169	0x3de607ca	0.112319544
170	0x3c1b4ac8	0.009478278
171	0xbda923f5	-0.082588114
172	0x3e1c9b5d	0.15293641
173	0x3dbf9e27	0.09356337
174	0x3d22c99f	0.039743062
175	0x3dd45e3a	0.10369535
176	0x3e6c2cdd	0.23063989
177	0x3d7b7617	0.061391916
178	0xbc9c34a0	-0.019068062
179	0x3d931461	0.07181621
180	0xbd74388c	-0.05962424
181	0xbe1cda40	-0.15317631
182	0x3d4fa640	0.050695658
183	0x3d932648	0.07185036
184	0xbdf61764	-0.1201618
185	0x3e09ca82	0.13456157
186	0x3e22be23	0.15892844
187	0x3d99b1c1	0.07504607
188	0xbd664c3e	-0.056225054
189	0x3e1b10bc	0.15143102
190	0xbbd568b5	-0.006512726
191	0x3e76fffc	0.24121088
192	0xbcc21cce	-0.023695376
193	0xbe044589	-0.1291715
194	0xbbfb0ce8	-0.0076614507
195	0x3ea4ea43	0.32209978
196	0x3e299bd0	0.16563344
197	0x3e205420	0.15657091
198	0x3de83e27	0.113399796
199	0x3d5463bb	0.051852923
200	0xbd24eb69	-0.040263567
201	0xbeb691ac	-0.35658014
202	0x3e3e5840	0.18588352
203	0x3d20a6bd	0.039221514
204	0x3e337ca1	0.17528011
205	0x3e5378b4	0.20651513
206	0x3e0f1848	0.13974106
207	0xbe96902e	-0.29406875
208	0xbe3fd8be	-0.18735024
209	0x3a1052c5	0.00055054977
210	0xbe290664	-0.16506344
211	0x3df4abe5	0.11946849
212	0x3e2c7041	0.16839696
213	0xbe5f8df0	-0.21831489
214	0xbe7c67d1	-0.24648978
215	0xbc01a127	-0.007911957
216	0x3e2bdec3	0.16784196
217	0x3e27755b	0.16353361
218	0xbd85cbd3	-0.06533017
219	0xbd4a5bc2	-0.049403913
220	0x3e4a9998	0.19785154
221	0x3e11720a	0.14203659
222	0xbe8c1389	-0.27358654
223	0xbe28435a	-0.16431943
224	0xbdb01e35	-0.085995115
225	0xbc64abe0	-0.013956994
226	0xbe2a72ad	-0.16645308
227	0xbd45f40f	-0.048328456
228	0xbc12f13c	-0.008968648
229	0xbda1b58b	-0.07895955
230	0x3dbd1dbb	0.09234186
231	0x3e8d76ac	0.27629602
232	0x3e53a33d	0.20667739
233	0xbe0d83c4	-0.13819796
234	0x3e5d3f41	0.2160616
235	0x3e6a9e7f	0.22912024
236	0x3cfc4789	0.03079583
237	0x3dab1b36	0.083547994
238	0xbe953db2	-0.29148632
239	0x3e1926b3	0.14956169
240	0x3d949964	0.072558194
241	0xbe3169fa	-0.17325583
242	0x3d04ec6f	0.032452043
243	0x3e559cf9	0.20860662
244	0xbc12bf43	-0.008956733
245	0xbd44df48	-0.0480645
246	0xbe5ed635	-0.21761401
247	0xbde30734	-0.11085358
248	0xbe8a3a4e	-0.26997608
249	0x3ce1b84c	0.0275537
250	0x3dfc9c14	0.12334457
251	0xbaa68f65	-0.001270753
252	0xbdf67d3c	-0.12035605
253	0x3ce4cec7	0.02793063
254	0xbd7a4bcd	-0.061107446
255	0x3e08f316	0.1337398

lstm2.weight_hh_l0 f4 [256, 64]
0	0xbd0aed20	-0.033917546
1	0xbbe2fd48	-0.006927166
2	0x3d9fa85c	0.07795784
3	0xbe84357a	-0.2582205
4	0x3e20e61f	0.15712784
5	0xbc88acb1	-0.016683908
6	0xbde199d9	-0.11015672
7	0x3e3d3cfa	0.18480292
8	0xbda04e2a	-0.078274086
9	0xbc862a4c	-0.01637759
10	0x3bbff09d	0.0058575408
11	0x3dcd4114	0.10022178
12	0x3c18983c	0.009313639
13	0xbe734a35	-0.23758776
14	0x3d9287b0	0.071547866
15	0x3e4f80fd	0.20264049
16	0xbb83666d	-0.004010013
17	0x3d699374	0.057025388
18	0x3e14ef51	0.14544417
19	0xbe03213f	-0.12805651
20	0xbd222a7d	-0.0395913
21	0xbcd27b7f	-0.025693653
22	0xbd782c3f	-0.06058907
23	0x3d7af5db	0.061269622
24	0xbd8009cb	-0.06251868
25	0x3ccb948f	0.024851112
26	0xbd19bb82	-0.037532337
27	0xbda6525c	-0.081211776
28	0x3de59bcb	0.11211356
29	0x3d9710cf	0.07376253
30	0xbe23a818	-0.15982091
31	0xbda1a55f	-0.0789287
32	0x3da8df3a	0.08245702
33	0xbb6b8d42	-0.003594235
34	0x3d0904c4	0.03345181
35	0x3e594cb5	0.21220668
36	0xbdaa800f	-0.083252065
37	0x3e44837e	0.19190785
38	0xbaee8d48	-0.0018200064
39	0x3e177402	0.14790347
40	0xbe22f373	-0.15913181
41	0xbe015381	-0.1262951
42	0x3e667f7f	0.22509573
43	0x3daa1901	0.0830555
44	0xbdb13323	-0.08652332
45	0xbce852e3	-0.028359836
46	0x3d0954b9	0.033528063
47	0x3dd9e00b	0.10638436
48	0xbe2f51dd	-0.17121072
49	0x3e2ff088	0.17181599
50	0x3ca3c779	0.019992577
51	0xbe37355e	-0.17891452
52	0xbdf8d27c	-0.12149522
53	0xbdebb277	-0.11508649
54	0xbe327724	-0.17428261
55	0xbe0100db	-0.12597983
56	0xbda076a0	-0.07835126
57	0xbdc7e0e2	-0.0975969
58	0xbe0f28d3	-0.13980417
59	0x3dbf273a	0.09333654
60	0xbc9dd75b	-0.019267729
61	0x3d11e922	0.035622723
62	0xbea3ee8e	-0.3201794
63	0x3caccd7b	0.021094074
64	0x3de7fed9	0.11327905
65	0x3dd3e981	0.10347272
66	0xbd8afaac	-0.06786093
67	0xbd034bc2	-0.03205467
68	0x3daeb21d	0.08530066
69	0x3b07a146	0.0020695492
70	0xbd9f0143	-0.077639125
71	0xbded606e	-0.11590658
72	0xbc7bf1ea	-0.015377501
73	0xbdef61ed	-0.116886
74	0xbd48f3f1	-0.049060766
75	0xbd622c03	-0.055217754
76	0x3c91706d	0.017753804
77	0x3d9228e2	0.07136704
78	0x3dc8a016	0.09796159
79	0xbd91ca59	-0.07118673
80	0xbe0bfc27	-0.13670407
81	0xbd2bb255	-0.041918118
82	0xbe2f3af8	-0.17112339
83	0x3b7c090d	0.0038457543
84	0x3b51fdf6	0.0032042242
85	0xbc4d172c	-0.012517732
86	0xbe07f9d7	-0.132789
87	0x3e39276c	0.18081445
88	0x3daa6d2f	0.08321606
89	0xbdf615da	-0.120158866
90	0x3d7c8af9	0.061655972
91	0xbde70b09	-0.11281402
92	0x3df7eb43	0.121054195
93	0x3e0dc379	0.13844098
94	0xbd5054e4	-0.050862208
95	0x3bc717d8	0.0060758404
96	0xbdcdf2a7	-0.10056048
97	0x3d119d54	0.03555043
98	0xbd6dfa55	-0.058100063
99	0xbd70dd41	-0.058804754
100	0x3cc22352	0.023698483
101	0x3e03f2a2	0.12885526
102	0xbd80cdd1	-0.06289256
103	0xbcb7b3c6	-0.02242459
104	0x3cb2cb07	0.021825327
105	0x3e0f5ffa	0.14001456
106	0x3d0f0506	0.0349169
107	0xbc3b0acd	-0.011416149
108	0xbd100630	-0.03516215
109	0x3e2fe37a	0.17176619
110	0xbbca982a	-0.00618269
111	0xbdfa7368	-0.12229043
112	0xbe061b97	-0.13096462
113	0xbc56d9e6	-0.0131134745
114	0x3dbc4bb3	0.09194126
115	0x3dc2fce3	0.095208906
116	0x3da12ba3	0.07869651
117	0x3c915349	0.017739909
118	0x3dbc0443	0.091805
119	0xbb23fc67	-0.002502227
120	0x3e1c5549	0.15266909
121	0xbc52dec1	-0.0128704915
122	0xbdeed934	-0.11662522
123	0xbcdd5f17	-0.027022881
124	0xbdc451eb	-0.09585937
125	0x3d770f78	0.060317487
126	0x3d379084	0.044815555
127	0x3e08f641	0.13375188
128	0x3da0ac32	0.07845344
129	0xbd84ac86	-0.06478219
130	0x3d481707	0.048850086
131	0x3cac1eb1	0.021010729
132	0xbddaa4db	-0.10675975
133	0x3d654246	0.055971406
134	0xbc78a093	-0.015175003
135	0x3dbc66c5	0.09199289
136	0x3ac872d3	0.0015293009
137	0xbdca1e30	-0.09869039
138	0x3dd05076	0.10171597
139	0x3e4eee6c	0.20208138
140	0xbd916341	-0.07099009
141	0xbd05564e	-0.03255301
142	0xbce865a1	-0.028368773
143	0x3cd70e4b	0.026251933
144	0x3dee77cd	0.11643944
145	0xbda36fef	-0.07980334
146	0x3e534607	0.20632182
147	0x3dc22a0b	0.09480675
148	0xbcb66806	-0.0222664
149	0xbe49ef01	-0.19720079
150	0x3d5caedc	0.053877696
151	0x3c16de14	0.009208221
152	0x3df652f6	0.12027542
153	0xbe6240b8	-0.22095
154	0x3df87705	0.12132076
155	0xbe09b5c4	-0.13448244
156	0x3cf670bc	0.030083053
157	0xbe2fd766	-0.17172012
158	0x3e1693fc	0.14704889
159	0x3dad487c	0.08461091
160	0xbd983744	-0.07432416
161	0x3e425eb9	0.18981446
162	0xbdcf8262	-0.101322904
163	0x3df42259	0.11920614
164	0xbdf00075	-0.11718837
165	0xbd069cea	-0.03286449
166	0xbd3ffd38	-0.046872348
167	0xbd328956	-0.043588005
168	0x3d9da060	0.07696605
169	0xbd13abc5	-0.036052484
170	0xbca7c53c	-0.02047979
171	0xbd2a9faa	-0.041656174
172	0x3da1c4d9	0.07898874
173	0x3c371972	0.0111755
174	0x3d13f44d	0.036121655
175	0xbe375e4b	-0.17907064
176	0x3dba98e7	0.09111195
177	0xbe13e74d	-0.14443703
178	0xbcdd4a02	-0.027012829
179	0xbdaed36b	-0.085364185
180	0xbdf2fa20	-0.11864114
181	0x3c6f3109	0.014599093
182	0x3da9fc5f	0.08300089
183	0x3e37a9c7	0.17935859
184	0x3df26988	0.11836535
185	0x3e1164b3	0.1419857
186	0x3b5db462	0.003382944
187	0xbd8965f5	-0.067089
188	0xbbefe714	-0.007321248
189	0x3d36b41f	0.04460537
190	0xbd9a684a	-0.07539423
191	0x3e1b4e31	0.15166546
192	0x3e4c8bf3	0.19975261
193	0xbda880cf	-0.08227693
194	0xbd7026ac	-0.05863063
195	0x3c8e4c40	0.017370343
196	0x3dbfad7b	0.09359261
197	0xbccc5574	-0.024943091
198	0x3e0b7c58	0.13621652
199	0x3df43a26	0.119251534
200	0x3e5b0000	0.21386719
201	0xbd035e82	-0.03207255
202	0xbdf82999	-0.12117309
203	0x3e64c12f	0.22339319
204	0x3e767a52	0.24070099
205	0x3d575b62	0.052577384
206	0x3e0e435f	0.13892888
207	0x3dcfad3f	0.10140466
208	0x3d39d581	0.04536963
209	0xbe05ddf1	-0.13072945
210	0x3e00f8d4	0.1259492
211	0xbdcc8189	-0.09985644
212	0xbd1c3087	-0.038132217
213	0xbbe1b94a	-0.0068885433
214	0x3cd4c907	0.025974764
215	0x3b744be2	0.0037276675
216	0x3d589730	0.05287856
217	0x3d817ce9	0.06322653
218	0x3dc3ca72	0.09560098
219	0xbe0ca01d	-0.13732953
220	0xbdd52f98	-0.104094684
221	0xbcffc0a1	-0.031219782
222	0xbe14548b	-0.14485376
223	0x3e29fdd7	0.16600738
224	0x3ccfad21	0.025351109
225	0xbe31c2de	-0.17359492
226	0xbe87047c	-0.2637061
227	0x3e192c73	0.14958362
228	0x3e4705be	0.19435784
229	0x3d10107f	0.035171982
230	0xbd43ef8d	-0.047835875
231	0xbe0298e5	-0.12753637
232	0xbe03914d	-0.12848397
233	0x3d60e6c8	0.05490759
234	0x3dcdc827	0.10047942
235	0xbd487c3e	-0.04894661
236	0xbaf2215a	-0.0018473074
237	0x3e30050e	0.17189428
238	0xbe26c2e2	-0.1628528
239	0x3e13d207	0.14435588
240	0xbd91b1c0	-0.07113981
241	0x3b917842	0.0044393847
242	0xbe03233e	-0.12806413
243	0x3dfcef93	0.12350383
244	0xbe83427e	-0.25636667
245	0xbe176f8e	-0.14788648
246	0x3e4a972b	0.19784229
247	0xbd7d4e47	-0.06184223
248	0x3e030f59	0.12798823
249	0x3e13f49e	0.14448783
250	0xbd8f33b4	-0.069922835
251	0xbe0974f2	-0.13423517
252	0x3c36ebda	0.01116463
253	0xbe6b8cf0	-0.23002982
254	0x3e0fe145	0.14050777
255	0x3d83b814	0.064315945

lstm2.bias_ih_l0 f4 [256]
0	0xbdccae1e	-0.09994148
1	0xbb8e286f	-0.004338316
2	0x3dc89100	0.097932816
3	0x3e570557	0.2099813
4	0x3d8a93aa	0.06766446
5	0x3e3864f6	0.18007264
6	0xbc4bd55d	-0.0124410065
7	0x3d3f6c66	0.046734236
8	0xbdb207ee	-0.08692919
9	0x3dfeae41	0.1243558
10	0x3dd6e91e	0.10493682
11	0x3d4967b1	0.049171153
12	0x38157414	3.5632474e-05
13	0x3db9c5b9	0.09070916
14	0xbe388b90	-0.18021989
15	0xbd797e86	-0.060911678
16	0xbdb571eb	-0.08859619
17	0xbdcc4bab	-0.0997537
18	0xbd0c5305	-0.03425886
19	0x3e87d863	0.26532277
20	0x3d11e11f	0.035615083
21	0x3c22d2aa	0.009937922
22	0x3ce81e4c	0.02833476
23	0x3cc1e494	0.023668565
24	0x3d982306	0.07428555
25	0xbc4a7c9d	-0.012358812
26	0xbe2b6d75	-0.16740973
27	0x3d5ff4d9	0.054676864
28	0x3da7427c	0.08166978
29	0x3dc17aa4	0.0944722
30	0x3db3fdf2	0.087886706
31	0x3e20a936	0.15689549
32	0x3e796310	0.24354196
33	0xbce24ffc	-0.02762603
34	0xbe00d6eb	-0.12581985
35	0x3d82791a	0.063707545
36	0x3df48871	0.11940087
37	0x3ddd62f7	0.10809892
38	0xbe0a881a	-0.13528481
39	0xbbbd75d6	-0.0057818694
40	0x3d8a742d	0.0676044
41	0x3d802261	0.06256557
42	0x3d35a570	0.044347227
43	0x3d33c6d0	0.043890774
44	0x3c897d70	0.016783446
45	0x3e33a3a4	0.17542893
46	0xbe257ad1	-0.16160132
47	0xbe49d287	-0.19709216
48	0x3da1d04d	0.07901058
49	0xbe1c8038	-0.15283287
50	0x3e1e31ba	0.15448657
51	0xbdcb276c	-0.099196285
52	0xbcf60aac	-0.030034386
53	0xbd342804	-0.043983474
54	0xbda67895	-0.08128468
55	0xbc75ef45	-0.01501066
56	0x3c8107fe	0.015750881
57	0x3e1758c6	0.14779958
58	0x3d8ec9ca	0.06972082
59	0x3e5923a6	0.21205005
60	0xbe0339ee	-0.12815067
61	0xbb666661	-0.0035156237
62	0x3d1e56cb	0.03865699
63	0xbd9f1bff	-0.07769012
64	0x3c4df071	0.012569533
65	0x3e2dd002	0.1697388
66	0xbd4c38f0	-0.049858987
67	0xbda93d84	-0.08263686
68	0x3c61893d	0.01376563
69	0x3db36ee1	0.08761383
70	0x3dd64bd7	0.10463684
71	0x3d8ed58c	0.069743246
72	0xbd29a316	-0.041415296
73	0x3e806334	0.25075686
74	0x3dec246c	0.115303844
75	0x3b6f8e42	0.0036553298
76	0xbe001021	-0.12506153
77	0xbe55720e	-0.2084429
78	0xbcd4f958	-0.025997803
79	0x3d841736	0.0644974
80	0x3df1a317	0.11798685
81	0x3db39548	0.087687075
82	0x3e221e9f	0.15831994
83	0xbde0f2b5	-0.10983793
84	0x3d0ba428	0.0340921
85	0x3d09fa0c	0.03368573
86	0x3e7ae885	0.24502762
87	0x3d985c44	0.07439473
88	0x3cf4821f	0.029847203
89	0x3cf043f3	0.029329276
90	0x3d8d5403	0.069007896
91	0xbcf1bd7d	-0.0295093
92	0xbd876d06	-0.066125914
93	0x3ddd82f4	0.10815993
94	0x3e2520fb	0.16125862
95	0x3da87c9d	0.08226893
96	0xbdadb526	-0.08481817
97	0x3e3527fc	0.17691034
98	0xbd8e1325	-0.06937245
99	0xbe1448ee	-0.14480945
100	0xbc559eb1	-0.013038323
101	0x3e6dec94	0.23234779
102	0x3e53e42e	0.20692512
103	0xbda4e045	-0.080505885
104	0x3e603cbf	0.21898173
105	0x3ddb657e	0.107127175
106	0x3da14fe5	0.07876567
107	0x3e869557	0.26285812
108	0x3d03dc68	0.032192618
109	0x3de9c714	0.11414924
110	0xbcdabb46	-0.026700627
111	0x3c93a4f3	0.01802299
112	0x3d75fe48	0.060056955
113	0xbb304cfe	-0.002690136
114	0x3df12099	0.11773796
115	0xbcea0a0d	-0.028569246
116	0xbe49cb49	-0.19706453
117	0x3b073295	0.0020629514
118	0x3e015738	0.12630928
119	0x3ccb84a5	0.024843523
120	0x3d64e95c	0.05588661
121	0x3e5cdd01	0.21568681
122	0x3e30ae99	0.17254104
123	0x3e51654a	0.20448795
124	0x3cf72098	0.03016691
125	0x3d5f800d	0.054565478
126	0x3dc8d6e1	0.0980661
127	0x3d57831a	0.052615263
128	0x3dab103c	0.08352706
129	0x3d7e035f	0.062014934
130	0xbd7b4a04	-0.061349884
131	0x3dfe3360	0.12412143
132	0x3e11016a	0.14160696
133	0x3df33092	0.118744984
134	0x3ccafda1	0.024779143
135	0x3e067ecc	0.13134307
136	0x3e448db3	0.19194679
137	0xbd0de876	-0.03464552
138	0x3dc0db3e	0.09416817
139	0x3e763b57	0.24046074
140	0xbdec51af	-0.115390174
141	0x3ca67a22	0.02032191
142	0x3d953c61	0.07286907
143	0x3dbf4e73	0.09341135
144	0xbd4adf5e	-0.049529426
145	0xbdc10b5e	-0.09425996
146	0x3dec624f	0.115421884
147	0x3d6005c8	0.054693013
148	0xbd9b0e00	-0.0757103
149	0xbdf0cfe9	-0.11758406
150	0xbe3c644f	-0.1839764
151	0xbdd9bf12	-0.10632147
152	0x3d6092fb	0.05482767
153	0xbdf96d1b	-0.12179013
154	0x3d9751b8	0.073886335
155	0xbdebbb99	-0.11510391
156	0x3d088c79	0.03333709
157	0x3bda9550	0.0066706315
158	0xbe147b02	-0.14500049
159	0x3da9741b	0.082740985
160	0xbda75d41	-0.08172084
161	0xbc9023e1	-0.017595233
162	0x3cf87b6e	0.030332293
163	0x3c83074a	0.015994687
164	0x3b6d5f13	0.0036219999
165	0x3cceef45	0.025260577
166	0xbca94279	-0.02066158
167	0xbdddd6e5	-0.108320035
168	0x3c128711	0.008943335
169	0xbdfe0842	-0.12403919
170	0x3e0b9114	0.13629562
171	0xbd2e743e	-0.042591326
172	0x3b73992e	0.003717016
173	0xbd947f41	-0.07250834
174	0xbc9a09db	-0.018803528
175	0x3d2d4e29	0.042310867
176	0x3d8e75e7	0.06956082
177	0x3da963cd	0.082709886
178	0xbd8350e5	-0.06411914
179	0x3dd05057	0.101715736
180	0xbaa73bb7	-0.0012758885
181	0x3d7512b1	0.05983228
182	0x3d544626	0.05182471
183	0xbe0f6da3	-0.14006667
184	0x3ca429df	0.020039497
185	0xbcb0e5af	-0.021593897
186	0xbb8ca085	-0.0042915964
187	0xbe3be7a0	-0.18350077
188	0x3d2388d8	0.039925426
189	0x3cfc54d5	0.03080217
190	0x3e09733e	0.13422868
191	0x3dc4676e	0.0959004
192	0x3ded4b7a	0.11586662
193	0xbdaa8c8d	-0.08327589
194	0x3e0a7f7b	0.13525192
195	0x3dcc0dda	0.099635795
196	0x3bc6fe20	0.0060727745
197	0x3d84ec62	0.06490399
198	0x3d85d4c2	0.06534721
199	0x3d696ba3	0.056987416
200	0xbc6eca64	-0.014574621
201	0x3c6990b6	0.014255693
202	0x3e5c9fe4	0.21545368
203	0x3e18e42b	0.14930789
204	0xbe0d63e4	-0.13807636
205	0x3e433c2e	0.19065925
206	0x3d954765	0.07289008
207	0xbd601b3b	-0.05471347
208	0x3dcc7097	0.09982412
209	0x3d72a6f1	0.05924124
210	0x3d92e1c7	0.0717197
211	0x3ee2463e	0.44194216
212	0xbcc53355	-0.024072329
213	0x3d80db46	0.06291823
214	0xbd0126e7	-0.03153124
215	0xbd2c534b	-0.042071622
216	0xbca88868	-0.020572856
217	0x3da1f8ce	0.07908784
218	0x3d9a09fa	0.07521434
219	0xbda361b4	-0.0797762
220	0x3dc8e1aa	0.09808667
221	0x3e73b9bd	0.23801322
222	0xbd2fc5b5	-0.042913157
223	0x3e5cf7cd	0.21578903
224	0x3e475b31	0.1946838
225	0xbb52dea5	-0.0032176164
226	0xbdbac331	-0.09119261
227	0x3c20244e	0.009774281
228	0x3c8a3a0c	0.016873382
229	0xbd5fc9ff	-0.054635998
230	0x3e1bea97	0.15226208
231	0x3bf1b0c6	0.0073758094
232	0x3e3e19a3	0.18564467
233	0xbd9f0c74	-0.07766047
234	0x3d341118	0.043961614
235	0x3ddd832d	0.108160354
236	0xbdd497f2	-0.10380544
237	0x3dd7cf58	0.105375946
238	0xbe3eac60	-0.18620443
239	0xbcca2e6f	-0.024680344
240	0xbc482b58	-0.012217365
241	0xbdc2c277	-0.095097475
242	0x3e0c27ff	0.13687132
243	0x3dce886b	0.100846134
244	0xbdd842d3	-0.10559621
245	0x3d8ca8f7	0.06868165
246	0xbc63eb02	-0.013911011
247	0x3d9891ad	0.074496605
248	0xbc950855	-0.01819245
249	0x3d253468	0.04033318
250	0x3da845cc	0.08216438
251	0x3e42e88d	0.19034024
252	0xbdc0234a	-0.09381731
253	0x3c86bb0a	0.016446609
254	0x3e59235c	0.21204895
255	0x3c202658	0.009774767
